src/results/subject_P10/best_model.pth (torch, 481333 bytes, 15 tensors)

input_linear.weight f4 [40, 40]
00000000: c0af e1bb 90f3 d73c 2d0c 02be 7caa aa3d
00000010: 6fcd 0bbe ac8d 41bd ec50 06be bb0c 163e
00000020: 32b4 f7bd 28c1 54bd be0a 10be 882b 383d
00000030: c04b 0cbc 9471 aa3d 6ee6 e63d b452 bb3d
00000040: bec7 e13d 77b4 f1bd f58b 063e 0dbb 1ebe
00000050: 92ff c83d b0b8 0f3d 0d5c 03be 8738 1abe
00000060: 38f8 f03c c0d5 213b 40bb 623b c6db 8bbd
00000070: 0cc6 183d f5e5 21be da62 ce3d c7ab 9fbd
00000080: 60f8 e7bc 698f 1dbe 3419 7c3d c8bb 683d
00000090: 0002 443a b100 0d3e 244a fcbd de60 e63d
000000a0: 0f37 043e 8e6e c8bd 800d 923a 99d1 1d3e
000000b0: 32ea cebd f10f 99bd 431b 0dbe 0f66 033e
000000c0: 92ba 33bd 24c7 803d ca62 2cbd c87a 00be
000000d0: 5e73 a13d b7b7 f1bd baac 4cbd 048c cabd
000000e0: 503e 31bc 37be 1e3e 0a74 cabd 2c50 0cbe
000000f0: 8b4a c3bd 8ef6 8f3d 7296 1abd 283a 99bd
00000100: f95c bebd 832c b3bd 266b d03d f403 af3d
00000110: 220a cd3d 8051 feba ca3e 64bd 19a4 fcbd
00000120: 95ba 8dbd fcca babd 9495 72bd 2417 eebd
00000130: 4ed2 7dbd ec5d 113d 6cde eabd 4c1b 3f3d
00000140: 061a 44bd a0ba 3e3c 4697 d83d 4e3a 1dbe
00000150: c01f bc3c 06ad 873d 09f8 eabd d82f f2bd
00000160: b041 883c 68f3 66bd 504e 593c 01c9 163e
00000170: c6bf ec3d 484e 973d 9417 89bd e075 21bd
00000180: 355b 95bd 09d6 febd 42d8 de3d 613e 1a3e
00000190: e037 bebb f0e4 133d 9408 14be 5412 29bd
000001a0: 1a3a ce3d fe45 22bd a493 2c3d 2a48 42bd
000001b0: 4844 85bc bd27 1ebe 94fc 5f3d cda3 aabd
000001c0: b2be b73d 9869 adbc ac65 69bd 41b1 febd
000001d0: 0087 f73a 9638 a9bd f258 eabd 5683 df3d
000001e0: 3982 1abe 3cca 8c3d ce12 a73d 9897 7f3d
000001f0: 0f4a 0b3e 4863 533d 0027 013b fa05 fc3d
00000200: 069c dc3d 884f b1bc 34ce a6bd 00ba b9bb
00000210: 7229 ca3d 38b0 d6bc a09f 2cbc b294 c03d
00000220: a83f ecbd e0ce 993d c04f 3ebd f2a8 eb3d
00000230: 8638 82bd a0e2 e4bd 99bf 1e3e 5849 963c
00000240: 854f 0d3e 0269 acbd 83dc 1b3e 3ec6 87bd
00000250: 20a9 edbb ffae ffbd be81 81bd b045 2fbc
00000260: 6349 193e 2886 d43c ff7a 10be 8038 1d3c
00000270: 5cb4 a33d 357e 013e c8a7 bc3c b5e7 aebd
00000280: 28cb 973d 6679 de3d 2bf6 1cbe 2857 b23d
00000290: 92e5 953d b05d 8abc b9d5 073e fe4e f4bd
000002a0: 7aa1 813d 7838 ed3c 8be0 173e eb1c b8bd
000002b0: 9ab3 b03d 6236 ff3d 80c1 32bd d8f0 9f3d
000002c0: 3084 64bc f9f7 013e 278f 1b3e 0a1d 1dbe
000002d0: 8058 a0bd e3d3 033e 4c6c 923d 8002 a1bb
000002e0: 1921 203e 3516 c0bd deca 0bbd 40c0 63bc
000002f0: 6a6c f03d 0016 93b9 2691 81bd fa33 dd3d
00000300: b096 793c 5662 c93d c547 093e d80a eb3c
00000310: a661 8c3d eede 7dbd 041d 0abe befc 823d
00000320: 7078 9b3d a151 b5bd a52c c4bd 2049 f13b
00000330: 56ff 01be 7217 8bbd e6a1 e03d 0053 b43c
00000340: d71a 1a3e 787e 6e3d 9577 173e 4aef e73d
00000350: 1780 c9bd 789c b03c 100d d33c a445 0cbe
00000360: 1802 b33c dbe7 b3bd f6d4 b13d 3060 0c3c
00000370: 8534 19be f856 c8bc 00cc 1c3d f2a4 29bd
00000380: 60bd 973c 860e d53d c73e dcbd 4a2d a7bd
00000390: 1d61 c3bd 1bf0 1e3e 15d1 dfbd d606 85bd
000003a0: 9544 fbbd eb73 dbbd 6834 a5bc 20ba efbb
000003b0: 4029 8fbb 4422 643d 8835 9e3c b832 9e3d
000003c0: a03f 4fbd 4efc c93d 58de ab3d f98b 103e
000003d0: bc1a 16bd 885c 1b3d e0ff 403d 4e5d 0ebe
000003e0: 056b 1e3e e2e3 aebd 73eb f6bd 906d 21be
000003f0: c733 b2bd 327f bdbd dc8d 03bd 22a5 ec3d
-0.006887406 0.026361257 -0.12699957 0.083332986 -0.13652585 -0.04725425 -0.13116807 0.14653294
-0.120949164 -0.05194202 -0.14066598 0.04496339 -0.008562982 0.083224446 0.1127442 0.09146634
0.11024426 -0.11801999 0.13139327 -0.15501042 0.09814371 0.03508824 -0.12828083 -0.15060626
0.029415235 0.0024694055 0.0034596473 -0.06829028 0.037298247 -0.15810378 0.10077448 -0.07796436
-0.028316677 -0.15386738 0.061547473 0.056819707 0.00074771047 0.13769795 -0.12318829 0.11248945
0.12911628 -0.09786712 0.0011142939 0.15411986 -0.10103263 -0.07473744 -0.13779931 0.12831901
-0.0438791 0.06287983 -0.0420864 -0.12546837 0.07883333 -0.11802619 -0.049969412 -0.09889987
-0.010818079 0.15502249 -0.09885414 -0.13702458 -0.09535702 0.070294484 -0.037741132 -0.074817955
-0.09295077 -0.08748724 0.10176687 0.08545676 0.10011698 -0.0019402951 -0.055723943 -0.12335987
-0.06920353 -0.091207474 -0.05922468 -0.116255075 -0.06196814 0.03548996 -0.11468205 0.04665689
-0.04787638 0.011641175 0.10575728 -0.15354273 0.022964358 0.066247985 -0.1147309 -0.11825532
0.016632885 -0.056384474 0.0132633 0.14725114 0.115600154 0.07387978 -0.0669395 -0.039419055
-0.07292787 -0.12443168 0.10881092 0.15062858 -0.0058050007 0.036107004 -0.14456397 -0.041277245
0.10069676 -0.03961753 0.04213299 -0.047432102 -0.01626791 -0.15444846 0.054684237 -0.08332024
0.08971919 -0.021168515 -0.056981727 -0.12436152 0.0018884838 -0.08262746 -0.11442746 0.10913722
-0.15088739 0.06874511 0.081578836 0.06240043 0.1360247 0.051608354 0.0019707084 0.123058274
0.107719466 -0.021644369 -0.08144799 -0.005667925 0.09871186 -0.026207075 -0.010536104 0.094033614
-0.11535579 0.075101614 -0.046462774 0.11506833 -0.06358437 -0.11176038 0.15502776 0.01834552
0.13799866 -0.08418466 0.15220837 -0.066296086 -0.0072528273 -0.1248455 -0.063235745 -0.010697767
0.14969401 0.025942877 -0.1410942 0.00959599 0.07993385 0.126458 0.023029223 -0.08540288
0.07411796 0.10862999 -0.1532828 0.0870803 0.07319178 -0.016890377 0.13265122 -0.11929129
0.06329627 0.02895759 0.1483175 -0.08989891 0.08628006 0.124615446 -0.043641567 0.07809609
-0.013947532 0.1269225 0.15191327 -0.15343109 -0.0782938 0.12873797 0.07149562 -0.004913628
0.15637626 -0.09379236 -0.034129016 -0.013900816 0.11739428 -0.00028054416 -0.06326513 0.10800929
0.015233681 0.09833209 0.13406284 0.028691694 0.068545625 -0.06198018 -0.13487631 0.06395863
0.07591331 -0.0885346 -0.09578828 0.0073634535 -0.12695059 -0.06791581 0.1096838 0.022012234
0.15049301 0.05822608 0.1479171 0.11324938 -0.09838884 0.021558985 0.025763065 -0.13698441
0.021851584 -0.08784457 0.08683197 0.008567855 -0.14961441 -0.024455532 0.038280487 -0.04141707
0.018522918 0.10403161 -0.10754161 -0.08162935 -0.09540007 0.1552128 -0.10928551 -0.064954445
-0.1226894 -0.10715469 -0.02016659 -0.007315889 -0.004368931 0.05569674 0.019312635 0.077245176
-0.050597787 0.098625764 0.08392018 0.14115895 -0.03664659 0.03793004 0.04711902 -0.1390278
0.15470512 -0.08539559 -0.12056627 -0.15764451 -0.08701282 -0.09252776 -0.03211771 0.11554934

input_linear.bias f4 [40]
00000000: 50c9 c5bd f9e5 1f3e ad2c e6bd 31f3 1c3e
00000010: a239 db3d be71 d6bd 2153 143e 64d0 0abd
00000020: 0020 a93d e000 cbbc aa67 d43d 00f7 ce3b
00000030: 60c2 b8bb 50ee d8bc 8844 91bc 19f5 1c3e
00000040: 52d5 853d 9142 0f3e 3958 a8bd 4ae3 c73d
00000050: ec73 983d f012 cb3c d034 ebbc 7c86 703d
00000060: daeb 2bbd a0a8 b73d ce17 92bd 8287 f9bd
00000070: dee9 20bd c84d d9bd babd ea3d 5c2d fdbd
00000080: e480 453d c8f8 b23d 8c96 2f3d 0025 b6bd
00000090: af58 a6bd 4209 dd3d 28f8 8dbd 28e8 2e3d
-0.09657538 0.15615071 -0.1123899 0.15327145 0.10704352 -0.10470913 0.14484836 -0.033890143
0.08258057 -0.02478069 0.10371335 0.006316066 -0.0056384057 -0.026480824 -0.017732874 0.15327872
0.06534828 0.13990237 -0.08219952 0.09760149 0.07443985 0.024789304 -0.028711706 0.058722004
-0.041972972 0.089677095 -0.07133447 -0.12184049 -0.039285533 -0.10610539 0.11461969 -0.12362167
0.048218623 0.087388575 0.042868182 -0.08893776 -0.08122384 0.107927814 -0.06932098 0.04270187

lstm.weight_ih_l0 f4 [600, 40]
00000000: 65ea babd 4b75 333e cd13 9c3e ff40 d13e
00000010: 9c87 523e 5aa3 953e 02de 823e 3318 9ebe
00000020: ca5c a7be 48f0 b9be 3490 9e3e b70a e43d
00000030: 9b35 573e 62cd a63e ad43 8cbe c012 37be
00000040: d704 783e 1dd6 8c3e 7bb6 8b3e cb3d ab3e
00000050: 3320 863e fea5 ad3e 7d1f 813e 76a0 debd
00000060: a02b 933e c47a 91bd b005 e4bd fd0d 343d
00000070: 3fe7 aa3e 2bf6 35be e049 a13e be1f aa3e
00000080: 175a 713e 83ee 923e 99d3 7a3e 9acc b6bd
00000090: 4e09 a93e 3557 c53d 69a9 68bc 9561 b4be
000000a0: d87e 023e 80b7 30be 243c 44be ff09 c2bd
000000b0: 6a76 cbbe bdbf 47be 0519 7cbe 14bc 833e
000000c0: 9d1f 5e3e 47b5 5f3e b066 08be f6e4 043e
000000d0: bd75 acbe 9b1e 75be 3d14 803e 6e49 553e
000000e0: d251 fcbd e67e d6bd 0e44 42be 442e 6bbe
000000f0: 214d 39be 2771 61be f803 8c3e fe62 0a3e
00000100: 823a 33be 4146 56be 03f4 eabc f8a6 45bd
00000110: 6c48 15be 886b b33e 645f d7bd 3393 57be
00000120: fdb7 2abe 0304 c1bd 7dc4 563e cdef 8d3d
00000130: 92f3 78be 5895 37be 6793 15be 4ac4 643e
00000140: af3c d3be a0f8 a93e f3f7 a93e 57ae 033e
00000150: 6719 883e 8127 cb3e a0aa b93e fd8f a2be
00000160: 34e5 bfbe e107 a8be 6959 9f3e 9832 abbd
00000170: e9fd a63e 047a cb3e b5ea a3be 4899 a33e
00000180: 6307 b3be 0e0f b03e a84c a43e 7842 a43e
00000190: 1053 cf3e 084f ad3e a094 063e 30ab 9e3d
000001a0: 9cfe c73e aee6 7bbe 8e8b f13e bc2a e53e
000001b0: a43a b63e e60c 02bc 4951 b13e 6b22 b13e
000001c0: 7cf8 c53e b3d6 a1be 9389 c93d 450b d43d
000001d0: 56c2 cc3e ddd2 4dbe f955 0a3c a864 c0be
000001e0: 2237 22bf 2bd1 0b3f 291d 713b 95de 8d3e
000001f0: c515 803f c334 ebbb 901e 04bc 52dd e83c
00000200: cd57 f93c 35da 8dbb cf85 113d a14f ac3e
00000210: 5c37 2abe 8c9a bdbc aa33 15bf 9bb1 b7bf
00000220: 2a14 3ebf b0ac f03d f24f c23d c354 55bd
00000230: b85a dcbb 7351 86bd c9ae 97bd b18e ca3d
00000240: 248a 28bd 6fc6 693e 8b4b 57be 1b59 ecbd
00000250: c4d4 3e3d 7edf 5cbe 0764 c23c b90e edbc
00000260: 90af 9d3d aa99 45bf 1e42 4c3c b79b 313e
00000270: ea4a b2bd bac8 e03e bd88 883e c924 1bbf
00000280: 493c 0c3f ca27 acbe 12bc 3abe e325 15bf
00000290: f294 bebe 83e8 3ebe d425 64be 8b2b 603e
000002a0: bb60 6c3e b8fb 673e a971 c3be 150f 12bf
000002b0: 6326 9e3e 6ef1 81be 42a3 933f 84dc 213d
000002c0: fd54 c3bd ee5a bfbe 1a9b c3be d3d8 26be
000002d0: 6c6e 21be 9f23 5bbe 4574 83bd 6f79 d6be
000002e0: bf2e 58be 3d92 333f d1ee d6bc 6202 3ebd
000002f0: 15c9 bebe 5347 8a3c a600 d4be 6bdd 45be
00000300: dd94 e7be 1ac9 e0bd c599 6fbc 151e f1be
00000310: 0ce0 54be b24b 103d d260 723e 6df0 8c3f
00000320: 3690 57bd 296b a4be 13b2 9abd ffce 9a3e
00000330: 0648 963d e62c 81bd e599 eebd 8f86 cd3d
00000340: 1159 a93d 0e59 a13d 7451 5ebc 60af 483d
00000350: be86 49be 5cfc 05be 8961 5bbe 07a4 d7be
00000360: 893a 11be 2186 85bc 3afa d23c 014f 81bd
00000370: 57ac f9bd bb85 0bbe f427 d3be c776 b93e
00000380: 151f 63bd 0858 ddbe 9ec3 0d3e 5d19 6c3d
00000390: 2aa9 a83c 04e4 dbbe 90ad 103c 7d46 06be
000003a0: bbbc 483d 0e28 96bd 5741 c5be cb16 ba3e
000003b0: 3876 c4bd e3a7 4cbd 798e 5f3e c1f5 87be
000003c0: a9f5 6e3f 2c6c 003e 7024 9cbe 5d69 b5be
000003d0: 42d3 2abe afd3 83be 25bd 8cbe 7525 683e
000003e0: 4e63 5d3e b0da 9c3e 4865 84be 98eb 4cbf
000003f0: 0739 573e abab 87be d0ee 613f c83f a43e
-0.091267385 0.17525212 0.30483857 0.408699 0.20559543 0.2922619 0.25560004 -0.30877838
-0.3268798 -0.36316133 0.30969393 0.11134856 0.21016543 0.3257857 -0.27395383 -0.17878246
0.24220596 0.27507105 0.2728766 0.33445582 0.2619644 0.33915704 0.25219336 -0.10870449
0.2874422 -0.07103494 -0.11133897 0.043958653 0.33379552 -0.17769687 0.31501675 0.33227342
0.23569523 0.28697595 0.2449478 -0.089257434 0.3301491 0.09635774 -0.014200547 -0.352307
0.127437 -0.172575 -0.19163567 -0.09474563 -0.3973878 -0.19506736 -0.24618919 0.2572943
0.21691747 0.21846496 -0.13320422 0.12977967 -0.33683577 -0.23937456 0.2501544 0.20828792
-0.123202935 -0.10473423 -0.18971273 -0.22966868 -0.18095829 -0.2201582 0.27346778 0.13514325
-0.17502788 -0.20925237 -0.028680807 -0.048254937 -0.14578408 0.35042977 -0.10516241 -0.21052246
-0.16671748 -0.09424593 0.20973392 0.06930504 -0.24311665 -0.17928064 -0.14607011 0.22340503
-0.41257235 0.33197498 0.33196983 0.12859474 0.2658188 0.39678577 0.3626299 -0.3175048
-0.37479556 -0.3281851 0.31122902 -0.08359259 0.32615593 0.39741528 -0.32015005 0.31952882
-0.34966573 0.34386486 0.32089734 0.32081962 0.4049306 0.3384936 0.13142633 0.07747495
0.3906144 -0.24599716 0.47176784 0.44759166 0.35591614 -0.007937646 0.34632328 0.3459657
0.3866614 -0.31609115 0.09840693 0.10353712 0.39992017 -0.20099969 0.008443349 -0.37576795
-0.63365376 0.5461604 0.0036791062 0.2770888 1.0006644 -0.0071779205 -0.008063927 0.028425846
0.030437374 -0.004328991 0.035528 0.33654502 -0.1662268 -0.023144983 -0.5828196 -1.4351076
-0.7424952 0.117516875 0.094879046 -0.05208279 -0.0067246817 -0.06558504 -0.074063845 0.098904975
-0.041147366 0.22829603 -0.21024911 -0.11540433 0.046589628 -0.2156963 0.023729337 -0.028937684
0.076995015 -0.771876 0.012466935 0.17344557 -0.08705695 0.43903142 0.26666823 -0.60603005
0.5477949 -0.33624107 -0.18235806 -0.58260936 -0.3722301 -0.18643384 -0.22280055 0.2189161
0.23083775 0.22654617 -0.38172653 -0.57054263 0.30888662 -0.2537951 1.1534197 0.03951694
-0.095376946 -0.3737406 -0.3820427 -0.1629365 -0.15764779 -0.21400307 -0.06418661 -0.4188952
-0.21111582 0.70145017 -0.026236923 -0.04638899 -0.37262788 0.016879713 -0.41406745 -0.19322746
-0.4523076 -0.10975857 -0.014624064 -0.47093263 -0.20788592 0.03522844 0.23669747 1.1010872
-0.052627765 -0.32113007 -0.07553496 0.3023605 0.07337956 -0.06307392 -0.11650447 0.10035431
0.08268941 0.07878314 -0.013569225 0.048995376 -0.19680306 -0.13084549 -0.21423925 -0.4211733
-0.14182486 -0.01629931 0.025754083 -0.06313897 -0.12191074 -0.13625233 -0.4124142 0.36223432
-0.055449564 -0.43231225 0.13844153 0.057641376 0.020588476 -0.429474 0.008830443 -0.13112827
0.049008112 -0.073318586 -0.38526413 0.36345515 -0.09592861 -0.049964797 0.21831693 -0.26554683
0.933436 0.12541264 -0.3049655 -0.35431948 -0.16682151 -0.2574744 -0.27488056 0.22670539
0.21619913 0.30635595 -0.2585852 -0.8004699 0.21017848 -0.2649816 0.88255024 0.3207991

lstm.weight_hh_l0 f4 [600, 150]
00000000: 238e 01bd 03a5 1f3e eb92 2cbe fef1 f5bd
00000010: a8a5 133e ca13 54be 7cc8 1a3e 0d33 33be
00000020: d314 89be 7646 be3d a737 923e 8f3c 403e
00000030: f4dd 5bbe b0ee ebbd 9a06 933e 2406 393e
00000040: eef7 5fbe 2d7e 09be 7d39 51be 1234 6ebd
00000050: 75d1 4dbe 0cd9 493e f20c 4c3e fff8 53be
00000060: 6539 5dbe 72b7 893e 61eb 55be 42ef 36be
00000070: 1697 943d ca00 34be 184f 993e 6fbb 82bc
00000080: f020 f7bd d441 a03e 97f6 fdbc 4f8a 98be
00000090: 3d9b b4bd 4726 37be e71e 81be caa2 b83d
000000a0: 16f7 9abc f76f 723e cb3e 073d e7ac 043e
000000b0: dbb7 8b3e c911 ec3c c674 963d 8658 b53e
000000c0: 01c2 85be b2e3 30be 3190 2b3e 313d 7bbe
000000d0: 0736 8a3e f8c5 7bbc eff7 543c 4c89 b33d
000000e0: 1102 293c 6549 43be 1901 523d 34f4 cebd
000000f0: a53c d2bd 775e 893e c813 6e3e a197 e9bd
00000100: 0be4 12be 01a5 2dbe 9927 23bd e28d a1bd
00000110: 9edb cfbd 97db 7fbe 65be c33e 3c28 053e
00000120: 30ce 6a3e 3727 6bbe cf27 86be dc7e b3bd
00000130: f3b6 4c3e c557 5dbe 36b2 20be a4e2 69be
00000140: 6ea1 7fbe 8b16 16bd 526b 4abe 4e45 a9bd
00000150: 1501 3f3e bb4a 863e 4f6f 70bd a4a3 31be
00000160: b458 873e df5a babc 0c36 77be dce5 773d
00000170: caf4 b6bd 3420 39be 57ea d73c 73a4 103f
00000180: 1308 123e 4474 783d 6217 40be 6c1d a33c
00000190: c839 b33d f76f 413e 28db 5c3e 34c2 15be
000001a0: 6af4 ae3e 6469 db3d 3445 3abe c3a9 d8bd
000001b0: fc2b f03c 06bc 773e 2788 31be 7872 823e
000001c0: b0b5 593e f686 5ebe 4c67 413e 0855 b83c
000001d0: bfd5 8bbe 4fe7 35be cbef 54be c4b8 4c3e
000001e0: 6ddc 9a3e 43dd 24bc 9252 843e 7777 743e
000001f0: 7efd 443e 3db3 2dbe 787d c23e 8ce6 8c3e
00000200: 4453 3c3d 83e4 22be a16d 09be 7980 f73d
00000210: a4c8 b03e 9bbe dbbd 236c 1a3e 3216 303e
00000220: 012b 3dbd 8cb2 75be 6fc3 923e 14e9 703e
00000230: 7e84 cabe 2488 433e 1763 eabd cad2 853d
00000240: ba6e 283e f08b 753e c7d0 a03d 0e37 49bd
00000250: 658b a63e a9c9 a93e 612f 063f 00e0 613d
00000260: 21b5 d53e aff5 e43e f028 d8be 728e 053f
00000270: 2d34 e2be 8520 f83e 249e 1a3f 4390 d1be
00000280: b882 23bf e6e1 913c 299f 193f e305 08bf
00000290: d0ca 38be 0735 c9be 6cd0 c03e b4a4 0a3f
000002a0: b217 023f e749 063f ef77 163f 1d7c 7dbe
000002b0: be5f 77be 9d24 f93e 8dac fa3e b3c6 70be
000002c0: 3df7 d23e 59ff c73e 94d4 35be 7462 cf3e
000002d0: c012 c4be c31e 823e 37ea 89bc 02ef e7be
000002e0: 5c39 1b3f fa47 81be fae1 a33e 69cc ad3e
000002f0: 5caa d23e 5f31 20bf 5ec2 033f 6e52 08bf
00000300: 60e4 503e 0eb2 07bf e80c 843d d228 3f3e
00000310: cca0 f6be 9793 c13e 867c f13e 5038 c93e
00000320: 04ed b0be a48f 1e3f 645b c4be b28a 33bf
00000330: 11ac 27bf 5f71 96be 56e2 653c 11d7 173f
00000340: b44c 96be 9572 1abe 302b ad3e 81a3 b1be
00000350: 2d8e eebe f10b 033f 5d20 203f 7e89 0d3f
00000360: f0d2 a43e b329 d63e ff09 023f 5d90 e73e
00000370: 6602 f1be 0f41 b8be b6f1 f7be 8340 163f
00000380: 6186 ea3e 2ba1 863e 3c45 0ebf 025e 053f
00000390: 8316 a63e 8830 f83e 13d4 ffbd 302b 083f
000003a0: 83b8 1b3f b037 213f a694 5bbe 27d5 e3ba
000003b0: a669 8c3e 54ae 013f ca38 f6be 8c16 503e
000003c0: 7e6e 233f 15c9 1cbf e7a3 4d3e dcf0 a23e
000003d0: 38ac c43e 7432 a03e f9e9 92be 8b61 12be
000003e0: 8b40 333f 6ee0 01be c046 263f 6c07 46bd
000003f0: 22a9 fbbe ad89 dd3e c894 eebe 98af 06bf
-0.031629693 0.1559029 -0.1685292 -0.12009047 0.14418662 -0.20710674 0.15115541 -0.17499943
-0.267737 0.09290783 0.28558084 0.18773101 -0.21471387 -0.115201354 0.28715974 0.18068749
-0.21871921 -0.13427038 -0.20432086 -0.058155127 -0.20099433 0.19711703 0.19926813 -0.20700453
-0.21603926 0.2689777 -0.20890571 -0.17864707 0.0725538 -0.17578426 0.29943156 -0.015958516
-0.12066829 0.31300223 -0.031001372 -0.2979302 -0.08818672 -0.17885695 -0.2521889 0.090154245
-0.018916648 0.23675524 0.03301887 0.12956582 0.27288708 0.028817074 0.073464915 0.354191
-0.26124576 -0.17274359 0.16754223 -0.24535061 0.26994345 -0.015367024 0.012998565 0.08766422
0.010315434 -0.19070967 0.051270578 -0.10105172 -0.10265473 0.26829883 0.23249733 -0.11405874
-0.14344804 -0.16957475 -0.039832685 -0.0788839 -0.101493105 -0.2498611 0.38231197 0.1300363
0.22930217 -0.22964178 -0.26202247 -0.08764431 0.19991665 -0.21615513 -0.15692982 -0.22840363
-0.24963924 -0.036642592 -0.19767502 -0.08265172 0.18652757 0.2622889 -0.058699902 -0.1734758
0.26434863 -0.022748409 -0.24141711 0.060521945 -0.089334086 -0.18078691 0.02635686 0.5650093
0.14260893 0.060657755 -0.1875892 0.01991149 0.08751255 0.18890367 0.21567976 -0.14624864
0.34170848 0.10713461 -0.18190461 -0.105792545 0.029317848 0.24192819 -0.17337094 0.25477958
0.21260715 -0.21731171 0.18887061 0.022501484 -0.27311513 -0.17764018 -0.20794599 0.19992357
0.30246297 -0.0100625185 0.25844246 0.23873697 0.19237325 -0.16962905 0.3798635 0.27519643
0.045977846 -0.15907483 -0.13420726 0.12085051 0.34528077 -0.107297145 0.15080313 0.17195967
-0.04618359 -0.23993891 0.2866473 0.23526412 -0.3955421 0.19094902 -0.11444681 0.065343454
0.16448489 0.23979163 0.07852321 -0.04912477 0.32528225 0.33161667 0.52416044 0.055145264
0.41739753 0.44718692 -0.42218733 0.5217048 -0.44180432 0.4846231 0.60397553 -0.40930375
-0.63871336 0.017807912 0.60008484 -0.5313398 -0.18046117 -0.3929827 0.37659013 0.5415757
0.50817406 0.52456516 0.58776754 -0.24754377 -0.24157616 0.48660746 0.4895977 -0.23513298
0.41204253 0.39062002 -0.17756873 0.405048 -0.38295555 0.25414094 -0.016835315 -0.45299536
0.606344 -0.25250226 0.32008344 0.33945015 0.411456 -0.62575334 0.51468456 -0.5325078
0.20399618 -0.53006065 0.06447774 0.18667915 -0.48169553 0.37807915 0.47165316 0.39300776
-0.3455583 0.6193793 -0.38350976 -0.7013351 -0.6549693 -0.2938337 0.0140310135 0.5931254
-0.29355395 -0.15082772 0.33822012 -0.34695056 -0.46592847 0.51190096 0.6254938 0.5528792
0.32192183 0.4182869 0.507965 0.45227328 -0.47072142 -0.35987136 -0.48426598 0.5869219
0.45805648 0.26294836 -0.55574393 0.5209657 0.3243905 0.48474526 -0.12491622 0.531909
0.6082842 0.629756 -0.21443424 -0.001738225 0.27424353 0.5065663 -0.48090202 0.20321101
0.6384047 -0.61244327 0.20082055 0.31824386 0.38412642 0.31288493 -0.28694132 -0.14295022
0.7002036 -0.1268327 0.64951706 -0.04834692 -0.49152476 0.432691 -0.46597886 -0.52611685

lstm.bias_ih_l0 f4 [600]
00000000: eeab b33e 7d0b 2cbe 3633 a53e b01f 0a3b
00000010: 9223 53be bec0 92bd 1ba9 9fbe 4faa 893e
00000020: 8a85 993e 05d1 1cbe c722 31bf a3d8 873e
00000030: ebda 083e c9ab 55be 4bfa 00bf 7426 913d
00000040: ef5a 36bd fbc5 54be d723 a63d ed4d 2a3f
00000050: 3c6b 173c 9fd9 8e3d 486d 963d 6809 8f3e
00000060: 82ca 9d3b 006d 2cbd 8f1d 093f 83e1 63be
00000070: 4d3c 66bd 5c26 a0be 52f8 cebe 8c61 d8bd
00000080: a514 dabe aa01 6bbe 87e5 183f 8b79 fa3e
00000090: 9985 b2bd efec f53d 10d1 b33e add8 933e
000000a0: 6f39 a13e b71c f2be 53b7 e73d d402 203d
000000b0: 97bb 1a3e 4d79 28be 42a6 debd aa9e 01bf
000000c0: 2487 aa3e d1ea 053e 195f 703e 5cc6 a4bd
000000d0: a213 7f3d 66d6 fd3d ce66 423e bd84 c93d
000000e0: afaf d7be 5ab6 b73e 09bb 84be 3a1d 083e
000000f0: 37cd 49bc e7d4 31be 23b3 4e3e 481d 023f
00000100: c3ad 933e 5b5d a13e 66f8 433f 0adf a6bd
00000110: a1d5 1d3e 3a9c 553e a554 03bf e5eb 993c
00000120: c06c 073f 5db0 d53d 85a7 e73e b012 d6be
00000130: ead8 0dbe 83e2 ae3e ff77 443c ac06 da3e
00000140: cb1e 363e 4915 313e 8e5c a43e 348b b63e
00000150: ac0a 58be 7fcf 9d3e 0628 c93e 1609 853e
00000160: aa7a 3abe 0a4f a5be 2e0a 0a3e 71bd bf3e
00000170: b06d c83d e2ff 6a3e 4208 843e b3d0 72be
00000180: 661f 6ebd 21f9 533e a89b d73e 24ef d93d
00000190: 7312 983e bde8 a1be 0ece 2b3e e99f bcbd
000001a0: e505 77be fb73 fdbe 2582 113f 7d50 ccbd
000001b0: c2ed 2cbd 124a a3be 3b84 b83e 0ef1 49bf
000001c0: 56ed 47be ca75 0c3f a8cd 8c3e b480 6a3d
000001d0: 309e 4b3e 721e 9cbe 737a 90bd d2dc de3e
000001e0: 0a87 c43e 31c3 7ebc c2f8 053f a2cb 4bbe
000001f0: 8916 0e3e 40a7 b03d 0485 3cbf 1ec1 02bf
00000200: 5c1d d83e 3bc6 893d e616 043f 1803 113e
00000210: d6c2 f3be 808b 27bd f049 103d 41d1 c93d
00000220: fc5e 0f3f a5a6 a93e 5250 7e3e 7325 fcbd
00000230: 0e1d 183f 10e8 0abe bc6d 563e 6153 f1be
00000240: 45ba 16bd ac84 16bf 9124 1cbd 8e2a 843e
00000250: 1a58 c03d 2099 2b3e 2890 e33e 12f8 6e3e
00000260: 1b13 6c3e 15f9 61be a626 90be 522f 2d3e
00000270: f49b 123f 7ae1 c63e 7691 8a3e 85c8 78be
00000280: 7650 833e 2655 56be f069 e43e c183 61be
00000290: 7da6 58be 99d1 dabe d4bc 013e b131 363b
000002a0: eaa9 543e db9a c3bb b220 933e 4d0a 98bd
000002b0: 9416 6bbe 9c76 4fbe d3da 523e e71d c7be
000002c0: 0b0e 463f 00be b2be 48d2 e9be 3309 9b3e
000002d0: edac 19be b591 9abe 8b5a 85be 049a b63e
000002e0: e277 bb3e 55b5 46be a1e5 be3e 5226 0ebe
000002f0: a760 223e 6356 11bf cb51 bfbe b411 06bd
00000300: 6ec3 513e 522d eabd 034b a2be f4f8 2bbe
00000310: 9f37 6dbe 879a 473e c6da dd3e 2fc9 d03e
00000320: 27c0 d03d 7821 b43e 809f 5ebe 55d3 88bf
00000330: ce12 b5be d626 d83e 0f1b 3b3d 14e4 c83e
00000340: 1757 26be 4dda 1ebe c35b a73e c845 023e
00000350: e081 b7be 3a1c dc3e a61f a83e 60e7 c53e
00000360: a56a ab3d 423b a3be be00 b73e 5e52 523e
00000370: d05e 94be 7785 87be 36ce cebe e0a2 6b3e
00000380: 9cdc 203e c39e b83e a71a b1be 6ec7 bfbb
00000390: 5168 943d dd64 c13e 71c4 ccbe 8922 9b3d
000003a0: 54ae f53e 33ff 2e3e 5143 a5be f9a6 d23e
000003b0: 444d 763d e6bc 083f 88cb 033e 41ca 4bbe
000003c0: 88b0 1f3e eb3b dfbe 6d81 593e 4190 9abe
000003d0: e221 9e3e 4650 0abe 5e26 083e e777 5f3e
000003e0: 0dbe 023e 25a4 f2be 9fb7 0e3e 2bc4 eebe
000003f0: 9924 103f b835 b13e bf03 a53d b113 45be
0.3509211 -0.16801257 0.32265633 0.0021076016 -0.20619038 -0.07165669 -0.31183705 0.26887748
0.29984695 -0.1531411 -0.6919369 0.26532468 0.1336476 -0.20866312 -0.50381917 0.070874125
-0.044520315 -0.20778649 0.08112305 0.66525155 0.009241875 0.06975102 0.073450625 0.27936864
0.0048154006 -0.042096138 0.5356073 -0.22253995 -0.05620985 -0.31279266 -0.40423828 -0.105654806
-0.42593876 -0.22949854 0.5972523 0.48920855 -0.08716888 0.12008082 0.3512044 0.28876248
0.3148913 -0.47287533 0.11314263 0.039065197 0.15110622 -0.16452523 -0.10871555 -0.5063273
0.3330623 0.13077857 0.23473777 -0.080456465 0.062274583 0.12394409 0.1898453 0.09839771
-0.42126223 0.3588131 -0.25923946 0.13292399 -0.012316993 -0.17366372 0.20185523 0.5082593
0.28843507 0.31516537 0.765509 -0.0814801 0.15413524 0.20860377 -0.5130103 0.018789241
0.52900314 0.10434029 0.45244995 -0.41811132 -0.13852277 0.3415719 0.0119915 0.42583215
0.17785184 0.17293276 0.32101864 0.3565308 -0.21097821 0.3082237 0.39288348 0.25983495
-0.18210855 -0.32286865 0.13480446 0.3744922 0.09786546 0.22949174 0.2578755 -0.23712425
-0.058135413 0.20700504 0.42110944 0.106413156 0.29701576 -0.31622878 0.16777822 -0.09210188
-0.24123342 -0.4950255 0.5683921 -0.099762894 -0.04221893 -0.3189245 0.36038384 -0.78883445
-0.1952413 0.5486723 0.27500653 0.057251647 0.19884562 -0.30491978 -0.07054605 0.43527848
0.38384277 -0.015549467 0.523327 -0.19901899 0.13875784 0.086256504 -0.73640466 -0.51075923
0.422099 0.067272626 0.5159744 0.14161336 -0.47609586 -0.040904522 0.035226762 0.09854365
0.5600431 0.33134952 0.24835327 -0.1231183 0.59419334 -0.13565087 0.20940298 -0.47133926
-0.036798734 -0.5879619 -0.03812081 0.25813717 0.09391804 0.16757631 0.4444592 0.23336819
0.23054163 -0.22067674 -0.28154486 0.16912583 0.57269216 0.388439 0.27064103 -0.24295242
0.25647324 -0.20930919 0.44612074 -0.22022916 -0.2115726 -0.42738035 0.12669688 0.0027800614
0.20767942 -0.005969388 0.28735882 -0.0742384 -0.22957832 -0.2026009 0.20591287 -0.3889
0.7736518 -0.34910583 -0.45668244 0.30280456 -0.15007372 -0.3018929 -0.2604564 0.3566438
0.366149 -0.1940511 0.37284568 -0.13881806 0.15857182 -0.5677244 -0.3736709 -0.032731727
0.20484707 -0.114344254 -0.31697854 -0.16794187 -0.23165749 0.19492541 0.43330973 0.4077849
0.101929 0.35181785 -0.21740532 -1.0689493 -0.3536591 0.4221713 0.045680102 0.3923651
-0.1624416 -0.15512963 0.32687196 0.12721932 -0.35841274 0.42990285 0.32836646 0.38653088
0.0836995 -0.31881148 0.35742754 0.20539233 -0.28978586 -0.26469013 -0.403917 0.2301135
0.15709156 0.36058626 -0.34590647 -0.0058526313 0.07246459 0.37772265 -0.39993623 0.075749464
0.47984564 0.17089538 -0.3227792 0.41143015 0.06013228 0.53413236 0.1287061 -0.19901372
0.15594685 -0.436004 0.21240778 -0.30188182 0.30885226 -0.13507184 0.13295886 0.21823083
0.12767811 -0.47390857 0.13937233 -0.4663404 0.56305844 0.34611297 0.08057355 -0.19245793

lstm.bias_hh_l0 f4 [600]
00000000: fe05 953e b454 52be 6b4f cb3e a01e f7bc
00000010: c7f8 1dbe c059 b1bd 7c6a 94be 3f50 663e
00000020: 5edf 983e 5649 49be d2b8 2abf e195 8f3e
00000030: 5693 9a3d e5c0 18be 539c e9be 098c 8f3d
00000040: d8d4 ab3c 0e5c 80be 0aa8 ca3d fc9a 243f
00000050: 9212 c3bc 911f b13d 911e 593d bf11 a53e
00000060: 7e16 53bc 201c 34bd 588a 013f 9550 18be
00000070: 5e88 82bd 5233 b4be d72f a1be 107b ecbd
00000080: 8c82 d3be 5ae4 69be eedd 103f db23 043f
00000090: 965c 6abd 0224 4f3e a8d9 b53e a02b 693e
000000a0: 823a 933e 1317 03bf 33d2 883d 1800 3ebd
000000b0: be9e d73d cbf8 27be 13b5 0abd 8af4 d0be
000000c0: 5e2f bb3e 5b67 1b3e f007 3f3e 4d23 c9bd
000000d0: 3d04 ed3c 6273 0d3e f4e3 4d3e 226c 063e
000000e0: 33f4 dabe 665c a33e e9fa 62be 51c8 9f3d
000000f0: 1af5 f6bb 38aa 3cbe e042 643e 56c9 063f
00000100: 46a6 b53e 94ec 9c3e 1918 483f 112f 34be
00000110: 32f1 683e 2b8c 6b3e 012f 09bf 7ab1 233c
00000120: ddd1 083f 1538 2a3d 2e5e ee3e 79d7 cabe
00000130: 0722 34be 00f3 ac3e 13e7 a03d 6a74 d23e
00000140: 8208 523e 8cff c43d aff6 913e 3703 d63e
00000150: 4342 4bbe 39be 903e 1b47 d63e eb42 7a3e
00000160: 756d 87be 4464 bdbe 6ff0 093e dd79 b23e
00000170: d307 db3d d726 423e c48f 733e 8f4c 63be
00000180: 574d 24be a196 853e b3e1 c93e d682 383d
00000190: 5b7d a23e e84c 9fbe 061b ef3d 305b 68bd
000001a0: d841 21be 03e1 e4be f5c3 043f f0d2 cdbb
000001b0: b6b8 8dbd a77b c0be 2dd3 ba3e 524f 41bf
000001c0: d50f 73be 23ca 013f 376f 603e 29f6 cc3d
000001d0: 690c 7f3e ee91 aebe 4909 91bd f419 ea3e
000001e0: aa5a d83e 4e78 87bd 872e 123f 3e50 1ebe
000001f0: 900a 0d3e 0754 003e 6bf2 46bf b9c0 f7be
00000200: 5740 db3e 7662 173e 206a 1c3f 931b cd3d
00000210: 208f efbe 3083 0ebe 193d a93d ad49 7c3d
00000220: ebc7 123f b5b8 8a3e 4850 993e 5cee c8bd
00000230: 7936 1f3f cf36 4abe 9435 923e 59c1 eebe
00000240: 89b1 beba 08eb 1abf 400d 9a3c f4b6 9b3e
00000250: f6ff be3d c465 563e 51bd c83e 7359 633e
00000260: 65e2 973e 69d0 21be b640 6fbe 7f1c 843e
00000270: 39cb 073f ae97 9e3e b13e af3e 0b33 87be
00000280: 6985 893e 7b6b 35be 0adf e63e 1228 8ebe
00000290: 1aa8 1ebe 10d6 e1be 9544 a03d e8fd a1bd
000002a0: dad0 603e 35c4 753d 5619 a53e a581 99bd
000002b0: a18f 40be 4bef 60be 4d81 f13d de30 a5be
000002c0: a3be 493f 5300 a4be 0923 cfbe aa7f 963e
000002d0: bbe7 02be e898 91be 6d1d 9fbe b385 d73e
000002e0: 1662 923e a1e6 6dbe 1838 983e f586 24be
000002f0: 2212 473e c019 17bf ae6c bbbe 843c a5bd
00000300: db95 8b3e 1ca1 2bbe cf56 90be ef91 03be
00000310: 1e4f 87be 26e7 473e 6b63 dd3e b2f1 b13e
00000320: facf 113e 1d3b b93e fb9e 13be 0eb9 83bf
00000330: 5783 d3be 05c4 d33e 995a 763c 0373 d03e
00000340: 0b25 c8bd 7d13 d7bd e5f7 bf3e bc2b d73d
00000350: f2a7 e1be 1858 d63e 6b18 b93e 2ce7 de3e
00000360: 871d e73d 3cd5 a3be 5d2f a43e 4964 4c3e
00000370: f4ed 8ebe e1f2 84be 032d acbe 70b6 873e
00000380: 38c3 2b3e 3597 c33e 1092 afbe 1ecd b13d
00000390: 99a7 523d baca aa3e 231f c5be 068b 893d
000003a0: e73c 063f 1605 3b3e 3ab2 a8be e3e2 a83e
000003b0: 58a8 283d 5c20 0f3f 79f6 183e 6d40 6bbe
000003c0: 4299 3b3e 18c4 d0be 0f00 673e 8d9a 7bbe
000003d0: 0864 8e3e 8543 00be 6348 db3d fc78 6b3e
000003e0: d9ea ec3d f432 fbbe de61 033e bfd2 06bf
000003f0: 0d9a 1f3f 7033 a83e 1451 a63d b871 25be
0.29106134 -0.20540124 0.3970903 -0.03016597 -0.15426932 -0.086596966 -0.2898749 0.22491549
0.29857916 -0.19656882 -0.66688263 0.28044036 0.07547633 -0.14917333 -0.45627078 0.070091315
0.020975515 -0.25070232 0.09895332 0.6429899 -0.023812566 0.08648599 0.053007666 0.32240102
-0.0128837805 -0.043972135 0.5060172 -0.1487449 -0.06373666 -0.35195404 -0.3148181 -0.1154691
-0.41310537 -0.22841015 0.5658864 0.5161721 -0.057217203 0.2022858 0.3551762 0.22770548
0.28755575 -0.51207083 0.06680717 -0.04638681 0.105283245 -0.164035 -0.033864092 -0.40811568
0.36559576 0.15176146 0.18655372 -0.09821186 0.028932685 0.13813546 0.20106488 0.13127187
-0.42764434 0.31906432 -0.22166027 0.07801879 -0.0075365426 -0.18424308 0.22291136 0.52650964
0.3547842 0.30649245 0.7816177 -0.1759608 0.22748259 0.23002689 -0.5358735 0.009991044
0.53445226 0.04155739 0.46556228 -0.39617518 -0.17591105 0.33779144 0.07856574 0.41104442
0.20511058 0.09619054 0.28508517 0.41799328 -0.19849496 0.28270128 0.41851124 0.2443959
-0.26450697 -0.3699056 0.13470624 0.348586 0.10694852 0.18960129 0.23785311 -0.22197174
-0.16045128 0.26091483 0.39430007 0.04504665 0.31736264 -0.31113362 0.11675076 -0.05672759
-0.15747774 -0.4470292 0.51861507 -0.006281249 -0.069199964 -0.3759434 0.3648924 -0.7551166
-0.23736508 0.5069906 0.21917425 0.10007889 0.24907078 -0.3409571 -0.07081849 0.45722926
0.4225667 -0.06614743 0.57102245 -0.15460297 0.1377356 0.12532054 -0.7771365 -0.48389223
0.42822525 0.14783654 0.61099434 0.10015025 -0.46788883 -0.13917232 0.082636066 0.0615937
0.573363 0.27094045 0.29944062 -0.098110884 0.62192494 -0.1974747 0.28556502 -0.46631888
-0.0014548759 -0.6051488 0.018805146 0.3041302 0.093261644 0.20937258 0.39206937 0.22202091
0.29664913 -0.15802158 -0.23364529 0.2580299 0.5304447 0.30975097 0.34227517 -0.2640613
0.26859596 -0.17716782 0.4509204 -0.27764946 -0.15493813 -0.4410863 0.07825581 -0.07909757
0.2195467 0.06000157 0.32245892 -0.07495431 -0.1880479 -0.21966283 0.1179224 -0.32263845
0.78806514 -0.32031497 -0.40456417 0.29394275 -0.1278371 -0.2843697 -0.31077138 0.42094192
0.2859046 -0.23232509 0.29730296 -0.16067107 0.19440511 -0.59023666 -0.36606354 -0.08068183
0.27262768 -0.16760677 -0.2819123 -0.12848638 -0.2642755 0.1952177 0.43239912 0.3475471
0.14239493 0.36177912 -0.14416115 -1.0290849 -0.41311142 0.4136049 0.015036249 0.40712747
-0.097726904 -0.10501764 0.37493816 0.105063885 -0.44073445 0.41864085 0.36151442 0.43535745
0.11284929 -0.31998622 0.32067385 0.19960131 -0.2791592 -0.25966552 -0.3362809 0.26506376
0.16773689 0.382013 -0.34291124 0.08681701 0.051429365 0.33357793 -0.38500318 0.0671597
0.5243668 0.18263659 -0.32948476 0.329856 0.04117617 0.5590875 0.14937772 -0.22973795
0.18320182 -0.40774608 0.22558616 -0.24570675 0.27810693 -0.12525757 0.10707166 0.2299537
0.11568231 -0.49062312 0.12830302 -0.52665323 0.6234444 0.32851744 0.08120933 -0.16156662

layernorm.weight f4 [150]
00000000: 0000 803f 0000 803f 0000 803f 0000 803f
00000010: 0000 803f 0000 803f 0000 803f 0000 803f
00000020: 0000 803f 0000 803f 0000 803f 0000 803f
00000030: 0000 803f 0000 803f 0000 803f 0000 803f
00000040: 0000 803f 0000 803f 0000 803f 0000 803f
00000050: 0000 803f 0000 803f 0000 803f 0000 803f
00000060: 0000 803f 0000 803f 0000 803f 0000 803f
00000070: 0000 803f 0000 803f 0000 803f 0000 803f
00000080: 0000 803f 0000 803f 0000 803f 0000 803f
00000090: 0000 803f 0000 803f 0000 803f 0000 803f
000000a0: 0000 803f 0000 803f 0000 803f 0000 803f
000000b0: 0000 803f 0000 803f 0000 803f 0000 803f
000000c0: 0000 803f 0000 803f 0000 803f 0000 803f
000000d0: 0000 803f 0000 803f 0000 803f 0000 803f
000000e0: 0000 803f 0000 803f 0000 803f 0000 803f
000000f0: 0000 803f 0000 803f 0000 803f 0000 803f
00000100: 0000 803f 0000 803f 0000 803f 0000 803f
00000110: 0000 803f 0000 803f 0000 803f 0000 803f
00000120: 0000 803f 0000 803f 0000 803f 0000 803f
00000130: 0000 803f 0000 803f 0000 803f 0000 803f
00000140: 0000 803f 0000 803f 0000 803f 0000 803f
00000150: 0000 803f 0000 803f 0000 803f 0000 803f
00000160: 0000 803f 0000 803f 0000 803f 0000 803f
00000170: 0000 803f 0000 803f 0000 803f 0000 803f
00000180: 0000 803f 0000 803f 0000 803f 0000 803f
00000190: 0000 803f 0000 803f 0000 803f 0000 803f
000001a0: 0000 803f 0000 803f 0000 803f 0000 803f
000001b0: 0000 803f 0000 803f 0000 803f 0000 803f
000001c0: 0000 803f 0000 803f 0000 803f 0000 803f
000001d0: 0000 803f 0000 803f 0000 803f 0000 803f
000001e0: 0000 803f 0000 803f 0000 803f 0000 803f
000001f0: 0000 803f 0000 803f 0000 803f 0000 803f
00000200: 0000 803f 0000 803f 0000 803f 0000 803f
00000210: 0000 803f 0000 803f 0000 803f 0000 803f
00000220: 0000 803f 0000 803f 0000 803f 0000 803f
00000230: 0000 803f 0000 803f 0000 803f 0000 803f
00000240: 0000 803f 0000 803f 0000 803f 0000 803f
00000250: 0000 803f 0000 803f
1.0 1.0 1.0 1.0 1.0 1.0 1.0 1.0
1.0 1.0 1.0 1.0 1.0 1.0 1.0 1.0
1.0 1.0 1.0 1.0 1.0 1.0 1.0 1.0
1.0 1.0 1.0 1.0 1.0 1.0 1.0 1.0
1.0 1.0 1.0 1.0 1.0 1.0 1.0 1.0
1.0 1.0 1.0 1.0 1.0 1.0 1.0 1.0
1.0 1.0 1.0 1.0 1.0 1.0 1.0 1.0
1.0 1.0 1.0 1.0 1.0 1.0 1.0 1.0
1.0 1.0 1.0 1.0 1.0 1.0 1.0 1.0
1.0 1.0 1.0 1.0 1.0 1.0 1.0 1.0
1.0 1.0 1.0 1.0 1.0 1.0 1.0 1.0
1.0 1.0 1.0 1.0 1.0 1.0 1.0 1.0
1.0 1.0 1.0 1.0 1.0 1.0 1.0 1.0
1.0 1.0 1.0 1.0 1.0 1.0 1.0 1.0
1.0 1.0 1.0 1.0 1.0 1.0 1.0 1.0
1.0 1.0 1.0 1.0 1.0 1.0 1.0 1.0
1.0 1.0 1.0 1.0 1.0 1.0 1.0 1.0
1.0 1.0 1.0 1.0 1.0 1.0 1.0 1.0
1.0 1.0 1.0 1.0 1.0 1.0

layernorm.bias f4 [150]
00000000: 0000 0000 0000 0000 0000 0000 0000 0000
00000010: 0000 0000 0000 0000 0000 0000 0000 0000
00000020: 0000 0000 0000 0000 0000 0000 0000 0000
00000030: 0000 0000 0000 0000 0000 0000 0000 0000
00000040: 0000 0000 0000 0000 0000 0000 0000 0000
00000050: 0000 0000 0000 0000 0000 0000 0000 0000
00000060: 0000 0000 0000 0000 0000 0000 0000 0000
00000070: 0000 0000 0000 0000 0000 0000 0000 0000
00000080: 0000 0000 0000 0000 0000 0000 0000 0000
00000090: 0000 0000 0000 0000 0000 0000 0000 0000
000000a0: 0000 0000 0000 0000 0000 0000 0000 0000
000000b0: 0000 0000 0000 0000 0000 0000 0000 0000
000000c0: 0000 0000 0000 0000 0000 0000 0000 0000
000000d0: 0000 0000 0000 0000 0000 0000 0000 0000
000000e0: 0000 0000 0000 0000 0000 0000 0000 0000
000000f0: 0000 0000 0000 0000 0000 0000 0000 0000
00000100: 0000 0000 0000 0000 0000 0000 0000 0000
00000110: 0000 0000 0000 0000 0000 0000 0000 0000
00000120: 0000 0000 0000 0000 0000 0000 0000 0000
00000130: 0000 0000 0000 0000 0000 0000 0000 0000
00000140: 0000 0000 0000 0000 0000 0000 0000 0000
00000150: 0000 0000 0000 0000 0000 0000 0000 0000
00000160: 0000 0000 0000 0000 0000 0000 0000 0000
00000170: 0000 0000 0000 0000 0000 0000 0000 0000
00000180: 0000 0000 0000 0000 0000 0000 0000 0000
00000190: 0000 0000 0000 0000 0000 0000 0000 0000
000001a0: 0000 0000 0000 0000 0000 0000 0000 0000
000001b0: 0000 0000 0000 0000 0000 0000 0000 0000
000001c0: 0000 0000 0000 0000 0000 0000 0000 0000
000001d0: 0000 0000 0000 0000 0000 0000 0000 0000
000001e0: 0000 0000 0000 0000 0000 0000 0000 0000
000001f0: 0000 0000 0000 0000 0000 0000 0000 0000
00000200: 0000 0000 0000 0000 0000 0000 0000 0000
00000210: 0000 0000 0000 0000 0000 0000 0000 0000
00000220: 0000 0000 0000 0000 0000 0000 0000 0000
00000230: 0000 0000 0000 0000 0000 0000 0000 0000
00000240: 0000 0000 0000 0000 0000 0000 0000 0000
00000250: 0000 0000 0000 0000
0.0 0.0 0.0 0.0 0.0 0.0 0.0 0.0
0.0 0.0 0.0 0.0 0.0 0.0 0.0 0.0
0.0 0.0 0.0 0.0 0.0 0.0 0.0 0.0
0.0 0.0 0.0 0.0 0.0 0.0 0.0 0.0
0.0 0.0 0.0 0.0 0.0 0.0 0.0 0.0
0.0 0.0 0.0 0.0 0.0 0.0 0.0 0.0
0.0 0.0 0.0 0.0 0.0 0.0 0.0 0.0
0.0 0.0 0.0 0.0 0.0 0.0 0.0 0.0
0.0 0.0 0.0 0.0 0.0 0.0 0.0 0.0
0.0 0.0 0.0 0.0 0.0 0.0 0.0 0.0
0.0 0.0 0.0 0.0 0.0 0.0 0.0 0.0
0.0 0.0 0.0 0.0 0.0 0.0 0.0 0.0
0.0 0.0 0.0 0.0 0.0 0.0 0.0 0.0
0.0 0.0 0.0 0.0 0.0 0.0 0.0 0.0
0.0 0.0 0.0 0.0 0.0 0.0 0.0 0.0
0.0 0.0 0.0 0.0 0.0 0.0 0.0 0.0
0.0 0.0 0.0 0.0 0.0 0.0 0.0 0.0
0.0 0.0 0.0 0.0 0.0 0.0 0.0 0.0
0.0 0.0 0.0 0.0 0.0 0.0

batchnorm.weight f4 [150]
00000000: cebf f23e 364c 493f e0d0 283f 3b59 703f
00000010: 6955 aa3f 86cd 983f 31a1 6a3f 88fa 083f
00000020: f515 1a3f d0c2 863f 44da 613f 0415 4c3f
00000030: 6d5b 023f 3785 363f 2e13 ee3e 98f8 893f
00000040: 0be0 ef3e 3262 563f 2ae4 fc3e 3763 093f
00000050: ef20 773f 84f9 0d3f 634b 783f 183a 053f
00000060: 2bdf 773f 0472 8a3f ed5b 093f 8324 133f
00000070: 29fd 8a3f 8f34 443f 87e3 803f 5d50 853f
00000080: db46 803f 3dd6 5b3f c3ad 8d3f efb2 9c3e
00000090: ad36 4e3f b0e5 683f e68c 823f 16ff be3f
000000a0: 3c7c 0b3f f6d7 0a40 f5ec e23d 0c8a 6b3f
000000b0: bb3e 823f 3984 443f a411 503f 58eb 553f
000000c0: 8289 863f 32e6 553f be51 de3f 713e 353f
000000d0: febc bb3e 729c 9c3f f371 843f 8f73 753f
000000e0: 4ba2 c83e 1b12 f53e 07ed 2c3f 7034 283f
000000f0: f4c0 5d3f 0301 263f 566d 463f 1572 383f
00000100: 552c fc3e 05f6 a03f 9458 0f3f 5870 493f
00000110: 7ed3 523f 4697 eb3e 5faa 1040 369c 833f
00000120: 4c9e 0640 2118 5b3e 1dad 513f 0652 9c3f
00000130: 8b3e 6e3f 1421 8b3f 21a4 4d3f 51ef 2f3f
00000140: 4ea4 cb3e 7b66 7c3e ec30 5b3f 405a 133f
00000150: 2583 023f b3b3 c13e 15f0 923f 9ef6 ad3f
00000160: 16b2 6d3f b7cd f43e 67cb 133e 3d6d 303f
00000170: 129d 7a3f fb6a 8b3f bdfc 773f 2e7d 6c3f
00000180: d875 043f 4b50 623f ff6d 413f 2522 2a3f
00000190: b993 9f3e 6e9a 1f3f 2606 883f 1dd0 703f
000001a0: 5cc0 ab3f a3e2 ba3f 93a1 0c3f 101e d83e
000001b0: 93f2 963f 228c 663f d50c 2d3f 76a8 e83f
000001c0: 417a 283f 836a 7a3f 690a 883f bab4 8b3f
000001d0: 5e9f 283f 76c9 043f 90fb 4b3f fdef 693f
000001e0: 1d64 6b3f 027b bf3e 9cdc c93e f108 f73e
000001f0: bcb6 483f ebe3 7c3f 8ca9 d33f 1dbe 653f
00000200: 17e2 173f a5f1 803f c35e b23f ab3f d33e
00000210: ec9f e33e 8ef9 703f 1a3a 9a3f 3c1b 553f
00000220: 2e3e 1f3f b21f 253f 6c6e a33f 1df1 7f3f
00000230: e11f 333f 2f5a 6b3f 0b6e 4f3f 5377 223f
00000240: 0b80 8e3f 95a5 e43f 918e ba3e d6ca 583f
00000250: 8c9e 523e 0829 af3f
0.4741196 0.78631914 0.6594372 0.93886155 1.3307315 1.1937721 0.9165221 0.5350728
0.60189754 1.0528202 0.8822367 0.7971957 0.50920755 0.7129702 0.46499008 1.077899
0.4685062 0.83743584 0.49392825 0.53667015 0.9653463 0.55458856 0.9699003 0.5204177
0.968249 1.0816045 0.5365589 0.5747759 1.0858508 0.766427 1.0069436 1.041515
1.0021623 0.85873777 1.1068653 0.30605265 0.8055218 0.90975475 1.0199249 1.4921596
0.5448644 2.1694312 0.11080352 0.9200752 1.0175394 0.76764256 0.8127692 0.8356223
1.0510714 0.83554375 1.7368696 0.70798403 0.36667627 1.2235243 1.0347275 0.95879453
0.3918632 0.47865376 0.67549175 0.65705013 0.8662255 0.64845294 0.77510583 0.72049075
0.49252573 1.2575079 0.55994534 0.7868705 0.8235396 0.4601385 2.2603986 1.0282047
2.1034117 0.21395923 0.81904775 1.2212532 0.93064183 1.086947 0.80328566 0.6872454
0.39773792 0.24648468 0.85621524 0.57559586 0.5098136 0.37832412 1.1479517 1.3590887
0.9284986 0.47813198 0.1443306 0.68916684 0.9789592 1.0892023 0.96870023 0.9237851
0.51742315 0.8840377 0.75558466 0.6645835 0.3116739 0.62345016 1.0626876 0.94067556
1.3418078 1.4600414 0.5493404 0.42210436 1.1792778 0.90057576 0.67597705 1.817641
0.65811545 0.97818774 1.0628177 1.0914528 0.65868175 0.51869905 0.7968073 0.9138182
0.91949636 0.37398535 0.39426124 0.4824901 0.7840383 0.98785275 1.6536117 0.89743215
0.5932936 1.0073744 1.3935169 0.41259512 0.44457948 0.9413079 1.2048981 0.8324468
0.62204254 0.6450149 1.2768073 0.99977285 0.6997052 0.91934484 0.8102729 0.63463324
1.1132826 1.7863032 0.36436895 0.84684503 0.20568293 1.3684397

batchnorm.bias f4 [150]
00000000: 345b ea3e d237 263f 9d8c fa3e e407 323f
00000010: 75e0 293f a7e9 6f3f 7ee8 4e3f 14ec cc3e
00000020: 9f36 e13e d82d 4c3f fc65 363f 7a57 3e3f
00000030: ae50 333f 9cdf 093f e7be 743f 280b b23e
00000040: f8b9 0e3f eb9a 5f3f 63cb 083f d6ee 663f
00000050: 2a53 283f 9a64 183f c5d9 e23e bd54 143f
00000060: 1beb 4d3f 75dd 113f c78e 1e3f d8b1 373f
00000070: da5f 163f ac45 343f f9c1 403f b8cb 4a3f
00000080: 9767 1a3f ad86 2fbe 335f ee3e 8466 203f
00000090: ff12 213f b4c9 243f 2b88 433f 4918 443f
000000a0: a65d ef3e d09f 2d3f a100 173f b462 683f
000000b0: 7d91 3d3f 7bd9 773f 5987 d43e faaf 733f
000000c0: ce69 223f 6d60 313f e5fc 033f ad16 063f
000000d0: acff 0f3f 7d3a 553f 7cdb 2e3f 210f 013f
000000e0: 8e28 2b3f c06e 153f 9774 17bf d5bf 463f
000000f0: aa68 443f 4601 8c3e 4da4 283f 037c eb3e
00000100: fe7b 123f f7ad 8f3e 1a0d 363f 37f6 603f
00000110: 6e72 f53e 6262 a23e d1e2 453f 5e47 bb3e
00000120: 6574 2f3f ace7 523f b120 2c3f 91fd 1a3f
00000130: 398f 103f dd51 983e 2869 623f 2526 163f
00000140: 5986 003f c520 8f3e 5bd0 2a3f 0216 ad3e
00000150: c7cd 313f 9ace 2f3f 3722 473f 5263 b33d
00000160: b8ce 363f 3b40 343f 99c0 183f 92bb 2b3f
00000170: 7db5 4f3f 9633 2d3f 16c7 f23e 8a77 f1bc
00000180: c248 093f 57b4 d33e adc6 103f 5e41 ca3e
00000190: 9723 b43e 1bcd dc3e fc1a 2cbf 08c2 193f
000001a0: 8376 183f 88b6 523f 0073 263f 6655 ac3e
000001b0: 38d5 7a3f 8592 443f 0ae1 043f 2f6f 503f
000001c0: 4db2 983e 2ff0 683f ef8e 4b3f dba8 503f
000001d0: 0cf5 0e3f d790 de3e 93c7 2b3f 1bf0 e9be
000001e0: cd48 7d3f 1653 143f 19dc 143f 1c36 373f
000001f0: 8423 12bf c9cf 623f 35a6 403f 9205 1a3f
00000200: 99ac 103f 2fd6 4c3f 59ba 053f 3727 8c3e
00000210: f2bb 053f b12b 163f 3575 a53e 5a4d 3b3f
00000220: cd8d da3e da7a f13e 1a06 0d3f 1cec 293f
00000230: 9642 0ebf 494a 103f 5988 673f efb5 da3e
00000240: 3857 143f e344 0e3f f81a 0f3f 88f3 383f
00000250: bc69 343f 886f 353c
0.45772707 0.64928925 0.48935404 0.6954329 0.6635812 0.937159 0.80823505 0.40023863
0.43986985 0.7975745 0.71249366 0.7435223 0.7004498 0.53856826 0.95603794 0.34774137
0.55752516 0.8734576 0.53435344 0.90208185 0.657519 0.59528506 0.4430677 0.579418
0.8043687 0.5697854 0.6193661 0.71755743 0.5874001 0.7041881 0.7529598 0.792171
0.60314316 -0.17141218 0.46557006 0.62656426 0.6291961 0.64370275 0.7637965 0.76599556
0.46751136 0.6782198 0.58985335 0.9077561 0.7405012 0.96816224 0.41509512 0.95190394
0.63442695 0.6928776 0.5155776 0.5237835 0.562495 0.8329237 0.68303657 0.5041371
0.66858757 0.58372116 -0.59162277 0.7763646 0.76722205 0.27344722 0.65875703 0.4599305
0.5722045 0.28062412 0.7111374 0.87875694 0.47938865 0.31715685 0.7729922 0.36577886
0.6853698 0.82384753 0.67237383 0.6054316 0.5646854 0.29749957 0.88441706 0.58651954
0.50205 0.2795469 0.66724175 0.33805853 0.69454616 0.68674624 0.7778658 0.08759178
0.7140918 0.7041051 0.5966888 0.67083085 0.81136304 0.6765684 0.47417516 -0.029475946
0.53626645 0.41348526 0.56553155 0.39502996 0.35183403 0.43125233 -0.67228675 0.60061693
0.59555835 0.8230977 0.65019226 0.33658904 0.97981596 0.7678607 0.5190588 0.8141965
0.29823533 0.9099149 0.79514974 0.81507653 0.5584266 0.4346988 0.671014 -0.45690998
0.9893921 0.5793928 0.5814834 0.7156694 -0.5708544 0.88598305 0.7525361 0.6016475
0.56513363 0.8001432 0.5223747 0.2737367 0.52239907 0.5866042 0.32315984 0.73164904
0.4268631 0.4716404 0.55087435 0.663759 -0.5557035 0.5636335 0.90442425 0.4271693
0.57945585 0.5557386 0.55900526 0.722466 0.7047384 0.011073954

batchnorm.running_mean f4 [150]
00000000: 1ec0 76bf 4a57 93bb 6ee9 743f 3929 30be
00000010: 1202 403e ef3f 2ebe 4831 593f d565 6ebf
00000020: 27a5 77bf e20c 8dbd 3bdf 283f 8839 3b3f
00000030: 734b f8bd 88c0 f43e 0cf8 e438 b965 ca3e
00000040: add9 6fbf 3e87 083f cf49 71bf 8328 71bf
00000050: 527a 92be 1311 073b 1f2e 893e de71 5dbf
00000060: 0ac7 64be ea81 a53e 1311 74bf 6859 10be
00000070: fef6 9b3e 29ac 80bc ff35 3733 001f 05be
00000080: 771a e0bb a2e2 5a3c 2937 5cbf 8d6d 11bc
00000090: b22c 713f d199 a8be 8e27 24bf 76a4 0b3f
000000a0: edcb 40bf a664 a83e 2d74 b6bc 1c8a 51ba
000000b0: fd41 02be d520 0e32 15a0 3ebe b8cd e8ba
000000c0: ac83 02bf 4a40 21be 8876 b33e 1b43 70bf
000000d0: 48d4 38bb 016a a73e c458 073f 17e4 14bc
000000e0: 27c6 cbb8 54db 73bf f20c b938 8a25 f6bc
000000f0: 65d8 16be 4ce6 da3a cc22 403f 4767 78bf
00000100: 83cb 74bf 8659 63bf 7eb8 3dbf 182e 5ebd
00000110: 3d6e 41bf 7aca 74bf e4dd 053f ffb5 df3d
00000120: 60ec 563f 4ae2 1ebe 33e1 71bf 4515 243e
00000130: 156f 83bd c021 41bf 5879 21bc 9c9f 75bf
00000140: 34d9 2f3c 3b46 75bf 86d4 77bf 0f5c 77bf
00000150: c8d4 9539 5eb6 403f 03d3 1fbf 445a 67bf
00000160: 43a6 443f b344 1c3b 7166 64bf d346 3e3f
00000170: df14 15be b550 dcbe e4ae d4be d7a0 03b9
00000180: 3782 c43b c78c 2e3f 68d7 77bf 73f2 0639
00000190: e491 71bf f361 a43b 5285 883c 1164 98bd
000001a0: a5a1 26bc 43e9 483f 7533 78bf 56da b4bb
000001b0: 54a9 3c3e 00e6 edba af58 77bf d85a ab3e
000001c0: 349a 503a b243 f3be 853f 4bbc 4041 adbe
000001d0: 459f 95bb f724 653b cd73 1dbe 466a 163c
000001e0: 491f 2c3f da33 1abb 58a1 9a3e d009 14b3
000001f0: 8195 183c 4370 6dbe 8974 e83e 5e13 ce3c
00000200: c8da 34bf ce24 85be 4551 48bf 9a0e cf3c
00000210: ef1f 413c d863 b8bd 3844 fc3d 3243 493f
00000220: 521e 78bf 4255 9dbe e2e3 06be 730a 4abe
00000230: a6ee 6bbf 56c8 463f 8cc2 7cbb 397e 3c3b
00000240: 93c0 763e 5d6f b43e c916 8d3b d936 04bf
00000250: 616c 62bf 6cd7 883d
-0.963869 -0.0044964897 0.95668685 -0.17203225 0.1875079 -0.17016576 0.8484082 -0.93124133
-0.9673638 -0.06887223 0.6596562 0.7313466 -0.12123766 0.4780314 0.000109180895 0.39530733
-0.9369152 0.53331363 -0.9425325 -0.9420244 -0.28608948 0.0020609542 0.26793 -0.8650187
-0.22341552 0.3232568 -0.95338553 -0.14096606 0.30461878 -0.015707092 4.2657117e-08 -0.13000107
-0.0068390924 0.013359698 -0.8602167 -0.008876217 0.94208825 -0.32929853 -0.64122856 0.5454782
-0.75311166 0.3288929 -0.022272194 -0.0007993297 -0.12720485 8.272953e-09 -0.18615754 -0.0017761504
-0.50982165 -0.1574718 0.3505137 -0.93852395 -0.0028202701 0.32698062 0.5286982 -0.009087584
-9.716703e-05 -0.95256543 8.823899e-05 -0.030047197 -0.14730985 0.0016700714 0.75053096 -0.9703259
-0.95623034 -0.88808477 -0.7410964 -0.054243177 -0.75558835 -0.95621455 0.52291703 0.10923385
0.8395443 -0.1551601 -0.9448425 0.16023739 -0.064176716 -0.75442123 -0.009855591 -0.9594667
0.010732938 -0.9581029 -0.9680866 -0.96624845 0.0002857803 0.7527827 -0.62431353 -0.9037211
0.76816195 0.002384466 -0.89218813 0.7432682 -0.14558743 -0.43030325 -0.4153968 -0.00012553051
0.005996968 0.6818356 -0.9681306 0.00012869555 -0.94363236 0.0050165593 0.016665135 -0.07440961
-0.010170375 0.7848093 -0.9695352 -0.0055191917 0.18423969 -0.001815021 -0.96619695 0.33467746
0.00079575484 -0.47512585 -0.012405281 -0.33838844 -0.0045661055 0.003496466 -0.15376206 0.009180611
0.6723524 -0.002352944 0.3020122 -3.446786e-08 0.009312988 -0.23187356 0.4540141 0.02515572
-0.70646334 -0.26004642 -0.7824901 0.025275517 0.011787399 -0.09003419 0.12317699 0.78618157
-0.96921265 -0.3072911 -0.13172868 -0.19730549 -0.92161024 0.7764944 -0.0038568107 0.0028761758
0.24096899 0.35241213 0.0043056947 -0.5164619 -0.88446623 0.066817135
