src/results/subject_P8/best_model.pth (torch, 481333 bytes, 15 tensors)

input_linear.weight f4 [40, 40]
00000000: cf1a 1c3e 5174 14be d6c4 08be a097 d9bc
00000010: d8ed b6bd 382c 08be e84d ab3d 71b1 143e
00000020: 60f8 21bd ea50 fa3d 0bfc 94bd 8a5f b9bd
00000030: 8663 7abd 2097 c1bc d834 473d fef1 e73d
00000040: 94bd b1bd ecea 9dbd 3b60 163e a56e 093e
00000050: 32ec 9d3d 9472 493d 2cd7 2abd 0015 1d3c
00000060: 4a6d e03d fdc9 0c3e 9c70 533d 6c6d 39bd
00000070: e0c4 bd3c 84f2 f3bd 6895 afbc 1f9b 143e
00000080: f4c9 05be 930d dcbd cc25 18be 37bb 94bd
00000090: 4831 543d 601e bcbc 743a c1bd f822 b7bc
000000a0: 5033 43bc 106a 06be f0ae 413d 822a 74bd
000000b0: 3869 b83c 7bd7 0abe 1e9f f7bd 5015 ecbd
000000c0: d233 df3d 8617 edbd e151 aabd 8828 8d3c
000000d0: 3106 dfbd 442f 563d 5069 283d 6140 0f3e
000000e0: 16e5 d63d 00fc eabb e0f2 a83c ec5a 403d
000000f0: 60d8 fd3b ea91 0dbd 869a fa3d 2d25 99bd
00000100: c038 d2bd 0823 93bc c0ce f5bc 48de 3d3d
00000110: a62f 10bd 2453 1abe 70e8 413c 814b 11be
00000120: 9e81 01be 7471 1bbe 6513 1e3e 7035 f73c
00000130: 6036 2c3d 48e8 d3bc 3e9b f43d 702c a23d
00000140: 1cbd 11be e53d 183e 3242 b2bd a893 fa3c
00000150: 307b ad3c b8a7 78bd 58b2 613d dc00 18be
00000160: 8005 c23a 30ec 0fbd eaa5 c73d cad7 ee3d
00000170: 1e98 d93d a44f b53d 145e 053d e229 e33d
00000180: 586f a53d be75 afbd fe1b 80bd 2436 5e3d
00000190: 2cf8 7dbd ccbd 1ebd e844 f4bd 362a af3d
000001a0: b8b5 c13c 966b 82bd a294 f7bd e62a f73d
000001b0: 204b 0bbc 2eb0 cc3d 793b 11be 44a0 c6bd
000001c0: 7cb7 f4bd 3f64 c3bd 01e1 0f3e f0d2 0ebe
000001d0: 6f79 1fbe 8309 0f3e 0044 87bb ba39 c73d
000001e0: 6e6d 0cbe 62e4 9f3d c7f8 b2bd 26d8 25bd
000001f0: 22f5 f1bd ac21 6c3d 8e4c c03d 003b 2eba
00000200: 2659 e63d 7091 5c3d 2280 ef3d e5bf 1c3e
00000210: ac8d 0fbe ecf2 bcbd 107a 2c3c 3b70 1e3e
00000220: 38bc 813d ec5a 603d 3029 ac3c 5a64 b93d
00000230: cc9e 6e3d 007a 983b 50b8 8e3d a876 59bd
00000240: 9296 d1bd 61b7 82bd 4e86 1dbe daa0 d23d
00000250: 0ab1 f73d 4996 92bd d4b0 213d 1ede 38bd
00000260: b7a2 1abe 0816 5dbd af5b 1bbe b047 1bbe
00000270: 5cdf a73d f68d eb3d 00b0 073d e4f7 70bd
00000280: daa0 fc3d ac2a 523d 44c6 13bd 3ce0 123d
00000290: 6e21 01be ddf2 19be c8d7 fabc 01a3 0cbe
000002a0: c982 c2bd 7088 c7bc 1151 1dbe b153 94bd
000002b0: 1826 853d 18b4 833d 12d7 f83d 00a6 78bb
000002c0: 20dd 6f3c 661b d43d 0f8d 183e 7f5c 15be
000002d0: 5554 8cbd 4e11 d23d 18d9 d2bd 384f 073d
000002e0: 102e 1f3c 9037 e5bd 9c96 4e3d ceb9 ea3d
000002f0: daba 86bd 87dd 0e3e d052 37bc 70d1 6abd
00000300: a806 f03c 0155 133e c076 483b ee56 a03d
00000310: d2c9 ecbd 04cf 5e3d 54ce 9fbd 4657 f13d
00000320: 30f8 8b3c 34bb 0e3d f0d2 a23d c4d2 65bd
00000330: c0d4 1d3b be39 e23d da68 89bd f28c a53d
00000340: c003 1d3b a667 f9bd 2091 8ebb 5e3b 10bd
00000350: d46f edbd 5ebe f63d 8899 cebd f4bf 35bd
00000360: 996f 203e e77b c6bd 78e5 633d 8f87 efbd
00000370: 5f02 87bd 848b 3ebd 38af 4f3d e8e3 683d
00000380: a8fa 84bc cafc e53d 228d 77bd ee95 dbbd
00000390: 801b ecbb 0c09 61bd a021 7a3d 9c5c 0abe
000003a0: 5125 84bd f622 fd3d d05b 2cbc 38cb 9abc
000003b0: 70d9 2bbc 411c 113e 9a5d c63d 2229 993d
000003c0: 74af 8d3d 5694 e23d c5e3 d7bd ceeb 12be
000003d0: 948b 083d cc34 82bd 8431 febd 1c53 e8bd
000003e0: f5dc 0c3e a4d9 063d 42f6 de3d fe0c ce3d
000003f0: b6bd cc3d c02e 2d3b 4aba ec3d a520 b5bd
0.15244602 -0.14497496 -0.13356337 -0.026561558 -0.08932084 -0.13298118 0.08364469 0.14520814
-0.03954351 0.122224644 -0.07274636 -0.09051426 -0.06113007 -0.023631632 0.04863438 0.11325453
-0.08678737 -0.077108234 0.14685147 0.13421114 0.07711066 0.049181536 -0.04170911 0.009587526
0.10958345 0.13748927 0.051621065 -0.04527037 0.023165166 -0.119114906 -0.021433547 0.14512299
-0.1306532 -0.107447766 -0.14858168 -0.07262271 0.05180481 -0.022963703 -0.09434977 -0.022355542
-0.011914089 -0.13126397 0.047285974 -0.05961085 0.02251111 -0.13558762 -0.12090896 -0.115275025
0.10898556 -0.11576752 -0.083163984 0.01723124 -0.10889853 0.05229117 0.04111606 0.13989402
0.104929134 -0.007171154 0.020623624 0.04696171 0.007746741 -0.034562983 0.12236504 -0.07477794
-0.102647305 -0.01796104 -0.030005813 0.046354562 -0.03520169 -0.15070778 0.011835203 -0.14188959
-0.12647101 -0.15179998 0.15437086 0.030176848 0.042044044 -0.025867596 0.119436726 0.07918632
-0.14232296 0.14867361 -0.08704032 0.030587986 0.021176904 -0.060706824 0.055101722 -0.14844078
0.0014802665 -0.035137355 0.097484425 0.11662252 0.10624717 0.08853081 0.032560423 0.11091973
0.08077878 -0.085673794 -0.06255339 0.05425085 -0.062004253 -0.038755223 -0.11927205 0.08552973
0.02364622 -0.06368177 -0.12088896 0.12068729 -0.008501798 0.09994541 -0.14182843 -0.09698537
-0.11949059 -0.09540605 0.14050676 -0.13947654 -0.15573667 0.13968472 -0.0041279793 0.09727807
-0.13713619 0.078072324 -0.08738857 -0.04048934 -0.118143335 0.0576493 0.09389602 -0.0006646365
0.112474725 0.053849638 0.11694361 0.15307577 -0.14018887 -0.09226021 0.010527149 0.154725
0.06334728 0.05477421 0.021015733 0.09052344 0.05825691 0.0046532154 0.069687486 -0.053091675
-0.10233797 -0.06382633 -0.15383264 0.10284586 0.120943144 -0.07157571 0.039475277 -0.045133702
-0.15101133 -0.05397609 -0.15171693 -0.15164065 0.08196899 0.11501686 0.03312683 -0.058830157
0.123353675 0.051310226 -0.036077753 0.035858378 -0.12610409 -0.15034051 -0.03062047 -0.13734056
-0.094976015 -0.02435705 -0.15362956 -0.07242525 0.065014064 0.064308345 0.121503964 -0.003794074
0.014640123 0.10356788 0.1489756 -0.14586066 -0.068520226 0.10257207 -0.102953136 0.033034533
0.009715572 -0.11192238 0.0504366 0.11461221 -0.06578608 0.13951693 -0.011189178 -0.05732864
0.029300049 0.14387895 0.0030588359 0.078290805 -0.11561932 0.054396644 -0.07803026 0.11784224
0.017086118 0.0348465 0.079503894 -0.056109205 0.0024083108 0.1104617 -0.06709452 0.08083524
0.0023958534 -0.121779725 -0.0043507963 -0.035212867 -0.11593595 0.120480284 -0.100878775 -0.044372514
0.15667571 -0.09691601 0.05563876 -0.116957776 -0.06592249 -0.04651977 0.05070421 0.056857973
-0.016232803 0.11229856 -0.06043733 -0.10721956 -0.0072054267 -0.05494027 0.061067224 -0.1351189
-0.0645243 0.12360184 -0.010519937 -0.01889573 -0.010488853 0.14170934 0.09685822 0.074785486
0.06918231 0.11063449 -0.105414905 -0.14347765 0.033336237 -0.063577265 -0.12411788 -0.11343977
0.13756163 0.032922402 0.10886814 0.10061072 0.09997122 0.002642557 0.11558969 -0.08844117

input_linear.bias f4 [40]
00000000: e97b 153e 586b fabc 4824 1f3d c8c8 96bc
00000010: a8f8 10be 90fd 7ebc 14f6 0c3d 5e3d d73d
00000020: fe1e ffbd 408e cfbd 94d6 773d a6a9 df3d
00000030: 2877 b13d 50c8 9e3c a410 033d 342a bc3d
00000040: a08a 073c 6a90 0fbe ea2f 35bd adf9 a0bd
00000050: 1add a13d 3286 d53d 8b3d b4bd b647 17be
00000060: 0fdc 20be 9029 ddbc b415 05be 9aa0 ae3d
00000070: a8bf 7c3d a7dc 1c3e 58ac d03c c89f d1bd
00000080: 4276 42bd 916d 143e dc05 753d cbf2 113e
00000090: 1b14 07be 92e3 bc3d b402 fcbd 6037 a33c
0.14598049 -0.030568764 0.03885296 -0.018406287 -0.14157355 -0.015563384 0.034414366 0.10509752
-0.12457083 -0.10134554 0.060507372 0.1092103 0.086653054 0.019382626 0.03199829 0.09187737
0.008272797 -0.14019933 -0.044235148 -0.07860122 0.079035 0.10425986 -0.08800801 -0.1477345
-0.15708946 -0.026997358 -0.1299656 0.08526726 0.061706215 0.15318547 0.025472805 -0.10235554
-0.04747606 0.14494921 0.05982004 0.14252774 -0.13191263 0.09223093 -0.12305203 0.019923866

lstm.weight_ih_l0 f4 [600, 40]
00000000: 11ec 7b3e 39f4 4abe af29 1f3e 2105 56be
00000010: fd24 8dbd d072 143e 549d 203e 1605 1fbe
00000020: 45b8 28be ce51 1dbe ca01 703e 0edb c33d
00000030: c658 c33c d5fd 273e 843f 8b3e d31e 8ebe
00000040: c277 0bbe af58 703e 809b 7c3e bdc5 153e
00000050: c3ea 2b3e 8302 1b3e 7761 21be 854d d6bd
00000060: 95d9 233e 86c4 043f 5f5d 183f 2d90 1d3f
00000070: 3700 803e 83dc f73e 9c6e 773e c57f 2b3e
00000080: a6ae 703e 74cf 16be f5ee 16be 2dae bdbd
00000090: 726c 293e f2cc b23d 555b 5b3d f2c3 8b3e
000000a0: 0855 35be 46f7 fcbb ac9e 003e 6a81 ee3a
000000b0: f990 81bd 8f09 113e 3357 fb3d 276e 05be
000000c0: 73e3 fbbd 54ee 07be a266 8d3d ef96 0c3e
000000d0: e250 e83d 4914 003e 2ef3 c6bd 4c89 b43d
000000e0: f8a8 42bd 1434 853d 088e 703d a0a1 113e
000000f0: 09f8 f23d cdf7 043e b2c1 5cbe 4ed7 bbbc
00000100: d82c fb3d c84d d7bd 220b bcbd 8dfb 5cbd
00000110: fe19 903d a83c d4bd 7298 983d 34ec 0e3e
00000120: b041 6e3d 639d 37bd f3a6 63be 6716 85bb
00000130: ac8f f43d 4f23 0cbe 59f2 cabd 3b86 c3bd
00000140: 4118 88be fc35 0a3f bad1 2b3e 8f48 cbbe
00000150: 0390 1a3f ebdc 243e d1f9 023e 5c37 1dbe
00000160: 69b9 12be 51a4 1ebe 5bda c73d 9ce1 e0be
00000170: 3d7b 003f 7446 233e c3d7 a43e add8 2fbf
00000180: 6cae be3e 1e7e af3d 64f4 a63d 98d2 303e
00000190: 3578 323e 8f5b 1d3e 2f6a 51be 87b8 cd3c
000001a0: eadd 313e eb34 23bf 2c97 e73e fba5 b03e
000001b0: 7da3 aa3d 2ddd 393e e3c4 a83d f380 173e
000001c0: 8e36 c53d 5c78 c03e 97bd 4cbe b41e 193c
000001d0: 30f0 283e 6d51 9c3e d468 973e bbd7 a43e
000001e0: e96d ee3d 37d1 9c3c cb15 fabd ebd8 94bd
000001f0: bfd7 3ebb 76be ecbd c2c4 ebbd 2ea6 ea3d
00000200: d5e1 fc3d 9a9e f43d 41b7 ccbd 343d afbb
00000210: 3e88 b1bd b983 ecbd 0d48 063e c811 303d
00000220: a7ce 3f3d f093 e8bd c1aa e8bd 65c9 e9bd
00000230: 4a37 e4bd 19a9 dbbd 6383 fa3e c304 fbbd
00000240: 2963 e5bd 22e0 3abe a4d1 bfbb ce75 28bd
00000250: 1578 efbd 042b 613d b778 dcbd 938b d3bd
00000260: 3861 e9bd c1b2 203d 7886 fc3e ba5d dfbd
00000270: 48de debd 62b2 3fbc 7d11 c2bc 8fa5 023e
00000280: 7652 f4bd 7ebe 9a3d 6aa7 2e3e 3807 163b
00000290: 4d0d d53d f0fd 393e 6f4f 3c3e 4f3e 42be
000002a0: 3c00 2cbe e0ea 32be 4a23 ce3d 493c 14bc
000002b0: 07ff 3c3e 0cc4 413e 250a 8fbd 13ca 00bd
000002c0: 539f e4bd 1930 c23d 0119 b53d fc46 413e
000002d0: 1317 2e3e a466 363e c73b 9a3d d22c 51bb
000002e0: 1ac3 2f3e bbf3 14bd e8f8 063e 7dfd 193e
000002f0: 0e30 b73d dda5 db3c d3ea b33d e5f2 3f3e
00000300: fee3 c03d be6a ffbd 0d18 7a3d d40b 733c
00000310: 44bb 323e 5c43 dbba d438 2b3d 1e8a 67bd
00000320: 5cc9 983e aa57 be3e d32c 79bf 9692 d9bf
00000330: 3435 e0bc e776 74bf ab4a 63bf 794f 7c3f
00000340: ba07 5f3f d081 773f 4016 91bf 91d4 a3be
00000350: 482d cfbe 9699 76bf 7085 1b40 c945 8d3f
00000360: 033d 9dbf 2985 8fbf d6f5 8fbf 720b 78bf
00000370: 3825 7abf b252 7abf 7faf a6bd 88b6 77bc
00000380: f467 7ebf d3cd 5a3f 8d14 53bd fa0e 823e
00000390: ac54 91bf 14c3 a03d ece1 91bf 42e4 7abf
000003a0: a6ef 8dbf d14b 9dbf 1160 a7bd 0cbe 03bd
000003b0: b8dc 7abf 898f dfbe feb3 b9be 841c 1b40
000003c0: 08f8 56bb 1c28 133e 2a36 103e a0d3 b53e
000003d0: 470e 383e 044a 163e 973e ff3d 3a03 19be
000003e0: 6269 02be 9843 06be dc78 2b3e 9f60 023e
000003f0: c203 8f3d 684e 0a3e d90c cdbe cddf 51bd
0.24601771 -0.19819726 0.15543245 -0.20900394 -0.068918206 0.14496922 0.15685016 -0.15529284
-0.16476543 -0.15363237 0.23438182 0.09563266 0.023846041 0.16405423 0.27196896 -0.27757892
-0.13619903 0.2347133 0.24668694 0.14626212 0.16788773 0.15137677 -0.15759836 -0.104640044
0.1600097 0.5186237 0.59517473 0.6154812 0.25000164 0.48410425 0.24163288 0.16747959
0.23504123 -0.14727575 -0.14739592 -0.09261737 0.16545275 0.087304965 0.053553898 0.27297932
-0.17708218 -0.007719907 0.12560529 0.0018196527 -0.063264795 0.14163803 0.12272491 -0.13030301
-0.12299242 -0.13274509 0.06904341 0.13729452 0.11343552 0.12507738 -0.097143516 0.0881525
-0.047524422 0.06504074 0.0587292 0.14221811 0.11863715 0.12985153 -0.21558264 -0.022929814
0.12264413 -0.105128825 -0.09181811 -0.053950835 0.070362076 -0.10363132 0.07450952 0.13957292
0.058168113 -0.04482783 -0.22231655 -0.0040615085 0.11941466 -0.13685344 -0.099095054 -0.09547087
-0.26581004 0.53988624 0.16779223 -0.39703795 0.60375994 0.16099899 0.1279061 -0.15353149
-0.14328541 -0.15492369 0.09758445 -0.43922126 0.50188047 0.15944844 0.32195863 -0.68689996
0.37242448 0.08568977 0.081520826 0.17267835 0.17428668 0.15366958 -0.20450662 0.025112404
0.1736981 -0.6375262 0.45232522 0.34501633 0.08331964 0.18150778 0.08240678 0.14795284
0.09629546 0.37591827 -0.19994198 0.009345699 0.16497874 0.30530873 0.29572165 0.3219584
0.116420574 0.01914273 -0.12211188 -0.07267936 -0.0029120294 -0.11559765 -0.11512138 0.114574775
0.123477615 0.11944313 -0.099958904 -0.005347872 -0.08668564 -0.115485616 0.13113423 0.042985708
0.04682794 -0.11356342 -0.11360694 -0.11415366 -0.11143358 -0.10725612 0.48928365 -0.122567676
-0.11200554 -0.18249562 -0.0058538485 -0.041127972 -0.11692826 0.054972664 -0.10765212 -0.10329356
-0.11395496 0.039232973 0.49321342 -0.10906549 -0.108822405 -0.011700245 -0.02368998 0.12758468
-0.11929791 0.07555865 0.17056051 0.0022892486 0.104029275 0.18163276 0.18389677 -0.18969081
-0.16796964 -0.1747241 0.100653246 -0.009047576 0.1845666 0.18922442 -0.06984357 -0.031442713
-0.11163201 0.0948183 0.0884266 0.18874735 0.1700099 0.17812592 0.07530933 -0.0031917584
0.17164269 -0.036365252 0.13180888 0.15038104 0.089447126 0.026812488 0.087850235 0.18745
0.09418486 -0.12471531 0.061058093 0.014834363 0.17454249 -0.0016728449 0.041802242 -0.056528203
0.29841125 0.37176257 -0.9733402 -1.699786 -0.02736912 -0.9549393 -0.8878581 0.98558766
0.87121165 0.96682453 -1.1334915 -0.31998113 -0.40464234 -0.96328104 2.4300194 1.1036922
-1.2284244 -1.1212512 -1.1246898 -0.96892464 -0.9771304 -0.97782433 -0.08138942 -0.015119202
-0.9937737 0.8547031 -0.05153327 0.2540205 -1.1353965 0.07849708 -1.1397071 -0.98004544
-1.108876 -1.2288762 -0.0817262 -0.032163665 -0.9799304 -0.43664196 -0.36270136 2.4236155
-0.0032801647 0.1437077 0.14083162 0.3551302 0.17974196 0.14676672 0.1246311 -0.14942637
-0.12735513 -0.13111722 0.16745323 0.1273217 0.069831386 0.13506472 -0.40048864 -0.051238824

lstm.weight_hh_l0 f4 [600, 150]
00000000: 82ce 693d 48c5 d93d 2ecc f63d fa9e 2dbd
00000010: 310b 303e 428b c73e 6318 033d c4a0 9abd
00000020: 67c1 a93e 78d4 513e c9f7 583d 190d 9fbe
00000030: 36be eb3d d304 833e cabb 3f3e d4e7 543c
00000040: 1dde 84bd ca64 8d3e 0d82 82bd f414 083e
00000050: b901 27bd e458 463e 2d80 9b3d 254f 97bb
00000060: 0049 223e cb8e ca3b 4db6 1d3d 9d87 c9bd
00000070: 6575 ae3d 918f 8f3c 9279 7a3e 191c 7cbd
00000080: 2c7c 53b7 af6c 0dbe c694 10bd a883 e8bd
00000090: ded3 0f3e 6c72 06be 4bcb 8cbe 1f19 003e
000000a0: 5a22 b9bd 79d7 a3be e15c bf3e 8ef4 86bd
000000b0: 94fa 003e 5fe5 433d c955 72bc 1029 86be
000000c0: 94c2 6c3d 66dc 9dbe 0bd7 06be bdfc c33e
000000d0: 0178 b23d 86e2 e03c e77e 263e c42a 74bc
000000e0: 1591 e33d 68b5 843e 8686 363d a133 b2bd
000000f0: 0214 423e 7ae1 ee3d 4452 b7bd a8bc 793e
00000100: f6f5 a53d 179c acbe 9c26 113c 9ee0 60be
00000110: ad1e 1f3e 5a34 563e d219 26bd 6a98 243f
00000120: 0771 f6bd b38d 8a3d a5be 82bd f9f5 9ebd
00000130: adee 65be e08e 8e3c e94d 8abd f423 b2be
00000140: f03c 47bd 8b5f 553e 768f 2e3e 4543 73bd
00000150: 7528 823d 513c cd3b 58e4 373f 5d76 cd3e
00000160: 6b31 2e3e 7212 143e dda3 803e 9202 9abd
00000170: 817c 943d 6e12 d83d 22c0 293c 335b 633e
00000180: e100 3a3d 2dc4 7e3c 8998 ac3c 4fd2 88bd
00000190: 3933 ac3d 1e04 12be 9d03 a5bd a952 bdbd
000001a0: 13b6 9d3d 256f 79be c728 4c3e 83c4 fc3d
000001b0: 93db 4b3d 5214 353e 2d2b 943d 8b01 6c3e
000001c0: fcb1 093e 1a78 a53e 90ac 4f3d ad36 443e
000001d0: 86dc 35bd 1d2d e6bc f4b8 463e d457 8bbe
000001e0: 693a 0c3c 4bad bdbd bfae ca3d 20c0 d9bd
000001f0: 70e5 84be b065 b53a d47f 393d b067 3a3e
00000200: 144f 8dbd e36b 89be 8756 8b3e bf15 4c3d
00000210: 20bd a43d 6783 b53e 0f8b 3abe 9844 f4bc
00000220: 1b68 99bd fb33 e23d 45f0 ecbd 923f 2c3e
00000230: fd20 c93d 8cc6 91bd 4acc 5dbb 1f53 383d
00000240: dbdf e33d 3f7f 9c3d 2c2d 00be 9a95 7e3e
00000250: cae9 713e ecc2 5bbe d824 8fbd b4ff 403d
00000260: f615 c0bc c1fa f6bd b2bb 4a3c c507 273e
00000270: 3edc 79bc 2139 963c 64c8 303d 22bc dcbc
00000280: 47ef c2bd a1ed 04be d35e 8a3c 8800 653d
00000290: 0c7b a1bc 2c9b c5bb d0e5 803e cf2e 5abd
000002a0: de2a 9c3a c9fb 3abd 209e f4bd 0cb0 d33d
000002b0: 5d43 b33c ceab 093d df40 e93c 8bb7 1c3e
000002c0: 161a 263d a170 4ebd 9793 ddbd f249 b4be
000002d0: e152 8dbd 5393 11be f22c aa3d 4ad0 d5bd
000002e0: 0f54 ebbd fdf5 cb3d 0389 643d 7d64 80be
000002f0: e57a 8bbd d973 8cbd 378a dfbd a01b 983b
00000300: f128 a9bd e5b2 1f3d 775e 97bd e751 d1bc
00000310: 44aa 98be 7d35 06be 7bd8 bbbd 2520 de3b
00000320: ab86 413d 50c6 053e 4943 b8bc a9d0 713d
00000330: 2f85 813c a3d5 9e3c 38f8 c5b9 5a4b 203d
00000340: a9b6 213d cdd8 5f3c 53b6 dabd 1880 113d
00000350: 71ef bfbd 69da 293c 6c96 23bb 2ba5 993c
00000360: 2687 44bd 1e5f 543e 0022 83bd 2d30 d0bd
00000370: bb9a 3bbd b1cb 0ebe 2730 a63e 1ad6 4abe
00000380: ede8 223e 86e0 04be 20b8 0bbd 81b2 e0bc
00000390: f7e3 08be 8f16 c9bd a99d 213c 1ed7 adbc
000003a0: c97c 203d bf5b 80bd e112 8b3c c9ad 8b3d
000003b0: 91f5 d9bd cfb9 f5bc e47a 30bd e948 58bd
000003c0: 91b6 59bd 776a 6b3d 2d8b d0bc 7d9d 75bd
000003d0: 658f a0be 2bb8 7dbd cdfa 81bc 6944 96bd
000003e0: 6c39 fdbc e634 62be 4324 2ebd 4cfb 713d
000003f0: 3376 ca3d 3fad a23c 2ac3 353d 9332 afbb
0.057081707 0.106333315 0.12050663 -0.04238794 0.17191769 0.38973433 0.03200568 -0.07550195
0.33155367 0.20491207 0.05297068 -0.3106468 0.11510889 0.25589618 0.1872398 0.012994725
-0.06487677 0.27615958 -0.063724615 0.13289243 -0.040773127 0.19369847 0.07592807 -0.004617589
0.1584816 0.006181573 0.038503934 -0.09840319 0.08518485 0.017524512 0.24460438 -0.061550234
-1.2605491e-05 -0.13810991 -0.03529813 -0.113532364 0.14045665 -0.13129586 -0.2749885 0.12509583
-0.09039755 -0.3200033 0.37375548 -0.06589614 0.12595588 0.047826167 -0.014790961 -0.26203203
0.05780275 -0.30832213 -0.1316797 0.38278762 0.08714295 0.027451765 0.16259347 -0.014902774
0.111116566 0.25919652 0.044561885 -0.08701254 0.18952945 0.116641 -0.08951238 0.24388373
0.08103554 -0.33712837 0.008859303 -0.21960685 0.15539046 0.20918408 -0.040551968 0.64295065
-0.12033277 0.06765308 -0.06384019 -0.07761759 -0.22454329 0.017402112 -0.067531414 -0.34793055
-0.0486421 0.20837228 0.17046914 -0.059390325 0.06355373 0.006263294 0.718328 0.40129367
0.17011039 0.14460161 0.25125018 -0.075200215 0.0725031 0.1055039 0.010360749 0.22202758
0.045410994 0.015549702 0.021068828 -0.06680738 0.084082074 -0.14259383 -0.0805733 -0.09244282
0.077007435 -0.24358805 0.1993743 0.12342169 0.04976995 0.17683533 0.072347976 0.23047464
0.13446802 0.32318193 0.050701678 0.19161482 -0.04439976 -0.028097684 0.19406492 -0.27215445
0.008558848 -0.09261569 0.098966114 -0.10632348 -0.25956297 0.0013839509 0.045287922 0.18203616
-0.068998486 -0.26840124 0.27214453 0.049825426 0.08043885 0.35451815 -0.18217109 -0.029817864
-0.0749056 0.11045071 -0.11569265 0.16821125 0.09820745 -0.07117948 -0.003384369 0.045001145
0.111266814 0.07641458 -0.12517232 0.24861756 0.2362434 -0.21461076 -0.06989449 0.047118858
-0.023447972 -0.12059546 0.012373852 0.16311558 -0.015250264 0.018337788 0.043159857 -0.026945177
-0.09518295 -0.12981273 0.016890919 0.05590871 -0.019711994 -0.006030461 0.25175333 -0.053267296
0.0011914631 -0.045650277 -0.119442225 0.10336313 0.021882707 0.03361111 0.028473316 0.15304391
0.04055222 -0.05040038 -0.10819166 -0.35212666 -0.069005735 -0.14216356 0.08309354 -0.104401186
-0.11490642 0.09959028 0.055794727 -0.25076666 -0.0681055 -0.06858034 -0.10915034 0.004641965
-0.08259762 0.038988966 -0.073910646 -0.02555175 -0.29817402 -0.13106342 -0.0917215 0.0067787343
0.04724757 0.13063931 -0.022493022 0.059036884 0.015810577 0.01938898 -0.00037759705 0.03913436
0.03948084 0.013662529 -0.10679307 0.03552255 -0.09371842 0.010367014 -0.0024961485 0.018755516
-0.04798045 0.2073941 -0.06402969 -0.10165439 -0.04580186 -0.1394489 0.32458612 -0.19808236
0.15909167 -0.12976274 -0.034111142 -0.027428867 -0.13368212 -0.09818756 0.009864249 -0.02122074
0.039181504 -0.06267499 0.016976776 0.06820256 -0.10642541 -0.029995827 -0.043085948 -0.052803908
-0.053152625 0.05747458 -0.02545699 -0.059964646 -0.313594 -0.061943214 -0.015866661 -0.07337267
-0.03091117 -0.22090492 -0.04251505 0.059077546 0.09885826 0.019858 0.044375576 -0.005346605

lstm.bias_ih_l0 f4 [600]
00000000: a2c7 273e f52e 103e 046a 1e3e 25c7 f3bd
00000010: 0a06 2f3e e649 79bf 4a5d 1a3e 1946 0cbe
00000020: fc5f 6fbe ea88 da3e b634 2a3f 557c 813e
00000030: 1a0d 9c3e 764b 1d3e ad72 843c c130 f73c
00000040: 3620 adbe 6efb 5f3f acfb 153c 5345 d5be
00000050: d76a e03d 6ea2 703e 8f98 073c 20a5 f7be
00000060: 003f a03e 3d7f b3be 0e8f 5d3e b4b6 a03d
00000070: f0ba b9bd 3cf6 d8be 2654 643e ea37 c8be
00000080: ce21 c8bc 4309 ecbd abf2 94be 46e4 8b3e
00000090: ba76 43be f5af 0ebe 55d5 13bd 7fa8 b83e
000000a0: dac4 9d3c 5df6 7abe 0f4b f5be 8e61 33bf
000000b0: c6cd 26bd 5734 513e d592 743d 9862 8ebe
000000c0: bb7a d73d 7db5 483f ecbd 7b3e e3ad 813e
000000d0: 1fc8 973f 6924 c63e a87f 8e3e fb86 a6bd
000000e0: 6fdf 003e e64a bbbc cc29 babd 0599 f1be
000000f0: 7930 f83e e6fb 203e 3d64 bdbe cd10 163f
00000100: 26c6 563f 5651 b53e 58eb 983e e83a a83d
00000110: cd3d 8a3e 3185 073e 7339 5fbc 5e85 a0bf
00000120: 2c42 c4be 2f0d 093f 5d81 16be 5357 b93d
00000130: fdd6 f13d b7de 8f3d d88c c2bb 1da6 393f
00000140: fd85 f83e 303d c93e 53ca 823d dfc7 3a3e
00000150: a046 273f 3faf d33e 8826 463d 15e8 713e
00000160: cff6 233e efe7 c93e 7cf5 133e 069a a4bf
00000170: 8b9e 813e f75a e13d a84a 84be 313f 2c3d
00000180: 7913 9c3e 3764 90be fcab 2f3e e6be 0a3e
00000190: e649 293f c894 e23c cb5c a0bd 2633 b8be
000001a0: 0192 543e ff01 d73d 4cdf f73e 18a6 a6be
000001b0: e65c 9c3e d7de 8e3f 5578 483f b895 ca3e
000001c0: b120 0e3e a07b c9bd 2b57 623e 217c 92bf
000001d0: f3ea 01bf 3573 3dbe ece2 c23e 6b84 b53e
000001e0: 581c 063f a511 d73e 75ba 573d a261 283e
000001f0: f4b9 e23e 452e 44be 57f9 f83e fde5 ad3e
00000200: 5cb7 bdbd 0878 74bd 7e1a 433b 693c cabe
00000210: db11 ecbe 8a06 013e 15d7 0e3e 5daf 383f
00000220: 38a4 633d 04c6 2c3d 90c8 9ebc 385b 033f
00000230: 39f7 ce3e 7e9f a03d a336 303f d672 263f
00000240: 1430 af3e b672 ae3e 72d8 7c3d 6097 813f
00000250: d425 c1be 6d11 21be dce0 e6bd 6575 61bc
00000260: 8044 aa3d 6308 c5bc 22da fabd e783 c2bd
00000270: 5f41 01be a282 8abe e3a6 6e3e 71fe 263f
00000280: f6ef 433e 1e4f 883d 0a08 7c3d 58c0 043e
00000290: 4438 a0be 8351 06bf 0ab7 d0be c46a 2d3f
000002a0: e5ae b3bd fd02 be3e 2698 20bc 4b23 c7be
000002b0: 3bb1 59bf 1092 003f c09c 13be 02b7 20be
000002c0: 46ff db3e ce99 01bf b0b4 9cbc 9706 f4be
000002d0: c56f 293e 479e 99bd 008a 03be 5773 1dbf
000002e0: dfd6 6dbd a984 813e 3d40 5abd f8f3 dd3e
000002f0: b547 72be 44b6 c83e 0e9a a3be 7e67 65be
00000300: 748c ecbe 20d0 10be 58da 493e 5650 f63d
00000310: b5af 8fbd f358 18bf 8399 36be 63b2 573e
00000320: 696d 36bf 7de7 09be c9c2 8f3e c39b 0dbe
00000330: b890 f9be 32ff 93bd 2b5a a9bd e671 a1bc
00000340: 12d9 42be ff5d a6be a106 2c3f 24b9 5c3e
00000350: b389 503e 2128 993e 62ec d33e 5f44 41bf
00000360: 2f2a 903e ee49 ab3e 8825 f13e 8e35 90be
00000370: 7539 e13b 3154 51bf 5777 213f e28a 433f
00000380: fca4 d4bd a1d7 ecbd f277 653f 8198 a73e
00000390: a02d 12be 5eb1 d3be 0554 f1be d9d3 a93e
000003a0: 2970 51be 885d 2b3d 5552 5c3e dd9a c8be
000003b0: 02a2 ac3e 98ce d9bd 03ef 66be fd35 173f
000003c0: 27ef 173e 5c78 103e 55eb 363e fb00 363e
000003d0: 4741 023c 1a4e 4cbe 9ee2 9c3c 5780 7fbe
000003e0: bac3 8cbe 5f6d 6b3e dca6 a83d fb51 40be
000003f0: 80b3 823e 6a48 04bf 97b8 863e 1741 2fbf
0.16384748 0.14080413 0.15470129 -0.11903218 0.17092147 -0.97378385 0.1507465 -0.13698615
-0.23376459 0.42682582 0.6648668 0.2529017 0.30478746 0.15360817 0.016167963 0.030174615
-0.33813637 0.87493026 0.0091542415 -0.41654453 0.10957878 0.23499462 0.008276119 -0.48368168
0.31298065 -0.35058013 0.21636602 0.07847348 -0.090688586 -0.42375362 0.22297725 -0.3910516
-0.024430182 -0.11525204 -0.2909139 0.27322596 -0.1908826 -0.1393431 -0.03609212 0.36066052
0.019258905 -0.24508043 -0.47908828 -0.7007073 -0.040723585 0.20430122 0.059710342 -0.27809596
0.10521456 0.7840193 0.24584168 0.25327978 1.1857947 0.38699654 0.2783177 -0.08131214
0.12585233 -0.022862863 -0.09090003 -0.47187057 0.48474482 0.15721092 -0.36990538 0.58619386
0.838961 0.35413617 0.29867053 0.082143605 0.27000275 0.13234402 -0.013624537 -1.25407
-0.38331735 0.5353574 -0.14697786 0.09049859 0.11808584 0.07024901 -0.0059372 0.72519094
0.48539725 0.39304495 0.063862465 0.18240307 0.6534214 0.4134464 0.04837659 0.23623689
0.16012119 0.39434764 0.14449114 -1.2859504 0.2531627 0.11003678 -0.25838208 0.04205245
0.30483606 -0.28201458 0.1715545 0.13549384 0.66128385 0.027658835 -0.07830199 -0.35976523
0.20758821 0.104984276 0.4841255 -0.32548594 0.30539626 1.1161755 0.7830861 0.3956735
0.13879658 -0.09838033 0.22103564 -1.1444131 -0.5074913 -0.18500979 0.38063753 0.3545259
0.52387 0.4200565 0.052668054 0.16443494 0.44282496 -0.19158275 0.4862773 0.3396453
-0.09263489 -0.059684783 0.002977043 -0.39499214 -0.46107373 0.1260015 0.13949235 0.72142583
0.055576533 0.04218103 -0.019382745 0.51311064 0.4042299 0.07842921 0.6883337 0.65018976
0.34216368 0.34071892 0.061729856 1.0124321 -0.37724173 -0.15729304 -0.11273357 -0.013760899
0.083138466 -0.02405185 -0.12248637 -0.094978146 -0.12622593 -0.2705279 0.2330585 0.65231997
0.19134507 0.066557154 0.061531104 0.12963998 -0.31292927 -0.52468127 -0.40764648 0.67741036
-0.08773593 0.37111655 -0.0098019 -0.38894114 -0.8503606 0.50222874 -0.14415264 -0.15694812
0.42968196 -0.5062531 -0.019129127 -0.47661278 0.16546543 -0.07500892 -0.12845612 -0.6150412
-0.058066245 0.25296524 -0.05328392 0.43350196 -0.23660167 0.39201558 -0.31953472 -0.2240276
-0.46200907 -0.14141893 0.19712198 0.120270416 -0.07015935 -0.59510726 -0.17831998 0.21064143
-0.71260697 -0.13467212 0.28078297 -0.1382895 -0.48743224 -0.07226409 -0.08269151 -0.019707631
-0.19028118 -0.32493588 0.67197615 0.21555 0.20365028 0.29913428 0.41391283 -0.7549495
0.28157184 0.3345484 0.47098947 -0.2816586 0.0068733045 -0.8176909 0.63072723 0.76383793
-0.10383031 -0.115645654 0.8963615 0.3273354 -0.14275217 -0.41346258 -0.47134414 0.3316944
-0.20452942 0.041837245 0.21515782 -0.3918065 0.33717352 -0.10635108 -0.22552113 0.59066755
0.14837323 0.14108413 0.1786321 0.17773812 0.007950134 -0.19951668 0.019151028 -0.24951302
-0.27493078 0.2299094 0.08234951 -0.18781273 0.25527573 -0.51672995 0.26312706 -0.68458694

lstm.bias_hh_l0 f4 [600]
00000000: f8a6 2c3e 03fe 0a3e 3d1c 283e 5ccc f6bd
00000010: 8998 423e b33c 78bf eac0 0d3e 173a 05be
00000020: 994d 77be 31ca de3e db6e 293f 6878 7e3e
00000030: bb44 9b3e bf46 1c3e b797 9d3b 3b19 4a3d
00000040: f57f b4be f477 613f d979 7c3b 1706 cabe
00000050: 81d0 db3d b6ff 6f3e 9eb8 b73b 7ccd fbbe
00000060: 53f6 a63e 2793 b4be 240b 4f3e 7926 a83d
00000070: a94c c6bd 2f25 dfbe e9b8 683e fd32 c5be
00000080: 266d a8bc 2c77 f1bd c2eb 8cbe d197 923e
00000090: 4d55 3dbe 051d 11be b822 09bd cba5 b83e
000000a0: 17a7 ee3c ce19 66be d70c f8be 82ae 30bf
000000b0: 64d4 46bd 11c3 3d3e c30c 863d 9dbc 8fbe
000000c0: f34a e63d e18c 4b3f 9d5e 843e 87c7 813e
000000d0: 6723 973f 2ec4 cb3e 251d 883e b657 bebd
000000e0: 0948 103e d0a7 42bc 53a6 bcbd c075 f0be
000000f0: 609f f83e a749 133e 3ea3 b3be 2d0f 133f
00000100: 732a 543f d294 b93e 0377 9c3e 0edc aa3d
00000110: c6c1 853e 7e08 113e 2565 23bc 2b20 a1bf
00000120: 79c3 bfbe fff5 083f 51d9 0dbe d5ab b13d
00000130: 3740 ec3d 654f 6c3d 1330 1ebc 3295 383f
00000140: 2dc3 f93e 17eb c53e e97f 8d3d fc5a 3e3e
00000150: 1261 273f 6d75 d43e 4fd6 873d afd1 663e
00000160: 9a4b 2a3e 154d c53e 3bf0 1b3e c5f8 a5bf
00000170: c77c 843e d5d6 cb3d 196c 84be c9ce 203d
00000180: 2b5c a23e be46 90be 9b96 373e ed28 ec3d
00000190: d541 2c3f ab30 c83c 99e3 96bd 5c54 b6be
000001a0: 2282 463e d9e6 cc3d 9148 f93e 0634 a1be
000001b0: 5943 933e 41f9 8c3f f884 453f 0cd3 c93e
000001c0: b52d 1d3e 743c cfbd 8cce 5a3e d1ad 92bf
000001d0: 2456 02bf bd38 4dbe f48e c13e b5b4 b63e
000001e0: be9d 013f da37 d23e daaf 633d 969e 3b3e
000001f0: 6993 e43e 1289 2ebe bf29 f93e bcd0 a53e
00000200: c3ca c1bd 0ed3 82bd c74e b83c 74a5 d3be
00000210: 3e20 edbe f0f0 fe3d d972 263e 154a 383f
00000220: 888d 323d 6cb3 403d dcfd 57bc 0c5f 093f
00000230: a3b4 cb3e 8c65 973d 898a 303f 9006 253f
00000240: 805e ae3e bd44 ac3e 9184 893d 0756 823f
00000250: 6091 c4be f68f 17be 3ed9 e0bd 6d4e 54bc
00000260: bad5 9a3d efcc afbc 9a59 f9bd c83d babd
00000270: 3f00 debd 5ab4 84be e99f 7e3e 6204 293f
00000280: 81ad 403e 674c 8a3d 5f7c 7b3d de4e 0d3e
00000290: 5d0e 9fbe c72c 07bf 1f27 cebe 312b 2a3f
000002a0: 165a dbbd b277 be3e 8b7f 07bb d188 c5be
000002b0: a576 56bf d1f6 fb3e 5627 09be 1cf3 28be
000002c0: dad5 e33e 4149 fabe d4e8 e4bc fc90 f1be
000002d0: 2b04 2c3e abf5 82bd f4b5 00be 4977 1bbf
000002e0: c759 43bd 25a3 7e3e 5708 4dbd 978b dd3e
000002f0: 50d4 72be 64c1 ca3e 79b5 aabe 32cc 7dbe
00000300: 66cd e3be 2e36 1cbe 8485 4d3e e050 f83d
00000310: a497 89bd b92d 1dbf 4270 42be 3c48 533e
00000320: f644 38bf edfd 06be 152e 923e 71c1 0ebe
00000330: 946e f2be 4086 8ebd 8e04 a4bd 2423 26bc
00000340: 39cd 39be def0 a5be d102 2e3f ffbc 643e
00000350: 7955 5a3e 8b52 993e 7257 d63e 910a 3dbf
00000360: 5cac 8c3e c38a ab3e a298 f83e 6d59 84be
00000370: d0c0 7cbb 566c 52bf bca1 213f ea80 453f
00000380: 62b9 c0bd 3005 09be acdc 613f 19a9 9d3e
00000390: 8b21 21be d061 d4be 63ab f2be b3bc af3e
000003a0: b87d 55be 6386 f53c da1b 643e e86f c2be
000003b0: 2c3f b43e 1c6c b3bd 30c4 52be 7ea2 153f
000003c0: 8285 223e d112 073e 921d 223e bd8a 443e
000003d0: 13d1 dd3c 338e 64be bd86 863c a13f 83be
000003e0: 88b2 8fbe 5303 723e f7d7 c73d ec3c 3abe
000003f0: b15b 823e 9a6c 02bf 7d55 8e3e 3e59 31bf
0.16860569 0.1357346 0.16417022 -0.12050697 0.190035 -0.9696762 0.13843122 -0.13010441
-0.24150695 0.43513635 0.6618478 0.24850619 0.30325875 0.15261362 0.0048093456 0.049340468
-0.35253873 0.8807366 0.0038524775 -0.3945777 0.10733128 0.2343739 0.005606725 -0.4918021
0.32609805 -0.35268518 0.20219094 0.08210463 -0.096825905 -0.43583056 0.22726788 -0.38515463
-0.020559859 -0.11790308 -0.2752362 0.28631452 -0.18489571 -0.14171226 -0.033480376 0.3606399
0.029132409 -0.22470781 -0.48447296 -0.6901628 -0.048542395 0.18531443 0.06545403 -0.28073588
0.11244764 0.7951184 0.25853434 0.2534754 1.1807679 0.3979811 0.26584736 -0.09294073
0.14089979 -0.01188083 -0.09211411 -0.46964836 0.48559093 0.14383565 -0.3508548 0.5744503
0.8287727 0.36246353 0.3055955 0.08342753 0.261244 0.14163396 -0.009972845 -1.2587942
-0.3745382 0.5350036 -0.13852431 0.086753525 0.115356855 0.057692904 -0.0096550165 0.72102654
0.4878172 0.38655922 0.069091626 0.18589395 0.6538249 0.4149584 0.06632673 0.22540925
0.16630402 0.3853537 0.1522836 -1.2966543 0.25876448 0.09953085 -0.25863722 0.039259706
0.31710944 -0.28178972 0.17928545 0.115312435 0.6728795 0.02443727 -0.073676296 -0.35611236
0.19385579 0.10004968 0.48688176 -0.31485003 0.2876232 1.1013566 0.7715602 0.39418828
0.15349467 -0.101189524 0.21367854 -1.1459295 -0.5091269 -0.20041175 0.37804377 0.35684744
0.5063132 0.41058236 0.055587627 0.18322214 0.44643715 -0.17044476 0.48664662 0.32385814
-0.09462502 -0.06387912 0.022498501 -0.41337168 -0.4631366 0.12448299 0.16254748 0.7198804
0.043592006 0.04704611 -0.013183083 0.53660655 0.39786252 0.073924154 0.6896139 0.6446314
0.34056473 0.33646193 0.06714738 1.0182503 -0.38392162 -0.1480101 -0.10978936 -0.012958151
0.07560296 -0.021460025 -0.12175293 -0.09093815 -0.10839891 -0.25918847 0.24865688 0.6602231
0.18816186 0.06752854 0.061397906 0.13799617 -0.31065646 -0.528027 -0.40264222 0.66472155
-0.10710542 0.37200695 -0.0020675387 -0.38580945 -0.8377479 0.49211743 -0.13393912 -0.16498989
0.44499093 -0.48884013 -0.027943052 -0.47180927 0.16798465 -0.06394514 -0.1256941 -0.6072889
-0.04769304 0.24866922 -0.05005678 0.4327056 -0.23713803 0.3960067 -0.33341578 -0.24784926
-0.44492644 -0.15255043 0.20070463 0.12124801 -0.06718376 -0.6139789 -0.18988135 0.20633024
-0.71980226 -0.13182802 0.28550783 -0.1394098 -0.4734999 -0.069592 -0.08008681 -0.010140214
-0.18144692 -0.3241033 0.6797305 0.22337721 0.21321668 0.29945788 0.4186359 -0.7384425
0.2747525 0.33504304 0.4855395 -0.25849476 -0.0038567074 -0.8219656 0.6313741 0.7714983
-0.09410359 -0.13380885 0.88227344 0.30793074 -0.15735452 -0.41480875 -0.47396383 0.34323654
-0.20848739 0.029971307 0.2227625 -0.37976003 0.35204446 -0.087608546 -0.20582652 0.5845107
0.15871242 0.13190772 0.15831593 0.1919355 0.027077233 -0.2231987 0.01642167 -0.25634483
-0.28065896 0.2363408 0.09757989 -0.18187302 0.2546058 -0.5094696 0.27799597 -0.692768

layernorm.weight f4 [150]
00000000: 0000 803f 0000 803f 0000 803f 0000 803f
00000010: 0000 803f 0000 803f 0000 803f 0000 803f
00000020: 0000 803f 0000 803f 0000 803f 0000 803f
00000030: 0000 803f 0000 803f 0000 803f 0000 803f
00000040: 0000 803f 0000 803f 0000 803f 0000 803f
00000050: 0000 803f 0000 803f 0000 803f 0000 803f
00000060: 0000 803f 0000 803f 0000 803f 0000 803f
00000070: 0000 803f 0000 803f 0000 803f 0000 803f
00000080: 0000 803f 0000 803f 0000 803f 0000 803f
00000090: 0000 803f 0000 803f 0000 803f 0000 803f
000000a0: 0000 803f 0000 803f 0000 803f 0000 803f
000000b0: 0000 803f 0000 803f 0000 803f 0000 803f
000000c0: 0000 803f 0000 803f 0000 803f 0000 803f
000000d0: 0000 803f 0000 803f 0000 803f 0000 803f
000000e0: 0000 803f 0000 803f 0000 803f 0000 803f
000000f0: 0000 803f 0000 803f 0000 803f 0000 803f
00000100: 0000 803f 0000 803f 0000 803f 0000 803f
00000110: 0000 803f 0000 803f 0000 803f 0000 803f
00000120: 0000 803f 0000 803f 0000 803f 0000 803f
00000130: 0000 803f 0000 803f 0000 803f 0000 803f
00000140: 0000 803f 0000 803f 0000 803f 0000 803f
00000150: 0000 803f 0000 803f 0000 803f 0000 803f
00000160: 0000 803f 0000 803f 0000 803f 0000 803f
00000170: 0000 803f 0000 803f 0000 803f 0000 803f
00000180: 0000 803f 0000 803f 0000 803f 0000 803f
00000190: 0000 803f 0000 803f 0000 803f 0000 803f
000001a0: 0000 803f 0000 803f 0000 803f 0000 803f
000001b0: 0000 803f 0000 803f 0000 803f 0000 803f
000001c0: 0000 803f 0000 803f 0000 803f 0000 803f
000001d0: 0000 803f 0000 803f 0000 803f 0000 803f
000001e0: 0000 803f 0000 803f 0000 803f 0000 803f
000001f0: 0000 803f 0000 803f 0000 803f 0000 803f
00000200: 0000 803f 0000 803f 0000 803f 0000 803f
00000210: 0000 803f 0000 803f 0000 803f 0000 803f
00000220: 0000 803f 0000 803f 0000 803f 0000 803f
00000230: 0000 803f 0000 803f 0000 803f 0000 803f
00000240: 0000 803f 0000 803f 0000 803f 0000 803f
00000250: 0000 803f 0000 803f
1.0 1.0 1.0 1.0 1.0 1.0 1.0 1.0
1.0 1.0 1.0 1.0 1.0 1.0 1.0 1.0
1.0 1.0 1.0 1.0 1.0 1.0 1.0 1.0
1.0 1.0 1.0 1.0 1.0 1.0 1.0 1.0
1.0 1.0 1.0 1.0 1.0 1.0 1.0 1.0
1.0 1.0 1.0 1.0 1.0 1.0 1.0 1.0
1.0 1.0 1.0 1.0 1.0 1.0 1.0 1.0
1.0 1.0 1.0 1.0 1.0 1.0 1.0 1.0
1.0 1.0 1.0 1.0 1.0 1.0 1.0 1.0
1.0 1.0 1.0 1.0 1.0 1.0 1.0 1.0
1.0 1.0 1.0 1.0 1.0 1.0 1.0 1.0
1.0 1.0 1.0 1.0 1.0 1.0 1.0 1.0
1.0 1.0 1.0 1.0 1.0 1.0 1.0 1.0
1.0 1.0 1.0 1.0 1.0 1.0 1.0 1.0
1.0 1.0 1.0 1.0 1.0 1.0 1.0 1.0
1.0 1.0 1.0 1.0 1.0 1.0 1.0 1.0
1.0 1.0 1.0 1.0 1.0 1.0 1.0 1.0
1.0 1.0 1.0 1.0 1.0 1.0 1.0 1.0
1.0 1.0 1.0 1.0 1.0 1.0

layernorm.bias f4 [150]
00000000: 0000 0000 0000 0000 0000 0000 0000 0000
00000010: 0000 0000 0000 0000 0000 0000 0000 0000
00000020: 0000 0000 0000 0000 0000 0000 0000 0000
00000030: 0000 0000 0000 0000 0000 0000 0000 0000
00000040: 0000 0000 0000 0000 0000 0000 0000 0000
00000050: 0000 0000 0000 0000 0000 0000 0000 0000
00000060: 0000 0000 0000 0000 0000 0000 0000 0000
00000070: 0000 0000 0000 0000 0000 0000 0000 0000
00000080: 0000 0000 0000 0000 0000 0000 0000 0000
00000090: 0000 0000 0000 0000 0000 0000 0000 0000
000000a0: 0000 0000 0000 0000 0000 0000 0000 0000
000000b0: 0000 0000 0000 0000 0000 0000 0000 0000
000000c0: 0000 0000 0000 0000 0000 0000 0000 0000
000000d0: 0000 0000 0000 0000 0000 0000 0000 0000
000000e0: 0000 0000 0000 0000 0000 0000 0000 0000
000000f0: 0000 0000 0000 0000 0000 0000 0000 0000
00000100: 0000 0000 0000 0000 0000 0000 0000 0000
00000110: 0000 0000 0000 0000 0000 0000 0000 0000
00000120: 0000 0000 0000 0000 0000 0000 0000 0000
00000130: 0000 0000 0000 0000 0000 0000 0000 0000
00000140: 0000 0000 0000 0000 0000 0000 0000 0000
00000150: 0000 0000 0000 0000 0000 0000 0000 0000
00000160: 0000 0000 0000 0000 0000 0000 0000 0000
00000170: 0000 0000 0000 0000 0000 0000 0000 0000
00000180: 0000 0000 0000 0000 0000 0000 0000 0000
00000190: 0000 0000 0000 0000 0000 0000 0000 0000
000001a0: 0000 0000 0000 0000 0000 0000 0000 0000
000001b0: 0000 0000 0000 0000 0000 0000 0000 0000
000001c0: 0000 0000 0000 0000 0000 0000 0000 0000
000001d0: 0000 0000 0000 0000 0000 0000 0000 0000
000001e0: 0000 0000 0000 0000 0000 0000 0000 0000
000001f0: 0000 0000 0000 0000 0000 0000 0000 0000
00000200: 0000 0000 0000 0000 0000 0000 0000 0000
00000210: 0000 0000 0000 0000 0000 0000 0000 0000
00000220: 0000 0000 0000 0000 0000 0000 0000 0000
00000230: 0000 0000 0000 0000 0000 0000 0000 0000
00000240: 0000 0000 0000 0000 0000 0000 0000 0000
00000250: 0000 0000 0000 0000
0.0 0.0 0.0 0.0 0.0 0.0 0.0 0.0
0.0 0.0 0.0 0.0 0.0 0.0 0.0 0.0
0.0 0.0 0.0 0.0 0.0 0.0 0.0 0.0
0.0 0.0 0.0 0.0 0.0 0.0 0.0 0.0
0.0 0.0 0.0 0.0 0.0 0.0 0.0 0.0
0.0 0.0 0.0 0.0 0.0 0.0 0.0 0.0
0.0 0.0 0.0 0.0 0.0 0.0 0.0 0.0
0.0 0.0 0.0 0.0 0.0 0.0 0.0 0.0
0.0 0.0 0.0 0.0 0.0 0.0 0.0 0.0
0.0 0.0 0.0 0.0 0.0 0.0 0.0 0.0
0.0 0.0 0.0 0.0 0.0 0.0 0.0 0.0
0.0 0.0 0.0 0.0 0.0 0.0 0.0 0.0
0.0 0.0 0.0 0.0 0.0 0.0 0.0 0.0
0.0 0.0 0.0 0.0 0.0 0.0 0.0 0.0
0.0 0.0 0.0 0.0 0.0 0.0 0.0 0.0
0.0 0.0 0.0 0.0 0.0 0.0 0.0 0.0
0.0 0.0 0.0 0.0 0.0 0.0 0.0 0.0
0.0 0.0 0.0 0.0 0.0 0.0 0.0 0.0
0.0 0.0 0.0 0.0 0.0 0.0

batchnorm.weight f4 [150]
00000000: 8eef 293e e52e 313f 9b04 2e3f ccaa 1cbe
00000010: 50e5 dc3b 9a7b 0d3f 8b11 6fbb 90ab 84be
00000020: bc72 123f 7f30 e53f 0db7 d4be f8fb 1ebf
00000030: 3a80 653e 8e42 703f 7ab4 cb3e 2fcc 9a3c
00000040: ff67 e5bd d00e d93f 7f21 143e 197c 223e
00000050: 9262 fa3e 864a 1540 be50 cb3e 5753 36bd
00000060: 89d2 d7bc 643e c1be f98a b73c 35a1 a03f
00000070: 1241 053e b6d9 eabd 669c 773f fd6d 183f
00000080: af6b 963e b2e3 8ebe 5ece 983e b73d d23e
00000090: 9ec3 3b3e dc0f 00be de46 f73e 76b0 563e
000000a0: e53d a83e 61ca 363f 70e1 a93d de2d 363f
000000b0: a072 983f d2d1 34be 7c3d b23d d207 c23f
000000c0: d024 213f df10 7c3f b3f4 10bc 1c17 933f
000000d0: 01c2 0e3f ef0a 753e 0600 4e3f 4c9e a3be
000000e0: 89b0 ca3e 0659 4ebe ac94 e33e c847 08be
000000f0: 7820 643e 4caf 8a3e b40e af3e 02ab 823f
00000100: 359d e43e 3a9b 0f3f e7cc 7abd fecb e23e
00000110: d944 4a3f 2a19 823f 16d3 a53e 05d3 fa3f
00000120: 4d8b 003f 90e7 92bf 4e86 37bd cf68 393e
00000130: cb1c c63e 9ac9 2c3f b3cc c8bd ace9 a6bf
00000140: a6e0 4b3f c934 2d3f 749a 303f 2282 8d3d
00000150: eed4 253f 8c9c c83f eb52 82bc 3aad d93e
00000160: e4f5 9f3f 3837 783e e412 393f 542f 0a40
00000170: 9119 c3bd 57ce 033f 3f6b 9d3c 1b3e e23f
00000180: d4ba e43e 6211 20bf 5224 25bf 3e71 823e
00000190: 6ba4 473e 1644 ac3e c8d9 063f c645 973e
000001a0: 48f1 733f dbca 90bf c56c b13e e1f4 983e
000001b0: 84cb d03f 8b16 a83f e76c a33e 04c9 da3f
000001c0: 7664 923f 9a0b 5d3f 2723 913d e37e 513e
000001d0: 9bb5 7bbc 043d 433e d6ae 323e 98f9 b53f
000001e0: 4df3 8b3e a620 d23f fdfc df3e 718f d73d
000001f0: 4b30 9c3e 4cca c93c c079 1840 0236 623f
00000200: c9f1 333e 7816 b7bf b67c 01be 5bb1 3e3c
00000210: d392 853f ab0f 0e3f a075 623f 9575 0040
00000220: b91c dd3c 1d3d 023e f400 dd3e 0400 853f
00000230: c5d5 433f 8076 1a3e 8a65 a13f c149 bf3e
00000240: 963f 013f 0780 bf3e 0f84 0d3f 7bdb 8e3e
00000250: 6ac8 743e 9841 fb3e
0.16595289 0.6921218 0.6797578 -0.15299529 0.0067412034 0.55266726 -0.0036478962 -0.25912142
0.5720632 1.7905425 -0.41545907 -0.62103224 0.22412196 0.93851554 0.3978613 0.01889619
-0.11201476 1.6957645 0.14465903 0.15867652 0.48903328 2.3326735 0.3971004 -0.044513073
-0.026345508 -0.37742913 0.022405135 1.2549196 0.13013104 -0.11467306 0.9672302 0.5954283
0.2937903 -0.27908093 0.29844946 0.4106271 0.18336341 -0.1250605 0.48296255 0.20965752
0.32859722 0.71402556 0.08294952 0.7116374 1.1909981 -0.17658165 0.087031335 1.5158637
0.62946796 0.98463243 -0.008847403 1.1491427 0.55764776 0.23929952 0.80468786 -0.31956708
0.3958781 -0.20151147 0.44449365 -0.13308632 0.22278011 0.27086866 0.34190905 1.0208437
0.4465119 0.5609623 -0.061230566 0.4429626 0.79011303 1.016393 0.32387608 1.9595648
0.50212556 -1.1476917 -0.044805817 0.18106388 0.38693842 0.6749512 -0.09804668 -1.3040061
0.7963966 0.6765867 0.68985677 0.069095865 0.6477803 1.5672774 -0.015908679 0.42514974
1.2496915 0.24239814 0.7229445 2.1591387 -0.09526361 0.51486725 0.019216178 1.7675203
0.4467379 -0.62526524 -0.64508545 0.25477022 0.19496314 0.33645695 0.5267606 0.2954542
0.9529004 -1.1311907 0.34653297 0.29874328 1.6312108 1.313188 0.31919023 1.7092595
1.1436908 0.8634583 0.07086783 0.2045856 -0.015363122 0.19066244 0.17449507 1.4216795
0.2733406 1.6416214 0.43747702 0.10525406 0.30505595 0.024632595 2.382431 0.8836366
0.17572702 -1.4303732 -0.1264523 0.0116389645 1.0435432 0.5549266 0.8846073 2.0071766
0.026991235 0.12718625 0.4316479 1.039063 0.7649806 0.15084267 1.2609112 0.37360957
0.5048765 0.37402365 0.5527963 0.27901825 0.23904577 0.49073482

batchnorm.bias f4 [150]
00000000: 9d9a 683f 2108 4e3f 71e7 8f3f b44c 813f
00000010: 4596 9f3e 2eea 663f 200c 8b3e f809 283f
00000020: da2b 423f 616a 6cbf a19e 743f 5541 6a3f
00000030: 9b79 803f b118 a63f fe22 493f 027c 6d3f
00000040: 814e 923f 59b5 093f dd72 193f 0693 a63f
00000050: a4dd 5cbe 060f f43e 46b1 6e3f 4134 6a3f
00000060: cfc6 1f3f ec51 483f fb43 853f 7eed 1d3f
00000070: 4b65 883f 25c2 753f eaf7 293f 2998 603f
00000080: eea2 6d3f ea85 993f 7744 433f ab87 d43e
00000090: 7154 ad3f e0fa 713f 0d2d 553f d467 6d3f
000000a0: a77c c33e 9e85 1f3f 919c 523f 0478 503f
000000b0: 2027 ac3f 6288 713f c29c 513f accd 6cbf
000000c0: a7df 99be 903a 89bf d977 653f 6130 80bf
000000d0: 3093 8d3f 4177 9c3f ffc7 143f a372 813f
000000e0: 2405 0c3f 6d65 513f 859f 263f 6f2e 143f
000000f0: 33b8 483e be72 393f ec34 143f 982f c33e
00000100: 3d2f 893f 566e a9bf 08c0 713f cb98 813f
00000110: de75 0f3f da1d 183f da14 a53f 7345 2f3f
00000120: 65a0 a1bf ca52 5e3f 2de2 8a3f 5a67 4c3f
00000130: 73cc f13e 77ae 6e3f cb30 903f a7dd 1b3f
00000140: 71b1 af3d a141 343f c66b 393f 3479 a43f
00000150: 9933 733f bd0c 84bf e04a 7a3f 8ed8 7e3f
00000160: 3598 56bf 5230 7e3f 47ec 6f3f f6bc 503f
00000170: 92d0 5d3f 10c0 5a3f 92cf 353f 8961 55bf
00000180: d588 743f d580 793f 10a5 933f 930e 163e
00000190: e63b 873f 26c5 303f be1c 4f3f 44ce 7c3f
000001a0: c2b0 7e3f 6263 4f3f 3cfb 243e ae29 3c3f
000001b0: 7f10 8bbe 7711 6d3f 0beb 1c3f ac9a e6be
000001c0: 1df6 813f 9ce1 4d3f 2453 803f d56c 603f
000001d0: a659 603f 3d34 463f 2c68 2a3f 7556 493f
000001e0: 3d40 0d3e b052 90bf 1d7f 843f 1a3c 473f
000001f0: 9145 8d3f bfe9 9abf 6afc 353f 90f4 a53d
00000200: 9d2b a03f 2435 893f 3b7f 4b3f 59e0 473f
00000210: 316a 403f baba 7e3f 86f0 4c3f d281 073f
00000220: 05f5 723f 0124 4a3f e512 803f 64da e83e
00000230: 8dc0 833f 9f81 943f 231f dc3e 2b2a 823f
00000240: 02f4 823f 787e 983f 0778 813f 8c7a 443f
00000250: b782 1c3f 109c 7abf
0.9086092 0.80481154 1.1242505 1.0101533 0.31169334 0.9020108 0.27157688 0.6564021
0.7584816 -0.9234982 0.9555455 0.9150594 1.0037111 1.2976285 0.7856902 0.92767346
1.1430207 0.5379234 0.5994089 1.3013618 -0.21568924 0.47667712 0.9323925 0.91485983
0.6241273 0.7825 1.0411371 0.6169051 1.0655912 0.95999366 0.6639391 0.8773218
0.92826736 1.1993992 0.76276344 0.41509756 1.3541394 0.9452343 0.8327187 0.92736554
0.3818104 0.6231326 0.8227015 0.8143313 1.344944 0.9434873 0.8187982 -0.9250133
-0.30053446 -1.0720997 0.89636 -1.0014764 1.1060543 1.2223893 0.5811767 1.0113109
0.54695344 0.8179539 0.6508716 0.5788335 0.19601516 0.7244071 0.5789325 0.3812225
1.0717541 -1.3236797 0.9443364 1.0124754 0.56039226 0.5942055 1.2896988 0.68465346
-1.2627074 0.86845076 1.0850273 0.798452 0.47226295 0.9323496 1.126489 0.6088509
0.08578766 0.7041264 0.72430074 1.2849488 0.95000607 -1.0316387 0.977705 0.99549186
-0.83826 0.9929248 0.93719906 0.8153833 0.8664638 0.85449314 0.7101985 -0.8335195
0.9552129 0.9746221 1.1534748 0.14653997 1.0565155 0.69050825 0.8090323 0.98752236
0.9948846 0.8101102 0.16111463 0.735011 -0.27161023 0.92604774 0.6129615 -0.4503988
1.0153233 0.8042238 1.0025373 0.87666065 0.8763679 0.7742346 0.66565204 0.7864755
0.13794036 -1.1275234 1.0351292 0.7782608 1.1036855 -1.2102584 0.7108828 0.08103287
1.251331 1.0719342 0.79491013 0.780767 0.75162035 0.9950367 0.8005451 0.52932465
0.9490512 0.7896119 1.0005766 0.4547912 1.0293137 1.1602057 0.42992505 1.0169119
1.0230715 1.1913595 1.0114754 0.7674949 0.61136955 -0.9789438

batchnorm.running_mean f4 [150]
00000000: db4e 38b7 c370 98bb 06b0 6b3f 3199 1d3c
00000010: 5a57 573f ebf2 803c dcf1 41bf 9b7b ba3a
00000020: 6981 d5bd 45bb 47bf c640 73bf 19d0 8539
00000030: bba5 75bf 6c00 33b9 ac47 a2bd bc4b 653e
00000040: 5913 4729 2666 b2be 7f46 8a38 9c31 bfbb
00000050: 178a db3b bb51 ed3e fede ae3e 047f e8bc
00000060: 6a05 41bf ec71 993a a508 353d 2f2f 0c3f
00000070: 987e 98b4 3901 773c d448 4cbf ee39 893d
00000080: 0ad4 abb3 5550 e83c b572 41b6 936c 303b
00000090: 9091 2abb 57b1 793c 86b6 bdbd 9e75 76bf
000000a0: 57ad 1e3d 2972 c0bb ade4 eabc 017c 633e
000000b0: 5ce9 5b3f b50a 70bf 54b1 d5ba 72d5 383d
000000c0: a228 3fbf 3b37 253e 5643 073b ee44 3c3e
000000d0: 3b06 ecbc 0f6c 3f3f bd74 7dbe c8a2 c03b
000000e0: ac99 32bc 4af8 153b df2e c2bb a066 513c
000000f0: 6212 76bf 8b82 95bc b2f1 2cbc 16c7 73bb
00000100: 2cc6 77bf a8f7 3a3f d01b 74bf ea53 debc
00000110: e09b fcbd 4b3c 70be 281c 4cbb b660 e03e
00000120: accb 9c3a 2581 52bf 5436 483a 8b7d 67bb
00000130: 2138 5ebf 3097 82be 4fde b13b a430 35bf
00000140: 32e9 e1be 6cd9 743f e418 9abe 0216 71bf
00000150: f446 34be bf8b 403f 2892 2739 b6df 33bd
00000160: 5a02 423f aa51 8fbc b316 f2be 2d48 1a3f
00000170: 65ed 75bf f431 c7bb de9a d5bb 21ca 3abf
00000180: bf52 6cbf 0088 d93c 6ae4 2dbf e6d6 973c
00000190: c7c6 70bf 11e4 1dbd 66c4 b1be eab6 1032
000001a0: 6499 fb3e ddd3 06bf 0792 72bf 07ab c93b
000001b0: 85ab 573b 085d 9dbe bd52 78bf e7fa 0abf
000001c0: 0d7a 4f3f 22c1 eabd 113f 6ebf 4c7b 1e3c
000001d0: 9520 c33c bca2 a6bb d795 4dbf d33a 92bc
000001e0: 4fe3 6fbf 0b6b 3e3f 1517 25bd bf04 5bbf
000001f0: 4f3d 2d3f 44f3 4dba 4292 a9be b7f1 253f
00000200: 4bab a3b9 d3f0 54bf a300 6f3b 227e 6b3c
00000210: 408f 34bb e2b9 74be 98d3 47be 7284 62be
00000220: a34c 9c3c 7579 3bbd 579e c3bb 0be8 bbbb
00000230: 490a 84be fcc6 6abf be48 afbe 6bb5 6ebf
00000240: 3365 723f efe6 77bf 73de dfbd 8f0a 24bd
00000250: c831 2b3b c1e2 2539
-1.0985615e-05 -0.004652114 0.92065465 0.009619043 0.8411766 0.015740832 -0.75759673 0.0014227511
-0.10425074 -0.78020126 -0.9502071 0.00025522782 -0.9595601 -0.00017070927 -0.079238266 0.22392172
4.4203658e-14 -0.34843558 6.593484e-05 -0.0058347713 0.006699811 0.46351418 0.34154505 -0.028380878
-0.75398886 0.0011706925 0.044197697 0.54759496 -2.8404315e-07 0.015075975 -0.79798627 0.06700502
-8.001378e-08 0.028358618 -2.882601e-06 0.0026920184 -0.0026026703 0.015240035 -0.09263329 -0.9627322
0.03873953 -0.005872984 -0.028673494 0.22215272 0.85902953 -0.9376634 -0.0016303458 0.045125432
-0.74671376 0.1613435 0.00206395 0.1838567 -0.028811565 0.7477426 -0.24751563 0.00587878
-0.010900896 0.0022883588 -0.0059259976 0.012780815 -0.961218 -0.018250724 -0.0105556715 -0.0037197522
-0.9678676 0.73034143 -0.9535494 -0.027139623 -0.12334418 -0.234605 -0.0031144712 0.43823785
0.0011962554 -0.8222831 0.000763749 -0.0035322632 -0.86804396 -0.25505972 0.0054281126 -0.70777345
-0.44123226 0.9564426 -0.30097115 -0.94174206 -0.17605191 0.75213236 0.00015980809 -0.04391452
0.7578484 -0.017494995 -0.47282943 0.6026638 -0.9606536 -0.006078953 -0.0065187057 -0.72964674
-0.9231376 0.026554108 -0.6792666 0.018535089 -0.9405331 -0.03854758 -0.34720153 8.423493e-09
0.49140465 -0.5266703 -0.9475407 0.0061544213 0.003290863 -0.3073504 -0.9700125 -0.54289097
0.8104561 -0.114626184 -0.9306498 0.009672951 0.023819247 -0.0050853174 -0.8030676 -0.017850315
-0.9370622 0.74382085 -0.040305216 -0.85554117 0.67671674 -0.0007856379 -0.33119398 0.6482195
-0.00031217406 -0.8317997 0.0036468885 0.014373334 -0.0027551204 -0.23899034 -0.1951431 -0.22120836
0.019079512 -0.045770127 -0.0059698033 -0.005734449 -0.25789097 -0.91709876 -0.34235185 -0.9324557
0.9468567 -0.9683675 -0.10931101 -0.040049132 0.0026122201 0.00015820099
