src/results/subject_P5/best_model.pth (torch, 481333 bytes, 15 tensors)

input_linear.weight f4 [40, 40]
00000000: eefe 7abd 882e 9a3d 404b 2bbb 1d2c a4bd
00000010: 4682 c63d f44d 903d 953c e2bd 2027 3a3c
00000020: 9503 17be 5465 4dbd 1da4 0abe 3e60 c03d
00000030: 1979 003e 7375 0a3e 363e 88bd c02c 12bb
00000040: 20f1 28bc 4a30 15bd d7f1 093e a088 ac3d
00000050: 58cb a1bd 509e 71bc 9019 2dbc d81e 82bc
00000060: fbbe 063e 7b4f 053e 5aa8 28bd 0238 00be
00000070: d25a ee3d 01ab 1e3e 19bd 1d3e f291 803d
00000080: 684e 9f3c d0c1 6c3d 022f 1cbd e61c 0bbe
00000090: 008e ab3c 9a03 c33d f411 283d 1edd e03d
000000a0: f057 c4bd 5d47 003e db17 cebd c6f9 e23d
000000b0: 8c29 dbbd 06c8 d13d 6078 ba3c 0c00 393d
000000c0: 72d5 91bd 5442 893d f045 e6bd ec18 e4bd
000000d0: 7acc c73d 4e8d ee3d 98dc 5d3d f8ef d43c
000000e0: b20b d23d d7bb 1abe b0a5 7b3c 96a3 97bd
000000f0: 66ad c13d 4a6a da3d 9892 f63c dc2b 423d
00000100: 3814 05be 285c 98bc b115 023e b8e4 a73d
00000110: e256 923d 2369 1a3e 00ce 663c 68df 373d
00000120: 517b 093e d68b f63d c511 f5bd e455 afbd
00000130: 3efc da3d cec9 f43d a626 ed3d e801 ebbd
00000140: b898 abbd d08d 1ebd 406a 53bc ac1a af3d
00000150: e8e9 aabc 198a 0e3e c433 a83d aed6 bf3d
00000160: 4483 7dbd a169 1e3e 54de 223d fe03 cc3d
00000170: a801 1a3d aa4d f73d 30ee 8d3c f4db 0c3d
00000180: 7b6f 113e 9b15 d5bd be20 29bd f784 e3bd
00000190: c05f d3bd 7cb9 923d f073 eebd 3455 313d
000001a0: 6a97 a93d b59d 0ebe 0048 2a39 e2cf 42bd
000001b0: 6640 1dbe f46b e5bd 261d eabd 14fd 7ebd
000001c0: ec82 213d 471a 063e 0231 d0bd 36d5 7abd
000001d0: e4c0 0fbe 7248 10be 7ee5 d43d 2998 19be
000001e0: c9fb 03be 60ac a0bb 179a 9abd 701f d8bd
000001f0: de7b 03be 9cd8 18be 1058 d93c 5acd a13d
00000200: 90d3 97bc 15f5 9abd d966 9bbd c2cf aa3d
00000210: b6ce c03d cd37 82bd 7be5 083e 7eca 13be
00000220: 0f9d edbd f842 fcbc 00d0 183b c85a bdbd
00000230: 984b b7bd 0d15 06be 00a0 733c aa9b 21be
00000240: f459 02be 066c ef3d e24f db3d e091 d83c
00000250: 77c4 103e c6ea ddbd ef4d 1d3e 4868 a8bd
00000260: fd57 053e 1a4b ff3d 4c32 e4bd 604a 223d
00000270: 284d 0a3d e0e4 d5bb 3c98 b9bd f0cf 4fbc
00000280: b51c 1a3e 6011 01bd d092 4b3c cffc 20be
00000290: d8ef 17be c04c 443b 6447 51bd 0a05 823d
000002a0: c975 99bd b3d7 0f3e 7afd ee3d 774e b9bd
000002b0: 186b debc 9a5f 1fbe 90b0 843c 1e9e e73d
000002c0: 07fc 023e 0030 643d d85a d4bd 6e21 fbbd
000002d0: fe7c 943d 7cd2 603d 2b0d adbd 6e40 2dbd
000002e0: 7c3e 2b3d 4d32 10be 009c 993b f75d 1a3e
000002f0: be80 c23d eee4 2bbd 7291 be3d d1d1 99bd
00000300: cc29 fcbd 668e 1fbe 3e48 2ebd 7053 d2bd
00000310: 9cf7 bb3d 6c3e 07be 108a 763d af3c 0c3e
00000320: 432e 10be 2a58 c83d 2e93 40bd 301c 0abc
00000330: f966 1cbe 302d af3d 2222 e23d 55da 01be
00000340: ac61 7f3d 558f 91bd 482f cdbd cb53 a6bd
00000350: ea67 cdbd 2bad 023e 7c63 5abd c3a1 f0bd
00000360: 928b a0bd 863b cf3d 161e 18bd bb3e 123e
00000370: ee2c fd3d 6847 3dbd 2222 853d d9f6 91bd
00000380: 261d 15be 0684 eebd 8098 bdba 18ec dabc
00000390: 3049 173c 9827 b03c f03e 24bc bf4e d2bd
000003a0: aa87 e93d 5e1c cdbd 00c8 a73a bd87 1c3e
000003b0: ec47 5d3d 2426 6ebd 7628 8a3d 6000 0f3c
000003c0: 37e7 123e fa5f ad3d 08f2 9c3d 0d3d 8cbd
000003d0: 30b9 a63c cedd d43d 47a8 1e3e 660d debd
000003e0: 6274 e5bd 9c06 1ebe b658 94bd 503d 073c
000003f0: e6bb b33d 2b38 1abe acb5 a23d 14fd 4abd
-0.061278276 0.075284064 -0.0026137382 -0.080162264 0.096928164 0.070461184 -0.11046711 0.011361867
-0.1474746 -0.050145462 -0.13539167 0.09393357 0.12546195 0.13521366 -0.06652491 -0.0022304505
-0.010311395 -0.036423005 0.13471161 0.08424497 -0.07900113 -0.014747217 -0.010565177 -0.015883848
0.13158791 0.130186 -0.041176178 -0.12521365 0.11638416 0.1549492 0.15404166 0.06277837
0.019446567 0.05780202 -0.038130768 -0.13585243 0.020941734 0.09522171 0.041032746 0.10979675
-0.09587085 0.12527223 -0.10063144 0.11082797 -0.10701284 0.102432296 0.022762477 0.04516606
-0.071207896 0.06702104 -0.11243808 -0.11137566 0.09755798 0.116480455 0.054165453 0.025993332
0.10256137 -0.15110718 0.015359327 -0.074042484 0.09456901 0.10664804 0.030099198 0.04740511
-0.12995994 -0.018598631 0.12703587 0.081979215 0.07145478 0.15079169 0.0140872 0.04489079
0.13425948 0.1203839 -0.1196628 -0.08561304 0.10692643 0.11952554 0.11579637 -0.11474973
-0.08378738 -0.03870946 -0.01290375 0.08550009 -0.020863488 0.13919868 0.082129985 0.09367119
-0.061892763 0.15469982 0.03976281 0.09961699 0.037599236 0.1207536 0.01732549 0.03438945
0.14202683 -0.104045115 -0.04129099 -0.111093454 -0.10320997 0.071642846 -0.11643207 0.043294147
0.08280833 -0.13927348 0.00016239285 -0.047561534 -0.15356597 -0.11202231 -0.11431341 -0.062253073
0.039431497 0.13095962 -0.101655975 -0.06123849 -0.14038426 -0.14090136 0.10395335 -0.1499945
-0.12889017 -0.004903361 -0.075489216 -0.10552871 -0.1284022 -0.1492638 0.02653125 0.07900496
-0.018533498 -0.07566277 -0.07587976 0.08340408 0.09414427 -0.063582994 0.1336879 -0.14432713
-0.11602222 -0.030793652 0.0023317337 -0.09245831 -0.08949965 -0.13093968 0.01486969 -0.15782037
-0.12729627 0.11690526 0.10708596 0.026436746 0.14137445 -0.10835795 0.1536176 -0.08223015
0.13021846 0.12465496 -0.11142406 0.03962171 0.03376499 -0.006527528 -0.090622395 -0.0126838535
0.15050013 -0.03151071 0.01242514 -0.15721439 -0.14837587 0.0029952973 -0.051093474 0.063486174
-0.07493169 0.14047126 0.116694406 -0.09048169 -0.027150676 -0.15563813 0.016197473 0.11309455
0.12791453 0.05570984 -0.103688896 -0.122622356 0.07250403 0.054888234 -0.08449777 -0.042297773
0.041807637 -0.14081688 0.004687786 0.15074907 0.09497212 -0.04196637 0.09305085 -0.075107224
-0.123126596 -0.15581664 -0.042549364 -0.10269821 0.09178087 -0.13207406 0.06019026 0.13695024
-0.14080147 0.09782441 -0.04701536 -0.008429572 -0.15273656 0.08553541 0.110416666 -0.12680943
0.062349007 -0.071074165 -0.10018784 -0.08121451 -0.10029586 0.12761371 -0.053317532 -0.117496036
-0.07839121 0.10118775 -0.037138067 0.14281742 0.12362085 -0.046210676 0.06500651 -0.071271606
-0.145619 -0.11646275 -0.0014465004 -0.026723906 0.009233758 0.021503255 -0.010024771 -0.10268926
0.11402829 -0.10015176 0.0012800694 0.15286155 0.05402367 -0.058141842 0.067459986 0.008728117
0.14346014 0.08465572 0.07663351 -0.06847582 0.020351976 0.103938684 0.1549388 -0.10842399
-0.11203839 -0.15432209 -0.07243483 0.008254364 0.08776073 -0.15060489 0.079448074 -0.04955776

input_linear.bias f4 [40]
00000000: 1a5c 3bbd 90f9 e3bc 1b34 0fbe f41e 0d3d
00000010: d0eb 8cbc 6e70 dc3d b866 f53c 38ba 51bd
00000020: 1484 86bd c084 17bb a6f7 ce3d 1a58 853d
00000030: 8ee8 f13d 86d4 1abd d000 9f3c 22db 08bd
00000040: 089e f23c 613b 1e3e 543d 3a3d d4fa 693d
00000050: 0012 bfba e095 ef3c 22b6 1abe 1450 2dbd
00000060: 47cb 003e d4f6 193d 4caf 16bd d2e2 d43d
00000070: 602b c8bc 6045 12be ae2b e5bd 023d 51bd
00000080: c463 2abd 3e16 ae3d 2410 bdbd f81b 1a3d
00000090: da82 0cbd 22a6 f53d ae89 dd3d ba50 f8bd
-0.04574213 -0.027828962 -0.1398472 0.034453347 -0.017202288 0.10763632 0.029956207 -0.051202983
-0.06568161 -0.0023119897 0.10105829 0.06510945 0.118119344 -0.037800334 0.019409567 -0.033412106
0.02961637 0.15452339 0.045468643 0.057123974 -0.0014577508 0.02924627 -0.1510854 -0.042312697
0.12577544 0.03758891 -0.03678827 0.10394825 -0.024434745 -0.14284277 -0.11189972 -0.051083572
-0.04159905 0.08500336 -0.09231594 0.03762433 -0.034304477 0.11994578 0.10817276 -0.12124772

lstm.weight_ih_l0 f4 [600, 40]
00000000: c618 b5be 4842 4abf e011 653e 8364 adbe
00000010: 1a7a fabe 78fa 343e cda1 013e 4890 53be
00000020: d28e 21be dc5a 3bbe 108d 203e 533d 67be
00000030: 42f3 853e 641f f73d f9ed 003e a348 79be
00000040: 4350 92bd 5dd1 373e eb08 343e 2366 063e
00000050: f580 5c3e ee52 403e 0c7d c13e 7ec0 88be
00000060: c48b 4e3e 0b8e 99be d398 543e 0464 033f
00000070: b586 e73d 0104 0a3d 0034 f43d 2864 453e
00000080: f646 333e 1ebc d0bd f505 bb3e 5f1a 50be
00000090: ef1e 353e 8d17 64be 99dd 30be ff01 e53d
000000a0: 3626 253e be61 393e 1456 623d 9b4a f7be
000000b0: 0975 363e 847e ba3d 4dbf 863d 6b10 06be
000000c0: 6e7f 19be 81c1 c5bd 8650 b6bd 9a28 b8be
000000d0: 7fa7 cb3d 04ba a83d e520 243f 1090 bf3d
000000e0: 264e 013e 270c e1bd eaeb 39bd 0baa 7a3d
000000f0: eaff b83d 2cad ee3d e68a 6ebe 44ea f03d
00000100: 98a5 b43d 5616 9d3e f1f5 07be d2c7 f9bd
00000110: 5cb8 5abd 892b 053f e552 75bc 6c24 0f3e
00000120: a3e3 e4bd 83f2 fb3d 2064 8ebe fed8 c03d
00000130: af09 883d 2597 1cbd da60 473e 0f62 373f
00000140: 796e a8be 3151 3f3e 4425 da3e 9895 c53e
00000150: 7632 833e 6a51 e43e 4a85 003f 7b70 f9be
00000160: de6d 02bf adad eebe f14e 9f3e 4d83 8b3d
00000170: 9830 903e 1ff9 e53e da17 a1be 1e82 96bd
00000180: 476b 9c3c a8fd b13e d346 bc3e 26b9 cf3e
00000190: 93ac d23e 2da4 f03e b7da 35be 25a2 963d
000001a0: c806 da3e e151 b93d ebed 8b3e 95b6 a13e
000001b0: 1ba1 c03e 0c36 123e ebd8 b13e d88b d63e
000001c0: 990b af3e 75c9 2f3d 375e 22be b45c d93c
000001d0: e1d0 f13e 08f2 96bb 1fd9 a93d ff76 acbe
000001e0: da7d 75be c7b6 473c 3a76 5b3e e4df 98be
000001f0: 94b3 8a3e 446c 883e 688a 8b3e 579e 99be
00000200: d0f6 4fbe 30ca 7dbe 8f87 633e f21c ac3e
00000210: 722f 453e f8ea 723e d401 7cbd c420 6bbe
00000220: a145 39be 83a8 543e 8b52 033e b7ce 563e
00000230: a3d0 733e 09b3 893e 24b8 013f fb22 03bf
00000240: 9bbf 6d3e 536a a3be 2993 98bc 6841 c63e
00000250: 8fb8 0a3e d3bc 463d 7452 133e e6bb 553e
00000260: b115 483e a790 25be ca76 ff3e 09f3 f0be
00000270: f25f 523e 2421 073d 4de6 4c3d 353d 07be
00000280: 81e2 f8be ce53 f4be e627 8fbd 56d3 7e3e
00000290: 1ebf d5be 6a9a edbd e9da edbd d8ba fe3d
000002a0: 615c db3d e496 a13d c12a 203d 2c39 a63d
000002b0: e395 32be 2cc0 a1bd 9acc a5be b103 453d
000002c0: 0ea3 debe 4af4 093d 89d5 91b9 244b eebd
000002d0: 4f0c a8bd a91d 00be 03f4 233e 7e10 25be
000002e0: cda9 afbd 8d1a 8d3e e312 f7bd abbd f6bd
000002f0: 7a95 8c3c b7fa 9b3c 33f4 333d b213 d9bd
00000300: cacc 1bbc 15ab c0be 26bb 453e 32b7 27be
00000310: 628e 3ebd fd6c 7cbe e6d3 1fbe 541a 9fbe
00000320: f7d7 d53d beb7 69be 1b99 59be 308e 60be
00000330: 19fb 42be fd74 64be de2c 43be 7a22 683e
00000340: d4a4 843e 789e 603e 43ab a9be 0dd4 363c
00000350: 775d 58bd 26f1 62be 691d d63e 0da1 0abe
00000360: 5f60 23be 2692 b4be 7a31 9ebe 7624 8bbe
00000370: 1464 92be 06b3 69be d134 42be 0b54 c63b
00000380: 3d5f 80be 52b7 49be cc1e 33bd d32f 4dbd
00000390: 026d b8be 1b80 653d 50a6 a6be 5c54 85be
000003a0: da3f 9dbe c06c 06be 3986 40be ae4d 533c
000003b0: e511 63be 0d26 f9bd 9ca1 4bbe 0ddf bd3e
000003c0: 1fe5 1d3e 1323 8d3e 4d50 efbe aa25 03bf
000003d0: 7da7 073e 57e2 e4be 6c88 d8be 17aa f53e
000003e0: 8a5c cf3e 7167 023f f64b 1cbf 556f d53c
000003f0: 1ee0 b5be 6128 d6be ae8a 8c3f faf1 ac3e
-0.35370463 -0.7900739 0.223701 -0.33865747 -0.4892128 0.17673671 0.12659378 -0.20660508
-0.15777138 -0.18296379 0.15678811 -0.22581987 0.26162153 0.12066534 0.1259078 -0.24344115
-0.07144215 0.1795096 0.17581527 0.131249 0.21533568 0.18781635 0.37790716 -0.2670936
0.20170504 -0.29991183 0.20761423 0.51324487 0.1130499 0.033695225 0.11923981 0.19276488
0.17507538 -0.101921305 0.36527982 -0.2032256 0.17687581 -0.22274609 -0.17272033 0.11182021
0.16127858 0.18103692 0.05525787 -0.48299107 0.17818083 0.09106162 0.065794565 -0.130922
-0.14990017 -0.096560486 -0.089020774 -0.35968477 0.09944057 0.08238605 0.64112693 0.093536496
0.12627468 -0.10988646 -0.045391 0.06119732 0.09033187 0.11654124 -0.23295173 0.117634326
0.08820647 0.30681103 -0.13277413 -0.12196316 -0.053398475 0.52019554 -0.014973377 0.13978738
-0.11176231 0.12302115 -0.27810764 0.09416388 0.06642472 -0.03823008 0.1947054 0.71634
-0.32896784 0.18683316 0.42606556 0.38590693 0.25624436 0.44593364 0.5020338 -0.48718628
-0.50948894 -0.4661688 0.31114915 0.06812153 0.28162074 0.44916627 -0.3146351 -0.07349037
0.019094123 0.34763837 0.36772785 0.40570945 0.4114729 0.47000256 -0.17759214 0.07355145
0.425833 0.0904882 0.27329955 0.31584612 0.37622914 0.1427843 0.34735808 0.41903567
0.34188536 0.042916734 -0.15856253 0.026533462 0.47229674 -0.004606489 0.08293366 -0.33684537
-0.2397379 0.012189574 0.21431819 -0.29858315 0.27090132 0.266451 0.27254033 -0.30003616
-0.20308995 -0.2478416 0.2221968 0.33615834 0.1925638 0.23722446 -0.06152518 -0.22961718
-0.18092968 0.20767407 0.12824456 0.20977293 0.23810057 0.26894405 0.506716 -0.5122525
0.23217623 -0.31917056 -0.018624859 0.38721776 0.13546966 0.04851992 0.14386922 0.20872459
0.19539525 -0.16168462 0.49895316 -0.4706042 0.20544413 0.03299059 0.05002432 -0.13206942
-0.4861031 -0.47720188 -0.06990032 0.24885306 -0.41747373 -0.11601718 -0.116140194 0.12437981
0.10710979 0.07890108 0.039103273 0.081163734 -0.1743999 -0.07897982 -0.3238266 0.048099224
-0.43483776 0.033680238 -0.0002781565 -0.11635426 -0.08205473 -0.12511314 0.16011052 -0.16119573
-0.08577309 0.2755932 -0.12064149 -0.12047895 0.01716112 0.019040449 0.04393406 -0.1059946
-0.009509275 -0.37630525 0.19309673 -0.16378477 -0.046522506 -0.2465095 -0.15608177 -0.31074774
0.10441583 -0.22823998 -0.21249811 -0.2192924 -0.19041099 -0.22310252 -0.19060084 0.22669402
0.25907004 0.21935451 -0.33138475 0.011158955 -0.05282351 -0.22162303 0.41819313 -0.13537998
-0.15954731 -0.35267752 -0.30897123 -0.27176255 -0.2859198 -0.22822198 -0.1896546 0.006052499
-0.2507266 -0.19698837 -0.043730542 -0.050094437 -0.36020666 0.056030374 -0.3254876 -0.26040924
-0.30712777 -0.13127422 -0.18801202 0.012896938 -0.22174795 -0.12165461 -0.19885868 0.37084237
0.15419434 0.27565822 -0.46740952 -0.51229346 0.13247485 -0.44703934 -0.42291582 0.4798133
0.4050029 0.5093909 -0.6105341 0.026054064 -0.3552255 -0.41827682 1.0979822 0.33778363

lstm.weight_hh_l0 f4 [600, 150]
00000000: 2510 833c 814b 663e 86a7 7fbc 7db7 55be
00000010: a87b 1b3e 4c6e 183b 5b23 3bbe 6c0d 213c
00000020: 89ef 643e 134d 3cbd 5b60 9d3d a89f 183e
00000030: 72ef f63d effe d0be 1a6c fb3c b6d4 08be
00000040: 348d aabd 272f d23c ac1d 1bbe 91ff 25bd
00000050: 54e7 813e a7e0 eabd e03a 563e 3886 37be
00000060: fd40 0e3e b9bd 803d 6939 8fbd 70cf c93e
00000070: 414e d73d 0a86 f03b a9ae 393d 1577 15be
00000080: 74ff 91bd b635 eebd 0c6e f2bd 0e90 393c
00000090: 87d9 f1bb 3998 b8bd c9f8 d4bd efb1 373e
000000a0: 319c e93c 62af 253e 78df 0dbe 1c1a 39bd
000000b0: 2278 f9bd 13da 89be 5dcf e83c 9b0b 68bb
000000c0: d9bc e93b fefc d23d abe1 34be ebe4 013e
000000d0: f8c9 173e 9fa8 5ebd 9845 1ebe 47ea 0d3d
000000e0: 90ea 413e 69b5 ddbd d2ae 2cbd d53e 853e
000000f0: fc1f 0cbd 7521 30be 9a2d 793e 5038 a7be
00000100: 378d edbc dfde 86bd f461 a9be 8dd7 613e
00000110: fb71 0d3e 88f0 9e3d ad59 433c f6d4 ae3d
00000120: a0e8 783e 1783 ce3d b50e ab3e f444 36be
00000130: f35e 2e3e ecee fe3e 2274 e83c 606c 813f
00000140: 5545 123d 7fe3 30be bb20 9e3e 48ee 89bc
00000150: 7e9c 973e 2040 ecbd cb4d d03d b7db 2bbb
00000160: 1224 a93d c284 e7bd 0cbf 823e 877e 2cbd
00000170: d3c8 8c3e fa11 da3d 7d54 ca3d c27a 103c
00000180: 7e36 303e 6ab3 3a3e 38dd 16be 164a 853e
00000190: 79c0 9f3d d88e 02be 2185 04be d5e1 e7ba
000001a0: 20cb fc3d 988b cdbe d582 603c 2d61 993e
000001b0: dca1 133d dfee 06bd b95b b13d 0e07 593d
000001c0: 4af5 8b3e 96ad c13d 80fe 7d3e 1a72 b1be
000001d0: 902e 55be bcde bb3d a8c1 323e 23d7 793e
000001e0: fc60 0dbe aeb8 51be 74fb fdbc 356a 2ebf
000001f0: 15bc 92bd e68d f9be 6e1e 0d3f caba 553f
00000200: 6c98 b43c 9de5 b33d c7a0 61be 2e6a af3e
00000210: bdcd 5e3e de58 303e 9d3b 533e 3635 e13d
00000220: 3436 b23d 73b3 723e e628 cb3d 0c72 793e
00000230: 59a8 583d d12e 23bd 4fc4 2ebe e2c2 8ebe
00000240: 9c88 8ebc 8c77 e2be f4da afbe 2073 0cbe
00000250: 1814 253e 56e4 c53d d835 8e3e 43e8 afbe
00000260: 109b c93e 8187 c1be 5559 be3e 7f12 37be
00000270: d932 85be 6dd7 97be 78cc 683e 0d6d d93e
00000280: a86d 723e c8d1 e63e 76a2 4b3e 127f 42bc
00000290: bff6 d13e 61ed 3dbf 96bf 9b3e bd5a b13e
000002a0: fa09 8fbe e635 3b3e 942a 863e 2879 a23e
000002b0: d9e4 d0be 9f2f 3a3e b2d4 8abe 5d99 8c3e
000002c0: 8f24 6c3e 50b8 513e 5688 713e ca65 c3be
000002d0: 6820 103e 3dd2 8cbe 58c2 99be e85a 98be
000002e0: 64e1 0f3e 0494 0c3e afe6 17be 221b 28be
000002f0: a4eb 20be bca9 92be cbf2 983e 1f17 b6be
00000300: 2afc 2cbe fcaf 023f 384e ee3e 49eb 99be
00000310: 69e2 bbbe ba2d dd3e 72e7 e3bd 461c cbbe
00000320: 1e73 16bf c866 efbe 654e 6bbd da8c 8abe
00000330: 3668 443e 9737 7b3e 71ff dabd 5623 87be
00000340: 411b cd3e ffa4 83be e750 43be cd0b 8ebd
00000350: d271 b2be 2d43 d13e 2bd0 c73e e629 1f3d
00000360: 64a5 28be 0ea4 8dbe 4584 af3e a480 cfbe
00000370: 382b d83e a4dd ab3e 2ffa 84bd 901b 0f3f
00000380: d2b8 f3bd f1ef 99be b5be 1a3f 5c50 083d
00000390: d6c8 de3e 87ab bb3e 5bbf 87be 5c9b 84bc
000003a0: b46b 86be cfd8 b83e f698 16be 0ae0 a8be
000003b0: 1ead a83e fdf0 a13e ed99 56be 3a26 21bd
000003c0: 23dd d33d 4821 ca3e 6321 82be c860 b93e
000003d0: 5ff8 413e 6e3c d6be 1080 c0be d93f 52be
000003e0: 0005 28be bfaf 67be f48a d13e 615e 9d3e
000003f0: 7a6b 35be ac98 c83e 57b9 cdbe 43ea 6dbe
0.01599891 0.2248974 -0.015603906 -0.20870776 0.1518389 0.0023259101 -0.18275206 0.00982986
0.22357 -0.04597194 0.07684394 0.14904654 0.12057389 -0.408195 0.030691195 -0.13362393
-0.083277136 0.02565725 -0.15148038 -0.04052693 0.25371802 -0.1146863 0.20920897 -0.17922294
0.13891979 0.06286187 -0.06993372 0.39416075 0.105129726 0.0073401975 0.045332585 -0.14596207
-0.07128802 -0.11631338 -0.11837396 0.011325849 -0.0073806676 -0.09013409 -0.103990145 0.1793897
0.02851686 0.16180184 -0.13854778 -0.045190915 -0.12181117 -0.2692419 0.028419191 -0.0035407308
0.007133108 0.10302161 -0.1766421 0.12684982 0.14823139 -0.05436003 -0.15456235 0.034647252
0.18937135 -0.10825617 -0.04215891 0.260245 -0.03421019 -0.17200263 0.24333802 -0.3266015
-0.028998 -0.06585478 -0.33082545 0.22054882 0.13813011 0.077607214 0.011923236 0.08536713
0.2430749 0.10083597 0.33409658 -0.17799741 0.17028408 0.49791658 0.028375689 1.0111198
0.03571065 -0.17274283 0.30884346 -0.016837254 0.29611582 -0.115356684 0.10171088 -0.002622349
0.08258833 -0.113046184 0.25536382 -0.042112853 0.27496967 0.1064796 0.09879396 0.00881833
0.17208287 0.18232504 -0.14732826 0.26033086 0.07800383 -0.12749803 -0.1294141 -0.0017691205
0.123434305 -0.40145564 0.013703068 0.29956952 0.036043033 -0.03294265 0.08660073 0.052985243
0.27335578 0.09456937 0.24804115 -0.34657365 -0.20818543 0.091733426 0.17456686 0.24398474
-0.13806528 -0.20480606 -0.031003691 -0.6813081 -0.0716478 -0.48741072 0.55124557 0.8348814
0.022045337 0.0878403 -0.22033988 0.34260696 0.2175817 0.172214 0.2062821 0.10996477
0.08701745 0.23701267 0.0991991 0.24359912 0.052894924 -0.03983957 -0.17067073 -0.2788306
-0.017399125 -0.44231832 -0.34346735 -0.13715792 0.16120946 0.09662692 0.27775455 -0.3435689
0.39376116 -0.37798694 0.3717753 -0.1787815 -0.26015356 -0.29656544 0.22734249 0.42466012
0.23674643 0.45081925 0.19886193 -0.011871116 0.41008565 -0.74190336 0.30419606 0.3463954
-0.279373 0.1828228 0.2620436 0.3173306 -0.40799597 0.18182229 -0.271154 0.27460757
0.23060821 0.20480466 0.23587164 -0.38163596 0.14074862 -0.2750415 -0.30031085 -0.29756856
0.14050823 0.13728338 -0.14834093 -0.164166 -0.1571489 -0.28645122 0.29872736 -0.35564515
-0.16893068 0.5104978 0.4654405 -0.3006232 -0.36696175 0.4319895 -0.11128129 -0.39670008
-0.58769405 -0.46758103 -0.05744781 -0.27060586 0.19180378 0.24532925 -0.10693253 -0.26394147
0.40059856 -0.2571182 -0.1907383 -0.069358446 -0.34852463 0.40871564 0.39026007 0.038858317
-0.16469342 -0.27664226 0.342806 -0.40527833 0.42220473 0.33567536 -0.06493031 0.5590143
-0.11900486 -0.30065873 0.60447246 0.03327976 0.435126 0.36654302 -0.2651318 -0.016187362
-0.26254046 0.36102912 -0.14706787 -0.32983428 0.32944578 0.31629172 -0.20957156 -0.039343096
0.10344913 0.39478517 -0.25416097 0.3620665 0.18942402 -0.4184298 -0.37597704 -0.20532168
-0.16408157 -0.22625636 0.40926325 0.30736068 -0.1771678 0.3917898 -0.40180466 -0.23233895

lstm.bias_ih_l0 f4 [600]
00000000: 0520 0c3e 5c37 aa3d f698 f33e 5215 8a3e
00000010: ff14 4abd 6a99 84be 7f48 f0be 402c 92be
00000020: 48d7 4e3f 0015 493e ac5f 4ebe ab4c 823e
00000030: fcdc cb3e a17f 4e3e 3a68 f83d 993d aa3e
00000040: 07ee 773e 1c72 073e f506 883d 8942 a03e
00000050: 7d3e a63e bfeb 9d3e 2b65 d43e 78a0 a83e
00000060: 3ca4 933b 10f1 013f f003 5e3d 909d bd3d
00000070: 7eaf 053e 6f80 2d3d 4da6 b13e f724 19be
00000080: 6abd e63c b5a0 83bb 5e4b 9d3e 2731 e7bd
00000090: 5938 4fbe d06f 95bd 4f40 6c3e 9804 dcbe
000000a0: 031a d03e cafb 143f 06c7 533e f3f4 963e
000000b0: f94c 6f3e d264 88be d873 be3e 2450 2dbd
000000c0: 32fb 983e 5a69 753d 1c0f 283c edea d13e
000000d0: ead5 2a3e 029d 1bbe 9d8c 343d 8e30 b73c
000000e0: 69b1 333e de33 0dbf 995a 0d3f e27e 25be
000000f0: 8ef9 163e 9031 03bf 95ea 513e bfb6 b73e
00000100: f01d 473e c54b 87be eb9b 6abe 3317 f03d
00000110: 6d33 883e 21db 04bd 9ff6 a33e ec8d 12bc
00000120: 0f89 033f 016b 573f a730 7ebe e05d 303e
00000130: 80d3 463e 5222 00bf cb43 673e b978 b83c
00000140: 4671 9b3e 40b9 2abe 37f7 5d3e 09e3 00bf
00000150: 4c1e 653c fe81 a83e 685e 1c3e ab5a e03e
00000160: 290a d6bd 5175 93be 5abf 4c3e b7ac a33e
00000170: 5b6f f53d 99a6 af3e ebae c3be ffd0 7cbe
00000180: ecb5 d9be 19a1 d9be 115d 93bc 5fa7 bd3d
00000190: 8a7d 8a3e 1f61 183e 8c8b 7fbe 397b 663e
000001a0: 65a4 7c3e 2ca5 273d f208 dc3d 2aca 1bbe
000001b0: 4a5c 443e 072f d93e d7e5 ad3e 4772 843e
000001c0: 955d 163d b482 0b3f 98f5 8a3e 86a5 0e3e
000001d0: 684e 5cbe d080 853d af2b ba3e 991a 8ebe
000001e0: 4c73 9fbe 571e cebd 2e0d ba3e 7c64 0abe
000001f0: 3601 943e f1b0 5f3e 28f6 d5be 57b4 9ebe
00000200: 05d2 a83e 7de8 e13d 02ea 15be 3f62 673e
00000210: d200 6d3e eb82 a3bc e3bf c5bd 316d 273f
00000220: 69c5 d93c 96c7 d63d 460a 1dbf c78f 1e3e
00000230: 67a7 c43e 3ca0 1d3e 34a4 a73e 7c15 e23e
00000240: 4c6e c63e 4291 e53d 658a b53e 21d0 743e
00000250: fde3 2c3e 8ca4 cdbe 96b1 933e f389 95bd
00000260: 95e0 283e 98df abbe 8a7f d8be 5401 613d
00000270: 5de7 d53e 55b8 37be a5cb d8be 70aa cd3e
00000280: 95a3 8f3c 1de2 1b3e 3dab 603c 5ece e5be
00000290: 1a79 7b3d 5e54 003e 148f 653e 20b4 0f3e
000002a0: 94ff 303e 2c4c 3f3e 0cdb 773d 11e6 1b3d
000002b0: f9d7 e6bd ef6f 123e de7f 043d 6cef 063f
000002c0: cf18 0f3f 9598 2fbe 7202 5d3e e3cf b93b
000002d0: 72e7 e03e cd7b 613e c42d b63e 8461 bbbe
000002e0: f0be c6be b232 15be 71d8 22be c539 aebd
000002f0: 34c0 8cbe a3b7 14bf f3f0 aa3e 057a cdbe
00000300: 60e3 0ebe 1c87 da3e 4ad1 003e 9ef6 a9be
00000310: 5c0a e33e 5879 913e 9bb5 45be f307 a43e
00000320: 3fd2 383e b809 01bf 11af 98be 01b3 c8bc
00000330: fa73 a73e 9224 6f3e b930 89be 6994 a33d
00000340: bf27 0f3e b92b 843e 7c58 5abe d635 93be
00000350: 1130 22be 0d82 4d3e a333 8e3e b5f8 99be
00000360: fa80 bcbd 7079 77bd 07d9 833e b5b0 e4bd
00000370: 941e c23e a32d 863e b590 203f e4c2 2b3e
00000380: c6fc a4be d3bc b6bd c6ce 573e 92cc b33e
00000390: 4be3 003e 1370 5a3c 5d2b 82be 791b 213e
000003a0: 3edc 24be 2566 833e 6a0e b2be 0b93 7bbd
000003b0: ced4 49be 46e3 d43e 1a08 7f3e 8884 923d
000003c0: d112 233e c2f3 893e ba03 37be 4e18 ce3e
000003d0: 5769 9f3e 64c5 2b3d e83a c7bc 2781 86be
000003e0: 5f72 753e 9322 63be 344c b53e e528 b0be
000003f0: 0053 47be ec9f 963d 1fbc dbbe e449 5d3e
0.1368409 0.0831134 0.47577637 0.2696939 -0.04933643 -0.25898296 -0.4693031 -0.28549385
0.80797243 0.19636917 -0.20153683 0.25449118 0.39817035 0.20165874 0.12129255 0.3325012
0.24211894 0.13227123 0.06641952 0.31300762 0.3246955 0.30843922 0.41483435 0.32934928
0.0045056622 0.5075846 0.054202974 0.09258568 0.13055226 0.042358812 0.3469719 -0.14955507
0.028166492 -0.0040169605 0.30721563 -0.11288672 -0.20236339 -0.07296717 0.23071407 -0.42972255
0.40644845 0.581967 0.2068139 0.29483756 0.23369206 -0.2663942 0.37197757 -0.042312756
0.29879147 0.059914924 0.010257509 0.40999547 0.16683164 -0.15196612 0.04407941 0.02236202
0.17548145 -0.5515727 0.55216366 -0.16161683 0.14743635 -0.512475 0.20499642 0.35881612
0.19445014 -0.26424995 -0.2291104 0.11723175 0.26601735 -0.03243554 0.32024094 -0.00894497
0.5138101 0.8414765 -0.24823247 0.1722331 0.19416618 -0.5005237 0.22584455 0.022518503
0.30359858 -0.1667223 0.21676336 -0.5034643 0.013984274 0.32911676 0.15270388 0.43819174
-0.10451157 -0.28800443 0.1999487 0.31967708 0.1198413 0.3430679 -0.3821939 -0.246891
-0.42521608 -0.4250572 -0.017988713 0.09260439 0.27048904 0.14880799 -0.24955577 0.22507943
0.24672087 0.040929005 0.10743894 -0.15213838 0.1917583 0.42418692 0.33964416 0.25868437
0.03671034 0.5449631 0.27140498 0.1393033 -0.21514285 0.0651871 0.36361453 -0.27754667
-0.31142652 -0.100643806 0.3633818 -0.13514894 0.28907174 0.21844842 -0.41789365 -0.30996963
0.32972732 0.11030672 -0.14640048 0.22596072 0.23144844 -0.019959887 -0.0965574 0.6540099
0.02658339 0.10487287 -0.613438 0.15484534 0.38408968 0.15393156 0.32742465 0.44157016
0.38756025 0.11209346 0.3545715 0.2390752 0.16883846 -0.40164602 0.28846425 -0.07301702
0.16491921 -0.33569026 -0.42284805 0.054932907 0.4177808 -0.17941411 -0.42342868 0.40169096
0.017534057 0.15222974 0.013712701 -0.44884008 0.06139479 0.12532184 0.22417861 0.14033556
0.17284995 0.18681401 0.060511634 0.038061205 -0.11271662 0.14300512 0.032348506 0.5270908
0.5589723 -0.17148049 0.21582964 0.005670534 0.4392658 0.22019883 0.3558179 -0.36597836
-0.3881755 -0.1457012 -0.15902878 -0.085071124 -0.2749039 -0.5809271 0.33386955 -0.40132156
-0.13953924 0.42681205 0.12579837 -0.33195966 0.4434384 0.2841289 -0.19307558 0.32037315
0.18048953 -0.50405455 -0.29821065 -0.024499418 0.3270567 0.23353794 -0.26794985 0.07987291
0.13980006 0.25814608 -0.21322817 -0.2875201 -0.15838648 0.20069142 0.2777377 -0.3007256
-0.09204288 -0.060418546 0.25751516 -0.11166517 0.37913954 0.26206693 0.62720805 0.16773564
-0.322241 -0.08922734 0.21074972 0.35117012 0.12586705 0.013332385 -0.2542371 0.15733136
-0.1609964 0.25663868 -0.34776622 -0.061419528 -0.19710085 0.41579646 0.24905434 0.071541846
0.15925147 0.26943785 -0.17872515 0.40252918 0.31135055 0.041936293 -0.02432008 -0.2627041
0.2396941 -0.22181158 0.354097 -0.344062 -0.19465256 0.073547214 -0.42916963 0.21610218

lstm.bias_hh_l0 f4 [600]
00000000: 7c7b 5f3e f822 c43d 447b e23e 8c27 923e
00000010: da4e bcbd 9ae6 75be 78de d4be f312 82be
00000020: 7f4e 473f 0946 343e 663b 89be 3759 4d3e
00000030: b919 c53e 57e3 183e 5f8c fe3d 932d 983e
00000040: ee28 383e 4758 543e d4db 963d cc07 c13e
00000050: 8452 a23e 4d51 ae3e 4eeb 003f f72a 993e
00000060: ab80 c93c 9637 f63e 37ed 5a3b f18b 103e
00000070: a176 523e 6417 393d 716e c43e e54c 55be
00000080: 88f3 263d 0b39 b7bc d404 923e da5f 9bbd
00000090: bc1c 32be 7696 3f3c 3a3e 333e bc61 bdbe
000000a0: a0ba db3e 6cfc 243f 8d9d 463e 16bb 8b3e
000000b0: a491 833e 6f18 92be 7aea d43e 5e2b bdbd
000000c0: e862 723e d294 bd3d b266 a2bc b1ec d93e
000000d0: 7492 f83d 76e2 38be 9e5b 2b3d 2fed 0b3d
000000e0: ab61 423e 2e95 fabe 1467 113f 6049 d1bd
000000f0: db0a 3a3e cfc0 13bf da4d 513e 5d05 9c3e
00000100: 1f56 153e 08bd 77be 00a6 53be b7d5 f93d
00000110: a9d4 8c3e b0e5 61bd 551e 923e e67b e23c
00000120: e9fe ed3e 2b6e 603f f08d 3dbe 2223 7a3e
00000130: 7afc 4b3e bf03 08bf 14ec 853e cbd2 65bb
00000140: 72f0 883e 0b57 efbd aa6c 613e 1844 02bf
00000150: 7fcd 8dbd dd47 9d3e d329 1c3e 0383 cb3e
00000160: e9a6 f3bd 2fea 96be 0c81 1d3e 19f0 ac3e
00000170: 6213 163e 73c5 a43e db77 babe b82b 70be
00000180: 9d52 ddbe 64db edbe 6380 1dbb 829d 053d
00000190: 6b7f 8d3e 0ae4 1e3e 53b4 64be 501a 223e
000001a0: 3f98 9a3e de94 8c3d e413 973d 2d74 34be
000001b0: 2478 173e 26af cd3e c3f5 a33e 8ccc 8b3e
000001c0: 0e41 9b3c 989c 053f acaf 743e 2d9f 493d
000001d0: 0fe4 65be 4adf 993d f860 983e 3635 a9be
000001e0: eac3 aabe d855 e9bd 0b5f b03e 0529 1ebe
000001f0: 80ad 4b3e 1815 573e d6f1 ccbe 47e3 a6be
00000200: 1296 853e 6360 b43d 8b22 0fbe 3e72 333e
00000210: d7e7 8b3e 5f67 ca3c c0d9 1bbe 99a9 223f
00000220: 660f ec3c 5519 0a3e 8f9c 0bbf c2ee 183e
00000230: ac22 e63e d9f1 1e3e 14d3 8e3e 850a c13e
00000240: a017 c73e bac7 253e 9a7e 933e 3c30 7c3e
00000250: 57bf 3e3e 8288 a5be 0cdf 793e 72e5 87bd
00000260: 6095 513e 4409 a5be 5820 d7be 0475 dd3d
00000270: 0e4a db3e 9ff0 21be 7ca3 01bf 99d7 c23e
00000280: d3e4 2e3d 150e 5a3e 8b2c 34bd a735 d8be
00000290: d76d f23d 6549 413e aaa9 7f3e 8fcd ef3d
000002a0: 4594 473e 97dd 223e 4c9b 983d 4a5e 683c
000002b0: 3779 7dbd 49ef 0e3e d5ec 04bb c241 e23e
000002c0: 260a 093f 714d 40be 56c7 5f3e 83e0 2d3d
000002d0: 0ab4 c03e 18a8 693e 343e d23e 4a0c bbbe
000002e0: fae4 b7be 1954 15be 2cd4 edbd d7a2 23be
000002f0: 30a2 8bbe 3810 12bf f4c1 bc3e 2149 d1be
00000300: db47 d6bd 79e9 b53e f5c0 173e 2065 92be
00000310: 21ae d83e 1732 8d3e e347 3ebe bae6 793e
00000320: 925f 893e ac42 eebe f4ef 65be 824a a43b
00000330: 3920 7c3e 4164 383e 3728 53be 8cce ed3d
00000340: 59ff d43d 2d23 ab3e a813 0ebe 45e4 a6be
00000350: 7032 08be cff6 ea3d 65de 983e 7619 7ebe
00000360: 9715 97bd a41d 3d3a 951d ab3e adcd b4bd
00000370: 15d5 bc3e 3f4f 883e bd89 2c3f 842c 1c3e
00000380: e4ec a3be 83c7 c1bd ee46 4c3e c22a 8b3e
00000390: ecf9 4f3e ed68 1d3d 589a 31be 5ccc f13d
000003a0: f3eb 2cbe bbbe 933e 876c 88be b0a7 bfbd
000003b0: 273d 35be 7451 cb3e 099a a33e 666d 5c3d
000003c0: 977b 413e 7abc a23e 14fd 46be 67bf c93e
000003d0: 49eb 963e 043b 9c3d 138c 273d b67a 96be
000003e0: 56a4 3b3e 0316 8abe 4979 ac3e 180c 9fbe
000003f0: 3093 50be 1e34 a43d 5bd4 cabe 0185 163e
0.2182445 0.09576982 0.4423467 0.28545797 -0.09194727 -0.24013749 -0.4157598 -0.25405082
0.7785415 0.17604841 -0.2680313 0.20053564 0.38496187 0.14930473 0.124291174 0.2972227
0.17984363 0.207368 0.07366148 0.3770126 0.3170358 0.34046403 0.50359046 0.29915592
0.024597486 0.48089284 0.0033405551 0.14115883 0.20553066 0.045188323 0.3836551 -0.20830114
0.040759593 -0.022366067 0.2851931 -0.075866416 -0.17393774 0.0116935875 0.17504206 -0.36988628
0.4291582 0.64447665 0.19396038 0.27291173 0.25697052 -0.28534266 0.4158514 -0.09236787
0.23670542 0.09256901 -0.01982436 0.42563394 0.12137309 -0.18055138 0.04183542 0.034161743
0.1898257 -0.4894194 0.5679791 -0.10219073 0.18168204 -0.5771608 0.20439854 0.30472842
0.14583634 -0.24193203 -0.20668793 0.12198966 0.27505997 -0.055150688 0.28538767 0.02764697
0.46483544 0.876681 -0.18511176 0.24427465 0.19920531 -0.53130716 0.26156676 -0.003506827
0.26745945 -0.11686524 0.22014108 -0.5088515 -0.06923961 0.3071889 0.1525033 0.39748392
-0.1189707 -0.29475543 0.15381259 0.3377693 0.14655831 0.32181892 -0.36419567 -0.23454177
-0.4322709 -0.46456444 -0.0024032823 0.032620914 0.27636275 0.15516677 -0.22334413 0.1583035
0.3019428 0.06864332 0.07376841 -0.17622443 0.14791924 0.4017269 0.3202344 0.27304494
0.018951919 0.5219207 0.23895139 0.049224067 -0.22450279 0.07513292 0.2976148 -0.3304841
-0.33352596 -0.113933265 0.34447512 -0.15445335 0.19890404 0.2100414 -0.40028256 -0.32595274
0.26091057 0.08807447 -0.13978021 0.17524049 0.27325317 0.024707494 -0.15219784 0.63540035
0.028815936 0.13486226 -0.54535764 0.14934829 0.44948328 0.15521945 0.27895415 0.37703338
0.38885212 0.16189471 0.28807527 0.24627775 0.18627678 -0.3233071 0.24401492 -0.0663556
0.20467138 -0.32233632 -0.42016864 0.108133346 0.42829937 -0.15814446 -0.5064008 0.38055113
0.042698693 0.21294434 -0.043987792 -0.42228433 0.118373565 0.18875654 0.24967065 0.11709129
0.19490154 0.15904842 0.074514955 0.0141826365 -0.061883178 0.13958468 -0.0020282764 0.44190794
0.5353111 -0.18779542 0.21853384 0.04245044 0.3763736 0.22818029 0.41063082 -0.36532813
-0.35916883 -0.14582862 -0.11612734 -0.15980087 -0.27272177 -0.57056 0.36866724 -0.40876105
-0.10462924 0.35529688 0.14819701 -0.28592777 0.4232035 0.27577278 -0.1858211 0.24404421
0.26830727 -0.46535242 -0.22454816 0.005013765 0.24621667 0.18006994 -0.2062081 0.11611661
0.10400266 0.33425274 -0.13874686 -0.3259603 -0.1330049 0.11472856 0.29857174 -0.248144
-0.07377165 0.00072141946 0.33421007 -0.08828292 0.3688132 0.2662296 0.6739767 0.15251356
-0.3201667 -0.09461882 0.19948933 0.2718106 0.20310181 0.038430143 -0.17344034 0.118065566
-0.16886882 0.28856453 -0.266453 -0.09358156 -0.17699109 0.3971058 0.31953457 0.053815268
0.18894802 0.3178442 -0.19432479 0.3940384 0.29476383 0.07628444 0.04090507 -0.29390496
0.18324408 -0.2696992 0.33686283 -0.31063914 -0.20368648 0.08017753 -0.3961514 0.14699174

layernorm.weight f4 [150]
00000000: 0000 803f 0000 803f 0000 803f 0000 803f
00000010: 0000 803f 0000 803f 0000 803f 0000 803f
00000020: 0000 803f 0000 803f 0000 803f 0000 803f
00000030: 0000 803f 0000 803f 0000 803f 0000 803f
00000040: 0000 803f 0000 803f 0000 803f 0000 803f
00000050: 0000 803f 0000 803f 0000 803f 0000 803f
00000060: 0000 803f 0000 803f 0000 803f 0000 803f
00000070: 0000 803f 0000 803f 0000 803f 0000 803f
00000080: 0000 803f 0000 803f 0000 803f 0000 803f
00000090: 0000 803f 0000 803f 0000 803f 0000 803f
000000a0: 0000 803f 0000 803f 0000 803f 0000 803f
000000b0: 0000 803f 0000 803f 0000 803f 0000 803f
000000c0: 0000 803f 0000 803f 0000 803f 0000 803f
000000d0: 0000 803f 0000 803f 0000 803f 0000 803f
000000e0: 0000 803f 0000 803f 0000 803f 0000 803f
000000f0: 0000 803f 0000 803f 0000 803f 0000 803f
00000100: 0000 803f 0000 803f 0000 803f 0000 803f
00000110: 0000 803f 0000 803f 0000 803f 0000 803f
00000120: 0000 803f 0000 803f 0000 803f 0000 803f
00000130: 0000 803f 0000 803f 0000 803f 0000 803f
00000140: 0000 803f 0000 803f 0000 803f 0000 803f
00000150: 0000 803f 0000 803f 0000 803f 0000 803f
00000160: 0000 803f 0000 803f 0000 803f 0000 803f
00000170: 0000 803f 0000 803f 0000 803f 0000 803f
00000180: 0000 803f 0000 803f 0000 803f 0000 803f
00000190: 0000 803f 0000 803f 0000 803f 0000 803f
000001a0: 0000 803f 0000 803f 0000 803f 0000 803f
000001b0: 0000 803f 0000 803f 0000 803f 0000 803f
000001c0: 0000 803f 0000 803f 0000 803f 0000 803f
000001d0: 0000 803f 0000 803f 0000 803f 0000 803f
000001e0: 0000 803f 0000 803f 0000 803f 0000 803f
000001f0: 0000 803f 0000 803f 0000 803f 0000 803f
00000200: 0000 803f 0000 803f 0000 803f 0000 803f
00000210: 0000 803f 0000 803f 0000 803f 0000 803f
00000220: 0000 803f 0000 803f 0000 803f 0000 803f
00000230: 0000 803f 0000 803f 0000 803f 0000 803f
00000240: 0000 803f 0000 803f 0000 803f 0000 803f
00000250: 0000 803f 0000 803f
1.0 1.0 1.0 1.0 1.0 1.0 1.0 1.0
1.0 1.0 1.0 1.0 1.0 1.0 1.0 1.0
1.0 1.0 1.0 1.0 1.0 1.0 1.0 1.0
1.0 1.0 1.0 1.0 1.0 1.0 1.0 1.0
1.0 1.0 1.0 1.0 1.0 1.0 1.0 1.0
1.0 1.0 1.0 1.0 1.0 1.0 1.0 1.0
1.0 1.0 1.0 1.0 1.0 1.0 1.0 1.0
1.0 1.0 1.0 1.0 1.0 1.0 1.0 1.0
1.0 1.0 1.0 1.0 1.0 1.0 1.0 1.0
1.0 1.0 1.0 1.0 1.0 1.0 1.0 1.0
1.0 1.0 1.0 1.0 1.0 1.0 1.0 1.0
1.0 1.0 1.0 1.0 1.0 1.0 1.0 1.0
1.0 1.0 1.0 1.0 1.0 1.0 1.0 1.0
1.0 1.0 1.0 1.0 1.0 1.0 1.0 1.0
1.0 1.0 1.0 1.0 1.0 1.0 1.0 1.0
1.0 1.0 1.0 1.0 1.0 1.0 1.0 1.0
1.0 1.0 1.0 1.0 1.0 1.0 1.0 1.0
1.0 1.0 1.0 1.0 1.0 1.0 1.0 1.0
1.0 1.0 1.0 1.0 1.0 1.0

layernorm.bias f4 [150]
00000000: 0000 0000 0000 0000 0000 0000 0000 0000
00000010: 0000 0000 0000 0000 0000 0000 0000 0000
00000020: 0000 0000 0000 0000 0000 0000 0000 0000
00000030: 0000 0000 0000 0000 0000 0000 0000 0000
00000040: 0000 0000 0000 0000 0000 0000 0000 0000
00000050: 0000 0000 0000 0000 0000 0000 0000 0000
00000060: 0000 0000 0000 0000 0000 0000 0000 0000
00000070: 0000 0000 0000 0000 0000 0000 0000 0000
00000080: 0000 0000 0000 0000 0000 0000 0000 0000
00000090: 0000 0000 0000 0000 0000 0000 0000 0000
000000a0: 0000 0000 0000 0000 0000 0000 0000 0000
000000b0: 0000 0000 0000 0000 0000 0000 0000 0000
000000c0: 0000 0000 0000 0000 0000 0000 0000 0000
000000d0: 0000 0000 0000 0000 0000 0000 0000 0000
000000e0: 0000 0000 0000 0000 0000 0000 0000 0000
000000f0: 0000 0000 0000 0000 0000 0000 0000 0000
00000100: 0000 0000 0000 0000 0000 0000 0000 0000
00000110: 0000 0000 0000 0000 0000 0000 0000 0000
00000120: 0000 0000 0000 0000 0000 0000 0000 0000
00000130: 0000 0000 0000 0000 0000 0000 0000 0000
00000140: 0000 0000 0000 0000 0000 0000 0000 0000
00000150: 0000 0000 0000 0000 0000 0000 0000 0000
00000160: 0000 0000 0000 0000 0000 0000 0000 0000
00000170: 0000 0000 0000 0000 0000 0000 0000 0000
00000180: 0000 0000 0000 0000 0000 0000 0000 0000
00000190: 0000 0000 0000 0000 0000 0000 0000 0000
000001a0: 0000 0000 0000 0000 0000 0000 0000 0000
000001b0: 0000 0000 0000 0000 0000 0000 0000 0000
000001c0: 0000 0000 0000 0000 0000 0000 0000 0000
000001d0: 0000 0000 0000 0000 0000 0000 0000 0000
000001e0: 0000 0000 0000 0000 0000 0000 0000 0000
000001f0: 0000 0000 0000 0000 0000 0000 0000 0000
00000200: 0000 0000 0000 0000 0000 0000 0000 0000
00000210: 0000 0000 0000 0000 0000 0000 0000 0000
00000220: 0000 0000 0000 0000 0000 0000 0000 0000
00000230: 0000 0000 0000 0000 0000 0000 0000 0000
00000240: 0000 0000 0000 0000 0000 0000 0000 0000
00000250: 0000 0000 0000 0000
0.0 0.0 0.0 0.0 0.0 0.0 0.0 0.0
0.0 0.0 0.0 0.0 0.0 0.0 0.0 0.0
0.0 0.0 0.0 0.0 0.0 0.0 0.0 0.0
0.0 0.0 0.0 0.0 0.0 0.0 0.0 0.0
0.0 0.0 0.0 0.0 0.0 0.0 0.0 0.0
0.0 0.0 0.0 0.0 0.0 0.0 0.0 0.0
0.0 0.0 0.0 0.0 0.0 0.0 0.0 0.0
0.0 0.0 0.0 0.0 0.0 0.0 0.0 0.0
0.0 0.0 0.0 0.0 0.0 0.0 0.0 0.0
0.0 0.0 0.0 0.0 0.0 0.0 0.0 0.0
0.0 0.0 0.0 0.0 0.0 0.0 0.0 0.0
0.0 0.0 0.0 0.0 0.0 0.0 0.0 0.0
0.0 0.0 0.0 0.0 0.0 0.0 0.0 0.0
0.0 0.0 0.0 0.0 0.0 0.0 0.0 0.0
0.0 0.0 0.0 0.0 0.0 0.0 0.0 0.0
0.0 0.0 0.0 0.0 0.0 0.0 0.0 0.0
0.0 0.0 0.0 0.0 0.0 0.0 0.0 0.0
0.0 0.0 0.0 0.0 0.0 0.0 0.0 0.0
0.0 0.0 0.0 0.0 0.0 0.0

batchnorm.weight f4 [150]
00000000: f78c 3c3f d7eb 863f 10f2 0c3f 1259 573f
00000010: 64fc 643f ab41 363f b2c4 5a3f 4c85 583f
00000020: f025 f33f e43d 993f a963 823f ff71 083f
00000030: 8f3b 803f 1b3e 3f3f 53de 883f 4898 373f
00000040: 37eb 0f3f ae0c d93e 945b bd3e f1f6 823f
00000050: 3145 103f 99a0 7a3f 2520 703f 7ca8 f23e
00000060: fe45 b53f 1d28 423f fb84 603f 5780 a43f
00000070: 749c 6b3f db32 913f 0ecf 953f 1d1b 3f3f
00000080: e1bb a83f 21aa 353f d309 fb3d 4a1a 803f
00000090: 76f8 0a3f 385d db3e a986 3b3f 1514 933f
000000a0: f3fb 7e3f 8249 d13f f697 cc3e dc80 3a3f
000000b0: 3021 313f 5f50 7a3f 40da 123f 37d6 863f
000000c0: 59a6 3d3f 57f9 893f 4d8b 543f 38d6 c53f
000000d0: 32e3 273f 08e1 fe3e 8616 423f f5d4 5f3f
000000e0: 6a53 133f 34b4 373f 7aae 363f 308f 6c3f
000000f0: e8be a93f 07ca 333f dc52 893f 762f 0b3f
00000100: fadb b63f 10c4 263f 8e5a 743f 98f8 243f
00000110: c02c 223f f5bc 143f 8bd4 483f b458 2e3f
00000120: e475 2f3f d8e6 4f3f df9b 6a3f e48c da3e
00000130: 716a 843f a35a 233f 341e e83e 18f7 b93e
00000140: eb6b 1c3f 114d c73d c280 4e3f 84d8 923e
00000150: a141 763f 5dcf e33e 0054 2e3f bf0f 403f
00000160: be5d 433e 4dbc 3c3f 80f3 6a3f 6dd8 1a3f
00000170: bc4c 463f 9a98 7b3f d170 8b3e 9638 4c3f
00000180: ff7c 1b3f 290b fb3e cdc0 4b3f 78db 633f
00000190: a356 4e3f 0a84 8c3f a169 103f 0008 1d3f
000001a0: 5236 0240 11ce e93f 6f56 b33f 3a0e a63f
000001b0: d436 3a3f 16d6 153f df9f 903f d215 453f
000001c0: dfa1 443f d0e4 1b3f 909a dd3f 5796 a63f
000001d0: 0459 9f3e 51a8 873f e903 9d3f 6b55 a13f
000001e0: 41ec 5b3f 8cd8 693f ef50 223f 2050 fc3e
000001f0: f4fe 913f f66e 7f3f 5fc9 003e df5f 5c3f
00000200: 511f cd3e 421a 833f 168f ef3e 49ac 7c3f
00000210: 0898 a33f f37f 913d bdd1 813f fddf 2b3f
00000220: f126 9d3f f057 243f 1f17 953f 116b 503f
00000230: ecda 863f 9c9c 313f eac6 103f 22ce 383f
00000240: 7414 813f 5fff 1d3f 6e7e 213f d23e e63e
00000250: 419c 2d3f 0d51 733f
0.73652595 1.0540723 0.5505686 0.84120286 0.8944762 0.7119395 0.85456383 0.84578395
1.8995953 1.1972013 1.0186664 0.53298944 1.0018176 0.7470414 1.0692848 0.7171674
0.56218284 0.42392486 0.3698393 1.023161 0.5635558 0.979013 0.9379905 0.47394168
1.4161985 0.7584246 0.8770291 1.2851666 0.92035604 1.1343645 1.1703813 0.74650747
1.3182336 0.7096272 0.12257733 1.0008023 0.5428537 0.42844558 0.7325235 1.1490504
0.99603194 1.6350558 0.39959687 0.72852874 0.69191265 0.97778887 0.57364273 1.0534123
0.7408195 1.0779217 0.83025056 1.5455999 0.6558105 0.4978106 0.7581562 0.8743432
0.57549155 0.71759343 0.7135998 0.92405987 1.3261385 0.70230144 1.0728412 0.54369295
1.4285882 0.6514292 0.95450675 0.64441824 0.63349533 0.58100826 0.78449315 0.681041
0.6853926 0.81211615 0.9164409 0.42685616 1.0344983 0.63810176 0.45335543 0.3632133
0.6110217 0.09731496 0.8066522 0.28680813 0.9619389 0.44494143 0.68096924 0.75024027
0.19078729 0.73724824 0.917778 0.6048649 0.7746084 0.98279727 0.2723451 0.79773843
0.60737604 0.49031952 0.79591066 0.8900676 0.8060095 1.0977795 0.56411177 0.6134033
2.0345654 1.8266011 1.4010752 1.2973092 0.7273991 0.58529794 1.1298789 0.7698642
0.76809496 0.60896015 1.7312794 1.301463 0.311226 1.0598241 1.2266818 1.2604192
0.8590737 0.9134605 0.63404745 0.4927988 1.140593 0.9977869 0.12576817 0.8608379
0.40062955 1.0242388 0.46788853 0.98700386 1.2780771 0.071044825 1.0142132 0.67138654
1.2277509 0.6419668 1.1647681 0.8141337 1.053556 0.6937959 0.5655352 0.72189534
1.0084367 0.6171779 0.6308354 0.44969803 0.6781655 0.9504555

batchnorm.bias f4 [150]
00000000: e632 e5be b4b4 dc3e 7657 9c3e ed11 e0be
00000010: d894 133f c275 2b3f 1b0f 4c3f 9e5e 4a3f
00000020: 2b51 253f d26a 963e 1da9 283f 0ff2 4e3e
00000030: 1fb7 e63e e938 1d3f 84c1 533f c077 fbbe
00000040: 8573 ed3e 460e ea3e 4050 c13e fe46 a73e
00000050: 885f d53e ef63 f13e d4f5 5cbf 377b 203f
00000060: 409c 013f df49 0c3f 0bd6 383f b414 e83d
00000070: 8937 2e3f 7ee6 0e3f 64a9 bd3e b973 283f
00000080: 94e2 82bf a197 91be e030 e73e 77aa 9f3e
00000090: dcee 013f b1df 00be 5c46 373f 2fec 3a3f
000000a0: a208 ff3e 83bc 3e3f b346 0a3f 4ceb 993e
000000b0: f27f 303f e7cf 3e3f 2bea 2d3f 95ee 4f3f
000000c0: 0523 1c3f 5aaa 0d3f 3458 78bf 4292 133f
000000d0: d184 433f b1f7 45bf 7863 143f 46b0 093f
000000e0: 1d46 683f acce 0d3f 9e4b 1e3f b742 733f
000000f0: 8d4b 1b3f 8c16 1a3f 33e3 3d3f 6734 cb3e
00000100: 8e30 b0bc 09b1 443f 21ab 293f 4e77 223f
00000110: 1f9c c53e cbcf c93e 5268 203f f793 083f
00000120: 6c48 bdbe d211 a93e 3e4b e13e 6ce2 23bf
00000130: 6ba6 e93e f3d5 33bf 7b23 e23e 6fda 1cbf
00000140: bd28 633f 93ec 88bf 9ede 1f3f 58c0 5a3f
00000150: 7f93 ee3e 191c 0a3f 9ab1 2d3f aa95 413f
00000160: aebe c13e 64e1 373f ccf5 243f 1d33 dc3e
00000170: 0245 273f 364e 2d3f 09b5 123f 8a4b 363f
00000180: c61f 053f 82b8 0c3f f220 303f 7f2c 913e
00000190: e070 3d3f 9994 a13e 0fc6 713f 18a3 fa3e
000001a0: dd0c 313f d2b6 093f 7a39 653f dd94 1b3e
000001b0: bc75 0c3f dd49 de3e 2906 113f 85b1 153f
000001c0: 2309 363f 7a7d 5a3f 058e 1f3f ae14 2d3f
000001d0: cbfc 293f 68e8 c23e 8be5 e03e db1f 513f
000001e0: 0e35 74bf 060b 443f f8fd 183f b4e4 3abf
000001f0: 081a 9b3e 8444 0d3f 810c 853f c847 ce3e
00000200: 01cc 083f 927d 1a3f 4ce6 873f 3ff8 2a3f
00000210: 1484 5e3f d28b 4e3f 8028 0f3f 6c06 093f
00000220: b412 633f 9b90 2e3f 239f 613f 8fdf 043f
00000230: 04bd 5a3f 760f 6b3e 46b2 363f ba61 ccbe
00000240: 6638 1c3f b9cc 85bd b982 0c3f e055 9b3e
00000250: 7864 cc3e 4ea0 103f
-0.44765395 0.43106616 0.30535477 -0.43763676 0.5764899 0.6697656 0.7971055 0.79050624
0.6457698 0.29378372 0.65883046 0.20209526 0.45061585 0.61414963 0.82717156 -0.491148
0.46377197 0.45714015 0.37756538 0.3267135 0.41674447 0.47146556 -0.86312604 0.6268801
0.50629044 0.5480022 0.72201604 0.11332074 0.6805349 0.55820453 0.37043297 0.6580158
-1.0225396 -0.28435996 0.45154476 0.31184742 0.50755095 -0.12585331 0.71591735 0.7301664
0.49811274 0.74506396 0.5401413 0.3006233 0.6894523 0.74535984 0.67935437 0.8122342
0.60990936 0.5533806 -0.9700959 0.57645047 0.76374537 -0.7733107 0.5796428 0.53784597
0.90731984 0.5539348 0.6183413 0.95023674 0.60662156 0.60190654 0.74174803 0.39688417
-0.021507528 0.76832634 0.66276747 0.63463295 0.38595673 0.39416346 0.6265918 0.53350776
-0.36969316 0.33021408 0.44002718 -0.6401737 0.4563478 -0.70248336 0.44167694 -0.61270803
0.88734037 -1.0697197 0.6244906 0.85449743 0.46596906 0.53949124 0.67849123 0.75618994
0.3784079 0.71828294 0.64437556 0.43007746 0.6533967 0.67697465 0.5730749 0.71209013
0.5200161 0.54969037 0.6880027 0.2835426 0.7400036 0.31558684 0.9444284 0.48952556
0.6916025 0.53794587 0.8954083 0.15193506 0.5486715 0.43415728 0.56650025 0.58474
0.7110769 0.8534771 0.6232608 0.6760968 0.66401356 0.38067937 0.43925127 0.8168923
-0.95393455 0.7657932 0.59762526 -0.73005223 0.30293298 0.5518267 1.0394441 0.4028914
0.53436285 0.60347855 1.0617156 0.66785043 0.86920285 0.806821 0.55921173 0.53525424
0.88700414 0.681894 0.8813345 0.51903623 0.85444665 0.22955117 0.71365774 -0.3991831
0.6102356 -0.065331884 0.54886967 0.30338955 0.39920402 0.56494606

batchnorm.running_mean f4 [150]
00000000: 38c8 6ebf 0845 373e 01bc 77bf e0d9 fb3a
00000010: 22d4 5ebe fc3b 02bc 07c9 5c3a 6d97 18b6
00000020: 2a78 b2be 377f 65bf c49b b1ba 3427 77bf
00000030: 6d67 50bf 0d2f 373f afa9 f9be 11f8 7f3c
00000040: ba5a 77bf 33ea 73bf 6525 593c 3b9f 5bbf
00000050: 8c47 52bc 4328 23bf a0a1 123c 784e 6ebf
00000060: 3c4a b0bc b38a 763f 8855 b7be 12a7 523d
00000070: af68 99be 2feb 053f 8203 5dbf 201d a4bb
00000080: 6969 6d3e af96 6d3d 6ed2 b13d 950e 19bf
00000090: 5c93 80b8 c857 edbb 4057 e33c eaed 063f
000000a0: f628 fbbe e320 633f bc4c 67ba 2b4c 77bf
000000b0: 9007 77bf a4e7 e33e 462e 753f 9a23 90be
000000c0: 16f8 72be ea03 453f cf51 7a3d 8429 5a3f
000000d0: 6527 5dba 7a9b 6e38 5ca0 a6be b4b8 67bf
000000e0: f54e 2736 9bb4 80ba ce8f 77bf ddb9 023f
000000f0: 229a 133f 2d2c 32bb 430a ef3e 70ed 61bf
00000100: b81e 60bf 7699 c5b4 cc64 9cbd ad41 ea3e
00000110: 9854 15bf fec9 853c fc6b 76bf 0ece 46bf
00000120: f484 c33b badb 74bf eff7 4abb cba7 513f
00000130: 52fe 37bf d7a5 f539 3cc4 73bf e315 103e
00000140: 4fac 543c 3e2f 013b fdad 743d e7d9 31bf
00000150: 38b7 143e 60fb 7c3a 83c1 86be 061b 73bf
00000160: 75a3 f6bc f03d 83be 9ecc cdbe 29f1 77bf
00000170: 552f b8bd 6f10 f5be 11b0 62bb 6af5 c43c
00000180: a6b9 783b fb41 d234 31f5 adbb cc09 9d3d
00000190: 3c2f 95be 033f 0bbf a8c6 972d 8c70 6ebf
000001a0: 3be9 5b3f ec93 e83e ab1e 2a3f 75c8 fc3d
000001b0: 07ce 77bf a266 75bf 5bf7 d7be 4a26 713f
000001c0: d159 d5bb ed0a 66bf 7769 083f 226e 213f
000001d0: ac29 423b 578d 043f 7921 543f d36f adba
000001e0: ef9f 4a3c 2eee 6ebd 98f1 75bf 1001 debb
000001f0: 63c0 63bf 0403 303e 67d4 5bbd 01a4 b7bb
00000200: 6e44 75bf e254 e0be d9df 0f3f b39d 5b3f
00000210: 1617 783f 8c22 623b 34b6 103f d952 77bf
00000220: 9638 2e3f dbde 40bb 40a4 293f f9d8 203f
00000230: d125 a3be 859f d03b f1d4 72bf b479 423d
00000240: f27b 773f 58e0 983d 4bd1 f6be a639 55bf
00000250: ce6a 5cbf 29be 993e
-0.9327426 0.17897427 -0.96771246 0.0019214712 -0.2176061 -0.007948872 0.00084222894 -2.2737906e-06
-0.34857303 -0.8964724 -0.001355045 -0.96544194 -0.81407815 0.7155617 -0.4876227 0.0156231085
-0.9662281 -0.95279235 0.013253544 -0.8578984 -0.012834441 -0.6373331 0.008949667 -0.93088484
-0.021519773 0.9630539 -0.35807443 0.051428862 -0.2996268 0.52311987 -0.8633348 -0.005008355
0.23184742 0.05800503 0.086827144 -0.59787875 -6.1309634e-05 -0.0072431304 0.027751565 0.5270678
-0.49054688 0.88722056 -0.0008823385 -0.966006 -0.96495914 0.44512665 0.9577373 -0.28152162
-0.2372745 0.769591 0.061113175 0.852196 -0.0008436351 5.688842e-05 -0.3254422 -0.9051621
2.4930898e-06 -0.000981945 -0.96703804 0.51064855 0.57657063 -0.0027186975 0.46687517 -0.88252926
-0.87546873 -3.6805767e-07 -0.07636413 0.45753232 -0.58332205 0.016331669 -0.9625852 -0.77658165
0.005966777 -0.95647776 -0.0030970534 0.81896657 -0.71872437 0.00046853602 -0.95221305 0.14070849
0.012980535 0.0019711996 0.05973624 -0.6947312 0.14523017 0.0009650495 -0.26319513 -0.9496311
-0.03010724 -0.25633192 -0.40195173 -0.96852356 -0.08993403 -0.478641 -0.0034589807 0.024042804
0.0037952452 3.9163555e-07 -0.00530877 0.07667884 -0.291376 -0.54393023 1.7254934e-11 -0.9314048
0.85902756 0.45425355 0.66453046 0.12342922 -0.9679875 -0.9585973 -0.42180905 0.9419905
-0.006510951 -0.8986042 0.53285927 0.63058674 0.002962689 0.5177817 0.82863575 -0.0013232179
0.012367233 -0.058332615 -0.9607177 -0.006775029 -0.88965434 0.1718865 -0.05366936 -0.0056042676
-0.9580754 -0.4381476 0.5620094 0.85787505 0.96910226 0.0034505455 0.5652802 -0.9661079
0.68055093 -0.0029429707 0.6626625 0.62831074 -0.3186479 0.0063666725 -0.9485617 0.047479346
0.966735 0.07464665 -0.48206553 -0.8329109 -0.8610047 0.30027893
