src/results/subject_P9/best_model.pth (torch, 481333 bytes, 15 tensors)

input_linear.weight f4 [40, 40]
00000000: de10 04be 80d4 c7bd 00b1 eebd 51f3 003e
00000010: 5a32 eb3d 947c 05bd 34f0 763d 47be d9bd
00000020: 36dd fa3d 00ad 5fba 8e7f d73d c1cc 13be
00000030: b140 d5bd 188f b9bc c08d 46bc d00c 73bc
00000040: e316 cebd 7054 a83c 73be 0b3e d2b4 fa3d
00000050: 5867 cfbd 5ab9 07bd 2331 0f3e f696 ebbd
00000060: aadb fcbd 6893 0c3d f0ce a43d 4039 153b
00000070: 959a 023e 9c81 1dbd 00c1 02bd 4a1c e13d
00000080: 50a7 03bc 853e 0b3e e61a c03d e093 bfbb
00000090: 82d1 0bbd 9826 293d f284 b1bd 52c9 d2bd
000000a0: fa08 d13d 22cb ef3d 6057 61bc 900a 85bc
000000b0: ac98 2abd 4010 acbc b0a2 11bc 90a2 793d
000000c0: 2a59 c53d 984a 743d 6f1d 1cbe ae01 8f3d
000000d0: e0c6 ebbd 07ff 15be 1021 783c 9b73 123e
000000e0: 1099 543c 50dc d8bd ae25 e6bd 6ee7 e8bd
000000f0: 60a2 d7bc 8079 41bc 8866 17be 032a b8bd
00000100: 8a70 78bd d0d5 1f3c 6f70 bfbd 2705 21be
00000110: 1898 01bd 755b 013e 147b 4c3d cc9e 69bd
00000120: dd4d 99bd d404 b2bd 325e 82bd b4c0 443d
00000130: ea15 bf3d dde5 1d3e f6e6 95bd f471 7c3d
00000140: 9e03 3bbd 0fb5 0bbe 22f6 afbd 621b febd
00000150: c040 52bd 2f1a 1ebe c23f f73d 21bf 1a3e
00000160: b83e ddbc 196a bbbd 509a aebc 0a82 ec3d
00000170: eca0 02be 004f e83a 5ced 003d 78ac 503d
00000180: c832 82bd 8a08 d13d 53b2 0dbe 60e9 17bd
00000190: acba 11be 04b7 e8bd 329f 20be 0445 f6bd
000001a0: b6e3 9d3d bc67 f7bd 28b9 963c 0ea4 c83d
000001b0: 6021 d03c 6056 dc3c c81a 583d 748c 19bd
000001c0: b16f 0cbe 807e 4b3c 11d4 85bd 6bd8 81bd
000001d0: c894 08be 406a 113c d64e 0bbe b503 1dbe
000001e0: b84f c4bd b7ee 02be 70f8 613c 3f27 0d3e
000001f0: c0ad 213b 3360 b2bd c384 12be a04b cbbb
00000200: 28f6 f3bc 2022 e5bd 5181 0a3e 007c 3b3c
00000210: 2ca4 623d 5af0 c13d a681 00be 5ab1 973d
00000220: 7a56 c83d be9f fd3d ecf3 1ebe 86bc bc3d
00000230: 7517 103e 68db 983c 9134 e5bd 4081 9a3b
00000240: d0f3 113d aa13 da3d 81ac 0f3e dc7c 19bd
00000250: c68d d0bd dcdc 00be 7ecf ac3d b00e 4c3c
00000260: 0ccb 00bd 80d1 62bb 8f42 b3bd 0042 583d
00000270: 6089 0f3d c21f 47bd c0fc 81bb deca be3d
00000280: 9512 043e 716f 12be 583a 993c 40c3 e03c
00000290: f6bb c5bd faa0 df3d ea8f edbd 0070 acba
000002a0: 9ddb b8bd 94ac 993d 8e10 843d e85a b73d
000002b0: 8800 dcbd b0a0 f73c c4fc 1cbe 596e efbd
000002c0: ee3e 99bd 96e2 39bd 60ba f83b dea9 08be
000002d0: 1643 1fbe f2c1 d1bd baed c13d d5f8 dbbd
000002e0: 06fe 9dbd 5d43 173e c853 c33c a65f dbbd
000002f0: 22a1 08be 23a3 b5bd bc36 663d 8bff f8bd
00000300: 8041 253c 3652 d73d 9c03 3dbd c9ee 193e
00000310: ec32 0fbd e062 febb fc7c 3b3d 9e59 eb3d
00000320: 62d7 e13d 408a cd3c 6393 063e c3a0 8fbd
00000330: 6c66 4ebd f0fb 0d3c 7010 94bc c01c 20bb
00000340: 3e7e ed3d 0060 523b c29c 45bd 1663 ad3d
00000350: 9ebf b63d 20cb f43c 432c 053e 7814 6d3d
00000360: 3e5c 0ebe 5278 d63d bf5b 19be 6ce7 4e3d
00000370: 8c56 e9bd 92f6 a1bd 80fd bfbb 609f 7f3c
00000380: 1d08 103e bf70 0e3e 2852 acbc c8c7 edbc
00000390: b85d 03be 4e12 18be b427 533d f867 d3bd
000003a0: dc6f 54bd 3165 febd a236 ba3d de5b 18bd
000003b0: 284a f43c c118 aebd c533 09be d9aa a0bd
000003c0: 00a4 873b cecf cf3d 3f14 213e 0857 d4bc
000003d0: 386b 0abd a19c 163e b5d0 a2bd 00ec 8a39
000003e0: fadf 893d 0aeb e73d e245 12be 25b9 1d3e
000003f0: 1328 b8bd 186c a23d 46ca f7bd d393 073e
-0.1289706 -0.09757328 -0.11654854 0.12592818 0.11484213 -0.03258951 0.06028767 -0.10631996
0.12249224 -0.0008532554 0.10522376 -0.14433576 -0.104127295 -0.02265124 -0.012118757 -0.014834598
-0.10062959 0.020548075 0.1364687 0.1224152 -0.10127133 -0.03313575 0.13983588 -0.11503403
-0.12346585 0.034320265 0.08047283 0.002276972 0.12754281 -0.038453683 -0.03192234 0.10991724
-0.008035496 0.13598068 0.093801305 -0.0058464855 -0.03413535 0.04129657 -0.086679354 -0.10292305
0.1020679 0.117086664 -0.013753742 -0.016240388 -0.041649505 -0.021003842 -0.008888885 0.060946047
0.09636147 0.05964145 -0.15245603 0.06982742 -0.11512542 -0.14648066 0.015144601 0.14301912
0.012975946 -0.10588896 -0.112376556 -0.11372267 -0.026322544 -0.011808753 -0.14785206 -0.08992388
-0.0606542 0.009755567 -0.09347617 -0.15724622 -0.03163919 0.12632544 0.049922064 -0.057036206
-0.07485554 -0.08692327 -0.063656226 0.04803534 0.09330352 0.15419717 -0.07319443 0.06163211
-0.045657746 -0.13643287 -0.08591868 -0.124075666 -0.05133128 -0.15439676 0.12072708 0.15111972
-0.027007446 -0.09151096 -0.021313816 0.115482405 -0.127567 0.0017723739 0.031476364 0.05094573
-0.06357342 0.10206707 -0.13837557 -0.037087798 -0.14231366 -0.113630325 -0.15685728 -0.120248824
0.07709448 -0.12080333 0.018398836 0.09796916 0.02540654 0.026896656 0.052759916 -0.037487462
-0.13714482 0.012420297 -0.06534589 -0.063401066 -0.13338006 0.00887543 -0.13604292 -0.15333445
-0.09585518 -0.12786375 0.013792142 0.13784502 0.0024670213 -0.08709755 -0.14308457 -0.0062040836
-0.029780462 -0.111881495 0.13525893 0.011443138 0.055332348 0.094696715 -0.12549457 0.07406874
0.09782119 0.12383984 -0.15522736 0.092156455 0.14071448 0.018659309 -0.11191667 0.004715115
0.03563291 0.10648282 0.14030649 -0.03747259 -0.10183291 -0.12584251 0.084380135 0.012454674
-0.03144364 -0.0034609735 -0.087529294 0.052797318 0.03504312 -0.04861427 -0.0039668977 0.093160376
0.12897713 -0.14300324 0.018704578 0.027436852 -0.09654991 0.10919376 -0.11599715 -0.0013155937
-0.09026263 0.0750362 0.0644847 0.08952886 -0.10742289 0.030227989 -0.15330797 -0.11690969
-0.07482706 -0.045382105 0.007590577 -0.13346049 -0.15552935 -0.1024207 0.09469171 -0.1074082
-0.07714467 0.14771791 0.023843661 -0.10711603 -0.13342717 -0.088690065 0.056204543 -0.12158116
0.010086417 0.10513727 -0.04614602 0.15032496 -0.034960672 -0.0077632517 0.04577349 0.114917025
0.11027409 0.025090337 0.13142161 -0.07013085 -0.050390646 0.008666024 -0.018074244 -0.0024431199
0.115963444 0.0032100677 -0.0482452 0.08466165 0.08923267 0.029882014 0.13005166 0.05788085
-0.13902375 0.10472168 -0.14976405 0.05051367 -0.11393461 -0.07908358 -0.005859077 0.015601963
0.14065595 0.13910197 -0.021035269 -0.029025927 -0.1282872 -0.14850733 0.051551536 -0.10322565
-0.05186449 -0.124216445 0.09092452 -0.037196986 0.029820517 -0.08500815 -0.13398655 -0.078450866
0.0041394234 0.101470575 0.1573038 -0.025920406 -0.033793658 0.14708187 -0.07949964 0.00026497245
0.06732173 0.11324127 -0.1428447 0.15402658 -0.089920186 0.079307735 -0.120991275 0.13239984

input_linear.bias f4 [40]
00000000: f9ce 163e 502f 49bc 474d 02be 781b 453d
00000010: b0dd 73bc 90e4 aa3d bf2b 163e 6b68 a0bd
00000020: ec2a 23bd 0200 42bd 102e 36bc 5a3c 6dbd
00000030: 1ef3 f33d 3ca1 423d c0e9 f1bd f870 753d
00000040: ece2 bcbd f854 a03d 18ef 80bc a6de 59bd
00000050: 88db 0cbe bea9 8abd 3771 053e b242 ac3d
00000060: 5895 99bc 1e08 0bbe 1486 883d 02a3 b0bd
00000070: 108a 4cbd 37aa 1d3e 2842 813c 976c dfbd
00000080: a131 b1bd 0f09 06be 260d 32bd 6851 7bbd
00000090: 525e cdbd 883a cfbc a05e 46bc f82d 4a3d
0.14727391 -0.012279347 -0.12724791 0.0481219 -0.014884397 0.08344376 0.14665125 -0.07832416
-0.039835855 -0.04736329 -0.011119381 -0.057918884 0.11911605 0.047517046 -0.118121624 0.05992219
-0.092229694 0.078287065 -0.015739009 -0.05319085 -0.1375562 -0.06770657 0.1303147 0.084111586
-0.01874797 -0.13577315 0.066661984 -0.08624841 -0.049936354 0.15396963 0.015778616 -0.10909384
-0.08652044 -0.13089393 -0.04346957 -0.061356932 -0.10027756 -0.025296465 -0.012107521 0.049360245

lstm.weight_ih_l0 f4 [600, 40]
00000000: bf83 72be 8e98 bf3e e170 953e 56be 2f3e
00000010: e23a e63e 8ef0 943e 87b7 9e3e b254 93be
00000020: 53f4 97be 5543 8bbe 017a f33d 00f5 c23d
00000030: caaa 1a3f 3010 963e fc4d 2dbe 615d 69be
00000040: bf63 a4be 127b b33d 9d81 c93d 4e46 8e3e
00000050: 027d 993e 5aee 8b3e 272e 7a3c ff26 b13d
00000060: 7c4d 8f3e ff6b 9abe 439e 87be 3f67 85be
00000070: 2b28 dc3d b973 b7bd 6d87 ff3d b7de 9b3e
00000080: 6023 e73d 341b a8be d4e1 b13b 8831 bf3d
00000090: 57b8 903e 188f 17be 17ba 5f3d 66a4 18be
000000a0: 397c df3e 96d8 8e3d 62e5 9cbe 3a0d 833d
000000b0: 70a9 ab3d 0806 8fbe 330c 8fbe 70f2 923e
000000c0: 134a 8c3e e738 9b3e c57d 28be 4963 3d3e
000000d0: 71bb 92be 61ec 9fbe 56ad 863e 3a93 4f3e
000000e0: dde0 40be 3554 3fbe b6de 3abe b506 90be
000000f0: c97c 94be 0b6a 99be 35da 653d d91b 013d
00000100: 2dde 99be 501f 9d3d 7e50 79be 6ed5 6ebe
00000110: 6102 36be 27a6 e5be c3e7 23be 0aca 9ebe
00000120: 1e34 2ebe 31cf 3fbe 1f6a 503d fc95 713c
00000130: ac04 94be 45d5 05be cdf4 a3be 3026 873e
00000140: b8a0 083f 525e 73be 0604 1ebe b860 bbbc
00000150: bc8f babd 2126 1bbe 3205 16be 9f47 0c3e
00000160: a027 2b3e 9be0 233e 3ddf b1bd e529 f63e
00000170: 91a2 2dbe 3411 1fbe 859d f53e 54b6 a3be
00000180: f25f e9be fbb9 d0bd 6f0e acbd 4be9 0cbe
00000190: 97be 22be 7fd1 12be dd30 ac3d 71a8 933e
000001a0: e329 1bbe ad56 8d3e 8433 32be 2e3a 82be
000001b0: 7d84 b7bd 47b6 9b3e b280 f5bd d359 19be
000001c0: 9d95 aabd b362 dfbe 6e4e af3d d58b 953e
000001d0: cb53 25be 1d36 383e f220 993d 91c1 e73e
000001e0: 1384 20bd 2956 1dbc 00a2 d03d 02d9 453e
000001f0: 0113 c6bd 493d b93d bee6 a93d 7e10 dbbd
00000200: 1aab f6bd a363 acbd ceb5 e43d 4947 0e3d
00000210: 1925 d63d 7ae7 e83d e941 1abe 371d 4a3d
00000220: 1c05 3d3e f80d 043e 5800 e63d 7061 c93d
00000230: 1d03 e43d 546e e33d dc5a 1bbf cd33 ae3c
00000240: 7511 c53d ef5c 9cba 2b42 393e 7423 e83d
00000250: 1b95 133e 53c5 a73d 5df5 133e 708b af3d
00000260: a43a 163e 7ad8 313e ada2 1cbf 6f8d 1d3d
00000270: 644c d73d 1a58 e1bd 90eb d8bd 8c68 10be
00000280: af52 ccbe 13c2 81bf 1b4c 953e fbf7 013f
00000290: 6973 61bf 1a9d 903e b68a bb3e 0516 91be
000002a0: 5380 97be 3855 a1be b71d 7f3e bc02 86be
000002b0: d4e1 cb3e bc83 993e 6019 14bf 4b8d 27bf
000002c0: 86f7 37bf 5e70 613e d822 5d3e fbbe 933e
000002d0: 4e9d 943e 7df5 a23e 9347 34be d35a 693f
000002e0: d4a7 993e 5fe0 fabe fb23 113f 78d9 303f
000002f0: 3e07 613e 1913 b8be 7c3d 7d3e fde7 983e
00000300: 19f7 6c3e 1b64 3cbf 3959 1cbe d228 653f
00000310: 2880 923e d817 29bf 8c53 5abf 31e9 18bf
00000320: 8f4f 2abe 78bb 843e dd21 213e 72f2 f83d
00000330: d72c 3f3e 9b39 233e 5f3e 243e 81b0 06be
00000340: 6f70 1ebe 2217 12be 8ef8 0d3e 2b33 3539
00000350: aaa8 d33d bb3f 163e f149 32be c1c2 c23d
00000360: 0c5b 593d 5ef0 133e 3386 fa3d 264c 083e
00000370: 3f16 0b3e 234e 193e d77a b63d fe25 0f3d
00000380: b56e 113e 4aa4 9a3d da96 223e 4a36 1e3e
00000390: 6548 1f3e 0477 ac3c c3cf 173e d2b9 233e
000003a0: a3ee 0f3e a61c 643d a5b3 ec3d af64 4c3d
000003b0: 9083 1e3e a686 fd3d d8c9 053e 3e17 44be
000003c0: c72c 3cbe 7ace 583d 09ee e23d 0814 2a3e
000003d0: 2ab6 b03d 13c3 ba3d a234 073e 4a10 c7bd
000003e0: 6d4e f0bd cb83 c0bd 77b6 213e 3d16 cabd
000003f0: f871 9e3d a0f1 d13d 2650 56be 34d2 f5bd
-0.2368307 0.37421077 0.29187682 0.17162451 0.449668 0.2908978 0.30999395 -0.28775555
-0.29678592 -0.27199808 0.11888505 0.09519386 0.60416853 0.29309225 -0.1692428 -0.22789527
-0.3210735 0.08763708 0.09839175 0.27788013 0.29978186 0.27330285 0.015269793 0.08650016
0.27988803 -0.3016052 -0.26487932 -0.26055333 0.10749849 -0.08957619 0.12477002 0.30443355
0.11286044 -0.32833254 0.005428532 0.09335619 0.2826564 -0.1480068 0.05462083 -0.14906463
0.43649462 0.06974904 -0.30643755 0.06399007 0.08381927 -0.2793429 -0.27938995 0.2870059
0.27400264 0.3031685 -0.16454227 0.18494906 -0.2865863 -0.3123503 0.2630412 0.20271006
-0.18835779 -0.18684466 -0.1824902 -0.28130117 -0.29001454 -0.29963717 0.0561163 0.0315207
-0.3005232 0.07671988 -0.24347112 -0.23323604 -0.17774345 -0.44853327 -0.16006379 -0.3101352
-0.17012069 -0.18731381 0.050882455 0.014745232 -0.28909814 -0.13069637 -0.32022706 0.26396322
0.5337024 -0.23766449 -0.15431222 -0.022873268 -0.091094464 -0.15151264 -0.1465042 0.13699196
0.16714334 0.16003649 -0.086851574 0.48078838 -0.16956545 -0.15533906 0.4797174 -0.31975043
-0.45581013 -0.10191723 -0.084011905 -0.13760869 -0.15893017 -0.14337729 0.084077574 0.28839448
-0.15152697 0.2760519 -0.17402464 -0.25435013 -0.08960817 0.30412504 -0.11987437 -0.14975671
-0.08329318 -0.4362999 0.08559881 0.29208246 -0.16145246 0.17989393 0.07476987 0.45264867
-0.039188456 -0.009603062 0.10187149 0.19321063 -0.096715935 0.09044892 0.08295964 -0.10696505
-0.12044354 -0.08417442 0.11167489 0.03473595 0.104562946 0.11372276 -0.15064205 0.049344268
0.1845898 0.12895954 0.11230534 0.09833038 0.11133406 0.11105028 -0.60685515 0.021264935
0.0962247 -0.0011929552 0.18091647 0.11334887 0.14412348 0.081919335 0.14449067 0.085715175
0.14670807 0.17367736 -0.61185724 0.03846496 0.10512617 -0.11003132 -0.10591805 -0.14102381
-0.39906833 -1.0137352 0.29159626 0.50769013 -0.88066727 0.2824486 0.36629266 -0.28337112
-0.2959009 -0.3151033 0.24913679 -0.2617396 0.3982073 0.29983318 -0.5785122 -0.6544997
-0.71862066 0.22015521 0.21595323 0.28856644 0.29026264 0.31827918 -0.17605428 0.9115421
0.30010855 -0.48999307 0.56695527 0.6908183 0.21975419 -0.3595207 0.24730486 0.29864493
0.23141135 -0.7359025 -0.1526841 0.8951541 0.286134 -0.6605201 -0.8528373 -0.5973082
-0.16631912 0.25924277 0.15735574 0.12155618 0.18669449 0.15939943 0.16039418 -0.13153268
-0.15472578 -0.14266637 0.13864347 0.00017280567 0.103349045 0.14672749 -0.17411019 0.095098026
0.053065345 0.14447162 0.12232628 0.13310298 0.13582705 0.14971213 0.089101486 0.03494834
0.14202388 0.07550867 0.15877858 0.15450397 0.1555496 0.021052845 0.14825349 0.15988854
0.14055876 0.055691384 0.11557702 0.049900707 0.15479875 0.12379198 0.13065279 -0.19149491
-0.18376456 0.052931286 0.11080558 0.16609204 0.08628495 0.09119239 0.13203672 -0.09719904
-0.117337085 -0.094001375 0.15792261 -0.09867523 0.077365816 0.102511644 -0.20929012 -0.12002984

lstm.weight_hh_l0 f4 [600, 150]
00000000: 5c60 0e3f 105a 37be 1422 d8bd 7ed2 6a3e
00000010: 0a70 4dbe 7ecb b6be 7a42 ac3c 41c8 803d
00000020: b8f7 6abe 39f6 02be ae2d 8f3e 710e 33be
00000030: 0146 bc3e b089 33be ec44 91be 8e23 a0bd
00000040: 38e5 223e 4d84 10be b7bb aa3e 0843 3c3a
00000050: d472 003f fd5f 1e3e 6dca 3fbd e127 35be
00000060: 5b2f aabe e604 943e 0a52 773c 6362 d53c
00000070: e7ee 93be 3cf7 6dbc 5464 c2bd 13a1 bfbe
00000080: 74ef a4be 4e6b afbe 83a5 9c3e 7c20 debe
00000090: 6b61 c63d cf66 a83c d048 5c3d 3cfb 83be
000000a0: 285b c6be 4c97 75be 6508 3ebe a0c0 00be
000000b0: 62ac 39be 8a22 44be 9035 15be 0383 8f3e
000000c0: 2e96 7d3f 964f cabe 4079 2a3e f7ef 3f3c
000000d0: 3471 b3be 7738 1ebe b698 56be e319 21bb
000000e0: e9b3 43be 0339 9c3e ad83 87be d67a c339
000000f0: 1062 ef3c 1995 4e3d e330 173d b18c 8bbe
00000100: 8132 3a3d 2baa 03be cd5c 473e 9cae 9abe
00000110: 4735 94be 1961 133d e804 c83e b4ae ccbe
00000120: 9ea9 3cbd 23aa 6fbe cdd0 e23b eff6 b5be
00000130: 06d2 383f 0356 fb3d 66f0 a6be d3de b5be
00000140: d3fc be3c 70b3 c8be 2abb 2cbe ca03 febd
00000150: 0067 e23b d02c 9e3d 6c57 94be f2a1 3d3e
00000160: 39d8 8cbc eda9 91be ae49 533f 89c8 013d
00000170: 435b c8bc 0377 1ebe 2b29 b5bd ac16 ba3e
00000180: a188 773d a807 55bd 41da a5be 5c19 76be
00000190: c20d 1b3d afc9 e7be d596 aabe c1f5 a8be
000001a0: 7aec d6be cd02 2b3e 12ad 9a3e 61dc 68bc
000001b0: 42a7 82be e566 14be a2b2 0bbf 1a62 68be
000001c0: 6b1f 30be e3e4 40bd 58f6 82be 59b4 21be
000001d0: 60be af3d 4867 c3be 3da1 6ebe addc 05be
000001e0: f1c9 1a3f 1eb9 b4be 5668 c43d 2f89 7d3e
000001f0: d3b0 85be 00dd 863e e2b1 913d f259 07bd
00000200: 93cf c0be a51f 2d3e 25f4 bdbe e231 d1be
00000210: 8075 1cbe 5fc7 483e 8fb8 363e e105 af3e
00000220: 81de 173e 875c 34be 4a6c b9be 2a47 bbbe
00000230: e1a8 c0be e4f6 5cbd 3ea3 0e3e cbe0 a7bd
00000240: 6b8d 9f3b 7632 5fbe 6c0c f2bd 444f 2b3e
00000250: d57d 8b3e de8f 7a3f a79b 9cbd f478 aa3d
00000260: 716f d5bb feb2 95be d898 093f f1e0 b23e
00000270: 1d54 e1be 765f 593b bfec 933e 8a40 a2bd
00000280: 4afd 91be 971e 87bd 4d34 ebbe 1875 1f3d
00000290: 167d fd3e c229 6d3e a89f e7bd 64fb d03d
000002a0: 30f6 ba3e b910 103d 0249 c3be d1d4 3a3d
000002b0: faac 913c 7186 703e dfff a9be 39f4 ccbe
000002c0: c358 61be 59f1 943e 2522 cd3e 326d 08bf
000002d0: 65d6 88bd 70de ca3e 507a e63e d561 0d3e
000002e0: e58e 91be 0a45 a1be 21dd a7be 6e1c c4bd
000002f0: 9039 c1bd e508 d63e 7fd4 a53e 3fe1 e53e
00000300: e363 3d3d 41c4 5b3d 19a4 c93e ac24 953d
00000310: a16d 2dbd 11f0 a9bd f275 e0be a1cd e53e
00000320: 44f5 0ebe c470 783c 4f80 4bbe 130f ba3e
00000330: b317 56be 2d42 7c3e 4f07 c23c 02f3 ddbd
00000340: 9783 813e 56b9 abbe 1511 04bd 12c5 f9bc
00000350: f04a b8be e866 e23e c3d5 4bbd dce7 303e
00000360: 2f5b 7ebe 0d6d bcbe 15f3 b53e 4fd1 07bd
00000370: 2f44 55be 1e9f d23e 27d4 503d 19b2 1cbf
00000380: d771 ad3d b7d9 aa3e 8288 a93e ded1 88bd
00000390: e516 c53e b3fe afbe 8392 4c3d b9e2 8d3c
000003a0: 5223 923d 9165 063e a723 92bd f929 01be
000003b0: e6e6 b1be 60fa b7be e39a 55bd 756f a43e
000003c0: f632 753d f345 60be a4bc 92be f207 973d
000003d0: aa04 e53e 2ec1 e0be 5cbc 7ebd c448 063e
000003e0: 6e6c 3f3e 6f9f f03e 9712 2abf 4341 f83e
000003f0: 01a8 85be 942a af3e 0a0b 513e bb6a adbe
0.5561578 -0.1790545 -0.10553375 0.22931859 -0.20062271 -0.35702127 0.021027792 0.062881954
-0.2294606 -0.12789239 0.27964538 -0.17485978 0.3677216 -0.17532992 -0.28372896 -0.078192815
0.15907753 -0.14112969 0.3334634 0.00071816193 0.50175214 0.15466304 -0.046823908 -0.17690994
-0.33239254 0.28909987 0.015095243 0.026047891 -0.28893206 -0.014524277 -0.09491792 -0.37427577
-0.32213938 -0.34261554 0.30595025 -0.4338416 0.0968655 0.020556835 0.053780377 -0.25777614
-0.38741422 -0.23983496 -0.1855789 -0.1257348 -0.18132165 -0.191538 -0.14571214 0.28029642
0.9905728 -0.39513844 0.16647816 0.011714927 -0.35047305 -0.15451227 -0.20956692 -0.002458208
-0.19111599 0.30512246 -0.26467648 0.00037284818 0.029221565 0.05043516 0.036911856 -0.27255777
0.04545832 -0.12857883 0.19468994 -0.3021134 -0.28946897 0.03598127 0.39066243 -0.39977038
-0.046060197 -0.23404746 0.0069218636 -0.35539958 0.7219547 0.12272265 -0.32605284 -0.35521564
0.023313915 -0.391994 -0.16868272 -0.124030665 0.006909251 0.07723391 -0.28972948 0.18518808
-0.017192947 -0.28449956 0.825343 0.031685386 -0.02445758 -0.15475087 -0.08845743 0.36345422
0.060433034 -0.052009255 -0.32393077 -0.24033111 0.037854917 -0.4527106 -0.333182 -0.32999995
-0.41977292 0.16700287 0.30210167 -0.014212699 -0.25518233 -0.14492376 -0.5456945 -0.22693673
-0.17199485 -0.047093283 -0.2557857 -0.15791453 0.08581233 -0.38164735 -0.23303695 -0.13072462
0.6046439 -0.35297483 0.09590213 0.24759363 -0.2611147 0.26340485 0.071140066 -0.033044763
-0.37658367 0.16906603 -0.3710033 -0.4085837 -0.15279198 0.19607304 0.17843841 0.34184173
0.14830972 -0.17613421 -0.3621543 -0.3657773 -0.37628844 -0.05394639 0.1392946 -0.08197173
0.0048691533 -0.21796593 -0.118187755 0.16729456 0.2724444 0.97875774 -0.07646876 0.08323851
-0.006513529 -0.29238123 0.53748846 0.34937242 -0.44009486 0.0033168471 0.2889156 -0.07922466
-0.28513557 -0.065976314 -0.4593834 0.03893003 0.49509495 0.2316046 -0.11309749 0.10204199
0.3651595 0.035172198 -0.38141638 0.045613114 0.017782677 0.23488785 -0.33203027 -0.40030077
-0.22006516 0.29090384 0.40065113 -0.5329162 -0.066815175 0.3962283 0.45015192 0.13806851
-0.28429332 -0.31497985 -0.32785895 -0.09575735 -0.09434807 0.4180366 0.32388684 0.44898412
0.046237838 0.05365396 0.3938301 0.07282385 -0.04234088 -0.08297742 -0.43839985 0.44883445
-0.13960749 0.015163604 -0.19873165 0.36339626 -0.20907478 0.24634619 0.023685126 -0.10837366
0.25295708 -0.33539838 -0.032242853 -0.030489478 -0.35994673 0.44219136 -0.049764406 0.17275947
-0.24839471 -0.3680195 0.3553702 -0.033158597 -0.20826791 0.41137022 0.050983574 -0.61209255
0.08468979 0.33369228 0.3311196 -0.06680654 0.3849403 -0.34374008 0.049944412 0.017320024
0.07135643 0.13124682 -0.071357064 -0.12613668 -0.34746474 -0.35933208 -0.052149665 0.32116285
0.059863053 -0.21901684 -0.28659546 0.07374562 0.4473012 -0.43897384 -0.062191352 0.13113695
0.18693706 0.46996638 -0.66434616 0.4848729 -0.2610474 0.34212172 0.20414367 -0.3387049

lstm.bias_ih_l0 f4 [600]
00000000: 4b39 9a3e 0f65 98be c41d 1fbe bfdf a83d
00000010: 3a33 8f3e f861 023e 0ee8 c83d 9302 fc3d
00000020: 2f60 dcbe eca1 0c3e 57b4 bbbe 93bb d8be
00000030: 899e 913e 58b3 1f3e 463a 193e 2975 c3be
00000040: 3038 aebd 179c 6d3e 2c38 f7be ec0a 28be
00000050: d0a8 5a3e 1c85 703d 0577 6dbd a269 f7bd
00000060: d886 963e c601 b73e d904 cbbd 06a6 31be
00000070: 9fda bf3e a163 d83d 565c 423e e532 363e
00000080: d3d5 2b3e b955 c23d ddb8 833e 4435 893f
00000090: 0348 003e 3f46 8fbe 2e38 6c3e 0c41 3e3e
000000a0: 9987 333e 8c18 8a3d 145b a13c a687 97be
000000b0: b41e 3d3d 1f9b 213e 3da2 b9bd a030 39bf
000000c0: 4704 563e c31b f13e 7754 7b3d f90a cf3d
000000d0: bccc febd 754d e43e 9bf5 41bf ad96 2abe
000000e0: 377e ddbd e82b dc3d ae0e 403e 6a1c 98bd
000000f0: b056 0abe a98e eb3d f1bb 9f3c 1512 3a3f
00000100: 9c1b 243e 8d1f d83d 8a37 1d3e 45fc 473e
00000110: b214 5c3e d822 f5bd eb43 6a3e c702 2c3e
00000120: a9b6 46be 4b87 9c3d 469e 4cbe 699d 2c3e
00000130: fb53 b13e 5610 e9bd 8b3c 693f 02b3 663e
00000140: 2e79 92be 87be 653e 3c76 973c 4f08 26be
00000150: 8bae 3ebe 5617 28bf a8f6 b63f f55e 003f
00000160: c49e a63e ef9c 143e 7443 41be ffb2 2d3e
00000170: 9787 b83e 828b 393e 72e1 4a3d d169 213f
00000180: 3155 29be 9a92 6abf f185 9f3d d898 ce3c
00000190: 4a91 4c3f db7b 0f3f 96b7 933d 2963 963e
000001a0: 3e61 2abe 4fac 853e afd6 19bf 3bea 4cbe
000001b0: f733 783e f1de 76be 4570 ca3c 9f40 813f
000001c0: f41c b23d 065a 6cbe b1ce 033e 3f76 d0bd
000001d0: 4e14 bf3e 18d8 de3e 49a6 6ebe 672d e5be
000001e0: e9e8 44bf 25d3 3c3e c8f8 eebe d857 cb3e
000001f0: 3e1a 13bc d675 013e 5736 af3e 5379 a1be
00000200: 7fa2 203e 586c 27bf ca46 103e 71f1 203f
00000210: c843 9e3e 35e2 80bf 48c2 403e f32a 953e
00000220: 0ab8 793e 7602 ca3d 9767 653f 303c 88bd
00000230: ae69 a93e 1444 b6be 62ad b8be 33f6 95be
00000240: da8a c63d e73d 923e 13f2 793e d5f5 1b3f
00000250: ed3f 853d eef1 71be 7123 d43e 5c54 56be
00000260: adc1 35be a59c e13e f164 3d3e 1a2c 10be
00000270: ceee d3be 1178 a23c 4784 eb3e d16e 903d
00000280: d598 7dbe f263 dc3e 88b0 43bf 51cc eb3d
00000290: 6b3e f53e b284 14bf f3b3 e8bd 5e65 cf3e
000002a0: f7ec 10be f07f 4cbe df78 a0bd 740c 0c3d
000002b0: 5be3 85be 9a74 e0be 50de cfbd 33bb d8be
000002c0: c2d3 993d 2af2 11be ba8f 9d3d 01df aabd
000002d0: 65af 5d3f a692 cb3e 5f9f 7a3e 0b86 9d3e
000002e0: 59ef 45be ce00 b53e 8796 7abe 8f46 7a3e
000002f0: ffa0 af3e 087a 653e 7749 453e 59b8 083e
00000300: 264c 89bd d9d0 c9bd b433 58be 7bba 2e3e
00000310: d226 d2be e803 d63e fb30 e23e b8d3 0b3f
00000320: 43e1 073c 3d6e 3abc d745 57be 8064 68bd
00000330: 5432 a4be ebc2 b9bd 6f61 ccbe a9a5 073e
00000340: 4de7 c53e 9307 79be 7e87 11be 2a58 12be
00000350: 8bf8 853e 9038 2f3f f5a4 e53d 9be8 d83e
00000360: 61cb 72be d952 d63e 20ac aabe f843 c93e
00000370: 7fc2 613e 17d0 4b3e 2b34 5abe 4d66 023f
00000380: b70b ef3d d5e0 803e d541 1bbf e799 de3a
00000390: c038 f83e a844 963c aa1e 0b3e 96f8 89bc
000003a0: 2053 203e 9864 2c3e 591f b2bd 3d6f 9f3e
000003b0: d66d 6d3e ea87 f1be efcc da3d c715 633e
000003c0: 8afb 2d3e a4a4 f6be c7fc f0be 034d 103e
000003d0: 2306 173f 4dc7 42be ce82 c6be e103 07be
000003e0: c200 823e 3472 fb3e 0adc 4fbe 5916 82be
000003f0: 4257 d4be 84e9 363e 7c66 d43e e75b aa3e
0.30121836 -0.29764602 -0.15538698 0.08245801 0.2796877 0.12732685 0.09809886 0.123051785
-0.43042132 0.13733643 -0.36661026 -0.42330608 0.28441265 0.15595758 0.14963636 -0.38175324
-0.08506811 0.23204075 -0.48285043 -0.16410416 0.2135346 0.058720693 -0.057974834 -0.12080695
0.29399753 0.3574354 -0.09913034 -0.17348489 0.37471482 0.10565878 0.18980536 0.17792852
0.16780786 0.094890065 0.25726977 1.071938 0.1252747 -0.2798328 0.23068306 0.18579501
0.17532195 0.06742963 0.01969675 -0.2959568 0.04617186 0.1578183 -0.090641476 -0.7233982
0.20900069 0.47091493 0.06135985 0.10109515 -0.12441394 0.44590345 -0.7576539 -0.16659041
-0.10815089 0.10750562 0.187556 -0.074272946 -0.13509631 0.1150182 0.019498797 0.7268384
0.16026157 0.10552893 0.15353218 0.19529827 0.2149227 -0.119695365 0.22877471 0.16797934
-0.19405617 0.076429926 -0.19982252 0.16856922 0.34634385 -0.11380069 0.91108006 0.22529224
-0.28608078 0.22435962 0.018488996 -0.16214107 -0.1862127 -0.6566061 1.4294024 0.5014489
0.32543004 0.1451299 -0.18873388 0.16962813 0.36040947 0.18119624 0.049531408 0.6305209
-0.16536404 -0.91629946 0.07789219 0.025219366 0.79909194 0.56048363 0.072127506 0.29372528
-0.16638657 0.26108024 -0.60093206 -0.20011227 0.24238573 -0.24108483 0.024711737 1.0097846
0.086969286 -0.23081216 0.12871815 -0.10178804 0.3732018 0.4352424 -0.2330562 -0.44761202
-0.7691789 0.1843992 -0.4667418 0.39715457 -0.008978425 0.12642607 0.34221146 -0.31537876
0.15686987 -0.65399694 0.14089504 0.6286841 0.30911088 -1.0069033 0.18824112 0.2913433
0.24386612 0.09863751 0.8961119 -0.06652105 0.3308844 -0.35598814 -0.3606978 -0.29289398
0.096944526 0.28562853 0.2440875 0.60921985 0.065063335 -0.23627445 0.4143329 -0.20930618
-0.17749663 0.44064823 0.18495537 -0.14079323 -0.4139313 0.019832643 0.45999357 0.070523866
-0.24765332 0.43045002 -0.7644124 0.1151358 0.47899184 -0.58014977 -0.113624476 0.40507025
-0.14152895 -0.1997068 -0.07835554 0.034191564 -0.2615002 -0.4383896 -0.101498246 -0.42330322
0.07511093 -0.14252535 0.07693429 -0.08343316 0.86595756 0.3976032 0.24474858 0.3076633
-0.19329585 0.35352176 -0.24471484 0.24440978 0.34302518 0.22409832 0.19266306 0.13351573
-0.06703977 -0.09854288 -0.21113473 0.17063324 -0.41045243 0.41799855 0.44177994 0.5461993
0.008293453 -0.011378822 -0.21022736 -0.05673647 -0.32069647 -0.09070381 -0.39918086 0.13246788
0.3865303 -0.24319296 -0.14211842 -0.14291444 0.26166186 0.6844568 0.11213104 0.42364964
-0.23710395 0.41860083 -0.33334446 0.3930967 0.2204685 0.19903599 -0.21308963 0.5093735
0.11672156 0.25171533 -0.60647327 0.0016983122 0.48480797 0.018343285 0.13585916 -0.016842168
0.1565671 0.16835248 -0.08697385 0.31139556 0.2318643 -0.47174007 0.10683619 0.22176276
0.16990486 -0.48172486 -0.47067854 0.14091878 0.5899374 -0.1902134 -0.3877167 -0.13185073
0.25391203 0.49110568 -0.20298782 -0.25407675 -0.41472822 0.17862517 0.4148444 0.3327324

lstm.bias_hh_l0 f4 [600]
00000000: 1246 8c3e d0ea 91be 242b 16be fe6a b43d
00000010: e05b a23e dcae 0f3e 4fca ca3d 718a d33d
00000020: eb08 dbbe 3223 1b3e 54cc abbe 5376 dcbe
00000030: 20d7 8b3e 1f72 123e 12b8 183e b020 bcbe
00000040: f384 a0bd cb8b 853e ee0a f1be 22f7 24be
00000050: eaa6 443e 3347 943d 0d24 8dbd 0a74 03be
00000060: f093 913e ca52 b13e df74 cbbd a3cf 4dbe
00000070: 3ba5 ad3e 8a49 ef3d 3c8f 463e 3533 1e3e
00000080: f71f 223e 8ef8 dd3d 634b 813e f60c 8b3f
00000090: c4b4 233e c93d 9bbe 6b6c 7c3e 7df0 2b3e
000000a0: 2730 383e 2b78 a43d f122 753c 10ad 9cbe
000000b0: 9df2 9d3d 51ed 313e 3314 b7bd a999 35bf
000000c0: f0b8 6d3e 03b1 e83e 12ab 653d 8da8 e93d
000000d0: cb0b f8bd ad67 eb3e 74ec 44bf 7868 38be
000000e0: 58c7 d0bd 55d4 b43d ac14 2d3e 28eb 5abd
000000f0: a07d 15be 4dba 083e 4414 933c 783e 3a3f
00000100: c084 0a3e 5c95 fa3d b376 2b3e 8830 5a3e
00000110: 8fd7 573e 9141 dfbd ac84 4c3e 0f8e 183e
00000120: 7f37 3abe 67be 7e3d 0885 4ebe b710 373e
00000130: ab53 b13e d0aa 03be 2815 6d3f e398 563e
00000140: 684a 97be 906b 813e 4f3d 563d 9c44 1dbe
00000150: 7fb1 44be cea7 27bf 961d b63f 2a9c f33e
00000160: 69b7 a53e 0dce 233e 0a5d 49be ccda 2f3e
00000170: 9c5f c13e 9eef 243e c82d 653d 263d 243f
00000180: 9092 2ebe 02c4 63bf 5c59 c63d 14e3 753d
00000190: 7d60 4d3f 56bd 0f3f 9adc 3e3d 7689 983e
000001a0: 49e4 47be 81c4 753e 0996 1dbf 8c98 54be
000001b0: e104 6d3e b3d8 84be f28b 64bb 54f2 813f
000001c0: ad4e 8e3d 8978 81be 4362 243e 32a5 babd
000001d0: ae08 be3e 383c d83e c1a5 79be 9f26 e2be
000001e0: 030f 46bf 96b3 363e 901a ebbe a14e bb3e
000001f0: 1590 26bc ceb5 053e 54c8 b53e aea8 9cbe
00000200: 5922 283e 5cd5 2abf c1d6 0a3e 5079 233f
00000210: f885 a33e 38e2 7bbf 3237 203e 877f 8e3e
00000220: 3095 793e 773b 003e 560d 693f 0868 81bd
00000230: 5106 a53e ee6b c6be 14a0 c4be e144 94be
00000240: 3c2a f43d 7859 8d3e 2aa2 8c3e 9d58 1d3f
00000250: 0920 893d acbd 82be 6577 d03e dc4c 56be
00000260: f099 24be ca69 f03e 028d 403e 274e 08be
00000270: 32be cfbe cb25 a73c 57ed da3e 5f86 5c3d
00000280: 6a5d 7ebe 8f6b cf3e d42b 40bf 6edf 0d3e
00000290: b2f3 eb3e c402 11bf d547 f9bd bd4b dd3e
000002a0: 1b59 03be 0cdc 73be 0a09 dfbd 61f9 1a3d
000002b0: 3fb0 82be 51b0 e6be 6336 b5bd 15ee e8be
000002c0: 9f33 383d 76ba fdbd 337c 8e3d ae7d aebd
000002d0: 4184 593f eec2 cb3e 565d 883e c844 9e3e
000002e0: 58f0 3cbe 01ec c13e 626a 6cbe 8efa 863e
000002f0: a3e0 ad3e 911d 713e 3609 653e f779 ed3d
00000300: af49 46bd d75d b8bd 694f 44be 64c1 3d3e
00000310: dbbe d9be e54d c83e ca75 e43e 4117 0d3f
00000320: aa21 f23b 1e3f f13a 3080 3cbe e8d6 8abd
00000330: 20d7 abbe 8581 d0bd 6ca3 c0be e592 ef3d
00000340: 5c97 c63e 0417 63be af1b 1abe 4bc2 17be
00000350: 2f6a 8d3e b4c0 283f cd04 ce3d f23a cc3e
00000360: 7758 80be b7e4 d03e c2c4 abbe 79cb c63e
00000370: bcab 5b3e 254b 583e 83f6 38be 9c1c ff3e
00000380: 8172 e83d 9ed6 683e 4f27 1bbf f1fa 3ebc
00000390: ddcc ee3e 7159 e33c 1d12 0a3e f62f 62bc
000003a0: 714e 1a3e 106e 273e 8819 d4bd 9ae5 8d3e
000003b0: 85e0 883e 6c70 f3be 45b1 e63d 4c26 6c3e
000003c0: 59b2 2b3e 7892 f2be 9f5e efbe b2b3 0e3e
000003d0: 0445 113f ee9b 40be 264c bcbe 67b2 03be
000003e0: b864 873e 76fb 053f a868 47be e2af 8abe
000003f0: ab63 cabe 3f65 553e 209d d63e 0765 a73e
0.2739721 -0.2849946 -0.14664894 0.0880947 0.3171072 0.14031547 0.099018686 0.1032914
-0.4278024 0.15150145 -0.33554327 -0.43059024 0.27312565 0.14301346 0.14913967 -0.3674369
-0.07837858 0.26083216 -0.4707865 -0.16109899 0.19204298 0.07240143 -0.06891642 -0.12837234
0.2843318 0.34633476 -0.09934401 -0.20098738 0.33915123 0.11683948 0.19390577 0.15449221
0.15832506 0.10838424 0.25252828 1.086333 0.15986925 -0.30320576 0.24650733 0.16790958
0.17987119 0.08030733 0.014961944 -0.30600786 0.077122904 0.17375685 -0.089393996 -0.7093759
0.2321508 0.4544755 0.05607135 0.11409102 -0.12111624 0.45977536 -0.769233 -0.18008602
-0.10194272 0.088295616 0.16902417 -0.05344692 -0.14598703 0.13352318 0.017954 0.7275157
0.13527203 0.12235519 0.16744499 0.21307576 0.21078323 -0.10901178 0.19972485 0.14897941
-0.18185233 0.0621933 -0.20167935 0.1787747 0.34634146 -0.12858129 0.92610407 0.20956759
-0.29548955 0.25277376 0.052304562 -0.15358204 -0.19208334 -0.65490425 1.4227779 0.4758008
0.32366493 0.15996571 -0.19664398 0.17173308 0.37768257 0.16107032 0.055951864 0.64155805
-0.17048097 -0.8897096 0.09685013 0.06003101 0.80225354 0.5614828 0.0465971 0.29792374
-0.19520678 0.24000742 -0.6155706 -0.20761317 0.23146392 -0.25946578 -0.0034873453 1.0152078
0.069486 -0.25287274 0.16053109 -0.0911354 0.37115997 0.42233443 -0.24379636 -0.4417009
-0.77366656 0.17841944 -0.45918703 0.36583427 -0.010166188 0.13057634 0.355044 -0.30597442
0.16419353 -0.6673181 0.13558485 0.63856983 0.31938148 -0.9839206 0.15646055 0.2783167
0.24373317 0.12522684 0.91035974 -0.063186705 0.32231382 -0.3875422 -0.3840338 -0.289588
0.11922118 0.27607322 0.2746747 0.6146334 0.06695563 -0.25535333 0.4071609 -0.20927757
-0.16074347 0.4695571 0.1880379 -0.13311063 -0.40574795 0.020403763 0.427592 0.053839084
-0.24840322 0.40511748 -0.75066876 0.13854763 0.46084362 -0.56644845 -0.12171904 0.43221846
-0.1282696 -0.2381441 -0.10890396 0.037835483 -0.2552509 -0.45056394 -0.08848264 -0.45494142
0.044971105 -0.1238908 0.06957283 -0.08520065 0.8496743 0.39797157 0.2663371 0.3091185
-0.18451059 0.3787537 -0.23087457 0.26363033 0.33960447 0.23546435 0.22366795 0.115955286
-0.048410114 -0.090022735 -0.19170918 0.18530804 -0.42528424 0.3912193 0.44621116 0.5511361
0.007389267 0.0018405651 -0.18408275 -0.06779271 -0.33562565 -0.10180954 -0.3762468 0.1169794
0.38787353 -0.22176749 -0.15049623 -0.1482021 0.27620074 0.6591904 0.100595094 0.39888722
-0.25067493 0.40799496 -0.33548552 0.38827112 0.2145223 0.21122415 -0.18062787 0.49826515
0.11349965 0.2273812 -0.60606855 -0.011656509 0.46640673 0.02775261 0.13483472 -0.01380538
0.15068986 0.1635058 -0.10356432 0.27714235 0.26733795 -0.4754671 0.1126428 0.23061484
0.16767253 -0.47377372 -0.46751878 0.13935736 0.56745934 -0.18809482 -0.36776847 -0.12861024
0.2644403 0.52336824 -0.19473517 -0.27087313 -0.39529166 0.20839404 0.41916752 0.32694265

layernorm.weight f4 [150]
00000000: 0000 803f 0000 803f 0000 803f 0000 803f
00000010: 0000 803f 0000 803f 0000 803f 0000 803f
00000020: 0000 803f 0000 803f 0000 803f 0000 803f
00000030: 0000 803f 0000 803f 0000 803f 0000 803f
00000040: 0000 803f 0000 803f 0000 803f 0000 803f
00000050: 0000 803f 0000 803f 0000 803f 0000 803f
00000060: 0000 803f 0000 803f 0000 803f 0000 803f
00000070: 0000 803f 0000 803f 0000 803f 0000 803f
00000080: 0000 803f 0000 803f 0000 803f 0000 803f
00000090: 0000 803f 0000 803f 0000 803f 0000 803f
000000a0: 0000 803f 0000 803f 0000 803f 0000 803f
000000b0: 0000 803f 0000 803f 0000 803f 0000 803f
000000c0: 0000 803f 0000 803f 0000 803f 0000 803f
000000d0: 0000 803f 0000 803f 0000 803f 0000 803f
000000e0: 0000 803f 0000 803f 0000 803f 0000 803f
000000f0: 0000 803f 0000 803f 0000 803f 0000 803f
00000100: 0000 803f 0000 803f 0000 803f 0000 803f
00000110: 0000 803f 0000 803f 0000 803f 0000 803f
00000120: 0000 803f 0000 803f 0000 803f 0000 803f
00000130: 0000 803f 0000 803f 0000 803f 0000 803f
00000140: 0000 803f 0000 803f 0000 803f 0000 803f
00000150: 0000 803f 0000 803f 0000 803f 0000 803f
00000160: 0000 803f 0000 803f 0000 803f 0000 803f
00000170: 0000 803f 0000 803f 0000 803f 0000 803f
00000180: 0000 803f 0000 803f 0000 803f 0000 803f
00000190: 0000 803f 0000 803f 0000 803f 0000 803f
000001a0: 0000 803f 0000 803f 0000 803f 0000 803f
000001b0: 0000 803f 0000 803f 0000 803f 0000 803f
000001c0: 0000 803f 0000 803f 0000 803f 0000 803f
000001d0: 0000 803f 0000 803f 0000 803f 0000 803f
000001e0: 0000 803f 0000 803f 0000 803f 0000 803f
000001f0: 0000 803f 0000 803f 0000 803f 0000 803f
00000200: 0000 803f 0000 803f 0000 803f 0000 803f
00000210: 0000 803f 0000 803f 0000 803f 0000 803f
00000220: 0000 803f 0000 803f 0000 803f 0000 803f
00000230: 0000 803f 0000 803f 0000 803f 0000 803f
00000240: 0000 803f 0000 803f 0000 803f 0000 803f
00000250: 0000 803f 0000 803f
1.0 1.0 1.0 1.0 1.0 1.0 1.0 1.0
1.0 1.0 1.0 1.0 1.0 1.0 1.0 1.0
1.0 1.0 1.0 1.0 1.0 1.0 1.0 1.0
1.0 1.0 1.0 1.0 1.0 1.0 1.0 1.0
1.0 1.0 1.0 1.0 1.0 1.0 1.0 1.0
1.0 1.0 1.0 1.0 1.0 1.0 1.0 1.0
1.0 1.0 1.0 1.0 1.0 1.0 1.0 1.0
1.0 1.0 1.0 1.0 1.0 1.0 1.0 1.0
1.0 1.0 1.0 1.0 1.0 1.0 1.0 1.0
1.0 1.0 1.0 1.0 1.0 1.0 1.0 1.0
1.0 1.0 1.0 1.0 1.0 1.0 1.0 1.0
1.0 1.0 1.0 1.0 1.0 1.0 1.0 1.0
1.0 1.0 1.0 1.0 1.0 1.0 1.0 1.0
1.0 1.0 1.0 1.0 1.0 1.0 1.0 1.0
1.0 1.0 1.0 1.0 1.0 1.0 1.0 1.0
1.0 1.0 1.0 1.0 1.0 1.0 1.0 1.0
1.0 1.0 1.0 1.0 1.0 1.0 1.0 1.0
1.0 1.0 1.0 1.0 1.0 1.0 1.0 1.0
1.0 1.0 1.0 1.0 1.0 1.0

layernorm.bias f4 [150]
00000000: 0000 0000 0000 0000 0000 0000 0000 0000
00000010: 0000 0000 0000 0000 0000 0000 0000 0000
00000020: 0000 0000 0000 0000 0000 0000 0000 0000
00000030: 0000 0000 0000 0000 0000 0000 0000 0000
00000040: 0000 0000 0000 0000 0000 0000 0000 0000
00000050: 0000 0000 0000 0000 0000 0000 0000 0000
00000060: 0000 0000 0000 0000 0000 0000 0000 0000
00000070: 0000 0000 0000 0000 0000 0000 0000 0000
00000080: 0000 0000 0000 0000 0000 0000 0000 0000
00000090: 0000 0000 0000 0000 0000 0000 0000 0000
000000a0: 0000 0000 0000 0000 0000 0000 0000 0000
000000b0: 0000 0000 0000 0000 0000 0000 0000 0000
000000c0: 0000 0000 0000 0000 0000 0000 0000 0000
000000d0: 0000 0000 0000 0000 0000 0000 0000 0000
000000e0: 0000 0000 0000 0000 0000 0000 0000 0000
000000f0: 0000 0000 0000 0000 0000 0000 0000 0000
00000100: 0000 0000 0000 0000 0000 0000 0000 0000
00000110: 0000 0000 0000 0000 0000 0000 0000 0000
00000120: 0000 0000 0000 0000 0000 0000 0000 0000
00000130: 0000 0000 0000 0000 0000 0000 0000 0000
00000140: 0000 0000 0000 0000 0000 0000 0000 0000
00000150: 0000 0000 0000 0000 0000 0000 0000 0000
00000160: 0000 0000 0000 0000 0000 0000 0000 0000
00000170: 0000 0000 0000 0000 0000 0000 0000 0000
00000180: 0000 0000 0000 0000 0000 0000 0000 0000
00000190: 0000 0000 0000 0000 0000 0000 0000 0000
000001a0: 0000 0000 0000 0000 0000 0000 0000 0000
000001b0: 0000 0000 0000 0000 0000 0000 0000 0000
000001c0: 0000 0000 0000 0000 0000 0000 0000 0000
000001d0: 0000 0000 0000 0000 0000 0000 0000 0000
000001e0: 0000 0000 0000 0000 0000 0000 0000 0000
000001f0: 0000 0000 0000 0000 0000 0000 0000 0000
00000200: 0000 0000 0000 0000 0000 0000 0000 0000
00000210: 0000 0000 0000 0000 0000 0000 0000 0000
00000220: 0000 0000 0000 0000 0000 0000 0000 0000
00000230: 0000 0000 0000 0000 0000 0000 0000 0000
00000240: 0000 0000 0000 0000 0000 0000 0000 0000
00000250: 0000 0000 0000 0000
0.0 0.0 0.0 0.0 0.0 0.0 0.0 0.0
0.0 0.0 0.0 0.0 0.0 0.0 0.0 0.0
0.0 0.0 0.0 0.0 0.0 0.0 0.0 0.0
0.0 0.0 0.0 0.0 0.0 0.0 0.0 0.0
0.0 0.0 0.0 0.0 0.0 0.0 0.0 0.0
0.0 0.0 0.0 0.0 0.0 0.0 0.0 0.0
0.0 0.0 0.0 0.0 0.0 0.0 0.0 0.0
0.0 0.0 0.0 0.0 0.0 0.0 0.0 0.0
0.0 0.0 0.0 0.0 0.0 0.0 0.0 0.0
0.0 0.0 0.0 0.0 0.0 0.0 0.0 0.0
0.0 0.0 0.0 0.0 0.0 0.0 0.0 0.0
0.0 0.0 0.0 0.0 0.0 0.0 0.0 0.0
0.0 0.0 0.0 0.0 0.0 0.0 0.0 0.0
0.0 0.0 0.0 0.0 0.0 0.0 0.0 0.0
0.0 0.0 0.0 0.0 0.0 0.0 0.0 0.0
0.0 0.0 0.0 0.0 0.0 0.0 0.0 0.0
0.0 0.0 0.0 0.0 0.0 0.0 0.0 0.0
0.0 0.0 0.0 0.0 0.0 0.0 0.0 0.0
0.0 0.0 0.0 0.0 0.0 0.0

batchnorm.weight f4 [150]
00000000: ff97 7f3f 6d82 a7be b527 673e daf3 aa3e
00000010: ff19 0b3f ce45 1dbd d085 1e3f d4b1 ce3e
00000020: 83f2 f83d b0d8 3fbd 9284 3b3f f4d2 7bbe
00000030: 0ea7 d93f 5394 313e 7074 bb3d cf41 2fbf
00000040: 9047 e5bd a04b 083f 942b 12bd a522 b43e
00000050: fd48 613f 3358 a43e 5063 d63e c333 76be
00000060: 0bc9 093f 69cf f9ba e78d b53e c35a ce3e
00000070: 6884 09be 2757 243f c3a2 523e 94fc 273e
00000080: 9399 1bbe d392 713d 573b 4f3e 69ac bd3f
00000090: c115 d43e a6bd 633e 9b6d eebc 4960 0abe
000000a0: 1866 643d ed6b 193f 3af8 a73e 7af6 473e
000000b0: efda 9abe 0d6e 583f 4dd0 ca3e d45f ad3f
000000c0: e72a b53e e993 553c 92a7 9b3d 7ba4 f83d
000000d0: b591 053f b809 073f 991a ab3f 4c66 e33e
000000e0: 2dfa 793e 820c 25be 0876 0abd 3d96 a43e
000000f0: 7e12 88bc e36e 8bbe 957a b9bd d9a6 5b3f
00000100: 3603 103f 8ffc 793e 5c2e 483e 7c6b 7c3e
00000110: 65d9 273e d325 17be e725 a33e feb8 6f3e
00000120: 4ad9 a13e 379a 083e 1985 1a3d df61 b33f
00000130: 7d64 513f 075c 07bd 9fe1 923f 6a42 cb3e
00000140: a928 f6bd 8867 843e dcfd df3e 297f e63d
00000150: f53d 7c3e b690 223f 30fb d73f 1836 863e
00000160: 6de7 813b df70 33bd f1a8 aa3f 3be0 303f
00000170: 5168 343e 611f 2b3e 10a1 e03e dfdd 753f
00000180: d482 af3f 4abe 763e 9740 bd3e f635 513f
00000190: ae92 49bb 599b 723f b93c f03e 23d5 52bc
000001a0: 0b80 85bf f253 fc3e 36be ed3e 5ef6 093f
000001b0: 144f 3e3f 3510 4e3e 0ca4 e3be d4e6 d93f
000001c0: d433 183f 96ba fc3e 7f62 e13d b10e 823f
000001d0: 5b7d b43e aad4 653f abdb 843d 9b11 003f
000001e0: f737 123f 5192 1e3e a696 4a3e 3df0 933f
000001f0: ec0d 043f 9817 673f 2a95 58be d763 413f
00000200: a477 f63d a51d 603f 0189 123f eb23 283f
00000210: 4a3f 913f 7ac0 db3f de3c 53be b3d1 c83f
00000220: fa68 c13e a0bb 15bd fb89 11be 2782 683f
00000230: 6a16 cb3e 71cc 483c e58c d93e 7d74 403f
00000240: 3b83 b5bd 3692 433f 7049 363f 2d4c 7c3f
00000250: 385d 823e 1202 eebe
0.998413 -0.32716694 0.22573741 0.3338917 0.5433654 -0.03839665 0.6192293 0.40370047
0.121556304 -0.04683751 0.7324916 -0.24592191 1.7004106 0.17341737 0.09153068 -0.6845979
-0.1119529 0.53240395 -0.03568609 0.35182682 0.88001996 0.3209854 0.41872644 -0.24043183
0.5382239 -0.0019059005 0.35459825 0.4030362 -0.13429415 0.64195484 0.20569901 0.16404945
-0.15195303 0.058977913 0.2023748 1.481824 0.41422847 0.22240314 -0.029104998 -0.13513292
0.055761427 0.59930307 0.3280657 0.19527617 -0.30245158 0.84542924 0.39612046 1.354487
0.35384294 0.013035753 0.07600321 0.12140747 0.52175456 0.52749205 1.3367492 0.44413984
0.2441184 -0.16118053 -0.03380397 0.32145873 -0.01661038 -0.27233037 -0.09056584 0.85801464
0.562549 0.2441275 0.19548935 0.24650377 0.16391523 -0.14760523 0.31864855 0.23410413
0.3161109 0.13340078 0.037724588 1.4014243 0.8179396 -0.03304675 1.1475104 0.39699107
-0.12019474 0.25860238 0.43748367 0.112547226 0.2463301 0.6350206 1.6873531 0.26213145
0.0039643557 -0.043808814 1.3332807 0.6909215 0.17617919 0.16711189 0.4387288 0.96041673
1.37118 0.24096027 0.3696334 0.8172296 -0.0030757594 0.9476829 0.46921328 -0.012868199
-1.0429701 0.49282795 0.46434182 0.5389155 0.74339414 0.2012337 -0.44461095 1.7023568
0.59454083 0.49361104 0.11005115 1.0160733 0.3525189 0.89777625 0.06487211 0.50026864
0.57116646 0.15485503 0.1978403 1.155769 0.51583743 0.90270376 -0.21150652 0.7554297
0.120345384 0.87545234 0.572403 0.65679806 1.1347439 1.7168114 -0.20628688 1.5688995
0.37775403 -0.036555886 -0.14212792 0.90823597 0.39665538 0.012255774 0.42490306 0.75177747
-0.08862921 0.76394975 0.71205807 0.98553735 0.25461745 -0.46485955

batchnorm.bias f4 [150]
00000000: 25cc 94bf 0350 1d3f 1ef0 263f 352f 723f
00000010: d85f 093f e543 4a3f b5be 4f3f 57e6 403f
00000020: 569c 713f 662f d33e c724 b93e b433 343f
00000030: a9d4 e83e 1bef 11bf f060 e23e e23c 6f3f
00000040: fdb2 243f e172 503f 1a5e 073f 8b1c 3d3f
00000050: c45a 3b3f ec19 4e3f d9ca 2a3f b3f2 ff3e
00000060: 2cb8 e03e 833d 2f3f 0706 0d3f 1718 6d3e
00000070: 7b12 453f 95dc 4c3f b947 313f 59b2 3c3f
00000080: 1e36 553f 8cbd 473f 25bd 633f bf16 223f
00000090: 5ef1 cd3e bc76 553f 5fba ebbe 1597 253f
000000a0: 8337 ea3e d390 0e3f 4c4e 65bf dc87 55bf
000000b0: 5193 003f bc75 063f dfc5 3d3f 6717 b43e
000000c0: caed 423f a4b1 003f 63ba 363f 1ba7 353f
000000d0: 4241 c93e 2124 79bf ad99 9d3e 7afe 45bf
000000e0: 48c5 8b3f 83ba 113f 69ec 4a3f 899f 693e
000000f0: 41f8 4b3f 0030 6f3f 4df3 553f d190 023d
00000100: c7cd 0d3f 753f 763f 3343 233f 0732 cf3e
00000110: c092 e73d 7eec fa3e 5023 55bf f029 073f
00000120: 7a22 453f b96f 833f 71bf 523f 6782 b5bf
00000130: ac35 f23e 0dfd 9e3e 0bea 7fbf 37a7 603f
00000140: 8327 5a3f 933d 203f 76f5 493f 010b 233f
00000150: 823f 37bf 3224 60bf 04f9 153f 4596 7abf
00000160: d622 003f 1fd1 c33e 1ef5 a63e 9a4f 37bf
00000170: 09ed 613f 2bc2 753e 2322 2d3f 29d7 1d3f
00000180: b917 5f3e 8d5d c03e 4bee 1a3f fa59 1f3f
00000190: 0a1d d23e 0c1d ad3e 73a9 463f 28b1 e93e
000001a0: 226f 3d3f 973a 053f 7a9f 5b3e de0e b63e
000001b0: ae67 fd3e e51c 3dbf 1408 6a3f 6656 bc3e
000001c0: 2efe 173e 886b 573f 2233 f6bc c34a 233f
000001d0: b046 803f d6d1 8b3e fd8f f03e 71b5 83bf
000001e0: abd5 20bf 7948 f93e e7aa 583f 6f15 e03e
000001f0: d866 d13e f8a1 fa3e 9781 073f 068f 1b3f
00000200: a46e 3d3f b9fb 083f cb03 95be 3ef4 893c
00000210: 38a3 543f 42ba 0c3f eead ee3e 347f e63e
00000220: f1dc 3fbf 7f9f 423f 93fb 903f 1684 5c3e
00000230: 68a4 94bc 5e2a 053f 10bf 103f d83a 0c3f
00000240: 7401 8f3f a80d 633f a0a9 1d3f cf98 db3e
00000250: 898e 80be 6fb5 8abf
-1.16248 0.61450213 0.6521014 0.9460328 0.5366187 0.7900985 0.8115037 0.7535147
0.94379175 0.412471 0.3616087 0.7039139 0.45474747 -0.5700547 0.44214582 0.93452275
0.64335614 0.8142529 0.5287796 0.7387168 0.7318537 0.80508304 0.6671577 0.49989852
0.43890512 0.68453234 0.5508732 0.23153721 0.76981324 0.8002408 0.69250065 0.73709637
0.832857 0.780236 0.88960487 0.6331596 0.4022321 0.833843 -0.46040627 0.6468366
0.45745477 0.55689734 -0.89572597 -0.8341043 0.50224787 0.525234 0.7413005 0.35174105
0.7614409 0.5027106 0.71378154 0.7095811 0.393076 -0.97320753 0.30781308 -0.77341425
1.091958 0.5692522 0.79266983 0.22814764 0.7967568 0.9343262 0.8357437 0.03187639
0.55392116 0.9619058 0.6377441 0.40467855 0.11307287 0.49008554 -0.8325701 0.52798367
0.7700573 1.026847 0.82323366 -1.4180421 0.47306573 0.31052437 -0.99966496 0.8775515
0.8521654 0.62593955 0.7889017 0.63688666 -0.7158128 -0.8755523 0.5858309 -0.97885543
0.50053155 0.38245484 0.32608885 -0.7160584 0.8825231 0.2399985 0.67630213 0.61656433
0.21786393 0.37571374 0.60519856 0.6224667 0.4103778 0.33811224 0.7760231 0.45642972
0.739977 0.52042526 0.21447554 0.35558218 0.49493164 -0.73872215 0.91418576 0.36784667
0.14843056 0.84148455 -0.030053679 0.6378595 1.0021572 0.2730853 0.46984854 -1.0289747
-0.6282603 0.48688105 0.84635776 0.43766353 0.40898776 0.48951697 0.52932113 0.6076511
0.7399695 0.535091 -0.29104456 0.016840097 0.8306155 0.54971707 0.46617073 0.45018923
-0.74946505 0.7602462 1.1326774 0.21534762 -0.018144801 0.5201777 0.5654154 0.5477729
1.1172318 0.8869271 0.6158695 0.4289002 -0.25108746 -1.0836619

batchnorm.running_mean f4 [150]
00000000: cf6f 52bf 2d6a 1d31 1dca 6dbb 902e 753f
00000010: 7cff cebe 8301 40bf 8041 203f dd94 babb
00000020: 9a70 80bc 7233 18bf 9908 8f3e 7249 e6b9
00000030: 5e95 583f 8c95 a4ba f74d 72bf 2e24 a73c
00000040: c353 7eb8 196d 15be 97d1 f73c aa9a b238
00000050: 6a44 943e 4d3e 8abc 3ebd 82bd 7725 10bf
00000060: 5234 e8be 535f 3e3f c638 5dbb ef41 ebbd
00000070: c70b 76bf 5730 693e 61ea 1dbd 145d 6ebf
00000080: c9f5 72bf e618 9cbc b529 3e3f 5cf7 8dbe
00000090: 9cc6 0b3f 7657 d0bc d8c7 873b dc66 75bf
000000a0: 35d4 76bf e632 d3bd 7eed 6dbc c244 cdb8
000000b0: dad0 6bbf e4ff 79bc 4500 2fb7 ee0d 1a3f
000000c0: 0a51 743f 9d4c 76bf 8c7f 45ba 67cc abbb
000000d0: b881 f8bd 74fc 5abc e03c db3e cffd 42ba
000000e0: c0c3 2ebc 4d9d a63b 0ddb 73bf e556 113d
000000f0: cf5c 843c ddfc 6e3c 06af 723f e9b8 653f
00000100: 1ed5 5fbf 8d30 7bbc 5c91 4cbd eceb 74bf
00000110: e66c 42bf b4e5 383a 4875 703f 0f3f 73bf
00000120: d133 9c33 1fc2 b1bb 90fe 14bd b6bc 5ebf
00000130: e152 f83e fd25 ba3b 05e8 64bf c211 81bc
00000140: 3d20 bf3c 6769 b5bc c257 aabb d0d2 6bba
00000150: b645 1e34 9e76 cc3b 2dda 6cbe 248e 3c3f
00000160: aa15 38bd c16f 4fbf 08d9 df3e 0d6f 423f
00000170: 959d 3f3f 3ba0 12bb 5c7c a6bd e42d 713f
00000180: ea2f d43e 092e 00be 511a 55ba f533 413f
00000190: aad5 413f 85f1 47be 05c0 09be 8969 74bf
000001a0: 9f9d 5ebf ef1d 773f a17f 0dbc 7530 19bd
000001b0: 5854 49bf 7932 dbba f54a 1ebf 8107 cdbe
000001c0: 6bb2 57bf 647a c0ba eac3 6b3f 0021 2abe
000001d0: 1a3e 733f 4f5e a3be 55b7 16bc cbf5 c7bc
000001e0: f0ed 233b edb9 76bf af66 3b33 a5d0 3d3f
000001f0: 49d5 70bf 2584 393f 0d07 053c 83a5 da3e
00000200: ad08 77bf 9909 463f 4052 c3bd 5e7d 78bf
00000210: 081b d83e f013 c53e 9d65 6abf 99f7 563f
00000220: f1e8 153b a544 40bf 8851 76bf 81f1 68bf
00000230: e1d2 6cbf 12fd beb9 3502 a4ae c32a dcbb
00000240: 9a1c 463f d57c aabe 50d3 b3be 50e0 5d3f
00000250: 6990 633d 3dc2 2e3f
-0.82201856 2.290686e-09 -0.00362838 0.95774174 -0.40429294 -0.75002307 0.62599945 -0.0056940154
-0.015678693 -0.594535 0.27936247 -0.0004392374 0.84602916 -0.0012556775 -0.94650215 0.020402994
-6.063633e-05 -0.14592399 0.030251307 8.51651e-05 0.28958446 -0.01687541 -0.06383751 -0.56307167
-0.45352417 0.74364203 -0.0033755763 -0.11487185 -0.9611172 0.22772346 -0.0385536 -0.93110776
-0.9490629 -0.019054841 0.7428239 -0.27727783 0.5459993 -0.02543233 0.0041436963 -0.95860076
-0.9641755 -0.103124425 -0.014521955 -9.787969e-05 -0.9211556 -0.015258763 -1.0430876e-05 0.60177505
0.95436156 -0.9621065 -0.00075339596 -0.0052428725 -0.12134117 -0.013365854 0.4281988 -0.0007438333
-0.010666788 0.0050846697 -0.9525612 0.03548326 0.016157536 0.0145866545 0.94798315 0.89735276
-0.87434566 -0.0153314 -0.049943313 -0.9567249 -0.75947416 0.00070532714 0.93928957 -0.95018095
7.2737414e-08 -0.0054247524 -0.036375582 -0.870067 0.48500732 0.005680798 -0.89416534 -0.015755538
0.023330802 -0.022144986 -0.00519845 -0.0008995952 1.4740257e-07 0.006239726 -0.23130102 0.7365439
-0.044942535 -0.810299 0.4372027 0.759507 0.74849826 -0.0022373337 -0.081291884 0.9421065
0.41442806 -0.12517561 -0.00081292266 0.75469905 0.7571665 -0.19525726 -0.13452156 -0.95473534
-0.8695926 0.9653005 -0.008636386 -0.037399728 -0.78644323 -0.0016723416 -0.61833125 -0.40044788
-0.8425662 -0.0014684913 0.92095816 -0.16614151 0.95016634 -0.3190789 -0.009198983 -0.024409195
0.0025013648 -0.9637745 4.363272e-08 0.7414649 -0.9407545 0.7246726 0.008119357 0.427044
-0.96497613 0.77358395 -0.09537172 -0.97066295 0.42208123 0.38491774 -0.915613 0.83971554
0.002287444 -0.75104743 -0.96218157 -0.90993506 -0.92509276 -0.00036428176 -7.4582486e-11 -0.006718965
0.7738739 -0.33298364 -0.35122156 0.866704 0.055557642 0.68265134
