src/results/subject_P15/best_model.pth (torch, 481333 bytes, 15 tensors)

input_linear.weight f4 [40, 40]
000000 3c 1a b1 3d 16 9e f6 3d e6 c7 75 bd 4b 63 9c bd
       0.08647582 0.12041871 -0.06000509 -0.07636126
000010 2f 8a a3 bd f3 92 07 3e 97 da 15 3e 48 5e dc 3c
       -0.07985341 0.1323965 0.14634167 0.026900426
000020 38 b6 86 bc 76 b3 94 3d af a8 06 be b1 73 18 3e
       -0.01644431 0.07260792 -0.13150285 0.14887883
000030 3a a8 b8 bd b8 bc 1a 3d da 42 cc 3d fe 4f d6 3d
       -0.09016462 0.037777632 0.099736884 0.10464476
000040 60 3a 75 3c 88 cc 08 3d 3b b6 8b bd 59 e9 b9 bd
       0.014967531 0.03339818 -0.06821867 -0.09077711
000050 62 85 f4 bd 53 ad 89 bd 72 cf 91 bd 48 aa db bc
       -0.11939503 -0.06722512 -0.07119645 -0.026814595
000060 b2 04 50 bd 31 a0 20 be 01 af a3 bd b6 61 8d 3d
       -0.050785728 -0.15686108 -0.07992364 0.069034025
000070 26 09 cc 3d d6 14 e9 3d a8 28 bc 3c 23 cb 13 3e
       0.099626824 0.11380927 0.022968605 0.1443296
000080 9e 6f cc bd 60 8f b3 bc cf e2 0e 3e c5 30 0b 3e
       -0.09982227 -0.021918952 0.13953708 0.13592823
000090 65 a9 1e be f4 58 9d bd 34 bd 1e bd 84 48 ae bd
       -0.15494306 -0.07682982 -0.038754657 -0.08509925
0000a0 a3 a4 1c be d9 57 16 3e 03 02 c2 bd fa b6 f4 3d
       -0.15297179 0.14681949 -0.0947304 0.119489625
0000b0 df 1b c2 bd 10 df 8c 3c b2 2f ff bd be 30 12 be
       -0.09477972 0.017196208 -0.12460269 -0.14276406
0000c0 be 07 92 3d a4 fa 63 3d 3c 86 a7 bd ac 6a 0e bd
       0.07130383 0.05565895 -0.081799 -0.0347697
0000d0 76 46 87 3d 06 ba 62 bd 40 ab 97 bb ca e0 af 3d
       0.06605236 -0.055353187 -0.004628569 0.08587797
0000e0 0d b9 9c bd 80 38 35 bc 0a 61 e9 bd a0 0b aa 3d
       -0.07652483 -0.011060834 -0.11395462 0.083029985
0000f0 68 3a 57 3d ec c3 91 3d 27 b3 0c be 9f 4d ac bd
       0.052545935 0.07117447 -0.13740216 -0.084132425
000100 49 4c ba bd ce 04 fe 3d 96 ec 82 3d 40 28 f1 3c
       -0.090965815 0.1240326 0.063927814 0.029438138
000110 10 ad e4 bc 3c ee cf bd 10 af 11 be e6 3b 30 bd
       -0.027914554 -0.101528615 -0.14226937 -0.043025874
000120 44 68 cc bd ee a5 a6 3d 6c 14 5d 3d 00 71 44 bc
       -0.099808246 0.08137117 0.053974554 -0.011989832
000130 85 b9 1d 3e 78 58 c3 bc 66 f2 e5 3d b5 10 07 3e
       0.15402801 -0.023845896 0.112278745 0.13189967
000140 60 e7 80 bd d0 2b 17 bd 42 d5 a5 3d 63 b5 1e 3e
       -0.06294131 -0.036907017 0.08097316 0.15498881
000150 00 29 1f 3b ff 3b 0e be 70 e1 ad 3c 90 f6 2e 3c
       0.0024285913 -0.13890074 0.021225661 0.010678902
000160 34 25 2f 3d 22 59 0a be c8 05 40 bd 8a 7a ea bd
       0.04276009 -0.13510564 -0.046880513 -0.11449154
000170 72 5c 05 be 88 64 f0 bc a5 d3 e6 bd d5 35 00 3e
       -0.13023546 -0.029344812 -0.11270837 0.12520535
000180 08 5c 63 bd b6 ae 05 be 68 5f 3e 3d f8 f1 ad bc
       -0.05550769 -0.13054928 0.046477705 -0.021233544
000190 26 2f a6 bd 97 a8 09 3e 88 bc 89 bc 30 a5 a5 3d
       -0.081144616 0.13443218 -0.016813532 0.08088148
0001a0 48 21 2a 3d 2a fd 6f bd 46 3c 56 bd fe e5 c0 3d
       0.041535646 -0.058591045 -0.052303575 0.094188675
0001b0 07 fb 12 be 84 d2 a8 3d 74 2c 2e 3d 9a ca bf bd
       -0.14353572 0.08243278 0.042522863 -0.09364815
0001c0 d0 a1 d8 3c 45 46 04 3e a0 65 bb bb 78 94 f6 3c
       0.026444346 0.1291743 -0.0057189018 0.030100092
0001d0 4a d2 a1 3d 7c 22 f1 bd fe 83 88 3d 2e 8c f3 bd
       0.079014376 -0.117741555 0.066658005 -0.118919715
0001e0 a0 78 2f bc 26 8c e7 3d 87 e1 09 3e e4 df 15 3d
       -0.010709912 0.11306028 0.13464938 0.036590472
0001f0 30 0c f1 3c 30 13 ca 3c 12 70 0f bd 1c b9 9f 3d
       0.029424757 0.024667352 -0.035018988 0.07798979
000200 1a d4 d2 3d 20 cf 96 3b 0b 25 e2 bd f4 9e 3f bd
       0.102943614 0.004602328 -0.11042222 -0.04678245
000210 8c fd 00 3d 7a 09 4d bd 2d eb 1c 3e a0 55 76 bd
       0.0314918 -0.050057866 0.15324087 -0.060140252
000220 f6 44 16 be a6 4b 93 3d c8 65 04 bd de 42 c2 bd
       -0.14674744 0.07192163 -0.03232363 -0.0948541
000230 d8 57 d8 bc bb 32 e4 bd 49 19 d4 bd d6 ba 01 be
       -0.026409075 -0.111424886 -0.10356385 -0.12668929
000240 e9 76 02 3e 8e 9e 08 bd e0 4a b7 3c d8 e3 e7 3c
       0.12740673 -0.033354335 0.02237457 0.028306887
000250 bd 89 89 bd 9b db 8d bd 18 71 a9 3d cb 0d 05 3e
       -0.067157246 -0.06926652 0.08273524 0.12993543
000260 44 04 e2 bd d0 56 20 3c 3a 6b eb 3d 6e 5d 5f bd
       -0.1103597 0.009786323 0.11495061 -0.05453246
000270 24 53 6a bd 84 5d 2c bd 10 61 5f bc e0 79 f4 bb
       -0.057208195 -0.04208137 -0.013633981 -0.0074608177
000280 fa ea d6 bd 3c 3e 29 3d 5a 71 b8 3d 10 ff 1c 3c
       -0.10494037 0.041319117 0.09005995 0.009582296
000290 71 03 1d 3e de e1 a4 3d aa 85 b4 3d 21 3e d3 bd
       0.15333344 0.08050893 0.08814557 -0.103145845
0002a0 4f 8a 07 be 0a d3 44 bd 8e 98 c0 bd d8 06 e4 3c
       -0.13236354 -0.048052825 -0.094040975 0.027835295
0002b0 41 1b a7 bd 80 c0 df bb 68 e2 b5 3d e6 c0 dd 3d
       -0.08159495 -0.0068283677 0.08881074 0.10827808
0002c0 96 22 2b bd 66 9a fb bd 1e 19 d3 3d 10 11 0b bc
       -0.04178103 -0.122853085 0.10307525 -0.008487955
0002d0 4b d1 12 3e b4 e8 0e bd 56 30 7a bd 3c 5a 07 3d
       0.14337651 -0.03488989 -0.061081253 0.03304504
0002e0 73 59 92 bd 40 b0 98 3d 88 94 3b bd c0 ed 29 3d
       -0.07145967 0.07455492 -0.045795947 0.0414865
0002f0 c0 8d a6 3d ef 99 21 be 0d 42 be bd 3a 8f 17 bd
       0.081325054 -0.15781377 -0.09289942 -0.037001826
000300 c0 40 a9 bb e0 83 80 3d e2 21 ec bd 53 b2 20 3e
       -0.0051651895 0.06275153 -0.115299 0.15693025
000310 f3 57 16 3e 18 18 58 bd 10 00 0b 3d 34 28 bb bd
       0.14681987 -0.052757353 0.033935606 -0.091385275
000320 60 59 3d 3d 00 82 7e 3b ce 10 49 bd 40 e7 45 3b
       0.046227813 0.003883481 -0.04908829 0.003019765
000330 4b 88 02 3e 00 d5 d3 bc c6 b1 e6 3d 0e 99 f7 3d
       0.12747304 -0.025858402 0.11264376 0.1208974
000340 a5 66 18 be 6c da 16 3d b0 50 93 3d 78 6d 51 bd
       -0.14882906 0.036829397 0.07193124 -0.05112979
000350 fc df a1 3d 04 7e b1 bd a0 5b b1 3d 1a d4 13 bd
       0.0790405 -0.08666614 0.08660054 -0.036090948
000360 f2 14 df bd 19 e2 c2 bd 80 e5 ab 3b 69 e4 0d be
       -0.10892667 -0.09515781 0.0052458644 -0.13856663
000370 24 f1 97 bd 9e b8 58 bd 48 73 09 be 80 67 20 bd
       -0.07419041 -0.05291044 -0.13422883 -0.039161205
000380 30 e5 88 3c 30 a2 89 3c ed 79 07 3e 30 49 08 3d
       0.016710848 0.01680097 0.13230105 0.033272922
000390 00 80 4c 3c 4b ce 93 bd 8a 4b 97 3d d4 08 a8 3d
       0.012481689 -0.07217082 0.07387455 0.08204809
0003a0 04 c3 17 bd 04 e6 a7 3d 48 f2 09 be 8a 86 75 bd
       -0.037051216 0.08198169 -0.13471329 -0.05994276
0003b0 ea 68 b4 3d 0c 66 4e 3d 03 b0 d0 bd 90 82 89 3d
       0.08809073 0.05039029 -0.101898216 0.06714356
0003c0 90 9b ca 3c 40 0e 92 3c de ef 5c bd 70 27 52 3d
       0.024732381 0.01782906 -0.053939693 0.05130714
0003d0 dc 1f 4b 3d 00 8a d7 3c 40 ac b5 3c 61 d4 ae bd
       0.04959093 0.02631092 0.022176862 -0.08536602
0003e0 fa 42 10 bd 7a fe 7a bd 90 43 d8 3c 90 e6 71 3c
       -0.035220124 -0.061277844 0.026399404 0.014764443
0003f0 01 f1 8a bd e4 7b 70 3d ac 0b 6a 3d 9d 34 0b 3e
       -0.06784249 0.0587119 0.057140037 0.13594289

input_linear.bias f4 [40]
000000 f8 ad 9b 3d 25 39 f4 bd 04 7a 8f 3d 08 e9 a8 bc
       0.07601541 -0.11924962 0.070056945 -0.02061893
000010 6d 6e 1c 3e 8e 69 c5 bd 08 63 0a 3d 77 26 00 3e
       0.15276499 -0.096392736 0.03378585 0.12514673
000020 84 c5 23 bd 62 e1 63 bd 88 53 ad bc 36 ba 33 bd
       -0.039983287 -0.055634864 -0.021157995 -0.043878756
000030 88 90 14 be 1e b3 af 3d b0 5f 52 3d 50 dd 0b 3c
       -0.1450826 0.08579086 0.051360786 0.008536652
000040 e2 43 e8 3d 01 cd 1e 3e 7c 23 66 3d 80 96 95 ba
       0.113410726 0.1550789 0.056186184 -0.001141265
000050 61 1f 07 3e 4f c9 1f 3e 88 e4 0a bd c0 51 8f 3b
       0.13195564 0.15604137 -0.03390935 0.004373759
000060 f9 af c0 bd 60 4d 4e 3c b6 b2 0a be fa 1e 93 3d
       -0.09408564 0.01259169 -0.13544735 0.07183643
000070 eb 24 0a 3e bf 3d 90 bd 80 55 f5 ba c8 d9 df 3c
       0.13490646 -0.07043027 -0.0018717498 0.027325526
000080 42 2e cc bd 08 3b ac 3d bd 2d 18 3e 70 98 da bd
       -0.099697605 0.08409697 0.14861198 -0.106736064
000090 26 f6 69 bd 1e 8d a7 3d 80 4a 99 bb 34 d7 d8 bd
       -0.05711951 0.08181213 -0.0046780705 -0.10587922

lstm.weight_ih_l0 f4 [600, 40]
000000 be 02 66 be b1 7a 33 bb 8a f2 31 3e 0c 20 eb be
       -0.22461984 -0.0027386362 0.17377678 -0.45922887
000010 29 15 1e 3d 40 7e 27 3e 17 ae 36 3e 92 20 26 be
       0.0385944 0.16356754 0.17839848 -0.16223362
000020 57 e2 35 be d1 2f 28 be a3 0b 22 3d 57 8f ac be
       -0.17762123 -0.1642449 0.03956188 -0.3370311
000030 c4 10 9f 3e e5 6f 30 3e d8 68 ac 3d 3b cf 8b be
       0.3106748 0.17230184 0.08418435 -0.27306542
000040 13 00 7e be b4 32 0a 3d 19 99 85 3d 9d c4 3b 3e
       -0.24804716 0.03373976 0.06523342 0.18336721
000050 2d b6 34 3e a1 c7 30 3e 11 62 a9 3e cb e0 bf be
       0.1764762 0.17263652 0.3308263 -0.3747619
000060 1a 6b 1b 3e 64 0a 20 be 69 c1 2f 3e 4f f9 c5 3d
       0.15177575 -0.15628964 0.17163624 0.096666925
000070 75 c4 39 3d fb b8 38 3d b6 e9 7f 3d 03 b4 3a 3e
       0.04535337 0.045098286 0.062478743 0.18232732
000080 44 cf 66 3d 44 c0 81 be 32 62 ad 3e e1 16 c2 be
       0.056350008 -0.25342 0.3386398 -0.3790808
000090 11 f8 2b 3e 57 29 2b bd 41 63 06 bd 91 3c e1 3d
       0.16793849 -0.04178747 -0.0328095 0.1099788
0000a0 12 7f ec be d6 70 c5 3e 7d 92 1a 3e ca 99 25 be
       -0.46190697 0.3856265 0.15094943 -0.16171947
0000b0 2f 3f ca 3e ed c7 27 3e 93 6a 3a 3e 3c bd 0f be
       0.3950133 0.1638486 0.18204717 -0.14037031
0000c0 53 3f 2c be 87 24 2a be 67 6e fb 3d e8 51 78 bd
       -0.16821031 -0.16615497 0.12276917 -0.060624987
0000d0 c1 11 2d 3e 02 42 33 3e ea 19 de b9 e3 b2 61 be
       0.16901304 0.17505649 -0.00042362447 -0.22040896
0000e0 a4 e5 16 be 68 b3 f1 3d b7 dd ad 3d 78 6c 2b 3e
       -0.14736038 0.11801797 0.084895544 0.16740596
0000f0 67 9c 15 3e 26 8e 2e 3e ce 8a 4f be cd 2d 98 be
       0.14610444 0.17046413 -0.20267794 -0.29722443
000100 64 b3 1a 3e 0b fa e3 3e 3c 3f cb 3e 68 43 79 3e
       0.15107495 0.44526705 0.39696681 0.2434212
000110 d5 32 d2 3d 5a 90 23 3f ba 68 e4 3d bb 0c 14 3e
       0.10263602 0.6389214 0.111527875 0.14457981
000120 5e cd bd 3d c4 ea 00 be 9a c0 5f be 1e ad a3 be
       0.09267686 -0.12589556 -0.21850815 -0.31968015
000130 ef 37 21 3e d7 e1 14 bf f4 c0 c0 be 89 af 8e bc
       0.15743993 -0.58157104 -0.37647212 -0.017417686
000140 af 66 23 be 21 74 ce 3e bf cf 5f 3d 9b 68 8a 3e
       -0.1595714 0.40322974 0.05464148 0.27032933
000150 af 7e 93 3e 3d b9 54 3d 1e fe 34 3c ef be 9f bd
       0.2880759 0.05193447 0.011046914 -0.078000896
000160 cc 7e 27 bd fc 10 58 bd 4f 22 15 3e 8b 51 fa 3e
       -0.040892407 -0.052750573 0.14563869 0.48890337
000170 6e b9 ba be cb d9 66 3d ba c8 72 be fd 18 b8 3e
       -0.36469597 0.056360047 -0.23709384 0.35956565
000180 64 02 38 3e 7e 20 2b 3e ac ee 09 3e 10 a2 31 3d
       0.17969662 0.16711614 0.13469952 0.043367445
000190 70 15 70 3d 33 fd 29 3d 22 f0 20 bf a3 52 a0 bd
       0.058614194 0.041501235 -0.62866414 -0.07828262
0001a0 1a a5 4a 3d ff 7c b8 3d a0 f7 47 bd 11 cb 07 bd
       0.04947386 0.09008216 -0.048820138 -0.033152644
0001b0 fa d4 11 3e 60 37 08 3f 5f 4f 1e 3e 30 7f 90 3d
       0.142414 0.53209496 0.15459965 0.07055509
0001c0 cf 2f 12 3e 4f 40 3b 3e 1c 1a 1c bf 3a 1b 9a bd
       0.1427605 0.1828625 -0.6097734 -0.07524724
0001d0 d0 ae a5 3d dd 1b 0e bd 93 76 0c be af 64 59 be
       0.080899835 -0.03469454 -0.13717107 -0.21229814
0001e0 5c 11 09 3e fd 16 45 be 7f 68 59 be 6a f9 ac be
       0.13385528 -0.1924705 -0.21231268 -0.33784038
0001f0 2d e2 6d be a6 22 72 be 0a ac 67 be 98 52 62 3e
       -0.2323081 -0.2364603 -0.22624221 0.2210182
000200 83 06 6e 3e 6e ea 6a 3e 3e 69 92 be a9 b7 c2 bd
       0.23244672 0.2294099 -0.28595918 -0.09507687
000210 00 5a c5 bd ab e5 61 be de 8a 07 3f d6 c1 21 3d
       -0.09636307 -0.22060268 0.5294627 0.039491497
000220 1c 26 8a bd 8d 4b 8d be b5 74 92 be 7a 69 74 be
       -0.0674555 -0.27596703 -0.28604665 -0.23868361
000230 77 83 52 be cc 80 64 be f5 51 9c 3b 41 84 2a be
       -0.20557962 -0.22314757 0.004770512 -0.16652013
000240 e7 4d 5e be 4f b7 36 3e 5f 48 63 3d ab bf 3b bc
       -0.21709405 0.17843364 0.05548894 -0.011459271
000250 66 6c 8d be ab eb 63 bd f2 3f 92 be 49 87 6a be
       -0.27621764 -0.055644672 -0.2856441 -0.2290317
000260 cd 78 8e be f0 1a 82 bd 8e cc 3c 3b 8b d6 2e be
       -0.2782654 -0.06352794 0.0028808448 -0.17074029
000270 e0 6f 6e be 8f 05 a5 bd dc fd 1d 3d 48 2f 0b 3f
       -0.23284864 -0.08057701 0.038572177 0.5436902
000280 10 8c e3 3c 00 cd d9 3d 44 9b a0 3e aa 11 a7 3e
       0.027776748 0.10634804 0.31368458 0.32630664
000290 9e ef 20 3d 8f 6e b0 3e f7 9b 9c 3e 55 18 ae be
       0.039291017 0.3445935 0.30587742 -0.3400294
0002a0 fc f4 94 be e8 3a a3 be f3 39 7b 3e 79 ef 97 bd
       -0.29093158 -0.3188088 0.24533825 -0.07418723
0002b0 85 e7 93 3e 3f 95 b1 3e a7 1d 61 be 50 a8 c4 3d
       0.28887573 0.34684178 -0.21983968 0.096024156
0002c0 1f bb f3 3d 67 2e 7e 3e 2f 5e 69 3e 8e 8e a7 3e
       0.11900925 0.24822389 0.22789834 0.32725948
0002d0 73 16 a8 3e dc 38 a3 3e 43 f0 06 3e 9f 61 b8 3c
       0.32829627 0.31879318 0.1317759 0.022507487
0002e0 a2 e7 a9 3e 70 3a 07 3e 88 13 ac 3b 92 de 7a 3c
       0.33184534 0.13205886 0.0052513517 0.015311854
0002f0 51 60 72 3e 87 a6 34 be 00 f7 81 3e 92 12 ae 3e
       0.23669554 -0.1764165 0.2538376 0.33998543
000300 80 28 7c 3e e7 0d e4 3d 94 f3 f9 3d 69 d2 96 3b
       0.24624825 0.11135464 0.12204662 0.0046027196
000310 e4 15 a2 3e 99 c0 b6 3e 22 94 c2 3e 27 bd 4b be
       0.31657326 0.35693815 0.3800364 -0.19896375
000320 9d a7 5c be 5a 27 32 3e 8f 92 4c 3e 70 5b 5b 3d
       -0.21548314 0.17397824 0.19977783 0.053554
000330 c4 5c a3 3d 7d 8c 48 3e 12 b1 44 3e 55 86 55 be
       0.07976678 0.19584842 0.19208172 -0.20852025
000340 78 1a 2c be 3e b7 4b be c5 ac 22 3e b8 d0 91 3d
       -0.16806972 -0.1989412 0.15886219 0.07119888
000350 58 56 2d 3e 63 eb 54 3e ef ba 38 be 04 16 1c bc
       0.16927469 0.20792918 -0.1804006 -0.009526733
000360 7d d0 05 be 6c 4b 3a 3e a1 81 20 3e 03 87 4a 3e
       -0.13067813 0.18192834 0.1567445 0.19778065
000370 04 9d 4f 3e 6c 0d 48 3e f0 aa 8c bd 67 24 02 3f
       0.2027474 0.1953637 -0.06868541 0.50836796
000380 22 b2 48 3e 98 27 a0 be 45 38 4c bd 50 df 13 be
       0.19599202 -0.31280208 -0.04985835 -0.14440656
000390 55 c1 36 3e b3 0f f3 bc f8 f4 33 3e b0 a5 53 3e
       0.17847188 -0.029670572 0.17573917 0.20668674
0003a0 00 e2 24 3e 10 5e fc bd 1e f6 1a bd 3f d3 f2 3e
       0.16101837 -0.123226285 -0.037832372 0.47426793
0003b0 9a 0e 46 3e d5 9f 12 bd 1d fe 95 bd 38 78 26 be
       0.19341508 -0.03579696 -0.07323859 -0.16256797
0003c0 e9 af df 3e 84 04 51 be e1 0c 4d bf b1 16 66 bf
       0.43688896 -0.20411879 -0.80097777 -0.89878374
0003d0 91 ab db be 51 99 4d bf 84 7b 4d bf 4f 45 4e 3f
       -0.42904332 -0.8031207 -0.80266595 0.80574507
0003e0 ef 49 41 3f bf cc 4c 3f 01 e5 1f bf 17 03 10 3e
       0.7550344 0.7999992 -0.6245881 0.14063679
0003f0 89 a0 81 be 3b 50 4d bf 9b ca 92 3f aa 23 11 3f
       -0.2531779 -0.80200547 1.146808 0.56695044

lstm.weight_hh_l0 f4 [600, 150]
000000 10 00 28 be 73 15 3c be e7 73 96 bd 53 8a cc bc
       -0.16406274 -0.18367557 -0.07346325 -0.024968302
000010 92 d3 11 3e 4c 0e 33 3e 12 4a de 3c 2a e0 66 bd
       0.14240864 0.17485923 0.027134929 -0.056366123
000020 b2 9b 81 bd 69 2b 37 3e 4c 7e 8d be 15 7f eb bd
       -0.06328525 0.17887653 -0.2763542 -0.11498848
000030 ab e8 af 3d 6b 11 0d be 8c 95 6a be b3 f0 4f bc
       0.085893 -0.13776176 -0.2290861 -0.0126916645
000040 09 36 84 3d 52 7d 80 3b cd 46 f8 bd 7e 7e ee 3d
       0.06455619 0.0039211893 -0.12122879 0.1164522
000050 b3 80 28 3e 3f 92 e4 bd 1a 75 a6 3c d2 e7 c1 bd
       0.16455345 -0.11160707 0.02031951 -0.09468044
000060 62 dd b5 bd 6a c8 82 bb 5d 08 11 3e a2 9d af bd
       -0.08880116 -0.0039911764 0.14163347 -0.08574988
000070 52 01 53 be 7e a1 1f 3d a2 e0 6c bd 2a cd 0c be
       -0.20605972 0.03897237 -0.057831414 -0.13750139
000080 05 0d 6f be 9d 35 85 bd db ec 91 3d 9f dd 94 3d
       -0.2334481 -0.065043665 0.07125255 0.07268833
000090 fd 33 21 3e a7 f0 23 bd 69 7e 7d bd c5 e2 98 bd
       0.15742488 -0.040024426 -0.061888132 -0.07465128
0000a0 95 58 5a bd 5f a5 ed 3c dd 20 a6 3d cc 31 8e 3d
       -0.053307135 0.02900952 0.08111737 0.06943092
0000b0 62 43 b6 3d a6 a7 bf 3b a0 e1 59 3d a7 2d 77 be
       0.08899571 0.0058488427 0.05319369 -0.24138509
0000c0 c6 8e b7 3d 99 9f 61 3d 1d 12 61 3d b6 5c a3 bc
       0.08962779 0.055083845 0.054948915 -0.019941669
0000d0 3e d0 c2 bd e9 42 f0 3d 85 fa 26 3c 1b 51 0c be
       -0.09512375 0.11731512 0.010191564 -0.13702814
0000e0 3d 35 03 be 77 58 24 3c c5 6a d5 bd 1d 03 6a bd
       -0.12813278 0.010030857 -0.10420755 -0.057131875
0000f0 4b 57 46 3d 59 6b f7 bb 5d 81 66 bd ac 80 c1 bd
       0.048423093 -0.0075506386 -0.056275714 -0.0944837
000100 7f 9c 17 be 14 86 7e 3c bf c1 1d be ce d0 fe bd
       -0.14805792 0.015534896 -0.1540594 -0.1244217
000110 e0 7b 49 be 7b 6b ce bd fd 05 d6 bd e5 c9 1e 3e
       -0.19676161 -0.10079094 -0.10450361 0.15506704
000120 5f 3d bc bd ca 15 d5 3d 62 c0 80 3d 6d f9 0c 3d
       -0.09191393 0.104045466 0.06286694 0.03441756
000130 5d c2 5a 3d 40 9b 3e bd fd 9b ec bd 65 90 7e bd
       0.053408016 -0.046534777 -0.1155319 -0.062149424
000140 98 99 df bd d9 cc 1b be f9 15 0a bd 3f 27 cc 3d
       -0.109179676 -0.15214862 -0.03371236 0.09968423
000150 4d dc a0 3c 4d 34 1a be 68 6a 80 3d 18 bd 48 3e
       0.019636298 -0.15059014 0.062702954 0.19603384
000160 e3 ed 51 3b e7 0a 76 be 35 f6 56 bd 00 eb a0 be
       0.003203266 -0.24027596 -0.052480895 -0.3142929
000170 4d 06 0e 3d 6d f9 37 3c 73 06 61 3e 15 57 49 be
       0.034673978 0.011228901 0.21975116 -0.19662125
000180 e6 ff 16 bd bb 7a e7 3b 65 73 86 be 66 30 a6 3e
       -0.036865138 0.007064191 -0.26259914 0.324588
000190 c0 05 90 3d 54 1f dc bd 12 db f2 3e a5 64 1f 3e
       0.07032347 -0.10748163 0.47432762 0.15565737
0001a0 7a 44 17 3b 67 fe 92 bd f7 1c 97 3c 2a c6 c0 3d
       0.0023081587 -0.0717743 0.018446429 0.09412797
0001b0 e5 85 5b bd 47 ac 34 3d b8 3f 38 bd 56 0f c4 be
       -0.05359449 0.04410961 -0.044982642 -0.3829295
0001c0 c0 f5 92 be c5 2c 04 be f4 d0 bf 3d a0 e6 a6 3c
       -0.28703117 -0.12907703 0.093660265 0.020373642
0001d0 4e a5 79 bd ed 54 db bd 88 d7 4c bd 35 b8 35 3d
       -0.060948662 -0.10709558 -0.050010234 0.044365127
0001e0 53 04 3d 3d 1a 0b 32 bd d8 8f 01 bd 38 7c 95 3e
       0.046146702 -0.04346762 -0.03163132 0.29196334
0001f0 36 9a 01 be d3 aa 8e bd 41 d2 8c 3d 61 0e e1 3d
       -0.12656483 -0.06966176 0.0687604 0.10989071
000200 6e 0b 0a be 51 52 a3 bc a8 3b 2d 3d 3c 2d 98 bd
       -0.13480923 -0.019936712 0.04229322 -0.07430503
000210 79 a3 38 3f 50 72 00 3d ed 0a 21 3d 50 c0 a0 bd
       0.7212444 0.031359017 0.03931706 -0.07849181
000220 e1 4e 9b 3e e9 81 36 be 9b 1d fd 3d a9 a5 9f 3e
       0.30333617 -0.17822994 0.123591624 0.31181076
000230 02 a2 76 bd 1d 6c d2 bc 1f a4 3b 3d f2 50 57 be
       -0.060213096 -0.025686318 0.045810815 -0.21026972
000240 1e 13 31 bd 3b 88 f0 bc 6d 1f a5 bd 65 51 63 3d
       -0.043231122 -0.029361835 -0.080626346 0.055497546
000250 80 b1 18 be a9 47 84 be 3b 9a e8 be 52 b3 28 3f
       -0.14911461 -0.25835922 -0.45430169 0.6589862
000260 87 7c 77 3e 3e e9 cd bb 35 e9 c7 bd 01 0d 9a bd
       0.24168597 -0.006283908 -0.097612776 -0.075220115
000270 10 f9 e8 bd 21 74 4f bb 58 69 da bd 7c bc 8f be
       -0.1137563 -0.0031654912 -0.10664624 -0.2807349
000280 80 f8 f4 3d a9 c1 be bd 5a 56 85 be 86 aa bb 3e
       0.1196146 -0.093142815 -0.26042444 0.36653537
000290 f3 f5 60 be 59 39 2e 3f ad b1 0f 3d 0f 1f 93 bc
       -0.21968822 0.68056256 0.035081554 -0.017959146
0002a0 f7 d7 f2 be f1 fd dd bd c4 64 26 3e 57 1d 24 3e
       -0.47430393 -0.10839451 0.16249377 0.16026817
0002b0 2f d4 52 bc eb a9 a1 3a 3f 24 93 3e 66 5d db 3e
       -0.012867971 0.0012333965 0.2873859 0.42844695
0002c0 b5 9d 0a 3d c8 1a 89 3e ed bb 59 3e 8e a5 ab 3e
       0.033841807 0.26778245 0.21263094 0.33524746
0002d0 9c be 92 3d 93 10 b7 bd a9 f2 11 be af 91 0e be
       0.07165262 -0.08938708 -0.14252724 -0.13922761
0002e0 5a b1 f3 bd 3a eb f9 bd 31 44 be be 8b ee 37 be
       -0.118990615 -0.12203069 -0.371614 -0.1796209
0002f0 26 12 45 be 79 27 17 3f b6 5d fa 3d ef 75 eb be
       -0.19245204 0.59044605 0.12224905 -0.45988414
000300 04 33 c6 3d c7 b1 aa 3e 9e 28 ac be 44 6d 04 be
       0.09677699 0.33338758 -0.33624738 -0.12932307
000310 ea b4 1a be 25 ec 62 3e f6 19 ba 3e 44 2b 78 be
       -0.15108076 0.22160394 0.36347932 -0.24235255
000320 65 fb a2 3e af 63 14 3c 15 a8 75 3e 99 58 b6 be
       0.31832424 0.00905697 0.239899 -0.3561447
000330 38 4f f4 3e e6 80 db 3e d4 ab 5d 3d 66 5e f7 3e
       0.4771669 0.4287178 0.054118946 0.48314208
000340 e1 fa b9 bc 34 5c 7a 3e 3e f6 ae 3d 2a 37 08 3e
       -0.022702636 0.24449235 0.08543061 0.13302293
000350 b9 c2 6b 3e 41 5a 49 3e b5 c8 ff bd 8c c8 0d be
       0.230235 0.19663335 -0.12489454 -0.13846034
000360 fb 9a f0 bd c3 b5 a6 3e f6 38 c6 bd 3b 8c 98 3e
       -0.1174831 0.32560548 -0.09678833 0.29794487
000370 c2 a9 a7 3e 8b e5 ae 3e 49 db 8e 3e f5 fc 26 bf
       0.32746702 0.34159502 0.27901676 -0.6522973
000380 7b 80 f2 3d 7f 6a c4 3e 72 25 41 bd 96 a0 b9 3e
       0.11840912 0.383625 -0.04715485 0.3625533
000390 df 6f 33 3e b4 d6 c1 3e ab 2e 80 3e 93 b2 1e be
       0.17523144 0.37859118 0.25035605 -0.15497808
0003a0 7e 62 11 3e 60 a1 d6 3d 1c 08 8e 3c 81 f6 5a 3d
       0.14197728 0.104799986 0.017337851 0.05345774
0003b0 ac 2e 4f be 0a 5a bb 3e 86 2d d9 3d 61 a3 5e bf
       -0.20232648 0.36592132 0.10604386 -0.86968046
0003c0 8a 65 85 3d 8b 4c b7 be 44 f3 ac bd ac 06 28 3e
       0.06513508 -0.35800585 -0.08444837 0.16408795
0003d0 fe fd a5 be 99 5e 4b be 4d 35 fb bd 28 c2 d1 bd
       -0.32420343 -0.19860305 -0.12266026 -0.102421105
0003e0 7b ac 95 be fb 0b 4d be 02 c5 3c bd e4 c1 df bc
       -0.29233155 -0.20024101 -0.04608632 -0.027314134
0003f0 14 ae 2d bd b8 2e 27 bc ba 45 cc 3e dc 67 f8 3d
       -0.042402342 -0.01020401 0.39896947 0.121291846

lstm.bias_ih_l0 f4 [600]
000000 38 e1 1c 3e 2a 42 15 3e d6 69 4e 3d 17 fe 6b be
       0.15320289 0.14576021 0.0503939 -0.23046146
000010 94 5c af 3e d5 62 4b 3e da 6e 51 bf 8f ca a3 3e
       0.3425032 0.1986192 -0.8180977 0.31990477
000020 ef 5f 51 3e 9f c3 ef 3e 01 ef 98 3e 26 7d 13 be
       0.20446752 0.46828935 0.29869846 -0.14403209
000030 7a 85 df 3e 51 4c 6a 3f fc 8a 5d be c9 68 15 be
       0.43656522 0.915227 -0.2163505 -0.14590754
000040 8b 05 ac 3d 02 3d 4c bd 67 83 91 3e 5a e3 d5 bd
       0.08399495 -0.04986287 0.28420565 -0.104437545
000050 a9 f7 89 3d cd db 59 3e 80 48 09 bf 56 43 1b 3e
       0.067366906 0.21275254 -0.5362625 0.15162405
000060 90 23 95 3f 55 02 b3 3d 0f 1b 84 3d 26 18 51 3e
       1.1651478 0.08740679 0.064504735 0.20419368
000070 e0 2c 25 bd 3e 29 30 bd dc cb ec be b0 e6 b8 be
       -0.040326 -0.04300808 -0.46249282 -0.361135
000080 e1 f0 16 bd 37 b7 c3 bd 5e ad 9b bd 5f be 8c bf
       -0.036850814 -0.0955643 -0.076014265 -1.0995597
000090 6b c2 56 be cf 30 c3 3e 59 aa 24 3d b0 a2 f3 3e
       -0.20972602 0.38123176 0.04020152 0.47585058
0000a0 20 eb 76 3e 10 fe b8 bc e2 55 16 3e 08 d7 d7 3d
       0.2411313 -0.022582084 0.14681199 0.10539061
0000b0 8e 8c 52 3c 30 93 1f be dd 39 04 3f 97 c8 3e 3e
       0.012850894 -0.15583491 0.5165079 0.18631206
0000c0 84 16 8f 3e 3d 8b b6 3e 62 68 fc 3e 02 e4 87 be
       0.27946866 0.35653105 0.49298388 -0.26541144
0000d0 f7 64 4d 3e 18 58 e6 bd 8c 0c 46 3e 0b 1f 95 3e
       0.20058046 -0.11247271 0.19340724 0.29125246
0000e0 47 16 e5 3e 0c 73 91 be ed 58 0f 3e 4d 17 00 3f
       0.4474356 -0.28408086 0.13998766 0.50035554
0000f0 55 7d d2 bd c3 0b a6 3e a3 20 2d 3e 10 58 3e 3f
       -0.102778114 0.32430848 0.16906981 0.7435312
000100 de 3a e3 bd 40 aa 3d 3f 6c 05 94 be 2c d7 c1 3e
       -0.110952124 0.74087906 -0.28910387 0.37859476
000110 8d 85 c3 3d 55 5e fc 3e 0e d5 92 3e 0d ae b0 be
       0.09546957 0.4929072 0.28678173 -0.3450779
000120 b5 9a 43 3e 94 02 d6 3c ce e1 2d 3e 0c cb 01 3f
       0.19101985 0.026124276 0.16980669 0.5070045
000130 b0 fe 3a 3f 31 fd ab 3e 45 80 dd 3e 1f 5c 35 bf
       0.7304487 0.33591607 0.43261924 -0.7084369
000140 05 e4 3a bd 24 d7 3b bd 7e ba 13 3e 04 72 95 3d
       -0.045627613 -0.04585947 0.1442661 0.072971374
000150 50 a2 08 3f ae db 81 3f 4b 31 e1 3e 29 c7 92 3d
       0.5337267 1.0145166 0.4398292 0.07166893
000160 4a 2c ea be 07 fe 71 3d 0e 82 ee 3d b3 ac 16 bf
       -0.45736915 0.05908015 0.116459 -0.5885727
000170 af c6 42 be 2e 9a c9 3e 1b 79 c2 be dc ac 6a 3e
       -0.19021104 0.39375442 -0.3798302 0.22917503
000180 30 c6 74 be 8d 66 fc be 14 9e 0a bf e7 1c 55 3e
       -0.23903728 -0.4929699 -0.5414746 0.20811807
000190 f0 bd c2 bd 21 1b 58 3d 71 09 31 3e 79 01 15 be
       -0.09508884 0.052760247 0.17288758 -0.14551343
0001a0 07 cb c6 3d f5 bc aa 3e ba cf 8d 3d f8 c4 0b bc
       0.09706693 0.33347288 0.06924386 -0.008530848
0001b0 c0 41 a5 bd ef 5d 17 3e 7d 18 05 3f c8 3f 01 3e
       -0.080691814 0.14781927 0.5199049 0.12621987
0001c0 4e b4 be 3c 9d 90 c8 3e 49 59 25 be a2 67 8b 3e
       0.023279335 0.3917283 -0.16147341 0.27227503
0001d0 67 cb 42 be 2a cb 9a 3e ab 2e 5f 3e ec 7e 42 be
       -0.19022904 0.30233127 0.21795146 -0.1899373
0001e0 6b 27 c6 3e 1d 5b a0 3e 42 52 c5 3e dc 77 8d 3d
       0.3870195 0.31319514 0.3853932 0.06907627
0001f0 8d f3 8e 3e 44 41 a0 3e ac 09 74 3e 73 c6 08 3e
       0.2792019 0.31299794 0.23831815 0.13356952
000200 d9 fe f2 3e 68 4a 3c 3f 59 fb ea be db 0e 67 3d
       0.47460058 0.73551035 -0.45894888 0.05641065
000210 f9 fb 23 3f ea 2f d6 3d 23 e3 c7 bd 5b 8e 3c bf
       0.64056355 0.10458358 -0.0976012 -0.7365472
000220 a7 b9 18 3e 94 e6 a2 3d 6c 30 be 3d dd 60 dc 3e
       0.14914571 0.079541355 0.092865795 0.4304265
000230 35 51 ea 3e bb 15 34 3e 36 83 91 3e 7d 38 bc 3e
       0.4576508 0.17586415 0.28420419 0.36761847
000240 fb 87 a6 be 39 95 b0 be 9d eb 0f 3f ae 9b 6c 3e
       -0.3252562 -0.34488848 0.5621889 0.23106262
000250 81 80 b6 3e c3 92 a5 3e f8 f3 d8 bd ea 89 15 3f
       0.35644916 0.32338533 -0.10593408 0.58413565
000260 c6 cd a7 be 38 fc a1 3b a1 47 97 be 3e 73 4c be
       -0.3277418 0.004943397 -0.29546836 -0.19965836
000270 26 7a 32 be c6 a8 5e be 01 14 20 3e 64 46 77 bf
       -0.17429408 -0.2174407 0.15632631 -0.9659178
000280 69 a5 9d 3e 04 24 b7 bd ff 6d e4 be 5f 70 be be
       0.3079026 -0.08942416 -0.4461517 -0.37195107
000290 e2 59 33 3e 10 53 46 3e 07 8e 05 be c0 1d 9e 3d
       0.17514756 0.19367623 -0.1304246 0.07720518
0002a0 a5 32 8e 3e a9 7a 97 bd bd a6 1f 3e 75 d8 93 3b
       0.27773014 -0.073964424 0.1559095 0.0045118877
0002b0 47 a7 cd 3e 28 9b f4 bd 8f b4 18 3e ac 02 5c 3e
       0.40166685 -0.11943656 0.14912628 0.21485394
0002c0 76 f1 e8 3e 4d 2c 29 3f 95 35 17 3f 1f bb 5c 3c
       0.4549672 0.6608322 0.59066135 0.0134723475
0002d0 87 7d 7f 3e bd 7a 47 be dd c0 18 be 06 7e ba ba
       0.24950229 -0.19480415 -0.14917322 -0.0014228232
0002e0 e2 d9 13 be d0 a2 23 bf 40 1a f8 be da 79 0b 3e
       -0.14438584 -0.6392031 -0.48457527 0.13620701
0002f0 5c 28 62 be ff ad 07 bf f6 a7 4d 3d 8c fb a0 3e
       -0.22085708 -0.5299987 0.05020901 0.31441915
000300 37 4c 0f bf 6c 5d 2a be 7c f6 63 be 8a d3 bf be
       -0.5597567 -0.166372 -0.22261995 -0.3746608
000310 45 9f fc be 4c 52 b2 bd ff e6 ee 3e 34 01 8a be
       -0.49340263 -0.08707103 0.4666061 -0.26954043
000320 30 24 85 be fe 58 a2 3d 50 ff be 3e 1a c6 ce bd
       -0.2600417 0.0792713 0.37304163 -0.100963786
000330 91 b2 0a be 9a b8 06 3f f0 82 b9 3e d4 1b ae 3e
       -0.1354468 0.5262543 0.3623271 0.34005606
000340 ce 3a a0 bd 7f 55 e2 3e 75 7e ae 3e 9c 77 0c 3e
       -0.07823716 0.44205853 0.34080854 0.13717502
000350 fc 2b 49 3e ac 6a 42 3e bc 62 8a be 25 ed 3a 3e
       0.19645685 0.18986005 -0.27028453 0.18254526
000360 1d e9 a9 3e cb 7f 88 3e ec a1 4a bd 40 87 89 3e
       0.33185664 0.26659998 -0.049470827 0.26861
000370 e7 7b b1 3e cb a3 c0 3c 26 dc a0 3e b3 ac f3 bd
       0.34664842 0.023515603 0.3141796 -0.11898174
000380 d1 b4 75 3e 2e b6 8b 3e e1 8c a4 be 16 03 83 3e
       0.23994757 0.2728743 -0.32138732 0.25588292
000390 d2 6b 09 3e 94 68 ad be 29 c6 a0 3e b0 dc 57 be
       0.13420036 -0.3386885 0.31401184 -0.2108028
0003a0 0b 25 36 3f ea b5 04 3e cd e1 1d 3f 31 90 12 3c
       0.71150273 0.1296002 0.6167267 0.008945511
0003b0 53 e5 31 3f ed 6f 7f 3f 3c 2a 35 3e 35 8e 3e 3e
       0.69490546 0.9978016 0.17691892 0.18608935
0003c0 db 90 de bd d0 d7 ad 3e 62 09 18 be ae 67 bf 3e
       -0.10867473 0.33953714 -0.1484733 0.3738379
0003d0 c1 5c 2d bf 69 13 7c 3e f2 40 07 3f 88 fb ed bd
       -0.67719656 0.2461678 0.52833474 -0.116202414
0003e0 06 0e dd 3e d8 18 9d bd 9e e4 ad be c5 31 ae 3d
       0.43174762 -0.07670754 -0.33963484 0.085055865
0003f0 aa e7 81 be 69 5a 4f 3e cb a1 09 bf b2 bf 1d 3f
       -0.25372058 0.20249332 -0.537625 0.6162063

lstm.bias_hh_l0 f4 [600]
000000 bb 17 2e 3e b9 54 2c 3e f4 ae 9d 3d de a2 74 be
       0.1700124 0.16829194 0.07699385 -0.23890254
000010 a9 c8 ae 3e 09 93 4a 3e a9 e4 4e bf 33 82 99 3e
       0.34137467 0.19782652 -0.8081766 0.29982147
000020 2c 3b 4f 3e 52 5f e7 3e 70 70 97 3e 36 41 17 be
       0.20237416 0.4518991 0.2957797 -0.1477097
000030 9e ce e0 3e 11 2b 6c 3f 9c d7 80 be 45 51 25 be
       0.43907636 0.92253214 -0.25164497 -0.16144283
000040 34 c8 db 3d 5f 92 3f bd da 3f 91 3e 35 0b 03 be
       0.10731545 -0.04677045 0.28369027 -0.12797244
000050 05 54 59 3d 2a 7b 4f 3e 8a 87 05 bf 43 04 07 3e
       0.053058643 0.20261827 -0.5215994 0.1318522
000060 06 d2 94 3f 1a 10 b8 3d 87 e3 b3 3d 45 2d 57 3e
       1.1626594 0.08987446 0.08783632 0.21013363
000070 2c 00 95 bb 0f 8d 3b bd 0c 52 ed be 16 07 c3 be
       -0.0045471396 -0.04578882 -0.4635166 -0.38091344
000080 9f 5e ec bc 08 fc ab bd 6a fc ae bd 72 55 8a bf
       -0.028853713 -0.083976805 -0.08544238 -1.0807326
000090 0f 11 56 be 5a 20 ba 3e 04 47 0a 3c d2 c8 f3 3e
       -0.20904945 0.36352807 0.008439783 0.4761415
0000a0 99 25 74 3e 9e f1 e7 bc 33 35 ef 3d 88 18 04 3e
       0.23842467 -0.028313454 0.11680069 0.12899983
0000b0 cb 39 54 bc f5 55 36 be 0a f3 ff 3e 13 f0 3b 3e
       -0.012953232 -0.17806228 0.49990112 0.183533
0000c0 e7 b2 88 3e 82 d8 c6 3e 9f 07 01 3f cb c1 89 be
       0.26698992 0.38837057 0.50402254 -0.26905665
0000d0 67 71 53 3e a2 b5 b8 bd f6 c3 44 3e 19 1f a0 3e
       0.20648728 -0.09019019 0.19215378 0.31273726
0000e0 d1 b8 e9 3e 25 cc 94 be fa 46 1a 3e b8 09 f9 3e
       0.45648816 -0.29062 0.15066138 0.48640227
0000f0 be 94 00 be 33 25 a6 3e 15 30 1e 3e 94 3d 47 3f
       -0.1255674 0.32450256 0.1544803 0.77828336
000100 0f 51 02 be e2 3f 43 3f f9 81 8c be c1 5d b7 3e
       -0.12726234 0.7626935 -0.2744291 0.35813716
000110 73 60 e8 3d fb e4 f2 3e 58 b6 97 3e 5c 4c a4 be
       0.11346521 0.47440323 0.29631305 -0.32089508
000120 46 1e 58 3e cb e1 e9 3c c9 11 19 3e 91 02 f3 3e
       0.21105298 0.02855005 0.14948191 0.47462896
000130 ac 64 39 3f 8f c4 a8 3e 3e 92 d3 3e b5 ba 36 bf
       0.7241924 0.32962462 0.4132251 -0.7137864
000140 57 7d 8a bd 01 51 75 bd 35 6c 19 3e 8e 67 94 3d
       -0.06762188 -0.059891704 0.14982684 0.07246314
000150 d5 64 09 3f 47 15 82 3f 9b 91 dd 3e 2c 5c 6b 3d
       0.5366948 1.0162743 0.4327515 0.05746095
000160 9d 7c ee be ab a9 a1 3d 76 8c d6 3d 44 b7 13 bf
       -0.46579447 0.0789369 0.104760095 -0.57701516
000170 a9 e6 2f be 57 e9 cf 3e 8f f7 c8 be 2a b4 78 3e
       -0.17177834 0.40607712 -0.39251372 0.24287477
000180 ca 31 85 be a3 ac 05 bf 05 e3 11 bf 05 63 55 3e
       -0.2601455 -0.5221655 -0.5698703 0.20838554
000190 2c 79 be bd be 3e 67 3d 5d 69 3f 3e 8e 44 20 be
       -0.093004555 0.05645632 0.18692537 -0.15651152
0001a0 44 0c b2 3d 1f f2 ac 3e d6 78 b4 3d 7a 20 36 3b
       0.08693746 0.33778474 0.0881211 0.0027790354
0001b0 2e dc 5c bd 0b 67 1d 3e 52 72 07 3f 6f ea 08 3e
       -0.053920917 0.15371339 0.52908814 0.1337068
0001c0 26 54 cd 3c e3 8d cd 3e ec 8b 0f be 9e 84 8c 3e
       0.02506454 0.40147313 -0.1401822 0.2744493
0001d0 79 b7 47 be 22 72 96 3e 69 ae 57 3e f8 52 63 be
       -0.19503583 0.2938395 0.21062626 -0.22199619
0001e0 72 a9 be 3e 75 d0 9e 3e eb 80 c5 3e 05 56 45 3d
       0.37238652 0.31018415 0.3857492 0.048177738
0001f0 e6 3b 86 3e c9 9a 9b 3e 41 0e 6c 3e 85 72 05 3e
       0.26217574 0.3039153 0.23052312 0.13031967
000200 ee 1f fb 3e 54 3f 40 3f 15 31 ea be a9 e4 8c 3d
       0.49047798 0.7509663 -0.45740572 0.06879551
000210 69 ea 20 3f 97 a8 df 3d 47 d3 00 be a5 55 42 bf
       0.6285768 0.10920828 -0.12580596 -0.75911933
000220 cc b9 0a 3e d5 e8 c5 3d 78 c4 be 3d 56 dc e8 3e
       0.13547438 0.0966355 0.09314817 0.45480603
000230 75 89 f7 3e bb f3 2d 3e 18 79 8f 3e bd 09 c4 3e
       0.4834706 0.16987507 0.28022075 0.3828868
000240 c9 94 9f be 4e b1 ba be 10 a9 13 3f 83 c2 68 3e
       -0.31168202 -0.36463398 0.57679844 0.2273045
000250 81 10 c8 3e 64 18 a1 3e 88 bd df bd a8 6f 11 3f
       0.3907509 0.3146392 -0.10924822 0.56811
000260 07 56 ad be f4 7a 81 bc 26 26 94 be 8c ca 5b be
       -0.33854696 -0.015805699 -0.28935355 -0.21463984
000270 2e a1 1e be b2 fc 69 be cc cb 1f 3e 7f 66 78 bf
       -0.15491173 -0.22850302 0.15605086 -0.97031397
000280 51 b6 97 3e 2d 98 b6 bd cd 5d d5 be e4 d2 bc be
       0.29631284 -0.08915744 -0.41673127 -0.36879647
000290 a5 6c 2b 3e aa e8 4c 3e 6b 3f e3 bd b4 1f ca 3d
       0.16740663 0.2001063 -0.110960804 0.09869328
0002a0 12 bd 92 3e 4e 73 9e bd 26 2b 20 3e 2e 4e 8c 3c
       0.28659874 -0.077368364 0.1564146 0.017127123
0002b0 f3 a1 ba 3e 91 48 16 be 76 fd 19 3e fc f6 6a 3e
       0.36451682 -0.1467612 0.15038094 0.2294578
0002c0 d4 33 f1 3e f9 93 2e 3f 92 57 1c 3f a1 15 ff bb
       0.47109854 0.6819454 0.6107112 -0.007784561
0002d0 86 b1 61 3e 26 dd 4a be d6 75 19 be 8f ad 33 bb
       0.22040376 -0.19810924 -0.14986357 -0.0027416681
0002e0 21 7b 13 be b6 bb 1e bf c6 68 f8 be 77 98 28 3e
       -0.14402439 -0.62005174 -0.48517436 0.1646441
0002f0 3d 16 66 be d8 16 07 bf ea e2 7a 3d 65 ba ae 3e
       -0.2246942 -0.5276923 0.06125156 0.34126583
000300 de 99 12 bf b6 98 39 be f4 d4 5c be a6 aa c7 be
       -0.5726603 -0.18124661 -0.2156561 -0.38997382
000310 be ce 02 bf 8a 69 9f bd 0f 02 e9 3e 4d 94 78 be
       -0.51096714 -0.07783802 0.45509383 -0.24275322
000320 cc 97 86 be 0a d5 d4 3d 17 04 c7 3e 2e 4a e3 bd
       -0.26287687 0.103921965 0.38870308 -0.11098133
000330 2a ec f3 bd 7e 31 07 3f e1 44 ad 3e 7e 6c b3 3e
       -0.11910279 0.52809894 0.33841613 0.3504371
000340 af 54 d6 bd 7c d3 e1 3e 73 29 ac 3e ab 92 13 3e
       -0.10465371 0.44106662 0.33625373 0.14411418
000350 c6 5e 46 3e f3 64 35 3e d4 5b 90 be 66 3c 31 3e
       0.1937209 0.1771429 -0.2819506 0.17308196
000360 bd 04 a7 3e 75 ed 85 3e c1 cf 7b bd 72 94 90 3e
       0.32620803 0.26157728 -0.061477426 0.28238255
000370 57 7d b2 3e e0 0c 75 3d 6a 25 92 3e 05 31 da bd
       0.34861252 0.05982673 0.2854417 -0.10653881
000380 84 a6 87 3e e4 ce 88 3e bc 2e ad be 26 5c 82 3e
       0.2649423 0.26720345 -0.33824718 0.2546093
000390 32 e9 00 3e ba 5f a3 be a0 e1 a3 3e 5d 0b 5e be
       0.12588957 -0.3190897 0.32008076 -0.21684022
0003a0 c6 ef 31 3f 00 bf 0d 3e e4 39 23 3f 4a a1 59 ba
       0.6950649 0.13842392 0.6376021 -0.0008301927
0003b0 58 69 30 3f 53 ea 81 3f e0 16 1c 3e 22 4a 20 3e
       0.6891074 1.0149635 0.15243101 0.1565328
0003c0 dc e7 dc bd 8d e1 a9 3e d0 7a 24 be aa ea b8 3e
       -0.10786411 0.33179894 -0.16062474 0.36116534
0003d0 13 2f 2e bf 86 ca 8e 3e 5f 2c 02 3f 68 b4 e5 bd
       -0.6804058 0.27888888 0.50848955 -0.112160504
0003e0 14 53 eb 3e 74 25 b3 bd ed ce be be d0 c1 a8 3d
       0.4596182 -0.08747378 -0.37267247 0.08240092
0003f0 7d 2e 82 be f0 65 69 3e 08 07 06 bf b1 cb 20 3f
       -0.25426093 0.22792792 -0.5235448 0.6281081

layernorm.weight f4 [150]
000000 00 00 80 3f 00 00 80 3f 00 00 80 3f 00 00 80 3f
       1.0 1.0 1.0 1.0
000010 00 00 80 3f 00 00 80 3f 00 00 80 3f 00 00 80 3f
       1.0 1.0 1.0 1.0
000020 00 00 80 3f 00 00 80 3f 00 00 80 3f 00 00 80 3f
       1.0 1.0 1.0 1.0
000030 00 00 80 3f 00 00 80 3f 00 00 80 3f 00 00 80 3f
       1.0 1.0 1.0 1.0
000040 00 00 80 3f 00 00 80 3f 00 00 80 3f 00 00 80 3f
       1.0 1.0 1.0 1.0
000050 00 00 80 3f 00 00 80 3f 00 00 80 3f 00 00 80 3f
       1.0 1.0 1.0 1.0
000060 00 00 80 3f 00 00 80 3f 00 00 80 3f 00 00 80 3f
       1.0 1.0 1.0 1.0
000070 00 00 80 3f 00 00 80 3f 00 00 80 3f 00 00 80 3f
       1.0 1.0 1.0 1.0
000080 00 00 80 3f 00 00 80 3f 00 00 80 3f 00 00 80 3f
       1.0 1.0 1.0 1.0
000090 00 00 80 3f 00 00 80 3f 00 00 80 3f 00 00 80 3f
       1.0 1.0 1.0 1.0
0000a0 00 00 80 3f 00 00 80 3f 00 00 80 3f 00 00 80 3f
       1.0 1.0 1.0 1.0
0000b0 00 00 80 3f 00 00 80 3f 00 00 80 3f 00 00 80 3f
       1.0 1.0 1.0 1.0
0000c0 00 00 80 3f 00 00 80 3f 00 00 80 3f 00 00 80 3f
       1.0 1.0 1.0 1.0
0000d0 00 00 80 3f 00 00 80 3f 00 00 80 3f 00 00 80 3f
       1.0 1.0 1.0 1.0
0000e0 00 00 80 3f 00 00 80 3f 00 00 80 3f 00 00 80 3f
       1.0 1.0 1.0 1.0
0000f0 00 00 80 3f 00 00 80 3f 00 00 80 3f 00 00 80 3f
       1.0 1.0 1.0 1.0
000100 00 00 80 3f 00 00 80 3f 00 00 80 3f 00 00 80 3f
       1.0 1.0 1.0 1.0
000110 00 00 80 3f 00 00 80 3f 00 00 80 3f 00 00 80 3f
       1.0 1.0 1.0 1.0
000120 00 00 80 3f 00 00 80 3f 00 00 80 3f 00 00 80 3f
       1.0 1.0 1.0 1.0
000130 00 00 80 3f 00 00 80 3f 00 00 80 3f 00 00 80 3f
       1.0 1.0 1.0 1.0
000140 00 00 80 3f 00 00 80 3f 00 00 80 3f 00 00 80 3f
       1.0 1.0 1.0 1.0
000150 00 00 80 3f 00 00 80 3f 00 00 80 3f 00 00 80 3f
       1.0 1.0 1.0 1.0
000160 00 00 80 3f 00 00 80 3f 00 00 80 3f 00 00 80 3f
       1.0 1.0 1.0 1.0
000170 00 00 80 3f 00 00 80 3f 00 00 80 3f 00 00 80 3f
       1.0 1.0 1.0 1.0
000180 00 00 80 3f 00 00 80 3f 00 00 80 3f 00 00 80 3f
       1.0 1.0 1.0 1.0
000190 00 00 80 3f 00 00 80 3f 00 00 80 3f 00 00 80 3f
       1.0 1.0 1.0 1.0
0001a0 00 00 80 3f 00 00 80 3f 00 00 80 3f 00 00 80 3f
       1.0 1.0 1.0 1.0
0001b0 00 00 80 3f 00 00 80 3f 00 00 80 3f 00 00 80 3f
       1.0 1.0 1.0 1.0
0001c0 00 00 80 3f 00 00 80 3f 00 00 80 3f 00 00 80 3f
       1.0 1.0 1.0 1.0
0001d0 00 00 80 3f 00 00 80 3f 00 00 80 3f 00 00 80 3f
       1.0 1.0 1.0 1.0
0001e0 00 00 80 3f 00 00 80 3f 00 00 80 3f 00 00 80 3f
       1.0 1.0 1.0 1.0
0001f0 00 00 80 3f 00 00 80 3f 00 00 80 3f 00 00 80 3f
       1.0 1.0 1.0 1.0
000200 00 00 80 3f 00 00 80 3f 00 00 80 3f 00 00 80 3f
       1.0 1.0 1.0 1.0
000210 00 00 80 3f 00 00 80 3f 00 00 80 3f 00 00 80 3f
       1.0 1.0 1.0 1.0
000220 00 00 80 3f 00 00 80 3f 00 00 80 3f 00 00 80 3f
       1.0 1.0 1.0 1.0
000230 00 00 80 3f 00 00 80 3f 00 00 80 3f 00 00 80 3f
       1.0 1.0 1.0 1.0
000240 00 00 80 3f 00 00 80 3f 00 00 80 3f 00 00 80 3f
       1.0 1.0 1.0 1.0
000250 00 00 80 3f 00 00 80 3f
       1.0 1.0

layernorm.bias f4 [150]
000000 00 00 00 00 00 00 00 00 00 00 00 00 00 00 00 00
       0.0 0.0 0.0 0.0
000010 00 00 00 00 00 00 00 00 00 00 00 00 00 00 00 00
       0.0 0.0 0.0 0.0
000020 00 00 00 00 00 00 00 00 00 00 00 00 00 00 00 00
       0.0 0.0 0.0 0.0
000030 00 00 00 00 00 00 00 00 00 00 00 00 00 00 00 00
       0.0 0.0 0.0 0.0
000040 00 00 00 00 00 00 00 00 00 00 00 00 00 00 00 00
       0.0 0.0 0.0 0.0
000050 00 00 00 00 00 00 00 00 00 00 00 00 00 00 00 00
       0.0 0.0 0.0 0.0
000060 00 00 00 00 00 00 00 00 00 00 00 00 00 00 00 00
       0.0 0.0 0.0 0.0
000070 00 00 00 00 00 00 00 00 00 00 00 00 00 00 00 00
       0.0 0.0 0.0 0.0
000080 00 00 00 00 00 00 00 00 00 00 00 00 00 00 00 00
       0.0 0.0 0.0 0.0
000090 00 00 00 00 00 00 00 00 00 00 00 00 00 00 00 00
       0.0 0.0 0.0 0.0
0000a0 00 00 00 00 00 00 00 00 00 00 00 00 00 00 00 00
       0.0 0.0 0.0 0.0
0000b0 00 00 00 00 00 00 00 00 00 00 00 00 00 00 00 00
       0.0 0.0 0.0 0.0
0000c0 00 00 00 00 00 00 00 00 00 00 00 00 00 00 00 00
       0.0 0.0 0.0 0.0
0000d0 00 00 00 00 00 00 00 00 00 00 00 00 00 00 00 00
       0.0 0.0 0.0 0.0
0000e0 00 00 00 00 00 00 00 00 00 00 00 00 00 00 00 00
       0.0 0.0 0.0 0.0
0000f0 00 00 00 00 00 00 00 00 00 00 00 00 00 00 00 00
       0.0 0.0 0.0 0.0
000100 00 00 00 00 00 00 00 00 00 00 00 00 00 00 00 00
       0.0 0.0 0.0 0.0
000110 00 00 00 00 00 00 00 00 00 00 00 00 00 00 00 00
       0.0 0.0 0.0 0.0
000120 00 00 00 00 00 00 00 00 00 00 00 00 00 00 00 00
       0.0 0.0 0.0 0.0
000130 00 00 00 00 00 00 00 00 00 00 00 00 00 00 00 00
       0.0 0.0 0.0 0.0
000140 00 00 00 00 00 00 00 00 00 00 00 00 00 00 00 00
       0.0 0.0 0.0 0.0
000150 00 00 00 00 00 00 00 00 00 00 00 00 00 00 00 00
       0.0 0.0 0.0 0.0
000160 00 00 00 00 00 00 00 00 00 00 00 00 00 00 00 00
       0.0 0.0 0.0 0.0
000170 00 00 00 00 00 00 00 00 00 00 00 00 00 00 00 00
       0.0 0.0 0.0 0.0
000180 00 00 00 00 00 00 00 00 00 00 00 00 00 00 00 00
       0.0 0.0 0.0 0.0
000190 00 00 00 00 00 00 00 00 00 00 00 00 00 00 00 00
       0.0 0.0 0.0 0.0
0001a0 00 00 00 00 00 00 00 00 00 00 00 00 00 00 00 00
       0.0 0.0 0.0 0.0
0001b0 00 00 00 00 00 00 00 00 00 00 00 00 00 00 00 00
       0.0 0.0 0.0 0.0
0001c0 00 00 00 00 00 00 00 00 00 00 00 00 00 00 00 00
       0.0 0.0 0.0 0.0
0001d0 00 00 00 00 00 00 00 00 00 00 00 00 00 00 00 00
       0.0 0.0 0.0 0.0
0001e0 00 00 00 00 00 00 00 00 00 00 00 00 00 00 00 00
       0.0 0.0 0.0 0.0
0001f0 00 00 00 00 00 00 00 00 00 00 00 00 00 00 00 00
       0.0 0.0 0.0 0.0
000200 00 00 00 00 00 00 00 00 00 00 00 00 00 00 00 00
       0.0 0.0 0.0 0.0
000210 00 00 00 00 00 00 00 00 00 00 00 00 00 00 00 00
       0.0 0.0 0.0 0.0
000220 00 00 00 00 00 00 00 00 00 00 00 00 00 00 00 00
       0.0 0.0 0.0 0.0
000230 00 00 00 00 00 00 00 00 00 00 00 00 00 00 00 00
       0.0 0.0 0.0 0.0
000240 00 00 00 00 00 00 00 00 00 00 00 00 00 00 00 00
       0.0 0.0 0.0 0.0
000250 00 00 00 00 00 00 00 00
       0.0 0.0

batchnorm.weight f4 [150]
000000 fc f7 8f 3e c6 32 82 3f 42 95 43 3d 89 9d b0 3d
       0.28118885 1.0171745 0.047749765 0.086237974
000010 a4 b9 b5 3e 07 49 70 be 3e 97 73 3f f9 bb b8 3e
       0.35493195 -0.23465358 0.9515265 0.36080912
000020 73 e6 ce 3e ca 5f 0d 40 dd 37 68 bd dd 91 a6 3e
       0.40410194 2.2089715 -0.0566939 0.3253316
000030 30 08 c9 3e 0d d4 e1 3f 72 fb 02 bf b7 9e a8 3f
       0.3926406 1.7642838 -0.51164925 1.3173436
000040 fb bb c0 3d de ba 19 3e 75 e1 30 3f 4e c1 85 3e
       0.094108544 0.1501269 0.6909402 0.26124042
000050 da 47 cb bb 29 29 5e 3f c3 ae 10 be f6 3e 2b bd
       -0.0062036337 0.86781555 -0.14129166 -0.04180809
000060 4d 5a d3 3f c0 31 c3 3e 72 a1 50 3f bc 79 a9 3e
       1.6511933 0.38123894 0.81496346 0.33100688
000070 be 43 ef 3e 37 9d 9d 3e 65 76 9d 3f 61 75 12 3f
       0.4673137 0.30784008 1.2301756 0.57210356
000080 33 df 1b bd 24 8f 4e be 8e 4a df be 61 c2 ae 3f
       -0.038054656 -0.20171791 -0.43611568 1.365307
000090 f0 fb 1c 3f d5 60 85 3f d6 36 0a 3f e5 27 fc be
       0.61321926 1.0420176 0.53989923 -0.49249187
0000a0 19 d1 88 3f 77 ee ae 3f e1 73 0c 40 aa c6 e4 3e
       1.0688812 1.3666524 2.1945727 0.4468282
0000b0 24 f7 09 3f 68 64 b2 3e 80 f1 ee 3f ae 33 20 3e
       0.5389273 0.3484223 1.866745 0.15644714
0000c0 e5 fc 44 3f 80 74 af 3e bc 30 19 3f a3 82 e0 3e
       0.76948386 0.3426857 0.5983999 0.43849668
0000d0 d0 cc 09 be 36 fd 55 be 24 6b b7 3f e0 15 3d 3f
       -0.13457036 -0.20897374 1.4329572 0.73861504
0000e0 46 b0 69 3e 87 22 5c 3f 8a e8 e6 bc 61 6c b2 3e
       0.22821149 0.85990185 -0.028187055 0.34848312
0000f0 28 5e 9e 3f a6 42 11 3f de 1b a4 3e cd 21 53 3e
       1.2372484 0.5674232 0.3205251 0.20618363
000100 5d df 8f 3e f8 cb db be 17 65 d7 3e 08 40 87 3f
       0.281001 -0.42929053 0.42069313 1.0566416
000110 f9 63 2a 3f bd 9b ea 3e 44 43 6e 3d 9b 65 d6 3f
       0.66558796 0.45821944 0.05816962 1.6749758
000120 c0 e3 da 3e 42 8d 54 3e 5d 52 6e bd 08 a7 98 3d
       0.42751884 0.2075701 -0.058184016 0.07453734
000130 8c 4a 3e bf cd d6 a4 3f 53 f4 5e 3e 6b 44 99 3d
       -0.743325 1.2878052 0.2177289 0.07483753
000140 50 c8 d3 3e de 10 90 3e 95 4d 37 3f a5 e9 8f 3e
       0.41363764 0.2813787 0.71602756 0.28107944
000150 c5 3a 25 3f bb 3e e1 3f a4 e1 be 3f b1 fd 59 3f
       0.645428 1.7597269 1.491261 0.8515273
000160 a8 5f 7b be 33 2b 04 3f 12 f6 f4 3e 0f 40 a8 3d
       -0.24548209 0.51628417 0.47843987 0.08215343
000170 2d f3 02 3f c7 21 23 3f f8 f7 7c 3f 34 54 07 3f
       0.51152307 0.63723415 0.9881587 0.5286286
000180 6e cb 49 be 12 fe 83 3e fb 51 83 bc 61 ae 8c bd
       -0.19706509 0.25779778 -0.016030302 -0.06869198
000190 4b 0d e9 3e 98 68 39 3e 7a 6a e8 3e 37 ff 96 3e
       0.45517954 0.18106306 0.45393735 0.29491588
0001a0 13 d9 59 3f 15 31 06 be 63 73 f0 3e e3 10 17 40
       0.85096854 -0.13104661 0.46963033 2.3604057
0001b0 0b 2f 84 3e a7 71 d6 3e 46 b8 57 3f f6 5c 3f bf
       0.2581714 0.41883585 0.84265554 -0.7475122
0001c0 87 cd fb be 71 f5 1b 3f b1 dd d9 3e e4 94 22 3f
       -0.49180242 0.6092139 0.4255195 0.6350844
0001d0 19 cc 03 bd 00 b3 4d 3f 4f 6f 3f 3f 9a f6 b2 3e
       -0.032177065 0.8035126 0.7477922 0.34953767
0001e0 42 95 8d 3f 08 da 30 bd 22 ea 2d 3f 39 f0 e1 3f
       1.1061175 -0.04317668 0.67935383 1.7651435
0001f0 63 fa 9b 3e b3 d0 e5 3c ba c2 57 3f 89 ca e8 3e
       0.30464467 0.028053617 0.84281504 0.45467022
000200 65 c5 7d 3f 60 d5 ba 3f b9 0c 88 3e 13 b4 33 3d
       0.99129325 1.4596367 0.26572207 0.043872904
000210 d3 63 a1 bf 05 e7 90 bc 4c 36 d9 3e 2b 2d 06 40
       -1.2608589 -0.017688284 0.42424238 2.0965068
000220 00 ea dc 3e 7d ea 74 3d 36 1c d9 3f ff f0 d9 3e
       0.43147278 0.059793938 1.6961734 0.42566678
000230 5a ec 45 3f 57 ad 7d 3f dd 2c 90 3f ec 53 b1 3e
       0.7731377 0.9909262 1.1263691 0.3463434
000240 fe ee 88 be 04 d5 9d 3e 86 fc c9 3f 78 5d e4 3e
       -0.26744837 0.3082658 1.5780189 0.4460256
000250 65 78 d3 3e 0b af 15 bf
       0.4130279 -0.5847022

batchnorm.bias f4 [150]
000000 18 fc 7b 3f 8b ec 82 3f 3b 79 9c 3f 29 6c 80 3e
       0.9843154 1.0228437 1.2224497 0.2508252
000010 df 8c a0 3f 33 55 91 3f f8 54 47 3f 80 dd 4f bf
       1.254299 1.1354126 0.7786403 -0.8119736
000020 99 9a 48 3f 1a 26 30 3f 91 38 28 3f 16 0b 2f 3f
       0.783609 0.6880814 0.65711313 0.6837629
000030 ea be 3b 3f 8e ca 04 3f cc bb 9b 3f d7 66 ca 3e
       0.73338187 0.51871574 1.2166686 0.39531586
000040 90 51 93 3f ac 82 2d 3f f9 0b 76 3f 16 79 51 3f
       1.1509266 0.67777514 0.9611202 0.8182539
000050 fe 50 5b 3f cf 5a 0b 3f 8e fe 5a 3f 7c e6 5c 3f
       0.8567046 0.5443544 0.8554467 0.8628919
000060 a9 69 86 3f 1a b9 90 3f 58 a1 83 3f b2 f9 ab 3f
       1.0500995 1.1306489 1.0283613 1.3435576
000070 51 e6 15 3f ad f0 52 3f a6 3b 81 bf b2 e6 31 3f
       0.5855456 0.8239849 -1.0096328 0.6949264
000080 b5 d0 4b bf cd e2 89 3f 7b 1d 40 3f 20 1b 41 3f
       -0.79615337 1.0772339 0.75044984 0.75432014
000090 90 64 98 3f 79 a2 77 3f 16 86 6c 3f 9c 65 83 3f
       1.1905689 0.9673229 0.923921 1.0265384
0000a0 ba f8 47 3f fb 7a 85 3f ed c3 62 3e 38 c6 6b 3f
       0.781139 1.0428156 0.22145052 0.9209933
0000b0 21 47 56 3f c7 89 2e bf b2 f5 25 3f fd 89 dd 3e
       0.83702284 -0.6817898 0.64828026 0.4326934
0000c0 6d 54 08 3f 3e cf 62 3f 7d ab 0a 3f 28 91 56 3f
       0.53253824 0.88597476 0.5416792 0.8381524
0000d0 78 03 a5 3f 37 de 86 3f 29 cd 64 3f 8d 64 4c 3f
       1.2891684 1.0536565 0.8937555 0.7984093
0000e0 d0 4a 3f 3f 23 5c 66 3f 89 2b 25 3f 11 8f 3c 3f
       0.7472353 0.8998434 0.64519554 0.736558
0000f0 b1 e1 2c 3f 4b 29 3d 3f 08 bf 0a 3f 1d 52 88 3f
       0.6753188 0.73891133 0.5419774 1.0650059
000100 8f bf 83 3f eb 86 65 3f bf e1 ea be 46 8f a1 3e
       1.0292834 0.89658993 -0.45875356 0.3155462
000110 ea c0 8a bf 96 94 a0 3e 44 bd e4 3e 9a 4a 50 3f
       -1.0840123 0.31363362 0.44675648 0.8136383
000120 90 5f 22 3f e8 fe 5a 3f 23 91 2a 3f 05 31 45 3f
       0.63427067 0.85545206 0.6662771 0.7702792
000130 20 db 8d bf 83 5c 9a 3e 0a 3e 2f 3f df 30 67 3f
       -1.1082497 0.30148706 0.6845404 0.90308946
000140 0e 57 72 3f e1 33 7d 3f be 61 38 3f 18 91 88 3f
       0.94664085 0.98907286 0.7202414 1.0669279
000150 0f d2 84 3f 66 5e 2c 3f 64 09 a5 3e fa 95 63 bf
       1.0376605 0.6733154 0.32233727 -0.8890072
000160 3b 26 27 3f d3 45 6a bf b2 ae 6d 3f a5 c3 77 bf
       0.6529271 -0.91512793 0.9284469 -0.96782905
000170 02 f0 27 3f 08 b2 81 3f f4 c7 73 3f 9c a2 12 bf
       0.656006 1.0132456 0.9522698 -0.5727937
000180 f8 04 b0 3f 4a 9a 9f 3f ae 1e 60 3f 2d bd 80 3f
       1.3751516 1.246896 0.87546813 1.0057732
000190 36 f3 66 3f fb 12 85 3f d2 f9 92 bf b5 30 1b 3f
       0.9021486 1.0396417 -1.1482489 0.60621196
0001a0 25 6e bd 3e d4 db 81 3f 36 a8 2d 3f ab 8f 0d 3f
       0.36998096 1.0145211 0.67834795 0.55297345
0001b0 12 db 6d 3f 69 79 85 3f 0e 50 d4 3e d2 f4 57 3f
       0.929124 1.0427676 0.41467327 0.8435794
0001c0 f7 80 2b 3f b3 5c 5c 3f d4 20 90 3f a7 a2 23 3f
       0.6699366 0.8607895 1.1260018 0.6392006
0001d0 65 75 71 bf 04 ac 69 3f 84 bc dc 3e 30 02 9b 3f
       -0.94319755 0.912781 0.43112576 1.2110043
0001e0 4c 94 53 3f c6 df 50 3f 4e 4f 47 3f 58 bb 34 3f
       0.8264816 0.8159145 0.77855384 0.70598364
0001f0 50 ea 1b 3f a3 df 7c 3f 73 e7 a8 bf 21 b1 9e 3f
       0.6090441 0.9877874 -1.3195633 1.2397805
000200 39 c3 42 3f 6b 24 29 bf 48 97 66 3f 4d c4 20 3f
       0.76079136 -0.66071194 0.90074587 0.6279953
000210 e0 95 90 bf aa bb 58 3f c2 67 62 3f 15 37 ac 3e
       -1.1295738 0.8466135 0.8843957 0.33635774
000220 1b 96 96 bf d6 c1 a3 3f b7 2f 0f 3f 07 17 89 bf
       -1.1764559 1.2793529 0.5593218 -1.0710152
000230 82 cf 6d 3f 53 70 57 3f 26 41 5f 3f ef bc 69 3f
       0.92894757 0.8415577 0.87208784 0.91303915
000240 46 fe 86 3f c8 a4 9a 3f c1 60 c9 be a2 96 6c 3f
       1.0546348 1.2081537 -0.3933163 0.9241735
000250 4b cb 43 3f 4c 8f 89 3f
       0.76482075 1.0746856
