src/results/subject_P13/best_model.pth (torch, 481333 bytes, 15 tensors)

input_linear.weight f4 [40, 40]
0	0x3cbbf080	0.022941828
1	0xbd24c42e	-0.040226154
2	0xbd178184	-0.03698875
3	0xbe161da6	-0.14659747
4	0x3d3d5db4	0.04623194
5	0x3ddc9e52	0.10772385
6	0xbdb132e2	-0.08652283
7	0x3df3453e	0.11878441
8	0xbdde7758	-0.10862607
9	0xbd196f02	-0.03745938
10	0x3d491ec8	0.04910162
11	0xbbe7f9a0	-0.007079318
12	0xbe1c12a4	-0.15241486
13	0xbb951bc0	-0.004550427
14	0xbdac6eb0	-0.084195495
15	0xbe070bc5	-0.13188083
16	0xbd881469	-0.06644518
17	0x3c2cbd00	0.010543108
18	0x3e1fbca7	0.15599309
19	0xbdece36c	-0.11566815
20	0xbcb330c0	-0.021873832
21	0xbccc1be8	-0.02491565
22	0xbd3e3682	-0.0464387
23	0xbcf45798	-0.029826924
24	0x3df983c2	0.12183334
25	0x3bfca720	0.0077103525
26	0xbd251bee	-0.04030984
27	0x3e1c55c5	0.15267093
28	0x3da68ae0	0.08131957
29	0xbb91d820	-0.004450813
30	0xbe0af2d0	-0.13569188
31	0xbdc5721a	-0.09640904
32	0xbca316f8	-0.019908413
33	0x3e1c0179	0.15234937
34	0x3c962990	0.018330365
35	0x3e08a885	0.13345535
36	0xbdeb99fc	-0.115039796
37	0xbcaa7bb0	-0.020810932
38	0xbd20191e	-0.039086454
39	0xbdf2d9b5	-0.118579306
40	0x3cf964b8	0.030443534
41	0x3e1236dd	0.14278741
42	0xbd10305c	-0.03520237
43	0xbddf20ba	-0.10894914
44	0xbd0e417c	-0.03473042
45	0xbcb60ed8	-0.022223875
46	0xbd6ac020	-0.05731213
47	0xbe0cd0ae	-0.1375148
48	0x3dced4ba	0.10099168
49	0x3c818530	0.015810579
50	0x3d1b0e44	0.0378554
51	0x3e0104ef	0.12599538
52	0xbe118d90	-0.14214158
53	0x3c6fc330	0.014633939
54	0x3d5f0a60	0.054453254
55	0x3e13f44b	0.14448659
56	0x3e1685a9	0.14699425
57	0xbe0d781a	-0.13815346
58	0x3e08f699	0.1337532
59	0x3e0e3387	0.13886844
60	0xbe0a2ea7	-0.13494359
61	0x3c700c20	0.014651328
62	0x3df0b31a	0.11752911
63	0x3ce48658	0.027896091
64	0x3db5ffb0	0.08886659
65	0x3d1ffa54	0.03905709
66	0x3dc7d93a	0.097582296
67	0xbdfcedb3	-0.12350025
68	0x3e0b0069	0.13574375
69	0x3e0f6695	0.14003976
70	0x3b2b8840	0.002617374
71	0xbdf9d1ce	-0.1219822
72	0xbbc17000	-0.005903244
73	0xbccb8cb8	-0.024847373
74	0xbd08df5c	-0.033416137
75	0x3d597be4	0.053096667
76	0xbcd93a58	-0.026517078
77	0x3e06089d	0.13089223
78	0x3cbdc2e8	0.023164228
79	0x3e140167	0.1445366
80	0x3dec3632	0.115337744
81	0xbc8e70a0	-0.017387688
82	0x3d7b223c	0.061311945
83	0x3e16ba2b	0.14719455
84	0xbe0452af	-0.12922166
85	0x3c5a4be0	0.013323754
86	0xbdf690f6	-0.12039368
87	0x3e0ba617	0.13637577
88	0x3998ae00	0.0002912134
89	0xbd0f3c68	-0.034969717
90	0xbd979db2	-0.07403125
91	0x3c8a22e0	0.016862333
92	0xbd3ce1c2	-0.046113737
93	0x3d2ec2ec	0.04266636
94	0xbdf7e630	-0.12104452
95	0x3d990f96	0.07473676
96	0xbd8bd436	-0.068275854
97	0xbe11030d	-0.1416132
98	0x3c8f48c0	0.017490745
99	0xbe174569	-0.14772572
100	0x3dc0a486	0.0940638
101	0x3d024a84	0.031809345
102	0xbe02d82e	-0.12777779
103	0xbdf6efac	-0.120574325
104	0x3e20bf87	0.15698062
105	0xbd9eccff	-0.07753944
106	0x3c98cca0	0.01865226
107	0x3d0c3b68	0.03423634
108	0xbdcd1e50	-0.10015547
109	0x3b8474c0	0.004042238
110	0xbd91af99	-0.07113571
111	0xbd222562	-0.039586432
112	0xbe0f0e88	-0.13970387
113	0x3deb8e6a	0.11501773
114	0x3d33a54c	0.04385881
115	0x3e09608d	0.13415737
116	0xbd9bbebd	-0.0760474
117	0x3ddf642e	0.1090778
118	0x3d335e28	0.043790966
119	0xbddd34d5	-0.108010925
120	0xbddf8c10	-0.10915387
121	0x3d9b09fc	0.07570264
122	0xbe033382	-0.12812617
123	0x3c97b9c0	0.01852119
124	0x3e039fbb	0.12853901
125	0xbcda6f50	-0.026664406
126	0x3dbb2e0a	0.09139641
127	0xbd49de1a	-0.04928408
128	0xbda86b09	-0.0822354
129	0x3de23172	0.11044587
130	0xbd57d920	-0.0526973
131	0xbdec0412	-0.11524214
132	0x3df69cd6	0.12041633
133	0xbd4f0062	-0.050537474
134	0x3cf87878	0.030330881
135	0x3cb1f270	0.021722049
136	0xbc5372b0	-0.012905762
137	0x3df576d2	0.11985554
138	0x3c7970d0	0.0152246505
139	0x3d65139c	0.055926904
140	0x3df6093e	0.120134816
141	0xbdf82d3e	-0.12118004
142	0x3ddbe8de	0.10737775
143	0xbd576fba	-0.052596785
144	0xbe00c64e	-0.12575647
145	0xbd3e042c	-0.046390697
146	0xbbc29520	-0.0059381872
147	0x3d53f488	0.051746875
148	0xbd894917	-0.06703394
149	0x3dd8090a	0.10548599
150	0xbda6cbd7	-0.08144348
151	0xbd976ee5	-0.07394198
152	0x3e0b0bcd	0.1357872
153	0xbdda4c6c	-0.106591076
154	0xbd8cea19	-0.06880588
155	0xbd852f4d	-0.065031625
156	0xbda43bdb	-0.08019229
157	0xbd9acc6e	-0.07558523
158	0xbe0c30d4	-0.13690501
159	0xbb007000	-0.0019598007
160	0x3d6525e4	0.05594434
161	0xbd860bc3	-0.06545212
162	0x3e134a53	0.14383821
163	0xbdae7735	-0.08518831
164	0x3ddd2e02	0.10799791
165	0xba909280	-0.0011029989
166	0x3e0c2edd	0.13689752
167	0x3d2a8350	0.041629136
168	0x3e0c9ee7	0.13732491
169	0xbe1fe577	-0.15614878
170	0xbcd67a28	-0.026181296
171	0x3deae702	0.114698425
172	0x3da5738a	0.08078678
173	0xbe02c4d7	-0.12770401
174	0x3bcf1900	0.006320119
175	0xbe0d81e9	-0.13819088
176	0xbd8e9798	-0.06962508
177	0xbdb7c5db	-0.08973285
178	0x3df46e7e	0.11935137
179	0xbc8371e8	-0.016045526
180	0xbc959940	-0.018261552
181	0xbe04560a	-0.12923446
182	0x3d4d6008	0.05014041
183	0x3d6bdf64	0.05758609
184	0x3e0976cd	0.13424225
185	0xbcd67238	-0.02617751
186	0xbe0d05ce	-0.13771746
187	0x3e0ea639	0.13930596
188	0x3c8d4c70	0.017248362
189	0x3dd53e32	0.104122534
190	0xbde1dfc4	-0.11029008
191	0x3df41512	0.11918081
192	0xbdb6608f	-0.08905136
193	0xbdd78426	-0.10523252
194	0x3d36be94	0.044615343
195	0xbe0064fa	-0.1253852
196	0xbdc5c8b3	-0.09657421
197	0xbe155100	-0.1458168
198	0xbd8ac303	-0.06775477
199	0xbcabd400	-0.020975113
200	0x3d81ef2e	0.06344448
201	0x3de8b1ea	0.113620594
202	0xbd7e968a	-0.062155284
203	0xbd9dcd5e	-0.07705186
204	0x3e195239	0.14972772
205	0xbe0d5fe2	-0.13806108
206	0x3d9f95d8	0.07792252
207	0xbdc2f7ac	-0.09519896
208	0xbd10c788	-0.035346538
209	0x3d270610	0.040777266
210	0xbe18a078	-0.14904964
211	0xbd287cd6	-0.041134678
212	0x3d596974	0.053079084
213	0x3c26ef90	0.010188952
214	0x3e20eeff	0.1571617
215	0xbdb4e3df	-0.088325255
216	0xbdd80fbe	-0.105498776
217	0x3d96e9e2	0.07368828
218	0x3dffd41a	0.12491627
219	0xbe0f35d6	-0.1398538
220	0x3d0b5ea4	0.034025803
221	0xbd8ae9e6	-0.06782894
222	0xbda44e95	-0.08022801
223	0x3e0aefb1	0.13567998
224	0xbe143451	-0.14473082
225	0xbc2c53b0	-0.0105179995
226	0xbc9f46b8	-0.019442901
227	0xbe0f517c	-0.13995928
228	0xbe007763	-0.12545542
229	0x3b2aef80	0.0026082695
230	0xbd9a1208	-0.075229704
231	0xbd5102f6	-0.051028214
232	0x3ce84f08	0.028357998
233	0xbdda9604	-0.106731445
234	0x3e10f543	0.1415606
235	0xbe038ba1	-0.12846233
236	0xbdf05484	-0.1173487
237	0xbdc1c3a0	-0.09461141
238	0x3c3e75e0	0.011624783
239	0xbe117299	-0.14203872
240	0xbe0b8f75	-0.13628943
241	0x3d6b4cc8	0.05744627
242	0xbd078c1c	-0.033092603
243	0xbbf2bfe0	-0.007408127
244	0x3e001fdf	0.12512158
245	0x3df1e0b6	0.11810438
246	0xbc9ba1f0	-0.018998116
247	0x3d788ba4	0.060680047
248	0x3d290b18	0.041270345
249	0x3e0cf80d	0.13766499
250	0x3dbc2bec	0.09188065
251	0xbe0acbe8	-0.13554347
252	0x3cf61cd0	0.030043036
253	0x3e0db171	0.1383722
254	0x3de7373e	0.112898335
255	0x3d99fb0a	0.07518585

input_linear.bias f4 [40]
0	0x3c921690	0.017833024
1	0x3c50d1c0	0.012745321
2	0xbc98a868	-0.01863499
3	0xbc6438e0	-0.013929576
4	0x3e0aa5f1	0.13539864
5	0xbe1b199c	-0.15146488
6	0x3db639c2	0.08897735
7	0xbd9bbb7f	-0.076041214
8	0xbdf022d4	-0.11725393
9	0x3c27b940	0.010237038
10	0xbda04b56	-0.07826869
11	0x3da81c92	0.08208574
12	0xbd630fe2	-0.05543507
13	0xbc8e54c8	-0.017374411
14	0xbe15891a	-0.14603081
15	0xbdd3cbc5	-0.103416
16	0x3da1a788	0.07893282
17	0x3e0df8e9	0.13864483
18	0x3d8a7060	0.06759715
19	0xbd87a6e6	-0.0662363
20	0x3da7fa9e	0.08202098
21	0x3e1559af	0.14584993
22	0x3e1fd421	0.15608265
23	0xbe1f884b	-0.15579335
24	0x3cc63870	0.024196833
25	0xbdae8c6a	-0.085228756
26	0x3e1b827b	0.15186493
27	0xbdbfe147	-0.0936914
28	0xbdf24896	-0.11830251
29	0xbd194284	-0.03741695
30	0xbdee4baa	-0.116355255
31	0xbd5cb4ca	-0.05388335
32	0x3d87999c	0.066210955
33	0x3ccd8428	0.025087431
34	0x3e188301	0.14893724
35	0xbc5fd9b0	-0.013662741
36	0xbe1e849b	-0.15480272
37	0xbd9deeb0	-0.07711542
38	0x3e1de01d	0.15417524
39	0x3e111f73	0.14172153

lstm.weight_ih_l0 f4 [600, 40]
0	0x3e6187d0	0.22024465
1	0xbebb2bf6	-0.36556977
2	0xbf48b341	-0.7839852
3	0xbf526c91	-0.8219691
4	0xbee40ac1	-0.44539455
5	0xbf469861	-0.7757626
6	0xbf496357	-0.78667206
7	0x3f48600b	0.7827155
8	0x3f344fcc	0.7043426
9	0x3f4a5b0d	0.7904518
10	0xbf2be934	-0.67152715
11	0x3f7b2f31	0.98118883
12	0xbeded848	-0.43524384
13	0xbf456698	-0.7710967
14	0x3f86dd44	1.0536275
15	0x3e3bb84b	0.18332021
16	0xbd6bc29e	-0.05755865
17	0xbf2ad78d	-0.66735154
18	0xbf2ee387	-0.6831593
19	0xbf4a1849	-0.78943306
20	0xbf4553da	-0.7708107
21	0xbf4b4c66	-0.7941345
22	0x3f31f41a	0.69513094
23	0x3d85781d	0.065170504
24	0xbf49eb4f	-0.7887468
25	0xbeb16aa8	-0.34651685
26	0xbeb18d2e	-0.34678024
27	0xbea95560	-0.33072948
28	0xbf27b410	-0.6550913
29	0xbf17a1fa	-0.5923153
30	0xbf24fdb5	-0.64449626
31	0xbf4504ad	-0.7696026
32	0xbf2b35e1	-0.6687909
33	0xbd473e7b	-0.04864357
34	0x3f398656	0.72470605
35	0x3d70f687	0.058828857
36	0xbf486a65	-0.78287345
37	0xbe85d78d	-0.26141015
38	0x3e0f95d2	0.14021996
39	0x3f8976b5	1.0739352
40	0xbe0f17dd	-0.13973947
41	0xbf8d7714	-1.1051965
42	0xbf73ec58	-0.95282507
43	0xc00c31e6	-2.1905456
44	0xbfabad6f	-1.3412303
45	0xbf7123ac	-0.94195056
46	0xbf6ea348	-0.932179
47	0x3f7451ae	0.95437133
48	0x3f679f47	0.9047741
49	0x3f7743bb	0.96587723
50	0xbf9a4665	-1.2052733
51	0xbf0f0ba5	-0.55877143
52	0xbe5fabae	-0.21842834
53	0xbf7a3341	-0.9773446
54	0x40135000	2.3017578
55	0x3f4c637e	0.79839313
56	0xbf8f6652	-1.1203101
57	0xbf9d13f1	-1.2271711
58	0xbf9c31f6	-1.2202747
59	0xbf70ef69	-0.9411531
60	0xbf788356	-0.970754
61	0xbf74f53a	-0.95686686
62	0xbeb03c35	-0.34420934
63	0x3d45aa14	0.048257902
64	0xbf72a5a9	-0.9478403
65	0x3f374457	0.71588653
66	0x3ecfa847	0.40558073
67	0xbbc913cd	-0.0061363936
68	0xbf9d283e	-1.2277906
69	0x3ef71830	0.4826064
70	0xbf9b7e9d	-1.2148014
71	0xbf760291	-0.96097666
72	0xbf9c6da9	-1.2220966
73	0xbf8e6bb9	-1.1126624
74	0xbeaef581	-0.3417168
75	0x3d935f7b	0.07195946
76	0xbf7ae8b7	-0.98011345
77	0xbf35daaa	-0.7103678
78	0xbdb92747	-0.09040695
79	0x401188a4	2.273965
80	0xbf2832a2	-0.6570226
81	0x3ef8e69c	0.4861344
82	0x3ea0acf2	0.31381947
83	0x3eaeb159	0.3411968
84	0x3ea73094	0.3265425
85	0x3eb25c86	0.34836215
86	0x3eadf983	0.33979425
87	0xbeae501f	-0.34045503
88	0xbeb0a46a	-0.34500438
89	0xbeaee5a1	-0.34159568
90	0x3e301f77	0.17199503
91	0xbde90a44	-0.11378911
92	0x3e5e8b67	0.21732865
93	0x3eacd974	0.33759654
94	0xbf0a3972	-0.53993905
95	0x3ed0d237	0.4078538
96	0x3f0c92c8	0.5491147
97	0x3e0e6e67	0.13909303
98	0x3e25ad99	0.16179504
99	0x3e9d1fa5	0.30688205
100	0x3ea9cbeb	0.3316339
101	0x3eae8178	0.34083152
102	0xbe72f24f	-0.23725246
103	0xbf18a73c	-0.5963018
104	0x3ea48675	0.32133833
105	0x3d02070b	0.031744998
106	0x3ea6c41f	0.32571504
107	0x3f56a773	0.8384926
108	0x3e108514	0.14113265
109	0xbe441c35	-0.19151385
110	0x3e0c3028	0.13690245
111	0x3eadf869	0.33978584
112	0x3e0aaa64	0.13541561
113	0x3f12b34d	0.5730484
114	0xbe6d6cc0	-0.23186016
115	0xbf13ce4a	-0.5773665
116	0x3eafdaf3	0.34346732
117	0xbe858f4b	-0.26085886
118	0x3e3cfc1f	0.18455552
119	0xbf1256c5	-0.5716365
120	0xbe8ad005	-0.2711183
121	0x3f92d18f	1.1470202
122	0x3f1d684a	0.6148726
123	0x3f9fca5e	1.2483633
124	0x3fbc9fcd	1.4736267
125	0x3f18be22	0.5966512
126	0x3f1810f4	0.5940087
127	0xbf1bf999	-0.6092773
128	0xbf101c5e	-0.56293285
129	0xbf1d408f	-0.61426634
130	0x3f38dd79	0.7221294
131	0x3f37ae54	0.7175038
132	0x3dfcc020	0.123413324
133	0x3f1a9ef2	0.6039878
134	0xbfd9daae	-1.7019861
135	0xbf86158c	-1.0475326
136	0x3ed546cd	0.4165558
137	0x3f32813e	0.6972846
138	0x3f2cda78	0.67520857
139	0x3f1e2716	0.6177839
140	0x3f1a4b53	0.60271186
141	0x3f23b360	0.6394558
142	0x3e57a3cb	0.21058576
143	0x3ea26333	0.31716308
144	0x3f227f19	0.63475186
145	0xbf1120aa	-0.56690466
146	0xbe8a37d9	-0.26995733
147	0xbea21e0d	-0.31663552
148	0x3f32ad13	0.6979534
149	0xbe236499	-0.15956344
150	0x3f37960b	0.7171332
151	0x3f24a427	0.64312977
152	0x3f335b97	0.7006163
153	0x3ed46c9d	0.41489115
154	0x3e5fcff0	0.21856666
155	0x3ea49a73	0.32149085
156	0x3f227db2	0.63473046
157	0x3cc658f6	0.024212342
158	0x3c694020	0.01423648
159	0xbfda5904	-1.7058415
160	0xbe0c6535	-0.13710482
161	0xbebbb154	-0.36658728
162	0xbe579714	-0.21053725
163	0x3e98fe8e	0.2988171
164	0xbd20aae8	-0.03922549
165	0xbe3b9e94	-0.18322212
166	0xbe41e633	-0.1893547
167	0x3e3cd6ab	0.18441264
168	0x3e808d3f	0.25107762
169	0x3e5d17e1	0.2159114
170	0xbe4c90fc	-0.19977182
171	0x3e11eb71	0.1424997
172	0xbe6e4239	-0.2326745
173	0xbe43c223	-0.19117026
174	0xbe92f1b2	-0.28700024
175	0xbf9b8f86	-1.2153175
176	0xbf500391	-0.8125544
177	0xbe393f7a	-0.1809062
178	0xbe4fc20b	-0.20288865
179	0xbe361837	-0.17782675
180	0xbe5a62a5	-0.21326692
181	0xbe37c14d	-0.17944832
182	0x3db453c8	0.088050425
183	0xbe7ce9cf	-0.24698566
184	0xbe490ef8	-0.19634616
185	0x3e284ce4	0.16435581
186	0xbe055ad3	-0.13022928
187	0xbc17cb10	-0.0092647225
188	0xbe32a090	-0.17444062
189	0xbd20bf4b	-0.03924493
190	0xbe47e390	-0.19520402
191	0xbe3c351e	-0.18379638
192	0xbe4a8fd8	-0.19781435
193	0xbf51322e	-0.81717193
194	0x3daea175	0.08526889
195	0xbe79cec7	-0.24395286
196	0xbe501104	-0.20318991
197	0xbf1722f4	-0.5903771
198	0xbf0915a9	-0.53548676
199	0xbe9fbebe	-0.31200212
200	0xbe759aea	-0.23984876
201	0x3d87ea79	0.06636519
202	0x3e93e66b	0.28886732
203	0xbd01f0e3	-0.031723868
204	0xbc8c3cb8	-0.017118797
205	0x3e82b54d	0.25528947
206	0x3e8d68f7	0.27619144
207	0xbe8fa5b9	-0.28056124
208	0xbe9829b2	-0.2971931
209	0xbe803404	-0.25039685
210	0x3eb5bdaa	0.35496265
211	0x3d7dc6fc	0.061957344
212	0x3dc87256	0.09787433
213	0x3e8335aa	0.2562688
214	0xbe92814a	-0.28614265
215	0x3e1b1206	0.15143594
216	0xbe1b3767	-0.15157853
217	0x3ea3b5f3	0.31974754
218	0x3eaf36b7	0.34221432
219	0x3e8f7f73	0.28026924
220	0x3e84e1c6	0.259535
221	0x3e912d44	0.28354847
222	0xbf08160b	-0.53158635
223	0x3efeb607	0.4974825
224	0x3e949173	0.2901722
225	0xbe93be9f	-0.2885637
226	0xbe29a8d0	-0.16568303
227	0xbea503fb	-0.322296
228	0x3eabc53d	0.33548918
229	0x3e31fd54	0.17381793
230	0x3eb043dc	0.34426773
231	0x3e80ceb6	0.25157708
232	0x3ea4b932	0.32172543
233	0xbe3f0a2c	-0.18656224
234	0xbf08f214	-0.5349438
235	0x3ef53c62	0.4789763
236	0x3e879f91	0.26488927
237	0xbe396db8	-0.1810826
238	0xbdaea322	-0.08527209
239	0xbe861a0f	-0.26191756
240	0xbd888038	-0.06665081
241	0x3e90c2b9	0.28273562
242	0x3c999b3a	0.018750776
243	0x3f9aa3e2	1.2081263
244	0x3f0cc709	0.54991204
245	0x3cc6183d	0.02418148
246	0x3d68ff81	0.056884293
247	0xbd220724	-0.03955759
248	0x3cf30a24	0.029667921
249	0xbba1ec88	-0.004941527
250	0x3e9f7e2c	0.3115095
251	0x3f0f45dd	0.5596598
252	0xbe2ab5a5	-0.16670854
253	0x3ceb4f7c	0.028724425
254	0xbf981965	-1.188275
255	0xbf31d9cf	-0.69472975

lstm.weight_hh_l0 f4 [600, 150]
0	0x3da61569	0.081095524
1	0xbe2b09c6	-0.16702947
2	0x3f6158de	0.88026226
3	0x3edb1856	0.42792004
4	0x3f133993	0.57509726
5	0xbf6edd94	-0.9330685
6	0x3ee4a7ba	0.44659215
7	0x3f7149c7	0.942532
8	0x3f3286b8	0.69736814
9	0x3f255232	0.64578545
10	0x3ee86193	0.45386943
11	0x3f37038b	0.7148978
12	0x3f00bfa3	0.50292414
13	0xbf5917fe	-0.84802234
14	0x3f2cae2c	0.67453265
15	0xbcee997f	-0.029125927
16	0x3f589a95	0.84610873
17	0xbdd11a7a	-0.10210128
18	0x3f182001	0.59423834
19	0x3c0d9e5f	0.008643716
20	0x3f30a0f1	0.6899558
21	0xbe9fd5b4	-0.3121773
22	0xbe139562	-0.14412454
23	0x3f4f4744	0.8096812
24	0x3ec160e0	0.37769222
25	0x3f42d1d2	0.7610141
26	0xbe8ab43a	-0.27090627
27	0x3f14f5bc	0.5818746
28	0xbea927d9	-0.33038214
29	0x3f24cc9b	0.64374703
30	0xbf22ddb1	-0.63619524
31	0xbec83b83	-0.39107904
32	0x3e1436f4	0.14474088
33	0xbdaed2eb	-0.08536323
34	0x3b254721	0.0025219398
35	0xbbe25dd4	-0.006908158
36	0xbedc3101	-0.43006137
37	0xbf27084f	-0.6524705
38	0x3f16324d	0.586705
39	0x3c963e7d	0.018340344
40	0xbf2e0d8b	-0.67989415
41	0xbec372f4	-0.3817364
42	0x3f458e3f	0.77170175
43	0x3f3b3a9a	0.73136294
44	0xbf0ab1b9	-0.54177433
45	0x3f2c9d58	0.6742759
46	0x3f457209	0.7712713
47	0xbec89197	-0.39173576
48	0xbef14f67	-0.47130892
49	0xbf106124	-0.56398225
50	0xbe8a6ed8	-0.27037692
51	0x3dcb2dbd	0.09920833
52	0x3e8ba8e1	0.27277282
53	0xbeafa692	-0.3430677
54	0xbf48561f	-0.7825641
55	0x3f20eb0c	0.62858653
56	0x3f2d935c	0.6780298
57	0x3f0e9897	0.55701584
58	0x3f2b932f	0.6702146
59	0x3f4ab079	0.79175526
60	0xbe893a36	-0.26802224
61	0x3f12ba00	0.57315063
62	0x3e096779	0.13418378
63	0xbe4eb003	-0.2018433
64	0x3f309cc7	0.68989223
65	0xbf099252	-0.5373889
66	0xbf7fc57b	-0.99910706
67	0x3ef26767	0.47344515
68	0xbeec8c40	-0.46200752
69	0x3f05c882	0.52259076
70	0xbf5e68ef	-0.86878866
71	0x3d3b33a2	0.045703538
72	0x3ee78f95	0.45226732
73	0xbe18400b	-0.1486818
74	0x3ee8c338	0.4546144
75	0xbdf0b0a4	-0.117524415
76	0xbe985f9a	-0.29760438
77	0x3dc7ffbf	0.097655766
78	0x3e125c0f	0.1429293
79	0x3f0c0435	0.5469392
80	0x3f432f75	0.7624429
81	0x3f0d0c5f	0.55097
82	0x3e47c552	0.19508865
83	0xbfad280d	-1.3527848
84	0x3e63ea78	0.22257411
85	0x3e1b681e	0.15176436
86	0x3f13843d	0.57623655
87	0xbf4051a8	-0.751246
88	0xbebc6a71	-0.36799958
89	0xbecbb064	-0.39783013
90	0xbf5d68ea	-0.8648821
91	0xbdbd778a	-0.09251316
92	0x3e9c689f	0.3054857
93	0x3e6247e5	0.22097738
94	0xbf3e73f8	-0.74395704
95	0xbf0f695e	-0.5602015
96	0xbea83ce8	-0.32858968
97	0x3cc5e63e	0.02415764
98	0x3e2ccd8c	0.16875285
99	0x3e87d72a	0.26531345
100	0x3eccac7e	0.3997535
101	0x3f0fb837	0.56140465
102	0x3ef09766	0.46990508
103	0xbf00a23a	-0.5024754
104	0xbe2e95de	-0.17049357
105	0x3ec0ce4f	0.376574
106	0x3ea33de9	0.3188317
107	0xbf8fe8ce	-1.1242921
108	0xbe43b365	-0.19111402
109	0x3e94c4eb	0.29056486
110	0x3e6e85bc	0.23293203
111	0xbea35fe2	-0.3190909
112	0x3f5acbf2	0.85467446
113	0xbebb9cfb	-0.36643204
114	0x3e3ba513	0.1832469
115	0x3edb6d91	0.4285703
116	0x3e0b65f2	0.13613108
117	0x3d9c2731	0.07624663
118	0x3f857b08	1.0428171
119	0x3f3a9125	0.7287772
120	0xbe7cd9b1	-0.24692418
121	0x3f3c675f	0.7359523
122	0xbd310de9	-0.043226156
123	0x3f33c4c7	0.70222133
124	0xbe19facd	-0.15037079
125	0x3e21c4ac	0.1579768
126	0x3e4e14ba	0.20125094
127	0x3f004db2	0.50118554
128	0xbf4cc6b0	-0.79990673
129	0xbe7e48a9	-0.24832405
130	0x3f48e6ea	0.78477347
131	0xbee234ef	-0.4418101
132	0x3f571858	0.8402152
133	0xbf1b3c0a	-0.6063849
134	0x3ea6834c	0.32522047
135	0xbf1cd9f5	-0.61270076
136	0xbf838783	-1.027573
137	0x3d6a1fcc	0.05715923
138	0xbf20e439	-0.6284824
139	0x3f117889	0.5682455
140	0xbf17b79c	-0.5926454
141	0xbe4dc765	-0.20095594
142	0xbea011b9	-0.3126352
143	0xbbb6878c	-0.0055703577
144	0x3e298864	0.16555935
145	0xbeba765c	-0.36418426
146	0x3e7c4e39	0.24639215
147	0x3de37ce0	0.111078024
148	0xbe064660	-0.13112783
149	0x3f2e926c	0.6819217
150	0xbe5d7d7b	-0.21629898
151	0xbf505d40	-0.8139229
152	0x3ecd688b	0.40118822
153	0x3eaab1d6	0.33338803
154	0x3e5a077c	0.21291918
155	0xbe8c3d53	-0.27390537
156	0x3ebb3d49	0.36570194
157	0x3d9cb2ef	0.076513164
158	0x3edb160f	0.42790267
159	0x3ee81606	0.45329303
160	0x3e2d83d2	0.16944817
161	0x3e8f9d5f	0.28049752
162	0x3ec59b0b	0.3859485
163	0x3cb4d81d	0.022075707
164	0x3eeaad5d	0.4583539
165	0xbe76d08e	-0.24102995
166	0x3eb80cf5	0.35947385
167	0xbcbe8282	-0.02325559
168	0x3eec6000	0.46166992
169	0xbd5bcc0a	-0.053661384
170	0x3eb24cfd	0.34824362
171	0x3daccb2d	0.0843719
172	0x3eae9502	0.3409806
173	0x3edf9b95	0.43673387
174	0x3f0c05ec	0.54696536
175	0x3ecc6694	0.3992201
176	0x3dafd5fc	0.08585736
177	0x3efa66db	0.48906597
178	0x3eaa180a	0.33221465
179	0x3ec7d11f	0.39026734
180	0xbd2a2e5d	-0.04154812
181	0x3eec04b4	0.46097338
182	0xbc2cd2dc	-0.01054832
183	0xbe61e2fb	-0.22059242
184	0x3f45ff4a	0.77342665
185	0x3eb31af9	0.34981516
186	0x3e9c7053	0.30554447
187	0xbea43d52	-0.32078034
188	0x3d9a717c	0.07541177
189	0x3afb2560	0.0019160919
190	0xbe20a467	-0.15687715
191	0x3c84116b	0.016121587
192	0x3eb3d037	0.35119793
193	0x3ed4d0b1	0.4156547
194	0xbe7f7b40	-0.2494936
195	0x3ed7f29b	0.4217728
196	0x3ead10c6	0.3380186
197	0xbf8a4b17	-1.0804166
198	0x3d03ccd0	0.032177746
199	0x3f02bb09	0.51066643
200	0x3f3abe2f	0.7294645
201	0xbe601032	-0.21881178
202	0x3e183cec	0.1486699
203	0xbe89faad	-0.26949063
204	0xbe8cb6ac	-0.27483118
205	0x3ecc2568	0.3987229
206	0xbd9c6259	-0.07635946
207	0x3c0d6f56	0.008632502
208	0x3f657410	0.8963022
209	0x3ef9c8a1	0.4878588
210	0x3eb22ede	0.34801382
211	0x3e9004d8	0.28128695
212	0xbeee7d2b	-0.4657987
213	0xbe7e8fac	-0.24859494
214	0x3eb8c94a	0.3609107
215	0xbee2f53a	-0.44327718
216	0xbed9b56c	-0.42521226
217	0xbf283508	-0.6570592
218	0xbf00a639	-0.50253636
219	0xbeb840aa	-0.35986835
220	0xbec8ee8e	-0.39244503
221	0x3c3514f0	0.011052355
222	0x3f200ce5	0.62519675
223	0x3f0d3052	0.55151856
224	0x3ef05786	0.46941775
225	0x3e51cca8	0.20488226
226	0x3db2a5c1	0.08723021
227	0xbf94bc93	-1.1620048
228	0x3f0f514e	0.55983436
229	0x3e7ea481	0.24867441
230	0x3ed333de	0.4125051
231	0x3d0217a8	0.03176084
232	0x3ee45f72	0.4460407
233	0x3d275381	0.04085112
234	0x3dba9873	0.09111109
235	0xbf28af64	-0.65892625
236	0x3f0981fe	0.5371398
237	0x3e8a053d	0.26957121
238	0xbe513a16	-0.20432314
239	0x3e707c59	0.23484935
240	0xbde1e9e0	-0.11030936
241	0x3f80eb5d	1.0071827
242	0x3e225705	0.15853508
243	0x3d9c6e56	0.076382324
244	0x3de38daf	0.111110084
245	0xbf3dfe14	-0.7421582
246	0x3e9ad75b	0.30242428
247	0x3e7680df	0.24072598
248	0xbeb6291c	-0.3557824
249	0x3ea273b8	0.3172891
250	0x3ee400f5	0.4453198
251	0xbe6b235c	-0.22962707
252	0x3b3a7ffb	0.002845763
253	0xbf17ea6d	-0.5934208
254	0xbe1b8cda	-0.1519045
255	0x3db8da07	0.090259604

lstm.bias_ih_l0 f4 [600]
0	0xbf443c58	-0.7665458
1	0xbf74c880	-0.9561844
2	0x3e9df1e1	0.308486
3	0x3f253b59	0.6454368
4	0xbe2fc21a	-0.17163888
5	0x3e895029	0.2681897
6	0x3d02c582	0.03192664
7	0xbe593e2c	-0.21215123
8	0x3e41b614	0.18917114
9	0x3e31e656	0.17373022
10	0xbe5dc9f3	-0.21659069
11	0x3e027988	0.12741673
12	0x3e5aa0f0	0.21350455
13	0x3dc83e42	0.097775
14	0x3e02d1a7	0.12775289
15	0x3f10fe6e	0.5663823
16	0x3b2d0a5a	0.0026403875
17	0x3d3b767a	0.045767285
18	0x3c484f4d	0.012225938
19	0xbcdc53c6	-0.026895415
20	0x3e5ff426	0.21870479
21	0x3e8bde37	0.27317974
22	0xbe0a81a1	-0.13526012
23	0x3e9efbea	0.3105157
24	0x3f399a64	0.72501206
25	0x3da4f472	0.08054437
26	0x3e9b9a7d	0.30391303
27	0x3d0039f7	0.03130528
28	0xbf6a00e5	-0.91407615
29	0x3eb0d93c	0.34540737
30	0xbee858b6	-0.4538018
31	0x3e89bc3f	0.26901433
32	0x3d8f399c	0.0699341
33	0x3e3200cd	0.17383118
34	0x3e5ef0db	0.21771567
35	0xbd9570fb	-0.0729694
36	0xbea3a0ca	-0.3195861
37	0xbe97042a	-0.29495364
38	0x3c95d31c	0.018289141
39	0xbe63d63e	-0.22249696
40	0x3f224da3	0.63399714
41	0xbe4d4471	-0.2004564
42	0x3ed0b98e	0.40766567
43	0x3f403cf2	0.75092995
44	0xbe411c75	-0.18858512
45	0x3ebcda1a	0.36885148
46	0x3e671447	0.22566329
47	0x3e7c99eb	0.2466809
48	0x3e86f898	0.26361537
49	0x3df964f9	0.12177462
50	0xbf093732	-0.53599846
51	0x3d87ffd3	0.066405915
52	0x3e8e1c9b	0.277562
53	0x3e84bc9e	0.25925153
54	0xbe45e34b	-0.19324987
55	0xbf151e58	-0.58249426
56	0x3e3863b7	0.18006788
57	0x3f10e298	0.56595755
58	0x3e1265f3	0.14296703
59	0x3f2328af	0.63733953
60	0xbd4c28e5	-0.049843688
61	0x3f0e8865	0.5567687
62	0x3d668a39	0.056284163
63	0x3e288fb2	0.16461065
64	0x3d0817e9	0.033225928
65	0x3e70525e	0.2346892
66	0x3e1ebb8c	0.15501231
67	0x3e387d14	0.18016464
68	0xbe3cd202	-0.18439487
69	0x3d267f00	0.04064846
70	0x3e775e7e	0.2415714
71	0xbeb55bc1	-0.35421565
72	0x3ee02a60	0.4378233
73	0x3f92d8f5	1.147246
74	0x3f013790	0.50475407
75	0x3dcf7fae	0.10131775
76	0x3ec23edd	0.37938586
77	0x3d35fb88	0.044429332
78	0xbda7bc49	-0.081902094
79	0x3e8b5167	0.27210543
80	0x3eb6112c	0.35559976
81	0x3e6e4790	0.23269486
82	0x3ef64e50	0.48106623
83	0x3eb9cd0f	0.3628926
84	0x3e97b851	0.2963281
85	0xbe2aaaac	-0.16666669
86	0x3ecb20ce	0.39673465
87	0x3e0d7799	0.13815154
88	0xbe092732	-0.13393858
89	0xbe75fca5	-0.24022157
90	0xbf70923c	-0.93973136
91	0xbf185fe3	-0.5952131
92	0xbef6d3bb	-0.48208413
93	0xbeb41d18	-0.35178447
94	0xbf38a313	-0.7212383
95	0xbf7d65db	-0.98983544
96	0xbf03d203	-0.5149233
97	0xbef4e4dd	-0.4783086
98	0x3efcc129	0.4936612
99	0x3dea678d	0.11445532
100	0x3e7b7b0e	0.2455866
101	0xbe28b750	-0.16476178
102	0xbbe47683	-0.0069721355
103	0xbc35b47c	-0.011090394
104	0xbe24a68b	-0.16079156
105	0x3f3f776f	0.74791616
106	0x3eb0a2ea	0.34499294
107	0x3ef07f14	0.46971953
108	0xbeb3e4ae	-0.35135406
109	0x3e47c9ba	0.19510546
110	0xbe975418	-0.29556346
111	0xbf7a93c8	-0.97881746
112	0x3e0c50a2	0.13702634
113	0x3e214845	0.15750225
114	0xbe087cce	-0.13328859
115	0x3c870385	0.01648117
116	0x3e81dcd7	0.253638
117	0xbd591f05	-0.0530081
118	0x3d5294ab	0.051411312
119	0xbf0ecd2e	-0.5578183
120	0xbc85fb03	-0.016355043
121	0x3e1a722b	0.15082614
122	0x3e74b969	0.23898853
123	0x3f5c8523	0.8614065
124	0xbe47a6e2	-0.19497254
125	0xbee5d15a	-0.44886285
126	0x3f05ce08	0.52267504
127	0xbcef55f1	-0.029215785
128	0x3dd43e0b	0.10363396
129	0x3ed9cdec	0.42539918
130	0x3e19e6e2	0.15029481
131	0xbe2742d0	-0.1633408
132	0x3d67ee40	0.056623697
133	0x3f17428a	0.59085906
134	0xbf7ad039	-0.9797397
135	0x3dfbb99e	0.12291263
136	0x3ec5b554	0.38614905
137	0x3d160b1a	0.03663168
138	0x3e579756	0.21053824
139	0x3e4a8cc2	0.19780257
140	0x3e89c0cb	0.26904902
141	0xbd9ca73f	-0.07649087
142	0x3e13e12b	0.14441364
143	0x3e65659e	0.22402045
144	0x3e5eba55	0.21750768
145	0x3e399873	0.18124561
146	0x3d813857	0.06309574
147	0x3f394eb9	0.72385746
148	0xbf2881d1	-0.65823084
149	0x3e3d1f60	0.18469
150	0xbe859f62	-0.26098162
151	0xbc894bbd	-0.016759748
152	0x3ec20b0f	0.37899062
153	0x3f20b6ae	0.6277875
154	0x3e70b079	0.23504819
155	0xbf30143e	-0.6878089
156	0xbc99ad9f	-0.018759547
157	0xbe76dbe7	-0.24107324
158	0x3ea77741	0.3270817
159	0x3dafbd5b	0.085810386
160	0x3e864242	0.26222426
161	0x3e7e143e	0.2481241
162	0x3f2d12ef	0.67607015
163	0x3e9f501a	0.311158
164	0x3e80a63b	0.25126824
165	0xbecba54a	-0.39774543
166	0xbe58eaac	-0.2118327
167	0xbe020c61	-0.12700035
168	0x3eab9f7f	0.33520123
169	0xbe0a19c8	-0.13486397
170	0x3d01044c	0.03149824
171	0x3de485d1	0.11158336
172	0x3ee4aa68	0.4466126
173	0x3e0a6bbc	0.1351766
174	0xbf000197	-0.50002426
175	0x3e4dd4c0	0.20100689
176	0xbe56aa9a	-0.20963517
177	0x3e260e93	0.16216497
178	0x3e20f4ad	0.15718336
179	0x3ec39e44	0.38206685
180	0x3e556be1	0.20841934
181	0x3f061146	0.5237011
182	0xbd8c6cc4	-0.06856683
183	0xbc44b1d7	-0.012005291
184	0x3e8f64a3	0.28006467
185	0xbd06835b	-0.032840114
186	0xbe8d60f0	-0.2761302
187	0x3dd71fc5	0.105041064
188	0xbe8235a6	-0.25431556
189	0xbddda4f8	-0.10822481
190	0xbdf4be2f	-0.11950337
191	0xbe94ddf6	-0.29075593
192	0x3e552080	0.20813179
193	0xbe45381d	-0.19259687
194	0xbe71a5f4	-0.23598462
195	0x3f03e5e0	0.51522636
196	0x3e2b74b0	0.16743731
197	0xbec06ebc	-0.37584484
198	0x3e1af426	0.15132198
199	0xbe2f324c	-0.1710903
200	0xbdf6bd85	-0.12047867
201	0xbc91cc33	-0.017797565
202	0xbc84de1f	-0.016219197
203	0xbeacb165	-0.3372909
204	0xbd244ccb	-0.040112298
205	0xbf1fe523	-0.6245901
206	0xbde8b7d9	-0.11363191
207	0xbed56b1d	-0.41683283
208	0x3f117413	0.5681774
209	0x3e0cf12d	0.13763876
210	0xbde72e9b	-0.11288186
211	0xbeec53f7	-0.4615781
212	0x3d208be7	0.03919592
213	0x3f214740	0.62999344
214	0x3e58c644	0.21169382
215	0x3e9155df	0.28385827
216	0xbe4cd155	-0.20001729
217	0xbf036856	-0.5133108
218	0x3e39c166	0.18140182
219	0x3d2153db	0.03938661
220	0xbf2fd97a	-0.6869122
221	0xbeddb36a	-0.43300945
222	0x3e8056e3	0.2506629
223	0xbf10313d	-0.5632513
224	0x3e5e6a90	0.21720338
225	0x3e004814	0.12527496
226	0x3ec5d1c1	0.38636592
227	0xbe0683b8	-0.13136184
228	0x3d9eebd6	0.07759826
229	0x3e19ce25	0.15020044
230	0x3dd0e40d	0.10199747
231	0x3e4183f4	0.18897992
232	0xbeb8c290	-0.3608594
233	0x3e8da75d	0.2766675
234	0x3e9eeba3	0.31039152
235	0xbe6005a2	-0.21877149
236	0x3f5d2d49	0.86397225
237	0x3d129268	0.035784155
238	0x3e06e040	0.13171482
239	0xbeb6ac6d	-0.35678425
240	0x3e387d7c	0.18016618
241	0xbdc06b3a	-0.09395452
242	0x3e18542a	0.14875856
243	0xbe95f12b	-0.2928556
244	0x3e814b15	0.25252596
245	0x3f516dfd	0.81808454
246	0x3bebd77d	0.007197319
247	0xbf03eed1	-0.5153628
248	0x3eb170d0	0.34656382
249	0x3dc5d025	0.09658841
250	0xbd7dc256	-0.06195291
251	0x3f166052	0.58740723
252	0x3e15f6f8	0.14644992
253	0x3e7cc9b3	0.24686317
254	0x3ea475a4	0.32121003
255	0xbf104c6c	-0.5636661

lstm.bias_hh_l0 f4 [600]
0	0xbf47de4d	-0.7807358
1	0xbf74dba0	-0.9564762
2	0x3ea57d41	0.32322124
3	0x3f1e4fa1	0.61840254
4	0xbe515d27	-0.20445691
5	0x3e8f6081	0.28003314
6	0x3caeaca8	0.021322563
7	0xbe5b53d4	-0.21418697
8	0x3e27c92e	0.16385338
9	0x3e5394f6	0.20662293
10	0xbe58cfed	-0.21173067
11	0x3df696e9	0.120405026
12	0x3e593277	0.21210657
13	0x3e0b81bf	0.13623713
14	0x3dd54bea	0.1041487
15	0x3f10b993	0.56533164
16	0x3af5ea1b	0.0018761785
17	0x3d7030cf	0.058640298
18	0xbc8eaa15	-0.017415086
19	0xbd3b47da	-0.04572282
20	0x3e61265a	0.21987286
21	0x3e99e2ad	0.30055752
22	0xbe0a3209	-0.1349565
23	0x3e94e1c4	0.29078496
24	0x3f3adae8	0.72990274
25	0x3d8472ac	0.064671844
26	0x3e8a2fc4	0.26989567
27	0x3d7c6591	0.0616203
28	0xbf71ad00	-0.944046
29	0x3eb132fa	0.34609205
30	0xbee45585	-0.44596496
31	0x3e823a08	0.254349
32	0x3d427662	0.04747618
33	0x3e50bf27	0.20385419
34	0x3e5c1534	0.21492463
35	0xbd8cd17a	-0.06875892
36	0xbe9dd537	-0.30826733
37	0xbea0607c	-0.31323612
38	0xbc9ebe6f	-0.019377915
39	0xbe76f8ce	-0.24118349
40	0x3f21e9a1	0.63247114
41	0xbe5e1ef2	-0.21691492
42	0x3ecd1583	0.40055475
43	0x3f3e8f62	0.74437535
44	0xbe59c2a9	-0.21265663
45	0x3eb1be6b	0.3471559
46	0x3e544966	0.20731124
47	0x3e651e57	0.22374855
48	0x3e94e5d2	0.2908159
49	0x3dd02f88	0.10165316
50	0xbf0a37ba	-0.5399128
51	0x3d8da2ed	0.06915841
52	0x3e96eb5c	0.2947644
53	0x3e860d84	0.26182187
54	0xbe33b764	-0.17550427
55	0xbf1943ad	-0.5986889
56	0x3e393be9	0.1808926
57	0x3f0ce098	0.550302
58	0x3e032798	0.12808073
59	0x3f2852fd	0.6575163
60	0xbd88c895	-0.06678883
61	0x3f066365	0.52495414
62	0x3d08184e	0.033226304
63	0x3e2b76c7	0.16744529
64	0x3d61255c	0.05496727
65	0x3e5bfbce	0.21482775
66	0x3e370fce	0.17877123
67	0x3e4b71e9	0.19867672
68	0xbe60882e	-0.21926948
69	0x3d4d06e5	0.050055403
70	0x3e836bda	0.25668222
71	0xbea8a3d8	-0.32937503
72	0x3edc085e	0.42975134
73	0x3f942171	1.1572706
74	0x3f0847c9	0.53234535
75	0x3d821670	0.06351936
76	0x3ebd06df	0.36919305
77	0x3d71a992	0.058999605
78	0xbd7ba694	-0.06143816
79	0x3e9f4b59	0.31112173
80	0x3eb882dc	0.36037338
81	0x3e6d5b91	0.23179461
82	0x3ee95c53	0.4557825
83	0x3ec2e46a	0.3806489
84	0x3e94981b	0.29022297
85	0xbe2e4591	-0.17018725
86	0x3ebf9b08	0.37422967
87	0x3dc2a598	0.09504241
88	0xbde3858d	-0.11109457
89	0xbe6d73ac	-0.23188657
90	0xbf6fe615	-0.9371045
91	0xbf1ac3b2	-0.6045486
92	0xbef2672b	-0.47344336
93	0xbeb87b19	-0.36031416
94	0xbf3679e4	-0.7127974
95	0xbf7c0d90	-0.98458195
96	0xbf0243b6	-0.5088457
97	0xbf02418f	-0.50881284
98	0x3efdc107	0.4956133
99	0x3db996b9	0.09061951
100	0x3e7b1132	0.24518278
101	0xbe32637e	-0.17420766
102	0xbc886f22	-0.016654555
103	0xb8cbf88b	-9.726089e-05
104	0xbe460ec4	-0.1934157
105	0x3f3e8ce5	0.7443374
106	0x3ea7a5b9	0.32743624
107	0x3eecc223	0.46241865
108	0xbead733f	-0.33876988
109	0x3e461701	0.19344713
110	0xbe9b78a2	-0.30365473
111	0xbf8034df	-1.0016135
112	0x3e06f541	0.13179494
113	0x3e435d82	0.19078639
114	0xbe12feaa	-0.14354959
115	0xbb21864b	-0.0024646695
116	0x3e77971f	0.24178742
117	0xbd584cf1	-0.052807752
118	0x3d4688e3	0.04847039
119	0xbf11ad62	-0.56905186
120	0xbcd7e08c	-0.02635219
121	0x3e1d6516	0.15370592
122	0x3e6b5d8b	0.22984903
123	0x3f614bfc	0.8800657
124	0xbe43adcc	-0.19109267
125	0xbee6b0cd	-0.45056763
126	0x3f039aa6	0.5140785
127	0xbcaa342f	-0.020776836
128	0x3db4e862	0.08833386
129	0x3eca1a01	0.39472964
130	0x3e254bcc	0.16142195
131	0xbe3cce2e	-0.18438026
132	0x3d43a915	0.04776867
133	0x3f13d05a	0.57739794
134	0xbf7f96b3	-0.99839324
135	0x3e224a0f	0.15848564
136	0x3eb7ed09	0.3592303
137	0x3cd42e1e	0.025900897
138	0x3e5c7aca	0.21531215
139	0x3e514c76	0.20439324
140	0x3e84fc4c	0.25973737
141	0xbdb35ec5	-0.0875831
142	0x3e0d8664	0.13820797
143	0x3e3f515f	0.18683384
144	0x3e46e936	0.194249
145	0x3e489c02	0.19590762
146	0x3da580fe	0.08081244
147	0x3f36cddc	0.71407866
148	0xbf2511b9	-0.6448017
149	0x3e14019a	0.14453736
150	0xbe856dc5	-0.2606031
151	0xbbcfa6bb	-0.0063370145
152	0x3ebd5eca	0.3698638
153	0x3f184a99	0.59488827
154	0x3e6c9022	0.23101857
155	0xbf29be4b	-0.6630599
156	0xbd3ceaac	-0.046122238
157	0xbe8e8875	-0.27838483
158	0x3ea0ac3a	0.31381398
159	0x3d8b6767	0.06806832
160	0x3e8fbeac	0.2807516
161	0x3e854e29	0.26036194
162	0x3f2947b3	0.6612503
163	0x3ea4bb3f	0.32174107
164	0x3e7de1a4	0.24793106
165	0xbec6e0f2	-0.38843495
166	0xbe56c94e	-0.20975229
167	0xbe1f6b18	-0.15568197
168	0x3eadcaf4	0.33943903
169	0xbe246955	-0.16055806
170	0x3ce8c27f	0.028413055
171	0x3dd6355f	0.104593985
172	0x3ee40982	0.44538504
173	0x3e126f8a	0.14300361
174	0xbefe0080	-0.49609756
175	0x3e36943b	0.17829983
176	0xbe53403a	-0.20629969
177	0x3e1c5479	0.15266599
178	0x3e36a48d	0.17836209
179	0x3ebe4392	0.37160927
180	0x3e64b8d2	0.22336128
181	0x3f0942a2	0.536173
182	0xbd9a7dff	-0.07543563
183	0xbd063e60	-0.03277433
184	0x3e994fdc	0.2994374
185	0xbd11eb13	-0.035624575
186	0xbe801c42	-0.2502156
187	0x3e0930db	0.13397543
188	0xbe912939	-0.28351763
189	0xbdeb374c	-0.114851564
190	0xbdd6b0a9	-0.10482914
191	0xbe9a6812	-0.30157524
192	0x3e49466a	0.19655767
193	0xbe1b3739	-0.15157785
194	0xbe6c2b71	-0.23063447
195	0x3f07b05a	0.53003466
196	0x3e2cf12d	0.16888876
197	0xbec7065f	-0.38872048
198	0x3e1a46c9	0.15066065
199	0xbe28a224	-0.16468102
200	0xbe0ecfae	-0.13946411
201	0xbd35c468	-0.04437676
202	0x3c468ced	0.01211856
203	0xbeb84934	-0.3599335
204	0xbd331529	-0.04372135
205	0xbf2203fc	-0.6328733
206	0xbe12d71e	-0.14339873
207	0xbeda85e5	-0.42680278
208	0x3f0c9d2a	0.54927313
209	0x3e116e20	0.14202166
210	0xbdfe3def	-0.12414157
211	0xbee934bd	-0.4554805
212	0x3c5234fc	0.012830015
213	0x3f23354f	0.6375322
214	0x3e5eff8a	0.21777168
215	0x3e97ca10	0.2964635
216	0xbe4e8f81	-0.2017193
217	0xbf030f7c	-0.511955
218	0x3e28541b	0.16438334
219	0x3b11cf28	0.002224872
220	0xbf2e2585	-0.68026
221	0xbee449ff	-0.44587705
222	0x3e856c7f	0.26059338
223	0xbf158ec1	-0.5842095
224	0x3e6a2a77	0.22867762
225	0x3e192a29	0.14957489
226	0x3ec662c5	0.3874723
227	0xbe05f1ff	-0.13080595
228	0x3dc8b1b5	0.0979952
229	0x3e2afaa3	0.16697173
230	0x3da26a82	0.07930471
231	0x3e4cbacd	0.19993134
232	0xbeae28bb	-0.3401545
233	0x3e82c323	0.25539503
234	0x3eac78e2	0.33685976
235	0xbe6b81e6	-0.22998771
236	0x3f541444	0.8284342
237	0x3d6f0e01	0.058362965
238	0x3e06d79b	0.13168184
239	0xbeb57d40	-0.3544712
240	0x3e3e21eb	0.18567626
241	0xbdc6bc4c	-0.097038835
242	0x3e112b5a	0.14176694
243	0xbe85109e	-0.2598924
244	0x3e865854	0.26239264
245	0x3f526b4b	0.82194966
246	0x3c58f214	0.01324131
247	0xbf009ea0	-0.5024204
248	0x3eb6a958	0.35676074
249	0x3da7ddf7	0.08196633
250	0xbd95f124	-0.073213845
251	0x3f13bc6f	0.577094
252	0x3e2d3a95	0.16916879
253	0x3e82a43c	0.25515926
254	0x3e933e39	0.2875841
255	0xbf0e8bde	-0.5568217

layernorm.weight f4 [150]
0	0x3f800000	1.0
1	0x3f800000	1.0
2	0x3f800000	1.0
3	0x3f800000	1.0
4	0x3f800000	1.0
5	0x3f800000	1.0
6	0x3f800000	1.0
7	0x3f800000	1.0
8	0x3f800000	1.0
9	0x3f800000	1.0
10	0x3f800000	1.0
11	0x3f800000	1.0
12	0x3f800000	1.0
13	0x3f800000	1.0
14	0x3f800000	1.0
15	0x3f800000	1.0
16	0x3f800000	1.0
17	0x3f800000	1.0
18	0x3f800000	1.0
19	0x3f800000	1.0
20	0x3f800000	1.0
21	0x3f800000	1.0
22	0x3f800000	1.0
23	0x3f800000	1.0
24	0x3f800000	1.0
25	0x3f800000	1.0
26	0x3f800000	1.0
27	0x3f800000	1.0
28	0x3f800000	1.0
29	0x3f800000	1.0
30	0x3f800000	1.0
31	0x3f800000	1.0
32	0x3f800000	1.0
33	0x3f800000	1.0
34	0x3f800000	1.0
35	0x3f800000	1.0
36	0x3f800000	1.0
37	0x3f800000	1.0
38	0x3f800000	1.0
39	0x3f800000	1.0
40	0x3f800000	1.0
41	0x3f800000	1.0
42	0x3f800000	1.0
43	0x3f800000	1.0
44	0x3f800000	1.0
45	0x3f800000	1.0
46	0x3f800000	1.0
47	0x3f800000	1.0
48	0x3f800000	1.0
49	0x3f800000	1.0
50	0x3f800000	1.0
51	0x3f800000	1.0
52	0x3f800000	1.0
53	0x3f800000	1.0
54	0x3f800000	1.0
55	0x3f800000	1.0
56	0x3f800000	1.0
57	0x3f800000	1.0
58	0x3f800000	1.0
59	0x3f800000	1.0
60	0x3f800000	1.0
61	0x3f800000	1.0
62	0x3f800000	1.0
63	0x3f800000	1.0
64	0x3f800000	1.0
65	0x3f800000	1.0
66	0x3f800000	1.0
67	0x3f800000	1.0
68	0x3f800000	1.0
69	0x3f800000	1.0
70	0x3f800000	1.0
71	0x3f800000	1.0
72	0x3f800000	1.0
73	0x3f800000	1.0
74	0x3f800000	1.0
75	0x3f800000	1.0
76	0x3f800000	1.0
77	0x3f800000	1.0
78	0x3f800000	1.0
79	0x3f800000	1.0
80	0x3f800000	1.0
81	0x3f800000	1.0
82	0x3f800000	1.0
83	0x3f800000	1.0
84	0x3f800000	1.0
85	0x3f800000	1.0
86	0x3f800000	1.0
87	0x3f800000	1.0
88	0x3f800000	1.0
89	0x3f800000	1.0
90	0x3f800000	1.0
91	0x3f800000	1.0
92	0x3f800000	1.0
93	0x3f800000	1.0
94	0x3f800000	1.0
95	0x3f800000	1.0
96	0x3f800000	1.0
97	0x3f800000	1.0
98	0x3f800000	1.0
99	0x3f800000	1.0
100	0x3f800000	1.0
101	0x3f800000	1.0
102	0x3f800000	1.0
103	0x3f800000	1.0
104	0x3f800000	1.0
105	0x3f800000	1.0
106	0x3f800000	1.0
107	0x3f800000	1.0
108	0x3f800000	1.0
109	0x3f800000	1.0
110	0x3f800000	1.0
111	0x3f800000	1.0
112	0x3f800000	1.0
113	0x3f800000	1.0
114	0x3f800000	1.0
115	0x3f800000	1.0
116	0x3f800000	1.0
117	0x3f800000	1.0
118	0x3f800000	1.0
119	0x3f800000	1.0
120	0x3f800000	1.0
121	0x3f800000	1.0
122	0x3f800000	1.0
123	0x3f800000	1.0
124	0x3f800000	1.0
125	0x3f800000	1.0
126	0x3f800000	1.0
127	0x3f800000	1.0
128	0x3f800000	1.0
129	0x3f800000	1.0
130	0x3f800000	1.0
131	0x3f800000	1.0
132	0x3f800000	1.0
133	0x3f800000	1.0
134	0x3f800000	1.0
135	0x3f800000	1.0
136	0x3f800000	1.0
137	0x3f800000	1.0
138	0x3f800000	1.0
139	0x3f800000	1.0
140	0x3f800000	1.0
141	0x3f800000	1.0
142	0x3f800000	1.0
143	0x3f800000	1.0
144	0x3f800000	1.0
145	0x3f800000	1.0
146	0x3f800000	1.0
147	0x3f800000	1.0
148	0x3f800000	1.0
149	0x3f800000	1.0

layernorm.bias f4 [150]
0	0x00000000	0.0
1	0x00000000	0.0
2	0x00000000	0.0
3	0x00000000	0.0
4	0x00000000	0.0
5	0x00000000	0.0
6	0x00000000	0.0
7	0x00000000	0.0
8	0x00000000	0.0
9	0x00000000	0.0
10	0x00000000	0.0
11	0x00000000	0.0
12	0x00000000	0.0
13	0x00000000	0.0
14	0x00000000	0.0
15	0x00000000	0.0
16	0x00000000	0.0
17	0x00000000	0.0
18	0x00000000	0.0
19	0x00000000	0.0
20	0x00000000	0.0
21	0x00000000	0.0
22	0x00000000	0.0
23	0x00000000	0.0
24	0x00000000	0.0
25	0x00000000	0.0
26	0x00000000	0.0
27	0x00000000	0.0
28	0x00000000	0.0
29	0x00000000	0.0
30	0x00000000	0.0
31	0x00000000	0.0
32	0x00000000	0.0
33	0x00000000	0.0
34	0x00000000	0.0
35	0x00000000	0.0
36	0x00000000	0.0
37	0x00000000	0.0
38	0x00000000	0.0
39	0x00000000	0.0
40	0x00000000	0.0
41	0x00000000	0.0
42	0x00000000	0.0
43	0x00000000	0.0
44	0x00000000	0.0
45	0x00000000	0.0
46	0x00000000	0.0
47	0x00000000	0.0
48	0x00000000	0.0
49	0x00000000	0.0
50	0x00000000	0.0
51	0x00000000	0.0
52	0x00000000	0.0
53	0x00000000	0.0
54	0x00000000	0.0
55	0x00000000	0.0
56	0x00000000	0.0
57	0x00000000	0.0
58	0x00000000	0.0
59	0x00000000	0.0
60	0x00000000	0.0
61	0x00000000	0.0
62	0x00000000	0.0
63	0x00000000	0.0
64	0x00000000	0.0
65	0x00000000	0.0
66	0x00000000	0.0
67	0x00000000	0.0
68	0x00000000	0.0
69	0x00000000	0.0
70	0x00000000	0.0
71	0x00000000	0.0
72	0x00000000	0.0
73	0x00000000	0.0
74	0x00000000	0.0
75	0x00000000	0.0
76	0x00000000	0.0
77	0x00000000	0.0
78	0x00000000	0.0
79	0x00000000	0.0
80	0x00000000	0.0
81	0x00000000	0.0
82	0x00000000	0.0
83	0x00000000	0.0
84	0x00000000	0.0
85	0x00000000	0.0
86	0x00000000	0.0
87	0x00000000	0.0
88	0x00000000	0.0
89	0x00000000	0.0
90	0x00000000	0.0
91	0x00000000	0.0
92	0x00000000	0.0
93	0x00000000	0.0
94	0x00000000	0.0
95	0x00000000	0.0
96	0x00000000	0.0
97	0x00000000	0.0
98	0x00000000	0.0
99	0x00000000	0.0
100	0x00000000	0.0
101	0x00000000	0.0
102	0x00000000	0.0
103	0x00000000	0.0
104	0x00000000	0.0
105	0x00000000	0.0
106	0x00000000	0.0
107	0x00000000	0.0
108	0x00000000	0.0
109	0x00000000	0.0
110	0x00000000	0.0
111	0x00000000	0.0
112	0x00000000	0.0
113	0x00000000	0.0
114	0x00000000	0.0
115	0x00000000	0.0
116	0x00000000	0.0
117	0x00000000	0.0
118	0x00000000	0.0
119	0x00000000	0.0
120	0x00000000	0.0
121	0x00000000	0.0
122	0x00000000	0.0
123	0x00000000	0.0
124	0x00000000	0.0
125	0x00000000	0.0
126	0x00000000	0.0
127	0x00000000	0.0
128	0x00000000	0.0
129	0x00000000	0.0
130	0x00000000	0.0
131	0x00000000	0.0
132	0x00000000	0.0
133	0x00000000	0.0
134	0x00000000	0.0
135	0x00000000	0.0
136	0x00000000	0.0
137	0x00000000	0.0
138	0x00000000	0.0
139	0x00000000	0.0
140	0x00000000	0.0
141	0x00000000	0.0
142	0x00000000	0.0
143	0x00000000	0.0
144	0x00000000	0.0
145	0x00000000	0.0
146	0x00000000	0.0
147	0x00000000	0.0
148	0x00000000	0.0
149	0x00000000	0.0

batchnorm.weight f4 [150]
0	0x3eb80b50	0.3594613
1	0x3ea347b0	0.3189063
2	0x3ecef54b	0.4042152
3	0x3f083eae	0.5322064
4	0x3e825e1d	0.25462428
5	0x3fbf3755	1.4938761
6	0x3edfecce	0.43735355
7	0x3ded3994	0.11583248
8	0x3e2a8de6	0.16655692
9	0x3e56ab58	0.209638
10	0x3f579a90	0.8422022
11	0x3da6b6a3	0.08140304
12	0x3f661f41	0.8989144
13	0x3ee224d9	0.44168738
14	0xbc4c8ca0	-0.0124846995
15	0x3fa77fb6	1.3085849
16	0xbea51eac	-0.32249963
17	0xbed68842	-0.4190083
18	0x3e1e2dd2	0.15447167
19	0x3d6e86bd	0.058233965
20	0xbd01d501	-0.031697277
21	0x3ad62e2a	0.0016340662
22	0x3e1ab022	0.15106252
23	0x3e62cfb1	0.2214954
24	0xbe42bbad	-0.19016905
25	0xbe1a0c39	-0.15043725
26	0x3ef1ba9c	0.47212684
27	0x3eee56c8	0.46550584
28	0x3fbedc3c	1.491096
29	0x3e9e12f8	0.30873847
30	0x3f48652e	0.7827939
31	0x3f4402e8	0.76566935
32	0xbedf5e1e	-0.43626493
33	0x3e601dc5	0.21886356
34	0x3f4e7928	0.8065362
35	0x3e8e6b10	0.27816057
36	0x3ea0838a	0.31350356
37	0xbe80b59e	-0.25138563
38	0x3dca8668	0.09888917
39	0x3ecbdc2c	0.39816415
40	0x3f024993	0.50893515
41	0x3f3b30a2	0.7312108
42	0x3d0efe62	0.034910567
43	0x3f607d08	0.8769078
44	0xbd2a0d25	-0.04151644
45	0x3ece646b	0.40310988
46	0xbd9175b9	-0.07102532
47	0x3ebfdd38	0.37473464
48	0x3faf70a9	1.3706256
49	0x3ee80283	0.45314416
50	0xbe956625	-0.29179493
51	0xbdc914b3	-0.09818401
52	0xbe0569eb	-0.13028686
53	0x3fbb128c	1.4615035
54	0x3f7d98a3	0.9906103
55	0x3fbeb5f7	1.4899281
56	0x3e10e7c2	0.14150909
57	0xbe102371	-0.1407602
58	0xbd33313a	-0.043748118
59	0x3ee304d1	0.44339612
60	0x3e384ff4	0.1799925
61	0x3f427eef	0.75974935
62	0x3dee3d1b	0.11632749
63	0x3ef55861	0.4791899
64	0x3cff5865	0.03117008
65	0x3f4767c2	0.77892697
66	0x3db6a8bb	0.089189015
67	0x3ea23ab0	0.316854
68	0xbeb0930c	-0.34487188
69	0xbca19cf8	-0.019728169
70	0x3ff37440	1.9019852
71	0x3e3d4167	0.1848198
72	0x3eedb0bc	0.464239
73	0x3eb3a67c	0.35087955
74	0x3f82922d	1.0200859
75	0x3ea06af6	0.31331605
76	0x3f9ecb62	1.2405818
77	0x3e0f4079	0.13989438
78	0x3e5ae70d	0.21377201
79	0x3e87f57c	0.26554477
80	0x3ed0ddbf	0.4079418
81	0xbc9bfa6d	-0.01904031
82	0x3fa60219	1.296939
83	0x3e86651e	0.2624902
84	0x3e2621ba	0.16223803
85	0xbdc646b7	-0.096814565
86	0x3ec82c56	0.39096326
87	0x3e099883	0.13437085
88	0xbe140e06	-0.14458475
89	0x3f63a066	0.88916624
90	0x3eda0639	0.42582873
91	0x3ffba159	1.9658614
92	0x3d802065	0.06256179
93	0x3ea6ec85	0.32602325
94	0x3f0ade42	0.5424539
95	0x3f350de4	0.7072432
96	0x3f8a5565	1.080731
97	0x3fd746cc	1.681848
98	0xbdbb0fcc	-0.091338724
99	0x3e183e98	0.14867628
100	0x3e405a85	0.1878453
101	0x3f2daf73	0.6784584
102	0x3edec229	0.43507507
103	0xbe448663	-0.1919189
104	0x3e945bc0	0.2897625
105	0x3eb80bc8	0.35946488
106	0x3eca63c8	0.39529252
107	0x3ee52244	0.44752705
108	0x3ead71cc	0.33875883
109	0x3ec19bce	0.37814182
110	0x3efd2881	0.49444965
111	0x3fc2f598	1.5231199
112	0x3d24bb33	0.04021759
113	0x3e765986	0.24057588
114	0x3e9f97fa	0.31170636
115	0x3ef10c5b	0.4707974
116	0x3f8d8e5e	1.1059072
117	0x3f489fee	0.78369033
118	0x3ead91fc	0.3390044
119	0xbf4b4acc	-0.79411006
120	0x3f4ba5c2	0.795498
121	0x3ee8a246	0.45436305
122	0x3e26694c	0.16251105
123	0x3ec96f16	0.39342564
124	0x3c8c52e9	0.017129378
125	0x3f1128dc	0.5670297
126	0x3f8c9211	1.0982076
127	0x3ea5cfce	0.32385105
128	0xbd0eda78	-0.034876317
129	0x3f03d594	0.5149777
130	0xbe2ea9b7	-0.17056929
131	0x3f6ee2e3	0.9331495
132	0x3e8c46f6	0.2739789
133	0x3ec90a23	0.39265546
134	0x3fec5107	1.8462228
135	0x3ea97e7f	0.3310432
136	0x3f32e71d	0.698839
137	0x3e9bca31	0.30427697
138	0x3ef846c5	0.48491493
139	0x3eca1174	0.3946644
140	0x3f1cd599	0.61263424
141	0x3e8eaaf9	0.27864817
142	0x3f9a9529	1.207677
143	0x3eff6e10	0.4988866
144	0x3eb86ddc	0.36021316
145	0x3f90924d	1.1294647
146	0xbe91ca24	-0.28474534
147	0x3fbcbed9	1.4745742
148	0x3e2d46a1	0.16921474
149	0x3e40f734	0.188443

batchnorm.bias f4 [150]
0	0x3e9ce726	0.30645102
1	0x3f5aa078	0.85401106
2	0x3f6ffa39	0.93741184
3	0x3ed04681	0.4067879
4	0x3f53b02f	0.8269071
5	0x3e9abcc1	0.30222133
6	0x3f6f138b	0.93389195
7	0x3f5f0084	0.8711016
8	0x3f2fec69	0.6872011
9	0x3ef06432	0.46951443
10	0x3f7f0772	0.99620736
11	0xbd5780c2	-0.052613027
12	0x3f04df90	0.5190363
13	0x3f3f5df0	0.7475271
14	0x3f21d31a	0.6321274
15	0x3f0fab24	0.56120515
16	0x3f3f722c	0.7478359
17	0x3f89a51b	1.0753511
18	0x3f102e33	0.56320494
19	0x3f5b9139	0.8576847
20	0x3f227d21	0.6347218
21	0x3f7975b5	0.9744523
22	0x3f7acc42	0.9796792
23	0xbf289de4	-0.6586592
24	0x3f738c5b	0.9513604
25	0x3f3ecab0	0.74528027
26	0x3f272997	0.65297836
27	0x3f43ca7f	0.7648086
28	0x3f24c83c	0.64368033
29	0x3f0bd8e5	0.5462783
30	0x3f3df237	0.74197716
31	0x3f7e1f27	0.99266285
32	0xbf618a9d	-0.8810213
33	0xbe43d6d0	-0.19124913
34	0x3f4e8bcb	0.8068206
35	0x3f1e0dd3	0.61739844
36	0xbf54d795	-0.8314145
37	0x3f368fac	0.71312976
38	0x3f36fa8e	0.71476066
39	0xbf7b0ecc	-0.98069453
40	0x3f3ac3cd	0.7295502
41	0x3ec8f378	0.39248252
42	0x3f44e577	0.76912636
43	0x3e77e64f	0.2420895
44	0x3f319118	0.6936202
45	0x3f4c14c4	0.79719186
46	0x3f43cfae	0.7648877
47	0x3f3ccd1f	0.7375049
48	0x3f3dda98	0.7416167
49	0x3f2f053d	0.6836737
50	0x3f4b8929	0.79506165
51	0x3f06b741	0.52623373
52	0x3f4ff262	0.8122922
53	0x3efc9e9f	0.49339768
54	0x3f0545a5	0.52059394
55	0x3f09ac06	0.5377811
56	0x3f190758	0.5977683
57	0x3f2fcb81	0.686699
58	0x3f182bc8	0.59441805
59	0x3f09e3c5	0.53863174
60	0x3f2a3d5e	0.6649989
61	0x3ed9299f	0.42414567
62	0x3f5ad64f	0.8548326
63	0xbfba0c00	-1.4534912
64	0x3f49e9eb	0.78872555
65	0x3f19f3d9	0.60137707
66	0x3ee58f2d	0.44835797
67	0xbf5e2fe7	-0.86791843
68	0x3f2b9b7a	0.67034113
69	0x3f5609a6	0.8360847
70	0x3ea46093	0.3210493
71	0x3f90f235	1.1323916
72	0x3f6b9923	0.92030543
73	0x3f323c0c	0.69622874
74	0x3ec0ff32	0.376947
75	0x3f481a75	0.7816537
76	0x3f5ccc1a	0.86248934
77	0x3f0920d9	0.53565747
78	0x3f754d21	0.95820814
79	0x3f72b368	0.94805
80	0x3f13a9bf	0.57680887
81	0x3f62641c	0.88434005
82	0xbef0e585	-0.4705011
83	0x3f2b7d26	0.66987836
84	0x3f16da3e	0.5892676
85	0x3f8a3961	1.0798761
86	0x3f3d6f73	0.73998183
87	0xbe6cd7fd	-0.23129268
88	0xbf87d67d	-1.0612332
89	0x3ec2559a	0.37955934
90	0x3f3bbf56	0.7333883
91	0x3e5b1d7b	0.21397965
92	0x3f2cdb20	0.6752186
93	0x3f0e8661	0.55673796
94	0x3f4aef96	0.7927183
95	0xbf943ecf	-1.1581668
96	0x3f807ec2	1.0038683
97	0xbd786caf	-0.060650524
98	0x3f424647	0.75888485
99	0x3f304096	0.6884855
100	0x3f26ec9c	0.6520479
101	0xbf574486	-0.84088933
102	0xbf42dedf	-0.76121324
103	0x3f3ae407	0.7300419
104	0xbf8411d9	-1.0317947
105	0x3f5600e6	0.8359512
106	0x3eff5def	0.49876353
107	0x3f3b42a6	0.7314857
108	0xbf7dbbb0	-0.99114513
109	0x3f364535	0.7119935
110	0x3f22a30e	0.6353005
111	0x3f79683c	0.97424674
112	0x3edfe654	0.43730414
113	0x3ed0bdf2	0.40769917
114	0x3f29137a	0.66045344
115	0x3f3633ee	0.7117299
116	0x3efa7f36	0.4892518
117	0x3f2a08af	0.664195
118	0x3f7530d6	0.9577764
119	0x3f4e0344	0.8047373
120	0x3eb76666	0.3582031
121	0x3f82f069	1.0229617
122	0xbf6b31ec	-0.9187305
123	0x3f3e927d	0.74442273
124	0x3f88cb67	1.0687073
125	0x3f1827a1	0.5943547
126	0x3f0ed63d	0.5579565
127	0x3f07036d	0.527396
128	0x3f186def	0.59542745
129	0x3f59d245	0.8508647
130	0x3f6aa094	0.9165127
131	0x3f2b0a1d	0.66812307
132	0x3f374750	0.7159319
133	0x3f75e0e0	0.96046257
134	0x3ec273a8	0.37978864
135	0xbf813194	-1.0093255
136	0x3f052fd4	0.52026105
137	0x3f7b9fe2	0.98290837
138	0x3f30701c	0.68921065
139	0x3eeb09b0	0.45905828
140	0x3f0147dc	0.50500274
141	0x3f29f79f	0.66393465
142	0x3ecf6c67	0.40512392
143	0x3f796b84	0.9742968
144	0x3f06a2fe	0.52592456
145	0x3f3db6d1	0.7410708
146	0xbf860f3a	-1.0473397
147	0x3f4608cb	0.77357167
148	0x3f3383c1	0.70122916
149	0x3f08b28e	0.5339745
