src/results/subject_P18/best_model.pth (torch, 481333 bytes, 15 tensors)

input_linear.weight f4 [40, 40]
00000000: a9af 023e b22e d23d 9e11 f9bd 10a4 c03c
00000010: b8fe 0a3d decd e7bd 5de6 fdbd 98af f1bc
00000020: c8d3 d73c a0ea 973c a0be 9f3b f44c a43d
00000030: 242b a23d da93 d9bd f4a1 453d d8b3 f23c
00000040: 10e0 e9bc 9876 953d 06d2 8cbd 68dc 203d
00000050: 0d62 c6bd bac2 e63d bf1b 0abe d236 16bd
00000060: ba09 863d 530b 17be 2af8 ee3d 5070 d83c
00000070: 506c e63c acce 893d aa99 fb3d f91f 183e
00000080: 4b5a 1a3e 4039 a3bb 30b8 a33d 5210 e93d
00000090: aec7 17be 2c94 aa3d 90a3 323d 37a1 1c3e
000000a0: 4ec8 a23d 001d f03c e797 1b3e 8a63 ccbd
000000b0: 2c45 dabd f584 003e ca95 f53d 23d1 1d3e
000000c0: 119e 06be ee73 e33d 2eda d73d 3648 f33d
000000d0: b9f3 1abe 0be9 093e b427 71bd 3b25 123e
000000e0: d04f 70bc 8b6b 123e 584b 15be 643a 763d
000000f0: 363f 0cbe 0c55 08bd d2ae f63d af38 203e
00000100: 1f8c 17be e8a6 b93c 2e7b 49bd cc4c 363d
00000110: ff9d 1c3e 4eae 823d c6ea 13be d8f0 543d
00000120: 00d4 493a 7566 11be 6082 613c fc44 503d
00000130: d474 03be 00f5 393a 5a2a 9d3d 8296 c23d
00000140: 8abf de3d 40d8 6ebc 048d cebd 7d10 0fbe
00000150: b107 b0bd 26a5 f43d 8205 e53d 9aa2 d23d
00000160: 8574 c6bd d8aa 0bbd d4e3 4f3d f85b 9abc
00000170: b3e9 febd 1e2d da3d 1465 173d d028 163d
00000180: 7aef 5dbd 2029 fcbb 503d f6bc 0c36 4dbd
00000190: d028 a1bc 8622 c93d a326 1fbe 928b f9bd
000001a0: 15ce 12be c085 87bc 54ff 1f3d e3d8 183e
000001b0: 2084 e4bb 1869 90bc 3c16 7e3d f8c2 10be
000001c0: 5035 bfbd df7e 1bbe 5c0b 6e3d c644 e13d
000001d0: 3069 463d 2ce8 743d d254 a8bd af84 1dbe
000001e0: 6037 9f3b 203c e83b 30e1 7b3d c8cf 87bc
000001f0: 30c3 063c bc32 54bd 163d 953d ae52 e83d
00000200: a9d7 033e 4a68 c93d 1a88 65bd f629 61bd
00000210: c0b1 2d3d f09e c0bc a014 8ebb 7d5f 053e
00000220: 9673 fabd 42c6 953d 7088 3f3d b8e9 9d3d
00000230: 5048 43bd 6576 8fbd cedb 9f3d 8f54 153e
00000240: 80bd 893c cacd db3d 203d 7f3c 1085 41bc
00000250: 9251 c73d 5a5f 953d a8ae 2a3d 208f 15be
00000260: adee 083e 65d1 d8bd 42e6 b73d 7ad1 fcbd
00000270: 7953 14be 8b84 193e 62ff c73d 5e02 00be
00000280: a635 d03d 3ce5 ab3d 13ba 20be dd78 14be
00000290: bab6 db3d e843 663d 3c88 65bd d993 93bd
000002a0: d1f0 99bd d4b1 3f3d f73c 033e 8b03 013e
000002b0: 4044 4e3c c176 d3bd ae0a 46bd 0078 6ebb
000002c0: 3176 dbbd 0bc5 eabd 4803 9c3c 4019 093c
000002d0: 9f84 123e cfda a4bd 5488 6dbd 43a7 16be
000002e0: e7c7 213e 8dfd 1a3e a8b6 57bd 94cb 92bd
000002f0: 7432 363d 3a5e 01be 48e5 2d3d a815 b83c
00000300: 5cbe 1cbd 22a2 aabd cbe3 b9bd 30e5 f3bc
00000310: 2c72 d0bd 91ff 1b3e eb06 05be 0c8b 233d
00000320: e850 a93d c2e9 e7bd 80dc 063d dec6 48bd
00000330: 16ab 08be c29c f53d f8b3 ffbd 7604 37bd
00000340: 3ec7 7ebd 9616 6abd 1818 58bd 9e24 0abd
00000350: f0f0 debd 4eb3 f13d 40a1 af3b 9cbb d1bd
00000360: ae68 e03d 4a3b f83d 76c1 913d 305d 99bd
00000370: 26bc e33d 860b 11bd 4e96 cd3d c2a7 7bbd
00000380: 285f dcbc 74aa 033d 7d52 213e 576a 1e3e
00000390: 2e91 a33d 221b 9a3d 269a bd3d eaa5 dc3d
000003a0: f775 06be b2e8 d03d e643 dbbd 500f 01be
000003b0: b348 15be 0ca6 803d e09e 31bc 245a 71bd
000003c0: b8f1 f5bd 222c d83d d745 163e 80f0 54bb
000003d0: 472d 1fbe a676 42bd 90f1 cebc ba63 f63d
000003e0: 227f d8bd 84f8 0e3d 4a6e c93d 39ff 09be
000003f0: 9edc 49bd a595 09be e0a4 41bd 34ec 2b3d
0.12762322 0.10262813 -0.12161563 0.023515731 0.033934325 -0.11318563 -0.12397454 -0.029502675
0.026346102 0.018544495 0.004875019 0.0802249 0.07918385 -0.106239036 0.048250154 0.029626772
-0.028549224 0.072980106 -0.06875996 0.039272696 -0.096866705 0.1126761 -0.13487147 -0.036673374
0.06544824 -0.14750414 0.11668427 0.026420742 0.02812782 0.06728873 0.122851685 0.14855947
0.15073507 -0.00498119 0.07994115 0.11380066 -0.14822266 0.08329043 0.043613017 0.15295874
0.07948361 0.029310703 0.15194665 -0.09979923 -0.10657725 0.12550719 0.119914606 0.1541181
-0.13146235 0.11106096 0.10539661 0.118790075 -0.15132035 0.13467805 -0.058875754 0.14272015
-0.014667466 0.14298837 -0.14579523 0.06011428 -0.13695988 -0.033284232 0.12045063 0.15646623
-0.14799546 0.022662595 -0.04918974 0.044506833 0.15294646 0.06380902 -0.14445028 0.0519875
0.0007699132 -0.1419924 0.013763994 0.05084704 -0.12837535 0.0007093698 0.076740935 0.09501363
0.10876377 -0.014577925 -0.1008549 -0.13971134 -0.08595217 0.11945562 0.11182691 0.1028492
-0.09690193 -0.034098476 0.050754383 -0.018842682 -0.12446918 0.10653137 0.03696163 0.036660016
-0.05418346 -0.007695332 -0.030058533 -0.05010037 -0.019672781 0.09821038 -0.15542082 -0.12184824
-0.14336427 -0.01654327 0.03906186 0.14926486 -0.0069737583 -0.017628238 0.062032923 -0.14136875
-0.093363404 -0.15185116 0.058116302 0.109994456 0.04844016 0.05979173 -0.08219303 -0.15382646
0.004858896 0.0070872456 0.061494052 -0.01657857 0.008225247 -0.051806197 0.07287042 0.11343895
0.12875237 0.09834345 -0.056038 -0.054971658 0.042405844 -0.023513287 -0.004335955 0.13024707
-0.122290775 0.07313205 0.046760976 0.07710594 -0.047676384 -0.07005004 0.07805596 0.14583038
0.016813993 0.107326105 0.015578538 -0.01181151 0.09732355 0.072935775 0.04167047 -0.14605379
0.13372298 -0.10586814 0.08979465 -0.12344642 -0.14484967 0.14991967 0.09765507 -0.12500903
0.101664826 0.08393332 -0.15695982 -0.1449923 0.10728212 0.056217104 -0.056038126 -0.07205934
-0.07516635 0.04680045 0.12816225 0.12599008 0.012589514 -0.10325385 -0.04835003 -0.0036387444
-0.107159026 -0.11463364 0.019044533 0.0083678365 0.14308403 -0.08049547 -0.05799134 -0.14712243
0.15798913 0.15135784 -0.05266443 -0.07167736 0.04448171 -0.12633601 0.042454988 0.022471264
-0.03826748 -0.08331706 -0.09076651 -0.029772371 -0.101780266 0.1523421 -0.1299092 0.039927527
0.08267385 -0.11323883 0.03292513 -0.04901778 -0.13346514 0.1199279 -0.12485498 -0.04468199
-0.06220173 -0.057150446 -0.052757353 -0.033726327 -0.10885799 0.11801778 0.0053597987 -0.10240862
0.10957466 0.121206835 0.07116978 -0.07488477 0.11119871 -0.03541138 0.10038434 -0.061439283
-0.026900843 0.03214498 0.15754123 0.15470253 0.07986675 0.075247064 0.09257917 0.10773833
-0.13130938 0.10200633 -0.1070631 -0.12603498 -0.14578514 0.06281671 -0.010841101 -0.058923855
-0.12008995 0.10555293 0.1467508 -0.0032491982 -0.15544616 -0.047476433 -0.02526167 0.1203074
-0.10571124 0.03490497 0.09835489 -0.13476266 -0.049282663 -0.13435991 -0.047276378 0.041973308

input_linear.bias f4 [40]
00000000: 1e69 f43d fcb6 29bd f5dd 09be 1cad 903d
00000010: 48e5 dcbc cdbf 023e e838 fcbd 8a2d 48bd
00000020: 9c81 ac3d 217b 0f3e 4378 043e a078 f73b
00000030: db9d c9bd 8e2e c43d 8040 c93c 365c b53d
00000040: 5a4b d6bd f1f9 1fbe 9edd fe3d 0ffb b0bd
00000050: 440e 563d eea4 d33d 58fe ffbc 65da 133e
00000060: ea98 2dbd 5247 b83d 4814 b6bc 1d87 003e
00000070: bab6 e53d 1257 15be 8727 febd 7e4e 9e3d
00000080: 98f8 c23c 6a3f 16bd 3e5f fe3d 71db 20be
00000090: 60ad bb3d 7aa6 75bd 40ef af3b a0b2 fdbc
0.11934112 -0.041434273 -0.13463576 0.07064268 -0.026964799 0.12768479 -0.123155415 -0.048871554
0.084231585 0.14011814 0.12936501 0.0075522214 -0.09844562 0.09579192 0.024566889 0.088554785
-0.10463591 -0.15622689 0.12444614 -0.086416356 0.0522597 0.10334192 -0.03124921 0.1443878
-0.04238216 0.08997978 -0.022226468 0.12551542 0.11216493 -0.14583996 -0.12409883 0.07729815
0.02380018 -0.03668157 0.1242051 -0.1570871 0.09163928 -0.059973218 0.005369097 -0.030968964

lstm.weight_ih_l0 f4 [600, 40]
00000000: c1f2 e43e a325 fbbd 6ff2 e7be ddc4 59be
00000010: e5be 38be b99e e7be 4302 00bf fb55 e23e
00000020: 0dcb 023f 7bf5 e43e 491f 35bf 21ca e5bc
00000030: d00f 4abe a6c0 02bf 9223 1c3f 1f1a b53e
00000040: d3c8 a1be 44b6 45bf 1b9e 3dbf 1eae f1be
00000050: 0d82 05bf 13d9 f7be 8e45 e4bd b97b 173e
00000060: f7c7 03bf 6745 a73e 5ac0 ec3d 6799 1dbe
00000070: 5c28 35bf 9ddb 253d 73ae 47bf a8d5 e9be
00000080: c497 41bf 441b 92be 1c20 1cbe a6a2 2d3e
00000090: 33ec eabe 6b9a 95be 1883 3bbe c066 243f
000000a0: 5103 c3be 2328 4f3e 7b1c e43e f49c 943e
000000b0: 39f4 983e 42f9 c23e 6e53 e03e 2feb d1be
000000c0: b608 d5be f871 cabe 0aea 9b3e 8152 3d3e
000000d0: 8533 573d b0d9 bd3e f735 99be d991 6bbd
000000e0: 1170 853d b852 9c3e 3095 9a3e cd94 e23e
000000f0: 70b7 bd3e 3b56 c33e 7aa2 31be 3429 043e
00000100: 8aae b83e f59d 32be ea4f 093e 5fa3 3f3e
00000110: 7e2c a73e 6e94 6dba 2900 a43e 77f3 db3e
00000120: 1acc b23e 9269 1b3e c690 3abe 8ebe 103e
00000130: 68ca e13e 72fb e2bc 003a c33d 507a 9ebe
00000140: 8e3b 2b3e a60a bebd 740a 98be 2ba2 06bf
00000150: 9299 10bd 1ee8 82be 95e6 90be 218d 873e
00000160: e5fe 813e 0930 863e 6b93 d5be f92f 62be
00000170: 1ea4 773d 316f 94be 94be 143f d85c a7bd
00000180: fe8f 0cbe 5278 c7be a6ff c8be 3afb 8ebe
00000190: 0036 82be 704b b2be 1b3f ddbc 8ac6 4e3e
000001a0: bae6 afbe 5f36 0abe e491 073d 3d61 f73c
000001b0: 45bb d5be 03ad 0a3d dc9b bfbe 25a3 afbe
000001c0: f9a5 d4be 87a3 8bbd 5fb7 72bc 9222 f93d
000001d0: c27c 84be baa4 1dbe 8f83 74be b9aa 0c3f
000001e0: 2fcb 9fbe 1f37 293e 5a04 953e d6d5 3b3d
000001f0: 5e3f 5b3e 3821 bf3e 286e 923e d4fd a9be
00000200: 4c0b 8cbe 2981 c1be 08a6 583e 9c4e 0ebe
00000210: 5654 b93e 1a51 9e3e 0d68 67be c71f 4bbe
00000220: 460e d8be 01d1 633e e9bb 473e becb 973e
00000230: 3acb a83e b951 ac3e 997e cabc 3a7c 703c
00000240: be93 ab3e 95ae a9bc 5708 eebd ddd1 c83d
00000250: d2c4 323e a388 e43d e85b 4d3e 41b6 c23e
00000260: d3cd 473e 61ae edbe cde7 063d 1e2e 313d
00000270: 24d1 a13e f6e0 7dbc d244 80bb cc03 82be
00000280: e77d 89be 97ac 2bbe cdf5 a1be acc4 a2bf
00000290: 3e4b 51be 1799 a2be ec91 aebe 1255 ba3e
000002a0: 7745 893e da8f b43e 6a00 45bf 94c0 b63c
000002b0: 0080 4d3e 829f a7be 0fe7 e73f f6b9 2f3d
000002c0: a348 84bf b95c 3fbf edcc 42bf cbf1 abbe
000002d0: cbeb bdbe c166 bebe c9ef 5e3f 5523 5a3e
000002e0: d716 cabe ec33 483e 7241 67be 8147 10be
000002f0: 4bbd 49bf 6499 e13e c2b2 46bf da6e babe
00000300: a6c3 3abf 7278 7cbf 46fb 643f d68a 5a3e
00000310: fa9f 9fbe a2fe c7be e048 43be b06f e43f
00000320: 62d6 98bc 88f8 023f c0e1 57be 9d6a dabe
00000330: de1d c33e 2946 3ebe 74bd e9bd 0a4f 3d3e
00000340: 6767 cc3d 7244 2f3e e01a b8be a316 dc3d
00000350: b8cf 86bd 2669 5bbe 96ce 103f 307e b03d
00000360: d011 77be 0e02 bbbe c377 c0be 88cb 5abe
00000370: 381d 1ebe 721d 1dbe 5946 36be 7299 7e3d
00000380: 8781 22be 4a31 8d3e 97ed 02bd 285a 07bd
00000390: efc5 a0be 0ada ddbc 086a aebe 0fb5 44be
000003a0: 6fda b1be 7097 72be 58e1 5dbe 0190 e23d
000003b0: 0c6a 35be 427b e83e b191 d83e 38fd 103f
000003c0: 8ee3 19bf 6663 173f 31c4 d13e ccaf ca3e
000003d0: 56bc fd3e 0e05 e93e 0bdd e63e 40cc d1be
000003e0: f706 02bf 3f3c cfbe 2615 fc3e 0c20 4d3e
000003f0: 0ebe a83e ae18 ca3e c773 06bf d481 2a3e
0.44716457 -0.12263038 -0.4530215 -0.21266504 -0.1804157 -0.45238283 -0.5000345 0.44206223
0.5109108 0.44718537 -0.7075086 -0.028050484 -0.19732594 -0.5107521 0.60991776 0.3537149
-0.3159853 -0.7723124 -0.74069375 -0.47203153 -0.52151567 -0.48407802 -0.11146079 0.1479329
-0.51477 0.32670137 0.11560126 -0.1539055 -0.7076471 0.040492643 -0.78000563 -0.4567082
-0.756222 -0.28536427 -0.15246624 0.16956577 -0.4588333 -0.29219374 -0.18311727 0.64219284
-0.38088468 0.20230155 0.4455298 0.29025996 0.29873827 0.38080794 0.43813652 -0.40999743
-0.41608208 -0.39540076 0.30451995 0.18488504 0.052539367 0.37080145 -0.29923984 -0.057512138
0.065155156 0.3053186 0.30191946 0.4425415 0.37054014 0.38151726 -0.17347136 0.12906343
0.36070663 -0.17443068 0.13409391 0.18714665 0.32651132 -0.000906295 0.32031372 0.42959186
0.34921342 0.1517699 -0.18219289 0.14135191 0.44099736 -0.02770779 0.09532547 -0.30952692
0.16721937 -0.09279375 -0.29695475 -0.525912 -0.035302706 -0.25567716 -0.2830092 0.2647486
0.25389782 0.26208523 -0.41714033 -0.22088613 0.06045925 -0.28991082 0.581033 -0.081720054
-0.13726804 -0.38958985 -0.39257544 -0.27926046 -0.25431824 -0.3482318 -0.02700763 0.20192924
-0.34355718 -0.13497303 0.033098117 0.030197734 -0.41744438 0.033856403 -0.374236 -0.34304157
-0.41532877 -0.068183 -0.014814227 0.12164797 -0.25876433 -0.1539487 -0.2387831 0.54948
-0.31209704 0.16524933 0.29104882 0.045858227 0.21410891 0.3733003 0.28599668 -0.33201468
-0.2735237 -0.37793854 0.21157086 -0.13897175 0.36197156 0.3092125 -0.22598286 -0.19836341
-0.4219839 0.22247697 0.19505276 0.2964763 0.3296755 0.336561 -0.02471857 0.014678055
0.33511156 -0.02071313 -0.116226844 0.09805653 0.17457893 0.11158874 0.2005459 0.38029674
0.1951211 -0.46422103 0.032935906 0.04325687 0.31604874 -0.015495529 -0.003914454 -0.25393522
-0.26853868 -0.16765057 -0.31632844 -1.271627 -0.20438859 -0.31757423 -0.34095705 0.36393028
0.2681081 0.35266 -0.76953757 0.022308625 0.2006836 -0.32738882 1.8117388 0.042901956
-1.0334667 -0.7475086 -0.7609394 -0.3358291 -0.37093958 -0.3718777 0.87084633 0.2130254
-0.3947055 0.19551057 -0.22583559 -0.14089777 -0.78804463 0.4406234 -0.7761651 -0.36412698
-0.72954786 -0.98621285 0.8944591 0.21342024 -0.3117674 -0.39061457 -0.19070768 1.7846584
-0.018656913 0.5116048 -0.2108221 -0.42659464 0.38108724 -0.18581451 -0.114130884 0.18487182
0.0998066 0.17115954 -0.35958004 0.10746505 -0.06582588 -0.2142683 0.56565225 0.08617818
-0.24127889 -0.36525005 -0.3759137 -0.21366704 -0.15440834 -0.15343264 -0.17800273 0.062158056
-0.15869723 0.27576667 -0.031964865 -0.033044964 -0.3140101 -0.027081508 -0.3406527 -0.19209693
-0.34736964 -0.23690581 -0.21667993 0.11062623 -0.17716235 0.45406538 0.42298654 0.5663638
-0.60112846 0.59136045 0.40969995 0.39587247 0.4955775 0.4551167 0.45090517 -0.40976143
-0.5079188 -0.40475652 0.49234885 0.20031756 0.329575 0.39471954 -0.5252041 0.16651088

lstm.weight_hh_l0 f4 [600, 150]
00000000: 598f 97be 30ff e33e 5628 20bc d105 ae3e
00000010: a876 9abe 26a9 f2bd ed28 c93e 48f7 afbe
00000020: 4566 fe3d 02e8 1c3f 15b5 86be ed6f 78be
00000030: b841 7dbe 539f 773e 47fa ac3e c26a 293e
00000040: f7d2 7bbe adf1 afbe 608b 1c3f e381 9abe
00000050: 65f3 f2bc 6cf9 afbe 03ae f9be 8222 2c3f
00000060: f324 363e 51da 12bf 5891 98be 8258 6a3d
00000070: 9980 22bf cc78 eabd 025f df3e 4b46 a8be
00000080: 3a35 943e b125 bebe 2d84 ee3e ab73 b43e
00000090: 9b0e 783e f51b 04be 4e9d 50be d50c b93b
000000a0: 7ea5 8e3e 9147 0bbe d621 493e 7562 143f
000000b0: fd15 4abf 4632 8ebd 1791 e23d 501b aebe
000000c0: 1e2f 113e dacf 08bf 5205 ed3e afb4 d53e
000000d0: 6db4 43bf ed9c 06bf 89d6 1e3d 2d72 eb3e
000000e0: 2c3b 51be 9c71 d4bd 9c63 433e d526 193e
000000f0: 5a56 8fbd c739 243f 23fa 1c3d 0fd5 d3be
00000100: 2330 30bf a607 38bf 505a 75bf 47e4 7c3e
00000110: 1a18 e93d 7ffb bc3e c001 80be 3b6e ccbe
00000120: b903 3fbe a2d7 ccbd d6b3 9cbe 4223 9dbe
00000130: 1d76 a5be be37 f6be a435 5cbe 7bde a13e
00000140: 1be4 943e 9731 a03e 3cf2 d73d 2ee3 293f
00000150: b1de 9c3e ebd6 67be f7ec 06bf 1177 443e
00000160: ca4d 31bf 056c 41bf 1bcc ac3e 885e 64bf
00000170: 859b d53d b045 8f3e cbff a7bd 13ac c43e
00000180: a376 cb3c 75ff e03e bab4 02be 36df aa3e
00000190: 8e12 31be 628a f63e dcd0 523b 254e a9be
000001a0: a054 033e 63c6 b33e 11f4 c63e b940 9b3e
000001b0: 4a8c 6a3f 58e0 18bf b689 b33e bb28 a93d
000001c0: f423 373e 88e9 31bf 8ad4 933e 9386 acbe
000001d0: 5d93 f2be bcac 473f 470b 113f 68f1 643e
000001e0: ad37 4d3e 9a72 b33d aa99 a4ba 8b07 793d
000001f0: 3cb9 cc3e a5b5 e3bd a81d a43e be09 c5bd
00000200: 9bf5 4ebe 56bf fd3d 27bb 30bf f0d2 083f
00000210: 3b94 e7be c214 323e 3820 c4bd 696f 533e
00000220: 01fa 0d3f 03b1 ba3e 2a20 c23e 3559 24bf
00000230: 24b2 d5bc e397 25bf 68a6 b03e c9b1 533e
00000240: bb5f 30bf be1c 573e 23ea b8bd ca39 b4be
00000250: c237 e03e d46a d13b cfc6 7c3e d57a 20be
00000260: de53 b5bd 8579 76be d759 673c 7a88 0e3e
00000270: ddef 80be 76ee 253f e9a1 debd 1574 bcbe
00000280: c494 243f 9307 51bd a6ea 583e 01c4 a1be
00000290: d437 d6be c966 66be 7afd 0e3e 045d 003d
000002a0: 38ed aabe f756 823e b662 0f3e b709 ab3d
000002b0: 9660 9e3e 1527 c2be 5109 89be ebef 583e
000002c0: dcfe 353e c4dc 833e 2298 2c3e da71 963e
000002d0: 6617 13bf 9a5d 5a3e 3f22 8fbe 1a4e 593e
000002e0: 568d b0be b256 26be d650 9dbe 437f 8b3d
000002f0: 45c1 653e e86a 6b3e 6194 a0be b94d 8a3e
00000300: e5c2 7c3e 6326 e5be 8694 5f3e 9fc0 48be
00000310: 39ac 37be 310d 973e e760 5b3e 97c9 993e
00000320: d40c 18bf f9ee abbe 8126 0a3e c4f4 883e
00000330: 3b30 76be e167 04bf 41a3 44be 9716 183e
00000340: f0d1 4f3e 9b51 b13e 50fa 843e e19c 9c3c
00000350: e27d 6b3e 9bdb 1f3f 0075 023e 8327 283e
00000360: ed0c 1a3f d714 debd 0f45 56be 2415 3dbe
00000370: cf88 653e 6a62 c33d afea 8d3e e6bb 72bd
00000380: ee9e 5c3e 76bd 983e 390a 803e 96f5 d73e
00000390: c332 00be 5a10 8ebe 09d6 81be 2f9f b3be
000003a0: 34d7 133e f484 f0be 0fc7 83be ed5e 7b3e
000003b0: a131 61be 7daa d5bc ef48 af3e b3b6 783e
000003c0: 3149 7bbe b44b 753e cf95 34be 7bd3 e8be
000003d0: 3d9c 1cbd 0314 9ebe a814 803e 0a4d 43be
000003e0: 8664 783e 8bc7 91be 8698 cc3d 6077 cebe
000003f0: 4c4d 5bbe a6fd 8f3e aec9 143c 5507 9dbe
-0.29601553 0.4453063 -0.009775242 0.33988813 -0.30168653 -0.11848669 0.39289036 -0.34368348
0.1242185 0.61291516 -0.2631003 -0.24261446 -0.24732101 0.24181871 0.33784696 0.16544631
-0.24592195 -0.3436407 0.6115017 -0.3017722 -0.029657075 -0.3436998 -0.48765573 0.67240155
0.17787533 -0.57364374 -0.29798388 0.057213314 -0.63477474 -0.114488214 0.43627173 -0.3286613
0.2894686 -0.3713813 0.46585217 0.35244498 0.24224322 -0.1290129 -0.20372507 0.0056472817
0.27860636 -0.13601519 0.19641814 0.57962734 -0.789398 -0.06943183 0.1106283 -0.34005213
0.1417813 -0.53442156 0.46293122 0.41739413 -0.7644718 -0.525832 0.038778815 0.45985547
-0.20432729 -0.10373232 0.19080967 0.1495622 -0.06998892 0.6415066 0.038324486 -0.41373488
-0.6882345 -0.7188667 -0.9584093 0.24696456 0.1138155 0.36910626 -0.25001335 -0.3992785
-0.18653764 -0.10002066 -0.30605954 -0.30690962 -0.32316676 -0.48089403 -0.21504837 0.31615052
0.2908028 0.31287834 0.105442494 0.66362274 0.3063865 -0.22640578 -0.5270533 0.19186045
-0.6925932 -0.7555545 0.3374947 -0.89206743 0.104300536 0.27982855 -0.082030855 0.38412532
0.024836844 0.43944898 -0.12764254 0.3337342 -0.17292234 0.48152453 0.0032167947 -0.33067432
0.1282525 0.35112295 0.38858083 0.30322817 0.91620314 -0.5971732 0.35066003 0.08259722
0.17884809 -0.69496965 0.28873092 -0.33696422 -0.47378054 0.77997947 0.5665783 0.22357714
0.2004077 0.08762093 -0.0012558002 0.06079821 0.39985073 -0.1111863 0.32053876 -0.09620999
-0.20210879 0.1239001 -0.6903557 0.53446865 -0.45230278 0.17390731 -0.09576458 0.20647968
0.554596 0.36463174 0.37915164 -0.6419862 -0.02608592 -0.64684886 0.34501958 0.20673288
-0.68896073 0.21007058 -0.09029033 -0.3520034 0.4379254 0.0063909087 0.24685214 -0.15671857
-0.08853887 -0.24069794 0.014120541 0.13919249 -0.25183 0.6481699 -0.10870726 -0.36807314
0.642895 -0.051032614 0.21183261 -0.31594852 -0.41839468 -0.22500147 0.13963881 0.031338707
-0.3338411 0.25456974 0.14002499 0.08351462 0.30933064 -0.37920442 -0.2676492 0.21185271
0.17773002 0.25754368 0.16854909 0.29383737 -0.5745758 0.21324769 -0.27955815 0.212212
-0.3448283 -0.16244009 -0.30725735 0.068113826 0.22437008 0.2299 -0.31363204 0.27012423
0.24683721 -0.4475585 0.21834001 -0.19604729 -0.17936791 0.29502252 0.21423684 0.30036613
-0.59394574 -0.3358076 0.1349125 0.2674924 -0.24041836 -0.51721007 -0.19202901 0.14852367
0.20294929 0.34632573 0.25972223 0.019117774 0.22997239 0.62444466 0.12739944 0.16421323
0.60175973 -0.10843819 -0.20924781 -0.18465096 0.2241547 0.09540255 0.27718112 -0.059261225
0.21545002 0.29832047 0.250078 0.42179555 -0.12519364 -0.2774685 -0.25358608 -0.35082385
0.14437562 -0.46976435 -0.25737807 0.2454793 -0.21991588 -0.026082272 0.3423533 0.24288444
-0.24539639 0.2395466 -0.17635272 -0.45473847 -0.038234938 -0.30874643 0.2501576 -0.19072357
0.24257097 -0.28472552 0.09990029 -0.4032545 -0.21416205 0.28123206 0.009081287 -0.30669656

lstm.bias_ih_l0 f4 [600]
00000000: 7b33 e6be e73d de3e 7ad3 82be a2d1 aa3e
00000010: a9d4 babe a198 0bbe b223 f03e 4b39 773e
00000020: 35c2 d03d 2806 0d3f 1f09 5d3c 2312 cabe
00000030: f0a2 ea3d c688 2a3e cf11 f93e c580 d63e
00000040: 91ad 7dbf 24e9 bebd debd 063f 3b7d 8cbc
00000050: 1317 2ebd 546c 5e3e 2bf2 42be d112 173f
00000060: 9222 fc3d c71f 08bf f048 3bbe 8a7a 82be
00000070: 704b babd 262b 51be 4310 fb3e 9851 d43e
00000080: 3d4b bf3e ac8a ae3e 2a1f f13e b24b c03e
00000090: 7bbe 8d3e 575f c6be f261 19bd e894 10be
000000a0: 497d 833e 756c eabe aafe 9abe f9cc 043f
000000b0: 1953 0abf 6b58 e8bb e535 06bf 9576 333c
000000c0: 6d32 98be 4ed0 cabe b34b 0a3d 4ef7 173e
000000d0: 7929 c9bd 6045 193c 3d65 10bd 4c19 303f
000000e0: 5916 bfbe 82ba 353e e4ee d13e 0aa4 713e
000000f0: bb78 26bf 68e6 513e a980 d43e 7ecb 5d3e
00000100: ccd1 50bf e93d e63d 03f7 de3e 60a5 ef3e
00000110: 912d 903e 8ef6 f83e 8ff8 aabc e2be 923e
00000120: 77ef d13e 797e c7be a89e cfbd c78b a63d
00000130: e216 ac3e 506c 0a3f 53b2 7e3e a6ce da3c
00000140: 5580 9e3e 3531 cf3e b8cc e73e 5a97 c73e
00000150: 568a e53d ac66 563e 88ce 653e 60aa 43be
00000160: 5b3a d43d fbe3 6d3e 6f48 823e 0875 f9bd
00000170: 673f 0a3e 0542 933e b1f5 19bf b315 1b3e
00000180: db30 f3bc c33d 233f 1062 923d 4f34 a03d
00000190: 2f27 12bf 46d0 933e e64c edbe e69b c63e
000001a0: e65a 82be 29db f13e e6f2 413f 2ec9 363f
000001b0: 739c 293d bd49 483e 0a27 cd3e 5d4f 913e
000001c0: 93a7 923e b836 7dbf f51c 043f 176a 453f
000001d0: 2afb 753c 2b22 d13e b5f7 3e3e 4b7c ac3e
000001e0: ebb2 59be 3ce8 973d 6d11 d2be 4cae 493e
000001f0: aec7 103f c135 12be ff6f ff3e 7d36 3f3e
00000200: f626 8abc d6b6 c5be 1a3f aebe 4303 463e
00000210: d039 b2be 9dff 673e 4235 e33d 3047 1fbb
00000220: c06f 8e3e bdd5 073e b4e4 af3e 2bb2 2abe
00000230: bad1 193e d04f 613e 5227 9c3e 4807 003f
00000240: 4a47 9e3e ef2d 123e d56d 943e b0af b23e
00000250: a6d5 bf3e ceb1 ddbc 273a 76be 725f 42be
00000260: a46b bdbe 55e5 103e 7522 a8be 9343 d1be
00000270: f06b 973e 0ef3 10bf 5822 8bbd 3de0 b4bd
00000280: 01d6 02be 3096 c1be 9ffc 8dbd 1fc7 983e
00000290: 3a16 e63e 1b6c 223e 9ab8 81be d1f8 e43d
000002a0: 687d ba3e d9e7 b03d a7ec abbe 9039 95be
000002b0: 12e2 993e 2931 4b3e e66d 5c3e 0ecd d13c
000002c0: e489 d3bc 7642 43bd 8d85 ddbe e8ed 143e
000002d0: 6a2b 853e 25e7 7a3c a3f8 cf3e 9c20 5d3e
000002e0: fb1a d03e 6124 86bd 6b2b 903e 269c 7abe
000002f0: 74ea 10be f9c2 51be 5277 813e 600f e93e
00000300: fb9c 993d 8d16 6abe 64ab b7be bb52 b03e
00000310: 0f3b 5ebe b830 b0be dc46 db3e b6b5 59be
00000320: 0a5f 5f3e dde7 303f 9bd4 233e 6420 55be
00000330: 3765 5dbe 804c 993e 0bbe 073e 5532 ae3e
00000340: 20a1 553d 8e76 d03e dc87 ddbe 7b80 01bf
00000350: f3d4 8bbe 756c aabe a447 6cbe fe05 0dbe
00000360: cae2 c93e fec1 c1bd bc18 3f3e 466d a43e
00000370: 8d83 3b3e c53c 973e 87e6 153f 6f78 7d3e
00000380: f9d8 85be 701e b3be 02d6 ef3d fa85 833e
00000390: 66b7 4f3e 2d8b d83e a862 303e 071b 9f3e
000003a0: ba62 8cbc 85d9 273f adf0 223e 529b ef3c
000003b0: dc3d 803e 75d0 f6bd 8678 8abe 4a70 39bd
000003c0: 3cfa 15be d8cd 0dbf 4770 703e 3919 753e
000003d0: 6077 413e cc7a 1a3e 48d2 f13b b7d2 283f
000003e0: af46 fabd 0991 fa3e 059d bb3e 8793 253e
000003f0: 4042 793e 7cda b5be 262b 80bd 31b1 993e
-0.4496115 0.43406603 -0.2555197 0.33363062 -0.36490372 -0.13632442 0.46902233 0.2414295
0.10193292 0.5508752 0.013490944 -0.39466962 0.11456859 0.16653737 0.486464 0.41895118
-0.99092966 -0.09321812 0.52633464 -0.017149558 -0.042502474 0.21721011 -0.19037692 0.59013087
0.12311281 -0.5317349 -0.18289542 -0.25484115 -0.0909642 -0.20426616 0.49035844 0.414685
0.3736209 0.34090173 0.4709409 0.3755775 0.27684388 -0.38744614 -0.037446924 -0.14119303
0.25681522 -0.4578587 -0.30272418 0.51875263 -0.54033047 -0.0070906184 -0.52425987 0.010953565
-0.29725972 -0.3961205 0.0337636 0.14840433 -0.098223634 0.009354919 -0.0352528 0.687886
-0.37321737 0.17746928 0.41002572 0.23597732 -0.6502797 0.2049805 0.4150441 0.21659657
-0.81570125 0.11242277 0.4354783 0.4680586 0.28159764 0.48625606 -0.020870475 0.28661257
0.4100301 -0.38963678 -0.10137683 0.08132129 0.33611208 0.5407152 0.24872713 0.026709866
0.30957285 0.4046723 0.45273376 0.3898266 0.11208026 0.20937604 0.22442067 -0.19107962
0.10362693 0.23231499 0.25445887 -0.12180525 0.13500749 0.28761306 -0.6014052 0.15144996
-0.029686382 0.63766116 0.0714761 0.07822477 -0.5709104 0.28869838 -0.4634773 0.38790816
-0.25459975 0.47237518 0.7576126 0.71400726 0.041408967 0.19559379 0.40068847 0.28380862
0.28643474 -0.9891162 0.51606685 0.77115005 0.015013495 0.4084638 0.1864918 0.33688578
-0.21259658 0.07417342 -0.4102892 0.19695395 0.5655469 -0.14278318 0.49890134 0.1867313
-0.016864281 -0.38616055 -0.34032518 0.19337182 -0.34809732 0.22656102 0.110941425 -0.0024303906
0.27819633 0.13265128 0.34354174 -0.16669528 0.1502141 0.22003102 0.3049875 0.5001111
0.30913764 0.14275335 0.28990045 0.34899664 0.37467688 -0.027062323 -0.24045621 -0.18981722
-0.36996186 0.14149983 -0.3283879 -0.40871868 0.29574537 -0.5662087 -0.0679366 -0.088318326
-0.12776949 -0.37809896 -0.06932949 0.29839417 0.44938833 0.15861551 -0.25336152 0.111802705
0.36423802 0.086379714 -0.3357899 -0.2914548 0.3005529 0.19842972 0.21526298 0.025610473
-0.025822587 -0.047670804 -0.43265954 0.14543879 0.26009685 0.015313898 0.40619382 0.2159447
0.40645584 -0.065499075 0.28158125 -0.24473628 -0.14151937 -0.20484532 0.25286347 0.45519543
0.07500645 -0.22860165 -0.35872948 0.34438118 -0.21702217 -0.3441217 0.428275 -0.21260723
0.21813598 0.69103795 0.15999071 -0.20813137 -0.21620642 0.29941177 0.1325609 0.34022775
0.052155614 0.4071545 -0.43267715 -0.5058667 -0.27310905 -0.3328587 -0.23074204 -0.13771817
0.3943084 -0.09460829 0.18661779 0.3211462 0.18311901 0.2953855 0.5855488 0.24752973
-0.261421 -0.3498416 0.117107406 0.25688154 0.20284805 0.42293683 0.17225134 0.31075308
-0.01713692 0.65566283 0.15912123 0.029248867 0.25047195 -0.12051479 -0.27045077 -0.045273103
-0.14646238 -0.5539222 0.2348033 0.23935403 0.18893194 0.15085906 0.007379804 0.65946525
-0.12220513 0.48938778 0.36643234 0.16169558 0.24341679 -0.35518253 -0.0625823 0.30018

lstm.bias_hh_l0 f4 [600]
00000000: 3df0 00bf 112c d03e f70e a3be b778 b03e
00000010: cc39 c6be a5df 0fbe 0ed7 dd3e ca0b 963e
00000020: b3ee ed3d 06a4 243f a3dd 8cbd 239f d4be
00000030: b25b 133e 1f49 343e 7f06 003f c915 eb3e
00000040: a394 79bf 3dfd c7bd 1e3e fb3e 017a 86bc
00000050: 086e 82bc 446e 833e ab42 1dbe 598e 203f
00000060: 958b 543e 3968 05bf 90a3 0fbe 737c a2be
00000070: 872a dbbd ee53 2bbe e6e6 d43e fd5b a43e
00000080: 7f1a c43e 8f06 b23e bed8 ed3e 8d6c d33e
00000090: ca5c 843e fb2d c4be aa3d 8bbd a0f1 57bd
000000a0: 9cd8 6d3e 2a01 c7be 9860 b4be ec55 e93e
000000b0: c49a 05bf 3a88 2b3d 4cb4 0ebf b405 bd3d
000000c0: 3875 83be fa1c a2be 01e3 cf3b dbd2 473e
000000d0: 0d63 07be 1934 a0bd 11ce d2bd d092 1c3f
000000e0: 1c6c d7be 4cd2 833e c59d be3e 9a61 8b3e
000000f0: d5e8 23bf 6859 8e3e d038 e63e ec00 4b3e
00000100: 0c79 48bf 4e8b 9a3d 8e85 ef3e 283f fe3e
00000110: dd59 833e 5c95 cc3e 4363 0c3d 8c60 9b3e
00000120: 0447 bf3e f37b c2be ea6f aabd 5920 123e
00000130: d658 d33e 841b 173f bfda 7d3e ed06 303d
00000140: aaa4 a33e 738e cf3e 607b 093f 4622 cf3e
00000150: 2edd cc3d 3fcd 553e 81f3 3b3e 988d 25be
00000160: e602 103e 79c0 963e d78a 3a3e 08a6 25be
00000170: 5053 3b3e 50a4 8b3e ef6a 16bf c05f 5f3e
00000180: aadd 2ebd b0d6 2c3f 8093 023e 72e5 f73d
00000190: 1e52 07bf 7a10 a93e 4332 f5be 013e 983e
000001a0: f845 6dbe 5bc3 ec3e fc4a 463f 96c3 483f
000001b0: 266e 4b3d 7d00 f03d d2ff bf3e fdbe a23e
000001c0: c969 783e 555a 82bf b6c9 fd3e b919 383f
000001d0: d8e5 d83b 316f b03e fae0 493e af77 b13e
000001e0: 473b 2fbe fa3b f33d 1856 cbbe c1fa 3a3e
000001f0: da4f 133f 227e f7bd fc03 f33e 9105 273e
00000200: 3b30 7abc 1e4a c9be f53c c0be 7583 203e
00000210: 6e5d b6be 3f36 303e 3c07 c83d 6139 d43c
00000220: edc7 893e a782 063e 1695 c83e 0df5 c5bd
00000230: 0ad6 723e 74ae 623e 3e9e a83e 13a1 f63e
00000240: 0df9 b83e d4ff 143e 7b44 873e 0aee 893e
00000250: 7bf8 af3e d0e6 c9bc 3592 60be 2e5d 39be
00000260: ccd2 a6be 201d 183e 6f26 adbe 6f1e c7be
00000270: 6764 883e 3e3f 21bf 0bf4 7ebc b467 50bd
00000280: 25e0 17be cfdd bdbe b2b6 96bd 81be 953e
00000290: 0a12 023f 5edd 143e 4fb1 82be 68b8 ed3d
000002a0: 0ccd a33e c772 6f3d aa48 a9be d641 86be
000002b0: f22d 8b3e 39b4 163e 1e29 183e 385e 4fbc
000002c0: aa42 cdbc feb8 c4bc 3577 babe a364 ee3d
000002d0: b027 8d3e b9cb ab3c 6f2c d33e fa13 313e
000002e0: 61b5 ab3e e725 f9bd bd2a 8f3e 4024 67be
000002f0: e21a 0abe 5dcd 55be fe10 8b3e dacb f73e
00000300: e115 b63d 045f 40be 2ec6 acbe 913f ae3e
00000310: 8d23 4fbe d398 b7be 2870 f33e 51d3 6bbe
00000320: 0801 393e 97a3 303f 3e66 473e a1e1 4abe
00000330: 1f9b 7abe 0fdf 543e cbf8 d53d f444 9a3e
00000340: 136f a63d 7a22 cb3e 2b41 cabe c8ef 00bf
00000350: 54f9 91be 2f58 80be 20e1 70be 5942 43be
00000360: 626e e13e 0960 bebd 64e6 613e e1bd a43e
00000370: ec53 2e3e a5e2 4f3e ec93 173f 5b31 483e
00000380: 8185 81be 640d afbe e89c 013d 9c7a 9b3e
00000390: 9314 523e 1610 f73e 5c74 023e 092c a73e
000003a0: 94f5 8dbd 4bda 203f 21f0 1c3e 87a3 b93c
000003b0: 75e4 a33e 7e18 fbbd c44a 83be 51af 96bc
000003c0: 1e6f 29be 5df3 0cbf 3583 843e 2503 413e
000003d0: 740c 493e 0cb4 c03d fbdf 983c b14f 253f
000003e0: 7883 fcbd 1cf9 f73e 177f a43e 28be 023e
000003f0: b90c 8c3e c234 9dbe 92d9 90bd 334e a43e
-0.50366575 0.4065862 -0.31847355 0.34467098 -0.3871597 -0.14050157 0.43328136 0.2930587
0.11617794 0.6431278 -0.06878211 -0.41527662 0.14390448 0.17606018 0.5000991 0.45915058
-0.97492427 -0.09765098 0.4907083 -0.016415598 -0.015921608 0.25670063 -0.15357463 0.62717205
0.20756371 -0.52112156 -0.14027238 -0.31735572 -0.10701471 -0.16731235 0.41582412 0.3210143
0.38301465 0.3477063 0.46454424 0.41293755 0.25852042 -0.3831633 -0.06798871 -0.052720666
0.23227161 -0.38868076 -0.35229945 0.45573366 -0.5218928 0.041877963 -0.5574386 0.092296034
-0.25675368 -0.31662732 0.0063441996 0.19514029 -0.13221379 -0.07822437 -0.1029321 0.6116152
-0.42074668 0.2574638 0.37229744 0.27222902 -0.6402715 0.27802587 0.4496522 0.1982457
-0.783097 0.075461015 0.46781582 0.4965756 0.25654498 0.39957702 0.03427435 0.30347097
0.37358868 -0.3798519 -0.08322127 0.14270152 0.41278714 0.5902636 0.24790476 0.042975355
0.31961566 0.40538368 0.5370388 0.40455836 0.10003124 0.20879076 0.18354608 -0.16167295
0.14063606 0.2944372 0.18217026 -0.16176617 0.182935 0.27273798 -0.5875692 0.2181387
-0.042691864 0.6751509 0.1275158 0.1210431 -0.52859676 0.33020383 -0.4788991 0.29734805
-0.23171222 0.46242794 0.7745817 0.7842344 0.049665593 0.11718843 0.37499863 0.31786337
0.24259104 -1.0183817 0.49567956 0.7191425 0.0066191964 0.34459832 0.19714728 0.34661624
-0.17112456 0.11876674 -0.39714122 0.18259718 0.5754372 -0.12084605 0.47463977 0.16310717
-0.015270288 -0.3931436 -0.37546507 0.15675147 -0.35618156 0.17208193 0.09767005 0.025906267
0.26910344 0.13135777 0.39176244 -0.0966588 0.23714462 0.22136861 0.3293323 0.48169765
0.3612751 0.14550716 0.26419434 0.26939422 0.34369263 -0.024646193 -0.21930774 -0.18101951
-0.325827 0.1485486 -0.33818385 -0.38890406 0.266391 -0.62987125 -0.015561114 -0.05088015
-0.14831598 -0.3708329 -0.07359065 0.29246905 0.50808775 0.1453757 -0.255259 0.11607438
0.31992376 0.05845907 -0.3306325 -0.26222104 0.2718349 0.14717187 0.14859435 -0.012656741
-0.025056202 -0.024013992 -0.36419073 0.11640289 0.27569342 0.020971166 0.41244838 0.17292777
0.3353682 -0.121654324 0.27962294 -0.22572422 -0.13486817 -0.20879121 0.27161402 0.48397714
0.08890892 -0.18786246 -0.3374495 0.34032872 -0.20228405 -0.35858783 0.47546506 -0.2302983
0.180668 0.6899962 0.19472596 -0.19812633 -0.24473237 0.20788215 0.10447844 0.30130732
0.081266545 0.3967474 -0.39502844 -0.5036588 -0.28510535 -0.2506728 -0.23523378 -0.19068278
0.44029528 -0.09295661 0.22060543 0.32176116 0.17024201 0.20301302 0.59210086 0.19550078
-0.25297168 -0.34189904 0.031643778 0.3036698 0.20515661 0.4825446 0.127397 0.32650784
-0.06931606 0.6283309 0.15325977 0.022660984 0.32010236 -0.12260531 -0.2564298 -0.018394144
-0.16546294 -0.5505884 0.25881353 0.18848856 0.19633657 0.09409341 0.01866149 0.64574724
-0.12329763 0.48432243 0.32128212 0.12767851 0.27353457 -0.30704314 -0.07072748 0.3209091

layernorm.weight f4 [150]
00000000: 0000 803f 0000 803f 0000 803f 0000 803f
00000010: 0000 803f 0000 803f 0000 803f 0000 803f
00000020: 0000 803f 0000 803f 0000 803f 0000 803f
00000030: 0000 803f 0000 803f 0000 803f 0000 803f
00000040: 0000 803f 0000 803f 0000 803f 0000 803f
00000050: 0000 803f 0000 803f 0000 803f 0000 803f
00000060: 0000 803f 0000 803f 0000 803f 0000 803f
00000070: 0000 803f 0000 803f 0000 803f 0000 803f
00000080: 0000 803f 0000 803f 0000 803f 0000 803f
00000090: 0000 803f 0000 803f 0000 803f 0000 803f
000000a0: 0000 803f 0000 803f 0000 803f 0000 803f
000000b0: 0000 803f 0000 803f 0000 803f 0000 803f
000000c0: 0000 803f 0000 803f 0000 803f 0000 803f
000000d0: 0000 803f 0000 803f 0000 803f 0000 803f
000000e0: 0000 803f 0000 803f 0000 803f 0000 803f
000000f0: 0000 803f 0000 803f 0000 803f 0000 803f
00000100: 0000 803f 0000 803f 0000 803f 0000 803f
00000110: 0000 803f 0000 803f 0000 803f 0000 803f
00000120: 0000 803f 0000 803f 0000 803f 0000 803f
00000130: 0000 803f 0000 803f 0000 803f 0000 803f
00000140: 0000 803f 0000 803f 0000 803f 0000 803f
00000150: 0000 803f 0000 803f 0000 803f 0000 803f
00000160: 0000 803f 0000 803f 0000 803f 0000 803f
00000170: 0000 803f 0000 803f 0000 803f 0000 803f
00000180: 0000 803f 0000 803f 0000 803f 0000 803f
00000190: 0000 803f 0000 803f 0000 803f 0000 803f
000001a0: 0000 803f 0000 803f 0000 803f 0000 803f
000001b0: 0000 803f 0000 803f 0000 803f 0000 803f
000001c0: 0000 803f 0000 803f 0000 803f 0000 803f
000001d0: 0000 803f 0000 803f 0000 803f 0000 803f
000001e0: 0000 803f 0000 803f 0000 803f 0000 803f
000001f0: 0000 803f 0000 803f 0000 803f 0000 803f
00000200: 0000 803f 0000 803f 0000 803f 0000 803f
00000210: 0000 803f 0000 803f 0000 803f 0000 803f
00000220: 0000 803f 0000 803f 0000 803f 0000 803f
00000230: 0000 803f 0000 803f 0000 803f 0000 803f
00000240: 0000 803f 0000 803f 0000 803f 0000 803f
00000250: 0000 803f 0000 803f
1.0 1.0 1.0 1.0 1.0 1.0 1.0 1.0
1.0 1.0 1.0 1.0 1.0 1.0 1.0 1.0
1.0 1.0 1.0 1.0 1.0 1.0 1.0 1.0
1.0 1.0 1.0 1.0 1.0 1.0 1.0 1.0
1.0 1.0 1.0 1.0 1.0 1.0 1.0 1.0
1.0 1.0 1.0 1.0 1.0 1.0 1.0 1.0
1.0 1.0 1.0 1.0 1.0 1.0 1.0 1.0
1.0 1.0 1.0 1.0 1.0 1.0 1.0 1.0
1.0 1.0 1.0 1.0 1.0 1.0 1.0 1.0
1.0 1.0 1.0 1.0 1.0 1.0 1.0 1.0
1.0 1.0 1.0 1.0 1.0 1.0 1.0 1.0
1.0 1.0 1.0 1.0 1.0 1.0 1.0 1.0
1.0 1.0 1.0 1.0 1.0 1.0 1.0 1.0
1.0 1.0 1.0 1.0 1.0 1.0 1.0 1.0
1.0 1.0 1.0 1.0 1.0 1.0 1.0 1.0
1.0 1.0 1.0 1.0 1.0 1.0 1.0 1.0
1.0 1.0 1.0 1.0 1.0 1.0 1.0 1.0
1.0 1.0 1.0 1.0 1.0 1.0 1.0 1.0
1.0 1.0 1.0 1.0 1.0 1.0

layernorm.bias f4 [150]
00000000: 0000 0000 0000 0000 0000 0000 0000 0000
00000010: 0000 0000 0000 0000 0000 0000 0000 0000
00000020: 0000 0000 0000 0000 0000 0000 0000 0000
00000030: 0000 0000 0000 0000 0000 0000 0000 0000
00000040: 0000 0000 0000 0000 0000 0000 0000 0000
00000050: 0000 0000 0000 0000 0000 0000 0000 0000
00000060: 0000 0000 0000 0000 0000 0000 0000 0000
00000070: 0000 0000 0000 0000 0000 0000 0000 0000
00000080: 0000 0000 0000 0000 0000 0000 0000 0000
00000090: 0000 0000 0000 0000 0000 0000 0000 0000
000000a0: 0000 0000 0000 0000 0000 0000 0000 0000
000000b0: 0000 0000 0000 0000 0000 0000 0000 0000
000000c0: 0000 0000 0000 0000 0000 0000 0000 0000
000000d0: 0000 0000 0000 0000 0000 0000 0000 0000
000000e0: 0000 0000 0000 0000 0000 0000 0000 0000
000000f0: 0000 0000 0000 0000 0000 0000 0000 0000
00000100: 0000 0000 0000 0000 0000 0000 0000 0000
00000110: 0000 0000 0000 0000 0000 0000 0000 0000
00000120: 0000 0000 0000 0000 0000 0000 0000 0000
00000130: 0000 0000 0000 0000 0000 0000 0000 0000
00000140: 0000 0000 0000 0000 0000 0000 0000 0000
00000150: 0000 0000 0000 0000 0000 0000 0000 0000
00000160: 0000 0000 0000 0000 0000 0000 0000 0000
00000170: 0000 0000 0000 0000 0000 0000 0000 0000
00000180: 0000 0000 0000 0000 0000 0000 0000 0000
00000190: 0000 0000 0000 0000 0000 0000 0000 0000
000001a0: 0000 0000 0000 0000 0000 0000 0000 0000
000001b0: 0000 0000 0000 0000 0000 0000 0000 0000
000001c0: 0000 0000 0000 0000 0000 0000 0000 0000
000001d0: 0000 0000 0000 0000 0000 0000 0000 0000
000001e0: 0000 0000 0000 0000 0000 0000 0000 0000
000001f0: 0000 0000 0000 0000 0000 0000 0000 0000
00000200: 0000 0000 0000 0000 0000 0000 0000 0000
00000210: 0000 0000 0000 0000 0000 0000 0000 0000
00000220: 0000 0000 0000 0000 0000 0000 0000 0000
00000230: 0000 0000 0000 0000 0000 0000 0000 0000
00000240: 0000 0000 0000 0000 0000 0000 0000 0000
00000250: 0000 0000 0000 0000
0.0 0.0 0.0 0.0 0.0 0.0 0.0 0.0
0.0 0.0 0.0 0.0 0.0 0.0 0.0 0.0
0.0 0.0 0.0 0.0 0.0 0.0 0.0 0.0
0.0 0.0 0.0 0.0 0.0 0.0 0.0 0.0
0.0 0.0 0.0 0.0 0.0 0.0 0.0 0.0
0.0 0.0 0.0 0.0 0.0 0.0 0.0 0.0
0.0 0.0 0.0 0.0 0.0 0.0 0.0 0.0
0.0 0.0 0.0 0.0 0.0 0.0 0.0 0.0
0.0 0.0 0.0 0.0 0.0 0.0 0.0 0.0
0.0 0.0 0.0 0.0 0.0 0.0 0.0 0.0
0.0 0.0 0.0 0.0 0.0 0.0 0.0 0.0
0.0 0.0 0.0 0.0 0.0 0.0 0.0 0.0
0.0 0.0 0.0 0.0 0.0 0.0 0.0 0.0
0.0 0.0 0.0 0.0 0.0 0.0 0.0 0.0
0.0 0.0 0.0 0.0 0.0 0.0 0.0 0.0
0.0 0.0 0.0 0.0 0.0 0.0 0.0 0.0
0.0 0.0 0.0 0.0 0.0 0.0 0.0 0.0
0.0 0.0 0.0 0.0 0.0 0.0 0.0 0.0
0.0 0.0 0.0 0.0 0.0 0.0

batchnorm.weight f4 [150]
00000000: dfcb 133f 13b6 903f 9d4a 613f 30ee 1e3f
00000010: 999f 6b3f ad6f 043f 5674 093f e079 313f
00000020: 4df2 973e 9b0d 083f 9267 013f b497 293f
00000030: a7e1 763f 9bf0 7c3f 4130 9a3f 4131 713f
00000040: 999e c83f a1b2 893f 4f5d 363f ce34 903f
00000050: ecfc b03f 44cd 413f de3e 343f 9119 173f
00000060: a2ca 873f a781 383f ff67 9c3f 9188 1f3f
00000070: a03d 803f 8dde f63e 6cef 253f 9380 b83e
00000080: 82de 273f dd7f 823f 3aca d63e 680a 743f
00000090: 5756 1f3f e4dd 323f 54c6 b93f 2e02 a43f
000000a0: 1bc5 7e3f 1e25 463f 6a08 153f 23b9 953f
000000b0: 925d 8f3f dfd5 8f3f 5686 503f 14df be3f
000000c0: 084e 9c3f faef 923f d060 ed3e b9c0 bf3f
000000d0: 04cc b33f b12c 5a3f bb0f 8f3f bc29 b73e
000000e0: a30a 9f3f a1dd 6b3f ff9a ed3e 0544 073f
000000f0: 0c1e dc3f f5d3 383f 74e9 573f 17f2 fc3e
00000100: 75cf 7a3f 4118 df3e 7e1b 193f 6d25 dc3e
00000110: d269 733f a266 8f3f 0a78 133f 4f79 7b3f
00000120: 3fab 1a3f 7f38 d33f f500 ca3f 88f0 4a3f
00000130: 5df6 713f b621 cc3e 9107 053f 56c5 1f3f
00000140: f02f 1b3f 51b0 333f 90bf a03f 2520 5a3f
00000150: 02d5 4b3f 9a61 593f e038 893f 4e7e 6e3e
00000160: a4df 603e 0124 183f dd45 d23e 86d5 8d3f
00000170: 6a6b 0a3f 2e3a 153f 4e57 863f 42be 4a3f
00000180: e9ff 823f 8090 693f 8a17 673f 1a08 383f
00000190: b9c1 dd3e 7ee3 eb3e 6d09 653f ca22 bd3f
000001a0: 81de 3a3f 6222 0d3f 34e6 5a3f ba86 0f3f
000001b0: 1da5 253e 87a2 673f d416 363f efa8 7c3f
000001c0: 7250 5c3f 95e4 ea3f d03a 473f 22d5 fd3f
000001d0: b2c1 673f 60ef fa3b cf36 be3f b4ce 5c3f
000001e0: 6af6 103f 1ac5 3d3f 44e4 b53f 8cec 633f
000001f0: 821a 393f 2352 123f 83ba 373f 09f4 263f
00000200: 7408 3f3f 5753 133f 9f6c 533f c0e6 413f
00000210: 3ea5 b63e 7e4c e63e 23d2 153f a45c 663f
00000220: 1f4c 0e3f 8db5 063f 59a2 853f 468c 773f
00000230: 9f4c 803f 4a10 7a3e b90d 103f 6b0e 833f
00000240: ddb8 4d3f 3438 d33e fd6b 5a3f 6a2a 0840
00000250: afa1 c33e 266c e73e
0.5773296 1.1305565 0.88004476 0.62082195 0.920404 0.51732904 0.5369314 0.6932659
0.29677048 0.5314576 0.5054866 0.66247106 0.9643807 0.98804635 1.2045976 0.9421578
1.56734 1.0757638 0.7123613 1.1266115 1.3827186 0.75703835 0.7040843 0.59023386
1.0608714 0.72072834 1.2219237 0.6231776 1.0018806 0.48216668 0.64818454 0.36035594
0.65573895 1.0195271 0.41951162 0.9532838 0.6224112 0.6986983 1.451365 1.2813165
0.9951951 0.77400386 0.58215964 1.1697124 1.120043 1.1237143 0.8145498 1.4911828
1.2211313 1.1479485 0.46362925 1.4980689 1.4046636 0.85224444 1.1176676 0.35774028
1.2425121 0.92135054 0.46407315 0.52838165 1.719667 0.7219842 0.84340596 0.4940345
0.97972804 0.43573192 0.59807575 0.42997304 0.95083344 1.1203196 0.5760504 0.9823198
0.6041755 1.6501616 1.5781542 0.7927327 0.94516546 0.3986947 0.5196467 0.62410486
0.6062002 0.7019091 1.255846 0.852053 0.796219 0.84914553 1.0720482 0.23290369
0.21960312 0.5942994 0.41068926 1.1080787 0.5407015 0.582919 1.0495393 0.7919656
1.0234348 0.91236115 0.9027029 0.7188736 0.4331186 0.46072 0.8946751 1.4776242
0.72995764 0.5513059 0.8550751 0.5606495 0.16176267 0.9048237 0.7112858 0.9869527
0.8606025 1.8351008 0.77824116 1.9830668 0.9052993 0.0076579303 1.4860476 0.86252904
0.56626 0.7412888 1.4210286 0.89032817 0.7230607 0.5715658 0.7176897 0.6521612
0.74622273 0.5754904 0.8258762 0.7574272 0.35672945 0.44980234 0.5852377 0.8998511
0.555849 0.52620775 1.044017 0.96698415 1.0023383 0.24420276 0.5627094 1.0238775
0.80360204 0.41253817 0.8532103 2.1275887 0.38209292 0.45199698

batchnorm.bias f4 [150]
00000000: 1910 bd3e 0887 423f 40c2 443f edd9 ac3e
00000010: b8bf 1f3f c90f 173f 2fdf 143f b5ac 8bbe
00000020: 6377 6fbf cffd f83e 4940 593f edf8 963f
00000030: 8cc3 333f 507a 2a3f c8ad f83e 9222 363f
00000040: 8c52 663f 344b 9d3f 152f e73e 4df0 113f
00000050: e687 4f3f 79f6 d33e 05e8 133f 0eac ae3e
00000060: 1dd8 353f 56bc 1a3f 000e 113f 4cc5 603f
00000070: abc9 533f 1b47 0c3f e433 043f 8e5d 153f
00000080: d2c0 f93e 079b 5d3f 364e f93e 8e09 573f
00000090: 33d5 273f ca89 3fbf cfe9 c83e 87e5 fa3e
000000a0: b256 1c3f 1877 623f e365 4cbd 93f8 753f
000000b0: aff3 423f 7480 30bf 972c cdbe 19b1 343f
000000c0: cfd8 b8be 5a37 c23e f384 ff3e 5618 373e
000000d0: 17aa 133f 9978 f73e 6d77 543f 0c8a a83e
000000e0: 310e 673f a6e7 3f3f 3857 183e 0f02 833f
000000f0: bb0a 153f 43d1 75bf 7c47 103f f7d2 3c3f
00000100: 558c e83e 47d3 013f 3a7d 7a3f 6cab 0f3f
00000110: 365c 5b3f dbaa e63e 88be 6c3f 0322 5c3f
00000120: 3232 17bf f363 413f db84 473f 9592 5c3f
00000130: def6 073f ba63 783f 14df 023f 8775 f63e
00000140: 763b 163f 2621 283f a2ec 043f f468 593f
00000150: f19a 203f 3de6 3f3f 98d9 6dbf f5e0 03bd
00000160: d0b8 51bf 09a1 fe3e 48d1 ee3e 2b3b a63e
00000170: 45f7 cb3e ddb2 dc3e cf5a 503f 9676 3c3f
00000180: e4c0 243f af5c ef3e 75e0 f0be 28ee 273f
00000190: 0b6c 05bf 371e cd3e 8520 efbe 935a 373f
000001a0: 05c3 4ebe c98b 393f 7b81 023f e9c7 2c3f
000001b0: 114c 703f 56df d73e bc8b 093f 2e23 d13e
000001c0: cba3 213f 6658 343f 4f42 0c3f a126 0c3f
000001d0: 995d 313f 3803 d93e 3505 01be 0572 fc3e
000001e0: d9d4 523f 0900 183f c794 d53e dfeb 553f
000001f0: 38d8 4d3f b3d5 c73e e666 0e3f 653d 8cbf
00000200: 1ef1 2f3f 2f1b bebe 0674 5e3f d0a4 c13e
00000210: 33fc 523f 8df4 0e3f fbd1 193f fefd d53e
00000220: 9c90 133f 8ad5 8a3d edbf aa3e 0de3 693f
00000230: e3f7 313f f35f 173f d4fa d03e a006 1a3f
00000240: 57a7 7a3f 3f53 7a3e 684d 403f 7c76 023f
00000250: da8b 823e a4a7 3d3f
0.36926344 0.7598729 0.768589 0.33760014 0.62401915 0.5900846 0.5815305 -0.27280203
-0.93541545 0.4863114 0.84863716 1.1794716 0.70220256 0.66592884 0.48570085 0.711465
0.89969707 1.2288575 0.45153108 0.57007295 0.8106674 0.4139898 0.5777591 0.34115642
0.7103289 0.6044363 0.5666199 0.8780105 0.82729596 0.54796 0.5164168 0.5834588
0.48779923 0.8656468 0.48692483 0.83998954 0.6555969 -0.74819624 0.39240882 0.4900324
0.61069787 0.8846297 -0.049901854 0.9608242 0.7615308 -0.68946004 -0.40073082 0.7058273
-0.36102912 0.37932855 0.4990612 0.17880377 0.5768141 0.48334196 0.8299473 0.3291782
0.9025603 0.7496284 0.14877021 1.0235003 0.582195 -0.96022433 0.56359076 0.73759407
0.45419565 0.5071301 0.9784733 0.56120944 0.8568758 0.45052227 0.9247823 0.859894
-0.59060967 0.75543135 0.77937096 0.86161166 0.53111064 0.9702717 0.5112164 0.4813654
0.5868448 0.6567558 0.51923573 0.8492577 0.6273642 0.7496069 -0.92910147 -0.032196958
-0.81922626 0.49732235 0.46644044 0.32467017 0.3983709 0.43105212 0.8138856 0.7361845
0.6435683 0.467504 -0.47046247 0.6559777 -0.52117985 0.40062115 -0.46704498 0.7162258
-0.20191582 0.7247892 0.5097882 0.6749254 0.9386607 0.4216258 0.5372884 0.40847152
0.63140553 0.70447385 0.5478868 0.54746443 0.69283444 0.42385268 -0.12599643 0.4930574
0.8235603 0.59375054 0.4171507 0.83563036 0.8040805 0.39030227 0.5562576 -1.0956236
0.6872729 -0.37130114 0.8689579 0.37821054 0.82416075 0.55841905 0.6008603 0.41795343
0.5764253 0.067790106 0.33349553 0.91362077 0.6951887 0.5913078 0.40816367 0.6016636
0.9791159 0.24445818 0.7511811 0.5096204 0.25497323 0.74083924

batchnorm.running_mean f4 [150]
00000000: 1300 3939 93b9 47bf 0eb4 1ab7 0e07 77bf
00000010: db20 be3e bd1c 33bc a11d 76bf 7ecb 363f
00000020: 8094 29b9 c259 70bf bd3c 0d3f 2892 19bd
00000030: eb49 103e d8e1 45bf 3559 52bf 4c14 c8be
00000040: 3252 9b3e 1f7e b7bd 41b4 5bbf 7b9a 573f
00000050: 2653 de3d 7bba 343f fdff 433f 2ce6 75bf
00000060: 4daf 1bbf f9a4 de3b ba72 613f bed2 9eb9
00000070: 9023 9fba 8f12 673f 8b17 77bf 8f5e 553c
00000080: e476 77bf 58d3 6c3f c11d 75bf 67aa 31bf
00000090: f3d6 96bd e398 ddbb d50b 983e 3991 9f3e
000000a0: f4ad 50bf 3d9e 73bc 608c c43b 94d5 aebe
000000b0: 2c57 15bb f8a3 c63b fd8d 2bbb 325a 613f
000000c0: f9d1 0e3a 6d73 f73d a092 82be 0591 61bf
000000d0: 0f87 123f 1cc2 cfb9 88cb cbbe e281 76bf
000000e0: cf2b 4a3f c4e7 0e3f 8156 a13b 96a6 bf3d
000000f0: 0c20 d93e d188 3ebf 8a68 ebbe bedf 3c3f
00000100: 9bf1 85b8 9175 213f 8dfb 6c3f 2e67 3fbf
00000110: f4ab 09bb 9a20 4dbf 97fe 5731 6629 743f
00000120: fb12 813a 09b9 d63e 6865 043f 0419 f139
00000130: 6a92 773f cdb3 4ebf 387c 5e3e 6ad0 76bf
00000140: 8126 76bf 4ed7 77bf df09 d6bd be14 e4be
00000150: 380e 36bf 4cd2 b2bb 6314 663f a9a8 8d3b
00000160: 41b5 3f3f 37f5 143f f2a7 95be c07a 103f
00000170: 8b78 6f3f 0147 74bf e081 0dbc 37f9 75bf
00000180: 5a99 03bf 5326 4dbf 0fff 0235 5b11 22bf
00000190: ebe9 2bba 777e 03bf 4e53 1d3a 184e 673f
000001a0: 245e 5137 5e4e 76bf 8173 75bf 7cac 74bf
000001b0: 3410 2ebf bdf3 9ebd 1a6d 5cbf a075 4fbf
000001c0: dd5d 96be 5b61 b83e 5ab4 75bf 078b 583f
000001d0: c5e2 babb b18c 72bf f7a1 4fbf bc04 2dba
000001e0: 0673 8bbc a754 12be 184c e63e c207 73bd
000001f0: d5a7 75bf 84f0 fcbc ccf7 e4be 9cde 213c
00000200: 25b7 bdba db24 91b7 2f90 13bd 8fd3 76bf
00000210: 39f4 7c3d 0b9e 6ebf 60c7 12bb 737c 64bb
00000220: f35e 70bf 06a5 5c3c c559 61bf 7172 1c3f
00000230: f16d 083f 0192 6d3f d0c1 74bf ed45 32bf
00000240: 23b8 713f ea65 75bf 2bc3 98be 7622 5d3f
00000250: 995c 6ebf fc54 273b
0.00017643003 -0.7801754 -9.2210375e-06 -0.9649514 0.37134442 -0.010932145 -0.9613896 0.71404254
-0.00016172417 -0.9388696 0.55170804 -0.0374929 0.14090697 -0.77297735 -0.8216737 -0.39077985
0.30336148 -0.089596026 -0.8582192 0.84220093 0.10855703 0.70597047 0.7656248 -0.9605434
-0.6081436 0.0067945686 0.88065684 -0.00030293124 -0.0012141336 0.90262693 -0.965203 0.013023033
-0.9666579 0.92509985 -0.95748526 -0.6940064 -0.07365217 -0.0067626103 0.29696527 0.31165484
-0.8151543 -0.01486927 0.0059981793 -0.34147322 -0.0022787554 0.006062027 -0.002617716 0.8802825
0.00054481585 0.120825626 -0.2550249 -0.8811191 0.57237333 -0.0003962674 -0.3980372 -0.96291935
0.78973097 0.55822396 0.004923642 0.093579456 0.42407262 -0.74427515 -0.45978194 0.73778903
-6.386937e-05 0.6307002 0.92571336 -0.74766815 -0.0021007033 -0.8012787 3.1431335e-09 0.9537567
0.0009847576 0.41938046 0.51717234 0.0004598574 0.96707785 -0.80743104 0.21727073 -0.96411765
-0.961525 -0.96812904 -0.104511015 -0.44547075 -0.71115446 -0.0054571982 0.8987486 0.0043230844
0.74885947 0.5818667 -0.29229695 0.564373 0.9354331 -0.95420843 -0.008636922 -0.96083397
-0.5140587 -0.80136603 4.8799933e-07 -0.6330773 -0.0006557989 -0.51364845 0.0006001488 0.90353537
1.247929e-05 -0.9621333 -0.9587937 -0.9557569 -0.67993474 -0.07761333 -0.86103976 -0.81038857
-0.29368487 0.36011776 -0.9597832 0.8458714 -0.0057033026 -0.9474593 -0.81106514 -0.0006600132
-0.01702262 -0.14290105 0.4497993 -0.05933357 -0.95959216 -0.030876406 -0.44720304 0.009879734
-0.0014474137 -1.730251e-05 -0.036026176 -0.9641656 0.061756346 -0.93209904 -0.0022396669 -0.0034864217
-0.9389488 0.013467079 -0.880276 0.61112124 0.5329276 0.9280091 -0.95608234 -0.6963795
0.94421595 -0.95858634 -0.298364 0.8638071 -0.9311004 0.0025532832
