src/results/subject_P3/best_model.pth (torch, 481333 bytes, 15 tensors)

input_linear.weight f4 [40, 40]
0.065555155 0.06847684 -0.13397345 -0.082429565 -0.14194484 0.088189065 0.0154310465 -0.029372841
0.0774422 -0.100509465 -0.09361552 0.035009295 0.08432582 0.12148909 -0.045181274 -0.10421711
0.08405253 0.09310354 0.05452259 0.12989514 0.089897454 0.12155019 -0.058249094 -0.117235646
0.10646762 -0.14225279 -0.05745864 -0.023179933 -0.05349215 0.13033007 -0.056456834 -0.057663903
-0.03503088 0.12108813 0.10165383 0.026445895 0.0881525 -0.1357077 -0.12077983 -0.14527431
0.0037586242 0.004335955 0.032489136 -0.04119139 0.04627067 -0.14581425 0.02919726 0.14079891
0.062321305 0.089131415 0.13733341 -0.12511499 -0.009287626 -0.023553908 0.08368115 0.060746446
0.01709567 0.029846504 0.12714468 -0.14855899 0.11425041 -0.15047775 -0.07302046 0.028971925
0.102194116 0.0622918 0.017626837 0.1297342 0.15114675 0.15462525 0.08520791 -0.10971245
-0.031980366 0.15257482 0.10178609 -0.053261198 -0.09962198 0.10667066 -0.11087313 -0.063489586
0.10746072 0.11334781 -0.10504894 0.036213264 -0.10081275 0.13180484 0.09598331 -0.06595269
-0.0067760497 0.122141615 -0.12759826 0.05860515 0.08938104 -0.10627608 -0.062187597 -0.04899028
0.059332803 0.062266022 0.15600814 0.11164914 0.023398504 -0.113563284 0.009512678 -0.1563618
-0.12104833 0.017355189 0.08297476 0.03684753 -0.09652257 0.036316052 -0.074717455 -0.03940347
-0.093059845 0.124864355 -0.1406401 0.03639242 0.11824657 -0.07635589 -0.15744478 0.07429214
-0.13688143 0.11441241 0.010353953 -0.0713539 0.14952524 0.07501745 -0.001811564 -0.023258835
0.07946275 0.09057933 -0.046585366 0.07870717 0.12431775 -0.0030285567 0.07048097 -0.12455623
0.0031230003 -0.13246039 0.00053809583 -0.079754055 0.11682664 -0.08515201 -0.0042612106 -0.0019138604
0.0020774007 -0.011928871 -0.107623875 0.12971301 -0.068047695 0.053238958 -0.03498146 0.15434547
0.03785844 0.14508657 -0.15485519 0.0028410554 0.11271609 0.13723193 0.0014965385 0.08256124
-0.12595917 0.109483466 -0.14415368 -0.101739526 0.0013229996 0.10608189 0.043954268 0.01487951
-0.04626722 0.029515386 0.11449255 -0.0567488 0.030923635 -0.0745547 -0.062217183 0.13871785
0.066525295 0.13951413 0.05370097 -0.048138097 -0.063265435 0.12122013 -0.15278283 0.034062386
0.13902663 0.028721869 -0.070386335 0.10149743 0.1150914 -0.15094918 0.14821933 0.09112011
-0.1381614 -0.112394825 0.046680763 0.03092961 -0.07420162 0.09324156 -0.056518503 -0.15458365
-0.10152216 -0.025579795 0.13956861 0.09779723 -0.108395495 -0.016761214 -0.13375331 -0.106513515
-0.12677573 -0.07460371 0.152718 -0.09413014 -0.12473589 -0.13969372 -0.019595012 0.0051309615
0.105500475 -0.14480062 0.13614036 -0.061785176 -0.12080546 0.004841462 -0.10192044 0.080844566
0.049487308 -0.055356316 0.07001428 0.023518503 -0.15290962 0.029478163 -0.07809783 -0.038318917
0.040113866 -0.124445885 0.0023502111 0.018369287 -0.15228288 0.12895422 0.04183875 0.06433898
-0.029030532 0.12666206 -0.15093051 -0.020694852 -0.15173891 0.055312797 0.124014005 0.14908494
-0.115688294 0.074399024 -0.08874388 -0.11704023 0.017819822 0.037898466 0.14428984 0.07356532
00000000: c841 863d 963d 8c3d 5630 09be d5d0 a8bd
00000010: fd59 11be 789c b43d 80d2 7c3c 509f f0bc
00000020: 049a 9e3d e8d7 cdbd 7eb9 bfbd e865 0f3d
00000030: 04b3 ac3d 46cf f83d 0010 39bd c86f d5bd
00000040: bc23 ac3d 12ad be3d 1453 5f3d 3b03 053e
00000050: 281c b83d 4eef f83d 9a96 6ebd 3e19 f0bd
00000060: b20b da3d b7aa 11be c059 6bbd d8e3 bdbc
00000070: 961a 5bbd 3f75 053e 483f 67bd fc30 6cbd
00000080: 8a7c 0fbd 0efd f73d e22f d03d 10a5 d83c
00000090: 4c89 b43d f6f6 0abe 6a5b f7bd cac2 14be
000000a0: 4053 763b a014 8e3b 5413 053d 4eb8 28bd
000000b0: 5086 3d3d 5550 15be 182f ef3c 972d 103e
000000c0: a044 7f3d 888a b63d 21a1 0c3e 251e 00be
000000d0: 202b 18bc 20f4 c0bc 0661 ab3d 44d1 783d
000000e0: 380c 8c3c a880 f43c 3732 023e d91f 18be
000000f0: 1efc e93d d716 1abe c08b 95bd 8856 ed3c
00000100: 264b d13d b025 7f3d 2866 903c 0bd9 043e
00000110: 37c6 1a3e 1556 1e3e 7c81 ae3d ecb0 e0bd
00000120: d8fd 02bd 933c 1c3e 3a75 d03d 6a28 5abd
00000130: 9c06 ccbd 2676 da3d 7411 e3bd d406 82bd
00000140: 5e14 dc3d e622 e83d e623 d7bd 5c54 143d
00000150: ea76 cebd d9f7 063e e692 c43d 3412 87bd
00000160: a009 debb 6225 fa3d 1ea9 02be f40b 703d
00000170: 680d b73d 46a7 d9bd 6cb8 7ebd 08aa 48bd
00000180: f406 733d a80a 7f3d 99c0 1f3e 4ea8 e43d
00000190: 38ae bf3c de93 e8bd 10db 1b3c 4f1d 20be
000001a0: 30e8 f7bd 782c 8e3c acee a93d 70ed 163d
000001b0: a0ad c5bd 24c0 143d 7705 99bd 8865 21bd
000001c0: 2996 bebd e2b8 ff3d f503 10be 3810 153d
000001d0: 422b f23d 7a60 9cbd 3439 21be 7a26 983d
000001e0: a52a 0cbe 0e51 ea3d a0a3 293c fe21 92bd
000001f0: 251d 193e c0a2 993d 0072 edba 5089 bebc
00000200: 5ebd a23d a881 b93d 4cd0 3ebd 3a31 a13d
00000210: 4e9a fe3d c07a 46bb 5458 903d 5617 ffbd
00000220: 40ab 4c3b b2a3 07be 000f 0d3a 1856 a3bd
00000230: ce42 ef3d 2d64 aebd a0a1 8bbb 80da faba
00000240: 0025 083b 5071 43bc e869 dcbd 7dd3 043e
00000250: 975c 8bbd 1811 5a3d b848 0fbd bd0c 1e3e
00000260: 7411 1b3d 9391 143e 5c92 1ebe 0031 3a3b
00000270: b2d7 e63d 8786 0c3e 8027 c43a de15 a93d
00000280: 71fb 00be de38 e03d 069d 13be d05c d0bd
00000290: 8068 ad3a 7641 d93d 6409 343d 30c9 733c
000002a0: b282 3dbd 40ca f13c 127b ea3d 6e71 68bd
000002b0: 9053 fd3c 22b0 98bd 72d7 7ebd 0d0c 0e3e
000002c0: 6a3e 883d cbdc 0e3e 8cf5 5b3d 742c 45bd
000002d0: 4f91 81bd 4242 f83d 1a73 1cbe 0085 0b3d
000002e0: ff5c 0e3e 204a eb3c b626 90bd e2dd cf3d
000002f0: 0ab5 eb3d 6c92 1abe cfc6 173e 2e9d ba3d
00000300: 2f7a 0dbe 422f e6bd 5434 3f3d 1860 fd3c
00000310: 05f7 97bd 6ef5 be3d f27f 67bd 2d4b 1ebe
00000320: daea cfbd b88c d1bc 13eb 0e3e ea49 c83d
00000330: 75fe ddbd d04e 89bc a1f6 08be c223 dabd
00000340: 7fd1 01be d4c9 98bd 1b62 1c3e 4ec7 c0bd
00000350: 8875 ffbd df0b 0fbe b885 a0bc a021 a83b
00000360: a210 d83d 9d46 14be 6168 0b3e 7412 7dbd
00000370: da68 f7bd 20a5 9e3b aabb d0bd d691 a53d
00000380: 34b3 4a3d 4ebd 62bd a663 8f3d e0a9 c03c
00000390: 5794 1cbe 307c f13c c1f1 9fbd 4cf4 1cbd
000003a0: 704e 243d 7cdd febd 0006 1a3b 307b 963c
000003b0: 0bf0 1bbe 930c 043e 1c5f 2b3d 28c4 833d
000003c0: 70d1 edbc b3b3 013e 878d 1abe 4088 a9bc
000003d0: 7261 1bbe ac8f 623d 0efb fd3d b9a9 183e
000003e0: fced ecbd 845e 983d 5abf b5bd cab2 efbd
000003f0: e0fa 913c 6c3b 1b3d b7c0 133e 6aa9 963d

input_linear.bias f4 [40]
-0.12876095 0.03026332 -0.081156775 -0.073692694 0.112316385 0.11865048 0.10724448 0.04305631
-0.032313943 -0.059884757 -0.091229506 -0.14738256 -0.12184278 -0.015386805 0.02934426 -0.020329416
0.01701516 0.14248808 -0.093522996 0.06315361 0.14339568 0.08738126 0.11038475 -0.12396112
-0.07740467 -0.045558713 0.019616693 -0.03879179 0.062911615 -0.03339211 0.042374372 -0.13625328
0.115503654 -0.13637859 -0.122641906 -0.086489335 0.09628491 0.060254708 -0.08266282 0.15721478
00000000: e9d9 03be c8ea f73c 8635 a6bd 32ec 96bd
00000010: 2206 e63d 06ff f23d fea2 db3d d05b 303d
00000020: a05b 04bd b849 75bd 89d6 babd 74eb 16be
00000030: b588 f9bd f018 7cbc 6063 f03c e089 a6bc
00000040: 6063 8b3c 65e8 113e fc88 bfbd ae56 813d
00000050: 51d6 123e f2f4 b23d 6611 e23d 54df fdbd
00000060: 5786 9ebd c69b 3abd 30b3 a03c 24e4 1ebd
00000070: ced7 803d 2ac6 08bd c090 2d3d fb85 0bbe
00000080: 2e8d ec3d d4a6 0bbe ae2b fbbd 5221 b1bd
00000090: 0631 c53d a4cd 763d 204b a9bd e9fc 203e

lstm.weight_ih_l0 f4 [600, 40]
0.108683564 0.052179664 0.120533735 0.40563738 -0.11876705 0.06328127 0.17491837 -0.14040357
-0.16696618 -0.15885377 0.34437814 0.3756644 -0.17620054 0.10606344 -0.16507699 0.07618061
0.6290048 0.3483015 0.39974508 0.077890754 0.1581962 0.084596254 0.24680597 -0.18116681
0.12534806 0.21719989 -0.23523583 -0.041876744 0.41257885 0.19105135 0.38099748 0.106578134
0.34244758 0.62303627 0.27533513 -0.20201312 0.1472566 0.49847302 0.5549327 -0.13829055
0.13439585 -0.715554 -0.04375193 -0.7469083 -0.6043802 -0.085577734 -0.02888548 0.021770874
0.04821645 0.02903877 -0.35186994 -0.31778368 0.17362548 -0.07888965 1.4083108 -0.46935734
0.12644227 -0.37109184 -0.36963785 -0.08120633 -0.077466644 -0.07616138 -0.036939688 -0.12383761
-0.023837494 0.20841564 0.11864608 0.12302338 -0.4036629 0.44433072 -0.4125734 -0.027275003
-0.3871289 0.13916765 -0.017805774 -0.0983764 -0.02196353 0.1257696 0.2898944 1.465421
0.13621864 -0.26509488 -0.08389142 -0.18318902 -0.35673028 -0.11637368 -0.08600293 0.045204278
0.1217392 0.06855941 -0.21240513 -0.21459426 0.025187023 -0.081938416 0.22719127 -0.03622068
-0.0125834895 -0.14431281 -0.19881375 -0.05158425 -0.12643318 -0.08802937 -0.14365461 -0.14732341
-0.034678742 0.2716031 0.08675735 0.023645354 -0.20081535 0.028580599 -0.1466706 -0.09891232
-0.21205065 0.02847349 -0.116503134 -0.0737268 -0.050499137 0.1541602 -0.042927504 0.27185196
-0.53974104 0.24913125 0.49737734 0.31677178 0.51406974 0.5064424 0.5094598 -0.40431577
-0.52918994 -0.40835452 0.40707377 -0.1753787 0.49794918 0.48151037 -0.46291456 -0.09695765
-0.43071577 0.37576228 0.3781542 0.49688846 0.49494666 0.45187974 0.010089112 0.021852106
0.48194048 0.10400478 0.11082082 0.11969958 0.38558996 -0.13203602 0.37272128 0.49919108
0.3794068 -0.4401907 -0.034337845 0.0153502915 0.48375425 -0.06160549 0.029775215 -0.44804797
0.17779072 -0.45746112 -0.3537352 -0.7544767 -0.19517729 -0.34148365 -0.4566531 0.38477793
0.4077176 0.413996 -0.855505 -0.42393664 0.12714422 -0.366712 1.0145918 -0.51773196
-0.8986314 -0.8275769 -0.75500375 -0.4233961 -0.329813 -0.33794615 0.5707223 -0.1225719
-0.38394758 0.14861806 -0.1790791 -0.21682625 -0.8108848 -0.08973926 -0.7688014 -0.40968642
-0.82953984 -0.8842066 0.57781875 -0.066939555 -0.4065674 0.040548746 -0.063970804 1.0898874
-0.0381035 0.18535444 0.48804623 0.13873753 0.054191455 0.50476104 0.39921653 -0.4896476
-0.4427927 -0.5017065 0.08632883 -0.29157 0.36832035 0.48713934 -0.19846298 0.11115974
0.09658765 0.083877146 0.14888804 0.42027605 0.42049685 0.4318059 -0.10365151 0.20916337
0.45331144 -0.05223647 -0.17867498 0.083844595 0.10809868 -0.19376697 0.17959464 0.43685454
0.11749791 0.03912726 -0.13420498 0.21287023 0.4490352 0.45306003 0.26132601 -0.16348284
1.0379647 0.17627588 0.08566289 0.24356207 -0.010902716 0.08633136 0.13211498 -0.077488
-0.1627066 -0.11873296 0.022653535 -0.20422265 0.15937445 0.15415673 0.63175964 0.25674033
00000000: 7d95 de3d 58ba 553d 64da f63d b4af cf3e
00000010: 243c f3bd 9c99 813d cd1d 333e f4c5 0fbe
00000020: 2ff9 2abe 90aa 22be 5552 b03e 1657 c03e
00000030: ea6d 34be ca37 d93d f109 29be 9404 9c3d
00000040: 7506 213f 9354 b23e 63ab cc3e 3085 9f3d
00000050: 2ffe 213e cd40 ad3d b4ba 7c3e cb83 39be
00000060: 3e5b 003e a669 5e3e a9e1 70be f386 2bbd
00000070: 893d d33e f7a2 433e 1a12 c33e a345 da3d
00000080: 4a55 af3e 4e7f 1f3f baf8 8c3e 87dc 4ebe
00000090: 6fca 163e db37 ff3e 1210 0e3f 0a9c 0dbe
000000a0: 119f 093e 8c2e 37bf 3935 33bd 6235 3fbf
000000b0: a9b8 1abf 6143 afbd 3ea1 ecbc d558 b23c
000000c0: 9d7e 453d b7e2 ed3c 4c28 b4be 8bb4 a2be
000000d0: e1ca 313e e690 a1bd 8743 b43f 9b4f f0be
000000e0: 157a 013e c0ff bdbe 2c41 bdbe 814f a6bd
000000f0: d5a6 9ebd 7ffa 9bbd 124e 17bd 939e fdbd
00000100: d946 c3bc e96a 553e b7fc f23d aff3 fb3d
00000110: e7ac cebe 517f e33e d23c d3be d46f dfbc
00000120: c235 c6be f781 0e3e 6add 91bc 9179 c9bd
00000130: dcec b3bc bfc9 003e 0a6d 943e ea92 bb3f
00000140: e67c 0b3e 84ba 87be 44cf abbd e795 3bbe
00000150: 5aa5 b6be 5355 eebd 4e22 b0bd 1f28 393d
00000160: 6752 f93d e068 8c3d bb80 59be 99be 5bbe
00000170: 0455 ce3c 54cf a7bd d4a4 683e 235c 14bd
00000180: fb2a 4ebc bdc6 13be d595 4bbe 024a 53bd
00000190: b377 01be be48 b4bd 321a 13be f3db 16be
000001a0: 4c0b 0ebd 900f 8b3e d6ad b13d e7b3 c13c
000001b0: 8aa2 4dbe dc21 ea3c d130 16be 8b92 cabd
000001c0: ce23 59be 3d41 e93c 3299 eebd 14fe 96bd
000001d0: 2fd8 4ebd 2cdc 1d3e c0d4 2fbd 2e30 8b3e
000001e0: 782c 0abf 431c 7f3e 3ea8 fe3e e92f a23e
000001f0: 139a 033f 36a6 013f f56b 023f 7a02 cfbe
00000200: fe78 07bf d813 d1be f96b d03e 7996 33be
00000210: 32f3 fe3e 8788 f63e 2303 edbe bb91 c6bd
00000220: c786 dcbe ea63 c03e 6d9d c13e 2a68 fe3e
00000230: a669 fd3e c85c e73e ce4c 253c 3003 b33c
00000240: e7c0 f63e 7500 d53d 07f6 e23d 0e25 f53d
00000250: 0c6c c53e 7334 07be 53d5 be3e f995 ff3e
00000260: 9c41 c23e ad60 e1be d7a5 0cbd ca7f 7b3c
00000270: a3ae f73e 0a56 7cbd 27eb f33c 8b66 e5be
00000280: c50e 363e 5838 eabe c81c b5be 6325 41bf
00000290: 8edc 47be f2d6 aebe 6fce e9be 9d01 c53e
000002a0: 5cc0 d03e 49f7 d33e 6002 5bbf 390e d9be
000002b0: 1832 023e adc1 bbbe 25de 813f 158a 04bf
000002c0: b50c 66bf 14dc 53bf ed47 41bf 60c7 d8be
000002d0: 40dd a8be 4707 adbe db1a 123f fa06 fbbd
000002e0: c794 c4be 552f 183e 8360 37be b307 5ebe
000002f0: 2596 4fbf 38c9 b7bd 2bd0 44bf 6bc2 d1be
00000300: b95c 54bf 5d5b 62bf eeeb 133f 9b17 89bd
00000310: 9a29 d0be 7116 263d 2003 83bd 6e81 8b3f
00000320: 6a12 1cbd 8ecd 3d3e 32e1 f93e 3611 0e3e
00000330: dcf7 5d3d 0538 013f 1c66 cc3e 17b3 fabe
00000340: bab5 e2be d66f 00bf 2bcd b03d aa48 95be
00000350: 7c94 bc3e 546a f93e e139 4bbe b8a7 e33d
00000360: bfcf c53d c8c7 ab3d 1b76 183e 6c2e d73e
00000370: 5d4b d73e aa15 dd3e 3e47 d4bd ec2e 563e
00000380: 7018 e83e e9f5 55bd 93f6 36be b7b6 ab3d
00000390: d762 dd3d d96a 46be a8e7 373e 66ab df3e
000003a0: bfa2 f03d e843 203d 086d 09be a7fa 593e
000003b0: f1e7 e53e 7cf7 e73e 86cc 853e 0c68 27be
000003c0: 07dc 843f aa81 343e 0670 af3d 5668 793e
000003d0: 4ea1 32bc 7fce b03d 2649 073e 07b2 9ebd
000003e0: 8f9c 26be 442a f3bd e893 b93c be1f 51be
000003f0: 0e33 233e 43db 1d3e 00bb 213f 7873 833e

lstm.weight_hh_l0 f4 [600, 150]
0.25978416 -0.29342744 -0.31545252 -0.15771933 -0.0027822733 -0.063226014 -0.11407045 0.060220946
-0.050036307 -0.01885083 0.31626382 -0.21693523 -0.14102247 -0.2776304 -0.13445358 0.17392477
-0.0018756866 -0.10302441 -0.5354565 -0.065286264 0.16947669 -0.120953575 0.06581044 -0.07019791
0.32877862 -0.28268856 -0.29297334 -0.12871197 -0.1741702 -0.1704011 -0.04202888 0.08532813
-0.13413846 -0.17190662 -0.11249223 -0.20421135 0.018787323 -0.26082486 -0.10020508 -0.104313806
-0.20600702 0.07285488 -0.15842058 0.053453468 -0.19388898 -0.098585665 0.046165034 -0.121865764
-0.018076943 -0.1502076 -0.1331324 -0.20996997 -0.02826212 -0.113798186 -0.10081891 -0.11396068
0.6779431 -0.0070046065 -0.061293997 -0.13974725 -0.05180459 0.18723144 0.071185306 -0.20478807
-0.22499129 -0.20516907 0.02333155 -0.060000744 0.14498381 0.26055104 -0.2111304 -0.33510926
-0.13810277 0.22758995 0.13468713 -0.13558331 -0.22548434 0.19697362 0.36751455 -0.026875839
-0.2598077 0.23994279 0.19591609 -0.18549688 0.061378825 -0.13772929 -0.08180963 0.17285879
0.018546106 0.13267899 -0.111567825 -0.16144669 -0.04748894 -0.16261245 -0.19495265 -0.14466804
-0.098401204 -0.076206736 0.03704848 -0.43977058 0.52102906 -0.08169739 -0.0029101183 0.2606759
-0.08425888 0.04159836 -0.12803075 -0.20439385 -0.10569989 -0.11610456 -0.0723252 -0.18780585
-0.22709024 -0.08508596 0.5198441 -0.014804672 -0.22736013 -0.102033384 0.08497976 -0.16122484
0.20458484 -0.19572024 -0.18877213 0.11900605 0.021592379 0.68764997 0.09266343 -0.20484439
0.25358883 -0.043509368 -0.13877478 -0.29120007 -0.30375323 -0.074951306 -0.22456324 -0.07184794
-0.1464431 -0.12950759 -0.131819 -0.19564943 0.15186098 -0.081431895 -0.15525508 -0.103254095
-0.028627504 -0.21212494 -0.29427248 -0.19954437 -0.06307235 -0.019951291 -0.44102934 -0.52871555
0.00036238474 0.18124108 -0.62301105 0.16777873 0.80382204 -0.14015567 0.3812137 0.6219889
0.105333984 0.23617297 -0.2890368 -0.4273474 0.46088317 -0.50437367 0.29599845 -0.13383165
-0.01905943 -0.06414621 -0.17993008 -0.17764226 -0.21456905 0.32477343 -0.14036469 -0.00587297
0.37304407 -0.18289879 -0.35025698 0.29306892 -0.115992896 -0.525364 -0.3925843 0.23951727
-0.55440134 0.45138782 0.0155708175 0.28855217 0.37006068 0.38418806 0.3528617 -0.43367296
-0.2163123 0.07920506 0.21514222 -0.19773349 -0.19128409 0.1399817 0.7541296 0.017293809
0.116033815 0.4911139 0.4785136 0.5174779 0.27546042 0.4950566 -0.3210962 -0.43924522
0.14739203 0.5068286 -0.13563909 -0.43278843 -0.19735937 0.09534153 -0.087586276 0.2842683
-0.035995945 0.42934316 -0.33466774 -0.26144627 -0.066799305 -0.22096322 -0.0059408443 -0.2944814
-0.1869358 0.38615093 -0.09943854 -0.46815014 -0.2695605 -0.27464014 0.4652638 -0.35270193
-0.4071625 0.31992298 -0.12658602 0.45063916 0.37205362 -0.39514908 -0.26929095 -0.26303133
0.42729157 -0.046804234 0.23717485 0.29271358 0.43194515 0.25205663 0.558347 0.31053323
0.0043201176 -0.22750163 -0.05827027 0.5544511 0.76819956 0.10403699 0.2128109 -0.55569136
00000000: 6e02 853e 1f3c 96be fe82 a1be 2d81 21be
00000010: cd56 36bb a47c 81bd c59d e9bd 3daa 763d
00000020: dff2 4cbd 0e6d 9abc 55ed a13e 4524 5ebe
00000030: 3268 10be 9225 8ebe 33ae 09be 5619 323e
00000040: 99d9 f5ba 76fe d2bd ad13 09bf ceb4 85bd
00000050: 4c8b 2d3e 82b6 f7bd a0c7 863d ecc3 8fbd
00000060: ac55 a83e 8ebc 90be 9a00 96be 12cd 03be
00000070: ac59 32be a07d 2ebe 7a26 2cbd 84c0 ae3d
00000080: 985b 09be 4a08 30be 5462 e6bd c81c 51be
00000090: dfe7 993c d68a 85be 5238 cdbd 7aa2 d5bd
000000a0: 81f3 52be f034 953d 0139 22be 06f2 5a3d
000000b0: d58a 46be 48e7 c9bd 8c17 3d3d c294 f9bd
000000c0: 1916 94bc 05d0 19be dc53 08be 5e02 57be
000000d0: f685 e7bc 060f e9bd 257a cebd 3864 e9bd
000000e0: ae8d 2d3f e686 e5bb 6a0f 7bbd e719 0fbe
000000f0: 0d31 54bd 99b9 3f3e 9ac9 913d f7b3 51be
00000100: 1e64 66be d717 52be cf21 bf3c 57c3 75bd
00000110: a376 143e f266 853e 9132 58be 7193 abbe
00000120: d06a 0dbe 570d 693e 6ceb 093e 5ad6 0abe
00000130: 5ee5 66be 74b3 493e de2a bc3e b82a dcbc
00000140: 8405 85be 90b3 753e 3a9e 483e e5f2 3dbe
00000150: 5d68 7b3d e808 0dbe cf8b a7bd e501 313e
00000160: 01ee 973c 00dd 073e ac7d e4bd 4852 25be
00000170: c383 42bd e183 26be aba1 47be dc23 14be
00000180: 9286 c9bd 4712 9cbd 26c0 173d 9c29 e1be
00000190: 2962 053f f650 a7bd afb7 3ebb 5077 853e
000001a0: eb8f acbd 0b63 2a3d 7e1a 03be 9f4c 51be
000001b0: 2f79 d8bd 3ac8 edbd 3c1f 94bd 2d50 40be
000001c0: 588a 68be 8c41 aebd 8114 053f 4c8f 72bc
000001d0: 18d1 68be e1f6 d0bd de09 ae3d 2018 25be
000001e0: b07e 513e e36a 48be 7b4d 41be 72b9 f33d
000001f0: 80e2 b03c d409 303f 53c6 bd3d bac2 51be
00000200: 65d6 813e e136 32bd fa1a 0ebe 2d18 95be
00000210: 8b85 9bbe 1280 99bd e8f3 65be 0325 93bd
00000220: 2ef5 15be a39d 04be 8ffb 06be 5358 48be
00000230: 7281 1b3e c4c5 a6bd 30fb 1ebe e276 d3bd
00000240: 3a84 eabc 4837 59be e2aa 96be 5c55 4cbe
00000250: 142c 81bd e470 a3bc 99ce e1be e759 07bf
00000260: 75fe bd39 4397 393e a77d 1fbf 30ce 2b3e
00000270: 48c7 4d3f f884 0fbe 712e c33e aa3a 1f3f
00000280: 58b9 d73d 54d7 713e a2fc 93be 47cd dabe
00000290: e1f8 eb3e a21e 01bf 1c8d 973e 2a0b 09be
000002a0: 8622 9cbc 175f 83bd 973f 38be dae7 35be
000002b0: fdb7 5bbe b448 a63e c3bb 0fbe 0b72 c0bb
000002c0: a2ff be3e d249 3bbe e254 b3be 210d 963e
000002d0: af8d edbd 417e 06bf cf00 c9be 0444 753e
000002e0: 3fed 0dbf 4e1c e73e be1c 7f3c 1cbd 933e
000002f0: 9878 bd3e 4cb4 c43e 4aaa b43e 620a debe
00000300: f980 5dbe 4336 a23d 3e4e 5c3e a67a 4abe
00000310: fadf 43be 5d57 0f3e a30e 413f bfab 8d3c
00000320: 23a3 ed3d 4873 fb3e bcff f43e 6f79 043f
00000330: 2609 8d3e 0f78 fd3e b966 a4be c0e4 e0be
00000340: f0ed 163e 85bf 013f f9e4 0abe 7296 ddbe
00000350: 9318 4abe 6c42 c33d 6f60 b3bd 9d8b 913e
00000360: 7c70 13bd ded2 db3e 9259 abbe 49dc 85be
00000370: 13ce 88bd 2f44 62be 6aab c2bb 44c6 96be
00000380: 196c 3fbe 93b5 c53e 6fa6 cbbd 60b1 efbe
00000390: d503 8abe a29d 8cbe 0f37 ee3e 5995 b4be
000003a0: 9a77 d0be f2cc a33e c49f 01be 2dba e63e
000003b0: d07d be3e fb50 cabe 81e0 89be 0bac 86be
000003c0: f6c5 da3e ccb5 3fbd f7dd 723e 8ede 953e
000003d0: ea27 dd3e 910d 813e d4ef 0e3f 36fe 9e3e
000003e0: c68f 8d3b 30f6 68be ceac 6ebd 82f0 0d3f
000003f0: baa8 443f 5811 d53d 1aeb 593e ca41 0ebf

lstm.bias_ih_l0 f4 [600]
0.16174659 -0.08560673 -0.060333833 0.41697896 -0.3972941 0.46251324 0.12406657 -0.041153803
0.32808632 0.17687067 0.054178238 0.22190565 0.22140028 -0.73800886 0.20198424 -0.16287847
0.46037772 -0.12241715 0.010850208 0.04585589 -0.05047315 -0.2312124 0.64249635 0.47803256
0.3562417 -0.07191854 -0.14796454 0.60707515 0.32982954 -0.0052600238 -0.31817558 0.2724557
-0.24362858 0.32525617 -0.14051715 0.237327 0.5095009 -0.14402145 0.22650473 0.5204975
0.046402786 0.41459167 -0.5773045 -0.3023051 0.18134803 0.097087696 -0.31967035 -0.7470156
0.28470525 0.29622564 0.5299572 0.23405267 0.2751944 0.050981127 0.31827033 -0.24355878
0.24671979 -0.06430571 0.81178004 -0.11354241 0.0013572664 -0.061283324 -0.10463665 0.6010954
0.71881074 0.41158262 -0.10148072 0.67572266 0.5850033 0.25301325 -0.10645861 0.29633167
0.39134523 -0.5275112 -0.2815037 0.34148172 -0.15876272 -0.14643884 -0.018133748 -0.37728992
0.50299364 0.22371255 0.36210525 0.1214644 -0.16651933 0.14207387 0.41980222 0.10728254
0.39279008 0.32525307 0.22760978 0.29616085 0.26039085 0.25243828 0.759934 0.31595048
0.07189258 0.46710062 -0.27134022 -0.11330834 0.3740032 0.2766571 -0.19683062 -0.1248713
-0.40370792 0.2554148 0.43279457 0.51400244 0.2337599 -0.31549346 -0.2913102 -0.07510061
0.16738726 -0.12487379 0.055148907 -0.18281908 0.29792526 0.20486374 -0.29931054 0.10154534
0.26304656 0.53865445 0.26592067 -0.0474507 -0.2546925 -0.33888924 -0.070965245 0.59919053
-0.6378552 0.43867302 -0.17229106 0.2209014 0.26136872 0.22068873 0.007648539 -0.10534393
0.042934813 0.36632714 -0.25463656 0.31635487 0.18961555 0.38993514 0.5442231 0.32963973
-0.43060473 0.12666477 0.018367728 -0.2476454 0.27928758 0.31868887 -0.20118581 -0.03545395
-0.25323334 0.12995647 -0.032945648 0.088377155 -0.2597789 -0.008851381 -0.48461092 -0.26647
-0.2786351 0.2515021 -0.5263771 -0.5044124 -0.1167982 0.10969493 0.56745213 0.27672225
-0.15289578 -0.2620287 -0.049308993 -0.3033929 0.19309609 0.17583543 -0.061796848 -0.3946893
-0.33612588 -0.05035337 -0.20404108 -0.29913992 -0.11973197 -0.07332287 0.111063935 0.4181275
0.17644954 0.21242888 0.2824332 -0.20386513 0.3532023 0.0663173 0.1378958 -0.34958854
-0.199737 0.12984595 0.099764496 -0.3658637 -0.22347924 -0.51312983 0.59583944 -0.25330994
0.47645745 0.060628995 0.2612778 0.6599017 -0.5215185 0.15217201 0.7240931 -0.23601371
0.28148773 -0.08542137 0.39200526 -0.12272155 -0.35876054 0.3083359 0.38792846 0.023764769
-0.28284955 0.21699344 0.36973312 -0.13523133 -0.33295608 0.34723035 0.00043169886 -0.22545253
-0.12574601 0.07246971 -0.13041358 -0.21858801 -0.12634514 -0.32555592 0.5545131 -0.30236623
0.09995224 0.19743364 0.34944323 0.062566385 0.048487958 0.29344139 -0.21365252 0.26074013
-0.17574121 -0.76540655 0.2641631 -0.12891762 0.35462564 0.4452824 -0.3086728 0.40776324
-0.045357954 -0.38021776 0.29173797 0.20414183 -0.24570371 -0.18777424 0.08927329 -0.13985683
00000000: e6a0 253e 9552 afbd 9c20 77bd 447e d53e
00000010: 226a cbbe 89ce ec3e 9d16 fe3d e490 28bd
00000020: eefa a73e 961d 353e 00ea 5d3d 3c3b 633e
00000030: c1b6 623e 26ee 3cbf f5d4 4e3e 9dc9 26be
00000040: a1b6 eb3e d8b5 fabd 12c5 313c 63d3 3b3d
00000050: efbc 4ebd f2c2 6cbe a47a 243f afc0 f43e
00000060: 5065 b63e 074a 93bd 0484 17be 4769 1b3f
00000070: 6bdf a83e 475c acbb e9e7 a2be 507f 8b3e
00000080: c579 79be fa87 a63e bae3 0fbe d905 733e
00000090: a76e 023f 5c7a 13be dbf0 673e 533f 053f
000000a0: d910 3e3d 5c45 d43e 3aca 13bf bcc7 9abe
000000b0: 4cb3 393e ead5 c63d d5ab a3be 6a3c 3fbf
000000c0: e3c4 913e e3aa 973e 46ab 073f 81ab 6f3e
000000d0: 48e6 8c3e 96d1 503d 54f4 a23e 7967 79be
000000e0: 1da4 7c3e b6b2 83bd d1d0 4f3f ec88 e8bd
000000f0: 4ee6 b13a 3904 7bbd bd4b d6bd 63e1 193f
00000100: fb03 383f f5ba d23e 20d5 cfbd 29fc 2c3f
00000110: c7c2 153f f48a 813e f906 dabd c9b8 973e
00000120: 675e c83e f90a 07bf 4121 90be b1d6 ae3e
00000130: b292 22be 10f4 15be 3a8d 94bc 252c c1be
00000140: 31c4 003f e714 653e dc65 b93e 54c2 f83d
00000150: 0b84 2abe d07b 113e 51f0 d63e f3b6 db3d
00000160: c81b c93e 9287 a63e 8a12 693e 65a2 973e
00000170: f351 853e 973f 813e 098b 423f 43c4 a13e
00000180: 6b3c 933d d027 ef3e 1bed 8abe 340e e8bd
00000190: 597d bf3e 00a6 8d3e f78d 49be 86bc ffbd
000001a0: ceb2 cebe bbc5 823e 4097 dd3e aa95 033f
000001b0: c15e 6f3e 5c88 a1be 9c26 95be 59ce 99bd
000001c0: 9167 2b3e d4bd ffbd d2e3 613d ed34 3bbe
000001d0: a989 983e cdc7 513e 3b3f 99be 01f7 cf3d
000001e0: 0aae 863e 42e5 093f c126 883e aa5b 42bd
000001f0: 0e67 82be e482 adbe 3a56 91bd 8d64 193f
00000200: 7a4a 23bf c099 e03e 116d 30be fa33 623e
00000210: 1fd2 853e 3afc 613e 98a0 fa3b 8fbe d7bd
00000220: 6adc 2f3d 3b8f bb3e b95f 82be 44f9 a13e
00000230: 942a 423e 94a5 c73e 3552 0b3f 8ac6 a83e
00000240: 3978 dcbe 69b4 013e eb77 963c c196 7dbe
00000250: c8fe 8e3e 302b a33e a703 4ebe 2938 11bd
00000260: cda7 81be 4f13 053e 04f2 06bd 15ff b43d
00000270: bd01 85be 6205 11bc ec1e f8be c16e 88be
00000280: 43a9 8ebe e2c4 803e a6c0 06bf 2c21 01bf
00000290: e533 efbd bca7 e03d 8b44 113f 8aae 8d3e
000002a0: b690 1cbe a028 86be 3af8 49bd 5056 9bbe
000002b0: fbba 453e 340e 343e b11e 7dbd b714 cabe
000002c0: b118 acbe 563f 4ebd 25f0 50be de28 99be
000002d0: 0936 f5bd 4d2a 96bd 7d75 e33d cf14 d63e
000002e0: 30af 343e f586 593e 169b 903e 05c2 50be
000002f0: efd6 b43e 5dd1 873d 8e34 0d3e 45fd b2be
00000300: db87 4cbe 56f6 043e 5451 cc3d 7d52 bbbe
00000310: bed7 64be 7a5c 03bf ef88 183f d7b1 81be
00000320: 3bf2 f33e 1c56 783d 34c6 853e 51ef 283f
00000330: 3d82 05bf fbd2 1b3e 2a5e 393f 94ad 71be
00000340: 291f 903e 66f1 aebd eab4 c83e 7055 fbbd
00000350: 76af b7be 34de 9d3e 8f9e c63e 55ae c23c
00000360: a8d1 90be 8733 5e3e a94d bd3e 157a 0abe
00000370: 3879 aabe 2dc8 b13e a455 e239 07dd 66be
00000380: 90c3 00be 006b 943d 238b 05be 89d5 5fbe
00000390: 9f60 01be 44af a6be 92f4 0d3f bfcf 9abe
000003a0: c3b3 cc3d 0b2c 4a3e 39ea b23e ce22 803d
000003b0: 4f9b 463d f33d 963e bac7 5abe bb7f 853e
000003c0: 81f5 33be aff1 43bf 6340 873e fb02 04be
000003d0: 7e91 b53e 0efc e33e 5c0a 9ebe 58c6 d03e
000003e0: 43c9 39bd e7ab c2be ae5e 953e 8e0a 513e
000003f0: c199 7bbe e447 40be ead4 b63d a136 0fbe

lstm.bias_hh_l0 f4 [600]
0.15734664 -0.026669366 -0.10309575 0.43173668 -0.40062812 0.4885547 0.0974613 -0.0948152
0.26804876 0.112022504 0.057971355 0.26591304 0.17447251 -0.6734752 0.23832962 -0.21364476
0.5002607 -0.13156588 -0.037788168 0.06051667 -0.015603494 -0.21660565 0.60491866 0.42652154
0.4199464 -0.111666635 -0.15276676 0.5969256 0.2782046 0.0011642058 -0.27562737 0.28555527
-0.18243743 0.31521735 -0.1703693 0.3220376 0.46563035 -0.088670336 0.22292967 0.5307221
0.11410805 0.43840244 -0.64616686 -0.23341855 0.17567226 0.088992864 -0.3232379 -0.7705677
0.30223078 0.29734972 0.5153272 0.20032479 0.3028229 0.043750074 0.30846992 -0.23657238
0.2495168 -0.022620136 0.7893013 -0.1037877 -0.0760293 0.013568391 -0.058193605 0.6108425
0.67207336 0.3623426 -0.12123791 0.6403746 0.52628994 0.30502248 -0.06773678 0.32467166
0.41978207 -0.44639692 -0.30969778 0.34920096 -0.22431654 -0.16177006 -0.06016838 -0.29537636
0.41808063 0.1481155 0.31497228 0.15439954 -0.13009928 0.15572454 0.45863062 0.090523645
0.30894056 0.2917902 0.20456783 0.2637687 0.2790372 0.33009952 0.7220243 0.27244613
0.13224159 0.49803168 -0.24164118 -0.07262924 0.3438089 0.28429735 -0.20699607 -0.12099381
-0.39076886 0.23176154 0.43206656 0.55683535 0.29188716 -0.36332634 -0.30621332 -0.071885735
0.12223203 -0.14679818 0.0713594 -0.1945467 0.3329999 0.22251536 -0.2627404 0.13424607
0.25622782 0.49249446 0.19441114 -0.01731006 -0.26452056 -0.35462034 -0.05879079 0.5531677
-0.6331718 0.48536304 -0.1990797 0.22120214 0.32117626 0.24122119 -0.03497244 -0.1772267
0.04221231 0.3338682 -0.23977487 0.29602984 0.2569985 0.3225349 0.5764174 0.379721
-0.5108821 0.13945986 0.05919433 -0.16190994 0.3216596 0.2750246 -0.2094065 -0.11028755
-0.28172156 0.09821954 -0.035781424 0.1010118 -0.2359091 -0.025711546 -0.48895726 -0.23851265
-0.34293526 0.26636037 -0.54777277 -0.518208 -0.14250359 0.08635773 0.58735543 0.24047211
-0.20684452 -0.21840331 -0.0381881 -0.24659911 0.18027772 0.15102313 -0.081844054 -0.4218905
-0.40520447 -0.06673301 -0.16213095 -0.23917238 -0.12778805 -0.09319243 0.11301091 0.39119804
0.16474606 0.15959467 0.32047743 -0.19240937 0.38341197 0.14414401 0.09616986 -0.3487039
-0.2332928 0.15287396 0.14158535 -0.3002264 -0.19356425 -0.46978915 0.59076595 -0.2130742
0.52366525 0.090634994 0.22565542 0.5973654 -0.5951357 0.18152119 0.72131205 -0.25464904
0.31843674 -0.111786515 0.4329658 -0.13853244 -0.32713732 0.29274762 0.33372232 0.015365817
-0.25508663 0.22871518 0.32476074 -0.15623441 -0.34892485 0.36892423 0.055246234 -0.13671191
-0.13910563 0.02842574 -0.14615315 -0.28271276 -0.2256973 -0.29275474 0.6121625 -0.38219285
0.019545414 0.22221896 0.34015268 0.050803095 0.09919176 0.33421046 -0.1704331 0.28899422
-0.23722279 -0.71059155 0.31369552 -0.08100894 0.34307978 0.44634062 -0.2982936 0.46830222
-0.07991429 -0.39777082 0.3267281 0.24742904 -0.23741859 -0.16749269 0.09702674 -0.18198594
00000000: 7a1f 213e b779 dabc dd23 d3bd 970c dd3e
00000010: 211f cdbe d723 fa3e ca99 c73d 792e c2bd
00000020: b03d 893e 0e6c e53d 5f73 6d3d c125 883e
00000030: eca8 323e df68 2cbf ae0c 743e b1c5 5abe
00000040: 1611 003f 35b9 06be c4c7 1abd 54e0 773d
00000050: cca5 7fbc dfcd 5dbe f3db 1a3f 0861 da3e
00000060: 3703 d73e 7ab1 e4bd e46e 1cbe 1ed0 183f
00000070: d570 8e3e 4498 983a 081f 8dbe 4d34 923e
00000080: e1d0 3abe 2b64 a13e 4a75 2ebe 1de2 a43e
00000090: 1a67 ee3e cb98 b5bd ad47 643e 67dd 073f
000000a0: 7bb1 e93d 4976 e03e 316b 25bf 4605 6fbe
000000b0: 6ee3 333e e441 b63d 707f a5be ed43 45bf
000000c0: febd 9a3e 393e 983e 7cec 033f f121 4d3e
000000d0: 9a0b 9b3e 4733 333d c5ef 9d3e 0840 72be
000000e0: 5581 7f3e dd4d b9bc a60f 4a3f a58e d4bd
000000f0: 40b5 9bbd f54d 5e3c 6b5c 6ebd 2d60 1c3f
00000100: 000d 2c3f f884 b93e 954b f8bd 97ef 233f
00000110: f0ba 063f e82b 9c3e 95b9 8abd 5d3b a63e
00000120: aded d63e 238e e4be b590 9ebe 78ca b23e
00000130: 3cb3 65be 0da7 25be 1f73 76bd 923b 97be
00000140: aa0e d63e 97ab 173e 0c44 a13e ea1a 1e3e
00000150: bf38 05be 4176 1f3e a2d1 ea3e 7664 b93d
00000160: 752d 9e3e 8665 953e 3b7a 513e b10c 873e
00000170: f7dd 8e3e ce02 a93e 96d6 383f 0f7e 8b3e
00000180: 576a 073e 02fe fe3e c970 77be a4be 94bd
00000190: b807 b03e 6c8f 913e c7f6 53be 9acb f7bd
000001a0: db12 c8be e652 6d3e d437 dd3e c38c 0e3f
000001b0: 3c72 953e e905 babe fec7 9cbe d438 93bd
000001c0: c954 fa3d 4352 16be e124 923d 4037 47be
000001d0: f77e aa3e 11db 633e e985 86be cd77 093e
000001e0: 4b30 833e 3c28 fc3e b713 473e d4cd 8dbc
000001f0: 3d6f 87be cc90 b5be 9dce 70bd 669c 0d3f
00000200: 8c17 22bf 8181 f83e 8ddb 4bbe d082 623e
00000210: 3771 a43e b002 773e 433f 0fbd eb7a 35be
00000220: d1e6 2c3d c6f0 aa3e 8b87 75be 3991 973e
00000230: 4f95 833e 4b23 a53e 1790 133f ca6a c23e
00000240: 2bc9 02bf 91ce 0e3e c175 723d b8cb 25be
00000250: 91b0 a43e 06d0 8c3e a86e 56be 70de e1bd
00000260: cf3d 90be 5427 c93d 8b8f 12bd 46df ce3d
00000270: 2892 71be 05a1 d2bc 9b58 fabe a93c 74be
00000280: 3695 afbe 6360 883e d63a 0cbf 48a9 04bf
00000290: 76ec 11be 52dc b03d ed5c 163f 523e 763e
000002a0: 0dcf 53be 1ea5 5fbe 206b 1cbd 7a84 7cbe
000002b0: b99a 383e cfa5 1a3e db9d a7bd 0802 d8be
000002c0: f676 cfbe 51ab 88bd a805 26be 9be9 74be
000002d0: dfda 02be acdb bebd 4472 e73d 1c4b c83e
000002e0: 31b3 283e c96c 233e 9e15 a43e f606 45be
000002f0: 934e c43e 7d9a 133e b4f4 c43d 5189 b2be
00000300: 4fe4 6ebe fe8a 1c3e c0fb 103e 46b7 99be
00000310: b535 46be 3488 f0be 703c 173f 2030 5abe
00000320: ed0e 063f d79e b93d 3712 673e f0ec 183f
00000330: d05a 18bf b1e0 393e e8a7 383f 5c61 82be
00000340: 240a a33e 54f0 e4bd b1ad dd3e 73db 0dbe
00000350: 8b7e a7be 04e3 953e a7dd aa3e e8c0 7b3c
00000360: b79a 82be 5034 6a3e 0a47 a63e eafb 1fbe
00000370: 47a6 b2be a3e3 bc3e e049 623d 35fe 0bbe
00000380: b571 0ebe 19dd e83c 2ca9 15be babf 90be
00000390: 311d 67be f3e3 95be aeb6 1c3f c8ae c3be
000003a0: b41d a03c 5e8d 633e 7e28 ae3e e816 503d
000003b0: 0d25 cb3d a21d ab3e 0486 2ebe 0df7 933e
000003c0: 88ea 72be 54e9 35bf b39c a03e 04e8 a5bd
000003d0: 27a8 af3e c286 e43e f0b9 98be 4fc5 ef3e
000003e0: 1aaa a3bd 9ea8 cbbe e848 a73e 0a5e 7d3e
000003f0: dc1d 73be 3483 2bbe f5b5 c63d 865a 3abe

layernorm.weight f4 [150]
1.0 1.0 1.0 1.0 1.0 1.0 1.0 1.0
1.0 1.0 1.0 1.0 1.0 1.0 1.0 1.0
1.0 1.0 1.0 1.0 1.0 1.0 1.0 1.0
1.0 1.0 1.0 1.0 1.0 1.0 1.0 1.0
1.0 1.0 1.0 1.0 1.0 1.0 1.0 1.0
1.0 1.0 1.0 1.0 1.0 1.0 1.0 1.0
1.0 1.0 1.0 1.0 1.0 1.0 1.0 1.0
1.0 1.0 1.0 1.0 1.0 1.0 1.0 1.0
1.0 1.0 1.0 1.0 1.0 1.0 1.0 1.0
1.0 1.0 1.0 1.0 1.0 1.0 1.0 1.0
1.0 1.0 1.0 1.0 1.0 1.0 1.0 1.0
1.0 1.0 1.0 1.0 1.0 1.0 1.0 1.0
1.0 1.0 1.0 1.0 1.0 1.0 1.0 1.0
1.0 1.0 1.0 1.0 1.0 1.0 1.0 1.0
1.0 1.0 1.0 1.0 1.0 1.0 1.0 1.0
1.0 1.0 1.0 1.0 1.0 1.0 1.0 1.0
1.0 1.0 1.0 1.0 1.0 1.0 1.0 1.0
1.0 1.0 1.0 1.0 1.0 1.0 1.0 1.0
1.0 1.0 1.0 1.0 1.0 1.0
00000000: 0000 803f 0000 803f 0000 803f 0000 803f
00000010: 0000 803f 0000 803f 0000 803f 0000 803f
00000020: 0000 803f 0000 803f 0000 803f 0000 803f
00000030: 0000 803f 0000 803f 0000 803f 0000 803f
00000040: 0000 803f 0000 803f 0000 803f 0000 803f
00000050: 0000 803f 0000 803f 0000 803f 0000 803f
00000060: 0000 803f 0000 803f 0000 803f 0000 803f
00000070: 0000 803f 0000 803f 0000 803f 0000 803f
00000080: 0000 803f 0000 803f 0000 803f 0000 803f
00000090: 0000 803f 0000 803f 0000 803f 0000 803f
000000a0: 0000 803f 0000 803f 0000 803f 0000 803f
000000b0: 0000 803f 0000 803f 0000 803f 0000 803f
000000c0: 0000 803f 0000 803f 0000 803f 0000 803f
000000d0: 0000 803f 0000 803f 0000 803f 0000 803f
000000e0: 0000 803f 0000 803f 0000 803f 0000 803f
000000f0: 0000 803f 0000 803f 0000 803f 0000 803f
00000100: 0000 803f 0000 803f 0000 803f 0000 803f
00000110: 0000 803f 0000 803f 0000 803f 0000 803f
00000120: 0000 803f 0000 803f 0000 803f 0000 803f
00000130: 0000 803f 0000 803f 0000 803f 0000 803f
00000140: 0000 803f 0000 803f 0000 803f 0000 803f
00000150: 0000 803f 0000 803f 0000 803f 0000 803f
00000160: 0000 803f 0000 803f 0000 803f 0000 803f
00000170: 0000 803f 0000 803f 0000 803f 0000 803f
00000180: 0000 803f 0000 803f 0000 803f 0000 803f
00000190: 0000 803f 0000 803f 0000 803f 0000 803f
000001a0: 0000 803f 0000 803f 0000 803f 0000 803f
000001b0: 0000 803f 0000 803f 0000 803f 0000 803f
000001c0: 0000 803f 0000 803f 0000 803f 0000 803f
000001d0: 0000 803f 0000 803f 0000 803f 0000 803f
000001e0: 0000 803f 0000 803f 0000 803f 0000 803f
000001f0: 0000 803f 0000 803f 0000 803f 0000 803f
00000200: 0000 803f 0000 803f 0000 803f 0000 803f
00000210: 0000 803f 0000 803f 0000 803f 0000 803f
00000220: 0000 803f 0000 803f 0000 803f 0000 803f
00000230: 0000 803f 0000 803f 0000 803f 0000 803f
00000240: 0000 803f 0000 803f 0000 803f 0000 803f
00000250: 0000 803f 0000 803f

layernorm.bias f4 [150]
0.0 0.0 0.0 0.0 0.0 0.0 0.0 0.0
0.0 0.0 0.0 0.0 0.0 0.0 0.0 0.0
0.0 0.0 0.0 0.0 0.0 0.0 0.0 0.0
0.0 0.0 0.0 0.0 0.0 0.0 0.0 0.0
0.0 0.0 0.0 0.0 0.0 0.0 0.0 0.0
0.0 0.0 0.0 0.0 0.0 0.0 0.0 0.0
0.0 0.0 0.0 0.0 0.0 0.0 0.0 0.0
0.0 0.0 0.0 0.0 0.0 0.0 0.0 0.0
0.0 0.0 0.0 0.0 0.0 0.0 0.0 0.0
0.0 0.0 0.0 0.0 0.0 0.0 0.0 0.0
0.0 0.0 0.0 0.0 0.0 0.0 0.0 0.0
0.0 0.0 0.0 0.0 0.0 0.0 0.0 0.0
0.0 0.0 0.0 0.0 0.0 0.0 0.0 0.0
0.0 0.0 0.0 0.0 0.0 0.0 0.0 0.0
0.0 0.0 0.0 0.0 0.0 0.0 0.0 0.0
0.0 0.0 0.0 0.0 0.0 0.0 0.0 0.0
0.0 0.0 0.0 0.0 0.0 0.0 0.0 0.0
0.0 0.0 0.0 0.0 0.0 0.0 0.0 0.0
0.0 0.0 0.0 0.0 0.0 0.0
00000000: 0000 0000 0000 0000 0000 0000 0000 0000
00000010: 0000 0000 0000 0000 0000 0000 0000 0000
00000020: 0000 0000 0000 0000 0000 0000 0000 0000
00000030: 0000 0000 0000 0000 0000 0000 0000 0000
00000040: 0000 0000 0000 0000 0000 0000 0000 0000
00000050: 0000 0000 0000 0000 0000 0000 0000 0000
00000060: 0000 0000 0000 0000 0000 0000 0000 0000
00000070: 0000 0000 0000 0000 0000 0000 0000 0000
00000080: 0000 0000 0000 0000 0000 0000 0000 0000
00000090: 0000 0000 0000 0000 0000 0000 0000 0000
000000a0: 0000 0000 0000 0000 0000 0000 0000 0000
000000b0: 0000 0000 0000 0000 0000 0000 0000 0000
000000c0: 0000 0000 0000 0000 0000 0000 0000 0000
000000d0: 0000 0000 0000 0000 0000 0000 0000 0000
000000e0: 0000 0000 0000 0000 0000 0000 0000 0000
000000f0: 0000 0000 0000 0000 0000 0000 0000 0000
00000100: 0000 0000 0000 0000 0000 0000 0000 0000
00000110: 0000 0000 0000 0000 0000 0000 0000 0000
00000120: 0000 0000 0000 0000 0000 0000 0000 0000
00000130: 0000 0000 0000 0000 0000 0000 0000 0000
00000140: 0000 0000 0000 0000 0000 0000 0000 0000
00000150: 0000 0000 0000 0000 0000 0000 0000 0000
00000160: 0000 0000 0000 0000 0000 0000 0000 0000
00000170: 0000 0000 0000 0000 0000 0000 0000 0000
00000180: 0000 0000 0000 0000 0000 0000 0000 0000
00000190: 0000 0000 0000 0000 0000 0000 0000 0000
000001a0: 0000 0000 0000 0000 0000 0000 0000 0000
000001b0: 0000 0000 0000 0000 0000 0000 0000 0000
000001c0: 0000 0000 0000 0000 0000 0000 0000 0000
000001d0: 0000 0000 0000 0000 0000 0000 0000 0000
000001e0: 0000 0000 0000 0000 0000 0000 0000 0000
000001f0: 0000 0000 0000 0000 0000 0000 0000 0000
00000200: 0000 0000 0000 0000 0000 0000 0000 0000
00000210: 0000 0000 0000 0000 0000 0000 0000 0000
00000220: 0000 0000 0000 0000 0000 0000 0000 0000
00000230: 0000 0000 0000 0000 0000 0000 0000 0000
00000240: 0000 0000 0000 0000 0000 0000 0000 0000
00000250: 0000 0000 0000 0000

batchnorm.weight f4 [150]
-0.23252591 1.290361 0.9012693 1.1659757 0.66835874 0.6714596 0.90790194 0.43919396
0.62076104 0.8541358 0.44873297 0.5219211 1.1892877 0.8151666 0.5897086 0.6488716
0.61835885 0.8614137 0.9430409 0.579077 0.8479908 0.6855779 0.7137374 0.52560025
0.79916376 1.1590291 1.005247 1.1614214 0.7414991 1.0257975 1.0712296 0.63990027
0.81422246 0.5870556 0.2595972 0.7483552 0.3512418 1.0813669 0.9814116 0.48746076
1.1965741 1.059951 1.2427157 0.5066422 0.5765767 1.0873038 0.91783154 1.5573082
0.8678876 0.8394024 0.66806597 1.3556815 0.836501 0.5746765 1.2784593 0.747928
0.14631733 1.2562025 0.49915662 0.7008709 0.8537893 0.83696705 0.96293575 0.9266902
0.4915129 0.67575115 0.7674858 1.1345215 1.1809905 0.8485246 0.78165114 0.90371156
0.7586729 1.6300751 0.9433957 0.36498183 0.07297659 0.4726572 1.0504602 1.4234338
1.0848634 1.0176904 1.1209443 0.60084856 0.7516152 0.48342532 1.04624 1.5602579
0.7611163 1.1388882 0.43977413 1.1924207 0.99637777 0.58297104 0.5160275 0.6041459
0.85685533 0.6606796 0.6481746 0.48978737 0.6060183 0.8970082 1.2189776 0.41622698
0.51747096 1.0278019 0.33681378 1.0146465 1.6416197 1.184328 0.39740828 0.8800383
0.8527587 0.43373445 0.18951201 1.6379471 0.9924538 0.85479957 0.5669969 0.9657561
1.4226344 0.498116 0.99583936 0.36723995 1.5551183 0.1863311 0.70029026 0.2793816
1.2395045 0.5479734 1.0729743 0.63898957 0.6068378 0.8121709 0.42147732 0.759142
0.8974995 1.1924255 0.6761309 0.6170187 0.56489843 0.42354545 1.1623693 1.1144851
1.7305427 1.3349469 0.6153866 0.85403615 0.6723333 1.0204751
00000000: 461b 6ebe 8d2a a53f 96b9 663f b13e 953f
00000010: 8f19 2b3f c7e4 2b3f 436c 683f 08de e03e
00000020: 32ea 1e3f a5a8 5a3f 54c0 e53e 9f9c 053f
00000030: 943a 983f c2ae 503f 25f7 163f 731c 263f
00000040: c44c 1e3f 9c85 5c3f 216b 713f 643e 143f
00000050: ed15 593f 0982 2f3f 7fb7 363f bd8d 063f
00000060: ff95 4c3f 115b 943f efab 803f 75a9 943f
00000070: e3d2 3d3f 554d 833f 0d1e 893f 81d0 233f
00000080: e270 503f 4749 163f ede9 843e 3594 3f3f
00000090: f7d5 b33e 3b6a 8a3f ca3d 7b3f 7594 f93e
000000a0: 5729 993f 79ac 873f 4f11 9f3f 4eb3 013f
000000b0: 889a 133f c52c 8b3f 02f7 6a3f e055 c73f
000000c0: e22d 5e3f 13e3 563f 5f06 2b3f f986 ad3f
000000d0: ee24 563f 001e 133f 8ea4 a33f 3678 3f3f
000000e0: 36d4 153e 3ecb a03f 7591 ff3e 466c 333f
000000f0: f091 5a3f 7943 563f f582 763f 923b 6d3f
00000100: 94a7 fb3e 07fe 2c3f f379 443f 0038 913f
00000110: b22a 973f e838 593f 4a1a 483f a459 673f
00000120: 6338 423f 4da6 d03f 6182 713f e6de ba3e
00000130: c074 953d 2000 f23e 7b75 863f 1433 b63f
00000140: cedc 8a3f ae43 823f 1a7b 8f3f 36d1 193f
00000150: db69 403f 8683 f73e 31eb 853f 88b6 c73f
00000160: 85d8 423f 17c7 913f 132a e13e 3ea1 983f
00000170: 9d12 7f3f 973d 153f 611a 043f 4ea9 1a3f
00000180: df5a 5b3f 4c22 293f c5ee 253f 69c5 fa3e
00000190: 0424 1b3f 54a2 653f 7507 9c3f b41b d53e
000001a0: fa78 043f 038f 833f db72 ac3e f0df 813f
000001b0: 9820 d23f 0f98 973f 1979 cb3e 314a 613f
000001c0: 654e 5a3f 7112 de3e 700f 423e 40a8 d13f
000001d0: 7411 7e3f 25d4 5a3f b526 113f cb3b 773f
000001e0: e218 b63f 0f09 ff3e 54ef 7e3f e006 bc3e
000001f0: 1e0e c73f 94cd 3e3e 3946 333f 1b0b 8f3e
00000200: 15a8 9e3f fc47 0c3f 3957 893f d294 233f
00000210: b959 1b3f 6fea 4f3f e0cb d73e 2157 423f
00000220: 87c2 653f 66a1 983f ea16 2d3f f0f4 1d3f
00000230: 2f9d 103f f3da d83e 84c8 943f 73a7 8e3f
00000240: 6c82 dd3f 8adf aa3f fa89 1d3f 1da2 5a3f
00000250: 091e 2c3f ee9e 823f

batchnorm.bias f4 [150]
0.659789 0.6340628 0.6830472 0.35698083 0.33712655 0.64251 0.50298584 0.0408706
-0.36276916 0.6365726 0.3440729 0.34712067 0.9798798 0.6234007 0.122245714 0.37951124
0.3797349 0.5632268 0.64785606 0.54789436 0.7084091 0.50193405 0.41340205 0.49427554
-0.42351043 0.2909674 0.7101961 0.3559764 0.7525778 0.46961093 0.7335798 0.87114567
0.24415322 0.48473465 0.5101899 0.60697204 0.30938193 0.43781304 0.5756353 0.3507332
0.46286768 0.985977 0.59492266 0.52436525 0.42320094 0.77097815 0.8548371 0.48709032
0.49797922 0.63663083 0.5520547 -0.009707123 0.16916582 0.44917083 -0.47170657 0.48003015
0.70332235 0.63910997 0.74749106 0.7826889 -0.36394376 0.7305136 0.72875804 0.3564675
0.43756294 0.6259394 0.64787686 0.34831947 0.52846396 0.66280925 0.67103416 0.6717822
0.5390485 0.5333581 0.7596044 0.2325396 0.68318534 0.33894953 0.5510785 0.7111962
0.66755193 0.041108616 0.34974766 0.5956323 0.85556066 0.35198253 0.4985131 0.69029725
0.49405733 0.589643 0.5480774 0.68053126 0.48905748 0.2137689 0.51775616 0.61392367
0.6746669 0.43151072 0.49057725 -0.5317242 -0.49704552 0.6617074 0.57817364 0.4554119
0.72931474 0.5499432 0.42260575 0.21344581 0.6127984 0.6966341 0.8411187 0.569967
0.637604 0.6527832 0.7242147 0.6298269 0.5257188 0.63280267 0.85884047 0.62982637
0.67828333 0.61483467 0.64464855 0.64729226 0.84059703 0.42069346 -0.6095612 0.55617774
0.6526404 0.28736567 0.7004753 0.5416919 0.7268925 0.3684452 -0.4985887 0.5541225
0.67902493 0.49883983 1.0205917 0.0938205 0.54567975 0.79731035 0.4148527 0.60351306
0.61299956 -0.012411019 0.5523492 0.8097849 0.34732008 0.56804407
00000000: efe7 283f f151 223f 2edc 2e3f 31c6 b63e
00000010: da9b ac3e 897b 243f aec3 003f ee67 273d
00000020: e1bc b9be 6cf6 223f 532a b03e cdb9 b13e
00000030: 67d9 7a3f 3097 1f3f f65b fa3d 4c4f c23e
00000040: 9d6c c23e a22f 103f e5d9 253f ce42 0c3f
00000050: 4c5a 353f c07e 003f 6fa9 d33e af11 fd3e
00000060: 5cd6 d8be aef9 943e 69cf 353f 8a42 b63e
00000070: f0a8 403f d870 f03e e3cb 3b3f 6703 5f3f
00000080: 4d03 7a3e 242f f83e ce9b 023f 8562 1b3f
00000090: 4f67 9e3e 0829 e03e d65c 133f 4d93 b33e
000000a0: fefc ec3e fd68 7c3f da4c 183f cd3c 063f
000000b0: cbad d83e d35e 453f 9bd6 5a3f e763 f93e
000000c0: 22f7 fe3e 3dfa 223f 7553 0d3f a00a 1fbc
000000d0: ce39 2d3e b8f9 e53e 8683 f1be 83c6 f53e
000000e0: ef0c 343f b69c 233f 935b 3f3f 4d5e 483f
000000f0: d656 babe f002 3b3f e38f 3a3f e882 b63e
00000100: 4008 e03e 913d 203f 42db 253f ee56 b23e
00000110: 6a49 073f dead 293f e5c8 2b3f ebf9 2b3f
00000120: 15ff 093f 288a 083f 6f75 423f dc1e 6e3e
00000130: 3ce5 2e3f cb8a ad3e 7b13 0d3f f410 363f
00000140: afe4 2a3f 8261 283d 2012 b33e 5c7b 183f
00000150: 0606 5b3f 0e37 b43e 1c3d ff3e 52b7 303f
00000160: 15f5 fc3e d8f2 163f cd4e 0c3f 4c37 2e3f
00000170: be65 fa3e 3ce6 5a3e ab8b 043f 1a2a 1d3f
00000180: f8b6 2c3f f9ee dc3e f12c fb3e 141f 08bf
00000190: c07c febe a865 293f 3003 143f c02b e93e
000001a0: 5fb4 3a3f 14c9 0c3f c85f d83e 8a91 5a3e
000001b0: 5be0 1c3f 9d56 323f 8e53 573f 5be9 113f
000001c0: 043a 233f cd1c 273f 2266 393f 563c 213f
000001d0: 8295 063f 5bff 213f f8dc 5b3f 4d3c 213f
000001e0: faa3 2d3f ce65 1d3f b007 253f f2b4 253f
000001f0: 5e31 573f 2265 d73e 340c 1cbf aa61 0e3f
00000200: 7113 273f 9821 933e 5952 333f 52ac 0a3f
00000210: a015 3a3f d9a4 bc3e 0547 ffbe f9da 0d3f
00000220: 94d4 2d3f ef67 ff3e c0a2 823f f624 c03d
00000230: abb1 0b3f 881c 4c3f 9367 d43e d57f 1a3f
00000240: 8aed 1c3f 9657 4bbc c266 0d3f 104e 4f3f
00000250: f0d3 b13e 566b 113f

batchnorm.running_mean f4 [150]
0.0026568624 0.12756573 -0.00788808 -0.53264326 -0.7331375 -0.264376 0.04993868 2.67885e-07
-0.7038947 -0.2596613 0.019968407 -0.96831733 0.48211586 -0.0002743304 -0.603701 -0.84234226
-0.21025 -0.09655875 -0.0022959923 -0.045800157 -0.010931655 0.08505461 0.2459435 -0.9637886
0.8603328 0.08202593 -0.08362372 0.7188064 0.61333925 -0.049833193 6.9119625e-07 0.7793413
0.0010231737 -0.9128556 0.02914863 -0.2154721 -0.79242676 0.5050095 -0.86668724 -0.9602796
-0.83799386 0.57087445 0.42017278 -0.022942357 -0.9368717 0.49209508 8.242642e-05 0.33390638
-0.5818065 -0.040222898 -0.94994986 -0.8782643 -0.8468732 -0.9595832 -0.28939873 -0.005242301
-0.8796291 -0.1306785 -0.79958963 -0.6243807 0.0026806511 -0.006566134 -0.041967496 -0.8351906
-0.9556909 -0.9648158 4.6644246e-08 -0.667873 0.94536364 -0.0016950265 -0.09556689 0.77882093
-0.79291546 0.3275446 -0.0019359576 -0.9589394 0.0053880312 0.020745298 0.39633462 0.22068352
-0.483107 0.10615064 0.9576844 -0.9502294 -0.06574167 -0.9492455 -0.84641564 0.9067667
0.4589563 0.9594851 -0.12182721 0.7763531 -0.9371823 -0.7720004 -0.96834403 -0.96662974
-0.12556095 -0.96525204 0.000114394206 0.0022233587 0.86477 -0.22106044 -0.002726051 -0.632009
-0.00066209293 0.47069097 -0.966608 -0.8767606 0.3219978 0.89287376 -0.0075308084 -0.12922446
0.22174789 -0.00581337 -0.05982124 0.41277704 -0.52228796 -0.3050046 -0.000102319675 -0.26124862
-0.30651855 -0.9572508 -0.4123443 -0.89778864 0.46882424 0.014730707 -0.0034730765 -0.9220342
0.43973336 -0.9704635 0.15785676 -0.09895516 0.6504196 -0.21229452 0.00033696194 -0.0025110557
-0.23076549 0.12524034 -0.011543342 -0.964921 0.60953164 -0.9553027 -0.848409 -0.8756257
0.57562864 -0.8789924 -0.13967119 -0.0035413834 -0.9707844 -0.025309335
00000000: c11e 2e3b 97a0 023e 013d 01bc 4f5b 08bf
00000010: e6ae 3bbf 4b5c 87be 808c 4c3d d6d1 8f34
00000020: 7132 34bf 53f2 84be c994 a33c a5e3 77bf
00000030: e4d7 f63e 01d4 8fb9 268c 1abf bea3 57bf
00000040: c74b 57be 98c0 c5bd 5c78 16bb f298 3bbd
00000050: af1a 33bc 1d31 ae3d 9dd8 7b3e daba 76bf
00000060: c53e 5c3f 36fd a73d ea42 abbd b203 383f
00000070: cd03 1d3f e41d 4cbd a58a 3935 e982 473f
00000080: 031c 863a e8b0 69bf 1cc9 ee3c b8a4 5cbe
00000090: 7bdc 4abf 4d48 013f 37df 5dbf e2d4 75bf
000000a0: c486 56bf d424 123f e320 d73e 9cf1 bbbc
000000b0: d3d6 6fbf e3f3 fb3e 59dc ac38 c7f5 aa3e
000000c0: 45f1 14bf c4c0 24bd ea2f 73bf eed5 60bf
000000d0: afcc 58bf 3fa7 75bf 122c 94be 9cc7 abbb
000000e0: 5f2f 61bf 96d0 05be e8b1 4cbf 6ad7 1fbf
000000f0: ddad 2f3b b928 d7bb 1ce6 2bbd 0dcf 55bf
00000100: 29a8 74bf 2bfe 76bf e455 4833 baf9 2abf
00000110: 5a03 723f a72b deba 93b8 c3bd cf60 473f
00000120: 82fc 4abf edb3 a73e f5bf fdba 0d7d 75bf
00000130: 158e b03b 0bf2 a93c 5fec ca3e dcfa 613e
00000140: cd59 f7be 8265 d93d ce2a 753f 3c42 73bf
00000150: 92a3 86bd c101 73bf b2ae 58bf dd21 683f
00000160: 52fc ea3e d1a0 753f 8b80 f9bd 14bf 463f
00000170: 2eeb 6fbf d1a1 45bf 65e5 77bf 0c75 77bf
00000180: 0d93 00be c21a 77bf ece6 ef38 c5b5 113b
00000190: 9161 5d3f ab5d 62be 8ca7 32bb 58cb 21bf
000001a0: 4e90 2dba 68fe f03e 9f73 77bf 6273 60bf
000001b0: e5dc a43e 6093 643f 00c5 f6bb 6b53 04be
000001c0: e111 633e 157e bebb 1e07 75bd 8357 d33e
000001d0: aab4 05bf 9029 9cbe 7594 d6b8 61c2 85be
000001e0: 00f0 9cbe 630e 75bf cb1e d3be 7ad5 65bf
000001f0: bb09 f03e 1059 713c 8e9c 63bb 6f0a 6cbf
00000200: bb24 e13e 4c70 78bf 34a5 213e 01a9 cabd
00000210: e681 263f bc63 59be 44aa b039 8690 24bb
00000220: ca4d 6cbe 013f 003e 4920 3dbc 1005 77bf
00000230: 440a 1c3f b88e 74bf 5531 59bf 0229 60bf
00000240: 665c 133f a505 61bf f705 0fbe 8e16 68bb
00000250: 5485 78bf 8655 cfbc
