src/results/subject_P2/best_model.pth (torch, 481333 bytes, 15 tensors)

input_linear.weight f4 [40, 40]
0	0x3e131303	0.14362721
1	0x3dbf6ade	0.09346555
2	0x3cf594a8	0.029978111
3	0xbd3e4708	-0.04645446
4	0xbc4d5370	-0.0125321
5	0x3dda6672	0.10664071
6	0xbdabb9dd	-0.0838506
7	0xbdf71af4	-0.12065688
8	0xbd62f556	-0.05540975
9	0x3e19d6d1	0.15023352
10	0x3c5fcd40	0.013659775
11	0xbe01c6fe	-0.12673566
12	0xbd88750c	-0.0666295
13	0xbdb50e7b	-0.088406526
14	0x3de396fa	0.11112781
15	0xbdaea07f	-0.08526706
16	0xbe046417	-0.12928806
17	0x3d1734e4	0.036915675
18	0xbcdfa510	-0.027300388
19	0xbdf18ec1	-0.11794806
20	0xbd99f6fc	-0.07517812
21	0xbdac7879	-0.08421416
22	0x3dd0987e	0.101853356
23	0xbd87a3a8	-0.06623012
24	0x3da2b7d8	0.07945222
25	0x3db33c28	0.08751708
26	0xbdaa7160	-0.08322406
27	0x3e16f455	0.14741643
28	0x3deea522	0.1165259
29	0xbcf5ab38	-0.02998887
30	0xbce4f648	-0.027949467
31	0x3c13d570	0.009023055
32	0xbdbe8a0e	-0.093036756
33	0x3dbcf286	0.09225945
34	0x3d8d9ce4	0.0691469
35	0xbdcdca43	-0.10048344
36	0x3c70dbd0	0.014700845
37	0x3c0dd3c0	0.008656442
38	0xbc65e180	-0.014030814
39	0x3e1bbaf3	0.15208034
40	0xbe1950ee	-0.14972278
41	0x3ded6152	0.11590828
42	0x3ccb9428	0.02485092
43	0xbe153a1a	-0.14572945
44	0x3d98fb16	0.07469766
45	0xbda0c258	-0.07849568
46	0x3db46abe	0.08809422
47	0x3df2729e	0.11838268
48	0xbcbc4778	-0.022983298
49	0xbdf36543	-0.118845485
50	0x3ddb9e7e	0.10723589
51	0xbc6fe290	-0.014641419
52	0xbde5ec14	-0.11226669
53	0x3d849f68	0.06475717
54	0xbd1dc854	-0.038521126
55	0xbce64018	-0.028106734
56	0xbd9349f9	-0.071918435
57	0xbc79d610	-0.01524879
58	0xbdc5c751	-0.09657157
59	0xbce037e0	-0.027370393
60	0x3dabf628	0.0839656
61	0xbdbd6322	-0.09247424
62	0x3d55abe4	0.05216588
63	0xbe09c592	-0.13454273
64	0x3cedced0	0.02902928
65	0xbd7c2982	-0.061563022
66	0x3d73b668	0.059500128
67	0xbd2e2ad0	-0.042521298
68	0x3e03b619	0.12862433
69	0x3d032270	0.032015264
70	0xbdc703b1	-0.09717501
71	0xbb201d80	-0.0024431646
72	0xbd6e2768	-0.05814305
73	0xbd5fc3ee	-0.054630212
74	0x3c8e0750	0.017337471
75	0xbe1bc9fa	-0.15213767
76	0x3bf74f20	0.007547274
77	0xbe20444d	-0.15651055
78	0xbcfb90f0	-0.03070876
79	0xbdce7b3b	-0.10082098
80	0x3d53383c	0.0515673
81	0xbe13d57e	-0.1443691
82	0x3d0e4508	0.034733802
83	0xbd03e020	-0.032196164
84	0xbdd5678f	-0.10420143
85	0x3cbfc568	0.02340956
86	0xbbeba1e0	-0.007190928
87	0xbe0f2714	-0.13979751
88	0x3e03c3a7	0.12867604
89	0xbd7c1b3e	-0.061549418
90	0xbdffe29a	-0.12494393
91	0xbe06769e	-0.13131186
92	0x3dfe1112	0.124056
93	0xbdbcaa77	-0.09212201
94	0x3d297c48	0.04137829
95	0x3b7def80	0.003874749
96	0x3e09856f	0.13429807
97	0xbdbd4320	-0.09241319
98	0x3daa29f4	0.08308783
99	0x3d03cdfc	0.032178864
100	0x3dcd9596	0.10038297
101	0x3de79d52	0.11309303
102	0xbcdfcb88	-0.027318731
103	0x3d45fbc8	0.04833582
104	0xbdc794a2	-0.09745146
105	0x3e055fe7	0.13024865
106	0x3d9011ec	0.07034668
107	0xbd38348e	-0.044971995
108	0xbd8f0118	-0.069826305
109	0xbe12c902	-0.14334491
110	0x3da02cf2	0.07821073
111	0x3d75cdf4	0.060010865
112	0x3d56b990	0.05242306
113	0xbdf82748	-0.12116867
114	0xbdf75214	-0.12076202
115	0xbc5f4f80	-0.013629794
116	0x3dc8ee2a	0.09811051
117	0xbe1afcf8	-0.15135562
118	0x3deb4de6	0.11489467
119	0x3ddb4512	0.107065335
120	0xbe06d9c5	-0.1316901
121	0x3daf48b4	0.08558789
122	0xbde9e71c	-0.11421034
123	0xbc892198	-0.016739652
124	0xbd187a76	-0.037226163
125	0x3d4d69e0	0.0501498
126	0x3c61a640	0.013772547
127	0xbd4811da	-0.04884515
128	0xbdb9bcc7	-0.090692095
129	0x3ca3dd30	0.020002931
130	0x3d8b6b20	0.06807542
131	0xbdaf8f40	-0.08572245
132	0x3df14ffa	0.117828324
133	0xbde9c13e	-0.11413811
134	0xbd8bfb58	-0.068350494
135	0xbdc19665	-0.094525136
136	0x3d9db7b6	0.07701056
137	0xbd846133	-0.06463852
138	0x3e1c8583	0.15285306
139	0x3dfe400a	0.12414558
140	0xbe11b614	-0.14229614
141	0xbe1de988	-0.15421116
142	0xbd53bfb0	-0.05169648
143	0x3e131819	0.14364661
144	0xbe16da05	-0.14731605
145	0xbd5b62e6	-0.053561114
146	0x3e17714f	0.14789318
147	0xbda8762a	-0.08225663
148	0xbd112f98	-0.03544578
149	0x3dea760a	0.114482954
150	0x3ca7a9e0	0.020466745
151	0x3e15be91	0.14623477
152	0x3c139330	0.00900726
153	0x3e007713	0.12545423
154	0x3d9050e4	0.07046679
155	0xbcd6b4e8	-0.02620931
156	0x3d79e60c	0.061010405
157	0x3e16d2b1	0.1472881
158	0x39566800	0.00020447373
159	0x3d7a121c	0.061052427
160	0xbdd8dbaa	-0.105887726
161	0xbe15b94c	-0.14621466
162	0x3dde89ba	0.10866113
163	0x3e1ab335	0.15107425
164	0x3db18b3e	0.086691365
165	0xbdca33e3	-0.09873178
166	0x3da7299a	0.08162232
167	0x3b3598c0	0.0027709454
168	0xba1df200	-0.00060251355
169	0xbdad01da	-0.08447619
170	0xbe0c0038	-0.13671958
171	0xbbc97f80	-0.0061492324
172	0xbd04cf78	-0.03242442
173	0xbd406e7a	-0.04698036
174	0x3d9918b4	0.07475415
175	0x3d899856	0.06718509
176	0x3dc8750e	0.097879514
177	0xbcd49238	-0.025948629
178	0x3d2b7664	0.041860953
179	0xbd0686c4	-0.032843366
180	0xbd0449a0	-0.032296777
181	0x3df37e3a	0.1188931
182	0xbcad7c68	-0.021177486
183	0xbd7151f0	-0.058916032
184	0xbdac590c	-0.08415422
185	0xbdf01f38	-0.117247045
186	0xbdcfc97c	-0.10145852
187	0xbd9764b7	-0.07392257
188	0x3dbd842e	0.09253727
189	0xbcc96c38	-0.024587736
190	0x3e175dd5	0.14781888
191	0xbd7b9c18	-0.06142816
192	0x3e1b03b7	0.15138136
193	0x3c6edb60	0.01457867
194	0xbd1e7c66	-0.038692854
195	0x3dbf0b2e	0.09328304
196	0x3d5ab3cc	0.053394124
197	0xbbbfe3c0	-0.0058560073
198	0x3d495fd0	0.04916364
199	0x3a2a5900	0.00064982474
200	0xbdfd65b3	-0.12372913
201	0xbcd1db28	-0.025617197
202	0xbe0c26bd	-0.13686652
203	0xbda72914	-0.08162132
204	0xbb813e40	-0.0039441884
205	0xbddfaf62	-0.109221235
206	0xbdcce0c2	-0.10003807
207	0x3cb47aa0	0.022031128
208	0xbdc66e56	-0.09689014
209	0xbd7fb5fa	-0.062429406
210	0xbdb867db	-0.09004184
211	0x3dec4086	0.11535744
212	0x3dffa1c6	0.12482028
213	0xbcebb808	-0.028774276
214	0xbd1776b8	-0.036978453
215	0x3d54a33c	0.051913485
216	0xbe06016a	-0.13086477
217	0xbdbc4e65	-0.0919464
218	0x3adede80	0.0017003566
219	0x3df0439e	0.11731647
220	0xbc1db0a0	-0.00962463
221	0xbdb97bd0	-0.090568185
222	0xbde718e8	-0.11284047
223	0x3dcd1b5a	0.100149825
224	0x3d076638	0.033056468
225	0xbe1e2342	-0.15443137
226	0x3d871a26	0.06596784
227	0x3d146230	0.03622645
228	0x3c0a6880	0.008447766
229	0xbdc807f5	-0.09767143
230	0xbe16f103	-0.14740376
231	0x3dac87da	0.08424349
232	0x3e0011bf	0.1250677
233	0x3ddf7bce	0.10912286
234	0xbdf5fcce	-0.12011109
235	0x3d30fe88	0.04321149
236	0xbc929510	-0.017893344
237	0x3cac59e8	0.021038964
238	0x3da9bcb6	0.08287947
239	0xbc551450	-0.013005331
240	0x3d701048	0.058609277
241	0x3d890a8a	0.06691463
242	0xbdde0b4e	-0.10842
243	0xbdb57a56	-0.08861224
244	0x3e0cc465	0.13746794
245	0x3ccce728	0.025012568
246	0x3e047965	0.12936933
247	0xbd823d0d	-0.06359301
248	0xbdd9c92b	-0.10634073
249	0x3daab3c8	0.08335072
250	0x3dc23b52	0.09483971
251	0x3d2e054c	0.04248552
252	0xbe148dbb	-0.14507191
253	0xbda417b0	-0.080123305
254	0x3d3ec224	0.046571866
255	0x3dc80dce	0.09768258

input_linear.bias f4 [40]
0	0xbb84ecc0	-0.004056543
1	0xbe1f4a01	-0.15555574
2	0xbd8f3932	-0.06993331
3	0xbd3e60ce	-0.04647904
4	0x3def033e	0.1167054
5	0x3dcb9bfa	0.099418595
6	0x3dd809c2	0.10548736
7	0x3d761214	0.060075834
8	0x3dd5575e	0.104170546
9	0xbdc59ce0	-0.09649062
10	0x3daf518c	0.08560476
11	0x3dff4b96	0.12465589
12	0x3dd3e542	0.10346462
13	0x3ca4bb10	0.02010873
14	0x3dc90886	0.09816079
15	0x3dd84c96	0.105614826
16	0x3d17020c	0.036867186
17	0x3d08267c	0.033239827
18	0xbdf6ee38	-0.12057155
19	0xbdc773c6	-0.09738879
20	0xbd8db048	-0.069183886
21	0xbdeb349c	-0.11484644
22	0x3d08848c	0.03332953
23	0xbc556980	-0.013025641
24	0xbdec6855	-0.11543337
25	0x3e055ec1	0.13024427
26	0x3e0a9365	0.13532789
27	0xbe199dd3	-0.15001611
28	0xbdc8becc	-0.098020166
29	0x3d5b81cc	0.05359058
30	0xbd15e568	-0.036595732
31	0xbd1c5a22	-0.038171895
32	0x3c8cf1c0	0.01720512
33	0xbdde2c87	-0.10848337
34	0x3dd1d2a6	0.10245256
35	0x3dbd4e92	0.09243502
36	0x3e0e6ca7	0.13908635
37	0xbd2b83a6	-0.041873597
38	0x3d40e11c	0.04708968
39	0x3d443eb0	0.047911346

lstm.weight_ih_l0 f4 [600, 40]
0	0x3ec1fae3	0.37886724
1	0xbdd6d647	-0.10490089
2	0xbf4f8d84	-0.8107531
3	0xbe06e2ad	-0.13172407
4	0xbe0be0bd	-0.1365995
5	0xbf549197	-0.8303465
6	0xbf505a44	-0.81387734
7	0x3f52ae2e	0.8229703
8	0x3f4d23c4	0.801327
9	0x3f533995	0.8250974
10	0xbf010a2d	-0.5040615
11	0x3ee56e43	0.44810686
12	0xbf0c0dd5	-0.54708606
13	0xbf532e98	-0.8249297
14	0x3ec2f434	0.38076937
15	0xbd405f99	-0.04696617
16	0xbe2619fe	-0.16220853
17	0xbf000f4b	-0.50023335
18	0xbefda827	-0.49542353
19	0xbf539a6a	-0.8265749
20	0xbf529848	-0.8226361
21	0xbf50e472	-0.8159858
22	0xbd7028f3	-0.058632802
23	0x3e1d65f3	0.15370922
24	0xbf5481cd	-0.8301056
25	0xbe6c6c4e	-0.2308819
26	0xbf187cfb	-0.59565705
27	0xbf0f9e0f	-0.56100553
28	0xbf0222f3	-0.5083458
29	0x3dece575	0.11567203
30	0xbf043933	-0.5164978
31	0xbf54e6d3	-0.8316471
32	0xbefe45c1	-0.49662593
33	0xbe229164	-0.15875775
34	0xbd3f6da8	-0.046735436
35	0x3e1d287c	0.15347475
36	0xbf534805	-0.8253177
37	0xbca3fc20	-0.020017684
38	0x3d8ceab9	0.06880707
39	0x3ec61143	0.38685045
40	0x3f5ed21b	0.87039346
41	0x3f392020	0.72314644
42	0x3e088244	0.13330942
43	0x4028ad65	2.6355832
44	0x3f878621	1.0587808
45	0x3e063d81	0.131094
46	0x3e8a4f24	0.27013505
47	0xbe257454	-0.16157657
48	0xbd6dd7c0	-0.058067083
49	0xbe2e7d9b	-0.17040102
50	0x3f269c1e	0.65081966
51	0x3dd7c288	0.10535151
52	0xbe5d6693	-0.2162116
53	0x3e1daae2	0.15397218
54	0xc0671799	-3.6108153
55	0xbf930b4e	-1.1487825
56	0x3f1fe68d	0.6246117
57	0x3f285f11	0.6577006
58	0x3f1f66b0	0.62266064
59	0x3e165a2e	0.14682838
60	0x3e178faa	0.14800897
61	0x3e3636d1	0.17794348
62	0xbfacc6a7	-1.3498124
63	0xbe15e1ba	-0.14636889
64	0x3e22d003	0.15899663
65	0xbdfce639	-0.12348599
66	0xbef58fbe	-0.4796123
67	0xbe99adff	-0.3001556
68	0x3f262712	0.64903367
69	0xbed72bb5	-0.42025533
70	0x3f240340	0.6406746
71	0x3e2bf3ab	0.1679217
72	0x3f1da7ee	0.61584365
73	0x3f1e94eb	0.6194598
74	0xbfac7383	-1.3472751
75	0xbe0ddfa8	-0.1385485
76	0x3e2e7d6d	0.17040034
77	0x3e85cba3	0.26131925
78	0xbddb2d6f	-0.10702025
79	0xc067ded0	-3.6229744
80	0xbed5736e	-0.41689628
81	0x3d21c5c0	0.03949523
82	0x3f0066f3	0.5015709
83	0x40186e2f	2.381725
84	0x3fa5fe1f	1.2968177
85	0x3f04732d	0.51738244
86	0x3f08d571	0.53450686
87	0xbeff08e0	-0.4981146
88	0xbeaa9d24	-0.33323014
89	0xbf014883	-0.5050127
90	0x3f30c971	0.69057375
91	0x3f4e76a6	0.80649793
92	0xbe3e5d72	-0.18590334
93	0x3f00f764	0.5037749
94	0xbff2202a	-1.8916066
95	0xc0233702	-2.5502324
96	0xbede8ad0	-0.4346528
97	0x3f358904	0.70912194
98	0x3f342096	0.7036222
99	0x3f016feb	0.505614
100	0x3efcc72c	0.49370706
101	0x3f045c9e	0.5170382
102	0x3dbad130	0.091219306
103	0x3ee01a3a	0.4377001
104	0x3ef98aa3	0.48738584
105	0x3cc9e743	0.024646407
106	0xbe9bdf57	-0.30443832
107	0xbe850410	-0.25979662
108	0x3f323308	0.6960912
109	0xbdd97fd2	-0.10620083
110	0x3f2fb6ec	0.6863849
111	0x3f045910	0.516984
112	0x3f3001c9	0.68752724
113	0xbede638c	-0.43435323
114	0x3dc613e2	0.09671761
115	0x3eeb341f	0.45938203
116	0x3efb6eeb	0.4910806
117	0xbeccff92	-0.40038735
118	0xbf3447e6	-0.7042221
119	0xbff1dcc7	-1.8895501
120	0xbd86f334	-0.06589356
121	0xbe33c645	-0.17556103
122	0x3e079213	0.13239317
123	0xbc9e0b63	-0.019292539
124	0xbe7752ad	-0.24152632
125	0x3e10906c	0.14117593
126	0x3e0aa5e3	0.13539843
127	0xbe0f018b	-0.13965432
128	0xbe1fc840	-0.15603733
129	0xbe0ed84f	-0.13949703
130	0x3dd7fddc	0.10546467
131	0xbe53e994	-0.20694572
132	0x3dd5ceee	0.10439859
133	0x3e0a12df	0.13483761
134	0xbba7eeda	-0.005124909
135	0x3e67c60d	0.22634144
136	0x3d504950	0.050851166
137	0x3df0bc01	0.11754609
138	0x3ddb6c69	0.10714037
139	0x3e0406ba	0.12893191
140	0x3e0f6b52	0.14005783
141	0x3e12f0cd	0.1434967
142	0xbe26cbaa	-0.16288629
143	0x3c1ee752	0.009698706
144	0x3e07df16	0.13268694
145	0xbde93a4f	-0.113880746
146	0x3e9712ad	0.29506436
147	0x3e733787	0.23751651
148	0x3dedded5	0.116147675
149	0xbdce21e7	-0.1006506
150	0x3de8d007	0.11367803
151	0x3e140f1e	0.14458892
152	0x3dd50604	0.10401538
153	0x3d4f317f	0.050584313
154	0xbe1bef75	-0.15228064
155	0xbc3c34ca	-0.011487195
156	0x3e0fcfcd	0.14044113
157	0xbcb34f54	-0.021888413
158	0x3cf2143e	0.029550668
159	0xbc020819	-0.007936501
160	0x3c0d1f5f	0.0086134365
161	0x3d8f43bf	0.069953434
162	0xbe149eba	-0.14513674
163	0xbe014d1d	-0.12627073
164	0x3ca4ff65	0.020141313
165	0xbe0d3eec	-0.13793534
166	0xbe325cd7	-0.17418228
167	0x3e18a72a	0.14907518
168	0x3e31951b	0.17342035
169	0x3e0efb00	0.13962936
170	0xbe253b20	-0.16135836
171	0x3d863361	0.065527685
172	0xbd926b37	-0.07149356
173	0xbe12f587	-0.14351474
174	0x3e34c291	0.17652346
175	0x3df2ad4f	0.11849462
176	0xbd331539	-0.04372141
177	0xbe2b7535	-0.1674393
178	0xbe2d55be	-0.1692724
179	0xbe201679	-0.15633573
180	0xbe0f65a7	-0.14003621
181	0xbe222269	-0.15833439
182	0xbe02d318	-0.12775838
183	0x3eb16b9f	0.3465242
184	0xbe1de5f0	-0.15419745
185	0x3d7772ef	0.060412344
186	0xbe28f6b8	-0.16500366
187	0xbe1151f4	-0.14191419
188	0xbe1fdbb2	-0.15611151
189	0x3d8eba51	0.06969131
190	0xbe25fd7e	-0.16209981
191	0xbe1b06bd	-0.15139289
192	0xbe25158e	-0.16121504
193	0xbd52d0d6	-0.051468693
194	0xbe0f0962	-0.13968423
195	0x3eb97f41	0.362299
196	0xbe0dc860	-0.13845968
197	0xbdeac56b	-0.11463436
198	0xbd9ac250	-0.075565934
199	0x3e344dad	0.17607756
200	0xbed90d51	-0.42392972
201	0x3e7c54cd	0.24641724
202	0x3f19b8b7	0.6004748
203	0x3f1ed233	0.6203949
204	0x3e9d9fe8	0.3078606
205	0x3f16b0cd	0.58863527
206	0x3f2077ba	0.6268269
207	0xbf15390f	-0.5829019
208	0xbf184b6b	-0.5949008
209	0xbf17a2dd	-0.59232885
210	0x3f239800	0.6390381
211	0xbddc190f	-0.10746967
212	0x3e471652	0.19442108
213	0x3f1420cd	0.5786255
214	0xbf34dd3d	-0.7065008
215	0xbe8c8d61	-0.27451614
216	0x3e0cada7	0.13738118
217	0x3f21aa0e	0.6315011
218	0x3f23fa7e	0.64054096
219	0x3f1b01fb	0.60549897
220	0x3f16e6d1	0.5894595
221	0x3f153fab	0.58300275
222	0xbc16f5f7	-0.009213916
223	0xbe002587	-0.12514316
224	0x3f1a6111	0.6030436
225	0xb9821027	-0.00024807567
226	0x3f37cb77	0.7179484
227	0x3f438615	0.7637647
228	0x3f20c254	0.6279652
229	0xbd184893	-0.037178587
230	0x3f254e2d	0.6457241
231	0x3f17f668	0.5936036
232	0x3f237934	0.63856816
233	0x3e0c2e8e	0.13689634
234	0xbc32f081	-0.010921598
235	0xbdf93f5b	-0.12170287
236	0x3f1a8177	0.603538
237	0xbe2d53f9	-0.16926564
238	0xbe56f942	-0.20993522
239	0xbf341458	-0.7034354
240	0x3f0223db	0.5083596
241	0x3eb7d2ae	0.35902923
242	0x3e7ce213	0.24695615
243	0x3e077292	0.13227299
244	0x3e877d23	0.2646266
245	0x3e699336	0.22810063
246	0x3e49e963	0.19717936
247	0xbe62f8dc	-0.22165245
248	0xbe804d73	-0.2505909
249	0xbe6d9311	-0.23200633
250	0x3ce6b3ac	0.028161846
251	0xbebb4268	-0.365741
252	0x3e100b90	0.1406691
253	0x3e5b8b22	0.21439794
254	0x3f7041df	0.9385051
255	0x3eb4e407	0.3533022

lstm.weight_hh_l0 f4 [600, 150]
0	0xbe756a49	-0.23966326
1	0x3ec5a518	0.3860252
2	0xbe072699	-0.13198318
3	0xbddba18e	-0.107241735
4	0x3e91a3de	0.28445333
5	0x3ea7d980	0.32783127
6	0x3e7baa64	0.24576718
7	0xbdfc9c58	-0.12334508
8	0xbe57c7e5	-0.21072347
9	0xbe822df9	-0.254257
10	0xbec5d4ed	-0.38639012
11	0xbe203f0d	-0.15649052
12	0xbecc818c	-0.39942586
13	0xbda003e6	-0.078132436
14	0xbd2f7cde	-0.042843692
15	0x3e07bbe6	0.13255271
16	0xbd008bf1	-0.03138346
17	0x3e8d6d92	0.27622658
18	0x3ecda1cb	0.401625
19	0xbea7bbaf	-0.3276038
20	0x3e828e06	0.2549898
21	0x3ebd0ee0	0.3692541
22	0x3e1b0e16	0.15142092
23	0x3e84040f	0.25784346
24	0xbe5e0980	-0.21683311
25	0x3f01f470	0.5076361
26	0x3ed8fa59	0.423785
27	0xbc6b03a0	-0.014344126
28	0x3e28a487	0.16469012
29	0x3e1bbbd7	0.15208374
30	0xbd7f7f9e	-0.062377565
31	0x3db17b45	0.0866609
32	0x3d906cb4	0.070519835
33	0x3dd7f9db	0.10545703
34	0x3c332bf7	0.010935775
35	0x3e647735	0.22311099
36	0xbe8a69c5	-0.2703382
37	0x3eceafdd	0.40368548
38	0x3e2a2a8e	0.16617796
39	0xbe38427d	-0.17994113
40	0x3d367204	0.044542328
41	0x3dedb61c	0.11607
42	0x3ee4b4c8	0.44669175
43	0x3ebc6632	0.3679672
44	0xbe9b6cef	-0.30356547
45	0x3edb83f0	0.42874098
46	0xbeba1d19	-0.36350325
47	0x3ed366ea	0.41289455
48	0x3e518c0a	0.20463577
49	0xbe544360	-0.20728827
50	0xbd9b5ac0	-0.075856686
51	0xbe529474	-0.20564443
52	0xbda95d42	-0.08269741
53	0xbe35fa8a	-0.17771354
54	0x3ee4d553	0.44694003
55	0x3e41ebb4	0.1893757
56	0x3ee70225	0.45118824
57	0x3e1108eb	0.14163558
58	0x3e3172e5	0.17328985
59	0x3eb47fc3	0.35253724
60	0x3eb22346	0.34792536
61	0xbe1cc227	-0.15308438
62	0xbdc132d8	-0.09433526
63	0xbe9f26a3	-0.31084165
64	0x3e963e54	0.29344428
65	0xbe7d3b42	-0.24729636
66	0x3e908711	0.28228047
67	0x3ea039cc	0.31294096
68	0x3f0c9f54	0.54930615
69	0x3cbc8690	0.023013383
70	0xbdea3712	-0.11436285
71	0xbe7355e4	-0.23763233
72	0x3e096396	0.13416895
73	0x3ee98a00	0.45613098
74	0xbe1003ab	-0.14063899
75	0x3d2b822c	0.04187219
76	0x3ed4e4c0	0.41580772
77	0x3d97db3d	0.07414863
78	0xbe7b8238	-0.24561393
79	0x3cdcc49c	0.02694922
80	0xbd0a8078	-0.033813924
81	0xbb8b043b	-0.0042424477
82	0x3e024bdc	0.1272425
83	0xbe1e6092	-0.15466526
84	0x3ecfe6e5	0.40605846
85	0xbeb2ead0	-0.34944773
86	0x3e024bf1	0.12724282
87	0x3f857f90	1.0429554
88	0x3d46e87d	0.04856156
89	0x3eca70cd	0.39539185
90	0x3eecdd20	0.46262455
91	0x3ef570d5	0.47937647
92	0x3eb0c448	0.3452475
93	0xbda001c6	-0.07812838
94	0x3ed1c737	0.409723
95	0xbfd51d22	-1.6649516
96	0xbe693abe	-0.22776315
97	0xbed46f75	-0.41491285
98	0x3efb0417	0.49026558
99	0x3ec230da	0.37927896
100	0x3e877e25	0.26463428
101	0x3ec3dfaa	0.3825658
102	0x3e249a72	0.16074541
103	0xbd8bfb99	-0.06835098
104	0x3e0c299c	0.13687748
105	0xbe98d188	-0.2984736
106	0xbe27e8ba	-0.16397372
107	0x3e74484a	0.23855701
108	0x3e9ceb02	0.30648047
109	0x3e14a907	0.14517604
110	0x3df16591	0.117869504
111	0xbd86bc0c	-0.06578836
112	0xbe8cab0e	-0.27474254
113	0xbe8681ef	-0.26271006
114	0xbc137878	-0.00900089
115	0xbeb75315	-0.35805574
116	0x3eb954fa	0.36197644
117	0x3e3da601	0.18520357
118	0x3e6ad152	0.22931412
119	0x3dd98b5a	0.10622282
120	0x3dc49343	0.095984004
121	0xbe9b4a8e	-0.30330318
122	0xbcf4095d	-0.029789621
123	0x3e893d1f	0.26804444
124	0x3d675545	0.056477804
125	0xbdbc5878	-0.091965616
126	0x3e773146	0.2413989
127	0x3de9f87a	0.11424346
128	0x3e97b3fd	0.29629508
129	0x3ee6e7e2	0.45098788
130	0x3d19df0d	0.037566233
131	0xbe69f813	-0.22848539
132	0xbdf78221	-0.12085367
133	0x3d039573	0.032124948
134	0xbd2bf850	-0.041984856
135	0xbed17a2f	-0.4091353
136	0xbe3d6028	-0.18493712
137	0x3ed7536d	0.42055836
138	0xbd305690	-0.043051302
139	0x3d9824de	0.07428907
140	0xbed73d1e	-0.42038816
141	0xbed45c70	-0.41476774
142	0xbdb4272b	-0.08796533
143	0xbe8ad45f	-0.2711515
144	0xbba19a95	-0.0049317577
145	0xbebb03e9	-0.3652642
146	0xbea8fdde	-0.33006185
147	0x3eb2605d	0.34839144
148	0x3ecbdfeb	0.39819273
149	0xbcc5c2c6	-0.024140727
150	0x3e62c25e	0.22144458
151	0xbf5b734b	-0.857228
152	0xbcda37ed	-0.026637996
153	0x3eaab2ac	0.3333944
154	0x3de96b43	0.11397412
155	0xbf0c3211	-0.54763895
156	0x3f225e9f	0.6342563
157	0xbd9b8b6e	-0.075949535
158	0x3f8614f2	1.0475142
159	0x3f392c57	0.7233328
160	0x39855c54	0.00025436527
161	0x3e92733a	0.28603536
162	0x3f0a1778	0.5394206
163	0x3c725d06	0.014792686
164	0x3e643dee	0.2228925
165	0xbeffa842	-0.49933058
166	0x3e10ae22	0.14128926
167	0xbf11f023	-0.57007045
168	0xbf129ba0	-0.57268715
169	0x3efb37fc	0.4906615
170	0xbe788ad2	-0.24271706
171	0xbeafbf4d	-0.34325638
172	0xbdda1657	-0.10648792
173	0x3e888cfd	0.26670066
174	0x3f153398	0.5828185
175	0x3e5b2fc6	0.21404943
176	0xbf283a8f	-0.65714353
177	0xbd845f0a	-0.0646344
178	0xbe97607e	-0.29565805
179	0xbe1f16c2	-0.15536025
180	0x3ea9260e	0.33036846
181	0x3f27f1bd	0.6560324
182	0x3ed52ba0	0.41634846
183	0x3e3a0db1	0.18169285
184	0x3d7646f2	0.060126252
185	0xbc5e4eeb	-0.01356862
186	0x3d0a7c65	0.033810038
187	0xbf2b2b23	-0.66862696
188	0xbdb04089	-0.08606059
189	0x3e890e19	0.26768568
190	0xbf20f173	-0.6286842
191	0xbc909180	-0.017647505
192	0x3aa66f50	0.0012697969
193	0x3cfcc4b9	0.030855523
194	0x3eee71c0	0.4657116
195	0xbeebe6f0	-0.4607463
196	0x3f2c223e	0.6723975
197	0xbf243729	-0.6414667
198	0xbf130ab2	-0.57438195
199	0x3f425142	0.7590524
200	0x3ef742cd	0.48293152
201	0x3f21d703	0.63218707
202	0xbd9203f1	-0.07129658
203	0x3e3ea57a	0.18617812
204	0xbefe2db2	-0.49644238
205	0xbe7d1d27	-0.24718152
206	0xbf11e18f	-0.569848
207	0x3de42b80	0.111411095
208	0x3f212718	0.6295028
209	0xbeca1c67	-0.39474794
210	0x3ca54292	0.020173345
211	0x3e96502d	0.29358044
212	0x3f2d37fc	0.6766355
213	0x3f3cb8c7	0.7371945
214	0x3e3e56b2	0.18587759
215	0x3f25489a	0.64563906
216	0x3ddcc811	0.10780347
217	0xbf192840	-0.5982704
218	0xbf2ebbd4	-0.6825535
219	0x3d9438e0	0.072374105
220	0x3f5de72f	0.86680883
221	0x3dd0a74b	0.101881586
222	0xbee82ff0	-0.45349073
223	0xbe505295	-0.20344003
224	0x3f2f17be	0.683956
225	0xbbf5eaae	-0.0075047826
226	0xbf1ebf1b	-0.62010354
227	0xbf0260eb	-0.50929135
228	0x3f399a49	0.72501045
229	0xbd96eb79	-0.073691316
230	0x3f2373f7	0.63848823
231	0xbe34edb1	-0.17668797
232	0xbe1815f2	-0.14852121
233	0x3dfd3526	0.12363653
234	0xbf292d1d	-0.6608446
235	0x3f417249	0.7556501
236	0x3eff1f28	0.49828458
237	0xbeb9e1d3	-0.36305103
238	0xbe3ac2ee	-0.18238422
239	0xbf0e21a0	-0.5552006
240	0xbf1dccd2	-0.61640656
241	0xbf1bafeb	-0.60815305
242	0xbeae641f	-0.3406076
243	0x3adaaa2f	0.0016682799
244	0xbf23cc3c	-0.6398351
245	0x3ebfcc24	0.37460434
246	0x3e9cefc4	0.30651677
247	0x3f1b76d6	0.60728204
248	0xbf39a384	-0.7251513
249	0xbf22696e	-0.6344212
250	0xbe330b41	-0.17484762
251	0xbf195c83	-0.59906787
252	0xbe0e5cf8	-0.13902652
253	0x3f0b14b2	0.54328454
254	0x3eb153aa	0.34634143
255	0x3f40912c	0.75221515

lstm.bias_ih_l0 f4 [600]
0	0xbf50a36e	-0.81499374
1	0x3e1b837e	0.15186879
2	0x3f03c325	0.5146964
3	0x3e0cc679	0.13747586
4	0xbe0ca3dd	-0.13734384
5	0x3f1846a0	0.59482765
6	0x3e6c15f0	0.23055243
7	0x3e4a209f	0.19739006
8	0x3db2865e	0.08717035
9	0x3de510a5	0.11184815
10	0xbe79b597	-0.24385677
11	0xbf2e10fd	-0.6799467
12	0x3e300493	0.17189245
13	0x3dccb591	0.099955685
14	0x3e3b30ed	0.18280382
15	0x3cd1e6e5	0.025622794
16	0xbccbac31	-0.02486238
17	0x3ddbfe4c	0.10741863
18	0x3e6a631a	0.22889367
19	0x3d72b0c3	0.059250604
20	0x3e24d2b3	0.16096
21	0x3e69db43	0.22837548
22	0x3db76f75	0.089568056
23	0x3f8d05e5	1.1017424
24	0xbf3c5616	-0.73568857
25	0x3fd36c04	1.6517339
26	0x3e817662	0.2528563
27	0xbdc6c78e	-0.09706031
28	0x3e34c7b3	0.17654304
29	0x3dfda74c	0.12385425
30	0x3e182fa6	0.14861926
31	0xbf140579	-0.5782085
32	0x3e1d0920	0.15335512
33	0xbeeeff76	-0.46679276
34	0xbe5b9626	-0.21443996
35	0xbec52ff0	-0.38513136
36	0x3e9256ba	0.28581792
37	0x3e354784	0.17703062
38	0x3d98dadb	0.07463618
39	0x3d74949c	0.059712037
40	0x3e503dc2	0.20336059
41	0xbe24e47f	-0.1610279
42	0x3e2bdfbf	0.16784571
43	0xbdf51ce3	-0.119684
44	0xbf5184dd	-0.8184336
45	0xbe88cf29	-0.2672055
46	0x3e122516	0.1427196
47	0x3e32b452	0.17451599
48	0x3e04206d	0.12902994
49	0x3f002aee	0.50065506
50	0x3ee31035	0.44348302
51	0xbe8427d9	-0.2581165
52	0x3f84257c	1.0323939
53	0x3f9ce965	1.2258726
54	0x3eded4fe	0.43521875
55	0x3d56e710	0.052466452
56	0x3ea4de82	0.3220101
57	0xbdae0dab	-0.08498701
58	0x3ec83634	0.39103854
59	0xbe6c6d48	-0.23088562
60	0xbd9bfecc	-0.07616958
61	0x3da38c7a	0.07985778
62	0xbd94aef6	-0.07259934
63	0x3d698751	0.057013813
64	0xbefe504f	-0.49670646
65	0xbf731e04	-0.94967675
66	0xbe6c3845	-0.2306834
67	0x3e899cf6	0.26877564
68	0x3e3291a4	0.1743837
69	0xbe946c97	-0.28989097
70	0x3e8ca1b6	0.27467126
71	0x3e2e3c33	0.17015152
72	0xbe22a379	-0.15882672
73	0x3e922fe9	0.28552178
74	0xbf069c48	-0.52582216
75	0xbe684f64	-0.22686535
76	0x3e1e772e	0.15475151
77	0x3ea09f0d	0.31371346
78	0x3f0d00d5	0.55079395
79	0xbd8d5532	-0.06901015
80	0x3d12bf24	0.035826817
81	0x3e0a3134	0.13495332
82	0xbe57aa3d	-0.21061035
83	0xbc727461	-0.014798255
84	0x3e33380c	0.17501849
85	0x3d9afe0d	0.075679876
86	0x3f0f9ef0	0.56101894
87	0x3ec178af	0.37787387
88	0xbd8a9ecf	-0.067685716
89	0x3ec28678	0.37993217
90	0x3e265d03	0.16246419
91	0x3e10a174	0.1412409
92	0x3f983a40	1.1892776
93	0x3e7488c0	0.23880291
94	0x3e7328fd	0.23746105
95	0x3ea9f143	0.3319188
96	0x3dfb8ddb	0.12282916
97	0x3e971d32	0.29514462
98	0x3e806b9b	0.25082096
99	0x3e6d4b3d	0.23173232
100	0xbe246031	-0.16052319
101	0x3e708bc9	0.23490824
102	0x3d0bf59d	0.034169782
103	0x3e7d36c2	0.2472792
104	0xbe3de764	-0.185453
105	0x3eb6a0bc	0.35669506
106	0x3d604d37	0.054761138
107	0x3d8d15e5	0.06888942
108	0xbafa1a06	-0.0019081242
109	0xbbeafa29	-0.0071709347
110	0x3da0dd3c	0.07854697
111	0x3ebae14b	0.3650001
112	0xbfa95e84	-1.3231969
113	0x3ea4e9fb	0.32209763
114	0xbd141f41	-0.03616262
115	0x3e82cd95	0.25547472
116	0x3e284655	0.1643308
117	0x3d6de8ca	0.058083333
118	0xbdbbb94f	-0.09166204
119	0x3dc33c81	0.095330246
120	0xbd233836	-0.03984853
121	0x3de1729a	0.11008187
122	0x3f5e7d62	0.8691007
123	0x3efb7a62	0.49116808
124	0x3f1a4969	0.60268265
125	0x3df76f5c	0.12081787
126	0xbc073663	-0.008252713
127	0x3ee99c44	0.45627034
128	0xbe53d2d0	-0.20685887
129	0x3def7e25	0.11693982
130	0xbe5a5e26	-0.21324977
131	0x3e13275a	0.1437048
132	0x3c41336b	0.011792044
133	0xbee684e0	-0.4502325
134	0x3e01b64c	0.12667197
135	0x3d0a7bf6	0.033809625
136	0x3e2bc950	0.16776013
137	0x3e6ff865	0.23434599
138	0x3b5fff86	0.0034179403
139	0xbe51b64a	-0.20479694
140	0x3de413a0	0.11136556
141	0x3e7ec898	0.24881208
142	0x3ee9e0a9	0.45679215
143	0x3eb72217	0.35768196
144	0x3dbf4d9f	0.09340977
145	0x3e122a01	0.14273836
146	0x3f47d8f4	0.7806542
147	0x3f567401	0.8377076
148	0xbec64e34	-0.3873154
149	0xbe9264b3	-0.28592452
150	0x3eedb4ab	0.464269
151	0xbec8cb1c	-0.3921746
152	0x3f080757	0.531362
153	0xbe5c4519	-0.21510734
154	0xbf0884f9	-0.533279
155	0x3e5b707b	0.21429627
156	0xbedc8c9d	-0.4307603
157	0xbdf78353	-0.12085595
158	0x3e27e81d	0.16397138
159	0x3e3c4d8e	0.1838896
160	0xbe058e5e	-0.1304259
161	0xbde8cea8	-0.113675416
162	0xbeec514c	-0.46155775
163	0xbd48c1f8	-0.049013108
164	0x3da4ca51	0.08046401
165	0x3ec04d2d	0.3755888
166	0xbebf3cc2	-0.37351042
167	0xbdce781e	-0.10081504
168	0xbe787c12	-0.24266079
169	0xbf204206	-0.62600744
170	0x3e869755	0.26287332
171	0xbe6750ca	-0.22589412
172	0xbeecc874	-0.46246684
173	0x3f2f2664	0.68417954
174	0xbf8e1e63	-1.1103023
175	0x3ec221fb	0.3791655
176	0x3e260bae	0.16215393
177	0xbeb248e1	-0.34821227
178	0xbe8029bc	-0.2503184
179	0xbd8b65aa	-0.068065
180	0xbda4dbd3	-0.08049741
181	0x3ee6e207	0.4509432
182	0x3f5becbc	0.85908103
183	0xbddcec45	-0.10787252
184	0xbde621df	-0.11236929
185	0xbe9c18cf	-0.30487677
186	0x3dc1c77b	0.09461876
187	0x3da62a71	0.08113564
188	0x3f217608	0.63070726
189	0xbea3c36e	-0.3198504
190	0xbe0cfae3	-0.1376758
191	0xbdd3c8cd	-0.10341034
192	0x3e513107	0.20428859
193	0x3e8870f3	0.26648673
194	0x3da408c9	0.08009488
195	0x3e5a1b6a	0.2129952
196	0x3e56a84e	0.2096264
197	0x3e6fdf95	0.23425134
198	0x3e68314d	0.22675057
199	0xbebc08e6	-0.3672554
200	0xbf0d5a8c	-0.5521629
201	0x3e4cad9e	0.19988105
202	0x3f247960	0.64247704
203	0xbdc44ec2	-0.09585334
204	0x3db3f05c	0.08786079
205	0xbe8b21c2	-0.27174193
206	0x3e87c110	0.26514482
207	0xbe386735	-0.1800812
208	0xbe8edc8c	-0.2790264
209	0xbda76c99	-0.0817501
210	0xbdad63b7	-0.08466285
211	0x3d99fc64	0.07518843
212	0xbd8a2d88	-0.06746966
213	0xbec629ee	-0.38703865
214	0x3d8c9878	0.068650186
215	0xbf121425	-0.5706199
216	0xbe5abcb8	-0.21361053
217	0xbeb67ccb	-0.35642084
218	0x3db1da81	0.086842544
219	0xbdc15970	-0.09440887
220	0x3e4a8e70	0.19780898
221	0x3e62e92f	0.22159265
222	0x3ea915f6	0.33024567
223	0x3ef12641	0.47099498
224	0xbe3247de	-0.17410228
225	0x3dd53f43	0.10412457
226	0x3e35325c	0.17694992
227	0x3edd5b16	0.43233556
228	0xbeb14974	-0.34626353
229	0xbdcd74c0	-0.10032034
230	0xbef394f0	-0.47574568
231	0xbde813a5	-0.11331872
232	0xbd7bb4bd	-0.061451662
233	0xbca9cc60	-0.020727336
234	0x3e26c72b	0.16286914
235	0xbf259d38	-0.6469302
236	0xbf6430fc	-0.89137244
237	0xbeef35cd	-0.46720734
238	0x3f02ec83	0.5114214
239	0x3e52a1d4	0.20569545
240	0x3f0434f4	0.516433
241	0x3d82c546	0.06385283
242	0x3e80a4b5	0.25125661
243	0x3e86317d	0.26209632
244	0x3e10905e	0.14117572
245	0x3eac38f4	0.33637202
246	0xbe60bc45	-0.21946819
247	0xbeeb9584	-0.4601251
248	0x3dbe1068	0.09280473
249	0x3e78dbe9	0.24302639
250	0xbe587b6e	-0.21140835
251	0xbdbf87d1	-0.09352077
252	0x3d7fde82	0.06246806
253	0x3f0525a4	0.5201056
254	0xbe2bc6c9	-0.1677505
255	0xbfa45dda	-1.2841141

lstm.bias_hh_l0 f4 [600]
0	0xbf527c28	-0.822207
1	0x3e253ea3	0.16137175
2	0x3f021f5e	0.5082911
3	0x3e0460d4	0.12927562
4	0xbe176a80	-0.1478672
5	0x3f18b0c9	0.5964475
6	0x3e594f4e	0.21221659
7	0x3e47a489	0.19496359
8	0x3dc65326	0.09683828
9	0x3e0af76d	0.13570948
10	0xbe76e14b	-0.2410938
11	0xbf2c834d	-0.6738785
12	0x3e37b404	0.17939764
13	0x3dcdd341	0.10050059
14	0x3e3ecc51	0.18632628
15	0x3c701f41	0.014655889
16	0xbd4142f3	-0.04718299
17	0x3dd67327	0.10471182
18	0x3e7dd523	0.24788336
19	0x3d6a0868	0.057136923
20	0x3e2a013e	0.16602036
21	0x3e6f8634	0.23391038
22	0x3dbe2cd9	0.09285898
23	0x3f8d5721	1.1042215
24	0xbf3d2bc6	-0.7389492
25	0x3fd28f0f	1.6449908
26	0x3e83306f	0.2562289
27	0xbddd8f9d	-0.10818408
28	0x3e358fea	0.1773068
29	0x3e1217df	0.14266919
30	0x3e132334	0.14368898
31	0xbf173de3	-0.59078807
32	0x3e19e7c0	0.15029812
33	0xbeee05bf	-0.4648876
34	0xbe6be658	-0.23037088
35	0xbec1339e	-0.37734693
36	0x3e914bae	0.28378052
37	0x3e33a3a6	0.17542896
38	0x3db8483e	0.08998154
39	0x3d98e54d	0.07465611
40	0x3e596486	0.21229753
41	0xbe310864	-0.17288357
42	0x3e2d521f	0.16925858
43	0xbe091d3c	-0.13390058
44	0xbf50a694	-0.8150418
45	0xbe8bd412	-0.27310234
46	0x3e284146	0.1643115
47	0x3e235af9	0.15952672
48	0x3df49386	0.119422
49	0x3efcf239	0.4940355
50	0x3ee097fd	0.43865958
51	0xbe8e0787	-0.27740118
52	0x3f842eba	1.032676
53	0x3f9d7089	1.2299968
54	0x3edc92b2	0.4308067
55	0x3d3668ff	0.044533726
56	0x3ea9c74f	0.33159873
57	0xbdbeeb2c	-0.09322199
58	0x3ecbd5bc	0.39811504
59	0xbe6f176a	-0.23348776
60	0xbd90e588	-0.070750296
61	0x3dc12126	0.09430151
62	0xbda50a93	-0.080586575
63	0x3d0e9410	0.034809172
64	0xbf008617	-0.50204605
65	0xbf746625	-0.9546836
66	0xbe698c82	-0.22807506
67	0x3e810849	0.25201634
68	0x3e327aaa	0.17429605
69	0xbe904c3b	-0.2818316
70	0x3e85297d	0.26008216
71	0x3e324c8d	0.17412014
72	0xbe29b230	-0.1657188
73	0x3e93eee0	0.28893185
74	0xbf0ba18b	-0.5454337
75	0xbe70eea5	-0.23528536
76	0x3e163eef	0.14672445
77	0x3ea41847	0.32049772
78	0x3f0eb3ad	0.55742913
79	0xbda6b4a2	-0.08139922
80	0x3d0e1866	0.034691237
81	0x3e14a250	0.14515042
82	0xbe5d801e	-0.21630904
83	0xbc8f83a3	-0.017518824
84	0x3e2b94e0	0.1675601
85	0x3db30b21	0.08742357
86	0x3f0fcd4e	0.56172645
87	0x3ecb7792	0.39739662
88	0xbdb05948	-0.08610779
89	0x3ec266da	0.37969095
90	0x3e3c96f7	0.18416964
91	0x3e195116	0.14972338
92	0x3f962682	1.1730502
93	0x3e6fd7d5	0.23422177
94	0x3e5df64d	0.21675988
95	0x3eb19fab	0.3469213
96	0x3e07b267	0.13251649
97	0x3e93d3a4	0.28872406
98	0x3e7a7219	0.24457587
99	0x3e5ae1c8	0.21375191
100	0xbe29475c	-0.16531128
101	0x3e767e05	0.2407151
102	0x3ce8ecb3	0.02843318
103	0x3e84e73c	0.25957668
104	0xbe372e17	-0.17888676
105	0x3ebc10c5	0.36731544
106	0x3d65050b	0.055913012
107	0x3d5a211d	0.053254236
108	0x3bf4aba0	0.0074667484
109	0xbc4adbcb	-0.012381504
110	0x3da1689e	0.07881282
111	0x3eb91ccf	0.36154792
112	0xbfa884de	-1.3165548
113	0x3ea08257	0.3134944
114	0xbd42a785	-0.04752304
115	0x3e8744da	0.26419717
116	0x3e205e48	0.15660965
117	0x3d4331b8	0.047654837
118	0xbdb5b4cd	-0.08872376
119	0x3dd4a3f4	0.10382834
120	0xbcf7b329	-0.030236797
121	0x3dc19d82	0.0945387
122	0x3f5b0fe0	0.855711
123	0x3ef2f827	0.4745495
124	0x3f1c9b9b	0.61174935
125	0x3e07e05e	0.13269183
126	0xbca23f67	-0.019805623
127	0x3ee4aa29	0.44661072
128	0xbe54a1ac	-0.20764798
129	0x3de39462	0.11112286
130	0xbe5b22f4	-0.21400052
131	0x3e223485	0.15840347
132	0x3b089ea1	0.0020846503
133	0xbee95365	-0.45571437
134	0x3e0a4e47	0.13506423
135	0x3d2db554	0.042409256
136	0x3e317c02	0.17332461
137	0x3e74a336	0.23890385
138	0xba5805ad	-0.0008240592
139	0xbe49da10	-0.1971209
140	0x3dd2f072	0.102997676
141	0x3e740d94	0.23833305
142	0x3ee393fb	0.44448838
143	0x3eb10f8b	0.3458217
144	0x3dc4924b	0.09598216
145	0x3e15d608	0.14632428
146	0x3f45afec	0.7722156
147	0x3f552122	0.8325368
148	0xbebdff47	-0.37108824
149	0xbe9c527a	-0.30531675
150	0x3ef0fb80	0.4706688
151	0xbec76045	-0.38940635
152	0x3f0da102	0.55323803
153	0xbe4ad979	-0.19809522
154	0xbf0a6929	-0.5406671
155	0x3e4a573c	0.1975984
156	0xbee5f337	-0.4491212
157	0xbe05680c	-0.13027972
158	0x3e1d9489	0.15388693
159	0x3e404f11	0.18780161
160	0xbe037779	-0.12838544
161	0xbdff2b83	-0.12459471
162	0xbeeff980	-0.4687004
163	0xbd2b82a0	-0.04187262
164	0x3da0dd98	0.07854766
165	0x3ec1d417	0.37857124
166	0xbeba634c	-0.36403883
167	0xbdd39289	-0.10330684
168	0xbe61c74d	-0.22048683
169	0xbf224f52	-0.63402283
170	0x3e838d70	0.25693846
171	0xbe63d0e5	-0.22247656
172	0xbeed8b6f	-0.46395442
173	0x3f2b9fa5	0.67040473
174	0xbf8bdd11	-1.0926839
175	0x3ec1773e	0.37786287
176	0x3e11a3d7	0.14222656
177	0xbeac4978	-0.33649802
178	0xbe81343c	-0.25235164
179	0xbd942199	-0.07232971
180	0xbda7b0ed	-0.08188043
181	0x3eea4aa9	0.45760086
182	0x3f5942e4	0.8486769
183	0xbdc0a0e8	-0.094056904
184	0xbdd63671	-0.104596026
185	0xbe967741	-0.2938786
186	0x3de7cb7a	0.11318107
187	0x3d848ae2	0.06471802
188	0x3f1f6b66	0.6227325
189	0xbeacef6b	-0.3377641
190	0xbe0642ac	-0.13111371
191	0xbdcf521b	-0.10123082
192	0x3e55f05a	0.20892468
193	0x3e7e8427	0.248551
194	0x3db29bcb	0.087211214
195	0x3e5ef9b7	0.21774946
196	0x3e5a8b40	0.21342182
197	0x3e7b2506	0.24525842
198	0x3e5d5445	0.21614178
199	0xbeb24daa	-0.34824878
200	0xbf0b1860	-0.5433407
201	0x3e41f562	0.18941262
202	0x3f2909b1	0.6603041
203	0xbdc62e91	-0.096768506
204	0x3dc2f93d	0.09520195
205	0xbe7e4894	-0.24832374
206	0x3e85cb72	0.2613178
207	0xbe3ebd25	-0.1862684
208	0xbe8d6f83	-0.2762414
209	0xbd8fe29f	-0.070256464
210	0xbda36922	-0.07979037
211	0x3db80da6	0.08986978
212	0xbda21721	-0.07914568
213	0xbebc6868	-0.36798406
214	0x3d9e7738	0.07737583
215	0xbf10d49b	-0.5657441
216	0xbe5b4b27	-0.21415387
217	0xbeb3fa25	-0.35151783
218	0x3db20c31	0.086937316
219	0xbda75bb4	-0.08171788
220	0x3e4545ea	0.19264951
221	0x3e703559	0.2345785
222	0x3ea9bc72	0.33151585
223	0x3ef747b6	0.482969
224	0xbe29f1fa	-0.16596213
225	0x3de9537d	0.11392877
226	0x3e3e5c0b	0.18589799
227	0x3ee68c01	0.4502869
228	0xbeb3269e	-0.349904
229	0xbdcbbbb8	-0.09947914
230	0xbeef9289	-0.46791485
231	0xbe0863a9	-0.13319267
232	0xbd8836fc	-0.066511124
233	0xbb3ea278	-0.0029088538
234	0x3e218681	0.15773965
235	0xbf25efc8	-0.64819
236	0xbf656f5e	-0.8962306
237	0xbee9ef46	-0.45690364
238	0x3f0011f1	0.50027376
239	0x3e64b1e2	0.22333482
240	0x3f0240fc	0.5088041
241	0x3da6509a	0.08120842
242	0x3e7ed870	0.24887252
243	0x3e7c0c6e	0.24614117
244	0x3e1a9d53	0.15099077
245	0x3ea7e171	0.32789186
246	0xbe5ccb2b	-0.21561877
247	0xbeeb684d	-0.45978013
248	0x3d90ba56	0.07066791
249	0x3e683fab	0.22680537
250	0xbe5623e9	-0.20912136
251	0xbda57840	-0.080795765
252	0x3d5568a8	0.05210176
253	0x3f0361e3	0.5132124
254	0xbe2600b5	-0.16211207
255	0xbfa4722e	-1.2847345

layernorm.weight f4 [150]
0	0x3f800000	1.0
1	0x3f800000	1.0
2	0x3f800000	1.0
3	0x3f800000	1.0
4	0x3f800000	1.0
5	0x3f800000	1.0
6	0x3f800000	1.0
7	0x3f800000	1.0
8	0x3f800000	1.0
9	0x3f800000	1.0
10	0x3f800000	1.0
11	0x3f800000	1.0
12	0x3f800000	1.0
13	0x3f800000	1.0
14	0x3f800000	1.0
15	0x3f800000	1.0
16	0x3f800000	1.0
17	0x3f800000	1.0
18	0x3f800000	1.0
19	0x3f800000	1.0
20	0x3f800000	1.0
21	0x3f800000	1.0
22	0x3f800000	1.0
23	0x3f800000	1.0
24	0x3f800000	1.0
25	0x3f800000	1.0
26	0x3f800000	1.0
27	0x3f800000	1.0
28	0x3f800000	1.0
29	0x3f800000	1.0
30	0x3f800000	1.0
31	0x3f800000	1.0
32	0x3f800000	1.0
33	0x3f800000	1.0
34	0x3f800000	1.0
35	0x3f800000	1.0
36	0x3f800000	1.0
37	0x3f800000	1.0
38	0x3f800000	1.0
39	0x3f800000	1.0
40	0x3f800000	1.0
41	0x3f800000	1.0
42	0x3f800000	1.0
43	0x3f800000	1.0
44	0x3f800000	1.0
45	0x3f800000	1.0
46	0x3f800000	1.0
47	0x3f800000	1.0
48	0x3f800000	1.0
49	0x3f800000	1.0
50	0x3f800000	1.0
51	0x3f800000	1.0
52	0x3f800000	1.0
53	0x3f800000	1.0
54	0x3f800000	1.0
55	0x3f800000	1.0
56	0x3f800000	1.0
57	0x3f800000	1.0
58	0x3f800000	1.0
59	0x3f800000	1.0
60	0x3f800000	1.0
61	0x3f800000	1.0
62	0x3f800000	1.0
63	0x3f800000	1.0
64	0x3f800000	1.0
65	0x3f800000	1.0
66	0x3f800000	1.0
67	0x3f800000	1.0
68	0x3f800000	1.0
69	0x3f800000	1.0
70	0x3f800000	1.0
71	0x3f800000	1.0
72	0x3f800000	1.0
73	0x3f800000	1.0
74	0x3f800000	1.0
75	0x3f800000	1.0
76	0x3f800000	1.0
77	0x3f800000	1.0
78	0x3f800000	1.0
79	0x3f800000	1.0
80	0x3f800000	1.0
81	0x3f800000	1.0
82	0x3f800000	1.0
83	0x3f800000	1.0
84	0x3f800000	1.0
85	0x3f800000	1.0
86	0x3f800000	1.0
87	0x3f800000	1.0
88	0x3f800000	1.0
89	0x3f800000	1.0
90	0x3f800000	1.0
91	0x3f800000	1.0
92	0x3f800000	1.0
93	0x3f800000	1.0
94	0x3f800000	1.0
95	0x3f800000	1.0
96	0x3f800000	1.0
97	0x3f800000	1.0
98	0x3f800000	1.0
99	0x3f800000	1.0
100	0x3f800000	1.0
101	0x3f800000	1.0
102	0x3f800000	1.0
103	0x3f800000	1.0
104	0x3f800000	1.0
105	0x3f800000	1.0
106	0x3f800000	1.0
107	0x3f800000	1.0
108	0x3f800000	1.0
109	0x3f800000	1.0
110	0x3f800000	1.0
111	0x3f800000	1.0
112	0x3f800000	1.0
113	0x3f800000	1.0
114	0x3f800000	1.0
115	0x3f800000	1.0
116	0x3f800000	1.0
117	0x3f800000	1.0
118	0x3f800000	1.0
119	0x3f800000	1.0
120	0x3f800000	1.0
121	0x3f800000	1.0
122	0x3f800000	1.0
123	0x3f800000	1.0
124	0x3f800000	1.0
125	0x3f800000	1.0
126	0x3f800000	1.0
127	0x3f800000	1.0
128	0x3f800000	1.0
129	0x3f800000	1.0
130	0x3f800000	1.0
131	0x3f800000	1.0
132	0x3f800000	1.0
133	0x3f800000	1.0
134	0x3f800000	1.0
135	0x3f800000	1.0
136	0x3f800000	1.0
137	0x3f800000	1.0
138	0x3f800000	1.0
139	0x3f800000	1.0
140	0x3f800000	1.0
141	0x3f800000	1.0
142	0x3f800000	1.0
143	0x3f800000	1.0
144	0x3f800000	1.0
145	0x3f800000	1.0
146	0x3f800000	1.0
147	0x3f800000	1.0
148	0x3f800000	1.0
149	0x3f800000	1.0

layernorm.bias f4 [150]
0	0x00000000	0.0
1	0x00000000	0.0
2	0x00000000	0.0
3	0x00000000	0.0
4	0x00000000	0.0
5	0x00000000	0.0
6	0x00000000	0.0
7	0x00000000	0.0
8	0x00000000	0.0
9	0x00000000	0.0
10	0x00000000	0.0
11	0x00000000	0.0
12	0x00000000	0.0
13	0x00000000	0.0
14	0x00000000	0.0
15	0x00000000	0.0
16	0x00000000	0.0
17	0x00000000	0.0
18	0x00000000	0.0
19	0x00000000	0.0
20	0x00000000	0.0
21	0x00000000	0.0
22	0x00000000	0.0
23	0x00000000	0.0
24	0x00000000	0.0
25	0x00000000	0.0
26	0x00000000	0.0
27	0x00000000	0.0
28	0x00000000	0.0
29	0x00000000	0.0
30	0x00000000	0.0
31	0x00000000	0.0
32	0x00000000	0.0
33	0x00000000	0.0
34	0x00000000	0.0
35	0x00000000	0.0
36	0x00000000	0.0
37	0x00000000	0.0
38	0x00000000	0.0
39	0x00000000	0.0
40	0x00000000	0.0
41	0x00000000	0.0
42	0x00000000	0.0
43	0x00000000	0.0
44	0x00000000	0.0
45	0x00000000	0.0
46	0x00000000	0.0
47	0x00000000	0.0
48	0x00000000	0.0
49	0x00000000	0.0
50	0x00000000	0.0
51	0x00000000	0.0
52	0x00000000	0.0
53	0x00000000	0.0
54	0x00000000	0.0
55	0x00000000	0.0
56	0x00000000	0.0
57	0x00000000	0.0
58	0x00000000	0.0
59	0x00000000	0.0
60	0x00000000	0.0
61	0x00000000	0.0
62	0x00000000	0.0
63	0x00000000	0.0
64	0x00000000	0.0
65	0x00000000	0.0
66	0x00000000	0.0
67	0x00000000	0.0
68	0x00000000	0.0
69	0x00000000	0.0
70	0x00000000	0.0
71	0x00000000	0.0
72	0x00000000	0.0
73	0x00000000	0.0
74	0x00000000	0.0
75	0x00000000	0.0
76	0x00000000	0.0
77	0x00000000	0.0
78	0x00000000	0.0
79	0x00000000	0.0
80	0x00000000	0.0
81	0x00000000	0.0
82	0x00000000	0.0
83	0x00000000	0.0
84	0x00000000	0.0
85	0x00000000	0.0
86	0x00000000	0.0
87	0x00000000	0.0
88	0x00000000	0.0
89	0x00000000	0.0
90	0x00000000	0.0
91	0x00000000	0.0
92	0x00000000	0.0
93	0x00000000	0.0
94	0x00000000	0.0
95	0x00000000	0.0
96	0x00000000	0.0
97	0x00000000	0.0
98	0x00000000	0.0
99	0x00000000	0.0
100	0x00000000	0.0
101	0x00000000	0.0
102	0x00000000	0.0
103	0x00000000	0.0
104	0x00000000	0.0
105	0x00000000	0.0
106	0x00000000	0.0
107	0x00000000	0.0
108	0x00000000	0.0
109	0x00000000	0.0
110	0x00000000	0.0
111	0x00000000	0.0
112	0x00000000	0.0
113	0x00000000	0.0
114	0x00000000	0.0
115	0x00000000	0.0
116	0x00000000	0.0
117	0x00000000	0.0
118	0x00000000	0.0
119	0x00000000	0.0
120	0x00000000	0.0
121	0x00000000	0.0
122	0x00000000	0.0
123	0x00000000	0.0
124	0x00000000	0.0
125	0x00000000	0.0
126	0x00000000	0.0
127	0x00000000	0.0
128	0x00000000	0.0
129	0x00000000	0.0
130	0x00000000	0.0
131	0x00000000	0.0
132	0x00000000	0.0
133	0x00000000	0.0
134	0x00000000	0.0
135	0x00000000	0.0
136	0x00000000	0.0
137	0x00000000	0.0
138	0x00000000	0.0
139	0x00000000	0.0
140	0x00000000	0.0
141	0x00000000	0.0
142	0x00000000	0.0
143	0x00000000	0.0
144	0x00000000	0.0
145	0x00000000	0.0
146	0x00000000	0.0
147	0x00000000	0.0
148	0x00000000	0.0
149	0x00000000	0.0

batchnorm.weight f4 [150]
0	0x3eb9f580	0.36320114
1	0x3f358204	0.70901513
2	0x3ecf287e	0.4046058
3	0xbc3e87f3	-0.0116290925
4	0x3e0a57b1	0.13510014
5	0x3e79e7d0	0.24404836
6	0x3f4057d7	0.7513403
7	0x3e5b17b2	0.21395758
8	0x3fbab65b	1.45869
9	0x3de3f4aa	0.1113065
10	0x3ed50097	0.41602013
11	0xbd20e338	-0.039279193
12	0x4000d31e	2.0128856
13	0xbe0c6c9d	-0.13713308
14	0xbe27635d	-0.16346498
15	0x3e28e752	0.16494492
16	0xbe12aa10	-0.14322686
17	0x3e3aa6ae	0.18227646
18	0xbda7cd83	-0.08193495
19	0x3f808770	1.0041332
20	0x3f213a3d	0.6297949
21	0x3fd0f04c	1.6323333
22	0x3e9660c6	0.29370707
23	0x3f9b2089	1.2119304
24	0x3fbf1944	1.4929585
25	0x3fb1ebbc	1.3900065
26	0x3e67adda	0.22624913
27	0x3f03bed1	0.5146304
28	0x3f247145	0.64235336
29	0x3ed93b23	0.4242793
30	0xbdd051bb	-0.10171839
31	0x3e90b82a	0.28265506
32	0x3f0f300c	0.5593269
33	0x3e6d46fb	0.23171608
34	0x3f02c5ca	0.5108305
35	0x3e30f6fe	0.1728172
36	0x3ebf5f3e	0.37377352
37	0xbe20f559	-0.15718593
38	0xbed1612e	-0.40894455
39	0x3ef769b6	0.4832284
40	0xbe0bf8bc	-0.13669103
41	0x3d5871c3	0.052842867
42	0x3d2872e6	0.0411252
43	0x3ea99e52	0.331286
44	0x3ed818d3	0.4220644
45	0x3d23cb89	0.039989028
46	0x3ebab48d	0.36465874
47	0xbd2ee477	-0.04269835
48	0xbdf121c6	-0.1177402
49	0x3fa856de	1.315151
50	0x3f47c663	0.7803709
51	0x3eabba09	0.3354037
52	0xbe987290	-0.29774904
53	0x3d3f48de	0.04670035
54	0x3e000461	0.1250167
55	0xbeaaf00b	-0.33386263
56	0x3fadd485	1.3580481
57	0x3e4b96a1	0.19881679
58	0x3f2dfe07	0.6796574
59	0x3e11bf98	0.14233243
60	0x3dd70a32	0.104999915
61	0x3cf0b8d9	0.029385017
62	0x3e485715	0.19564469
63	0x3ed43ca2	0.4145251
64	0x3e817401	0.25283816
65	0x3fcef8c9	1.6169673
66	0x3eb17f5d	0.34667483
67	0x3edadf5e	0.4274854
68	0xbdeaa97e	-0.11458109
69	0x3e2a0ac5	0.16605671
70	0x3f8b4dd8	1.0883131
71	0xbf704bb1	-0.93865496
72	0x3e8794fc	0.26480854
73	0x3f5f1d8c	0.8715446
74	0x3ee33fd3	0.44384632
75	0xbd9e264b	-0.077221476
76	0x3d1d1a66	0.038355254
77	0x3e2b40e2	0.1672397
78	0x3f352433	0.7075836
79	0x3d56007b	0.052246552
80	0x3f439e04	0.7641299
81	0x3e44af91	0.19207598
82	0x3dac43a8	0.08411342
83	0xbdbbf052	-0.09176697
84	0x3e39c570	0.18141723
85	0x3ecdab4b	0.4016975
86	0x3ef389a0	0.47565937
87	0xbf49c76d	-0.78819925
88	0xbf8ee0a2	-1.1162302
89	0x3f439cb5	0.7641099
90	0x3d1c0bef	0.03809732
91	0x3dd00271	0.10156716
92	0x3e2b4f98	0.16729581
93	0x3e83cac0	0.25740623
94	0x3cd19f27	0.025588585
95	0xbe9dae6c	-0.30797136
96	0x3e9f66d3	0.31133136
97	0x3f456a1f	0.7711505
98	0xbef0277b	-0.4690512
99	0x3e782f60	0.24236822
100	0x3caa9929	0.020824986
101	0x3e35103c	0.17681974
102	0xbd8b34df	-0.06797194
103	0x3ef9005f	0.48633096
104	0x3e12237f	0.14271353
105	0x3f620ef2	0.88304055
106	0x3f2a234f	0.66460127
107	0x3e89ad06	0.2688982
108	0x3e3693c3	0.17829804
109	0x3f2fa6ea	0.68614066
110	0x3e1c8512	0.15285137
111	0x3f134c71	0.57538515
112	0x3f8e9eb2	1.114218
113	0x3f2a7967	0.66591495
114	0x3e5f532e	0.21809074
115	0x3fbd252c	1.4776969
116	0x3e94bd34	0.290506
117	0x3ed30e5a	0.41221887
118	0xbc7c835e	-0.01541218
119	0x3e047406	0.12934884
120	0x3e4acc64	0.19804531
121	0x3e8654fe	0.2623672
122	0xbf0e843d	-0.5567053
123	0x3dd796c7	0.10526805
124	0xbf24d97f	-0.6439437
125	0x3e544369	0.2072884
126	0x3de77a4e	0.11302625
127	0x3f3c04c4	0.7344477
128	0x3ec79a59	0.38984945
129	0xbd86e187	-0.06585985
130	0xbe83f658	-0.25773883
131	0x3e88ac9a	0.26694185
132	0x3f7b774c	0.9822891
133	0x3e78d401	0.24299623
134	0x3e1dae68	0.15398562
135	0xbc7eed81	-0.015559555
136	0xbf6cc284	-0.9248431
137	0x3e85e1da	0.26148874
138	0x3e8574b5	0.26065603
139	0x3ceb9bf4	0.028760888
140	0x3eab7930	0.33490896
141	0x3e62ee36	0.22161183
142	0x3f0eff48	0.5585828
143	0x3e1dbae1	0.1540332
144	0x3ed5d87b	0.41766724
145	0x3eae4f9e	0.34045118
146	0x3fb71ecc	1.4306273
147	0x3f06693e	0.52504337
148	0x3e9565b5	0.2917916
149	0x3e82e024	0.2556163

batchnorm.bias f4 [150]
0	0x3f747772	0.9549476
1	0x3d4a0463	0.04932059
2	0x3f2902d2	0.6601993
3	0x3ece1968	0.40253758
4	0x3f01e23e	0.50735843
5	0x3f1144e2	0.5674573
6	0xbe2ed92b	-0.1707503
7	0x3f1fafd2	0.62377656
8	0xbbf19767	-0.007372785
9	0x3e823dd5	0.254378
10	0xbf241e5c	-0.64108825
11	0x3ec306f0	0.3809123
12	0x3d09e605	0.03366663
13	0x3f54b7c7	0.8309292
14	0x3f058a04	0.5216372
15	0xbf4358cd	-0.76307374
16	0x3f34b14d	0.7058304
17	0x3f89a455	1.0753275
18	0x3f327ae0	0.6971874
19	0x3eb929d9	0.3616474
20	0x3f6fb60c	0.93637156
21	0x3e909cbe	0.28244585
22	0xbf681fe0	-0.9067364
23	0x3eeeee62	0.46666247
24	0x3ece0683	0.40239343
25	0x3f3bcbe9	0.7335802
26	0x3f68f580	0.90999603
27	0x3f685107	0.9074864
28	0x3f276fba	0.65404856
29	0x3ecda40b	0.40164217
30	0x3f469bff	0.7758178
31	0x3eca8ba8	0.39559674
32	0xbf5138a5	-0.8172706
33	0xbf4f1a19	-0.80899197
34	0x3edde660	0.43339825
35	0x3f619512	0.8811809
36	0xbefdbc10	-0.49557543
37	0x3f3bdb9e	0.73381984
38	0x3f18bcce	0.59663093
39	0x3f66ec6d	0.9020451
40	0x3f3671bf	0.7126731
41	0x3f76d8a5	0.96424323
42	0x3f11508f	0.5676355
43	0x3f3b9e7b	0.73288697
44	0x3eee340f	0.46524093
45	0x3ecdd72a	0.4020322
46	0x3ecaf29f	0.3963823
47	0x3ea9b82d	0.33148327
48	0x3f33270e	0.6998147
49	0x3e471efa	0.1944541
50	0xbf85b4b3	-1.044577
51	0x3f0495b7	0.51790947
52	0x3f3e366c	0.7430179
53	0x3ed7d931	0.4215789
54	0x3f2c7936	0.67372453
55	0x3f2e55be	0.6809958
56	0xbf9bb4af	-1.2164515
57	0x3f2f17c8	0.6839566
58	0x3f1772bb	0.5915944
59	0x3f280ef4	0.65647817
60	0x3f54c16b	0.8310763
61	0xbf2004a0	-0.6250706
62	0x3ed69802	0.41912848
63	0x3f268755	0.6505025
64	0x3f56492c	0.837054
65	0x3f121106	0.57057226
66	0x3f1fed1d	0.6247118
67	0x3f1f0d61	0.6212979
68	0x3ec4ff1a	0.38475877
69	0xbf1ad1c0	-0.60476303
70	0xbf542a34	-0.82876897
71	0x3f51d3e4	0.81963944
72	0x3f316ba2	0.6930486
73	0x3f4563d0	0.77105427
74	0x3eb8fa02	0.3612824
75	0x3f48ed98	0.7848754
76	0x3f6f2030	0.9340849
77	0x3f308780	0.68956757
78	0x3f1b9df4	0.6078789
79	0x3f1c33d0	0.6101656
80	0x3efdd131	0.49573663
81	0x3f105261	0.563757
82	0xbf04cf6c	-0.51879
83	0x3f373b61	0.7157498
84	0x3f351635	0.7073701
85	0x3ec638a0	0.38715076
86	0x3ef94a34	0.48689425
87	0xbf4d7030	-0.8024931
88	0xbf72e454	-0.9487965
89	0x3f6f33ba	0.93438303
90	0x3f307ca1	0.6894017
91	0x3ee3be3d	0.44481078
92	0x3f65cb6e	0.89763534
93	0x3f396639	0.72421604
94	0x3ec4fc9e	0.38473982
95	0xbf1f0aec	-0.6212604
96	0xbf510725	-0.81651527
97	0x3ea2ba9d	0.31783
98	0x3f2830a1	0.656992
99	0x3f481f1c	0.7817247
100	0x3f95ed45	1.1713034
101	0x3ededd8e	0.43528408
102	0x3f1204f6	0.5703882
103	0xbf6770ab	-0.9040629
104	0xbf475809	-0.77868706
105	0x3e4077ff	0.18795775
106	0xbf8a56e6	-1.0807769
107	0x3f19a05d	0.6001032
108	0x3f21690e	0.63050926
109	0x3f2f25d1	0.6841708
110	0x3f6aaa8c	0.91666484
111	0x3f23674d	0.638295
112	0x3f32ed9a	0.698938
113	0x3ec4c68a	0.38432723
114	0xbed52f79	-0.4163778
115	0x3e9203c8	0.2851851
116	0x3f937181	1.1519014
117	0x3f28dba5	0.6596015
118	0x3f35a656	0.70956933
119	0x3f62ebf4	0.88641286
120	0x3ee8356f	0.45353267
121	0x3f75546c	0.9583194
122	0xbf530fad	-0.82445794
123	0x3f083b1e	0.53215206
124	0x3ef11bbf	0.4709148
125	0x3eef107b	0.4669226
126	0x3f7e8a22	0.99429524
127	0x3e8a3d33	0.26999816
128	0x3eeab1f2	0.45838886
129	0x3f100eca	0.56272566
130	0x3f4db34c	0.8035171
131	0x3f4b2d1d	0.7936571
132	0x3f0e4fdc	0.55590606
133	0x3efdb58c	0.49552572
134	0x3dd4b136	0.10385363
135	0x3ecd18ec	0.40058076
136	0xbf8fd9ae	-1.1238306
137	0x3ec32d18	0.3812034
138	0x3f11529a	0.56766665
139	0x3f1bc5d3	0.6084873
140	0x3f271a47	0.6527447
141	0x3f3be008	0.7338872
142	0x3eef1292	0.46693856
143	0x3f082959	0.5318809
144	0x3f28b606	0.65902746
145	0x3f207980	0.62685394
146	0xbf5c429a	-0.86039126
147	0x3f738944	0.95131326
148	0x3f90e9ab	1.132131
149	0x3f374bdc	0.7160013
