src/results/subject_P23/best_model.pth (torch, 481333 bytes, 15 tensors)

input_linear.weight f4 [40, 40]
00000000: 32c7 d63d 9061 1abe 492e 95bd c420 eabd
00000010: 15cb 103e 0eeb cb3d 5c27 033d d6a5 aa3d
00000020: 00d9 c33b e8f9 dfbd c0c7 713d 000f d83a
00000030: 7e58 12be 0cdd 3c3d dff8 1f3e 283b 75bd
00000040: 0cc7 ae3d f281 d83d 682c d33c a854 123d
00000050: e7fa 1abe 4a17 c33d 019f 11be 1e38 973d
00000060: 4064 6ebc eebe d03d fe34 ee3d 0dcf 01be
00000070: f6d0 fd3d 90a6 f7bc e085 c63c 68f9 a7bc
00000080: a85d bebc a9c3 1dbe 0690 91bd c054 743c
00000090: ee8e 0dbe 8091 4d3c 030e 113e 1a3d 11be
000000a0: 5f64 a4bd 164b c73d 3122 b9bd e082 9f3c
000000b0: 39a5 093e e42a 89bd d2a5 f63d 62a7 57bd
000000c0: 60e5 aabb 566a f13d ae78 f23d 07e2 e5bd
000000d0: f70f 153e 00e1 553d 0fbd 003e a042 d53c
000000e0: cde5 133e b063 cfbd a89c a0bd 88fd 9c3d
000000f0: 0e60 febd 127f d2bd 6757 043e f245 c83d
00000100: 8c22 743d e4ed cfbd ce1e d6bd c0f6 333d
00000110: fc9b 0ebe 6c5b 09bd 81b2 90bd 8602 74bd
00000120: 9061 e2bc 2211 e73d f1e2 e1bd 704e 2bbc
00000130: 8008 b83b 300c 693c e30d 13be b4d3 5c3d
00000140: e0d4 593c 1898 5a3d 1643 d83d b3b7 123e
00000150: 3417 07bd 7c69 aa3d cabe 15be 6e56 e93d
00000160: e09d 30bc e898 993c 7095 8c3d c586 9fbd
00000170: eb8d 01be 5078 01be 62fd 963d 3b1a c8bd
00000180: 600e 473c dd44 1c3e c79f 88bd fd06 93bd
00000190: a412 e7bd 2b82 b6bd ffe0 0b3e 7022 a73d
000001a0: a013 8c3b b07d b3bc 3c6a 493d c0e0 c7bc
000001b0: fe7b d8bd ab81 063e 7956 0f3e f8f8 14be
000001c0: e0d9 1bbc 6a11 f63d 3cc0 013d 906c 603c
000001d0: d232 933d 5a86 aa3d bf15 20be f6e2 ca3d
000001e0: 7210 d83d 0629 8bbd 0666 f53d b677 8cbd
000001f0: 5cf1 923d 91ef cdbd 66c1 febd 68e4 9abc
00000200: 177c 10be d4f9 5d3d ce81 dfbd 9891 e7bc
00000210: d447 393d 0ac8 813d 047c 17bd 4aa2 f03d
00000220: 94a1 563d 900b b73d a619 efbd 0eda 12be
00000230: fe0a a8bd 71e2 0dbe 74c5 973d e14c 173e
00000240: c070 423c 8d59 053e 08e9 9cbc e7e6 193e
00000250: 802d 32bd 38a5 f83c a87d 633d d754 e0bd
00000260: b0cd 51bc c000 9dbc a62a 54bd dfe8 fbbd
00000270: 8e17 f2bd cdbe 203e dae1 be3d feab cf3d
00000280: 0884 383d 80e2 06be 1804 c73c 2877 c03c
00000290: 50ae 763d f2c9 0dbd 908c 24bd f6fb dd3d
000002a0: aa49 1bbd 8fac 12be be4e d5bd e60d 38bd
000002b0: aff8 cebd 80ec bd3a d6e8 bc3d 1aa6 8ebd
000002c0: 5263 95bd 86ac 35bd fcd3 7c3d 5078 3b3d
000002d0: 722d 983d b789 083e e86e 7cbd 1c32 043d
000002e0: dceb 163d ee6c 73bd d49b c2bd 3e58 8b3d
000002f0: c4ae b6bd 3e31 c53d ce7d 6cbd c081 5d3b
00000300: 97d3 1dbe da45 d13d 9c24 033d 5eef c43d
00000310: 203d 07be 680d 93bc 960e 96bd 0889 e13c
00000320: c84a aa3d 40e1 213c 7ebd ef3d 9e7f f9bd
00000330: 959e b3bd d971 0f3e 6a30 fb3d 0ac8 c63d
00000340: f217 de3d 2a30 31bd 66b9 76bd 72db ce3d
00000350: 3011 c93c cc03 9bbd c7a8 083e 1656 bd3d
00000360: e031 c8bb 1868 fcbc ee1d d23d e691 a13d
00000370: 22f0 d43d ac1e ba3d 20b6 a23d e785 183e
00000380: d0b5 753c c2ac df3d 2404 36bd d524 1d3e
00000390: ef86 07be 3a65 16bd c08d 55bc d07f 37bc
000003a0: b00c 1b3c 86ab b73d 7ce8 823d b4fc af3d
000003b0: d084 b7bc 9afa dc3d d970 163e 002b 8b3c
000003c0: 3f63 193e 6786 92bd f6b5 bd3d 0034 a339
000003d0: b02d 06bc 58a7 d3bc d131 b9bd 575c 89bd
000003e0: 38de b83d 1613 67bd 40a9 993d 2880 f4bc
000003f0: 283c 98bd 882d c93c 3464 343d 27a8 e1bd
0.10487212 -0.1507628 -0.07284219 -0.11432031 0.1413997 0.099569425 0.032019958 0.08332412
0.005976796 -0.10936338 0.059028387 0.0016483963 -0.1429157 0.046109244 0.1562228 -0.05987087
0.08534059 0.1057166 0.02577801 0.035725266 -0.15134774 0.095259264 -0.14220811 0.073837504
-0.014550269 0.10192667 0.11631201 -0.1267664 0.12393372 -0.03023079 0.024233758 -0.020504668
-0.023238018 -0.1540667 -0.071075484 0.014912784 -0.13824055 0.012546897 0.14165501 -0.14183465
-0.08026957 0.097311184 -0.090397246 0.019471586 0.13441934 -0.06697634 0.120433465 -0.052649863
-0.005215332 0.1178786 0.11839424 -0.11224752 0.14556871 0.05221653 0.1257212 0.026032746
0.14443131 -0.10126436 -0.0784238 0.07665545 -0.12420665 -0.10278143 0.12923966 0.09778966
0.05960326 -0.10152796 -0.10455094 0.04393649 -0.13926691 -0.033534452 -0.07065297 -0.05957272
-0.027634412 0.11282565 -0.11029614 -0.010455713 0.0056162477 0.014224097 -0.14360766 0.053912833
0.013295382 0.053367704 0.105596706 0.14327888 -0.032981113 0.08320901 -0.14623562 0.11393438
-0.010779828 0.01874967 0.068644404 -0.07789377 -0.12651794 -0.12643552 0.07372548 -0.09770628
0.012149423 0.15260644 -0.066711 -0.07179067 -0.11282852 -0.08911546 0.13660048 0.08160865
0.0042748004 -0.021910518 0.04917358 -0.024399161 -0.10570525 0.13135402 0.1399783 -0.14548099
-0.009512395 0.1201504 0.03167747 0.013697758 0.071874276 0.08326407 -0.15633295 0.099065706
0.10550012 -0.06794934 0.1198235 -0.068587705 0.07174942 -0.10055459 -0.124392316 -0.01890774
-0.14109837 0.054193333 -0.1091343 -0.028267667 0.045234516 0.063369825 -0.036983505 0.11749704
0.052400187 0.08937752 -0.11674814 -0.14340994 -0.082052216 -0.13855912 0.07410708 0.1477542
0.011867702 0.13022442 -0.019154087 0.15029489 -0.043500423 0.03035222 0.055539757 -0.10953682
-0.012805387 -0.019165397 -0.051798485 -0.12300276 -0.11820899 0.15697785 0.093204215 0.10140227
0.04504779 -0.1317234 0.024293944 0.023494318 0.06022483 -0.03461642 -0.040173113 0.10839073
-0.03791205 -0.14323638 -0.104154095 -0.04493513 -0.101060264 0.0014490038 0.092240974 -0.06965275
-0.072943345 -0.044353984 0.0617256 0.045769036 0.07430543 0.13333784 -0.061629206 0.03227435
0.036846027 -0.059430055 -0.09502378 0.0680394 -0.08920053 0.09628533 -0.057737164 0.003379926
-0.15412746 0.10218401 0.032017335 0.09615968 -0.13206911 -0.017950729 -0.07327001 0.027531162
0.08315045 0.009880364 0.11706065 -0.12182544 -0.087704815 0.14008273 0.122650936 0.09706123
0.10844411 -0.043258823 -0.060235403 0.101004496 0.024544328 -0.075690836 0.13345633 0.09244935
-0.006109461 -0.030811355 0.10259615 0.07889156 0.10397364 0.090878814 0.07944894 0.1489483
0.014996961 0.10921623 -0.044437543 0.15346082 -0.13235067 -0.03671763 -0.013034284 -0.0111999065
0.009463474 0.089682624 0.06391999 0.08593121 -0.022402197 0.10789986 0.14691485 0.016988277
0.14979266 -0.071545415 0.09263222 0.00031128526 -0.008189604 -0.025836632 -0.09042705 -0.067070656
0.0902676 -0.056414686 0.07502985 -0.029846266 -0.07433349 0.024557844 0.044040874 -0.11018401

input_linear.bias f4 [40]
00000000: 8029 f9ba c5ba f6bd 6bb4 073e 32ec 30bd
00000010: 803a 4dbc 45bc 07be ec61 3a3d 6d5d 14be
00000020: 00a0 723d 006b 643c a0cf a23c 44d4 e3bd
00000030: 7356 d3bd 89c2 1c3e bf68 063e c83f 1ebe
00000040: 2076 163c ea47 f03d 0283 16bd 4ce9 9cbd
00000050: 48df e2bd 100a 87bc aa63 e73d f06d c43c
00000060: 90c2 623c d875 dabc 961e f13d 38ca b13d
00000070: 1ed5 ba3d 66c7 21bd 6a09 ac3d 60c6 a93c
00000080: 22d9 de3d 784e a43c 7733 bcbd 8c41 bebd
00000090: f2af 83bd 2c7a 02bd 0c13 113d 27df 053e
-0.001900956 -0.12047342 0.13252418 -0.043194003 -0.0125261545 -0.13255413 0.04550354 -0.14488764
0.05923462 0.013941526 0.019874394 -0.11124471 -0.10319223 0.15308584 0.13125895 -0.15454018
0.009183437 0.117324665 -0.036746033 -0.07661685 -0.11077744 -0.01648429 0.11298306 0.023978204
0.013840333 -0.02666752 0.11773412 0.08681148 0.0912268 -0.0394968 0.08400233 0.020724475
0.108812585 0.020056948 -0.09189504 -0.09289846 -0.06430043 -0.031854793 0.035418555 0.13073407

lstm.weight_ih_l0 f4 [600, 40]
00000000: 0f56 7ebe 863d 77bd 61e7 9b3e b756 a43b
00000010: 7cd5 953c 07ae 8f3e ddbb 9c3e 59d0 94be
00000020: fb98 9dbe d8a4 96be a57e 833e ac8b 4f3c
00000030: 7fab a73e a549 993e 5681 5fbe 8848 a1bd
00000040: 930d 72be db4c 753e cb38 773e 7fdc 923e
00000050: 62ac 8d3e b0e5 983e 84b8 f7bc 64e2 133d
00000060: ad35 8f3e 0a41 41bd 7b3c 8f3e 2f3a 803e
00000070: 4580 813e 3bc1 c13d b0df 653e 7190 8e3e
00000080: 5890 843e 0eef 4ebe 0a34 93bc 57d0 243d
00000090: 8e36 9a3e 38c7 7fbe 2a43 09be 2559 70be
000000a0: 3a95 a4be a579 1f3f 7e6c 243f 3ee6 0f3f
000000b0: 6eb6 103f dd32 1d3f 03c3 1d3f 9890 1ebf
000000c0: 1eb9 20bf b330 28bf 8e4c e53e 64a4 033f
000000d0: 53d0 a73e c4a6 253f f26a fabe 2358 273e
000000e0: 6c3a 9f3e 1196 f13e 2128 ef3e ea78 263f
000000f0: ca5d 273f ca01 293f d753 ebbc 3936 6a3d
00000100: 02ff 243f 4605 6bbe 18a7 773d 5511 cbbd
00000110: 514e f33e f2c5 043e 640e f43e dfca 213f
00000120: 7d80 ed3e 31f4 973e cf19 adbc 8395 453d
00000130: 7a6a 283f a0ed 82be 8568 6ebe c5fb 05bf
00000140: 0dad 31be 0957 a9bf 2763 a93e 3557 203f
00000150: 6728 8bbf 21af b03e f733 cf3e 9632 bdbe
00000160: 40af debe b62a bcbe 4929 fc3e 74b2 31be
00000170: 6121 5f3e f065 b23e ccc8 8dbf 4a40 18bf
00000180: 5c1e 1e3f 1f33 063f b8f3 f83e 942b bd3e
00000190: 39c4 bd3e 071c b33e 66f6 20bf cea3 33bf
000001a0: 5772 c23e d8f4 823e 8d5f fa3d ef02 cfbd
000001b0: 4305 043f 9de9 153f 0229 053f 6e90 bc3e
000001c0: c9b3 fb3e 2ed7 213f 45b3 19bf c23e 34bf
000001d0: ab8f b93e 4718 043f 504a 6b3e a687 8dbf
000001e0: bdc4 08bd 48e7 193e 5153 4c3e 22c6 543d
000001f0: 1a33 d83d 7207 423e 5e51 203e 794c 3fbe
00000200: 3e1e 29be 5812 41be 0e37 193e 0b5c a2bd
00000210: 4699 273e 2b0a 2b3e 4561 45be 5a19 ab3d
00000220: 32cb 153d 2c27 213e 3f2e 263e 18f9 383e
00000230: ff86 243e 0542 473e 9185 45bc c7f4 fdbb
00000240: 2d62 243e 396f 64bd 8d0f 403e 4cb3 fa3d
00000250: c0b8 203e 9e51 2cbd 0c01 253e a35d 303e
00000260: 7625 2b3e e2cd 403d d6ad fbbc a741 9e3c
00000270: 7e28 433e f12d 28be 191c ffbd 281b 5abe
00000280: 83a5 b5be 2f8f 173d 4f1f 433e db65 d93d
00000290: 9f43 303d b43d 243e 9a8c 313e bd4d 2fbe
000002a0: 4ba7 2bbe ff64 2bbe b6a9 303e 9ab6 0e3d
000002b0: 9fc6 173e c870 2f3e c0ed 79be 3161 08be
000002c0: 835d 97bc 18f1 0e3e 6c38 0e3e 81d7 423e
000002d0: 9fa7 433e 6037 353e f41c 483e e654 57be
000002e0: bdc8 253e e6ac 8bbc 303f 4b3e 3c07 aa3e
000002f0: 03fb 223e fc42 fdbd a72a 213e 4985 453e
00000300: 5a13 273e 0020 f6bc 8efe 3c3e 7c23 71be
00000310: a014 253e 9808 8ebe f5e6 1fbc 2c1c 84be
00000320: 5638 383f 15ee 37bf 2cde 8abe d97b 04bf
00000330: a212 4abf 36e9 96be 7bcf c4be caf8 a43e
00000340: 0e37 c73e 9a01 a43e d88e 6dbf a694 9cbf
00000350: 64fd 823e 6071 99be 9e7f 6a3f b770 f83d
00000360: aa4e 813e a26f 71bf 978c 6abf 1661 98be
00000370: 59ed a1be 69ed a0be 470f 0b3e 3735 89bc
00000380: af3e 99be 8cb2 59bf cf2f 0b3e f6a6 9dbe
00000390: 64ec 70bf 2863 9ebe 0ec3 73bf a646 9ebe
000003a0: dcdf 6fbf 27cd 883e 291d d53d fbdd 1cbd
000003b0: c114 a8be bd04 233f 411b b83e 1140 653f
000003c0: 4cc4 34bd bb83 9abd b09d af3e b4d9 df3d
000003d0: f9f0 fabd af67 bd3e 1b80 a83e a767 b4be
000003e0: 50e6 a0be c0de afbe 4b18 803e 81c8 f5be
000003f0: 8442 cc3e dbd8 ac3e bcfc 2cbe 14e5 c63e
-0.24837516 -0.060361408 0.30449966 0.00501522 0.018290274 0.2806246 0.30612078 -0.29065207
-0.30780777 -0.2942264 0.2568256 0.012667578 0.3274803 0.29939 -0.21826681 -0.07875162
-0.2363799 0.239551 0.24142759 0.2868385 0.2767058 0.29862738 -0.030239351 0.036104575
0.2797064 -0.047181167 0.2797583 0.2504439 0.25293174 0.09460684 0.22448611 0.27844575
0.25891376 -0.2020838 -0.01796915 0.04023775 0.30119747 -0.2497834 -0.13404527 -0.23471506
-0.321451 0.6229499 0.64228046 0.56210697 0.56528366 0.61405736 0.6162569 -0.6193938
-0.62782466 -0.6569931 0.4478497 0.51422715 0.32776126 0.6470759 -0.48909718 0.16342215
0.3109926 0.47184804 0.46710303 0.6502825 0.65377486 0.66018355 -0.028726501 0.057180617
0.6445161 -0.2295123 0.060462087 -0.09915415 0.47520688 0.12966135 0.4766723 0.6320018
0.4638709 0.2967849 -0.02113047 0.04823829 0.6578747 -0.25571918 -0.23282059 -0.52337295
-0.1735117 -1.3229686 0.3308346 0.6263307 -1.0871705 0.34508613 0.40469334 -0.36952657
-0.4349308 -0.36751336 0.49250248 -0.1735323 0.21790077 0.34843397 -1.1076903 -0.594731
0.61765075 0.52421755 0.48623443 0.3694731 0.37063769 0.3498232 -0.62875974 -0.7017182
0.3797786 0.25577426 0.12225256 -0.101079814 0.5157053 0.5855959 0.520157 0.3682894
0.49160603 0.63218963 -0.6003917 -0.7040826 0.36242422 0.51599544 0.22977567 -1.1057022
-0.03339075 0.15029633 0.19953658 0.051946767 0.10556622 0.18948153 0.15656039 -0.18681516
-0.16515443 -0.18854654 0.14962408 -0.07927712 0.16367063 0.16703098 -0.19275387 0.08354445
0.036570735 0.15737599 0.16228579 0.18063772 0.16067122 0.19458778 -0.0120557705 -0.007750127
0.16053076 -0.055770133 0.18755932 0.122412294 0.15695477 -0.042070024 0.1611368 0.1722322
0.16713509 0.047071345 -0.03072254 0.019318415 0.19058415 -0.16423775 -0.12456531 -0.21299422
-0.35477838 0.037001785 0.19054912 0.106151305 0.04303324 0.16039163 0.17338791 -0.17119499
-0.16763036 -0.16737746 0.1725224 0.03484211 0.14821862 0.17132866 -0.244071 -0.13318326
-0.018477207 0.13959157 0.1388871 0.1902752 0.19106911 0.17696905 0.19542295 -0.2102848
0.16189857 -0.017050218 0.19848323 0.33208644 0.15916066 -0.12366292 0.15738927 0.19289126
0.16315976 -0.030044556 0.1845648 -0.23548692 0.16121149 -0.27740932 -0.009759654 -0.25802743
0.7196096 -0.7184766 -0.2712263 -0.51751477 -0.7893468 -0.294748 -0.38439545 0.3222106
0.3890919 0.32032472 -0.9279609 -1.2232864 0.25583947 -0.2996931 0.9160098 0.12130874
0.25255328 -0.94310963 -0.91620773 -0.2976157 -0.31626394 -0.3143113 0.13580047 -0.016749008
-0.29930636 -0.85038066 0.13592456 -0.30791444 -0.94110703 -0.30935025 -0.95219505 -0.30913275
-0.9370096 0.2671902 0.104059525 -0.038297635 -0.32828334 0.63679105 0.35958293 0.8955088
-0.044132516 -0.07544657 0.34299994 0.109301955 -0.12252993 0.36993167 0.32910237 -0.3523533
-0.31425714 -0.34349632 0.25018534 -0.48004535 0.39894497 0.33759198 -0.16893286 0.38846648

lstm.weight_hh_l0 f4 [600, 150]
00000000: f46f 1cbe a676 52be 0ae1 0fbe 22c2 c2bd
00000010: 20e5 acbd 22d9 71be 6e6a 313e 330e 0a3d
00000020: 6683 dabd f796 89be a996 90be 52ea b7bd
00000030: a975 65bc 03f8 e03a 67ec 49be 4150 43be
00000040: 3c98 b0bd 86d8 833e 83be 08be a5f5 0a3e
00000050: 0b75 30be 6f8f 41be 6c9e c53c 42f5 4bbe
00000060: 28b8 03be e5ea e63d 557e 2abe 259a 61be
00000070: 6acc d7bd f080 2fbe 9837 60bd 666e b7bc
00000080: 6e1c 183d 9cf7 7b3d c371 21be 0228 643e
00000090: d257 84bd 0cf5 663e c461 7fbe ad37 0cbd
000000a0: 62c0 973c cd30 1e3e 8b1f 59be 11b6 0d3f
000000b0: ac59 76be c64b 78be 62bb 79be 9b1b 1dbe
000000c0: 7574 4d3e 68f2 6bbe 7c9e 5f3d 843c 3fbe
000000d0: 5038 313e d399 f3bd 527a 51be f7cc ffbd
000000e0: 4b8e 4dbe 31c7 73bd e2d3 a23d 5227 30be
000000f0: 22d6 1d3e 2496 6abe 1da5 66bc 8645 4ebe
00000100: b87e 4a3d b93e f9bd ecca 45be 4ff1 0fbd
00000110: be39 3abe ab6b d63d 8fa6 f83c aaa9 18be
00000120: d66f a9bc 5e91 44be 0dce 32be 594a b5be
00000130: 733c f9bd bc90 8abe 8fd8 87be 2d9d 8bbd
00000140: da80 c13c c4c9 353c 20da 7fbe 3831 72be
00000150: 57de 7f3e b82b 0e3f cbab 89be 5c4b 3cbe
00000160: 748e cb3d 115d 14be a7b1 8bbe 91b4 82be
00000170: cacc 1abe e77c 1fbb 1121 e1bd 264e aebc
00000180: e421 8ebe a3fc 55be ccad 523d 1912 14be
00000190: e53b 5c3c 14df 64be 89c2 703d a8d0 e4bd
000001a0: 58ec b53d fbff 24be cce4 c8bd a09f 45be
000001b0: 0b0f 37be ad88 81be 26f0 bfbd 459f d7bc
000001c0: 9c39 113e 39b9 2c3e 7291 0fbe 98d5 053e
000001d0: c61f 5b3d 3cba b5bd 3702 6bbe 121c 7abe
000001e0: 2a5c de3d 1b7f 41be 6512 27bd 89c6 e6bd
000001f0: e1a9 92bd 6ec5 fcbd f797 18be 9f0d 3bbe
00000200: c419 103e ee2a b6bd 2cbd 00be c480 24be
00000210: e26a 76be d819 f3bd ac9d 54be a958 213e
00000220: 6b70 1d3e f8d0 6fbe eb6f aebc 8b77 16be
00000230: 90c0 8bbe 37dc 613d 071d 423e 4ede 3fbe
00000240: bdba f1bd 5059 81bd fe71 c23d 0e75 d23d
00000250: 59d2 3dbe 36e0 d6bd ae7d 8cbe 79c7 79be
00000260: cbce 36be 1aa2 8fbd 98d2 edbd 721e dbbe
00000270: 4f6e 8c3e 77d1 7abd 6ab1 eebe 59a0 a9bd
00000280: 602c a1be 2150 5b3e 54f5 273f 9ea5 a03e
00000290: a1f3 40be 7248 563e 2a98 b93c 2ba1 893e
000002a0: 2cb5 2dbe 6165 f4bd 11c6 71be 80ba fdbd
000002b0: 6bad 0b3e 2fc3 f2be e0b7 98be 85ca 9f3d
000002c0: 5ee4 a9be 6f53 93be 6caa a13c 1269 80be
000002d0: a543 863e 4dab abbe 31d2 e33e c9b4 4b3f
000002e0: 2b95 8ebe edec 853e f4c5 9dbe 41c4 bc3e
000002f0: ee18 abbc aa7e 6abd 03ac 153e 048e af3e
00000300: fd2b bebe 3b09 bc3e 046c 47be a1ce d33d
00000310: c1e1 83be 2601 86be 0c06 133e 8d1c 8bbe
00000320: 1fd2 503d 764d c0be bb71 843e b2bc 073f
00000330: b9a3 91be 7421 a9bc 1cf5 c33d 8e94 bfbe
00000340: 05e5 d23e 7a29 f73a e09e 803e b33b bbbd
00000350: 795d fe3d aadf 3f3a 6b79 8d3e f16a 8dbe
00000360: 4f33 6abe 82b1 b7be 6ed6 79be 2e46 8e3e
00000370: 8f1d 863d df45 78be 2f77 0ebe a193 bfbd
00000380: 883d 9abe eff6 b8be 4a6d 1b3e edb6 35be
00000390: 55ee 00be 7067 2cbe 2c07 90bd 3c03 fbbe
000003a0: e90f 26be f158 58be 8fb3 783e cf3e 3f3e
000003b0: dcef 88be 87c3 68be 43c3 7dbd d346 92be
000003c0: 9a5f 67be 8f8c cabe e47e b6be c73a a83d
000003d0: 89f5 51be 6251 7e3d 53f6 8fbe a8b9 bbbe
000003e0: 78d9 c73e 141c acbe f32a cabe 3e9d afbe
000003f0: da27 2cbd 21a1 9bbe 01b0 a2be cf7d 55be
-0.15277082 -0.20553073 -0.1405069 -0.09509684 -0.084421396 -0.23617986 0.17325756 0.033704948
-0.106695935 -0.2687299 -0.28239945 -0.0898024 -0.014005103 0.0017163757 -0.19719087 -0.19073583
-0.086227864 0.25751132 -0.13353924 0.13570268 -0.17232148 -0.18902372 0.024123393 -0.19917777
-0.12863219 0.11275271 -0.16649754 -0.22031458 -0.10537036 -0.1713903 -0.05474052 -0.02239151
0.037136488 0.061515436 -0.15766053 0.22280887 -0.06462063 0.22554415 -0.24939638 -0.034232784
0.018524352 0.15448304 -0.21203439 0.55355936 -0.24057645 -0.24247655 -0.24387887 -0.15342562
0.20063956 -0.2304169 0.0545945 -0.18675429 0.17306638 -0.11894574 -0.20456818 -0.12490266
-0.20073812 -0.059516136 0.0795057 -0.172025 0.15413716 -0.22908837 -0.014077452 -0.20143709
0.049437255 -0.121701665 -0.1931569 -0.03514224 -0.1818609 0.10469755 0.030352859 -0.14908472
-0.02068321 -0.19196078 -0.17461415 -0.35408285 -0.12169733 -0.2706355 -0.2653241 -0.06817088
0.023621012 0.011095468 -0.24985552 -0.23651588 0.2498716 0.5553546 -0.2688888 -0.18388122
0.0993928 -0.14488627 -0.27283975 -0.25528386 -0.15117183 -0.0024335922 -0.10992635 -0.021277498
-0.27760231 -0.20897155 0.051435277 -0.14460029 0.013442014 -0.22350723 0.058779273 -0.111726105
0.088829696 -0.16113274 -0.098092645 -0.19299173 -0.17876832 -0.25299588 -0.093719766 -0.026321063
0.14182132 0.16867532 -0.14020327 0.13069761 0.0534971 -0.08873412 -0.22950064 -0.2442477
0.10857423 -0.18896143 -0.040789027 -0.11268336 -0.07161308 -0.12342344 -0.1490172 -0.18266915
0.14072329 -0.08894907 -0.12572163 -0.16064745 -0.2406421 -0.11870164 -0.20763272 0.15756477
0.15374915 -0.23419559 -0.021293601 -0.1469404 -0.2729535 0.055141654 0.18956386 -0.18737146
-0.118031956 -0.06315863 0.094943985 0.10276233 -0.18537273 -0.104919836 -0.27439636 -0.24392499
-0.17852323 -0.0701334 -0.11612433 -0.42796665 0.2742791 -0.061234917 -0.4661973 -0.08282537
-0.31479168 0.21417286 0.65608716 0.31376356 -0.18842937 0.20926073 0.022655565 0.26880774
-0.16963643 -0.11933399 -0.23610713 -0.12389088 0.13640372 -0.47414538 -0.29827785 0.078022994
-0.33182043 -0.28774592 0.019734584 -0.25080162 0.26223484 -0.3352913 0.444963 0.7957273
-0.2784818 0.26157323 -0.3081509 0.3686848 -0.02088591 -0.057249703 0.14616399 0.34288037
-0.37142935 0.36725792 -0.19474798 0.10342146 -0.25758174 -0.2617275 0.14357775 -0.2717022
0.050981637 -0.37559098 0.2586802 0.530223 -0.28445223 -0.020645835 0.09568235 -0.37418026
0.41190353 0.0018856965 0.25121212 -0.09142246 0.12420172 0.00073194003 0.27631697 -0.27620652
-0.22871135 -0.35877615 -0.24398205 0.27787918 0.065486066 -0.24245404 -0.13912652 -0.0935433
-0.3012507 -0.36125895 0.15178409 -0.17745562 -0.12590916 -0.16836333 -0.07032618 -0.49025905
-0.16217007 -0.21127678 0.24287246 0.18676303 -0.26745498 -0.22730838 -0.061953794 -0.2856966
-0.22595063 -0.39560363 -0.35643685 0.08214336 -0.2050382 0.06208933 -0.28117618 -0.36665082
0.39033103 -0.33615172 -0.39485893 -0.34299654 -0.042030193 -0.3039637 -0.31774905 -0.20848773

lstm.bias_ih_l0 f4 [600]
00000000: dd6f 9d3e ec5f 273f aaae b33e a3f4 283e
00000010: 6e4e 333e 508c a7be 4d50 b83e 8cb9 a13e
00000020: 2dbe 153f 7b13 ab3e 8b46 863e 6b4a a83d
00000030: a36d ae3e 7c8d 773c 5149 91be bd93 d6be
00000040: 7e9e cf3d 4cad e53e 953d 403f 3e3a a9be
00000050: f3e9 5e3e 85ac 763e 3e1b 18bf 24f1 e73e
00000060: c710 403f e37c 433e 6208 5a3e 1507 333e
00000070: fe6a d23e d21e a03e c3cd b6be eaac 263d
00000080: 2657 d63d 480f 8fbf 4332 1f3f 8d89 ea3e
00000090: 8c63 0c3f 1c34 8bbe 53b6 7cbf 83ba 0cbc
000000a0: 5f2d 9fbe c161 853d 5b86 343e 1b0a 113f
000000b0: 1750 933e 8a40 cf3d 2589 e53e ca40 253e
000000c0: 48ad 0c3f 4b90 ac3e 7fca 013e 64c5 4f3e
000000d0: f6f8 453f bb08 3ebd 0b1b 0a3e 23fe 613f
000000e0: 4450 d13f a43e e63e 8aaa 8ebe a68a 883e
000000f0: 6a53 d03e 3e1c 763e 3953 863e ebda 57be
00000100: e60c 1fbe d145 4f3e 1818 ae3e 1280 823c
00000110: b1cc 293f 535b b93e b7d7 883d e90e ca3e
00000120: 0e8b a9bd 0dae 1a3f 452d 163e 78db 083e
00000130: e5d2 39bf 4744 fb3e ee02 1e3e a311 b6be
00000140: b273 c8bd 50d1 50be eeff 4d3e e30d f03d
00000150: 980a e63e d77c 483e eb9a bc3e d6f4 053f
00000160: 6e5c f1bd 9ee4 a13e 476b 96bc 6dab b93e
00000170: a298 123f e655 21be 449a 3e3f 2026 9abe
00000180: 6df9 e63e 2727 313e 6a26 c23e 6d7e 643d
00000190: 80d5 9dbe 3c8c 3d3f e4ff 10bf ca64 3e3f
000001a0: 7cfd 2dbe a9c5 8bbd 1341 803e 35d2 f43d
000001b0: cf20 9c3e 0b3e 603e 6808 073f 7b8e 303e
000001c0: 0cba 533e 9204 d23e 2b3b 923e a761 993e
000001d0: 5968 62be fb2f 4a3d 31b8 26be 5239 b93e
000001e0: fbdd f2be c2a2 933e 7301 35bf ec11 853e
000001f0: 06dc ee3c 04da 6e3e 14a6 6d3e e650 5f3e
00000200: 72b1 0e3f 2470 3a3e 1da5 7f3e e8eb a83e
00000210: 2bd2 913e 232b d03d 575e 933e e994 1fbf
00000220: a346 b73e 9ed6 bdbd 6ce6 3cbf 5a3b 713f
00000230: 6464 a73e b5fd 03be 05cb 0b3e 6388 153f
00000240: 0285 493e 3805 913c 87c9 623e 1e4a b8bc
00000250: 8276 263f b985 133d 03c0 573e 49c1 de3e
00000260: df86 b6be db45 833d e6ed ce3e 3a5f 25be
00000270: fd1c e03e bb98 183f de4e 243f d870 bfbd
00000280: 81b9 59be 71dc b13e d7bb a3be e3d0 c13e
00000290: c5c0 813e 7cef b13d 0faa 953e ccbc 1fbf
000002a0: fb80 103e c3df 6cbd 6c73 0e3f 5725 bc3e
000002b0: 18a2 2abe 1acb a4be 0bcd af3e 6166 93be
000002c0: c9f8 4e3e dcb7 e83d 5d94 363f 85f3 c33e
000002d0: 7f42 753e 0df9 13be 78b6 efbd 7567 343f
000002e0: f2e3 2e3f cc37 80be 53a8 213f 1a2f f4be
000002f0: 4bf7 0e3f e4b2 b43e 7503 0ebe 47e1 90be
00000300: 7c13 9cbe 684b dfbe 442b 313f 092f 3bbe
00000310: 31cf d23e 733e 1ebe 376e 2abf 297d 153f
00000320: df32 26bf 10db 833e ead6 debe 0190 a23d
00000330: 5521 c9be 7749 103f ca38 1b3f 6346 bc3e
00000340: 9771 ad3b b440 263e 0365 4fbe 1a21 173f
00000350: c653 4ebe cbc6 33bf ce38 58be fd3b 383e
00000360: 6a11 cd3e 1684 25bf ec44 11bf c80a edbe
00000370: 3061 c3bc 64ad ca3e b6cc 903c 1ada 0a3f
00000380: a668 8a3e 407a 8c3f a804 11bf 24da 423e
00000390: b0bf 833d cd42 5bbe ae01 b5bd 68b8 46bd
000003a0: 186b f4be c4b6 dbbc 7ef3 abbe 3d4e 093f
000003b0: 0320 d83e 200c c5be 0bda e93d 906d a63e
000003c0: 9bfd 3d3f c128 923e 89c7 d3bd 49d6 5abe
000003d0: 0def 85be 481d 1fbe 5ecb 6a3e 201b 2b3e
000003e0: db9f dc3b 55cf f9bd 4598 d8be 5360 cdbe
000003f0: b247 a4be 918e b5be 06e0 013d 53f0 9cbe
0.30749407 0.6538074 0.35094196 0.16499572 0.17510387 -0.32724237 0.35998765 0.31586874
0.5849331 0.334133 0.26225695 0.08217319 0.3406802 0.015109416 -0.28376248 -0.4190959
0.10137652 0.44858778 0.75093967 -0.33052248 0.21768932 0.24089248 -0.5941657 0.45301163
0.750256 0.19090609 0.2129226 0.1748317 0.41097254 0.31273514 -0.3570386 0.040692247
0.10465841 -1.1176538 0.6218607 0.45808068 0.54839396 -0.27188194 -0.98715705 -0.00858939
-0.31089303 0.06512786 0.17629378 0.56656045 0.2877204 0.10119732 0.44831195 0.16137996
0.54951906 0.33703837 0.12674902 0.20290142 0.7733301 -0.046395045 0.13486879 0.88278407
1.635262 0.44969666 -0.27864486 0.2666828 0.4068864 0.24034211 0.2623537 -0.21079604
-0.15532264 0.20241477 0.34002757 0.01593021 0.6632796 0.36202487 0.06681769 0.394645
-0.08278476 0.6042183 0.14665706 0.1336497 -0.72587425 0.4907553 0.15430805 -0.3556033
-0.09787692 -0.20392346 0.2011716 0.11721399 0.44929957 0.19578873 0.36836943 0.52326715
-0.11785208 0.31619734 -0.0183617 0.362636 0.5726415 -0.15755424 0.7445414 -0.30107212
0.45112172 0.17300092 0.37919933 0.05578463 -0.3082695 0.74042106 -0.5664046 0.7437254
-0.16991228 -0.0682481 0.25049648 0.11954156 0.3049378 0.21898668 0.527472 0.17241852
0.2067644 0.41019112 0.28560767 0.29957315 -0.22110118 0.049362164 -0.16281201 0.36176544
-0.47434983 0.28835112 -0.70705336 0.25990236 0.02915765 0.23325354 0.23207885 0.21808204
0.5573951 0.18206841 0.2496533 0.32992482 0.28480658 0.10164478 0.28782913 -0.62336594
0.3579608 -0.092694506 -0.73789096 0.9423119 0.3269378 -0.1288975 0.13651665 0.58411235
0.19679645 0.017702684 0.22147189 -0.02249628 0.6502458 0.0360162 0.2106934 0.4350684
-0.35649773 0.06409808 0.40415877 -0.16149607 0.43772116 0.5960805 0.6418284 -0.09347695
-0.2126217 0.34738496 -0.31979248 0.3785468 0.25342384 0.08688256 0.29231307 -0.62397456
0.14111702 -0.057830583 0.5564487 0.36747238 -0.16663396 -0.32186204 0.34336123 -0.28789046
0.20212092 0.113631934 0.71320134 0.38271728 0.23951147 -0.14450474 -0.11704725 0.7047036
0.68316567 -0.2504257 0.6314747 -0.47692186 0.5584609 0.35292733 -0.13868506 -0.28296873
-0.30483615 -0.43612218 0.69206643 -0.18279661 0.411737 -0.1545351 -0.66574425 0.58394104
-0.64921373 0.2575307 -0.4352334 0.07937623 -0.39283243 0.563621 0.6063353 0.3677245
0.005293082 0.1623562 -0.20253377 0.59034884 -0.20149145 -0.7022521 -0.2111542 0.17991634
0.40052348 -0.6465467 -0.5674579 -0.46297288 -0.023850054 0.39585412 0.017675739 0.54239047
0.27032965 1.0974808 -0.5664773 0.19028527 0.06433046 -0.21412201 -0.08838211 -0.048515707
-0.47737956 -0.026820548 -0.33584207 0.5363501 0.42211923 -0.38485813 0.114185415 0.32505465
0.74215096 0.28546718 -0.10340793 -0.21370806 -0.26158944 -0.15538514 0.22929141 0.16709566
0.0067329234 -0.121977486 -0.42303672 -0.40112552 -0.3208595 -0.35460332 0.031707786 -0.30652103

lstm.bias_hh_l0 f4 [600]
00000000: d9e4 933e d78e 243f 4aa9 b83e 695d 2a3e
00000010: 52e8 2c3e c96b 97be 1605 ab3e 72b8 9f3e
00000020: 3870 163f 28f5 aa3e c20e 803e 61c1 bf3d
00000030: 369f ad3e 0036 a9bc b410 98be ae6f dfbe
00000040: 1cd2 8a3d d4cc e93e 54a1 3f3f 0113 a1be
00000050: 1b11 733e f340 7f3e c931 1dbf f524 e23e
00000060: 9451 463f 4216 383e f688 583e 5280 413e
00000070: 57e5 c93e d10b 9c3e 592a a6be b91e 1a3d
00000080: 8f79 cb3d 908b 8bbf a834 243f a353 e83e
00000090: d16a 0f3f 27a0 7dbe e26c 78bf eeb4 b8bc
000000a0: 9a08 aabe dfab 4e3d e41f 543e 8d3f 0f3f
000000b0: 4bfd 903e 6874 9c3d 205d e73e 646d 293e
000000c0: 4361 083f f171 af3e 255a f83d ecb1 4d3e
000000d0: 50a2 433f 3d62 88bd 5091 2a3e 2f07 6a3f
000000e0: c952 d23f b767 ee3e c443 83be cc01 813e
000000f0: 49ec d23e 0dec 703e fa6d 823e 2c1b 53be
00000100: c829 21be 05df 303e 85b1 af3e 3781 113d
00000110: 3298 243f c667 b83e 6eed b83d 7496 c43e
00000120: b3b9 bcbd 9b29 1a3f 5b30 123e 7da6 0e3e
00000130: d9e0 3ebf 3e95 fe3e c8c2 263e b69f c6be
00000140: beba 04be af73 63be 54d9 683e d0b4 c03d
00000150: 57d1 e33e 22b0 263e 7581 b43e 8d57 073f
00000160: 2d43 00be 4662 9b3e 87b2 d6bc 01a9 ba3e
00000170: 36ca 0c3f 45ef 34be ab0c 3c3f 9ce2 99be
00000180: 796f e73e c450 383e e0b3 ca3e 2754 e33c
00000190: adcb 9abe 3361 353f ba9d 12bf d4c2 433f
000001a0: eca1 3abe fd2d 98bd 6068 893e 1a34 ee3d
000001b0: 3dc9 8f3e 8f37 703e 1260 033f e734 213e
000001c0: bcc2 663e fb92 cb3e a5a1 843e 01cc 973e
000001d0: 6ee7 4bbe b1cd 1a3d 9593 13be 9ba5 bc3e
000001e0: 2ae4 fcbe e957 963e 6bd4 32bf 2876 793e
000001f0: 62b3 0f3d 0b2e 753e f754 543e 1e01 4b3e
00000200: 32aa 0e3f 6869 303e aa27 5b3e d362 a63e
00000210: 4fa0 923e 7ccf d63d 3777 9d3e 9c35 25bf
00000220: 79cb be3e 8fe1 dbbd ea55 41bf 2c2b 6a3f
00000230: 2b80 af3e fa58 cfbd 41fb ec3d 41d3 133f
00000240: 0045 563e d584 673c ae0c 6e3e 1c86 b9bc
00000250: f5d8 2d3f 4ab1 0d3d 978a 403e a630 de3e
00000260: 9fd6 b4be 4e53 803d 1fd4 c73e 14e4 0cbe
00000270: ffca f03e 21df 183f 4ad0 203f e30c cebd
00000280: ba9f 53be 74c6 b43e ee9f 98be 66cf bf3e
00000290: 5769 843e 5276 d03d 1988 973e ba85 23bf
000002a0: bd1f 183e 0b3a 5bbd 8eb0 103f 353b c43e
000002b0: d4bc 3cbe de08 abbe 60ca a93e 220b a2be
000002c0: 0f96 4f3e afb8 df3d eefd 3a3f 9820 ca3e
000002d0: 5cf0 4f3e 4f91 1abe d8ef 0ebe 82f5 2e3f
000002e0: 97cd 2e3f 36cc 82be f326 243f f549 f9be
000002f0: e30d 0c3f 8b10 af3e 3959 f4bd 4a68 85be
00000300: b3ff 97be 3c09 e3be 441b 313f 6844 49be
00000310: 2177 db3e 84be 21be 0421 2cbf 0570 103f
00000320: a7ae 22bf 202d 863e 60fe e2be 0e77 7d3d
00000330: cdcd b9be fd4c 073f 29eb 183f a9c7 b13e
00000340: 871b eebc d546 0f3e a649 4cbe 6a9f 1c3f
00000350: fc8d 3fbe 9665 34bf 1f2e 41be a0e3 2b3e
00000360: 75e6 c83e 3097 28bf 8920 10bf 0a68 ebbe
00000370: 3928 fbbc 0fe4 cc3e 0ec2 8c3c ef62 083f
00000380: a861 833e 01bc 8f3f 32ea 09bf dd38 353e
00000390: 1f99 933d 6327 69be a734 c1bd 3128 41bd
000003a0: ce86 f5be 8e49 33bd 2c04 afbe a113 013f
000003b0: da1a ce3e 61d6 c6be d840 b93d 0aae 9c3e
000003c0: 2310 433f 7c6f 963e a319 01be b3aa 68be
000003d0: e54f 8bbe a563 32be 0c0f 653e 4d7c 243e
000003e0: 5138 993c 5581 0cbe c6f3 dabe f80b d2be
000003f0: cafa a0be 1678 c1be 3a89 743d 8d04 99be
0.28885534 0.64280456 0.36066657 0.16637196 0.16885498 -0.2957442 0.33402318 0.31195408
0.5876498 0.33390164 0.2501126 0.09363056 0.3391053 -0.020655632 -0.29700243 -0.43639892
0.067783564 0.45664084 0.7485554 -0.3145981 0.23736994 0.2492712 -0.6140409 0.4416882
0.7746823 0.1797724 0.21145996 0.18896607 0.39432785 0.30477765 -0.32454184 0.037626956
0.09935295 -1.0901966 0.6414285 0.4537631 0.56022364 -0.24768125 -0.9704114 -0.022547211
-0.33209687 0.050456878 0.2071529 0.55956346 0.28318247 0.0763939 0.45188236 0.16545635
0.5327341 0.34266618 0.12126569 0.20087403 0.76419544 -0.066593625 0.16656995 0.9141721
1.6431514 0.46563503 -0.2563764 0.25196683 0.41195896 0.23527546 0.2547453 -0.20615834
-0.15738595 0.17272575 0.34315124 0.03552362 0.6429473 0.36016673 0.09029661 0.38396037
-0.09215107 0.60219735 0.14276259 0.13930698 -0.7456184 0.49723238 0.1628524 -0.38793725
-0.12961861 -0.22212099 0.22739154 0.09409487 0.4449565 0.16278127 0.35255018 0.52867967
-0.12525626 0.30348414 -0.026208175 0.36457065 0.5499605 -0.17669399 0.7345683 -0.30055702
0.45202234 0.1799956 0.3959036 0.027750088 -0.30233517 0.7085144 -0.5727192 0.7646916
-0.18225831 -0.074306466 0.26837444 0.11631031 0.2808322 0.23458694 0.51318467 0.15742837
0.22535223 0.39760575 0.25904575 0.2964783 -0.19912502 0.03779382 -0.14411767 0.36845097
-0.49392825 0.29363945 -0.69855374 0.2436148 0.035083182 0.23943345 0.20735537 0.19824645
0.5572845 0.1722771 0.2140185 0.32497272 0.2863793 0.10488793 0.30755016 -0.64534926
0.37264612 -0.10736381 -0.7552172 0.91472125 0.34277472 -0.10124393 0.115713604 0.5774422
0.20924759 0.014130791 0.23247024 -0.022646956 0.67909175 0.034592904 0.18802868 0.4339649
-0.35319993 0.06265889 0.39029023 -0.1375888 0.47029874 0.5971547 0.62817824 -0.10061052
-0.206664 0.35307658 -0.29809517 0.3746292 0.25861618 0.10178818 0.29596022 -0.63875926
0.14855857 -0.05352215 0.565194 0.3832642 -0.18431407 -0.33405203 0.33162212 -0.3164912
0.20272087 0.109238975 0.73043716 0.39477992 0.20306534 -0.15094493 -0.1395868 0.68343365
0.68282455 -0.25546426 0.6412193 -0.48689237 0.5470869 0.3419231 -0.1193108 -0.2605613
-0.2968727 -0.44342983 0.6918223 -0.19655001 0.42864326 -0.15795332 -0.6723788 0.5642093
-0.6354775 0.26206303 -0.44334698 0.061881118 -0.36289826 0.5285185 0.59733826 0.3472264
-0.02906586 0.13991864 -0.1994997 0.61180747 -0.18706506 -0.7046751 -0.1886525 0.16786051
0.39238325 -0.65855694 -0.56299645 -0.45977813 -0.030658828 0.40017745 0.017182376 0.5327596
0.25660443 1.1229249 -0.5387298 0.17697473 0.0720694 -0.22768931 -0.09433871 -0.04715747
-0.4795441 -0.04377132 -0.3418287 0.50420576 0.4025486 -0.38835433 0.09045571 0.3060153
0.761965 0.2938193 -0.12607436 -0.22721367 -0.27209392 -0.17420824 0.22369021 0.16063042
0.018703612 -0.13721211 -0.4276411 -0.41024756 -0.31441337 -0.3778693 0.059701182 -0.29886284

layernorm.weight f4 [150]
00000000: 0000 803f 0000 803f 0000 803f 0000 803f
00000010: 0000 803f 0000 803f 0000 803f 0000 803f
00000020: 0000 803f 0000 803f 0000 803f 0000 803f
00000030: 0000 803f 0000 803f 0000 803f 0000 803f
00000040: 0000 803f 0000 803f 0000 803f 0000 803f
00000050: 0000 803f 0000 803f 0000 803f 0000 803f
00000060: 0000 803f 0000 803f 0000 803f 0000 803f
00000070: 0000 803f 0000 803f 0000 803f 0000 803f
00000080: 0000 803f 0000 803f 0000 803f 0000 803f
00000090: 0000 803f 0000 803f 0000 803f 0000 803f
000000a0: 0000 803f 0000 803f 0000 803f 0000 803f
000000b0: 0000 803f 0000 803f 0000 803f 0000 803f
000000c0: 0000 803f 0000 803f 0000 803f 0000 803f
000000d0: 0000 803f 0000 803f 0000 803f 0000 803f
000000e0: 0000 803f 0000 803f 0000 803f 0000 803f
000000f0: 0000 803f 0000 803f 0000 803f 0000 803f
00000100: 0000 803f 0000 803f 0000 803f 0000 803f
00000110: 0000 803f 0000 803f 0000 803f 0000 803f
00000120: 0000 803f 0000 803f 0000 803f 0000 803f
00000130: 0000 803f 0000 803f 0000 803f 0000 803f
00000140: 0000 803f 0000 803f 0000 803f 0000 803f
00000150: 0000 803f 0000 803f 0000 803f 0000 803f
00000160: 0000 803f 0000 803f 0000 803f 0000 803f
00000170: 0000 803f 0000 803f 0000 803f 0000 803f
00000180: 0000 803f 0000 803f 0000 803f 0000 803f
00000190: 0000 803f 0000 803f 0000 803f 0000 803f
000001a0: 0000 803f 0000 803f 0000 803f 0000 803f
000001b0: 0000 803f 0000 803f 0000 803f 0000 803f
000001c0: 0000 803f 0000 803f 0000 803f 0000 803f
000001d0: 0000 803f 0000 803f 0000 803f 0000 803f
000001e0: 0000 803f 0000 803f 0000 803f 0000 803f
000001f0: 0000 803f 0000 803f 0000 803f 0000 803f
00000200: 0000 803f 0000 803f 0000 803f 0000 803f
00000210: 0000 803f 0000 803f 0000 803f 0000 803f
00000220: 0000 803f 0000 803f 0000 803f 0000 803f
00000230: 0000 803f 0000 803f 0000 803f 0000 803f
00000240: 0000 803f 0000 803f 0000 803f 0000 803f
00000250: 0000 803f 0000 803f
1.0 1.0 1.0 1.0 1.0 1.0 1.0 1.0
1.0 1.0 1.0 1.0 1.0 1.0 1.0 1.0
1.0 1.0 1.0 1.0 1.0 1.0 1.0 1.0
1.0 1.0 1.0 1.0 1.0 1.0 1.0 1.0
1.0 1.0 1.0 1.0 1.0 1.0 1.0 1.0
1.0 1.0 1.0 1.0 1.0 1.0 1.0 1.0
1.0 1.0 1.0 1.0 1.0 1.0 1.0 1.0
1.0 1.0 1.0 1.0 1.0 1.0 1.0 1.0
1.0 1.0 1.0 1.0 1.0 1.0 1.0 1.0
1.0 1.0 1.0 1.0 1.0 1.0 1.0 1.0
1.0 1.0 1.0 1.0 1.0 1.0 1.0 1.0
1.0 1.0 1.0 1.0 1.0 1.0 1.0 1.0
1.0 1.0 1.0 1.0 1.0 1.0 1.0 1.0
1.0 1.0 1.0 1.0 1.0 1.0 1.0 1.0
1.0 1.0 1.0 1.0 1.0 1.0 1.0 1.0
1.0 1.0 1.0 1.0 1.0 1.0 1.0 1.0
1.0 1.0 1.0 1.0 1.0 1.0 1.0 1.0
1.0 1.0 1.0 1.0 1.0 1.0 1.0 1.0
1.0 1.0 1.0 1.0 1.0 1.0

layernorm.bias f4 [150]
00000000: 0000 0000 0000 0000 0000 0000 0000 0000
00000010: 0000 0000 0000 0000 0000 0000 0000 0000
00000020: 0000 0000 0000 0000 0000 0000 0000 0000
00000030: 0000 0000 0000 0000 0000 0000 0000 0000
00000040: 0000 0000 0000 0000 0000 0000 0000 0000
00000050: 0000 0000 0000 0000 0000 0000 0000 0000
00000060: 0000 0000 0000 0000 0000 0000 0000 0000
00000070: 0000 0000 0000 0000 0000 0000 0000 0000
00000080: 0000 0000 0000 0000 0000 0000 0000 0000
00000090: 0000 0000 0000 0000 0000 0000 0000 0000
000000a0: 0000 0000 0000 0000 0000 0000 0000 0000
000000b0: 0000 0000 0000 0000 0000 0000 0000 0000
000000c0: 0000 0000 0000 0000 0000 0000 0000 0000
000000d0: 0000 0000 0000 0000 0000 0000 0000 0000
000000e0: 0000 0000 0000 0000 0000 0000 0000 0000
000000f0: 0000 0000 0000 0000 0000 0000 0000 0000
00000100: 0000 0000 0000 0000 0000 0000 0000 0000
00000110: 0000 0000 0000 0000 0000 0000 0000 0000
00000120: 0000 0000 0000 0000 0000 0000 0000 0000
00000130: 0000 0000 0000 0000 0000 0000 0000 0000
00000140: 0000 0000 0000 0000 0000 0000 0000 0000
00000150: 0000 0000 0000 0000 0000 0000 0000 0000
00000160: 0000 0000 0000 0000 0000 0000 0000 0000
00000170: 0000 0000 0000 0000 0000 0000 0000 0000
00000180: 0000 0000 0000 0000 0000 0000 0000 0000
00000190: 0000 0000 0000 0000 0000 0000 0000 0000
000001a0: 0000 0000 0000 0000 0000 0000 0000 0000
000001b0: 0000 0000 0000 0000 0000 0000 0000 0000
000001c0: 0000 0000 0000 0000 0000 0000 0000 0000
000001d0: 0000 0000 0000 0000 0000 0000 0000 0000
000001e0: 0000 0000 0000 0000 0000 0000 0000 0000
000001f0: 0000 0000 0000 0000 0000 0000 0000 0000
00000200: 0000 0000 0000 0000 0000 0000 0000 0000
00000210: 0000 0000 0000 0000 0000 0000 0000 0000
00000220: 0000 0000 0000 0000 0000 0000 0000 0000
00000230: 0000 0000 0000 0000 0000 0000 0000 0000
00000240: 0000 0000 0000 0000 0000 0000 0000 0000
00000250: 0000 0000 0000 0000
0.0 0.0 0.0 0.0 0.0 0.0 0.0 0.0
0.0 0.0 0.0 0.0 0.0 0.0 0.0 0.0
0.0 0.0 0.0 0.0 0.0 0.0 0.0 0.0
0.0 0.0 0.0 0.0 0.0 0.0 0.0 0.0
0.0 0.0 0.0 0.0 0.0 0.0 0.0 0.0
0.0 0.0 0.0 0.0 0.0 0.0 0.0 0.0
0.0 0.0 0.0 0.0 0.0 0.0 0.0 0.0
0.0 0.0 0.0 0.0 0.0 0.0 0.0 0.0
0.0 0.0 0.0 0.0 0.0 0.0 0.0 0.0
0.0 0.0 0.0 0.0 0.0 0.0 0.0 0.0
0.0 0.0 0.0 0.0 0.0 0.0 0.0 0.0
0.0 0.0 0.0 0.0 0.0 0.0 0.0 0.0
0.0 0.0 0.0 0.0 0.0 0.0 0.0 0.0
0.0 0.0 0.0 0.0 0.0 0.0 0.0 0.0
0.0 0.0 0.0 0.0 0.0 0.0 0.0 0.0
0.0 0.0 0.0 0.0 0.0 0.0 0.0 0.0
0.0 0.0 0.0 0.0 0.0 0.0 0.0 0.0
0.0 0.0 0.0 0.0 0.0 0.0 0.0 0.0
0.0 0.0 0.0 0.0 0.0 0.0

batchnorm.weight f4 [150]
00000000: 5cf4 083f 0636 c93e 7a6c 8e3f fcdb a93e
00000010: 3717 cb3e 312f b2bf b60e 8d3f 7faf c83e
00000020: e84c 063f be56 873f b7fa 993f 9abb 913f
00000030: bc40 4a3f b759 adbc 1139 c33f c720 b23e
00000040: 95b7 2d3c d3b3 0b40 d903 ef3e b196 8ebd
00000050: 8b13 12be 08f6 713e ee78 d43f 146d 693f
00000060: b08a 9d3e 7f5d 05bd 4f6b a13e a840 183e
00000070: ca64 803f a67a 4b3f 87be a43e 9af2 cf3f
00000080: b2b5 0cbd 34ac 323f a6cb 3c3f cb04 1c40
00000090: 8b06 a23f c6db fd3f 75fe 203f db19 4f3f
000000a0: 9153 ad3f 9b19 663f d0e4 c23f 21e8 973f
000000b0: e576 bd3e d657 753f d728 d93e 6439 f13e
000000c0: 6a68 a03f 2a46 683e 14b9 bf3e f95c 703f
000000d0: 402e 2f40 9bc1 5f3f 3ae4 ab3f 2b85 453f
000000e0: 273c e53e b075 1b3f 48ed 90be 7ab6 9e3e
000000f0: 1c55 2d40 22e1 0a3f c360 eabc 641f e83c
00000100: a1d0 83bd da01 f93e 1c3d a73f e358 a13f
00000110: fd4c ad3f b784 1840 d090 5eba 4343 913e
00000120: 860e 183f 52ae 853f 0668 e03e d550 823f
00000130: f34d 153f 6cee fb3d ef8a cd3e 86c7 ec3e
00000140: 830d ea3e feca 0ebd d011 703e e76b f53e
00000150: aa31 1440 5bfa 243f c1d6 6a3f cca8 0640
00000160: 9043 e23f 0877 db3e 3818 973f 7ced d03f
00000170: 60a9 3f3f 9bf6 093f 8225 e13e 4912 c6bd
00000180: c2ae 6bbe 2db4 b83f 05d8 c43e 3524 a43f
00000190: e126 713f 9ac3 613f c80a 843d fc62 ce3e
000001a0: 7800 cb3e 717e 9f3e 4adb d03e e11f 163f
000001b0: c898 b13f 3e28 8b3e b548 2f3f 91b0 e23e
000001c0: 23b9 393f 62bb 193f de15 8b3e 0523 8c3e
000001d0: ee62 963e a076 d53d 6e24 023e 08ba ac3e
000001e0: 2f60 f13e 2986 c1bb 4008 f13f 43bb c63d
000001f0: 9f68 833e 1448 923f 7756 c03e 96ab e53e
00000200: 19fb b83f 3bac 5c3e 9766 963e bbbe ca3f
00000210: ea8a 5d3f 07c6 05bc cf90 b33f a664 823f
00000220: a474 1e40 5ef9 483e 3819 0240 c21f 733f
00000230: ad4e 573f fc40 a03e db4d aa3e d31f 8d3c
00000240: 5e1a 3fbe 1f53 223f bca3 d1bd 705e 7d3e
00000250: e610 203f 90e7 773f
0.5349786 0.3929903 1.1126854 0.33175647 0.3966615 -1.3920652 1.1020114 0.39196393
0.524611 1.0573347 1.2029637 1.1385376 0.79005027 -0.021160943 1.525179 0.34790632
0.010602851 2.1828506 0.46682623 -0.06962336 -0.14265268 0.2362901 1.6599405 0.91182065
0.30769873 -0.032559868 0.31527182 0.14868414 1.0030758 0.7948402 0.3217661 1.6245911
-0.034352966 0.6979401 0.7374824 2.4377925 1.2658247 1.9832695 0.6288827 0.8089883
1.3541127 0.8988282 1.5226078 1.1867715 0.37004772 0.9583715 0.4241397 0.47114098
1.2531865 0.22683015 0.3744589 0.93891865 2.7371979 0.87404794 1.3429024 0.77156323
0.44772455 0.6072645 -0.2830603 0.30998594 2.7083197 0.54249775 -0.028610593 0.02833528
-0.06436277 0.48634225 1.3065524 1.2605251 1.353912 2.3831003 -0.00084902067 0.2837163
0.5939716 1.0443823 0.43829364 1.0180918 0.58322066 0.12301335 0.4014506 0.46245974
0.45713434 -0.034861557 0.23444295 0.47933885 2.3155313 0.6444451 0.9173394 2.1040525
1.7676868 0.4286425 1.1804266 1.6322474 0.7486782 0.53891915 0.4397393 -0.09671456
-0.23015884 1.4429985 0.3844606 1.282355 0.9419995 0.8818909 0.06447369 0.40309894
0.39648795 0.31151155 0.40792304 0.58642393 1.387475 0.2717914 0.6847032 0.44275334
0.7254812 0.6005155 0.2716512 0.27370468 0.29372352 0.104230165 0.1270921 0.3373568
0.47143695 -0.0059058857 1.8830643 0.09703686 0.25665757 1.1428246 0.37565967 0.44857472
1.4451629 0.21550076 0.29375145 1.5839456 0.8654009 -0.008164889 1.4028567 1.0186965
2.4758692 0.19626376 2.0327892 0.94970334 0.84104425 0.3129958 0.33262524 0.017227089
-0.18662402 0.6340808 -0.10236308 0.24743056 0.62525785 0.9683771

batchnorm.bias f4 [150]
00000000: 4a20 663f a3c6 4a3f ab40 873f df59 cf3f
00000010: 801d b13f acfc 983f dac4 553f 6f70 98bf
00000020: a018 263f c5bf 8c3f d759 5e3f b598 9c3f
00000030: 08af a8bf ccb9 593f 5f08 ac3f 80af 803f
00000040: 1e47 b03f 2350 8c3f a00a 773f ee30 7d3f
00000050: 0ad5 983f 5e2a 663f c271 683f 5336 333f
00000060: 7563 373f 80df 923f 81c7 3e3f 366d f33e
00000070: 220f babf 808e 863f e043 a13f aac1 4d3e
00000080: c129 6e3f e1ad a1bf 5d0d 4c3f fc27 2f3f
00000090: d34f f5bc cc9b 563f 0535 783f 1119 993f
000000a0: 8db1 c53e ab51 1f3f 0039 553e 9b32 ccbf
000000b0: 070c 6d3f ec55 973f f85e 933f bdd6 373f
000000c0: eda4 933f 0f56 473f 09df 953f 7658 463f
000000d0: 5a52 1e3f c50e 4e3f 83df 6abf 310f 7e3f
000000e0: 4f3b aa3f d777 423f 507f 903f 54d1 8c3f
000000f0: 1df1 263f 2675 843f 8a22 9a3f 4d22 893f
00000100: b7cb 293f e59e a63f aef1 9e3f 861a 323f
00000110: 2c93 8fbf 4c55 5a3f bf05 5f3f 60e0 3c3f
00000120: e452 7e3f 7af9 a43f a0e7 483f f0b7 9a3f
00000130: 37f1 a83f fbd8 8f3f dd42 c33e 7206 9f3f
00000140: ef02 8c3f b48e 733f 08b1 d33e 59dd 873f
00000150: d7fe 5d3f 8e98 a2bf d70a 9e3e e46b b8bc
00000160: e755 4b3f fef9 3e3f e31b 033e 7ab0 8bbc
00000170: 070f 943f 2dd0 6bbd 55f5 773f 31ed 4f3f
00000180: dc9e 993f 80fc eb3e 5001 8a3f 8386 853f
00000190: 70fa 263e 425b 023f d11e ad3f eaed a83e
000001a0: b556 9f3f ad86 7c3f d0ee 823f cb20 113f
000001b0: adb9 133f efdd 833f 85ff 2a3f 9ca6 723f
000001c0: d519 753f 1ede 323f 8fd0 403f ab13 80bf
000001d0: c2bd a33f 6748 8f3f 6f54 a13f d9ec 5f3f
000001e0: 0db6 98bf 75e7 243f f367 8d3f b9e4 5a3f
000001f0: 8aa1 abbf 7b58 ab3f 5f5d 9d3f 9fa0 583f
00000200: 092a aabf 718b 683f c0bb 223f 428b 70bd
00000210: cc76 143f f74e b03f dec6 243f 23a2 613f
00000220: 9da9 283f 7f95 493f d79e a23f a33d a03f
00000230: 1d2e 8e3f ad73 913f 8280 733f 2160 3b3f
00000240: e14e 693f 1813 853f 4b31 4c3f 10cc ce3f
00000250: eb96 24be 3b89 913f
0.8989302 0.79209346 1.056661 1.6199301 1.3837128 1.1952109 0.83503497 -1.1909312
0.64881325 1.0996023 0.86855835 1.2234102 -1.3178415 0.8504913 1.3440055 1.0053558
1.3771703 1.0961956 0.9650059 0.98902786 1.1940014 0.899084 0.9079858 0.7000477
0.71636134 1.1474457 0.7452317 0.4754426 -1.4535868 1.0512238 1.2598839 0.20093408
0.9303246 -1.2631189 0.7970789 0.68420386 -0.02994529 0.8383148 0.969559 1.1960775
0.38612023 0.6223399 0.20822525 -1.5952944 0.9259648 1.1823096 1.1513357 0.7181204
1.1534706 0.7786569 1.170869 0.7747873 0.6184441 0.80491287 -0.917473 0.9924193
1.329935 0.7596411 1.1288853 1.1001382 0.6521166 1.0348251 1.204179 1.0713593
0.6632647 1.3017241 1.2417505 0.6957172 -1.1216788 0.852864 0.8711814 0.7377987
0.9934523 1.2888634 0.7847843 1.2087383 1.3198613 1.1238092 0.3813695 1.2423842
1.0938395 0.9513962 0.41346002 1.0614425 0.8671698 -1.2702806 0.30867645 -0.022512384
0.7942795 0.7460021 0.12803607 -0.017051924 1.1567086 -0.05757158 0.9685872 0.812213
1.2001605 0.4609108 1.078165 1.0431675 0.16306472 0.509205 1.352503 0.32994014
1.2448336 0.98643 1.022913 0.56690663 0.57705194 1.0302104 0.6679614 0.94785476
0.9574254 0.69870174 0.75318235 -1.0006002 1.2792284 1.119397 1.2603892 0.87470776
-1.1930557 0.64415675 1.1047348 0.85505253 -1.3408673 1.3386377 1.229412 0.8462009
-1.3294078 0.9083777 0.63567734 -0.058726557 0.5799377 1.3774098 0.6436595 0.88138026
0.6588381 0.7874374 1.2704724 1.251881 1.1107823 1.1363426 0.9511796 0.73193556
0.91135985 1.0396452 0.79762715 1.6156025 -0.16073196 1.1370004

batchnorm.running_mean f4 [150]
00000000: 51a6 76bf 487c 77bf 81ed c9be b90f a3bb
00000010: 47db d4bd c66e 4cbf 029c 773f 2da7 333c
00000020: ae58 343f f047 dfbd 842e a1be b960 55bd
00000030: 9e2e 1b3c 47c4 703c 9613 643f 6ae6 8aba
00000040: 4917 04bc 2e3a 5e3f ec48 77bf fc34 1e3b
00000050: 6d33 73bf f409 78bf 6378 013f e329 c0bd
00000060: dc2d 6cbf a0f3 67bb 95c4 61bd 2852 68bf
00000070: e2d5 c23b 35c2 fbba c74a 0abc 01bf 5f3e
00000080: 42c9 3a3c 5919 483b dc3c 78bf b247 683f
00000090: ccac 63bf 095b a63e 11c5 d7bc 72aa 54bd
000000a0: 1817 513e c117 08bf f264 2fbf 6510 cc3c
000000b0: 5e17 78bf af39 a5bd 63ae 73bf 578b d7bb
000000c0: 096b 153f 5193 6bbf f83b b0ba bada 48bf
000000d0: ea39 593f 79ad 05bf 4845 f4bb 2e24 6fbf
000000e0: e269 6ebf f867 753f cafe 5fbf 02be 77bf
000000f0: 788c 5e3f e177 37be a818 403c b0e3 2c36
00000100: 404d 9b3b c90a 91be 3d6f 693f 9835 3d3f
00000110: dbf9 2ebf 3ef8 623f 4427 483b b339 76bf
00000120: 6fdd c7bb d59a 46be c85d 76bf d0d4 90bd
00000130: a324 083f 253c 6ebf 4e01 76bf 3c23 84ba
00000140: 5e88 40bb f596 913b 1547 40bf b65a 11bd
00000150: 458b 603f 1e1a 723f f618 74bf 9ce2 32bf
00000160: 07c3 fa3e edbc 74bf 6c87 00be 0715 62bf
00000170: f1a4 52bb 1955 733b 96c8 53be d55a 193c
00000180: eeca 74bf 2398 5ebf 386b 1dbc 888b d9be
00000190: 76c5 583d 5fb4 3abf b614 1a3a ef66 42bf
000001a0: b36f e8ba ac1a c7b7 9671 b4bc 324c 76bf
000001b0: faff e6be 3d6a 1bbb a81b 73bf 49f3 713f
000001c0: 822a 3c3f b780 cebd 334c 71bf e20b 743f
000001d0: cdfd 9137 29eb 91bc 2b9e 73bb a1c5 76bf
000001e0: 9392 9ab8 ebb7 41bf a646 e13e bc0a 77bf
000001f0: 20ef 0c3b 5e50 27bf 851c 08bb c5f5 77bf
00000200: e789 423f 1df5 1abc cd7c 76bf 856d 37bf
00000210: deb0 2cbf 83c1 22bb 5cd2 2dbf aa38 0abd
00000220: 8fc9 5d3f e7ce 4abf 3415 173f f7ab 4abf
00000230: e68a 3b3f edbc 97b1 2773 063e c3de 45bf
00000240: 4a25 5dbf d249 b2bb 57c4 76bf 9d88 3fb9
00000250: 2835 73bf 9ec1 36be
-0.9634753 -0.96674013 -0.39439014 -0.0049762395 -0.10393386 -0.79856527 0.96722424 0.010965151
0.70447814 -0.10902393 -0.314808 -0.052094195 0.009471564 0.014695234 0.89092386 -0.0010597233
-0.008062192 0.86807525 -0.96595645 0.0024140468 -0.95000345 -0.9689019 0.5057432 -0.09382989
-0.92257476 -0.0035393015 -0.055119116 -0.9075036 0.005945907 -0.0019207658 -0.00844068 0.21850206
0.011400523 0.0030532687 -0.96967864 0.907344 -0.8893554 0.3249133 -0.026339086 -0.05192036
0.20418966 -0.53161246 -0.68513405 0.024910161 -0.96910655 -0.08067643 -0.9518797 -0.00657789
0.5836645 -0.9202166 -0.0013445606 -0.7845875 0.84853995 -0.52217823 -0.007454548 -0.9341458
-0.93130314 0.9586177 -0.8749815 -0.96774304 0.8693309 -0.17916824 0.0117246285 2.5762529e-06
0.0047394335 -0.2832854 0.9118536 0.739099 -0.6835 0.8866004 0.0030540982 -0.9618179
-0.006099395 -0.19395001 -0.9623685 -0.07071841 0.53180903 -0.93060523 -0.9609574 -0.0010081301
-0.0029378156 0.0044430443 -0.7510846 -0.0354869 0.8771251 0.945711 -0.9535059 -0.6987703
0.4897692 -0.9560078 -0.1255166 -0.88313335 -0.003214177 0.003712958 -0.20681986 0.009360035
-0.95622146 -0.8695089 -0.0096080825 -0.42489266 0.05292269 -0.72931474 0.000587772 -0.75938314
-0.0017733484 -2.3735069e-05 -0.022026818 -0.96210015 -0.4511717 -0.0023714446 -0.94964075 0.9451185
0.7350236 -0.10083144 -0.94256896 0.9533063 1.7403532e-05 -0.017812328 -0.0037173133 -0.9639531
-7.370594e-05 -0.7567126 0.43999213 -0.96500754 0.0021504834 -0.65357006 -0.0020768952 -0.9685939
0.7599167 -0.009457854 -0.9628418 -0.7165149 -0.6745738 -0.002483458 -0.6789911 -0.033745445
0.8663568 -0.7922196 0.5901673 -0.7916865 0.7325882 -4.4161568e-09 0.13129865 -0.7729303
-0.86385024 -0.005440929 -0.9639334 -0.00018266072 -0.95002985 -0.17847297
