src/results/subject_P17/best_model.pth (torch, 481333 bytes, 15 tensors)

input_linear.weight f4 [40, 40]
-0.011925355 0.06992766 0.0859914 0.10241975 -0.087822594 -0.14620814 -0.14856648 0.0597239
-0.10502502 0.14959459 0.15370391 -0.10033862 0.010707423 0.0733363 -0.06754602 -0.1534061
0.036918372 -0.08143432 -0.13725436 0.11848922 0.1433103 -0.020275056 -0.15049642 -0.09619085
-0.13571802 0.1529101 0.027369648 -0.08243115 0.0042199045 0.08046803 -0.10233358 -0.062066473
0.13178797 -0.0859343 -0.09795112 -0.056780994 0.07475394 0.08734098 -0.12983924 0.063747436
-0.078764826 -0.09914411 -0.03802243 -0.07664853 -0.0454185 0.07593709 -0.028268293 -0.0340506
-0.0825946 0.0920618 -0.12573205 -0.085789114 -0.12374391 -0.07138081 -0.15119666 0.012064859
0.067142844 0.082920566 -0.13273254 -0.009473726 0.043148547 -0.09032523 0.048318744 -0.04244688
-0.0745354 0.003956899 0.09592794 -0.028047502 -0.03580428 -0.13276179 0.039028823 -0.008419678
0.15330659 -0.013067573 0.01183483 0.0031790286 -0.0006967783 -0.07583177 -0.109653324 -0.11533758
0.048689455 0.061916098 -0.10664789 -0.14063282 -0.14576781 0.028595075 0.04883474 -0.115827456
0.012493953 -0.012448132 0.13482688 0.034597024 -0.14504683 0.08701585 0.10002835 0.103899404
0.108165964 0.05287552 -0.06861477 0.13072084 0.08942093 -0.08289396 -0.08141711 -0.03508901
-0.1397803 0.08659074 0.15121578 -0.0086952895 -0.058614515 0.11935614 0.084588185 -0.12219896
-0.0667298 -0.0165212 -0.06236034 0.05644305 0.11213784 -0.022929996 -0.09149292 -0.0125505775
-0.033121116 0.006341979 0.02938962 0.07636209 -0.0811089 0.1503032 -0.042703204 0.037987173
-0.12308104 -0.0354418 0.12446205 -0.120393604 -0.017697707 0.11341785 -0.084939525 -0.09937422
-0.01022318 -0.14734997 0.08059527 0.08089174 0.015706837 -0.13964689 -0.15108605 0.08412528
-0.04204037 0.09151755 0.05648473 -0.052764274 -0.051400304 -0.098260745 -0.1183898 -0.0036035627
-0.08395768 0.065447405 0.14563419 0.072613925 0.03147185 -0.12587906 0.085589856 -0.10522561
0.1372643 -0.006126851 0.04441464 0.039216578 -0.057236187 -0.15083948 0.031298116 -0.14461942
0.042484477 -0.10630526 0.06742425 -0.055121146 0.07883997 -0.076128386 0.046367556 0.08175117
-0.07735004 0.038663283 0.074466765 -0.017373353 0.13016827 0.13661315 0.10570498 0.14317323
-0.13208051 0.05389023 -0.1452785 -0.07439822 -0.0007943213 -0.13498142 -0.106275246 0.15671052
-0.025524244 -0.034013093 0.01571691 -0.027792081 0.1465563 -0.042527646 -0.06727226 -0.07878411
0.024914607 -0.053689852 -0.14119662 -0.050392643 0.12947862 0.117605254 -0.04861953 0.008884102
0.0631842 -0.14668913 -0.10081895 0.1090533 0.1181149 0.11058168 0.08643454 0.10518409
-0.08496993 -0.06441394 -0.10597007 0.1001461 -0.02695322 -0.1442786 -0.12838851 0.013206825
0.08216286 0.038716897 0.030818343 0.081315026 -0.06965756 0.059578225 0.053609252 -0.108085155
0.14032288 -0.011277452 0.043998063 0.092611626 0.021279037 -0.03746345 -0.09989761 0.03982258
0.12739043 -0.1351585 -0.12619516 0.017987564 0.028983578 0.053451613 0.076563686 -0.09221067
-0.034216568 -0.06588574 -0.1100961 0.079031006 0.12220012 0.03513968 -0.13433966 -0.103546456
00000000: 9062 43bc 3c36 8f3d 421c b03d 72c1 d13d
00000010: 55dc b3bd 96b7 15be d021 18be 0ca1 743d
00000020: 5c17 d7bd 532f 193e 8f64 1d3e 567e cdbd
00000030: 306e 2f3c 5831 963d 9155 8abd 7d16 1dbe
00000040: b837 173d 09c7 a6bd 688c 0cbe 7aaa f23d
00000050: efbf 123e e017 a6bc bc1b 1abe b5ff c4bd
00000060: aaf9 0abe 7794 1c3e 5036 e03c aad1 a8bd
00000070: 2047 8a3b 6ccc a43d 4594 d1bd 6a39 7ebd
00000080: 6df3 063e 53fe afbd 999a c8bd 3093 68bd
00000090: 9818 993d d4df b23d 94f4 04be 048e 823d
000000a0: 744f a1bd 110c cbbd 68bd 1bbd e8f9 9cbd
000000b0: c008 3abd e884 9b3d e892 e7bc a478 0bbd
000000c0: 5c27 a9bd e68a bc3d e7bf 00be 34b2 afbd
000000d0: 726d fdbd 1a30 92bd 4cd3 1abe b0ab 453c
000000e0: 3082 893d 42d2 a93d 0aeb 07be b037 1bbc
000000f0: 88bc 303d 6ffc b8bd e0e9 453d c8dc 2dbd
00000100: 04a6 98bd e0a8 813b de75 c43d e0c3 e5bc
00000110: 82a7 12bd b5f2 07be b0dc 1f3d b0f2 09bc
00000120: 67fc 1c3e 6019 56bc e0e6 413c 4057 503b
00000130: 00a8 36ba b04d 9bbd ec91 e0bd 1c36 ecbd
00000140: 986e 473d bc9b 7d3d 356a dabd 0d02 10be
00000150: 2844 15be 3840 ea3c f006 483d f236 edbd
00000160: 70b3 4c3c 40f3 4bbc 0f10 0a3e 9cb5 0d3d
00000170: 2887 14be 5e35 b23d aadb cc3d 36c9 d43d
00000180: 1e86 dd3d 0094 583d e785 8cbd afdb 053e
00000190: 5222 b73d 4fc4 a9bd 04be a6bd 7eb9 0fbd
000001a0: 9122 0fbe 7c56 b13d 4fd8 1a3e b076 0ebc
000001b0: c615 70bd fe70 f43d 923c ad3d 7343 fabd
000001c0: a2a9 88bd 7857 87bc 8e6d 7fbd d430 673d
000001d0: 86a8 e53d b0d7 bbbc a460 bbbd f0a0 4dbc
000001e0: 02aa 07bd 60d0 cf3b 80c2 f03c ba63 9c3d
000001f0: 6c1c a6bd 15e9 193e 8ee9 2ebd 7098 1b3d
00000200: ea11 fcbd 6c2b 11bd f6e5 fe3d ec90 f6bd
00000210: c8fa 90bc 9e47 e83d c6f4 adbd b684 cbbd
00000220: 207f 27bc e9e2 16be 220f a53d 92aa a53d
00000230: a0ab 803c 98ff 0ebe 4db6 1abe e049 ac3d
00000240: 8632 2cbd 8e6d bb3d 885c 673d 5a1f 58bd
00000250: 2089 52bd ee3c c9bd 5a76 f2bd c029 6cbb
00000260: 01f2 abbd 4a09 863d 2121 153e 9cb6 943d
00000270: a0e8 003d 71e6 00be bc49 af3d 8680 d7bd
00000280: 038f 0c3e c0c3 c8bb 20ec 353d 90a1 203d
00000290: 7e70 6abd aa75 1abe 7432 003d 1d17 14be
000002a0: 3404 2e3d 92b6 d9bd ba15 8a3d b6c6 61bd
000002b0: da76 a13d 33e9 9bbd e8eb 3d3d 286d a73d
000002c0: b369 9ebd 645d 1e3d 0882 983d 9052 8ebc
000002d0: d54a 053e 51e4 0b3e da7b d83d 019c 123e
000002e0: 1d40 07be 00bc 5c3d e3c3 14be 185e 98bd
000002f0: 003a 50ba 9238 0abe d6a6 d9bd b978 203e
00000300: 3818 d1bc 5051 0bbd c0c0 803c 38ac e3bc
00000310: db12 163e 7831 2ebd 0ac6 89bd 9059 a1bd
00000320: b819 cc3c e4e9 5bbd d995 10be 8468 4ebd
00000330: 0b96 043e 06db f03d 4625 47bd a08e 113c
00000340: b866 813d ad35 16be 2a7a cebd 5657 df3d
00000350: 3ae6 f13d a678 e23d 9804 b13d c26a d73d
00000360: b704 aebd 75eb 83bd d606 d9bd 6619 cd3d
00000370: 00cd dcbc c5bd 13be 4778 03be 7061 583c
00000380: 0045 a83d 9c95 1e3d c076 fc3c 7e88 a63d
00000390: 9fa8 8ebd 4c08 743d 6095 5b3d c05b ddbd
000003a0: cdb0 0f3e 10c5 38bc 5037 343d 2aab bd3d
000003b0: 6051 ae3c 4673 19bd 1e97 ccbd 001d 233d
000003c0: a372 023e fd66 0abe 4e39 01be a85a 933c
000003d0: f86e ed3c 14f0 5a3d 6ccd 9c3d f3d8 bcbd
000003e0: ac26 0cbd 1aef 86bd 107a e1bd 02db a13d
000003f0: 0e44 fa3d a0ee 0f3d 5690 09be 2a10 d4bd

input_linear.bias f4 [40]
-0.02941911 -0.03897649 -0.012003943 0.06531155 0.06605205 0.14086042 -0.013304949 -0.100979984
-0.035931453 -0.05207043 0.12849282 -0.007532865 0.05930765 -0.079607494 -0.08875581 0.11357342
0.01573971 -0.15308493 -0.017942414 -0.10857778 0.12759842 0.13496439 0.05588293 -0.009186864
-0.14820194 -0.14126712 0.037722692 -0.07958248 -0.05189397 -0.017001644 0.018052027 -0.15214686
0.059013233 -0.024174333 -0.013975665 -0.10920657 -0.086473905 -0.09733762 0.03139828 0.068293944
00000000: 5800 f1bc d0a5 1fbd 30ac 44bc 10c2 853d
00000010: 4c46 873d b73d 103e 00fd 59bc 98ce cebd
00000020: dc2c 13bd ce47 55bd 9f93 033e 40d6 f6bb
00000030: 94ec 723d 4109 a3bd 9bc5 b5bd 2e99 e83d
00000040: 90f0 803c 4cc2 1cbe f8fb 92bc 075e debd
00000050: 29a9 023e 1b34 0a3e 80e5 643d 8084 16bc
00000060: 40c2 17be 54a8 10be 1c83 1a3d 24fc a2bd
00000070: c68e 54bd 0847 8bbc d8e1 933c 63cc 1bbe
00000080: dcb7 713d 4009 c6bc 30fa 64bc b2a7 dfbd
00000090: 3b19 b1bd f258 c7bd 7c9b 003d b2dd 8b3d

lstm.weight_ih_l0 f4 [600, 40]
0.18884347 -0.10278862 0.048475835 -0.025013786 -0.098470636 -0.0028081662 0.015933586 0.0010032551
-0.052026305 0.0031073866 -0.03437126 -0.27757135 0.19157368 -0.0017955584 0.05587915 0.08099702
0.08984092 -0.041454826 -0.028898971 -0.0063512344 0.051939473 0.030141741 0.18642484 0.13773821
0.044781078 -0.21578877 0.03969936 0.06171146 -0.031241758 0.010289647 -0.026847566 0.013392431
-0.00059570215 0.080014065 0.20082101 0.1090088 0.04156481 0.13510163 0.13727243 0.086823136
0.050167765 -0.029462915 0.22292706 0.028358152 -0.020691138 0.17969939 0.2070206 -0.19187829
-0.17932768 -0.17765214 0.272019 0.026914371 0.19984034 0.22180855 0.05251485 -0.07974813
-0.020234607 0.23062688 0.26438123 0.18172452 0.20412658 0.22701909 -0.039467268 0.011111271
0.22500914 -0.32130688 0.021924064 0.050822604 0.27662164 0.1763073 0.25610128 0.18624601
0.22567339 -0.0038057857 -0.024376828 -0.021387773 0.16954783 0.17812674 0.13395506 0.03141539
-0.14613988 -0.017348934 0.17319545 -0.03026147 0.028599344 0.17553505 0.18479751 -0.17119727
-0.20905067 -0.16011809 0.22411823 -0.1678459 0.107880555 0.20130904 0.016274663 -0.088195294
-0.033338875 0.26218164 0.273034 0.14692768 0.16434145 0.16083343 -0.12254872 -0.01645646
0.14729571 -0.006687615 0.18743023 0.21482094 0.22863057 0.0154764345 0.26158896 0.18830343
0.22550605 0.010488031 -0.13415231 0.022943832 0.16587706 -0.152484 -0.23310849 -0.027035302
0.12083898 0.17296195 -0.055753056 -0.029713223 0.25113156 -0.07875376 -0.095990054 0.07138308
0.048472784 0.05012852 -0.011135721 -0.0727595 -0.17445417 -0.092558675 0.13072714 -0.3158681
0.1985451 0.012092299 -0.0032547445 -0.055005565 -0.07857178 -0.06979667 -0.15983704 0.021896949
-0.08981207 0.10593661 -0.23252682 -0.08143043 -0.026655061 0.014375922 0.026089601 -0.06582112
-0.016639581 0.17375328 -0.19926038 0.08286358 -0.03601331 -0.0043253275 -0.045630362 0.11005291
0.45941046 1.1024191 0.13749272 1.9370099 1.3306785 0.17309113 0.2137958 -0.13624151
-0.117366605 -0.14197163 0.056164 0.32953644 0.20771053 0.14154658 -2.4099307 -0.7112828
0.39837003 0.104706064 0.09600262 0.1270058 0.13400398 0.13465852 -1.0264808 0.23676111
0.14278726 0.3285473 -0.3165747 -0.3716957 0.054304775 -1.0725466 0.115848325 0.17364492
0.082057655 0.4081739 -1.0353979 0.21147701 0.16766718 0.7664833 0.70789057 -2.4079573
0.35190248 -0.21473399 -0.39145276 0.6740395 -0.14029405 -0.38043338 -0.36399412 0.34014058
0.40476817 0.36200374 -0.26480764 0.3159507 -0.24583443 -0.33598346 -0.3367595 -0.01103909
-0.27541748 -0.3052863 -0.26444662 -0.3284423 -0.34178492 -0.3933567 0.23003292 0.13836172
-0.37374994 -0.46632597 -0.0008142792 0.0010445907 -0.2729258 0.21835859 -0.30815277 -0.37317365
-0.3255521 -0.2844803 0.19654568 0.14641485 -0.39684924 0.12512848 -0.028418649 -0.31134975
-0.48385322 0.3022428 0.057652265 0.34065711 0.3925338 0.046285287 0.0047940575 -0.0043816133
-0.04919668 -0.058264505 0.14621568 0.42633802 -0.17090505 0.022781935 -0.48544192 0.06686045
00000000: 2f60 413e d782 d2bd 998e 463d b6e9 ccbc
00000010: f9aa c9bd 3609 38bb 2787 823c a87f 833a
00000020: 8919 55bd 4ca5 4b3b e1c8 0cbd d51d 8ebe
00000030: e42b 443e f158 ebba 89e1 643d c4e1 a53d
00000040: 84fe b73d 89cc 29bd 89bd ecbc 041e d0bb
00000050: 7cbe 543d d0eb f63c 27e6 3e3e 3f0b 0d3e
00000060: 5d6c 373d bbf7 5cbe cc9b 223d 28c5 7c3d
00000070: b7ee ffbc e895 283c 6def dbbc ed6b 5b3c
00000080: e528 1cba 6ade a33d 06a4 4d3e 0140 df3d
00000090: dd3f 2a3d 1558 0a3e 2591 0c3e 54d0 b13d
000000a0: b77c 4d3d 365c f1bc fe46 643e 5b4f e83c
000000b0: 7680 a9bc 1e03 383e 35fd 533e be7b 44be
000000c0: ada1 37be 71ea 35be 1346 8b3e 877b dc3c
000000d0: f2a2 4c3e c821 633e d019 573d fd52 a3bd
000000e0: 0cc3 a5bc 7429 6c3e fa5c 873e fe15 3a3e
000000f0: 8f06 513e b177 683e 6ea8 21bd 0c0c 363c
00000100: cc68 663e 5682 a4be 189a b33c 5d2b 503d
00000110: 5aa1 8d3e e789 343e b51f 833e 46b7 3e3e
00000120: ed16 673e 7d6a 79bb eab1 c7bc 6935 afbc
00000130: f29d 2d3e db66 363e 842b 093e 6dad 003d
00000140: b1a5 15be 5a1f 8ebc 265a 313e e7e6 f7bc
00000150: 2c49 ea3c 76bf 333e 8f3b 3d3e 564e 2fbe
00000160: 6111 56be fff5 23be 407f 653e ccdf 2bbe
00000170: 7bf0 dc3d f523 4e3e 7152 853c bc9f b4bd
00000180: 588e 08bd ac3c 863e 1dcb 8b3e 3674 163e
00000190: 2049 283e 85b1 243e d3fa fabd b3cf 86bc
000001a0: b0d4 163e c823 dbbb b6ed 3f3e 05fa 5b3e
000001b0: 221e 6a3e df90 7d3c fdee 853e 9dd2 403e
000001c0: 0feb 663e fed5 2b3c 395f 09be b4f4 bb3c
000001d0: addb 293e c424 1cbe feb3 6ebe 2379 ddbc
000001e0: 6d7a f73d f01c 313e 515d 64bd 2569 f3bc
000001f0: 5194 803e a749 a1bd 6f96 c4bd 4b31 923d
00000200: 668b 463d 9053 4d3d 9972 36bc ef02 95bd
00000210: 1da4 32be 678f bdbd 56dd 053e 77b9 a1be
00000220: 684f 4b3e c71e 463c 8d4d 55bb 844d 61bd
00000230: 3eea a0bd 8ef1 8ebd 52ac 23be 3b61 b33c
00000240: 64ef b7bd 4bf5 d83d 831b 6ebe ffc4 a6bd
00000250: b75b dabc fd88 6b3c dcb9 d53c 39cd 86bd
00000260: bb4f 88bc 61ec 313e ea0a 4cbe 61b4 a93d
00000270: b182 13bd 7abb 8dbb e7e6 3abd 6c63 e13d
00000280: d937 eb3e 121c 8d3f e4ca 0c3e f1ef f73f
00000290: ac53 aa3f cd3e 313e 49ed 5a3e e582 0bbe
000002a0: e75d f0bd 0361 11be 390c 663d 00b9 a83e
000002b0: 12b2 543e 96f1 103e 4e3c 1ac0 a116 36bf
000002c0: 28f7 cb3e 2270 d63d 069d c43d cf0d 023e
000002d0: 5738 093e ece3 093e b963 83bf 8171 723e
000002e0: d336 123e 5a37 a83e 1416 a2be e64e bebe
000002f0: af6e 5e3d 3549 89bf e341 ed3d f9cf 313e
00000300: d80d a83d 2bfc d03e eb87 84bf 6e8d 583e
00000310: f2b0 2b3e 4038 443f 5138 353f f91b 1ac0
00000320: 902c b43e 3ae3 5bbe 7f6c c8be da8d 2c3f
00000330: 3ea9 0fbe 2ac8 c2be 705d babe e826 ae3e
00000340: c63d cf3e 8e58 b93e de94 87be 4ac4 a13e
00000350: 05bc 7bbe 0606 acbe be6b acbe 4ddd 34bc
00000360: 8503 8dbe 7c4e 9cbe 8c65 87be 9729 a8be
00000370: 6ffe aebe 0d66 c9be c08d 6b3e b2ae 0d3e
00000380: 275c bfbe 47c2 eebe 5a75 55ba a6ea 883a
00000390: eebc 8bbe 6599 5f3e 33c6 9dbe 9e10 bfbe
000003a0: c4ae a6be 67a7 91be 4543 493e c6ed 153e
000003b0: d32f cbbe ae21 003e 3ace e8bc 3c69 9fbe
000003c0: 9cbb f7be 91bf 9a3e c824 6c3d 9c6a ae3e
000003d0: 31fa c83e a495 3d3d 7817 9d3b a393 8fbb
000003e0: 7582 49bd c3a6 6ebd 90b9 153e fa48 da3e
000003f0: bc01 2fbe 2ea1 ba3c d88b f8be 22ee 883d

lstm.weight_hh_l0 f4 [600, 150]
0.019363156 0.026540156 0.3900364 0.094139226 -0.16086341 0.26189634 -0.17796415 0.37080404
0.08969046 -0.21931258 0.0062054107 -0.14544277 -0.012550608 -0.2197322 -0.035354085 -0.17276907
-0.08823044 -0.22631134 0.035243556 -0.0008660032 -0.022715598 0.0068408684 0.0986505 -0.09677133
-0.17047942 -0.0036456683 -0.14094575 -0.37238792 -0.051655028 -0.08425683 -0.34758592 -0.07460457
0.11441913 -0.14866574 -0.100355536 -0.18763655 0.2307461 -0.08897402 0.14434214 -0.19401178
-0.12341442 -0.20499557 -0.20494474 0.3425004 -0.19050379 0.09039544 -0.024340497 -0.0649996
-0.1779998 -0.12944777 -0.18295084 0.00039974687 0.06349391 -0.09172316 0.18534179 0.20886052
-0.19485347 -0.21213864 0.27094975 -0.082982816 -0.120734364 -0.05075132 -0.06610262 -0.37262595
-0.25491396 -0.09738081 -0.21351266 -0.21356338 -0.21447296 0.32754105 -0.11438214 -0.043835815
0.13938737 -0.10638133 0.34161702 0.013637217 0.11059035 -0.26635584 0.3889956 -0.22111826
-0.19442254 -0.0010920754 -0.008995906 -0.08545975 0.27780852 0.10215056 0.07564318 -0.22502512
-0.11896148 -0.22411405 -0.074114315 -0.06585018 0.07700615 -0.17248884 0.041020956 0.15186903
-0.07063386 0.014153951 -0.16671504 -0.12820269 -0.07247219 0.08868487 -0.29181007 -0.15398914
0.025203928 -0.25928536 0.107659586 0.115674786 0.17045555 0.21601695 -0.11693274 -0.0322281
-0.24925193 -0.23493925 -0.2834912 -0.075824216 -0.10284087 -0.08255786 -0.0972895 -0.13775633
0.010758229 0.26434073 -0.21645932 0.1905388 0.21128187 0.07067427 0.1397713 -0.23503108
-0.020488812 0.13616249 -0.17301087 0.0210802 -0.04029595 0.16019614 -0.07772695 -0.08577058
-0.055368803 -0.167736 0.0061095753 -0.2025312 -0.35873914 0.46008152 -0.2760242 0.0854263
0.05503001 -0.13377047 -0.039479744 -0.06159148 0.037392627 -0.060605023 0.38212723 0.22935115
-0.20730229 -0.061149597 -0.16281751 -0.2987394 -0.39336377 -0.2078889 0.026998863 -0.27324206
-0.21386378 -0.40813562 -0.40355387 -0.09840809 -0.30228385 -0.26796615 -0.2416579 -0.29199114
-0.14291964 0.052957825 -0.18516885 -0.22146873 -0.035193987 -0.15759967 -0.13710302 -0.1622309
0.10910088 -0.10597415 -0.47096634 0.36233345 0.3078905 -0.14774247 0.14114267 -0.12951684
-0.32228255 -0.17481324 0.08009752 -0.18544106 -0.15169492 -0.387067 -0.16521478 -0.1752436
-0.036865372 -0.07704304 -0.24212448 -0.44849852 -0.027057406 0.041846484 -0.09184536 -0.095147
-0.21037246 -0.2978431 0.1544793 -0.21447183 -0.22064364 -0.17799994 -0.15074152 -0.044501506
-0.3259744 0.13075526 0.29705092 -0.20804133 0.18790317 0.16889971 0.081121385 -0.15112954
-0.20026457 -0.41602382 -0.19909671 -0.119291544 -0.26299065 -0.26429236 0.11267428 -0.21025512
-0.44266942 -0.30937293 -0.14665794 0.017669365 -0.25034937 0.047908287 -0.103412844 -0.14814709
-0.31433636 -0.19884968 0.024297033 -0.11607782 -0.18787207 -0.13711545 0.021264693 -0.13790433
0.09935158 0.12412425 0.083770186 -0.11823001 0.042571202 0.25821587 -0.32888377 -0.07920206
-0.29849392 -0.1494435 -0.32643732 -0.42605868 0.1718086 -0.24127443 -0.04926679 -0.09990795
00000000: 7b9f 9e3c be6a d93c dab2 c73e 11cc c03d
00000010: 61b9 24be 4717 863e 3c3c 36be 07da bd3e
00000020: a2af b73d 7a93 60be c256 cb3b f3ee 14be
00000030: 11a1 4dbc 7a01 61be 72cf 10bd 60ea 30be
00000040: 29b2 b4bd 29be 67be 8c5b 103d 7e04 63ba
00000050: 1016 babc 5d29 e03b 4609 ca3d 0c30 c6bd
00000060: 2892 2ebe 2aec 6ebb 1554 10be a1a9 bebe
00000070: 3994 53bd d88e acbd c8f6 b1be 48ca 98bd
00000080: 9454 ea3d d53b 18be 3487 cdbd cc23 40be
00000090: b548 6c3e 0338 b6bd 6dce 133e 06ab 46be
000000a0: b3c0 fcbd 5cea 51be 09dd 51be 365c af3e
000000b0: 6d13 43be 3f21 b93d b965 c7bc 831e 85bd
000000c0: 9445 36be f58d 04be 7757 3bbe 1e95 d139
000000d0: 1809 823d 5ad9 bbbd 3dca 3d3e 88df 553e
000000e0: ab87 47be df3a 59be edb9 8a3e e5f2 a9bd
000000f0: 9443 f7bd 9ee0 4fbd cf60 87bd d4c8 bebe
00000100: 1584 82be 976f c7bd 10a3 5abe 5cb0 5abe
00000110: cd9e 5bbe 76b3 a73e 2f41 eabd 2f8d 33bd
00000120: 90bb 0e3e 74de d9bd 6de8 ae3e a26e 5f3c
00000130: 327d e23d cb5f 88be 6e2a c73e d36c 62be
00000140: b416 47be f823 8fba 9163 13bc 8505 afbd
00000150: eb3c 8e3e 5034 d13d d0ea 9a3d fc6c 66be
00000160: 14a2 f3bd 277e 65be 3fc9 97bd 76dc 86bd
00000170: 66b5 9d3d eaa0 30be 9705 283d 8e83 1b3e
00000180: 7ca8 90bd f9e5 673c 59b7 2abe 9147 03be
00000190: 4d6c 94bd 6aa0 b53d 2168 95be 54af 1dbe
000001a0: 7878 ce3c 0dc1 84be a17c dc3d e7e6 ec3d
000001b0: e68b 2e3e 8c33 5d3e 6f7a efbd 9d01 04bd
000001c0: e63b 7fbe ea93 70be c225 91be ba49 9bbd
000001d0: 3c9e d2bd 1814 a9bd b83f c7bd ff0f 0dbe
000001e0: 4843 303c ab57 873e 83a7 5dbe 9a1c 433e
000001f0: 465a 583e acbd 903d 3520 0f3e fdab 70be
00000200: 27d8 a7bc 2e6e 0b3e c329 31be 62b0 ac3c
00000210: 5e0d 25bd 750a 243e 4f2f 9fbd 7ca8 afbd
00000220: 66ca 62bd fcc2 2bbe d532 c83b 5764 4fbe
00000230: a8ac b7be ce8f eb3e 0b53 8dbe fcf3 ae3d
00000240: 2667 613d 20fb 08be 83b5 21bd 5947 7cbd
00000250: 0329 193d f93c 78bd 2ea6 c33e 07db 6a3e
00000260: 0d47 54be 0078 7abd a2b9 26be 5ff4 98be
00000270: fa66 c9be d4e0 54be b82c dd3c 62e6 8bbe
00000280: 1bff 5abe 27f7 d0be 9d9e cebe 2e8a c9bd
00000290: f3c4 9abe dc32 89be 2b75 77be dd7f 95be
000002a0: 8759 12be 4eea 583d e79c 3dbe b3c8 62be
000002b0: 9227 10bd cf61 21be bc64 0cbe db1f 26be
000002c0: 4870 df3d fa08 d9bd 8022 f1be c583 b93e
000002d0: d3a3 9d3e cd49 17be b487 103e 10a0 04be
000002e0: 3802 a5be 3e02 33be 2b0a a43d 43e4 3dbe
000002f0: ea55 1bbe a52d c6be 102e 29be 0f73 33be
00000300: 2500 17bd bec8 9dbd 7bef 77be 99a1 e5be
00000310: 7ea7 ddbc 3867 2b3d 6c19 bcbd 6edc c2bd
00000320: e16b 57be e47e 98be d22f 1e3e 819e 5bbe
00000330: 68f0 61be 9e45 36be fc5b 1abe 3647 36bd
00000340: 1ee6 a6be b5e4 053e 0f17 983e c908 55be
00000350: b069 403e 0cf4 2c3e f822 a63d b4c1 1abe
00000360: 2812 4dbe 1301 d5be 02e0 4bbe 204f f4bd
00000370: b6a6 86be 5451 87be c6c1 e63d 1e4d 57be
00000380: 91a5 e2be 2166 9ebe 802d 16be 58bf 903c
00000390: cb2d 80be 7b3b 443d 1dca d3bd dfb3 17be
000003a0: b2f0 a0be 409f 4bbe 920a c73c 35ba edbd
000003b0: 8961 40be fe67 0cbe 4b33 ae3c cb36 0dbe
000003c0: d778 cb3d db34 fe3d b48f ab3d 9322 f2bd
000003d0: 245f 2e3d df34 843e 7463 a8be b134 a2bd
000003e0: 32d4 98be b807 19be cb22 a7be 5d24 dabe
000003f0: 98ee 2f3e a510 77be f9cb 49bd 8a9c ccbd

lstm.bias_ih_l0 f4 [600]
0.052263636 0.21005438 0.18644552 -0.08569747 0.13095862 -0.33558324 0.019991145 0.26448673
0.17778036 0.40689 0.03884289 0.16509391 0.44667238 0.25704744 -0.96223414 0.34181207
0.11268118 -0.9340363 -0.021612605 0.40577602 -0.47386545 -0.78264034 -0.62894344 0.5411744
-0.47905117 -0.046986118 0.14698887 0.23252934 0.24482831 0.1918884 0.3780681 0.43816867
0.4571256 0.15339187 0.18009439 0.2719438 0.82927287 -0.3385378 0.2903307 0.41522318
0.30378258 0.23439568 0.060530055 -0.36725822 0.43497297 0.19424938 -0.48819897 0.232807
-0.012389631 -0.07649736 0.28896773 -0.028555123 -0.11634665 0.24738882 0.66677696 0.4128942
0.3351401 -0.14690986 -0.40709352 0.04750792 -0.09183085 0.37451053 -0.25123394 -0.13125418
0.34241426 0.32286477 0.25042254 0.42504206 -0.035403702 -0.45512512 0.15396427 0.9990255
-0.24810494 0.44547787 -0.036430657 0.23005877 0.6811004 0.257867 -0.21533388 0.16185752
0.15280177 0.06175186 0.06779396 0.40432146 0.16961032 0.37885225 0.44063523 -0.13770348
0.010293347 0.43409833 -0.30253106 0.16236232 -0.1863403 0.32601488 0.43813887 -0.20282678
0.1976589 0.24586861 0.34031817 0.1161287 -0.808211 -0.34818524 0.2539823 0.42819986
0.19480164 0.25891495 0.008015641 -0.3142729 -0.25898 0.40020183 0.28006244 -0.15535516
-0.093594566 0.19445506 0.14606492 -0.002376102 -0.13454421 -0.14816442 0.47385946 -0.44445616
0.83616555 0.33678102 -0.14690992 0.46052194 0.009879748 -0.29933217 -0.58629274 -0.28827077
0.078677304 0.058784287 0.011645782 0.61224514 0.10578507 -0.49329072 -0.13617481 -0.22873026
-0.06348839 0.27725527 1.0593811 -0.61503446 -0.05218364 -0.49218664 0.109173216 0.14837465
0.2676379 0.33194652 0.20099895 -0.20284118 0.2942234 0.27721402 -0.022005422 0.0057649272
-0.42048058 -0.14544132 -0.32343292 -0.07001494 0.20159273 0.06763736 0.2457282 0.23165242
0.052023035 -0.20092209 0.24333659 -0.12982497 0.2596436 0.2734022 -0.087034784 0.0891395
-0.14930566 0.4396068 -0.39009544 -0.43056092 -0.42714155 0.26289248 0.41963628 -0.23754543
-0.13921596 0.637386 0.3595186 -0.2710008 -0.10572692 0.25991234 -0.5896014 0.27133325
0.21221414 0.3613235 -0.48442006 0.29107502 0.15364406 0.41933697 -0.3237157 0.30912417
0.29533738 -0.24214956 0.281109 -0.35714808 0.14138077 -0.1933318 0.16837806 -0.28718525
0.37945458 -0.11411752 -0.23984523 0.30193174 -0.16442695 0.08927741 0.18650106 -0.5796264
0.3906737 0.1455802 -0.33657786 0.8022748 -0.17448793 -0.115931205 0.0891599 0.13983625
-0.013925889 0.15978557 -0.120060556 -0.30609 0.34591186 -0.31370148 -0.16443117 -0.23282036
-0.13658677 0.3655519 -0.33437923 0.55389285 -0.19085641 0.13098395 0.161046 -0.1567105
0.3112962 0.056827154 -0.64268696 0.22356033 0.8224163 -0.06194752 -0.16513081 0.19956803
-0.06940219 0.46026963 -0.1889923 0.6124694 -0.30609348 0.23549163 -0.6831258 -0.4119562
0.24310002 -0.2577852 -0.46035895 -0.12271851 0.4720865 0.3231888 -0.6061722 0.06488677
00000000: 6512 563d 7f18 573e 93eb 3e3e 2882 afbd
00000010: 041a 063e 91d1 abbe 78c4 a33c ce6a 873e
00000020: 0e0c 363e e353 d03e b919 1f3d 610e 293e
00000030: 3eb2 e43e b99b 833e fa54 76bf fe01 af3e
00000040: 64c5 e63d 011d 6fbf eb0c b1bc e0c1 cf3e
00000050: 7e9e f2be 1e5b 48bf 7002 21bf 688a 0a3f
00000060: 3246 f5be 8474 40bd 4084 163e 2c1c 6e3e
00000070: 46b4 7a3e 657e 443e 2492 c13e a557 e03e
00000080: 5e0c ea3e c212 1d3e aa6a 383e 383c 8b3e
00000090: 3a4b 543f d454 adbe 3aa6 943e 2298 d43e
000000a0: 6489 9b3e 6c05 703e 5dee 773d 4509 bcbe
000000b0: c7b4 de3e 4fe9 463e 37f5 f9be f564 6e3e
000000c0: e1fd 4abc a6aa 9cbd 94f3 933e 6fec e9bc
000000d0: 2747 eebd 7f53 7d3e e5b1 2a3f de66 d33e
000000e0: 7c97 ab3e 8a6f 16be 906e d0be aa97 423d
000000f0: d011 bcbd d8bf bf3e bca1 80be 7f67 06be
00000100: ec50 af3e 884e a53e 6237 803e 1d9f d93e
00000110: 7903 11bd 2906 e9be cfa8 1d3e 23c0 7f3f
00000120: 390f 7ebe ad15 e43e 5038 15bd 8794 6b3e
00000130: 995c 2e3f 2507 843e 7c80 5cbe fabd 253e
00000140: 1178 1c3e 85ef 7c3d 8fd7 8a3d 3903 cf3e
00000150: 54ae 2d3e ecf8 c13e f19a e13e 2402 0dbe
00000160: 6da5 283c 2342 de3e 5ae5 9abe 4f42 263e
00000170: fecf 3ebe 6ceb a63e bd53 e03e d3b1 4fbe
00000180: 1867 4a3e fbc4 7b3e 2f3e ae3e e2d4 ed3d
00000190: ebe6 4ebf 5645 b2be f809 823e 033d db3e
000001a0: 157a 473e 8090 843e 0954 033c 61e8 a0be
000001b0: 0799 84be 41e7 cc3e 5864 8f3e 6c15 1fbe
000001c0: 82ae bfbd 3a1f 473e 0b92 153e 60b8 1bbb
000001d0: f5c5 09be 6ab8 17be b59d f23e c28f e3be
000001e0: f20e 563f 906e ac3e 8e6f 16be 88c9 eb3e
000001f0: abde 213c 1142 99be 4817 16bf 3a98 93be
00000200: 9121 a13d cbc7 703d f3cd 3e3c 19bc 1c3f
00000210: d8a5 d83d 9a90 fcbe 6971 0bbe 4438 6abe
00000220: 3306 82bd 67f4 8d3e cd99 873f e672 1dbf
00000230: 83be 55bd e3ff fbbe 3596 df3d 86ef 173e
00000240: d607 893e e5f4 a93e abd2 4d3e 99b5 4fbe
00000250: 73a4 963e ffee 8d3e b744 b4bc b7e7 bc3b
00000260: 3b49 d7be 92ee 14be 0099 a5be fe63 8fbd
00000270: 536e 4e3e 7585 8a3d 2ca0 7b3e 4b36 6d3e
00000280: 1b16 553d 85be 4dbe 3a2d 793e d6f0 04be
00000290: 02f0 843e 60fb 8b3e 4b3f b2bd c58e b63d
000002a0: 95e3 18be 2414 e13e 97ba c7be 7b72 dcbe
000002b0: 4cb2 dabe d899 863e 91da d63e 1c3f 73be
000002c0: a18e 0ebe bb2b 233f d212 b83e 9ec0 8abe
000002d0: 5b87 d8bd 3b13 853e 1ef0 16bf 31ec 8a3e
000002e0: aa4e 593e 65ff b83e e805 f8be c907 953e
000002f0: de54 1d3e 56b3 d63e 10be a5be 8645 9e3e
00000300: 7636 973e 0ef6 77be 85ed 8f3e 1ddc b6be
00000310: 1fc6 103e c5f8 45be 4c6b 2c3e f209 93be
00000320: df47 c23e 72b6 e9bd fd99 75be cc96 9a3e
00000330: 8a5f 28be 13d7 b63d 22fa 3e3e 6562 14bf
00000340: 6206 c83e fa12 153e ef53 acbe e261 4d3f
00000350: f7ac 32be 576d edbd 7799 b63d 3c31 0f3e
00000360: 6929 64bc d49e 233e 4fe2 f5bd d4b7 9cbe
00000370: 5c1b b13e 7b9d a0be a560 28be 7668 6ebe
00000380: 67dd 0bbe 9e29 bb3e c133 abbe eccb 0d3f
00000390: dd6f 43be a820 063e 3ee9 243e b878 20be
000003a0: 3762 9f3e 97c3 683d 2287 24bf 00ed 643e
000003b0: e089 523f afbc 7dbd 0d18 29be 905b 4c3e
000003c0: bc22 8ebd 76a8 eb3e 3387 41be cbca 1c3f
000003d0: 49b8 9cbe b824 713e 55e1 2ebf eceb d2be
000003e0: 36ef 783e 6cfc 83be 2bb4 ebbe d853 fbbd
000003f0: 52b5 f13e 0179 a53e 1a2e 1bbf 5be3 843d

lstm.bias_hh_l0 f4 [600]
0.03475904 0.2109595 0.20369406 -0.10037714 0.16278864 -0.37531897 0.062488984 0.27013442
0.18055332 0.45295393 0.018811384 0.17465192 0.44621363 0.24091196 -0.905672 0.31247184
0.119626194 -0.9077793 -0.0061381944 0.38881016 -0.45449793 -0.7853989 -0.67376924 0.56655383
-0.45510456 -0.10120787 0.149129 0.25002828 0.23251577 0.17823268 0.37988612 0.39479807
0.4539518 0.099220835 0.15865338 0.29059917 0.8401399 -0.35210088 0.28529432 0.44225058
0.30335435 0.2629486 0.029255135 -0.3434704 0.4330767 0.19933824 -0.4394924 0.22968562
0.042391468 -0.080707826 0.2948684 -0.0055791647 -0.07873036 0.24393333 0.6930814 0.45388225
0.33550504 -0.16052385 -0.41095188 0.06107961 -0.12415066 0.36437955 -0.26070786 -0.17690605
0.39096463 0.3506063 0.2223081 0.4514644 -0.0912288 -0.49433732 0.117724426 0.996847
-0.28870612 0.42441753 -0.061480984 0.19171107 0.61795014 0.20585176 -0.22799188 0.17022373
0.17138411 0.028881853 0.026596522 0.39023244 0.16567926 0.36785176 0.43416592 -0.16252731
0.05020115 0.4208316 -0.3022947 0.21528278 -0.17738682 0.32341146 0.47888067 -0.1979546
0.17745833 0.25817296 0.33401018 0.120780714 -0.85047865 -0.33806846 0.26777798 0.42233735
0.18459596 0.2624229 0.024456358 -0.28979433 -0.25045756 0.42741242 0.27054188 -0.20030051
-0.0615045 0.19277552 0.18752834 0.031916264 -0.13715385 -0.102003045 0.48203564 -0.46786973
0.84649557 0.3335977 -0.18179382 0.5112554 0.045397785 -0.27387872 -0.6042206 -0.29437193
0.03924235 0.037228804 0.05076107 0.6232256 0.071567915 -0.4942748 -0.10150596 -0.23429503
-0.10442982 0.26972905 1.0367382 -0.61158586 -0.047517944 -0.47594687 0.11693742 0.16528144
0.299513 0.3494521 0.20896564 -0.21454144 0.29750064 0.33475813 -0.013051023 -0.0041194884
-0.4389338 -0.17907637 -0.28320557 -0.095238954 0.22341394 0.059861913 0.21686311 0.22858818
0.073862486 -0.22249103 0.2653375 -0.15556335 0.27533242 0.22151025 -0.12387627 0.08654721
-0.12875523 0.46573058 -0.38575935 -0.44890264 -0.42506418 0.25263596 0.42015386 -0.26120082
-0.16263346 0.61055857 0.35124877 -0.27381125 -0.060210604 0.2329532 -0.5845465 0.2842695
0.17533652 0.3987186 -0.4370025 0.25636852 0.10144847 0.37297684 -0.3546014 0.32622194
0.25103527 -0.19502841 0.24210912 -0.3492878 0.12820894 -0.22243993 0.19125065 -0.32426775
0.37831792 -0.07648787 -0.25191846 0.34477878 -0.21339937 0.114702255 0.18098456 -0.5757363
0.38292393 0.1256408 -0.36010417 0.76947474 -0.19588056 -0.12267162 0.115529984 0.13359803
-0.013750381 0.14258382 -0.0969749 -0.30274728 0.388192 -0.2541606 -0.14774552 -0.2520486
-0.13679144 0.37508023 -0.329675 0.56024563 -0.19281931 0.08892555 0.14989045 -0.10328987
0.29778427 0.04239218 -0.6346798 0.2154935 0.77458614 -0.09433069 -0.18378353 0.26049647
-0.026473952 0.47368577 -0.17736968 0.58662266 -0.35172442 0.2592155 -0.6721912 -0.35555217
0.2346588 -0.22250338 -0.43611115 -0.17416605 0.4695138 0.35350227 -0.6150344 0.044482414
00000000: 7f5f 0e3d c405 583e 2d95 503e 8892 cdbd
00000010: 11b2 263e cf29 c0be 73f4 7f3d 0f4f 8a3e
00000020: f8e2 383e 94e9 e73e 551a 9a3c f4d7 323e
00000030: 1d76 e43e a0b1 763e 1fda 67bf 4ffc 9f3e
00000040: 94fe f43d 3964 68bf e822 c9bb 2012 c73e
00000050: f4b3 e8be e70f 49bf 247c 2cbf ac09 113f
00000060: 7703 e9be 1246 cfbd 46b5 183e b503 803e
00000070: 9d18 6e3e a182 363e 6f80 c23e f922 ca3e
00000080: 5f6c e83e 4b34 cb3d 0876 223e 6ac9 943e
00000090: 6913 573f 9146 b4be 1912 923e ab6e e23e
000000a0: 4351 9b3e 33a1 863e 77a8 ef3c 5adb afbe
000000b0: 3bbc dd3e 531f 4c3e 2605 e1be b532 6b3e
000000c0: ada2 2d3d 254a a5bd fef8 963e 6dd1 b6bb
000000d0: 623d a1bd a9c9 793e c86d 313f 4163 e83e
000000e0: 51c7 ab3e 5d60 24be 4968 d2be 9d2e 7a3d
000000f0: b442 febd f58f ba3e 807b 85be dc26 35be
00000100: 842c c83e ab82 b33e bca4 633e 5826 e73e
00000110: 2ad6 babd c819 fdbe 8119 f13d 5d31 7f3f
00000120: 4ad1 93be 414d d93e 7cd3 7bbd e84f 443e
00000130: fb31 1e3f ceca 523e b476 69be 214f 2e3e
00000140: 517f 2f3e a399 ec3c f3e0 d93c 8ccc c73e
00000150: d3a7 293e 1157 bc3e ff4a de3e 8f6d 26be
00000160: b99f 4d3d 3d77 d73e 5fc6 9abe 1773 5c3e
00000170: e4a4 35be 3096 a53e d92f f53e 9cb4 4abe
00000180: a3b7 353e 3f2f 843e 6203 ab3e e15b f73d
00000190: f8b8 59bf 4f17 adbe 321a 893e 9a3c d83e
000001a0: b906 3d3e 4b5c 863e b358 c83c ec5f 94be
000001b0: f93b 80be cdd5 da3e 7784 8a3e 941b 4dbe
000001c0: 25ec 7bbd f266 453e 6e07 403e a1ba 023d
000001d0: 0f72 0cbe f9e6 d0bd 60cd f63e 9f8c efbe
000001e0: efb3 583f 51cd aa3e 2928 3abe a2e1 023f
000001f0: 07f3 393d d539 8cbe 34ae 1abf ebb7 96be
00000200: 96bc 203d 3b7d 183d d7ea 4f3d b78b 1f3f
00000210: 3392 923d 9611 fdbe 5be2 cfbd 09eb 6fbe
00000220: 4ddf d5bd ed19 8a3e d6b3 843f e490 1cbf
00000230: 2da2 42bd 4faf f3be e37c ef3d 8a3f 293e
00000240: c559 993e 63eb b23e 17fb 553e c0b0 5bbe
00000250: 0152 983e 6b65 ab3e f5d3 55bc c6fc 86bb
00000260: eebb e0be cc5f 37be 5200 91be a40c c3bd
00000270: a0c6 643e c431 753d 5d11 5e3e 0513 6a3e
00000280: 3745 973d b0d4 63be 51da 873e 004c 1fbe
00000290: 5ff8 8c3e 95d3 623e d8b2 fdbd aa3f b13d
000002a0: 69d8 03be 3d74 ee3e 4082 c5be 91d6 e5be
000002b0: 03a2 d9be 8059 813e 681e d73e 1dbc 85be
000002c0: 6389 26be 914d 1c3f e1d6 b33e fd30 8cbe
000002d0: 659f 76bd 498b 6e3e d7a4 15bf c68b 913e
000002e0: 6b8b 333e d824 cc3e cbbe dfbe bc42 833e
000002f0: 37c4 cf3d d2f6 be3e 518e b5be 9006 a73e
00000300: b287 803e 87b5 47be 74eb 773e dad5 b2be
00000310: 3449 033e 4bc7 63be 36d7 433e 6c06 a6be
00000320: e3b2 c13e aca5 9cbd 75fb 80be d886 b03e
00000330: 5d85 5abe 04e9 ea3d 0454 393e 7463 13bf
00000340: 9b0e c43e fba7 003e 935f b8be 4cfc 443f
00000350: ea94 48be 423b fbbd fc9a ec3d eccd 083e
00000360: 4749 61bc 7e01 123e c79a c6bd b101 9bbe
00000370: 1ac1 c63e 5721 82be 9a4a 17be 840c 81be
00000380: 0e13 0cbe 840a c03e 29cb a8be 426c 0f3f
00000390: 6d72 45be 991e b63d e27c 193e a489 d3bd
000003a0: 2e77 983e 6ca3 2d3d 607a 22bf 54aa 5c3e
000003b0: 474b 463f 7330 c1bd c031 3cbe cb5f 853e
000003c0: e7df d8bc f186 f23e 66a0 35be e72c 163f
000003d0: 3915 b4be e5b7 843e b914 2cbf ef0a b6be
000003e0: 654a 703e edd7 63be f649 dfbe 9658 32be
000003f0: 1d64 f03e 40fe b43e e572 1dbf 3133 363d

layernorm.weight f4 [150]
1.0 1.0 1.0 1.0 1.0 1.0 1.0 1.0
1.0 1.0 1.0 1.0 1.0 1.0 1.0 1.0
1.0 1.0 1.0 1.0 1.0 1.0 1.0 1.0
1.0 1.0 1.0 1.0 1.0 1.0 1.0 1.0
1.0 1.0 1.0 1.0 1.0 1.0 1.0 1.0
1.0 1.0 1.0 1.0 1.0 1.0 1.0 1.0
1.0 1.0 1.0 1.0 1.0 1.0 1.0 1.0
1.0 1.0 1.0 1.0 1.0 1.0 1.0 1.0
1.0 1.0 1.0 1.0 1.0 1.0 1.0 1.0
1.0 1.0 1.0 1.0 1.0 1.0 1.0 1.0
1.0 1.0 1.0 1.0 1.0 1.0 1.0 1.0
1.0 1.0 1.0 1.0 1.0 1.0 1.0 1.0
1.0 1.0 1.0 1.0 1.0 1.0 1.0 1.0
1.0 1.0 1.0 1.0 1.0 1.0 1.0 1.0
1.0 1.0 1.0 1.0 1.0 1.0 1.0 1.0
1.0 1.0 1.0 1.0 1.0 1.0 1.0 1.0
1.0 1.0 1.0 1.0 1.0 1.0 1.0 1.0
1.0 1.0 1.0 1.0 1.0 1.0 1.0 1.0
1.0 1.0 1.0 1.0 1.0 1.0
00000000: 0000 803f 0000 803f 0000 803f 0000 803f
00000010: 0000 803f 0000 803f 0000 803f 0000 803f
00000020: 0000 803f 0000 803f 0000 803f 0000 803f
00000030: 0000 803f 0000 803f 0000 803f 0000 803f
00000040: 0000 803f 0000 803f 0000 803f 0000 803f
00000050: 0000 803f 0000 803f 0000 803f 0000 803f
00000060: 0000 803f 0000 803f 0000 803f 0000 803f
00000070: 0000 803f 0000 803f 0000 803f 0000 803f
00000080: 0000 803f 0000 803f 0000 803f 0000 803f
00000090: 0000 803f 0000 803f 0000 803f 0000 803f
000000a0: 0000 803f 0000 803f 0000 803f 0000 803f
000000b0: 0000 803f 0000 803f 0000 803f 0000 803f
000000c0: 0000 803f 0000 803f 0000 803f 0000 803f
000000d0: 0000 803f 0000 803f 0000 803f 0000 803f
000000e0: 0000 803f 0000 803f 0000 803f 0000 803f
000000f0: 0000 803f 0000 803f 0000 803f 0000 803f
00000100: 0000 803f 0000 803f 0000 803f 0000 803f
00000110: 0000 803f 0000 803f 0000 803f 0000 803f
00000120: 0000 803f 0000 803f 0000 803f 0000 803f
00000130: 0000 803f 0000 803f 0000 803f 0000 803f
00000140: 0000 803f 0000 803f 0000 803f 0000 803f
00000150: 0000 803f 0000 803f 0000 803f 0000 803f
00000160: 0000 803f 0000 803f 0000 803f 0000 803f
00000170: 0000 803f 0000 803f 0000 803f 0000 803f
00000180: 0000 803f 0000 803f 0000 803f 0000 803f
00000190: 0000 803f 0000 803f 0000 803f 0000 803f
000001a0: 0000 803f 0000 803f 0000 803f 0000 803f
000001b0: 0000 803f 0000 803f 0000 803f 0000 803f
000001c0: 0000 803f 0000 803f 0000 803f 0000 803f
000001d0: 0000 803f 0000 803f 0000 803f 0000 803f
000001e0: 0000 803f 0000 803f 0000 803f 0000 803f
000001f0: 0000 803f 0000 803f 0000 803f 0000 803f
00000200: 0000 803f 0000 803f 0000 803f 0000 803f
00000210: 0000 803f 0000 803f 0000 803f 0000 803f
00000220: 0000 803f 0000 803f 0000 803f 0000 803f
00000230: 0000 803f 0000 803f 0000 803f 0000 803f
00000240: 0000 803f 0000 803f 0000 803f 0000 803f
00000250: 0000 803f 0000 803f

layernorm.bias f4 [150]
0.0 0.0 0.0 0.0 0.0 0.0 0.0 0.0
0.0 0.0 0.0 0.0 0.0 0.0 0.0 0.0
0.0 0.0 0.0 0.0 0.0 0.0 0.0 0.0
0.0 0.0 0.0 0.0 0.0 0.0 0.0 0.0
0.0 0.0 0.0 0.0 0.0 0.0 0.0 0.0
0.0 0.0 0.0 0.0 0.0 0.0 0.0 0.0
0.0 0.0 0.0 0.0 0.0 0.0 0.0 0.0
0.0 0.0 0.0 0.0 0.0 0.0 0.0 0.0
0.0 0.0 0.0 0.0 0.0 0.0 0.0 0.0
0.0 0.0 0.0 0.0 0.0 0.0 0.0 0.0
0.0 0.0 0.0 0.0 0.0 0.0 0.0 0.0
0.0 0.0 0.0 0.0 0.0 0.0 0.0 0.0
0.0 0.0 0.0 0.0 0.0 0.0 0.0 0.0
0.0 0.0 0.0 0.0 0.0 0.0 0.0 0.0
0.0 0.0 0.0 0.0 0.0 0.0 0.0 0.0
0.0 0.0 0.0 0.0 0.0 0.0 0.0 0.0
0.0 0.0 0.0 0.0 0.0 0.0 0.0 0.0
0.0 0.0 0.0 0.0 0.0 0.0 0.0 0.0
0.0 0.0 0.0 0.0 0.0 0.0
00000000: 0000 0000 0000 0000 0000 0000 0000 0000
00000010: 0000 0000 0000 0000 0000 0000 0000 0000
00000020: 0000 0000 0000 0000 0000 0000 0000 0000
00000030: 0000 0000 0000 0000 0000 0000 0000 0000
00000040: 0000 0000 0000 0000 0000 0000 0000 0000
00000050: 0000 0000 0000 0000 0000 0000 0000 0000
00000060: 0000 0000 0000 0000 0000 0000 0000 0000
00000070: 0000 0000 0000 0000 0000 0000 0000 0000
00000080: 0000 0000 0000 0000 0000 0000 0000 0000
00000090: 0000 0000 0000 0000 0000 0000 0000 0000
000000a0: 0000 0000 0000 0000 0000 0000 0000 0000
000000b0: 0000 0000 0000 0000 0000 0000 0000 0000
000000c0: 0000 0000 0000 0000 0000 0000 0000 0000
000000d0: 0000 0000 0000 0000 0000 0000 0000 0000
000000e0: 0000 0000 0000 0000 0000 0000 0000 0000
000000f0: 0000 0000 0000 0000 0000 0000 0000 0000
00000100: 0000 0000 0000 0000 0000 0000 0000 0000
00000110: 0000 0000 0000 0000 0000 0000 0000 0000
00000120: 0000 0000 0000 0000 0000 0000 0000 0000
00000130: 0000 0000 0000 0000 0000 0000 0000 0000
00000140: 0000 0000 0000 0000 0000 0000 0000 0000
00000150: 0000 0000 0000 0000 0000 0000 0000 0000
00000160: 0000 0000 0000 0000 0000 0000 0000 0000
00000170: 0000 0000 0000 0000 0000 0000 0000 0000
00000180: 0000 0000 0000 0000 0000 0000 0000 0000
00000190: 0000 0000 0000 0000 0000 0000 0000 0000
000001a0: 0000 0000 0000 0000 0000 0000 0000 0000
000001b0: 0000 0000 0000 0000 0000 0000 0000 0000
000001c0: 0000 0000 0000 0000 0000 0000 0000 0000
000001d0: 0000 0000 0000 0000 0000 0000 0000 0000
000001e0: 0000 0000 0000 0000 0000 0000 0000 0000
000001f0: 0000 0000 0000 0000 0000 0000 0000 0000
00000200: 0000 0000 0000 0000 0000 0000 0000 0000
00000210: 0000 0000 0000 0000 0000 0000 0000 0000
00000220: 0000 0000 0000 0000 0000 0000 0000 0000
00000230: 0000 0000 0000 0000 0000 0000 0000 0000
00000240: 0000 0000 0000 0000 0000 0000 0000 0000
00000250: 0000 0000 0000 0000

batchnorm.weight f4 [150]
0.50959444 1.6833351 1.2480711 0.22805798 0.44867566 -0.007960135 0.27655157 0.61984164
0.6404786 0.5671916 0.7457582 1.1715099 1.601264 0.0898876 0.75294924 0.74922466
0.6426577 0.751089 0.62666565 0.77208203 0.61437243 0.6280191 1.4535677 1.094402
0.9982335 1.1667649 0.28246304 0.043703265 0.45806986 0.17418662 0.5037687 0.11136034
2.0318775 0.6864622 0.9770225 1.1009862 1.5828558 0.82326686 0.16749212 0.85870546
0.66087157 0.3423364 0.17477958 0.426817 0.42790595 1.4066609 0.6550518 0.45538166
0.7021599 0.8386698 0.41775393 0.3535163 0.45281577 0.31309518 0.79976624 0.7546711
0.35944104 0.3472199 0.10936378 -0.19266658 -0.0861317 0.4558182 0.6914281 0.14348592
1.0138137 -0.2788188 0.6211893 0.81800056 0.69591767 1.1415731 0.55248755 1.1880823
1.2887161 0.8682665 0.011977078 1.1552167 1.368269 0.7307658 1.4670519 0.5893247
0.20302467 0.62402093 1.6358345 0.43333828 0.5888968 0.75201905 1.0887972 0.25804904
0.51040524 0.8704271 0.40374786 -0.43225482 0.30632654 0.57150424 1.2029155 0.7676436
0.78789794 0.17959589 0.7795907 -0.14702772 1.9552342 0.10944076 0.7519263 0.45686388
1.1569514 0.5823576 0.54474086 -0.2236316 0.05101494 0.7405097 0.22847527 0.43370834
0.9289733 1.3380829 -0.023445003 0.38223383 0.5163723 0.24756026 1.0090183 0.3409017
1.1828836 1.7082127 0.6948573 2.3117707 0.04349231 0.29121095 0.48143482 0.1569319
0.74456173 1.1384966 0.7251729 0.66936576 0.6984463 1.5852195 0.48224536 1.0674624
0.45807397 0.50122297 0.3348 0.5376336 0.43719923 0.62902874 0.58257145 0.3595786
1.076948 0.10016256 0.22665918 0.25875488 0.39826372 0.1557277
00000000: c874 023f 8677 d73f cbc0 9f3f 0888 693e
00000010: d1b8 e53e 3a6b 02bc 2b98 8d3e f1ad 1e3f
00000020: 68f6 233f 7833 113f 02ea 3e3f 09f4 953f
00000030: 38f6 cc3f fd16 b83d 48c1 403f 30cd 3f3f
00000040: 3785 243f 5e47 403f 296d 203f 2ba7 453f
00000050: 8347 1d3f dcc5 203f 820e ba3f 5d15 8c3f
00000060: 3b8c 7f3f 8d58 953f ff9e 903e 3202 333d
00000070: 2288 ea3e fa5d 323e fcf6 003f e410 e43d
00000080: 480a 0240 fdbb 2f3f 261e 7a3f 1eed 8c3f
00000090: 059b ca3f 9ec1 523f 0e83 2b3e 1fd4 5b3f
000000a0: e12e 293f b746 af3e 6bf9 323e c287 da3e
000000b0: 7d16 db3e 770d b43f 7ab1 273f c927 e93e
000000c0: c0c0 333f 10b3 563f d8e3 d53e 1700 b53e
000000d0: 78d7 e73e 034e a03e 7bbd 4c3f 2032 413f
000000e0: a808 b83e cfc6 b13e 1efa df3d 634a 45be
000000f0: d165 b0bd 0161 e93e 6f01 313f f9ed 123e
00000100: a6c4 813f 56c1 8ebe 4306 1f3f 7c68 513f
00000110: a927 323f 111f 923f d36f 0d3f 1513 983f
00000120: a6f4 a43f b746 5e3f 823b 443c 24de 933f
00000130: 7023 af3f 7813 3b3f 5bc8 bb3f fcdd 163f
00000140: b3e5 4f3e d6bf 1f3f 0663 d13f 84de dd3e
00000150: f1c1 163f 5284 403f b55d 8b3f 011f 843e
00000160: eba9 023f 4fd4 5e3f 0ab8 ce3e 8150 ddbe
00000170: d5d6 9c3e 1a4e 123f 23f9 993f 4a84 443f
00000180: aeb3 493f fce7 373e 4293 473f 6f8e 16be
00000190: 1d45 fa3f 7a22 e03d 3e7e 403f 10ea e93e
000001a0: fc16 943f 6315 153f 2374 0b3f afff 64be
000001b0: 0bf5 503d 0b92 3d3f 6cf5 693e 050f de3e
000001c0: 32d1 6d3f 4d46 ab3f bc0f c0bc 27b4 c33e
000001d0: fa30 043f 7080 7d3e 8327 813f ab8a ae3e
000001e0: bb68 973f b7a6 da3f 2be2 313f 0df4 1340
000001f0: fe24 323d 9a19 953e a07e f63e c2b2 203e
00000200: 999b 3e3f 42ba 913f eea4 393f 8e5b 2b3f
00000210: 60cd 323f 79e8 ca3f dde8 f63e 9ca2 883f
00000220: ac88 ea3e 2650 003f e86a ab3e 5ba2 093f
00000230: 94d8 df3e 0708 213f 6723 153f b01a b83e
00000240: 6fd9 893f 0722 cd3d 5819 683e 857b 843e
00000250: 39e9 cb3e 1577 1f3e

batchnorm.bias f4 [150]
-1.3894368 0.60127455 0.43133724 0.7715976 0.392454 0.7053751 0.8029325 0.4282282
0.71401256 0.7299854 -0.7009818 0.6960163 0.7516012 0.68732363 0.68467957 0.6778279
-0.661901 0.6680958 0.79692835 1.1611288 0.7544505 0.6616476 0.24444118 0.17833975
1.1599292 0.4621826 0.85553634 0.9127339 0.76088727 0.49219722 -1.0243597 0.5289307
0.42608193 0.9236298 0.5357868 0.79823714 0.4568725 0.93833685 0.8028515 0.38762277
0.65083873 1.0011489 0.54443234 0.27121836 0.65245605 0.5051629 0.804591 0.57070285
0.97843844 0.675768 0.6036876 1.0821911 1.0534406 0.55129176 0.7123 0.6288373
0.5473012 0.7011026 0.80548745 0.9169144 0.90082324 0.2102437 0.84489274 -0.6838254
-1.3343427 1.0183198 0.6384609 0.62044615 0.34476972 0.17593789 0.6680403 0.613275
0.5863222 0.29791334 0.8370808 0.3897466 0.7713663 0.81211066 0.6075411 -0.3190112
0.27970776 0.3415645 -0.39792156 0.6128588 0.6785241 0.9127474 0.26548493 0.5981951
-0.40372327 0.51661307 0.98884296 1.0439653 0.88865834 0.43409264 0.6169187 0.63253886
0.91315 0.01689769 0.64771974 1.0066504 0.634258 0.5459522 -1.2098465 0.3991751
0.9061452 1.1889094 0.11536689 1.0566882 0.64139754 0.7647248 0.9302423 0.8446802
0.45626482 0.6480528 1.0312124 0.105584 0.81290144 0.7987924 0.30400932 0.50805557
0.64041394 0.35596505 0.92941463 0.41474858 0.9533675 0.79994404 0.52576774 0.5407839
0.5677443 0.75711226 0.6314955 1.0061817 0.73865116 0.94384766 0.722478 0.7623388
0.8128385 0.3327745 -0.71243984 -0.10450789 -0.6039553 -0.67503494 0.66884565 0.7257594
0.247388 1.0233374 -0.8175037 0.21395205 0.7645006 0.10289227
00000000: 11d9 b1bf 21ed 193f 3cd8 dc3e 6c87 453f
00000010: bbef c83e 7693 343f fc8c 4d3f ba40 db3e
00000020: 87c9 363f 53e0 3a3f 8b73 33bf 202e 323f
00000030: f068 403f 71f4 2f3f 2947 2f3f 2186 2d3f
00000040: 5872 29bf 5408 2b3f 7f03 4c3f de9f 943f
00000050: ab23 413f bd61 293f ca4e 7a3e b29e 363e
00000060: 8f78 943f 33a3 ec3e 6e04 5b3f eea8 693f
00000070: 82c9 423f 4601 fc3e 381e 83bf 0168 073f
00000080: 6927 da3e 0173 6c3f 5329 093f 4559 4c3f
00000090: 31eb e93e d836 703f ad87 4d3f 7e76 c63e
000000a0: 5e9d 263f a625 803f eb5f 0b3f 22dd 8a3e
000000b0: 5c07 273f 5b52 013f adf9 4d3f 9519 123f
000000c0: f17a 7a3f 22ff 2c3f 458b 1a3f 3d85 8a3f
000000d0: 24d7 863f 7521 0d3f 4b59 363f 7bfb 203f
000000e0: ee1b 0c3f 767b 333f 6d34 4e3f e7ba 6a3f
000000f0: 5a9c 663f 204a 573e e44a 583f 2e0f 2fbf
00000100: becb aabf 4e58 823f 2c72 233f 8fd5 1e3f
00000110: a885 b03e 1029 343e b004 2b3f 97ff 1c3f
00000120: 3619 163f 1988 983e ed4a 563f de8c c73e
00000130: 4378 453f 7ce6 4f3f d087 1b3f 7055 a3be
00000140: db35 8f3e 8be1 ae3e 60bc cbbe 50e4 1c3f
00000150: c1b3 2d3f d0a9 693f a4ed 873e 5023 193f
00000160: d1b4 cebe c140 043f d024 7d3f a8a0 853f
00000170: 1d7f 633f 6441 de3e 62ee 1d3f 11ee 213f
00000180: 33c4 693f 066d 8a3c f6d0 253f ecd9 803f
00000190: bb5e 223f 86c3 0b3f 40dc 9abf ae60 cc3e
000001a0: 22f9 673f 2f2e 983f 7a45 ec3d 8f41 873f
000001b0: a132 243f 01c5 433f 5c24 6e3f f63c 583f
000001c0: 8b9b e93e cae6 253f c5fe 833f 6d3c d83d
000001d0: 4f1a 503f a97d 4c3f 1ca7 9b3e ee0f 023f
000001e0: 2bf2 233f 0d41 b63e 1eee 6d3f ed59 d43e
000001f0: e40f 743f 22c9 4c3f b798 063f d070 0a3f
00000200: b157 113f 1cd2 413f b0a9 213f 90ca 803f
00000210: 3e18 3d3f 00a0 713f 51f4 383f a328 433f
00000220: 2f16 503f 6b61 aa3e 7562 36bf 3c08 d6bd
00000230: d19c 1abf 17cf 2cbf 7839 2b3f 5ecb 393f
00000240: 4853 7d3e b8fc 823f ec47 51bf 3f16 5b3e
00000250: 50b6 433f 2fb9 d23d

batchnorm.running_mean f4 [150]
0.0037215343 0.93760103 0.23355527 0.00018407319 -0.026586032 0.011502404 -0.002223205 -0.015093806
-0.0071228696 -0.96778196 -0.022702355 -0.47882447 -0.26867378 -0.7584132 -0.01772929 -0.81384313
-0.0002894772 -0.0067747156 -0.08421935 -0.05400923 -0.020626979 0.018170886 0.102849 -0.88018537
-0.020136843 0.2957193 -0.29394212 -0.83173937 -0.14709345 0.084037386 0.47295094 -0.9489992
0.8748652 0.71417373 -0.22543235 -0.2357306 0.9109991 -0.052942738 -0.01725106 -0.8472691
0.74098825 -0.96067536 -0.9613626 0.0042419974 -0.11265623 0.52336764 0.5218617 0.30144113
-0.080995254 -0.00830267 0.89459354 -0.01516441 -0.0009192518 -0.9601412 -0.196762 0.06619683
-0.959093 -0.05054635 -0.016471285 0.016145013 0.07104235 -0.9596194 -1.140902e-07 -0.0011398892
-0.9088626 -0.91463333 -0.44935623 -0.17312697 -0.19028062 0.19357984 -0.119611636 -0.298715
0.433916 -0.6998593 -0.0032579682 -0.66916037 0.35984698 -0.72212696 0.43648887 -0.87848395
-0.92000765 -0.91091764 -0.8433907 -0.04330519 -0.1329142 0.9544806 0.22358868 -0.0007330353
0.0092649525 -0.8576991 -0.005675577 -0.00034851616 -2.1268615e-08 -0.96492165 0.52927995 0.90651673
0.683935 -0.7633567 -0.81279945 -0.00032259405 0.3390922 -0.116596915 0.15716982 -0.96979666
0.66627365 -0.0815133 0.0055929697 -0.795484 -0.37006083 -0.4293026 -0.93077415 -0.0034509387
-0.16492638 -0.61725414 -0.9626703 -0.7302145 1.0638858e-08 -0.87656647 -0.88521 -0.0071832296
0.7319553 0.92130214 -0.0042346483 0.86777 0.5436921 -2.2221964e-05 0.0040779756 0.021070244
-0.022508742 6.158055e-05 -0.4885947 -0.22036134 -0.005183038 0.58699673 -0.43370658 -0.044986468
3.802824e-09 -0.96745396 0.9432667 -0.009274488 -0.0039175423 4.22062e-06 -0.0011254821 -0.91035235
-0.1415828 -0.9416574 -0.014752084 0.0017093112 0.9494036 -0.9663647
00000000: fce4 733b 9f06 703f 1d29 6f3e c503 4139
00000010: f3ca d9bc 9474 3c3c 31b3 11bb 034c 77bc
00000020: f666 e9bb 8fc0 77bf 4afa b9bc 7b28 f5be
00000030: 9c8f 89be 5e27 42bf 043d 91bc 0658 50bf
00000040: f9c4 97b9 6ffe ddbb 327b acbd c838 5dbd
00000050: e9f9 a8bc 1cdb 943c 7fa2 d23d d453 61bf
00000060: 05f6 a4bc 8568 973e 957f 96be dfec 54bf
00000070: aa9f 16be cb1b ac3d a026 f23e 9df1 72bf
00000080: 2af7 5f3f 17d4 363f bdd7 66be 5d63 71be
00000090: 3d37 693f 7cda 58bd 1852 8dbc a1e6 58bf
000000a0: 68b1 3d3f d2ee 75bf dc1b 76bf 7400 8b3b
000000b0: 4fb8 e6bd 6cfb 053f ba98 053f 7e56 9a3e
000000c0: d7e0 a5bd ec07 08bc 1504 653f 2574 78bc
000000d0: f2f9 70ba d0cb 75bf fa7b 49be 3492 873d
000000e0: 1e87 75bf b109 4fbd caee 86bc 8c42 843c
000000f0: a77e 913d 9ea9 75bf c001 f5b3 5668 95ba
00000100: 38ab 68bf 6925 6abf 0512 e6be 3248 31be
00000110: ecd8 42be cb39 463e f2f6 f4bd 2cf1 98be
00000120: 3d2a de3e fb29 33bf a383 55bb 184e 2bbf
00000130: dd3d b83e 50dd 38bf 787b df3e 53e4 60bf
00000140: 9f85 6bbf e631 69bf 74e8 57bf c860 31bd
00000150: a91a 08be d758 743f 6ef4 643e 2b29 40ba
00000160: 07cc 173c 2b92 5bbf 31fa b9bb 0cb9 b6b9
00000170: 2eb2 b6b2 1b05 77bf e47e 073f 7b11 683f
00000180: 5d16 2f3f 586b 43bf a013 50bf d721 a9b9
00000190: 7e9d ad3e 5dca eebd 20f1 203e 9844 78bf
000001a0: e990 2a3f 72f0 a6bd 3b45 b73b d7a4 4bbf
000001b0: 9d78 bdbe 8dcd dbbe 3747 6ebf 2529 62bb
000001c0: 76e2 28be 5e04 1ebf 9071 76bf 56ef 3abf
000001d0: 31c6 3632 a966 60bf 1f9d 62bf 4c61 ebbb
000001e0: 6c61 3b3f 75da 6b3f cec2 8abb 2d26 5e3f
000001f0: 682f 0b3f 4e69 bab7 8aa0 853b 819b ac3c
00000200: 4164 b8bc ce24 8138 1629 fabe 67a6 61be
00000210: 79d6 a9bb 6b45 163f ca0e debe bb43 38bd
00000220: fea9 8231 10ab 77bf ed79 713f 06f4 17bc
00000230: ba5e 80bb da9e 8d36 ea84 93ba da0c 69bf
00000240: 15fb 10be 7610 71bf bab2 71bc f70a e03a
00000250: 1d0c 733f ad63 77bf
