src/results/subject_P6/best_model.pth (torch, 481333 bytes, 15 tensors)

input_linear.weight f4 [40, 40]
0	0xbda20736	-0.079115316
1	0x3d68c608	0.056829482
2	0xbe05ff44	-0.13085657
3	0x3de7c3c6	0.11316638
4	0x3cdc0610	0.02685836
5	0xbe10967e	-0.14119908
6	0xbde5db42	-0.11223461
7	0xbe1c7822	-0.15280202
8	0xbe0fd096	-0.14044413
9	0x3dff292e	0.12459026
10	0x3d355128	0.04426685
11	0x3d719a70	0.058985174
12	0x3df90b3a	0.121603444
13	0xbd4ab43e	-0.0494883
14	0xbdb3d55e	-0.08780931
15	0xbca72e30	-0.020407766
16	0x3d9bc1fa	0.076053575
17	0xbe0c437b	-0.13697617
18	0xbdcbd9c6	-0.09953646
19	0x3db0cdda	0.08633013
20	0x3deb9fba	0.11505075
21	0x3d334054	0.04376252
22	0x3db71b2a	0.08940728
23	0xbd9b16f8	-0.0757274
24	0x3e008fb5	0.1255482
25	0xbd097b2a	-0.033564724
26	0xbe1f6af4	-0.15568143
27	0x3db182da	0.08667536
28	0xbdefe09e	-0.11712764
29	0x3ca30848	0.01990141
30	0xbc880918	-0.016605899
31	0x3de24f66	0.110503
32	0xbd631134	-0.055436328
33	0xbdc17401	-0.09445954
34	0x3d54d33c	0.05195926
35	0x3d2d52f8	0.042315453
36	0x3cc3ba88	0.023892656
37	0xbe19f5c2	-0.15035155
38	0x3dcb2cee	0.09920679
39	0x3e14377f	0.14474295
40	0x3d047a48	0.03234318
41	0x3e1bb6b5	0.15206416
42	0xbcab8b78	-0.020940527
43	0x3bace740	0.0052765906
44	0x3dce8866	0.1008461
45	0x3e062273	0.13099079
46	0xbd3ec206	-0.046571754
47	0xba47b300	-0.00076179206
48	0xbd2fa384	-0.04288055
49	0x3d114ea0	0.035475373
50	0x3e169317	0.14704548
51	0x3aea4d80	0.001787588
52	0x3d46a9e4	0.048501864
53	0x3de4f3e2	0.111793295
54	0x3dd94132	0.10608138
55	0x3dd0c98a	0.101946905
56	0xbcf42eb8	-0.029807433
57	0xbd97d76e	-0.07414137
58	0xbcf98210	-0.030457526
59	0x3da4b82c	0.080429405
60	0x3c6edd70	0.014579162
61	0x3c1a1060	0.009403318
62	0x3db2fb48	0.08739334
63	0x3d7e23f4	0.062046006
64	0xbe18980e	-0.14901754
65	0x3d5b4398	0.05353126
66	0x3df466fe	0.11933707
67	0xbdf07fc2	-0.11743118
68	0xbde2bc7a	-0.11071105
69	0xbe1f6d68	-0.15569079
70	0x3d4e87dc	0.050422534
71	0xbde7c33a	-0.113165334
72	0xbd09169a	-0.03346882
73	0xbe05e381	-0.13075067
74	0x3d56d7f0	0.052452028
75	0x3de82a36	0.11336176
76	0xbd7d1052	-0.061783142
77	0xbe09855a	-0.13429776
78	0x3d9d704c	0.076874346
79	0x3e108c07	0.14115916
80	0x3e148a69	0.14505924
81	0x3cb3fde0	0.021971643
82	0xbd1119b2	-0.035424896
83	0x3e06c64d	0.13161583
84	0xbe12e342	-0.14344504
85	0x3e142fc3	0.14471345
86	0x3e1bc959	0.15213527
87	0x3df383f2	0.11890401
88	0x3d6b5ca8	0.05746141
89	0xbd2fb438	-0.04289648
90	0x3dd55952	0.10417427
91	0xbdce5e30	-0.100765586
92	0xbe1f7d6d	-0.1557519
93	0xbdbb624d	-0.09149609
94	0xbda089e6	-0.07838802
95	0x3e075529	0.1321608
96	0x3da6c028	0.0814212
97	0xbdb42fe6	-0.087981984
98	0x3e01b4c9	0.1266662
99	0x3e129da1	0.14317943
100	0xbdc0c461	-0.09412456
101	0xbda11b60	-0.078665495
102	0xbdf8d4fb	-0.12149998
103	0x3c7f9300	0.015599012
104	0x3b5a1ec0	0.0033282489
105	0xbdb1eee1	-0.08688141
106	0x3caf8978	0.021427855
107	0xbbbfe6c0	-0.005856365
108	0x3e216067	0.15759431
109	0x3d84bd9c	0.064814776
110	0x3b9bc000	0.004753113
111	0xbd8e5632	-0.06950034
112	0x3cae6228	0.021287039
113	0xbda669d7	-0.08125656
114	0xbdf97074	-0.12179652
115	0x3e0a1a17	0.13486515
116	0x3d89bc3e	0.067253575
117	0xbc774a30	-0.015093371
118	0x3d884aea	0.06654914
119	0x3e20bb67	0.15696488
120	0xbe183453	-0.1486371
121	0xbddbd0d2	-0.10733189
122	0xbdef574b	-0.11686572
123	0x3de349b2	0.11098041
124	0x3d8a29f2	0.06746282
125	0xbdc858f8	-0.097825944
126	0x3d8e74ca	0.069558695
127	0x3dd371a2	0.10324408
128	0x3e002c1d	0.12516828
129	0x3c1e33f0	0.009655938
130	0x3cd424a0	0.02589637
131	0x3e0e5395	0.13899072
132	0xbe1464cb	-0.14491574
133	0x3df44dce	0.119289026
134	0xbe13907b	-0.14410584
135	0xbe0ea3b2	-0.13929632
136	0xbd36b4ee	-0.04460614
137	0x3cd40698	0.02588205
138	0x3d8cde24	0.068783075
139	0x3dcefec6	0.10107188
140	0x3e200289	0.15625967
141	0xbd696f2e	-0.056990795
142	0x3de8da66	0.11369781
143	0x3e0d128f	0.13776611
144	0xbe210dbe	-0.15727898
145	0x3e0df72d	0.13863821
146	0xbdf7f9b2	-0.121081725
147	0x3dc4d08a	0.09610088
148	0xbe1ba90b	-0.15201204
149	0xbd0eb5b2	-0.034841247
150	0x3dc8f49e	0.09812282
151	0x3d6c8444	0.057743326
152	0xbe0f43f8	-0.13990772
153	0xbdc3598e	-0.095385656
154	0xbdc48a93	-0.095967434
155	0x3c9a6ad0	0.01884976
156	0xbdf52c16	-0.11971299
157	0xbe116d76	-0.14201912
158	0x3e05ab07	0.13053523
159	0x3d4c4334	0.049868777
160	0xbcee63b0	-0.02910027
161	0xbe118fd8	-0.14215028
162	0x3e14a6db	0.14516775
163	0x3d7bae00	0.061445236
164	0xbbcba100	-0.006214261
165	0x3c0d63c0	0.008629739
166	0x3e014511	0.12624003
167	0x3da6eb8e	0.08150397
168	0xbda2871b	-0.079359256
169	0x3c9b9088	0.018989816
170	0x3d627300	0.055285454
171	0x3e05c441	0.13063146
172	0xbe09877f	-0.13430594
173	0xbc89be78	-0.016814455
174	0x3e1555e1	0.14583541
175	0xbdf62724	-0.12019184
176	0xbe04ca85	-0.1296788
177	0xbdf25240	-0.11832094
178	0xbdb9f6dd	-0.090802886
179	0x3c9ddb78	0.01926969
180	0x3d3e75a0	0.046498895
181	0xbd4082a8	-0.046999604
182	0xbdf1610f	-0.117860906
183	0x3d84e894	0.06489673
184	0xbadb0c00	-0.001671195
185	0xbe03733d	-0.12836929
186	0x3da5d3e8	0.080970585
187	0x3d8ea124	0.06964329
188	0x3ba61020	0.00506784
189	0xbca6c0a0	-0.020355523
190	0xbd584676	-0.05280157
191	0xbc244340	-0.010025799
192	0xbc4fa890	-0.012674466
193	0x3dbe30ea	0.09286673
194	0xbcdc28b0	-0.02687487
195	0x3d8de3ac	0.069281906
196	0x3dfcdbea	0.12346633
197	0x3debad3e	0.11507653
198	0x3e163965	0.14670332
199	0x3d0044a4	0.03131546
200	0x3e1317f7	0.1436461
201	0xbe065f13	-0.13122205
202	0x3dbd6fea	0.092498615
203	0x3d7c788c	0.0616384
204	0xbd9d6a8b	-0.07686337
205	0xbe0b5746	-0.13607511
206	0x3e0052cf	0.12531589
207	0x3d37c348	0.04486397
208	0xbd28dd62	-0.041226752
209	0x3da3bec0	0.07995367
210	0x3e12cb4f	0.14335369
211	0xbcaf6fd8	-0.021415636
212	0xbc33bb60	-0.010969967
213	0x3dab54f6	0.083658144
214	0xbe0f49a9	-0.13992943
215	0xbe044147	-0.12915526
216	0x3d7a8864	0.06116523
217	0xbc463eb0	-0.012099907
218	0x3daf1cb2	0.08550395
219	0xbe1e14b1	-0.1543758
220	0x3db4670a	0.08808716
221	0xbd1167a4	-0.03549923
222	0x3cf89328	0.030343607
223	0xbdf3a940	-0.11897516
224	0xbe1fa851	-0.15591551
225	0x3de2102a	0.11038239
226	0x3dea83f2	0.11450948
227	0x3ceb4fb8	0.028724536
228	0xbcb4f2a0	-0.022088349
229	0xbd4d611e	-0.050141446
230	0x3d295528	0.041340977
231	0x3d3cd8a0	0.046105027
232	0xbcc1d7b0	-0.023662418
233	0x3d935032	0.071930304
234	0x3c0c14a0	0.008549839
235	0x3dc2ceda	0.0951211
236	0x3ddf2dce	0.108974084
237	0x3d2e5bb0	0.04256791
238	0x3e196ba7	0.14982472
239	0x3d25c248	0.040468484
240	0xbd7e7db8	-0.062131613
241	0xbd41c960	-0.047311187
242	0xbdaa8f54	-0.08328119
243	0xbdb349a2	-0.08754279
244	0xbd9de325	-0.0770934
245	0x3d9ea8c8	0.07747036
246	0x3e0d4b57	0.13798271
247	0x3d4ada7c	0.04952477
248	0xbd96eaf3	-0.07369032
249	0xbab99c00	-0.0014160872
250	0x3db4e09a	0.08831902
251	0x3dd3ce3a	0.10342069
252	0x3d64112c	0.05568044
253	0xbe0b9e01	-0.13634492
254	0x3d418370	0.04724449
255	0x3b023300	0.0019866824

input_linear.bias f4 [40]
0	0xbcfa6260	-0.030564487
1	0x3d257d0c	0.040402457
2	0x3d662270	0.056185186
3	0x3e17f871	0.14840867
4	0x3ce2c3a0	0.027681172
5	0x3d434478	0.04767272
6	0x3dbc3012	0.09188856
7	0x3df740ba	0.120728925
8	0xbdfba198	-0.12286681
9	0xbd8c8862	-0.068619505
10	0x3da9c752	0.082899705
11	0xbce93030	-0.02846536
12	0xbd8a0588	-0.06739336
13	0x3d96ead8	0.07369012
14	0x3dd8d38e	0.10587226
15	0x3e1ff1a7	0.15619527
16	0x3e161617	0.14656864
17	0xbe0108fd	-0.12601085
18	0xbd85f51d	-0.06540892
19	0xbd482f2e	-0.04887312
20	0x3dc90ad6	0.0981652
21	0xbcd0c3a0	-0.025483906
22	0xbdeb66c4	-0.1149421
23	0x3c0403c0	0.008057535
24	0x3d9582ca	0.07300337
25	0x3d812092	0.063050404
26	0xbe0bb392	-0.1364272
27	0xbc48c300	-0.012253523
28	0xbdecce14	-0.11562744
29	0xbdd10630	-0.10206258
30	0x3cdc22b8	0.026872024
31	0x3e1be585	0.15224274
32	0xbe0f0084	-0.1396504
33	0xbd80468e	-0.06263457
34	0xbd4de5c0	-0.050267935
35	0x3e0e912b	0.13922565
36	0xbdae4df1	-0.0851096
37	0x3c911510	0.017710239
38	0x3d7c9ce4	0.06167306
39	0x3d4f186c	0.0505604

lstm.weight_ih_l0 f4 [600, 40]
0	0xbf399540	-0.7249336
1	0xbe7e7190	-0.24848008
2	0xbe6a3cba	-0.22874728
3	0x3dbc5a0f	0.09196865
4	0x3e606f30	0.21917415
5	0xbe686cbb	-0.22697727
6	0xbe3ac490	-0.18239045
7	0x3e69af87	0.22820865
8	0x3e79701f	0.24359177
9	0x3e69150e	0.22761938
10	0x3e073941	0.13205434
11	0x3ea89958	0.32929492
12	0xbeb53662	-0.35393053
13	0xbe7be700	-0.24599838
14	0xbefa900b	-0.4893802
15	0xbf4ac38b	-0.79204625
16	0xbea348cc	-0.31891477
17	0x3e079e0e	0.13243887
18	0x3e082b3e	0.13297746
19	0xbe68c130	-0.22729945
20	0xbe670bb9	-0.22563066
21	0xbe692511	-0.22768046
22	0xbe953f18	-0.291497
23	0x3e8134bc	0.25235546
24	0xbe6b8c47	-0.2300273
25	0x3e8bee66	0.2733032
26	0x3eb24af5	0.34822813
27	0x3ed4cb90	0.41561556
28	0x3e0ad747	0.13558684
29	0x3e0de0ed	0.13855334
30	0x3e09fc9b	0.13475268
31	0xbe652907	-0.22378932
32	0x3e09b3b9	0.13447465
33	0xbea32793	-0.3186613
34	0xbe94c4c8	-0.29056382
35	0x3e81b976	0.25336808
36	0xbe6c8257	-0.23096596
37	0xbf36d52d	-0.7141903
38	0xbe0bb5ed	-0.13643618
39	0xbefbf938	-0.49213576
40	0xbeab7771	-0.33489564
41	0xbe678c47	-0.22612105
42	0xbee5e4d3	-0.44901142
43	0xbeb88207	-0.36036703
44	0xbeec5f88	-0.46166635
45	0xbee6f915	-0.4511191
46	0xbed9a92f	-0.4251189
47	0x3ee76ebf	0.4520168
48	0x3ed87c9c	0.4228257
49	0x3ee771ce	0.45204014
50	0xbec96adc	-0.3933934
51	0x3e87e980	0.26545334
52	0xbedc0234	-0.4297043
53	0xbee60950	-0.4492898
54	0x3e62e7f3	0.22158794
55	0x3f27c2b1	0.6553145
56	0xbe022a12	-0.12711361
57	0xbec93c56	-0.39303845
58	0xbecaaab0	-0.3958335
59	0xbee9b6a9	-0.4564717
60	0xbee74a98	-0.45174098
61	0xbee6ca58	-0.4507625
62	0xbe6b1f7a	-0.22961226
63	0x3e53113c	0.20612043
64	0xbee7fee1	-0.45311645
65	0xbd2f026b	-0.042726915
66	0xbe8b98fa	-0.2726515
67	0xbee1d1bf	-0.44105336
68	0xbecc5027	-0.399049
69	0x3ea404e6	0.32034987
70	0xbeca7e13	-0.39549312
71	0xbee8f56d	-0.45499745
72	0xbec995c3	-0.39372072
73	0xbe02ad17	-0.12761341
74	0xbe6b08c4	-0.22952563
75	0x3e55eeef	0.20891927
76	0xbee8ea72	-0.45491368
77	0xbebe92dd	-0.37221423
78	0x3d037580	0.03209448
79	0x3e60d47e	0.2195606
80	0xbd54c925	-0.05194964
81	0x3d211fd4	0.039336994
82	0x3da63c33	0.08116951
83	0x3bc78088	0.00608832
84	0x3d09b90e	0.033623748
85	0x3da53da8	0.080684006
86	0x3dade246	0.08490424
87	0xbda64f9d	-0.08120654
88	0xbda1d3c6	-0.07901721
89	0xbdaa7505	-0.08323101
90	0x3d1d085f	0.03833806
91	0xbd8b856f	-0.0681256
92	0x3e1e5c05	0.1546479
93	0x3da5adb1	0.0808977
94	0xbd07ac54	-0.03312333
95	0x3b290bda	0.0025794418
96	0x3c3b4208	0.011429317
97	0x3d1ac389	0.037784133
98	0x3d1ebbfc	0.038753495
99	0x3daae207	0.083438925
100	0x3db0ac03	0.08626559
101	0x3daf3bc2	0.0855632
102	0x3b49ecfa	0.0030811415
103	0x3ad13a90	0.0015962888
104	0x3da6149f	0.08109402
105	0xbca0388e	-0.019558217
106	0x3dfe8760	0.124281645
107	0x3e39dd3e	0.18150803
108	0x3d2c022d	0.041994262
109	0x3cb152dc	0.021645956
110	0x3d190129	0.037354622
111	0x3da81e3c	0.08208892
112	0x3d2d32bd	0.042284716
113	0x3c204fdd	0.009784666
114	0x3c151591	0.00909938
115	0x3ba04e7a	0.0048921676
116	0x3da87fb8	0.082274854
117	0xbce7be42	-0.028288964
118	0xbce1e4e3	-0.027574962
119	0xbd08fac7	-0.033442285
120	0x3e05a738	0.1305207
121	0xbdcd5bee	-0.100273
122	0xbe2e2346	-0.17005643
123	0xbd267ae7	-0.040644553
124	0xbb62ee2a	-0.003462682
125	0xbe2edf28	-0.17077315
126	0xbe25d71f	-0.16195343
127	0x3e2c47ad	0.16824217
128	0x3e20c952	0.15701798
129	0x3e2c0a90	0.16800904
130	0xbdb88899	-0.09010429
131	0xbcec62d9	-0.028855728
132	0xbd7bc9ca	-0.061471738
133	0xbe2c8c85	-0.16850479
134	0x3e000105	0.12500389
135	0xbec80389	-0.39065197
136	0x3e61a1f9	0.22034444
137	0xbdb27656	-0.08713977
138	0xbdbdb214	-0.09262481
139	0xbe2a8eb0	-0.16655993
140	0xbe273d1b	-0.16331904
141	0xbe2d61a4	-0.16931778
142	0x3d823520	0.06357789
143	0xbd85088b	-0.0649577
144	0xbe24b3c7	-0.16084205
145	0xbccae021	-0.024765076
146	0x3d2ba2ca	0.041903295
147	0x3d793a79	0.06084678
148	0xbdb90d64	-0.09035757
149	0x3e35f797	0.1777023
150	0xbdbbd131	-0.091707595
151	0xbe2bcc4c	-0.16777152
152	0xbdb215db	-0.08695575
153	0x3e61455d	0.21999116
154	0x3d89cec5	0.06728891
155	0xbd8aa816	-0.06770341
156	0xbe295f89	-0.1654035
157	0x3cdfcece	0.027320292
158	0xbb00e01a	-0.0019664825
159	0x3dfa230e	0.122137174
160	0xbf1b9670	-0.60776424
161	0xbdeb283b	-0.11482283
162	0x3e1aa8f3	0.15103512
163	0xbe1db10f	-0.15399574
164	0xbe135d7a	-0.14391127
165	0x3e1fb1a3	0.15595107
166	0x3e1a9fa0	0.15099955
167	0xbe17810d	-0.14795323
168	0xbe1ab876	-0.15109429
169	0xbe168c48	-0.1470195
170	0x3df3d662	0.11906125
171	0xbe070216	-0.1318439
172	0x3e39e533	0.18153839
173	0x3e149690	0.1451056
174	0xbdcc9f8c	-0.09991369
175	0x3d87d5d7	0.066325836
176	0xbe38778c	-0.18014354
177	0x3df78879	0.12086577
178	0x3df3e141	0.11908198
179	0x3e1951a5	0.14972551
180	0x3e18cfa2	0.14922956
181	0x3e186b8d	0.14884777
182	0xbe8bdcf8	-0.27317023
183	0x3ef429c9	0.4768813
184	0x3e15809d	0.14599843
185	0xbdf2fea9	-0.11864979
186	0xbca69002	-0.02033234
187	0x3d926306	0.071477935
188	0x3deddfe1	0.11614967
189	0xbe1c2932	-0.1525009
190	0x3df537c4	0.11973527
191	0x3e16d6e1	0.14730407
192	0x3dfb1b39	0.12261052
193	0xbe37f080	-0.17962837
194	0xbe8d4bc0	-0.27596855
195	0x3ef31577	0.47477314
196	0x3e1835d7	0.14864288
197	0x3d691710	0.05690676
198	0x3d9680c0	0.07348776
199	0xbdc80ab6	-0.09767668
200	0x3da8cfe5	0.08242778
201	0x3e0df062	0.1386123
202	0xbdd350f1	-0.10318173
203	0x3dbb3434	0.09140816
204	0x3e280c29	0.16410889
205	0xbddceb5f	-0.10787081
206	0xbdb7a95a	-0.08967848
207	0x3dce5f29	0.10076744
208	0x3dcbbf18	0.099485576
209	0x3dd8577f	0.105635636
210	0xbe14574e	-0.14486429
211	0x3c5d219c	0.013496783
212	0xbd84cb02	-0.06484033
213	0xbdd5f112	-0.10446371
214	0xbdbe82e9	-0.09302313
215	0xbe1d613d	-0.15369125
216	0x3c700869	0.014650443
217	0xbe11ff1e	-0.14257476
218	0xbe17a95b	-0.14810698
219	0xbdd60515	-0.10450188
220	0xbdd71cec	-0.10503563
221	0xbdd46509	-0.103708334
222	0x3e484bff	0.1956024
223	0xbd227d63	-0.03967036
224	0xbdd1ce58	-0.10244435
225	0x3d61e574	0.055150464
226	0xbc14c5b4	-0.009080339
227	0xbc9103aa	-0.017701942
228	0xbe15367a	-0.14571562
229	0xbc7b370b	-0.0153329475
230	0xbe1044d9	-0.14088763
231	0xbdd190d3	-0.10232701
232	0xbe12021a	-0.14258614
233	0x3ca106b5	0.019656518
234	0x3e458003	0.19287114
235	0xbd14858e	-0.03626018
236	0xbdd11deb	-0.102107845
237	0x3a507988	0.000795268
238	0xbd3ce4f4	-0.046116784
239	0xbdbe60fd	-0.09295843
240	0xbe17dfed	-0.14831515
241	0xbd8313cd	-0.06400261
242	0x3e19c0e2	0.15014985
243	0xbe6a0ddf	-0.22856854
244	0xbdd238fd	-0.10264776
245	0x3e1d62a4	0.1536966
246	0x3e3cbf19	0.18432273
247	0xbe21178b	-0.15731637
248	0xbe3f414c	-0.18677253
249	0xbe1d4543	-0.15358452
250	0x3e2ff36b	0.171827
251	0x3c295084	0.010334138
252	0x3e08d5e2	0.1336284
253	0x3e230ce5	0.15922888
254	0x3e82d174	0.25550425
255	0x3de1691f	0.110063784

lstm.weight_hh_l0 f4 [600, 150]
0	0xbedd45e9	-0.432174
1	0x3e247909	0.16061796
2	0x3e9a5450	0.3014245
3	0xbccc0765	-0.02490587
4	0xbe95e693	-0.29277477
5	0xbd9d43a1	-0.07678915
6	0xbb32f2da	-0.0027305395
7	0xbeae8d10	-0.34091997
8	0x3d12e970	0.035867155
9	0xbd5cf393	-0.053943228
10	0xbe09ba1c	-0.13449901
11	0x3f4e2d69	0.8053804
12	0x3eb34256	0.35011548
13	0xbf2dbb9d	-0.678644
14	0x3decf191	0.11569513
15	0x3f7e1b76	0.9926065
16	0x3e99028f	0.29884765
17	0xbedccfc1	-0.43127254
18	0xbf4192b4	-0.75614476
19	0xbe880ade	-0.2657079
20	0xbf455609	-0.77084404
21	0x3dc35bba	0.0953898
22	0x3efb149d	0.49039164
23	0xbe4573ed	-0.19282503
24	0x3caa53fa	0.020791996
25	0xbe9c9bcd	-0.30587617
26	0x3f1f956f	0.6233739
27	0x3e2f05c3	0.17092042
28	0x3ec09355	0.37612405
29	0xbcc35966	-0.02384634
30	0xbf0dd263	-0.5539915
31	0xbe19f10a	-0.15033355
32	0xbf0aa9d7	-0.54165405
33	0xbeac873c	-0.33696926
34	0x3e96a1e2	0.29420382
35	0xbe18d277	-0.14924036
36	0x3e5df789	0.21676458
37	0x3f03463e	0.51279056
38	0x3ee9e98a	0.4568599
39	0x3da38388	0.07984072
40	0x3cffe09a	0.031235028
41	0xbecdbf95	-0.40185228
42	0x3f967079	1.1753074
43	0xbf23d0d4	-0.6399052
44	0xbf1bfad7	-0.60929626
45	0xbd8878b2	-0.06663646
46	0x3ef01886	0.4689371
47	0x3dd20be2	0.10256173
48	0x3f1fcb1b	0.6241929
49	0x3ea59209	0.32337978
50	0xbd8bf665	-0.068341054
51	0xbdb0a6fb	-0.08625599
52	0x3df47b6a	0.11937602
53	0x3ee6af3f	0.45055577
54	0x3d576129	0.052582894
55	0xbed72015	-0.42016664
56	0xbd4b6fdc	-0.049667224
57	0x3ef743f0	0.4829402
58	0x3f3bf42c	0.7341945
59	0xbe15829b	-0.14600603
60	0x3c728a80	0.014803529
61	0x3f0c3e70	0.5478277
62	0x3e30270f	0.172024
63	0xbed48c8a	-0.41513473
64	0xbee7fb4f	-0.4530892
65	0xbf2d8a99	-0.6778961
66	0x3ea60793	0.32427654
67	0xbcee1e15	-0.029067079
68	0xbe6358c1	-0.22201826
69	0xbe59a94d	-0.2125599
70	0x3e813166	0.25233
71	0xbeaf398f	-0.342236
72	0x3ed0d775	0.4078938
73	0xbd630824	-0.055427685
74	0x3ef070c5	0.46961036
75	0xbef63e48	-0.48094392
76	0x3bcce92b	0.0062533817
77	0x3e438ee6	0.1909748
78	0x3ea2c811	0.31793264
79	0x3ec5dc63	0.38644704
80	0x3f297fc5	0.66210586
81	0x3ecef5e6	0.4042198
82	0xbe69f518	-0.22847402
83	0xbed4e93e	-0.415842
84	0x3f42c89e	0.7608737
85	0xbdd6b5b8	-0.10483879
86	0xbf0441ae	-0.5166272
87	0xbd797ffe	-0.06091308
88	0x3e8f272c	0.27959573
89	0xbfc6b598	-1.5524168
90	0xbe9f8aa5	-0.31160465
91	0x3e871e19	0.2639015
92	0x3efa45aa	0.48881274
93	0xbf388e35	-0.7209199
94	0x3ebebd4b	0.37253794
95	0xbd74488b	-0.059639495
96	0x3ed7de9d	0.42162028
97	0x3e74033e	0.23829362
98	0xbe8c28e8	-0.2737496
99	0x3d5b675e	0.053565376
100	0xbcecf0c7	-0.028923405
101	0x3e5a1ca0	0.21299982
102	0x3d88ff41	0.06689311
103	0xbeb887a9	-0.36041
104	0xbe6c19f6	-0.23056778
105	0x3df09e73	0.11748972
106	0xbf12685a	-0.5719048
107	0x3f188628	0.59579706
108	0x3d596222	0.053072102
109	0xbcc882e7	-0.024476482
110	0xbf25b1d1	-0.6472445
111	0x3d883713	0.066511296
112	0x3e3f43cf	0.1867821
113	0x3e4d77d6	0.20065245
114	0x3efc6e5d	0.4930295
115	0xbf0031de	-0.5007609
116	0xbdd0ae27	-0.10189467
117	0x3ede868c	0.43462026
118	0xbe844832	-0.2583633
119	0x3f4c56f6	0.7982019
120	0xbef1eb2e	-0.4724974
121	0x3f002555	0.50056964
122	0xbd566987	-0.052346732
123	0xbd0a872c	-0.033820316
124	0x3eb306d4	0.34966147
125	0xbf1c9f04	-0.6118014
126	0xbde01b76	-0.10942738
127	0xbd272778	-0.040809125
128	0x3f479329	0.77958924
129	0x3ef6d602	0.4821015
130	0x3eeaf9b5	0.45893636
131	0xbec593aa	-0.3858922
132	0x3e6e5657	0.23275124
133	0x3da1ae75	0.07894603
134	0x3f24f1e7	0.64431614
135	0x3f6d5360	0.92705345
136	0xbed758a5	-0.42059818
137	0xbda63e49	-0.08117349
138	0xbe0fe8fe	-0.14053723
139	0x3e128f78	0.14312541
140	0xbe3507cc	-0.17678756
141	0x3ecda287	0.4016306
142	0xbea4a74e	-0.32158893
143	0xbe872c13	-0.26400813
144	0x3f19134e	0.5979508
145	0x3e79af0a	0.24383178
146	0x3c3e0141	0.011596979
147	0x3ef3820f	0.47560164
148	0xbed551c3	-0.41663942
149	0xbeb150c7	-0.3463194
150	0x3c20a0d3	0.0098039685
151	0x3f02de29	0.5112024
152	0x3efaefb6	0.4901101
153	0xbc93705c	-0.017997913
154	0xbf299865	-0.6624816
155	0x3b6b98a1	0.0035949128
156	0x3c6ea672	0.014566051
157	0xbad81fe0	-0.0016488992
158	0xbb89092d	-0.004182002
159	0x3d59ceb7	0.053175654
160	0xbeb07d70	-0.344707
161	0x3d116bf7	0.035503354
162	0xbf1564d7	-0.58356994
163	0xbd60bf27	-0.054869797
164	0xbc8d2217	-0.01722817
165	0xbc6e88eb	-0.014559011
166	0x3e377251	0.17914702
167	0xbec23ba8	-0.3793614
168	0xbf043887	-0.51648754
169	0xbee66273	-0.44996986
170	0xbf1956b4	-0.59897923
171	0xbc9d8752	-0.019229565
172	0x3f19c193	0.60060996
173	0x3c624349	0.013809987
174	0xbc329978	-0.010900848
175	0x3e8f337c	0.27968967
176	0xbca0e5aa	-0.019640762
177	0x3c65fc17	0.014037154
178	0x3e590cdd	0.21196313
179	0x3c2dae48	0.010600634
180	0xbf0c90db	-0.5490853
181	0xbc836dbf	-0.016043542
182	0x3c7429fd	0.014902589
183	0x3e4b59b7	0.19858442
184	0xbd00f85f	-0.031486865
185	0x3c8fa89f	0.01753646
186	0x3e9d784f	0.3075585
187	0x3ed6bd8c	0.41941488
188	0x3a363e05	0.00069519907
189	0x3dfa4aa7	0.1222127
190	0x3c1dd4a3	0.009633216
191	0x3e202bf3	0.15641765
192	0x3f0c7061	0.54858977
193	0x3d80c71f	0.06287979
194	0xbee240a2	-0.44189936
195	0x3c108300	0.008820295
196	0x3f2342a1	0.6377354
197	0xbdfcf675	-0.123516954
198	0x3f2413fb	0.6409299
199	0xbef9a828	-0.48761106
200	0x3dd89b6e	0.10576521
201	0xbed62675	-0.41826215
202	0xbe78c9d9	-0.24295749
203	0x3bacdea6	0.005275565
204	0x3d067f36	0.03283616
205	0xbf2ed89d	-0.68299276
206	0x3cbe279c	0.023212247
207	0x3f03eb92	0.51531327
208	0xbece77ec	-0.40325868
209	0x3f1a5a07	0.6029362
210	0xbd5f4c46	-0.0545161
211	0x3f2059b0	0.6263685
212	0x3f22d15c	0.6360071
213	0xbf1acba8	-0.60467005
214	0x3bcc9dab	0.0062443814
215	0xbf2a5dcf	-0.6654939
216	0xbdcf501d	-0.10122702
217	0x3e965015	0.29357973
218	0xbd0d7293	-0.034533095
219	0xbf11ffd3	-0.5703098
220	0x3eb7ec4c	0.35922468
221	0x3c5a0bc1	0.013308466
222	0xb93ac0c0	-0.00017810147
223	0xbd7ad348	-0.06123665
224	0x3edcdbad	0.4313635
225	0xbf20d5d8	-0.628263
226	0x3beac763	0.007164882
227	0x3f0122d1	0.5044375
228	0x3f0a98d1	0.5413943
229	0x3f183ec3	0.59470767
230	0x3f0c7912	0.5487224
231	0x3f09c425	0.5381492
232	0xbd8f5cb6	-0.07000105
233	0xbd987b71	-0.074454196
234	0xbe38832a	-0.18018785
235	0x3c1cdd3e	0.009574233
236	0xbf2a83dd	-0.6660746
237	0xbd51b423	-0.051197182
238	0xbf2a987e	-0.66638935
239	0xbbe3f555	-0.006956736
240	0xbf12f395	-0.57402927
241	0xbf69d628	-0.913424
242	0x3ecf1eab	0.40453085
243	0xbf23ebc2	-0.6403161
244	0x3eca8cb4	0.39560473
245	0x3dc0d560	0.09415698
246	0x3f1d6113	0.6147625
247	0x3f1449f1	0.57925326
248	0xbc791153	-0.015201884
249	0xbc5719ca	-0.013128707
250	0xbd414b2d	-0.047190834
251	0xbd73536a	-0.05940572
252	0x3f19839d	0.5996645
253	0xbe3c77e2	-0.18405107
254	0x3bed8240	0.007248193
255	0xbc877fae	-0.016540375

lstm.bias_ih_l0 f4 [600]
0	0xbe64eb09	-0.22355284
1	0xbee99e11	-0.45628408
2	0x3da9c0d2	0.08288731
3	0xbe28fbdd	-0.16502328
4	0x3e1a4ac1	0.15067579
5	0xbdcc809e	-0.09985469
6	0x3e1e5c9e	0.15465018
7	0xbf48afc1	-0.7839318
8	0xbeafeb05	-0.34358993
9	0xbe521385	-0.20515259
10	0x3d0d1e55	0.034452755
11	0x3e85429b	0.26027378
12	0x3f035546	0.5130199
13	0x3e6b8fd4	0.23004085
14	0xbe8d34ec	-0.2757944
15	0x3ea0a15c	0.31373107
16	0x3e8718d6	0.26386136
17	0x3ea4a3aa	0.32156116
18	0xbf125915	-0.5716718
19	0xbf53ad99	-0.82686764
20	0x3ef45e7f	0.47728345
21	0xbd050cc9	-0.032482896
22	0x3f29747e	0.6619338
23	0xbe875fdc	-0.26440322
24	0xbe804cc2	-0.25058562
25	0xbd98f1f4	-0.07468024
26	0xbe0bbb8b	-0.1364576
27	0xba3f0d6a	-0.00072880706
28	0x3e9ee212	0.31031853
29	0xbeaccec4	-0.337515
30	0x3dc5b9cd	0.09654579
31	0xbe946cdd	-0.28989306
32	0x3d653f56	0.055968605
33	0xbe446a1a	-0.191811
34	0x3ef35a36	0.47529763
35	0x3cc66a9f	0.024220763
36	0x3b9b482e	0.004738829
37	0x3ddece0e	0.108791456
38	0xbe217ed2	-0.15771034
39	0x3e84c248	0.25929475
40	0x3eae40a7	0.340337
41	0xbecece40	-0.4039173
42	0x3e118299	0.14209975
43	0x3d8ce9cd	0.068805315
44	0x3e200116	0.15625414
45	0xbe0f50a9	-0.13995613
46	0x3f066263	0.52493876
47	0xbe6c98e6	-0.23105201
48	0x3e51b2cc	0.20478362
49	0xbf42bc26	-0.7606834
50	0xbda75622	-0.081707254
51	0x3e8071d1	0.25086835
52	0xbe1da521	-0.15395023
53	0xbdde5a20	-0.10857034
54	0xbdde1d36	-0.10845415
55	0x3e49f432	0.1972206
56	0xbc8706b3	-0.016482687
57	0x3e31ac8f	0.17350982
58	0x3e99362b	0.2992414
59	0x3e1fbd5b	0.15599577
60	0x3df6a692	0.120434895
61	0x3dc0b305	0.09409145
62	0xbcdb1c0c	-0.026746772
63	0x3f09e4d8	0.5386481
64	0x3e0a4c26	0.13505611
65	0x3f1aa42f	0.60406774
66	0x3e5a4dda	0.2131876
67	0xbe8f339f	-0.2796907
68	0xbe98dacf	-0.29854438
69	0x3ee1a7dc	0.4407338
70	0x3e1c2225	0.152474
71	0x3c82efa4	0.01598341
72	0x3df75df4	0.12078467
73	0x3cb575d5	0.022150913
74	0x3f616142	0.8803903
75	0x3eac6a48	0.33674836
76	0x3e00aea4	0.1256662
77	0xbe0a1a07	-0.13486491
78	0x3e9bd9af	0.30439517
79	0x3f016dcf	0.5055818
80	0x3e0e1100	0.13873672
81	0x3f149d5b	0.58052605
82	0xbd77412f	-0.0603649
83	0xbdbf8814	-0.09352127
84	0x3eb08db4	0.3448311
85	0xbde097cd	-0.10966454
86	0xbebe1f81	-0.3713341
87	0xbf04bb0b	-0.51847905
88	0x3ecb1209	0.39662197
89	0xbd96f817	-0.07371538
90	0x3e3611fe	0.17780301
91	0xbf391516	-0.722978
92	0x3e83ed8b	0.25767168
93	0x3d8c73d4	0.0685803
94	0xbe8cd889	-0.27508953
95	0xbe608964	-0.2192741
96	0x3e10612b	0.14099567
97	0x3da25ab0	0.079274535
98	0x3c62b40e	0.013836874
99	0xbdb56fe7	-0.08859234
100	0x3d95b15d	0.0730922
101	0x3e5d31ec	0.21601075
102	0xbea75f21	-0.32689765
103	0xbee05135	-0.43811956
104	0xbfef4190	-1.8691883
105	0xbb9229bc	-0.0044605415
106	0x3f47e910	0.7809
107	0x3c336877	0.010950199
108	0xbddfc4e7	-0.10926228
109	0xbd30b2b0	-0.04313916
110	0xbead17bd	-0.33807173
111	0xbcc5689c	-0.024097733
112	0xbe92b307	-0.28652212
113	0x3e99e9ca	0.3006118
114	0x3e2bcf48	0.1677829
115	0xbe7c5f4d	-0.2464573
116	0x3d6c40ee	0.05767911
117	0x3f2b4baa	0.6691233
118	0x3e744408	0.23854077
119	0x3f504ec6	0.813702
120	0x3e81b40e	0.25332683
121	0x3e7e8508	0.24855435
122	0xbe44ddbf	-0.19225214
123	0xbe8934e6	-0.2679817
124	0x3f1522d8	0.5825629
125	0x3fb92bc1	1.4466478
126	0x3ba55a8c	0.0050461944
127	0x3e8c8db0	0.2745185
128	0xbf13cd4a	-0.5773512
129	0xbd8ec732	-0.06971587
130	0x3d92d08d	0.07168684
131	0x3ee37d10	0.44431353
132	0x3d912b28	0.070883095
133	0xbdb918a6	-0.090379044
134	0x3f42c006	0.76074255
135	0x3de1c2ec	0.110235065
136	0x3f3ffb6b	0.7499301
137	0xbf4a4260	-0.7900753
138	0xbbf12248	-0.007358823
139	0xbe2fa8d4	-0.17154247
140	0xbeba2771	-0.36358216
141	0x3eab5a7a	0.33467466
142	0x3eacd3da	0.3375538
143	0x3e80310a	0.25037414
144	0xbd23d612	-0.039999075
145	0x3dcf826c	0.10132298
146	0xbcf3de4c	-0.029769085
147	0x3f14f179	0.5818096
148	0xbf603de1	-0.8759442
149	0xbf8c44b9	-1.0958472
150	0xbf0dc65a	-0.55380785
151	0xbe00da5d	-0.12583299
152	0xbe3148f6	-0.17312989
153	0xbdba3e31	-0.09093893
154	0xbf135f90	-0.5756769
155	0xbe392bd2	-0.18083122
156	0x3dbf416d	0.09338651
157	0x3f06fc5f	0.5272884
158	0xbea9a946	-0.33136958
159	0xbe8efaa1	-0.2792559
160	0x3ec4969f	0.38396165
161	0x3f406cdd	0.7516611
162	0x3e2f49e3	0.1711803
163	0xbe0c2aad	-0.13688155
164	0xbd6900d8	-0.05688557
165	0xbf04364c	-0.5164535
166	0xbed0a80b	-0.40753207
167	0xbf23d2d0	-0.6399355
168	0xbf82b509	-1.0211498
169	0xbe4c652c	-0.19960469
170	0x3ea556be	0.32292742
171	0xbcc3f9c7	-0.023922814
172	0x3e87f5dd	0.26554766
173	0x3ef88a3b	0.4854296
174	0xbd7bf333	-0.06151123
175	0xbe0d6ab1	-0.13810231
176	0xbdd6aa8a	-0.104817465
177	0xbd7e7249	-0.06212071
178	0xbe0ce975	-0.13760932
179	0xbe30a87b	-0.1725177
180	0xbe2b550b	-0.1673166
181	0xbea26f33	-0.31725463
182	0xbe891f74	-0.2678181
183	0xbeffca7d	-0.49959174
184	0x3d49ebc2	0.0492971
185	0xbdc134bc	-0.094338864
186	0x3e04c93c	0.1296739
187	0xbcdcd904	-0.02695895
188	0xbdcf82ae	-0.10132347
189	0xbea6a469	-0.3254731
190	0x3e696f42	0.22796348
191	0x3e995f41	0.29955485
192	0x3f02febd	0.5116995
193	0xbec54b8f	-0.3853421
194	0xbe2d14d5	-0.16902478
195	0xbee84757	-0.45366928
196	0x3eaceb5a	0.3377331
197	0xbd8c991d	-0.068651415
198	0x3ef3b122	0.4759608
199	0x3e2354dc	0.1595034
200	0xbde946df	-0.11390471
201	0xbea2b90b	-0.31781802
202	0xbdd420d8	-0.10357827
203	0x3e17d396	0.14826807
204	0x3e416d89	0.1888944
205	0xbec25007	-0.3795168
206	0xbd81d6e1	-0.06339813
207	0x3d0fb174	0.035081342
208	0x3eb45ec8	0.35228562
209	0xbe2addb9	-0.16686143
210	0xbe609366	-0.21931228
211	0xbebcf586	-0.3690607
212	0xbf04195f	-0.51601213
213	0x3f55135d	0.8323267
214	0xbe8d019e	-0.27540296
215	0xbe8e073c	-0.27739894
216	0x3f5331e4	0.82498
217	0x3f076f0b	0.52903813
218	0x3d12dff1	0.0358581
219	0x3e99fc5f	0.30075356
220	0xbea9fb9d	-0.33199778
221	0xbf65744f	-0.896306
222	0xbee5321d	-0.44764796
223	0x3cce8b0f	0.025212793
224	0x3edf4f53	0.43615207
225	0x3e01fb9d	0.12693639
226	0xbd88dbd5	-0.06682555
227	0xbeade574	-0.3396412
228	0xbe9256f7	-0.28581974
229	0xbf092c38	-0.535831
230	0xbe01281d	-0.12612958
231	0x3e7f02c9	0.24903406
232	0x3e032558	0.12807214
233	0xbc8e0d25	-0.017340252
234	0xbe970d78	-0.29502463
235	0xbe0e34b7	-0.13887297
236	0x3ddf65db	0.10908099
237	0xbe3d8c9f	-0.18510674
238	0x3f887c1c	1.0662875
239	0xbe1f8e3f	-0.15581606
240	0x3e8e21d6	0.2776019
241	0xbe03022e	-0.127938
242	0x3e7355ab	0.23763148
243	0x3e48fa94	0.19626838
244	0x3e8bad29	0.27280548
245	0x3d27b2de	0.040942065
246	0x3ef1003c	0.4707049
247	0xbef683cf	-0.48147437
248	0xbedc2be7	-0.43002245
249	0xbe12a721	-0.14321567
250	0xbd29d53a	-0.041463114
251	0x3e8f64cd	0.28006592
252	0x3e77495c	0.24149078
253	0xbee30d9b	-0.44346318
254	0xbeff0939	-0.49811724
255	0xbdfb461f	-0.12269234

lstm.bias_hh_l0 f4 [600]
0	0xbe65b522	-0.22432378
1	0xbee8daa0	-0.45479298
2	0x3da7cff8	0.08193964
3	0xbe2c1752	-0.16805771
4	0x3e16c59b	0.14723818
5	0xbdcf2691	-0.10114778
6	0x3e1fdbf7	0.15611254
7	0xbf486ed8	-0.78294134
8	0xbeb198fa	-0.34687024
9	0xbe51cf88	-0.20489323
10	0x3d083411	0.03325278
11	0x3e82c4bd	0.25540724
12	0x3f035b7f	0.51311487
13	0x3e69c478	0.22828853
14	0xbe8cb46e	-0.27481407
15	0x3e9f51d2	0.3111711
16	0x3e86d426	0.2633373
17	0x3ea4106c	0.3204378
18	0xbf128a57	-0.5724234
19	0xbf538a37	-0.82632774
20	0x3ef41dc1	0.4767895
21	0xbd0465ed	-0.032323766
22	0x3f2925c2	0.6607324
23	0xbe8720a0	-0.26392078
24	0xbe816063	-0.2526885
25	0xbd9668de	-0.073442206
26	0xbe0db9b5	-0.13840373
27	0xbad8dffe	-0.0016546247
28	0x3e9f5a50	0.3112359
29	0xbead2d7f	-0.33823773
30	0x3dc49f53	0.09600701
31	0xbe9253fa	-0.28579694
32	0x3d5fb958	0.054620117
33	0xbe47e387	-0.19520389
34	0x3ef07506	0.46964282
35	0x3ce74cf6	0.02823494
36	0x3b78ac43	0.0037944473
37	0x3dd36d72	0.103236094
38	0xbe2731cf	-0.16327594
39	0x3e851c0f	0.2599797
40	0x3eaeba76	0.34126633
41	0xbece6c8e	-0.40317196
42	0x3e0fd945	0.14047725
43	0x3d817006	0.06320195
44	0x3e1f3c51	0.15550353
45	0xbe0f320e	-0.13983938
46	0x3f05b8d2	0.5223514
47	0xbe70332b	-0.23457019
48	0x3e515425	0.20442255
49	0xbf433678	-0.7625499
50	0xbda7f386	-0.08200745
51	0x3e7e31b0	0.24823642
52	0xbe183488	-0.14863789
53	0xbddd3ce5	-0.1080263
54	0xbde37ab5	-0.11107389
55	0x3e471c3c	0.19444364
56	0xbc9ece13	-0.019385373
57	0x3e31e7cc	0.1737358
58	0x3e98f5f0	0.29875135
59	0x3e1f8dc8	0.15581429
60	0x3dfff76c	0.12498364
61	0x3dc9c63b	0.098522626
62	0xbcd3a9b0	-0.02583775
63	0x3f0aed54	0.54268384
64	0x3e073682	0.13204387
65	0x3f1b11db	0.6057412
66	0x3e5e259c	0.21694034
67	0xbe8e006d	-0.277347
68	0xbe98c5e4	-0.2983848
69	0x3ee1d694	0.44109023
70	0x3e16e294	0.1473487
71	0x3c8dd81b	0.017314961
72	0x3dfbc5a9	0.1229356
73	0x3cc57f2d	0.024108494
74	0x3f5ffff9	0.8749996
75	0x3eabfd36	0.33591622
76	0x3df83dd5	0.121211685
77	0xbe079aa9	-0.13242592
78	0x3e9d2e6e	0.30699486
79	0x3f017ec4	0.50584054
80	0x3e0c97da	0.13729802
81	0x3f1476f0	0.57993984
82	0xbd7b2f7f	-0.061324593
83	0xbdc05735	-0.093916334
84	0x3eb13955	0.34614053
85	0xbde0f7c1	-0.10984755
86	0xbebba748	-0.36651063
87	0xbf048187	-0.51760143
88	0x3ecdb508	0.40177178
89	0xbd996c6b	-0.07491382
90	0x3e3a09e1	0.18167831
91	0xbf38751b	-0.7205369
92	0x3e8432ea	0.25820094
93	0x3d833583	0.06406691
94	0xbe8c5a16	-0.2741248
95	0xbe63e703	-0.22256093
96	0x3e134948	0.14383423
97	0x3da03ce3	0.07824113
98	0x3c9457f3	0.018108344
99	0xbdbd440e	-0.09241496
100	0x3d8f19eb	0.06987365
101	0x3e5d817b	0.21631424
102	0xbea75a7a	-0.32686216
103	0xbede7c96	-0.43454427
104	0xbfef18f0	-1.8679485
105	0xbaa1e3bb	-0.0012351194
106	0x3f47cf15	0.7805036
107	0x3c0222ac	0.007942837
108	0xbddf73cb	-0.10910758
109	0xbd38b965	-0.04509868
110	0xbeadc71b	-0.33940968
111	0xbcea448c	-0.028597139
112	0xbe9194e8	-0.2843392
113	0x3e9a025c	0.30079925
114	0x3e2e13c2	0.16999725
115	0xbe7b93a3	-0.24568038
116	0x3d6feb63	0.05857409
117	0x3f2bc291	0.6709376
118	0x3e708b1f	0.2349057
119	0x3f514189	0.81740624
120	0x3e7f23f7	0.24916063
121	0x3e7fab4c	0.24967688
122	0xbe446417	-0.19178806
123	0xbe8b4c2a	-0.27206546
124	0x3f151682	0.5823747
125	0x3fb9764c	1.4489226
126	0x3ab90057	0.0014114481
127	0x3e8b371a	0.27190477
128	0xbf13e011	-0.57763773
129	0xbd931a23	-0.071827196
130	0x3d9a0869	0.07521135
131	0x3ee331fb	0.4437407
132	0x3d9a6ed9	0.07540674
133	0xbdb808d0	-0.08986056
134	0x3f42be0e	0.7607125
135	0x3dda0e23	0.106472276
136	0x3f3f41e6	0.7470993
137	0xbf499591	-0.78743845
138	0xbc380470	-0.011231527
139	0xbe2e8fe2	-0.17047074
140	0xbeba4513	-0.36380824
141	0x3eab7e8e	0.3349499
142	0x3eab422f	0.33448932
143	0x3e7e4fab	0.24835078
144	0xbd3afd2a	-0.045651592
145	0x3dd42569	0.10358698
146	0xbd0543a2	-0.032535203
147	0x3f14c6d7	0.58115906
148	0xbf61126f	-0.8791875
149	0xbf8b8e7f	-1.0902861
150	0xbf0c37db	-0.5477273
151	0xbe02fc4f	-0.1279156
152	0xbe2fe289	-0.1717626
153	0xbdb77227	-0.0895732
154	0xbf133e12	-0.57516587
155	0xbe360383	-0.17774777
156	0x3db803b3	0.089850806
157	0x3f06e2c2	0.52689755
158	0xbea9d235	-0.33168188
159	0xbe8f270e	-0.27959484
160	0x3ec40fca	0.38293296
161	0x3f41e815	0.75744754
162	0x3e2d4990	0.16922593
163	0xbe0e15e4	-0.13875538
164	0xbd693f5b	-0.056945186
165	0xbf03cbb7	-0.5148272
166	0xbece92e3	-0.4034644
167	0xbf23bffb	-0.63964814
168	0xbf81f724	-1.0153546
169	0xbe4cdad7	-0.20005356
170	0x3ea64286	0.32472628
171	0xbcb7ceb5	-0.022437433
172	0x3e8918f9	0.26776865
173	0x3ef81619	0.4845436
174	0xbd816b1f	-0.0631926
175	0xbe0c8d19	-0.137257
176	0xbdd34f6a	-0.103178814
177	0xbd7ab0c1	-0.061203722
178	0xbe0db288	-0.13837636
179	0xbe3299ad	-0.17441435
180	0xbe28debb	-0.16491215
181	0xbea2c724	-0.31792557
182	0xbe87a29a	-0.26491243
183	0xbefd1dee	-0.49436897
184	0x3d4fad83	0.050702583
185	0xbdbbda9c	-0.09172556
186	0x3e07d92d	0.1326644
187	0xbcd25f1f	-0.025680123
188	0xbdd16098	-0.10223502
189	0xbea71011	-0.32629445
190	0x3e66133c	0.22468275
191	0x3e9a7e0c	0.3017429
192	0x3f0262aa	0.509318
193	0xbec28796	-0.3799407
194	0xbe2f0012	-0.1708987
195	0xbee7f183	-0.45301446
196	0x3eaa34f3	0.33243522
197	0xbd8e778f	-0.06956398
198	0x3ef4fddd	0.47849932
199	0x3e207768	0.1567055
200	0xbdf15fbb	-0.11785837
201	0xbe9ff48c	-0.31241262
202	0xbdca785a	-0.098862365
203	0x3e139782	0.14413264
204	0x3e3fe1e5	0.18738516
205	0xbec30fbf	-0.3809795
206	0xbd7d640c	-0.06186299
207	0x3d1160e2	0.035492785
208	0x3eb2bc81	0.34909442
209	0xbe2b2640	-0.1671381
210	0xbe5ca9de	-0.21549174
211	0xbebf7a20	-0.3739786
212	0xbf045f1a	-0.51707613
213	0x3f53bcaf	0.82709783
214	0xbe8d2991	-0.27570775
215	0xbe8d3b1b	-0.27584156
216	0x3f52be67	0.8232178
217	0x3f078617	0.5293898
218	0x3d0df0c9	0.03465346
219	0x3e9a2294	0.30104506
220	0xbeab2449	-0.3342612
221	0xbf64719c	-0.89235854
222	0xbee3eee0	-0.44518185
223	0x3cd2cdce	0.025732901
224	0x3edda151	0.43287137
225	0x3dfe43af	0.12415253
226	0xbd84694f	-0.064653985
227	0xbeaeba6d	-0.34126607
228	0xbe92573d	-0.28582183
229	0xbf08a72a	-0.5338007
230	0xbe01d4af	-0.12678789
231	0x3e7bb079	0.24579038
232	0x3e011e44	0.12609202
233	0xbc91fa2a	-0.017819483
234	0xbe987deb	-0.29783568
235	0xbe127dd1	-0.14305808
236	0x3de13b32	0.10997619
237	0xbe39ce90	-0.18145204
238	0x3f886789	1.0656596
239	0xbe1d146e	-0.15339825
240	0x3e8f1604	0.27946484
241	0xbe012995	-0.12613519
242	0x3e7465ca	0.23866954
243	0x3e4a4933	0.19754486
244	0x3e8c1351	0.27358487
245	0x3d297a64	0.041376486
246	0x3ef0c9f3	0.47029075
247	0xbef536c3	-0.47893342
248	0xbedc60b2	-0.43042523
249	0xbe15ee2f	-0.14641641
250	0xbd2b223e	-0.041780703
251	0x3e8e5168	0.27796483
252	0x3e78ddfc	0.2430343
253	0xbee14b05	-0.44002548
254	0xbefed18a	-0.4976924
255	0xbdfdb515	-0.12388054

layernorm.weight f4 [150]
0	0x3f800000	1.0
1	0x3f800000	1.0
2	0x3f800000	1.0
3	0x3f800000	1.0
4	0x3f800000	1.0
5	0x3f800000	1.0
6	0x3f800000	1.0
7	0x3f800000	1.0
8	0x3f800000	1.0
9	0x3f800000	1.0
10	0x3f800000	1.0
11	0x3f800000	1.0
12	0x3f800000	1.0
13	0x3f800000	1.0
14	0x3f800000	1.0
15	0x3f800000	1.0
16	0x3f800000	1.0
17	0x3f800000	1.0
18	0x3f800000	1.0
19	0x3f800000	1.0
20	0x3f800000	1.0
21	0x3f800000	1.0
22	0x3f800000	1.0
23	0x3f800000	1.0
24	0x3f800000	1.0
25	0x3f800000	1.0
26	0x3f800000	1.0
27	0x3f800000	1.0
28	0x3f800000	1.0
29	0x3f800000	1.0
30	0x3f800000	1.0
31	0x3f800000	1.0
32	0x3f800000	1.0
33	0x3f800000	1.0
34	0x3f800000	1.0
35	0x3f800000	1.0
36	0x3f800000	1.0
37	0x3f800000	1.0
38	0x3f800000	1.0
39	0x3f800000	1.0
40	0x3f800000	1.0
41	0x3f800000	1.0
42	0x3f800000	1.0
43	0x3f800000	1.0
44	0x3f800000	1.0
45	0x3f800000	1.0
46	0x3f800000	1.0
47	0x3f800000	1.0
48	0x3f800000	1.0
49	0x3f800000	1.0
50	0x3f800000	1.0
51	0x3f800000	1.0
52	0x3f800000	1.0
53	0x3f800000	1.0
54	0x3f800000	1.0
55	0x3f800000	1.0
56	0x3f800000	1.0
57	0x3f800000	1.0
58	0x3f800000	1.0
59	0x3f800000	1.0
60	0x3f800000	1.0
61	0x3f800000	1.0
62	0x3f800000	1.0
63	0x3f800000	1.0
64	0x3f800000	1.0
65	0x3f800000	1.0
66	0x3f800000	1.0
67	0x3f800000	1.0
68	0x3f800000	1.0
69	0x3f800000	1.0
70	0x3f800000	1.0
71	0x3f800000	1.0
72	0x3f800000	1.0
73	0x3f800000	1.0
74	0x3f800000	1.0
75	0x3f800000	1.0
76	0x3f800000	1.0
77	0x3f800000	1.0
78	0x3f800000	1.0
79	0x3f800000	1.0
80	0x3f800000	1.0
81	0x3f800000	1.0
82	0x3f800000	1.0
83	0x3f800000	1.0
84	0x3f800000	1.0
85	0x3f800000	1.0
86	0x3f800000	1.0
87	0x3f800000	1.0
88	0x3f800000	1.0
89	0x3f800000	1.0
90	0x3f800000	1.0
91	0x3f800000	1.0
92	0x3f800000	1.0
93	0x3f800000	1.0
94	0x3f800000	1.0
95	0x3f800000	1.0
96	0x3f800000	1.0
97	0x3f800000	1.0
98	0x3f800000	1.0
99	0x3f800000	1.0
100	0x3f800000	1.0
101	0x3f800000	1.0
102	0x3f800000	1.0
103	0x3f800000	1.0
104	0x3f800000	1.0
105	0x3f800000	1.0
106	0x3f800000	1.0
107	0x3f800000	1.0
108	0x3f800000	1.0
109	0x3f800000	1.0
110	0x3f800000	1.0
111	0x3f800000	1.0
112	0x3f800000	1.0
113	0x3f800000	1.0
114	0x3f800000	1.0
115	0x3f800000	1.0
116	0x3f800000	1.0
117	0x3f800000	1.0
118	0x3f800000	1.0
119	0x3f800000	1.0
120	0x3f800000	1.0
121	0x3f800000	1.0
122	0x3f800000	1.0
123	0x3f800000	1.0
124	0x3f800000	1.0
125	0x3f800000	1.0
126	0x3f800000	1.0
127	0x3f800000	1.0
128	0x3f800000	1.0
129	0x3f800000	1.0
130	0x3f800000	1.0
131	0x3f800000	1.0
132	0x3f800000	1.0
133	0x3f800000	1.0
134	0x3f800000	1.0
135	0x3f800000	1.0
136	0x3f800000	1.0
137	0x3f800000	1.0
138	0x3f800000	1.0
139	0x3f800000	1.0
140	0x3f800000	1.0
141	0x3f800000	1.0
142	0x3f800000	1.0
143	0x3f800000	1.0
144	0x3f800000	1.0
145	0x3f800000	1.0
146	0x3f800000	1.0
147	0x3f800000	1.0
148	0x3f800000	1.0
149	0x3f800000	1.0

layernorm.bias f4 [150]
0	0x00000000	0.0
1	0x00000000	0.0
2	0x00000000	0.0
3	0x00000000	0.0
4	0x00000000	0.0
5	0x00000000	0.0
6	0x00000000	0.0
7	0x00000000	0.0
8	0x00000000	0.0
9	0x00000000	0.0
10	0x00000000	0.0
11	0x00000000	0.0
12	0x00000000	0.0
13	0x00000000	0.0
14	0x00000000	0.0
15	0x00000000	0.0
16	0x00000000	0.0
17	0x00000000	0.0
18	0x00000000	0.0
19	0x00000000	0.0
20	0x00000000	0.0
21	0x00000000	0.0
22	0x00000000	0.0
23	0x00000000	0.0
24	0x00000000	0.0
25	0x00000000	0.0
26	0x00000000	0.0
27	0x00000000	0.0
28	0x00000000	0.0
29	0x00000000	0.0
30	0x00000000	0.0
31	0x00000000	0.0
32	0x00000000	0.0
33	0x00000000	0.0
34	0x00000000	0.0
35	0x00000000	0.0
36	0x00000000	0.0
37	0x00000000	0.0
38	0x00000000	0.0
39	0x00000000	0.0
40	0x00000000	0.0
41	0x00000000	0.0
42	0x00000000	0.0
43	0x00000000	0.0
44	0x00000000	0.0
45	0x00000000	0.0
46	0x00000000	0.0
47	0x00000000	0.0
48	0x00000000	0.0
49	0x00000000	0.0
50	0x00000000	0.0
51	0x00000000	0.0
52	0x00000000	0.0
53	0x00000000	0.0
54	0x00000000	0.0
55	0x00000000	0.0
56	0x00000000	0.0
57	0x00000000	0.0
58	0x00000000	0.0
59	0x00000000	0.0
60	0x00000000	0.0
61	0x00000000	0.0
62	0x00000000	0.0
63	0x00000000	0.0
64	0x00000000	0.0
65	0x00000000	0.0
66	0x00000000	0.0
67	0x00000000	0.0
68	0x00000000	0.0
69	0x00000000	0.0
70	0x00000000	0.0
71	0x00000000	0.0
72	0x00000000	0.0
73	0x00000000	0.0
74	0x00000000	0.0
75	0x00000000	0.0
76	0x00000000	0.0
77	0x00000000	0.0
78	0x00000000	0.0
79	0x00000000	0.0
80	0x00000000	0.0
81	0x00000000	0.0
82	0x00000000	0.0
83	0x00000000	0.0
84	0x00000000	0.0
85	0x00000000	0.0
86	0x00000000	0.0
87	0x00000000	0.0
88	0x00000000	0.0
89	0x00000000	0.0
90	0x00000000	0.0
91	0x00000000	0.0
92	0x00000000	0.0
93	0x00000000	0.0
94	0x00000000	0.0
95	0x00000000	0.0
96	0x00000000	0.0
97	0x00000000	0.0
98	0x00000000	0.0
99	0x00000000	0.0
100	0x00000000	0.0
101	0x00000000	0.0
102	0x00000000	0.0
103	0x00000000	0.0
104	0x00000000	0.0
105	0x00000000	0.0
106	0x00000000	0.0
107	0x00000000	0.0
108	0x00000000	0.0
109	0x00000000	0.0
110	0x00000000	0.0
111	0x00000000	0.0
112	0x00000000	0.0
113	0x00000000	0.0
114	0x00000000	0.0
115	0x00000000	0.0
116	0x00000000	0.0
117	0x00000000	0.0
118	0x00000000	0.0
119	0x00000000	0.0
120	0x00000000	0.0
121	0x00000000	0.0
122	0x00000000	0.0
123	0x00000000	0.0
124	0x00000000	0.0
125	0x00000000	0.0
126	0x00000000	0.0
127	0x00000000	0.0
128	0x00000000	0.0
129	0x00000000	0.0
130	0x00000000	0.0
131	0x00000000	0.0
132	0x00000000	0.0
133	0x00000000	0.0
134	0x00000000	0.0
135	0x00000000	0.0
136	0x00000000	0.0
137	0x00000000	0.0
138	0x00000000	0.0
139	0x00000000	0.0
140	0x00000000	0.0
141	0x00000000	0.0
142	0x00000000	0.0
143	0x00000000	0.0
144	0x00000000	0.0
145	0x00000000	0.0
146	0x00000000	0.0
147	0x00000000	0.0
148	0x00000000	0.0
149	0x00000000	0.0

batchnorm.weight f4 [150]
0	0xbe343773	-0.17599277
1	0x3dd61db9	0.10454888
2	0x3c9374cd	0.01800003
3	0xbc463c0e	-0.012099279
4	0x3ebd99d7	0.37031433
5	0x3e1ea341	0.15491964
6	0xbdefdc05	-0.11711887
7	0xbf6ede2e	-0.9330777
8	0x3c833d83	0.016020542
9	0x3d1b9d16	0.037991606
10	0xbef45d99	-0.4772766
11	0xbec54464	-0.3852874
12	0x3fa3dac3	1.2801136
13	0x3d6f17a2	0.058372147
14	0x3f15a7b4	0.5845902
15	0x3f44ffbb	0.76952714
16	0x3f3c1899	0.73475033
17	0x3f5d3970	0.8641577
18	0x3f67bf3d	0.9052618
19	0x3fef0ce7	1.8675812
20	0xbe20e9fd	-0.1571426
21	0xbc54ff7a	-0.0130003635
22	0x3e09642c	0.13417119
23	0x3f0874d7	0.53303283
24	0x3ec70fe9	0.38879326
25	0x3eae0fdc	0.33996475
26	0xbe12a127	-0.14319287
27	0xbdef5580	-0.1168623
28	0x3f2d4ed2	0.67698395
29	0x3d6a7412	0.0572396
30	0xbe895faf	-0.26830813
31	0x3dc4b546	0.09604888
32	0xbd84664a	-0.064648226
33	0x3e302b59	0.17204036
34	0x3e7e2de9	0.24822201
35	0xbe0043c5	-0.12525852
36	0x3f444b87	0.76677746
37	0x3f9faf12	1.2475302
38	0x381b575a	3.7036232e-05
39	0xbcc1e91f	-0.023670731
40	0x3e1e1ea5	0.15441377
41	0xbf78d846	-0.9720501
42	0xbf3c523e	-0.7356299
43	0xbf5dedba	-0.86690867
44	0x3f58b495	0.84650546
45	0xbd8226f7	-0.06355088
46	0xbdd3f536	-0.10349505
47	0xbd9fcc9f	-0.078027
48	0x3fbb29e1	1.4622155
49	0x3feaac00	1.833374
50	0x3d8ea013	0.069641255
51	0x3fcfba9a	1.6228821
52	0xbd73b6cb	-0.059500497
53	0xbe976d2f	-0.29575488
54	0xbe7eb049	-0.24871935
55	0x3e105f47	0.14098845
56	0xbc639870	-0.013891324
57	0x3e2ab0fc	0.16669077
58	0x3c1f95f1	0.009740339
59	0x3e9f2e82	0.3109017
60	0xbe3efc90	-0.18651032
61	0xbdb91194	-0.09036556
62	0xbd98aa91	-0.07454408
63	0x3df4dd6f	0.119562976
64	0x3f1ada59	0.6048942
65	0x3f8b770c	1.0895705
66	0x3e7bf718	0.24605978
67	0xbe1e151f	-0.15437745
68	0xbdc2a500	-0.095041275
69	0x3ec5774a	0.38567573
70	0x3dfef2fa	0.12448688
71	0x3e0bf3f8	0.13667285
72	0x3eb2efd4	0.349486
73	0x3ddfad28	0.10921699
74	0x3fe0ce39	1.7562934
75	0x3e1f72a1	0.15571071
76	0x3e45bbc4	0.19309908
77	0x3efbd6f4	0.49187434
78	0x3ec7c1c4	0.3901502
79	0xbe45bc91	-0.19310214
80	0xbb6ddf0b	-0.0036296274
81	0x3c8eebf9	0.017446505
82	0xbe285455	-0.1643842
83	0x3e7d4387	0.24732791
84	0x3ff265b2	1.8937285
85	0x3de21b53	0.11040368
86	0xbdc0cbab	-0.094138466
87	0x3ee24ba0	0.44198322
88	0x3f42b6ee	0.7606038
89	0xbe0981e1	-0.13428451
90	0x3e9d193d	0.30683318
91	0x3fd10416	1.6329372
92	0xbd3cfda4	-0.046140328
93	0x3df916c2	0.12162544
94	0x3c666b54	0.014063675
95	0x3eafdea8	0.3434956
96	0xbe0df4b2	-0.13862875
97	0x3ef22119	0.47290877
98	0xbe0bc1c7	-0.13648139
99	0xbc4a143d	-0.012333927
100	0x3e254395	0.16139062
101	0x3e047b9b	0.12937777
102	0x3e7a5ea6	0.24450168
103	0xbe25eef3	-0.16204433
104	0x3f876391	1.057726
105	0x3eabc379	0.3354757
106	0x3fb5e1c5	1.4209524
107	0x3dc5ded8	0.09661645
108	0xbdad9322	-0.08475329
109	0xbdaad68f	-0.08341705
110	0x3f2e1cd3	0.6801273
111	0x3d9865c8	0.07441288
112	0xbd3cae51	-0.04606468
113	0xbe678b80	-0.22611809
114	0xbe912751	-0.2835031
115	0x3e35b68a	0.17745414
116	0x3c197877	0.0093671
117	0x3f3c389e	0.7352389
118	0x3ea4640f	0.3210759
119	0x3fe32d41	1.7748185
120	0xbf0a713e	-0.54079044
121	0xbf90dc45	-1.1317221
122	0x3e9c6537	0.3054597
123	0x3e79f19c	0.24408573
124	0x3e608df8	0.21929157
125	0xbf9266b1	-1.1437589
126	0x3e324f9d	0.17413183
127	0x3f5545e6	0.8330978
128	0xbe327738	-0.17428291
129	0xbe91db6c	-0.28487718
130	0x3f2d78ec	0.6776264
131	0x3e35e819	0.1776432
132	0x3e9b68e7	0.30353472
133	0xbf249227	-0.6428551
134	0x3f588af7	0.84587044
135	0xbe4d4a49	-0.20047869
136	0xbcdb4299	-0.026765155
137	0x3e85512c	0.26038492
138	0x3e3d3902	0.18478778
139	0x3dbf8547	0.093515925
140	0x3ede00a0	0.43359852
141	0xbc489ada	-0.012243951
142	0x3f6c54d5	0.92316943
143	0x3ea3a8d9	0.31964758
144	0x3f8a4d49	1.0804836
145	0x3e18050e	0.14845678
146	0x3e2d0630	0.16896892
147	0x4007d0f4	2.1221285
148	0xbf9d0e75	-1.2270037
149	0x3fb4c21d	1.4121739

batchnorm.bias f4 [150]
0	0x3f3a610b	0.72804326
1	0x3f7d8cbb	0.9904286
2	0x3f2ac6fb	0.6670987
3	0x3f472b39	0.7780033
4	0x3f6983bd	0.9121664
5	0x3f3f0277	0.74613136
6	0x3f5f3273	0.87186354
7	0x3f19fb4c	0.60149074
8	0xbf38db29	-0.7220941
9	0x3efcd913	0.49384364
10	0x3f205f53	0.62645453
11	0x3f210d23	0.6291067
12	0x3e7a3b62	0.24436715
13	0x3f801ddf	1.0009116
14	0x3f480fdf	0.7814922
15	0x3ecaa97a	0.39582425
16	0x3f0c86d3	0.54893225
17	0xbf65f5e6	-0.89828336
18	0x3ece5a2c	0.4030317
19	0x3ec7871c	0.38970268
20	0x3f09820c	0.5371406
21	0x3f6ea41c	0.9321916
22	0x3eafbe83	0.34325036
23	0xbf2c9e24	-0.67428803
24	0x3f0556f2	0.52085793
25	0xbf0a1822	-0.53943074
26	0x3f80acb9	1.0052711
27	0x3f0c8db1	0.54903704
28	0xbf1beb0e	-0.6090554
29	0x3f28753f	0.65803903
30	0x3f54cebf	0.8312797
31	0x3f628b97	0.8849425
32	0x3f4add71	0.7924414
33	0x3f6f7f83	0.9355394
34	0x3ece3780	0.40276718
35	0xbf4e2e46	-0.8053936
36	0x3ecc8285	0.39943328
37	0x3f0adad5	0.5424016
38	0x3f405639	0.75131565
39	0x3f340e64	0.7033446
40	0x3f0d5087	0.55201
41	0x3f331492	0.6995326
42	0x3f68965c	0.9085443
43	0x3f33715d	0.70094854
44	0xbf32ff83	-0.6992113
45	0x3f20c3b8	0.62798643
46	0x3f1a4517	0.6026167
47	0x3f04c481	0.5186234
48	0x3eb89670	0.36052275
49	0x3ef459fc	0.47724903
50	0x3f2e2b48	0.6803479
51	0x3edc1008	0.4298098
52	0x3ee4ebe6	0.44711226
53	0x3f20d33a	0.62822306
54	0x3f341c30	0.7035551
55	0x3f330f70	0.6994543
56	0x3f00e368	0.50346994
57	0x3f25ba3f	0.64737314
58	0x3ee32664	0.44365227
59	0x3f4bf8b0	0.7967634
60	0x3f77fcd4	0.9687016
61	0x3f23c854	0.6397755
62	0x3f00fe01	0.5038758
63	0x3f1ef81f	0.6209735
64	0xbe5619b8	-0.20908248
65	0xbf82e87f	-1.0227202
66	0x3f39d6ea	0.7259356
67	0x3f462915	0.77406436
68	0x3f0c0182	0.546898
69	0xbf676342	-0.9038583
70	0x3f34cd89	0.7062612
71	0x3f17dcce	0.59321296
72	0x3f4ad30d	0.7922829
73	0x3f5e809e	0.86915004
74	0x3e82a110	0.25513506
75	0x3f497671	0.7869635
76	0xbf351cf8	-0.7074733
77	0x3f17893a	0.59193766
78	0xbe9b6fd4	-0.30358756
79	0x3f1f6109	0.6225744
80	0x3f9d753d	1.2301403
81	0x3f5b73ba	0.8572346
82	0x3f4e97db	0.80700463
83	0x3f87f17a	1.0620568
84	0xbd487876	-0.048943006
85	0x3f16203e	0.5864295
86	0x3f1f944b	0.6233565
87	0x3f07282c	0.5279567
88	0x3ede12a4	0.43373597
89	0x3f4c508f	0.7981042
90	0xbf1073f9	-0.5642696
91	0x3e4ae22d	0.19812842
92	0x3f7103fb	0.941467
93	0xbf1a41b8	-0.6025653
94	0x3f0c245c	0.5474298
95	0x3f4b3fb3	0.7939407
96	0x3f37098e	0.71498954
97	0x3f6fbdc6	0.93648946
98	0x3f42cb85	0.76091796
99	0x3f043c25	0.51654273
100	0xbf85a934	-1.0442262
101	0x3f43eb89	0.76531273
102	0x3f246034	0.64209294
103	0xbf8028e8	-1.0012484
104	0x3f02d5c5	0.51107436
105	0x3f365458	0.7122245
106	0x3e5d9f18	0.2164272
107	0xbf2052b8	-0.6262622
108	0x3f2fd92f	0.6869077
109	0x3f69cb27	0.9132561
110	0x3eb70593	0.3574644
111	0x3f6b2f47	0.91869015
112	0x3f6312d5	0.8870061
113	0x3f3f1321	0.74638563
114	0x3f3cd3ff	0.7376098
115	0x3f0e3f29	0.55565125
116	0x3ef3c878	0.47613883
117	0x3f143941	0.5789986
118	0x3f4c647c	0.79840827
119	0x3f1a2084	0.60205865
120	0x3f77045b	0.9649102
121	0x3f652675	0.89511806
122	0x3f6b15d4	0.9183018
123	0xbf42079d	-0.75792867
124	0x3d4ce887	0.050026443
125	0x3f1b3090	0.60620975
126	0xbf29d1fe	-0.6633605
127	0xbf86ff29	-1.0546619
128	0x3f45eb0d	0.77311784
129	0x3f73b4b2	0.95197594
130	0x3f421fc5	0.75829726
131	0xbf7ea9c0	-0.9947777
132	0x3f47cbe8	0.7804551
133	0xbf38f977	-0.72255653
134	0xbf0a03fd	-0.53912336
135	0x3f3931f4	0.7234185
136	0x3f5b7d02	0.8573762
137	0x3f65996b	0.8968722
138	0x3f1c00cf	0.60938734
139	0x3f79ed72	0.9762794
140	0x3f486e75	0.78293544
141	0x3f747129	0.9548517
142	0xbf5ed9af	-0.8705091
143	0x3f9262d9	1.1436416
144	0x3f1865ba	0.5953022
145	0x3f2fdd9d	0.6869753
146	0x3f204c7d	0.6261671
147	0x3e1350b7	0.14386259
148	0x3eb3bdae	0.35105652
149	0xbf646efb	-0.8923184
