src/results/subject_P25/best_model.pth (torch, 481333 bytes, 15 tensors)

input_linear.weight f4 [40, 40]
00000000: 20ef c83c 20cd 99bc a4d6 8cbd 5288 df3d
00000010: 8b8d f0bd 7c93 0f3d c1b9 dbbd 8050 1bbb
00000020: c034 663b eaa6 db3d d90a 0c3e a87e b03c
00000030: 808f bd3b c00b b43c c237 b33d a496 2e3d
00000040: 4c95 24bd ef71 093e 1cd8 73bd 3af1 dc3d
00000050: cecd c83d 7650 20be 3203 e93d 389a ca3c
00000060: 2847 0bbd e073 9c3b 20ae cdbd 1aa4 b1bd
00000070: 2087 0fbe a620 a13d b871 933d f0ce 5abc
00000080: f297 c33d 176b 213e 1b8e 043e 5756 cebd
00000090: 80f3 5abc c030 5c3d 9c24 08be 343f 673d
000000a0: 03d9 94bd 7ebd f93d c03d 00be c058 16be
000000b0: 9af1 01be d189 0a3e a4ab 02bd f753 92bd
000000c0: 2cd3 0abe f090 583d 709d d9bd 674b 083e
000000d0: 5c5b a93d 1a26 ecbd 3f28 8dbd 9243 da3d
000000e0: 7cbb 743d 06e2 d23d e078 d4bb 28a9 b9bc
000000f0: 9838 d9bd 8aa2 7bbd c9c5 cabd 2f8c 14be
00000100: 6509 85bd fd72 0dbe b028 a83d bede df3d
00000110: 9808 0b3d bcff 76bd d5cd 1b3e 942f 8b3d
00000120: 0bf4 023e 48d4 cdbd 02ff fc3d 1c6b fbbd
00000130: 90a0 943c 18c7 91bc ae42 14be 9784 19be
00000140: 90ad 4e3d 0440 68bd ad9a 8ebd c0e0 2dbb
00000150: b007 3dbc 75e9 cbbd 1c2a 863d e8ac 893d
00000160: 3bf9 083e 0802 95bd 4f91 0b3e 843f 043d
00000170: 102d 523c 5b73 99bd 7a6e ab3d b991 193e
00000180: ac8e b73d 78fe 1ebd 3582 173e 08fa eabc
00000190: 4208 f43d d212 e63d c4d2 fdbd a0ea 1bbd
000001a0: d6a1 17be 266a 13bd 4725 0d3e 7d3c 083e
000001b0: 6c24 b23d 259b 1f3e 3ae7 f23d 38a6 2e3d
000001c0: fafd 16be 8e25 df3d 88ce af3d 3829 aa3c
000001d0: d649 903d 300f 39bd e07d e33b e0f3 80bd
000001e0: a0ea e0bd 16fe a23d 29b2 d7bd b212 e83d
000001f0: 1db1 c7bd ec0e b03d 40ad 923d 8f7c 0d3e
00000200: d275 0dbe 0037 4abb 2546 083e 4297 e93d
00000210: 557c 0f3e 14b4 01bd 8c4a d7bd c65d 1ebe
00000220: c05a 6f3b 402e b13b 104b 423d 3615 ee3d
00000230: 6969 01be 78d0 0fbe 7df8 13be d840 d63c
00000240: a0f8 c9bc 5024 863d fedb cd3d c22c ef3d
00000250: fad3 f1bd 2618 ff3d 70c7 403c 6498 d7bd
00000260: c2db c73d f496 b33d 34b9 7a3d d68b 06be
00000270: 045c 313d f4a4 34bd c119 123e 103c 21bd
00000280: 9d11 013e e09c 64bc 8653 c43d d5d5 0bbe
00000290: c7ae 203e cb1e 133e a97a 1abe 8ad3 d13d
000002a0: 58f5 88bc fe4f 5fbd bdc0 1bbe a18f 1f3e
000002b0: 30cb a5bc a877 88bd 4030 ff3b e104 0f3e
000002c0: a895 f93c c432 233d 9e58 3abd d0f6 043c
000002d0: d88c 02be bcd8 043d 8986 aebd 54eb f1bd
000002e0: 46c1 c23d e6e6 eb3d d576 17be f09b 863c
000002f0: b800 d8bc 8cac 333d 4c57 403d dae3 893d
00000300: 0ed9 12be 9e96 77bd c22c 9c3d 861d d73d
00000310: c3b6 9bbd 7a8a e43d 08ab c3bc 39d3 123e
00000320: 922a bfbd a296 d8bd bc7e 8f3d 608f 823c
00000330: 708e b23d 3014 ae3c 7ebe e7bd e5c9 053e
00000340: be28 ecbd 1cd1 a83d b284 c9bd 08e1 713d
00000350: a64c fb3d 8ce4 d3bd cb2d 123e 13c4 f2bd
00000360: 594b 90bd ec61 7f3d c824 dabc c8f3 e1bd
00000370: bedf 3dbd d894 dd3c 223c af3d 9d50 1f3e
00000380: 30c5 923c d245 5abd 5c10 ab3d 08f7 e6bd
00000390: 10fc 65bc 1ac1 bc3d 13db 103e 689c 3d3d
000003a0: 6333 1e3e e6ca f83d fcb1 76bd 2e5e 08be
000003b0: 31ef 14be 7676 fcbd 4074 16be 302d 553d
000003c0: f0ae 993c 0008 9c3d 4ee0 febd 1c46 16be
000003d0: 63a6 1b3e 5004 003c 0e35 97bd 68f0 f2bc
000003e0: 013f c7bd 606f 32bd 4603 ec3d ca8e 81bd
000003f0: 35cb d3bd a00b 9d3c 006b d9ba 50da b03d
0.024528086 -0.018774569 -0.06876877 0.10914673 -0.11745747 0.03505276 -0.10728789 -0.0023699105
0.0035126656 0.10725196 0.13676013 0.02154477 0.005784929 0.02197826 0.08750869 0.04262413
-0.040181443 0.13422368 -0.05953227 0.10788198 0.09804879 -0.15655693 0.113775626 0.02473174
-0.034003407 0.0047745556 -0.10042977 -0.08673878 -0.1401639 0.07867555 0.071994245 -0.013355002
0.09550466 0.15763508 0.12944834 -0.10075062 -0.013363719 0.05375743 -0.13295215 0.05645676
-0.07267954 0.12194346 -0.12523556 -0.14682293 -0.1268982 0.13529135 -0.03190197 -0.07144921
-0.13557118 0.0528726 -0.10625732 0.13310014 0.082693785 -0.11530705 -0.06892442 0.10657419
0.05974911 0.10297017 -0.006484136 -0.022663668 -0.106064975 -0.061434306 -0.09901006 -0.14506601
-0.064959325 -0.13813396 0.082108855 0.109311566 0.033943743 -0.06030248 0.15215237 0.06796184
0.12788408 -0.10050255 0.123533264 -0.12276289 0.018142968 -0.01779513 -0.14478561 -0.14991985
0.05045849 -0.056701675 -0.06963096 -0.0026531667 -0.011537477 -0.09956638 0.065510005 0.067224324
0.13376324 -0.07275778 0.1362965 0.032287136 0.012828127 -0.074927054 0.08370681 0.14996995
0.089627594 -0.0388169 0.14795764 -0.028683677 0.119156376 0.112340584 -0.12393716 -0.038065553
-0.1480783 -0.035989903 0.13783751 0.13304324 0.08698353 0.15586527 0.11860509 0.042638987
-0.14745322 0.10895835 0.085843146 0.020771608 0.07045333 -0.0451805 0.0069424957 -0.062965155
-0.10982251 0.07958619 -0.10532028 0.11331691 -0.097505786 0.08596596 0.07161951 0.13817047
-0.13814476 -0.0030855536 0.13308008 0.11405803 0.14012273 -0.031665877 -0.105122656 -0.15465459
0.0036522597 0.0054071248 0.047434866 0.116251394 -0.12637867 -0.14044368 -0.1445026 0.026153967
-0.024654686 0.06549895 0.10051726 0.11678459 -0.118080094 0.12455778 0.0117663 -0.10527113
0.09758712 0.087690264 0.06121178 -0.1313928 0.043300644 -0.044102624 0.14267637 -0.03936392
0.12604375 -0.013953418 0.09586243 -0.13655789 0.15691672 0.14367215 -0.15085854 0.10245426
-0.016718552 -0.054519646 -0.15210243 0.15582134 -0.020238489 -0.066634476 0.0077877343 0.13966705
0.03046687 0.039843336 -0.04549467 0.008115485 -0.1274904 0.032433257 -0.08521754 -0.118124634
0.0950952 0.1151865 -0.14791425 0.016431779 -0.02636753 0.043865725 0.046958253 0.06732912
-0.14340612 -0.060446374 0.076257244 0.10503678 -0.076032184 0.11159225 -0.023885265 0.14338388
-0.093342915 -0.10575606 0.070065945 0.015937507 0.08718574 0.02124986 -0.113156304 0.13065298
-0.115312085 0.082430094 -0.09839763 0.059052497 0.12270479 -0.10346326 0.14275281 -0.118538044
-0.070456214 0.062349245 -0.026628867 -0.11032826 -0.046355955 0.027048513 0.08556391 0.15558095
0.017916292 -0.053289242 0.0835273 -0.11277586 -0.014037147 0.09216519 0.1414607 0.04629174
0.1544929 0.12148075 -0.060228333 -0.13317177 -0.1454437 -0.12327282 -0.14692783 0.052045047
0.018760175 0.076187134 -0.124451265 -0.14675182 0.1520019 0.007813528 -0.07383166 -0.02965565
-0.09728814 -0.043563247 0.11524062 -0.06326063 -0.10341493 0.019170582 -0.0016587675 0.0863539

input_linear.bias f4 [40]
00000000: 6c29 00bd 2e08 05be ec75 29bd a850 01bd
00000010: 2cbb f1bd 9081 edbc 5511 003e dfcc 083e
00000020: 15ea 03be a08d efbd 7ab0 f93d c140 093e
00000030: 0372 11be 58df 733d 3c89 233d 089f 203d
00000040: e5f8 a8bd a80d 993c 1e08 c5bd 82bf ffbd
00000050: 663f d2bd 1877 1f3d 8a03 31bd 85cb 87bd
00000060: c2ee 8e3d ce78 a53d 7c61 16be d765 123e
00000070: 67d9 0a3e ac05 1bbd f8b0 07be df67 003e
00000080: 4054 173c f4a1 25bd c0bf ffbb 2bb4 febd
00000090: 43f7 f0bd be8c 75bd 00ba 02bc c855 893d
-0.031289503 -0.12991402 -0.041372225 -0.03157106 -0.11803278 -0.028992444 0.12506612 0.13359402
-0.12882264 -0.11696935 0.12191863 0.13403608 -0.14203648 0.05953917 0.0399258 0.039214164
-0.08250598 0.01868327 -0.09620689 -0.12487699 -0.102659985 0.038931936 -0.043216266 -0.06630615
0.06979133 0.08079682 -0.14685625 0.14296661 0.13559495 -0.037847206 -0.13251102 0.12539624
0.009236395 -0.040437654 -0.007804841 -0.12436708 -0.117659114 -0.059948675 -0.007978916 0.067058146

lstm.weight_ih_l0 f4 [600, 40]
00000000: 6eb2 21bd 1e52 2bbe 5a90 f43b c098 783e
00000010: ae9b 1d3d 4f74 d13d 22c1 a13d d9e9 77bd
00000020: f8da 17bc 9d3b 55bd 7055 1d3e 31ef b33c
00000030: 4d41 0bbe 27bf 1a3d 01b3 a6be 5487 d0be
00000040: 809f a5be 7120 bc3d 73c4 033e 83b0 073d
00000050: 2e8d 3c3d 1030 ae3d 664f 76be d441 4a3e
00000060: a8d4 ea3c 7320 b5be 1ae1 213e 2388 aabd
00000070: 10e8 da3d e662 cbbe 40cd 223e 73b9 a23d
00000080: cbbe 133e de5d b0be 60eb 69be efd4 193e
00000090: 2180 5a3d 51bc 993d 73dc dbbd 1c53 afbe
000000a0: 4f5b 373c 8837 d03d 074f 333e 9ec4 89be
000000b0: 7e0c 263d 88ea c83d 65ae e63d 8435 0bbe
000000c0: 8891 1cbe 2035 fabd bf4d 4dbe 4de2 0fbf
000000d0: dec8 833e d3ac 0c3e bfeb 3f3e a3fa a73e
000000e0: 2677 173d cbc3 57be 368a 1cbe c287 e63d
000000f0: 2f0b 3a3e e0fd dd3d 3aa2 6ebe 5363 37be
00000100: f653 443e 93b1 133e 8495 8b3d 04d2 e43d
00000110: 7046 1abe 24ef a53d 188d 67be 1524 cd3d
00000120: 34fc 2abe ebfc f83c 3a79 6bbe 2ad9 3fbe
00000130: 247f 053e 3eec 99bc 18d0 b2bc 1b32 4b3e
00000140: c49a 3fbe 1085 b13d 4ef1 93be d2f3 cabe
00000150: 90c2 303e ad96 97be 7c08 81be 7864 ae3e
00000160: 0cf1 af3e 2715 b03e a59c 0ebf 089d 85be
00000170: 816d 853d 21ef aabe 4763 d73e a112 57bd
00000180: 7585 babe 739a 12bf cf3c 11bf 3791 a6be
00000190: a802 abbe bb8b aebe 98e3 15be c879 413c
000001a0: 7176 9fbe 80bb df3e 0dab 7e3e c2d8 f43d
000001b0: 986e 0fbf 677c 6bbe 6801 14bf bd19 9cbe
000001c0: 8db1 09bf 8a13 d2be b8c4 afbd c76d ea3c
000001d0: dcd3 b4be 14fd 8abe 917c 56be ff36 e23e
000001e0: bf40 163d 53fa ee3d e4b4 0fbf 7210 35bf
000001f0: 1c8b 143e afc4 1dbf d07b 02bf 46ae 093f
00000200: 848d 0a3f c04e 0b3f 4688 38bf 0aad 683e
00000210: f975 68be 01a3 1cbf 8df8 893f e9ed 6b3b
00000220: 4ef5 56be 6665 41bf 0db4 31bf ad1b 14bf
00000230: 1b16 0ebf 6c89 18bf 1720 363e 007c 923c
00000240: 2913 13bf 58dc 113f 6bc9 d0be 0cd0 0bbf
00000250: ca05 36bf 0afb 003d 1f16 37bf fc07 10bf
00000260: 2cbf 38bf 92c6 09be 8fa4 5b3e 0c28 c83c
00000270: 6b54 1abf 6e8e b1be 878a 99be 7c1f 873f
00000280: 0ca2 203d 5ca5 a6bf 7c6b 513f c35c d23e
00000290: 1582 8bbf 6eaa 4f3f 4b3c 473f dd92 48bf
000002a0: 2c29 4bbf 2239 5abf a704 823f 1030 b8be
000002b0: ee95 be3d 2b8d 5a3f 54ed 1fbe e0d6 89be
000002c0: 5940 003f 99ea 823f c033 723f 222b 503f
000002d0: 26c6 4b3f 2153 483f 769c 373f c904 ccbe
000002e0: 74e8 4a3f 17ba 92be 8b10 203f 0c97 5f3f
000002f0: 0969 733f 4412 8f3e 4e9c 7c3f bd14 5c3f
00000300: b6fe 703f 8e5e 003f c502 383f 00d9 cbbe
00000310: 0c74 513f 77d4 11bf 897f 16be cb93 47be
00000320: 7a16 a1be da2b 13be 0b4d 0b3f 7c09 293f
00000330: ad22 ddbd 8977 043f 21f2 f13e 82cf f7be
00000340: a558 f0be 8e99 02bf c504 403f 8866 9d3d
00000350: ae04 283e 93e4 f03e bdbe 28bf 7ca5 d2bd
00000360: 6539 24bd 8e44 493f 76cf 363f 2aa5 fd3e
00000370: f24d 0a3f 504f f53e 0e7a 9e3e 4022 efbd
00000380: 945d eb3e cdf3 523e 8e79 623e ad85 243e
00000390: cb4f 3e3f 6817 9f3e 7d11 383f 9ed0 003f
000003a0: 9d5f 453f 77ef 9dbd e20c 743e 9687 2ebd
000003b0: a6a6 f13e 8e80 043e 453f 8a3e f185 27bf
000003c0: 85ba 663d c41a 33be 53a2 e8be 8abf 06be
000003d0: e9a8 07be 6b0a dcbe 245b dcbe c52f 033f
000003e0: 7e15 e73e c3e2 e43e 8bcf 4dbe 37c4 07bd
000003f0: 6df4 08bf 0607 f8be be3d f33d 3791 26bd
-0.039476804 -0.16730544 0.007463497 0.2427702 0.038478546 0.10227262 0.07898165 -0.06052575
-0.009268515 -0.052058805 0.15364623 0.021964641 -0.13599129 0.037779953 -0.32558444 -0.40728247
-0.3234825 0.09185875 0.12867908 0.03312732 0.046033077 0.08505261 -0.24053726 0.19751674
0.028665856 -0.3537632 0.15808526 -0.08326747 0.10688794 -0.3972389 0.15898609 0.07945528
0.1442825 -0.34446615 -0.22843695 0.15022634 0.05334485 0.07506622 -0.10735407 -0.34243095
0.011191203 0.10166842 0.17510615 -0.2690782 0.040539257 0.09810358 0.11263732 -0.13594633
-0.15289891 -0.12217164 -0.20049189 -0.5620468 0.25739187 0.13737802 0.18742274 0.32808408
0.036978863 -0.21070783 -0.15287098 0.112563625 0.18168329 0.108394384 -0.23304072 -0.17908983
0.19172654 0.14423208 0.06815627 0.1117287 -0.15065932 0.08102253 -0.22612417 0.10016648
-0.1669777 0.030394038 -0.22995463 -0.18735185 0.13036782 -0.018789407 -0.021827742 0.19843332
-0.18711382 0.08667958 -0.28895038 -0.39639145 0.1726172 -0.29607144 -0.25201786 0.34061027
0.34363592 0.34391138 -0.5570777 -0.26096368 0.06515027 -0.33385566 0.4206793 -0.052508
-0.36429945 -0.5726692 -0.5673341 -0.32532665 -0.33400464 -0.3409098 -0.14637601 0.01180882
-0.3114505 0.4369774 0.24869938 0.11955406 -0.5602813 -0.22996674 -0.57814646 -0.30488387
-0.53786546 -0.41030532 -0.08582443 0.028616799 -0.35317886 -0.27146208 -0.20945956 0.44182584
0.03668284 0.11668839 -0.5613539 -0.7072822 0.14506191 -0.6162824 -0.5097017 0.53781545
0.54122186 0.5441704 -0.72082937 0.22722259 -0.22701253 -0.61186224 1.0778977 0.003599996
-0.20992014 -0.75545347 -0.6941536 -0.5785473 -0.5550248 -0.5958469 0.17785679 0.017881393
-0.5745111 0.5697684 -0.4077867 -0.5461433 -0.71102583 0.03148941 -0.7151813 -0.56262183
-0.72166705 -0.13454655 0.21449493 0.024433158 -0.6028506 -0.34678978 -0.299885 1.0556483
0.03921704 -1.3019214 0.81804633 0.41086397 -1.0899073 0.8111943 0.77826375 -0.78349096
-0.793597 -0.8524343 1.015767 -0.3597417 0.093059406 0.85371655 -0.15617877 -0.2692175
0.50098187 1.0227844 0.94610214 0.81315815 0.79599226 0.78251845 0.71723115 -0.398474
0.79260945 -0.286576 0.6252524 0.87339854 0.95082146 0.27943623 0.98676 0.85969144
0.9413866 0.5014428 0.71879226 -0.39813995 0.818177 -0.5696482 -0.14697088 -0.19489972
-0.3146246 -0.14372197 0.54414433 0.66030097 -0.107976295 0.51744896 0.47255042 -0.48400503
-0.4694263 -0.51015556 0.7500728 0.07685572 0.16408035 0.47049388 -0.65916044 -0.1028547
-0.0400938 0.7862023 0.7141031 0.49540073 0.54025185 0.47912073 0.30952495 -0.116764545
0.45969832 0.20600815 0.22116682 0.16066618 0.74340504 0.31072545 0.71901685 0.50318325
0.7709902 -0.0771169 0.2383304 -0.042609774 0.47197455 0.12939665 0.27001396 -0.65438753
0.056330223 -0.17490679 -0.45436344 -0.13159004 -0.13248028 -0.42976698 -0.43038285 0.51244766
0.45133585 0.44704255 -0.20098703 -0.03314611 -0.53497964 -0.48442858 0.11877011 -0.04066583

lstm.weight_hh_l0 f4 [600, 150]
00000000: 9a27 debe f14c 1b3e 5bf2 653e a55d 873e
00000010: 7039 8f3e 9b9a 92be d453 003d 6d61 553e
00000020: 2a23 0fbe 7f47 7bbd bb1f a13e 4f54 ca3e
00000030: 163d ab3e 947e 6d3e f3ec 9abe 4644 9d3e
00000040: b152 e83e 904f 5c3e 5474 cfbd c9bc 233e
00000050: cf68 43be 080e 71be a4b1 a33d 19b3 733d
00000060: 807f 87bc 19b8 a43e 3e83 093d b002 3a3e
00000070: 2417 5f3e 6547 45be 26b2 f93d e173 09bd
00000080: 0bee 8cbe 3dad 8abe 33cd 913e acb4 8fbe
00000090: 9272 613e fcf9 09be 43a4 a93e 0eb8 5bbe
000000a0: a406 d5bd 17d1 453e 4687 7dbe 9c75 90be
000000b0: e630 14be 9409 8d3e e8cb ce3e 8f80 22be
000000c0: ab86 963e 017c 1cbe 0f8a f53d 8655 b93e
000000d0: 7d9e 37be bf66 70be 4c09 8c3e c0ed dcbc
000000e0: 7aa7 85be 0ee0 0cbe e2d2 93be 7353 99be
000000f0: 24ce fdbd 24e9 1f3e b6fb 823d 2146 29be
00000100: 0a9a c7be 11b6 653e cfc3 05bf e77e 7bbe
00000110: 55b4 a1be 599b 80be 53c7 5bbd 46d9 84be
00000120: 9449 0abd f65e 9dbe a23a 013e 4052 803e
00000130: e66a b5be bd40 a5be 8ced 8a3d fa96 ab3e
00000140: 6cad a13e be1f a6be e38c 983e 485c 363e
00000150: 10fd 523e 0af7 77be fbb3 963e 39ab 9bbe
00000160: a44f a93e a32f 103e ba92 cb3e 0689 02be
00000170: 7e4c 90be b090 cbbc 0de5 a4be 32df 10be
00000180: b89e e6be 81f2 5ebe da23 9ebc ce0d 0fbe
00000190: 9406 863c 82d2 443e 6922 47be bfa2 a93e
000001a0: 85a4 883e e8a6 933e 58f7 753e a659 3fbe
000001b0: 865c 983e 0b7d 5bbe c59c ef3d d9eb 133e
000001c0: c4d4 06bf b421 8dbe a4a6 a5be 4c13 4fbe
000001d0: 5cfe 363e 8e02 90be 8678 23be 1b1f 093e
000001e0: 5c35 53be 0b61 b0be ad3b a6be 2f81 ae3e
000001f0: abb0 bb3e 7b9a 8cbe 547a b83d f055 82be
00000200: 3a10 3e3e fb5e 9abd e829 ef3d 60fb f6be
00000210: f643 0d3e 9416 a2bd 25fc e03d 00d8 9abd
00000220: 21ee d43d 60e9 973d e95e af3e 7b27 1fbe
00000230: fc7b 3f3e c8d2 c53d 00d0 b4bd 53c2 813e
00000240: 216f 823e 40dd 2dbe 9ec8 7ebe c663 bc3e
00000250: 9612 4fbe 83c4 5dbe d495 11bf 3500 473e
00000260: ac46 763e 8457 a23e 0726 333d a8a7 dabe
00000270: f699 c3bd a0a1 363e 7b3c 28bd dc18 573e
00000280: 14bb c0bd daff 2cbe 39be e93e a71b f83d
00000290: 94d9 f5be 037d ce3e e461 b2bd 7797 ed3e
000002a0: 1186 46be 3a22 053f d87d 7abe 5e6b 39be
000002b0: 4a7f 643e 8dbe 6abe 22c4 cf3e b0b9 823e
000002c0: 3f7d acbd 1e27 933d b1c9 2e3f 6c32 87be
000002d0: 8e1b 48bd a9e1 91bd fb61 dfbe cc79 c8be
000002e0: 2593 a7bd c844 b03e 0b41 9f3e 1706 533d
000002f0: b493 773e 91a3 bfbe 24e3 08be 5340 93be
00000300: bc66 07bf 56f1 18bf 01d7 bdbe b326 0e3f
00000310: 745c b63d cc09 243e 951f f63d 5d7f 1c3d
00000320: 7cae 353e 4640 413e 538d 88be 20fc bfbe
00000330: 5d04 fa3d 2602 1cbe f074 cbbe bcca 45be
00000340: e9d8 853f fe82 08bf a501 e2be 7e6d 7c3e
00000350: ce7d 8bbd b358 bdbe 42f0 583e 06ad 4c3e
00000360: 629f 37be df0e 80be f14e 06bf 66be cdbe
00000370: e8ee d63d 7e10 babe 5814 863e 9806 d9be
00000380: b1c7 e8be 460d 073f 1e88 f4be a0ac bbbe
00000390: 4653 483e 8cbe d73e 8f40 c5bd f586 c0be
000003a0: e9b8 3c3e 2e87 03bf 9e85 32bb 2719 9abe
000003b0: 6aa8 883e 2273 c1be 91b6 42bb 591a 8f3e
000003c0: 2afa 67bf b660 dfbe fbc5 e7be 89f6 49be
000003d0: 1a0c ecbe 9837 00bf e312 033f 4819 06bf
000003e0: 74e6 52be d469 2f3e 9709 ce3e 01c5 343e
000003f0: c53a 16bf e01c 943e f3e1 923c 8cb0 0f3e
-0.4338959 0.1516607 0.22455733 0.26438633 0.2797351 -0.2863358 0.031329945 0.20837946
-0.13978258 -0.06134748 0.3146952 0.39517447 0.33445042 0.23192817 -0.30258903 0.3071615
0.4537559 0.21514726 -0.1012961 0.15989985 -0.1908295 -0.23540509 0.07992867 0.059496973
-0.016540289 0.32171705 0.033572428 0.18165088 0.21786171 -0.19265516 0.12192182 -0.033557776
-0.27525362 -0.27085295 0.28476867 -0.2806753 0.22016361 -0.13474268 0.33133134 -0.2145693
-0.10401657 0.19318043 -0.24758634 -0.2821473 -0.14471778 0.2754637 0.40389943 -0.15869354
0.29399619 -0.15281679 0.11989223 0.36198062 -0.17931552 -0.23476695 0.27350843 -0.026968837
-0.26104337 -0.13757345 -0.28871828 -0.2994648 -0.12392834 0.1561628 0.06395666 -0.16530658
-0.3898471 0.22432734 -0.52251905 -0.24560128 -0.31582895 -0.2511852 -0.053656887 -0.25947016
-0.033761576 -0.30736512 0.12620023 0.25062752 -0.3543312 -0.32275954 0.0678359 0.33513623
0.31577623 -0.32446092 0.29794988 0.1780864 0.20604348 -0.24215332 0.2943419 -0.3040407
0.33068573 0.14080672 0.3976038 -0.12747583 -0.2818336 -0.024849266 -0.32206002 -0.14147642
-0.45042968 -0.21772195 -0.019304205 -0.1397011 0.016360559 0.19220927 -0.1944672 0.33131978
0.26688018 0.28838277 0.24020135 -0.18686542 0.2975809 -0.21434419 0.11699823 0.14445437
-0.52668405 -0.27564776 -0.323537 -0.20222205 0.17870468 -0.2812695 -0.15963945 0.13390772
-0.20625824 -0.34449038 -0.32467404 0.34082934 0.36658224 -0.2746161 0.09007707 -0.2545619
0.18560877 -0.07537647 0.11677915 -0.4823866 0.13795456 -0.07914463 0.10985593 -0.0756073
0.10396982 0.074175596 0.34252098 -0.15542404 0.1869964 0.09659344 -0.08828735 0.2534357
0.2547541 -0.16978931 -0.24881217 0.3679487 -0.20221934 -0.21656995 -0.56869245 0.19433673
0.24050397 0.31707394 0.043737438 -0.42706037 -0.0955085 0.17835093 -0.041073304 0.21005577
-0.09410682 -0.16894475 0.4565294 0.12114649 -0.4801756 0.4032975 -0.087100774 0.4640462
-0.1938708 0.5200535 -0.24462068 -0.18107364 0.22314182 -0.22924252 0.40579325 0.25532293
-0.08422326 0.071851954 0.68276507 -0.26405656 -0.048854403 -0.071231194 -0.4362944 -0.39155424
-0.081823625 0.34427476 0.3110431 0.05151948 0.24177438 -0.3742948 -0.13367897 -0.28760013
-0.52891135 -0.5974325 -0.37078097 0.555278 0.08904353 0.16019362 0.120177425 0.0382074
0.17742342 0.18872175 -0.26670322 -0.37497044 0.122078635 -0.15235195 -0.39737654 -0.19315618
1.0456821 -0.5332488 -0.4414188 0.24651143 -0.06811105 -0.36981735 0.21185401 0.19987878
-0.17931893 -0.25011346 -0.52464205 -0.40184325 0.104947865 -0.36340708 0.26187396 -0.42387843
-0.45464852 0.5275463 -0.477601 -0.3665514 0.19563016 0.42137563 -0.09631454 -0.37602964
0.18429913 -0.5137814 -0.0027240287 -0.30097315 0.2669099 -0.37783152 -0.002971087 0.2794979
-0.90616095 -0.43628472 -0.45268235 -0.19722952 -0.46102983 -0.5008483 0.51200694 -0.52382326
-0.20595723 0.17130214 0.4024169 0.17653276 -0.58683425 0.2892828 0.017930007 0.14032191

lstm.bias_ih_l0 f4 [600]
00000000: 1342 c53d b501 073e 3565 b9be 789f 1cbf
00000010: ee14 573f b186 fa3e 4708 05bf 8e14 783e
00000020: 3154 94ba 5b43 b2bd 8e39 8d3e 858d 2e3e
00000030: e999 d63d af78 fa3c a3dc 8f3e e259 42bf
00000040: de82 af3d f719 2f3e 12ac 4c3d caa7 863e
00000050: 3dca 81be f61a b9bd 7421 e53d 6d6d 08bd
00000060: b4ab 99be 0c46 9ebd fe3b cdbe 7997 513e
00000070: 8121 8d3e 5dab 3c3e a1a3 a2bd 13ee 16be
00000080: bdee e33e 16f5 5c3e de60 d3be 7ec0 423e
00000090: b32f 85be 3f75 29be 9db5 f03d b21c 38be
000000a0: e749 f13e 8f7d 113c 499a 2abd 800f 843e
000000b0: be40 bc3e 3ff4 04bf 1aea 02bf a694 cf3d
000000c0: 6a62 6abd 0bc7 5d3e 7502 583e bfb5 27be
000000d0: 19eb 853e 6bbc 913d 00f4 7a3e 1a78 5d3d
000000e0: dbeb e83e 2613 403e 58eb d93e de3c 2a3f
000000f0: b695 4f3d 5181 3cbe 0f7b fd3d b769 c4bd
00000100: 65fe c5be 56a8 4f3e c239 0b3f 2833 9e3e
00000110: af1f 863e 0ec7 c03c 217a bbbe 0a32 c63e
00000120: f28e a5be c3d8 dcbd 16d2 f03e 9301 a5be
00000130: b830 ca3e b022 29be 9637 c53e e0ea ebbe
00000140: 8e76 483e 3732 e5bd 81d6 21bd cbbd a6bd
00000150: b641 2b3e 59be 073e d2b2 c6be d13d 443f
00000160: 5a95 653e af8d 13bf 178e a73e 36c9 e03e
00000170: 1372 a93e fdbc b1be 6dc1 9b3e 247d 953e
00000180: 508c 42be 9fad 223e d3a3 a0be 5b0c 353d
00000190: 74b6 c23e d9a4 c6be 4999 a5be b9d8 3a3d
000001a0: 6cc6 0c3e d1c3 bb3e c059 1a3c 3692 053f
000001b0: fdad fc3d 9c38 e73d 3c19 c8be 01f2 9b3d
000001c0: 8b8f af3e 537d 293e 69c9 c53e 0465 b23e
000001d0: c434 8d3b f2f7 403e 6744 923d f0ad 963b
000001e0: 537c 723e 6234 003f f6a7 d03e d4fd 783e
000001f0: 7392 9bbc d694 153e 6990 97be 7381 423e
00000200: ccf1 f13e d779 b63e 31f6 1dbe 047d dd3e
00000210: 05fd 1cbf fb04 86be d8c3 363e 52c7 ab3e
00000220: 49c1 d33e 682d 17be 0cd6 043f f8db 2e3e
00000230: 7b21 30be e197 0d3e a0dd 233f aa13 1d3f
00000240: cdb9 b8be 01d0 be3e c7d8 083e e438 103f
00000250: ea78 773e 7f93 a73e 614f 9e3e 7699 863d
00000260: b292 d1be 86bf 0c3f 7dca dcbe c19c fb3e
00000270: 067f a0be f049 7c3e 7e17 c63e 5bf6 ca3e
00000280: 9092 03be f087 60be e421 79be cba4 af3e
00000290: ceeb 8d3e e93c 67be 10ba 233f f1bb d73e
000002a0: 40e5 eabd 1692 6f3e b351 ca3d 8359 9dbd
000002b0: c7f8 13bf f5f5 9ebe 8bf1 963e 2524 57be
000002c0: 0759 1fbf f0bf e9be 2743 cc3e b190 023f
000002d0: b63f e1be a429 ea3e b20b 143e 752f 113e
000002e0: 3268 d9be 9776 5c3e a6e0 04be d490 a2be
000002f0: e898 8dbe 0aa5 d5bd ec7e c13e ef4d 6cbe
00000300: 1bd2 5bbe a927 ee3d 6c02 013f 0e3b 3cbe
00000310: 0c47 ad3d e0f0 4bbf f8d9 19be f5f6 7f3d
00000320: cb45 6fbe d588 51be 2fe3 2d3f b30f 303e
00000330: 9a39 bf3e 8cc3 b1be d573 be3e 17e8 6b3e
00000340: baaa a13e 3d3e 7a3e 779c e63e 7a85 d83e
00000350: bef1 d63d 20b1 32bc 7bd7 ba3d 1935 8cbe
00000360: 9733 983e 6acd fc3e 63b3 c63e e1ca 523e
00000370: fcb0 35be cb23 883e 9a40 6f3e 5ae4 2ebe
00000380: 5aad df3d 571c 4bbe 3e19 7f3e 3425 cc3e
00000390: 9e2e 673e 33e5 9cba d837 be3e f6c7 a23e
000003a0: 28b8 953e 5fb6 963e 5de2 0fbe f28c 0b3e
000003b0: 6256 d9bd e36b ae3e 103f c7be f593 acbe
000003c0: 2a8b 05bf cd9d a33e a78d ff3d 9bf5 75be
000003d0: 49fd 033f 1c6f 963d 1c64 8cbe 8227 d33e
000003e0: d024 0d3f a691 07bf efa4 7a3e 5b38 65bd
000003f0: b4b3 683e dd60 5abe eef2 a53c 0939 dbbc
0.09631743 0.13184245 -0.36210027 -0.6118083 0.8401631 0.48930886 -0.51965755 0.24226591
-0.0011316595 -0.08704253 0.27582973 0.17046173 0.10478575 0.030575125 0.2809802 -0.759184
0.08569883 0.17099749 0.049968787 0.26299888 -0.25349608 -0.090383455 0.11188021 -0.03330748
-0.30013812 -0.07728204 -0.40084833 0.20467938 0.27564624 0.18424745 -0.07941366 -0.14739256
0.4451808 0.21577868 -0.4128484 0.19018742 -0.26012954 -0.16548632 0.1175339 -0.17979696
0.47126696 0.008880033 -0.041651044 0.25793076 0.36768144 -0.5193519 -0.5113846 0.10135774
-0.05722276 0.2165796 0.21094687 -0.16377924 0.26155928 0.07116016 0.24507141 0.054069616
0.45492443 0.18757305 0.42562366 0.66499126 0.050679885 -0.18408705 0.12376987 -0.09590476
-0.3867065 0.20279059 0.54385006 0.30898404 0.26196048 0.023532417 -0.36616614 0.38710052
-0.3233562 -0.107835315 0.47035283 -0.32227764 0.39490294 -0.16517138 0.3851897 -0.46077633
0.19576475 -0.11191218 -0.039511207 -0.08141669 0.16724285 0.13256206 -0.38808304 0.76656824
0.22420254 -0.57638067 0.32725593 0.43903512 0.33094844 -0.347145 0.3042101 0.29197037
-0.18998837 0.15886544 -0.31374988 0.044201236 0.38029826 -0.38797644 -0.3234351 0.04561684
0.13747567 0.36672834 0.009420812 0.52176225 0.12337873 0.11290094 -0.39081752 0.07614518
0.34289202 0.16551714 0.38630226 0.34842694 0.0043092687 0.18844584 0.07141953 0.0045983717
0.23680238 0.5007993 0.40753144 0.24315578 -0.01899073 0.14607558 -0.29602364 0.18994693
0.4725479 0.3563983 -0.15425946 0.43259442 -0.6132358 -0.26175675 0.17848146 0.33550507
0.41358402 -0.14763415 0.5188911 0.17076099 -0.17200272 0.13827468 0.6401005 0.6135813
-0.36079255 0.3726807 0.13363944 0.5633681 0.24167219 0.32729718 0.30919936 0.06572239
-0.40932232 0.5497974 -0.43123236 0.4914303 -0.3134691 0.2463758 0.38689798 0.3964108
-0.12848878 -0.21926856 -0.24329334 0.34305415 0.27718967 -0.22581829 0.63955784 0.42135575
-0.11469507 0.23395571 0.09878864 -0.07683089 -0.5780148 -0.31047025 0.29481158 -0.21009882
-0.6224522 -0.4565425 0.39894983 0.5100203 -0.4399392 0.45734894 0.14457586 0.1417826
-0.42462307 0.21529613 -0.12976322 -0.3175112 -0.2765572 -0.10431869 0.37792146 -0.23076604
-0.21466868 0.11628658 0.5039432 -0.18381903 0.08460817 -0.7966442 -0.15024555 0.062491376
-0.23366468 -0.20462354 0.6792478 0.17193489 0.37348634 -0.34719503 0.37197748 0.23037754
0.31575567 0.24437805 0.45041248 0.42289335 0.104953274 -0.010906488 0.09123131 -0.2738426
0.2972686 0.49375468 0.38808736 0.20585205 -0.17743295 0.26589808 0.23364487 -0.17079297
0.10921736 -0.1983503 0.24911973 0.39872134 0.22576377 -0.0011970162 0.3715198 0.31793183
0.29242063 0.29436013 -0.14051194 0.13627985 -0.10612179 0.34066686 -0.389153 -0.33706632
-0.5216547 0.3195633 0.1247819 -0.24019472 0.5155836 0.07345411 -0.27420127 0.4124108
0.55134296 -0.52956617 0.2447698 -0.055961948 0.22724801 -0.21326013 0.02025744 -0.026760595

lstm.bias_hh_l0 f4 [600]
00000000: d921 a63d c8ef c93d 3adb 9abe be98 08bf
00000010: de17 573f 2b49 f73e 89f4 f4be e0a8 973e
00000020: 35cd 10bd 9084 78bd a185 af3e 2e86 513e
00000030: 3b17 713d 550a bd3c 8851 9a3e e46b 39bf
00000040: 4dce 813d 5b04 623e f7a4 493d 8deb 803e
00000050: cfc1 87be 42b6 8ebd a4de 6f3d a8f2 d4bd
00000060: 0d2c 73be aa9f 85bd 9904 d3be c88d 643e
00000070: 794a a63e 8c62 473e 608b ebbc d448 cebd
00000080: 3811 ee3e b96a 6f3e 8d19 bcbe 084c 5e3e
00000090: c9d5 81be ddf1 a9bd d4c2 cf3d a91e fbbd
000000a0: c622 f43e f059 4abd b3cc adbc 805c 513e
000000b0: 7839 b33e 57f0 ffbe 5d16 fbbe 48d7 c53d
000000c0: 3510 d7bd edbf 543e 32bf 293e d5d2 00be
000000d0: 1626 8a3e d5a1 593d ce53 863e 97f9 cf3d
000000e0: bde1 ea3e d3a2 343e f40f f03e e664 133f
000000f0: 460b 733d e8f6 42be ef16 d13d 099b 1fbe
00000100: 40af e6be fc25 1d3e adc3 133f 9649 a53e
00000110: d9f1 8c3e 2aff a43d bbec dcbe f0df c93e
00000120: f961 a2be 8a1b 04be beb8 0a3f 1917 99be
00000130: 53b6 d63e dd5d 07be e685 d03e ad6c 0ebf
00000140: f5da 803e cb19 2fbe fe19 1c3d 83ed b2bd
00000150: d5bb 193e 8129 c93d 4266 e6be 938e 483f
00000160: 20e8 8d3e 6295 25bf e103 c03e 984e ca3e
00000170: 4c06 933e ee73 bbbe 5750 a33e 0a5c 533e
00000180: c635 20be c323 583e 8ce2 9abe 38d5 883d
00000190: cb4d c03e 168e cabe 934a 8dbe 00c5 c63c
000001a0: 1faf e13d 532a a13e 6c9b 433c d121 043f
000001b0: 4581 0d3e 8ab9 d83d b661 dabe a852 193e
000001c0: 2f65 b53e 8a27 b83d cf27 a23e c551 be3e
000001d0: 24a9 cbba b3d8 4e3e 0ccb 2e3d b473 543d
000001e0: 5838 863e 3393 063f 9959 d43e 9b6a 8a3e
000001f0: 895c b4bd efc7 4f3e ef35 9fbe 55aa 733e
00000200: cbb5 0a3f 4ece c43e 88d7 4bbe e9e3 db3e
00000210: 36ca 16bf b2c1 52be 085d 403e a30a 923e
00000220: 6034 ec3e 317d 09be 9d90 ed3e cc76 053e
00000230: 2ffa 46be 1421 233e dd6e 133f e767 323f
00000240: 39ae 8cbe 8c14 c53e 97ad 143e 76c9 f73e
00000250: b22b 8c3e bf9c 973e 535b a63e 5198 d73c
00000260: f741 cdbe d3f5 fd3e 38f2 dbbe ab58 043f
00000270: f395 b5be dd2f 293e 6a95 d03e 0dda e13e
00000280: 12fb 0bbe 3820 49be b0f2 86be 8081 9b3e
00000290: 2f24 9d3e 05a1 61be 47c0 2a3f 5438 b63e
000002a0: 84e6 babd 8b28 913e 9a59 263e f34d 87bd
000002b0: 9d20 10bf 62b0 71be edfd 913e 3ae9 4fbe
000002c0: 1d8a 25bf 94e4 d4be 983b c23e 47d0 f73e
000002d0: 5530 ccbe b748 d73e 04e9 143e aa9e 383e
000002e0: 6778 e2be 76f3 373e 9869 9abd 8997 8abe
000002f0: c1b2 6abe 255b 7bbd eb6c b13e d41c 8fbe
00000300: 61d9 35be 3eab 403e 7647 183f ce91 5ebe
00000310: 95c9 043e ecb4 4ebf db7f 53be 17a0 0b3e
00000320: cdb4 7dbe 65ae 30be d889 1b3f 0f30 733e
00000330: bf07 c33e 7354 c9be d151 9b3e bfc5 1f3e
00000340: 10f7 993e ce27 9b3e 5596 f53e 3241 c13e
00000350: dfd0 1b3e 9015 79bc 26be 083d 1bda 9fbe
00000360: 658e 9a3e 81ec 013f 86f3 c83e a98d 373e
00000370: e784 87be 6f53 653e d7b6 613e bef4 dcbd
00000380: fda9 1f3e 9dbc 24be c2c5 8e3e c408 d63e
00000390: fd44 613e 8430 4c3c 1b2e ba3e d5b5 8c3e
000003a0: 46c7 793e 85ac 8c3e 1543 04be 54db 3a3e
000003b0: 1118 a4bd 12c6 9f3e aad2 b6be 2e44 c4be
000003c0: c137 0bbf 3061 a73e fedd a53d 2bb5 3cbe
000003d0: 9352 f73e 1bb8 223e d46e 9ebe 17da e33e
000003e0: 4d02 ef3e f4a4 10bf 9d66 4e3e f687 8fbd
000003f0: 6988 953e d3f0 72be 556a f43c f869 8bbc
0.08111925 0.09860188 -0.30245382 -0.53358066 0.84020793 0.4829801 -0.47842816 0.2962103
-0.03535195 -0.060673296 0.34281638 0.20461342 0.058860045 0.023076216 0.30140328 -0.72430253
0.06338177 0.22071974 0.04922959 0.2517971 -0.26515052 -0.06968357 0.058561936 -0.103978455
-0.23747273 -0.06524594 -0.41214445 0.2231971 0.32478693 0.19471186 -0.028752983 -0.100724846
0.46497512 0.23380555 -0.36738244 0.21708691 -0.25358418 -0.08298085 0.101445824 -0.12261707
0.4768278 -0.049402177 -0.021215772 0.20445442 0.35004783 -0.49988052 -0.490405 0.09660202
-0.10501138 0.20776339 0.16576841 -0.12580426 0.26982182 0.05313285 0.26235813 0.10155027
0.4587535 0.17640238 0.4688717 0.57575834 0.059336923 -0.190395 0.10209452 -0.15586485
-0.4505558 0.15346521 0.5772045 0.32282704 0.27528265 0.08056481 -0.4314936 0.39428663
-0.31715372 -0.1290113 0.54188144 -0.29900435 0.41935977 -0.132194 0.40727156 -0.55634576
0.2516705 -0.17099683 0.038110726 -0.08736708 0.15013058 0.09822369 -0.44999892 0.7834255
0.2771616 -0.64681065 0.3750296 0.39513087 0.28715742 -0.36611885 0.31897232 0.20640579
-0.15645513 0.21107392 -0.30250967 0.06681293 0.3755935 -0.39561528 -0.27595958 0.024263859
0.1101973 0.31477603 0.011938911 0.516141 0.13818844 0.10582264 -0.42652673 0.14972937
0.3542876 0.089919165 0.31670997 0.3717176 -0.0015538079 0.20199852 0.04267411 0.051868156
0.26214862 0.5256836 0.41474608 0.2703446 -0.08806712 0.20291112 -0.31095836 0.23795445
0.54183644 0.38438648 -0.19906437 0.4294732 -0.589023 -0.20581701 0.18785489 0.2852374
0.4613371 -0.13426663 0.46399394 0.13033599 -0.19431375 0.15930587 0.5759104 0.6968979
-0.2747667 0.3849224 0.14519344 0.4839589 0.27377087 0.29611775 0.3249155 0.026317747
-0.4008939 0.49601611 -0.42958236 0.51697797 -0.35465965 0.16522165 0.40738994 0.44111672
-0.13669994 -0.19641197 -0.2635703 0.30372238 0.30691668 -0.2203408 0.6669964 0.3558985
-0.091259986 0.28351244 0.16245118 -0.066066645 -0.56299764 -0.23602441 0.28514042 -0.20303813
-0.6466387 -0.4158064 0.3793609 0.4840109 -0.39880624 0.42047665 0.14542013 0.18029276
-0.44232485 0.17963967 -0.07539672 -0.27068737 -0.22919752 -0.06136622 0.3465341 -0.27951682
-0.17758705 0.18815324 0.5948404 -0.21735308 0.12967522 -0.80744815 -0.20654242 0.13635288
-0.24776001 -0.17254026 0.6075721 0.23748802 0.38091847 -0.39322242 0.30335858 0.15602778
0.30071306 0.30303806 0.47966257 0.37745053 0.15216397 -0.015202895 0.033384465 -0.3122109
0.30186763 0.507515 0.39248294 0.17925133 -0.26468584 0.22395109 0.22042404 -0.10788868
0.15592189 -0.16087575 0.27885252 0.41803563 0.21998973 0.012462739 0.363633 0.27482477
0.24392423 0.27475372 -0.12916215 0.1824773 -0.08012403 0.31205803 -0.357076 -0.38333267
-0.5438195 0.32691336 0.08098982 -0.18428485 0.48305187 0.15890543 -0.3094393 0.44502327
0.46681443 -0.565017 0.20156331 -0.07008354 0.29205635 -0.2372468 0.02983586 -0.017018303

layernorm.weight f4 [150]
00000000: 0000 803f 0000 803f 0000 803f 0000 803f
00000010: 0000 803f 0000 803f 0000 803f 0000 803f
00000020: 0000 803f 0000 803f 0000 803f 0000 803f
00000030: 0000 803f 0000 803f 0000 803f 0000 803f
00000040: 0000 803f 0000 803f 0000 803f 0000 803f
00000050: 0000 803f 0000 803f 0000 803f 0000 803f
00000060: 0000 803f 0000 803f 0000 803f 0000 803f
00000070: 0000 803f 0000 803f 0000 803f 0000 803f
00000080: 0000 803f 0000 803f 0000 803f 0000 803f
00000090: 0000 803f 0000 803f 0000 803f 0000 803f
000000a0: 0000 803f 0000 803f 0000 803f 0000 803f
000000b0: 0000 803f 0000 803f 0000 803f 0000 803f
000000c0: 0000 803f 0000 803f 0000 803f 0000 803f
000000d0: 0000 803f 0000 803f 0000 803f 0000 803f
000000e0: 0000 803f 0000 803f 0000 803f 0000 803f
000000f0: 0000 803f 0000 803f 0000 803f 0000 803f
00000100: 0000 803f 0000 803f 0000 803f 0000 803f
00000110: 0000 803f 0000 803f 0000 803f 0000 803f
00000120: 0000 803f 0000 803f 0000 803f 0000 803f
00000130: 0000 803f 0000 803f 0000 803f 0000 803f
00000140: 0000 803f 0000 803f 0000 803f 0000 803f
00000150: 0000 803f 0000 803f 0000 803f 0000 803f
00000160: 0000 803f 0000 803f 0000 803f 0000 803f
00000170: 0000 803f 0000 803f 0000 803f 0000 803f
00000180: 0000 803f 0000 803f 0000 803f 0000 803f
00000190: 0000 803f 0000 803f 0000 803f 0000 803f
000001a0: 0000 803f 0000 803f 0000 803f 0000 803f
000001b0: 0000 803f 0000 803f 0000 803f 0000 803f
000001c0: 0000 803f 0000 803f 0000 803f 0000 803f
000001d0: 0000 803f 0000 803f 0000 803f 0000 803f
000001e0: 0000 803f 0000 803f 0000 803f 0000 803f
000001f0: 0000 803f 0000 803f 0000 803f 0000 803f
00000200: 0000 803f 0000 803f 0000 803f 0000 803f
00000210: 0000 803f 0000 803f 0000 803f 0000 803f
00000220: 0000 803f 0000 803f 0000 803f 0000 803f
00000230: 0000 803f 0000 803f 0000 803f 0000 803f
00000240: 0000 803f 0000 803f 0000 803f 0000 803f
00000250: 0000 803f 0000 803f
1.0 1.0 1.0 1.0 1.0 1.0 1.0 1.0
1.0 1.0 1.0 1.0 1.0 1.0 1.0 1.0
1.0 1.0 1.0 1.0 1.0 1.0 1.0 1.0
1.0 1.0 1.0 1.0 1.0 1.0 1.0 1.0
1.0 1.0 1.0 1.0 1.0 1.0 1.0 1.0
1.0 1.0 1.0 1.0 1.0 1.0 1.0 1.0
1.0 1.0 1.0 1.0 1.0 1.0 1.0 1.0
1.0 1.0 1.0 1.0 1.0 1.0 1.0 1.0
1.0 1.0 1.0 1.0 1.0 1.0 1.0 1.0
1.0 1.0 1.0 1.0 1.0 1.0 1.0 1.0
1.0 1.0 1.0 1.0 1.0 1.0 1.0 1.0
1.0 1.0 1.0 1.0 1.0 1.0 1.0 1.0
1.0 1.0 1.0 1.0 1.0 1.0 1.0 1.0
1.0 1.0 1.0 1.0 1.0 1.0 1.0 1.0
1.0 1.0 1.0 1.0 1.0 1.0 1.0 1.0
1.0 1.0 1.0 1.0 1.0 1.0 1.0 1.0
1.0 1.0 1.0 1.0 1.0 1.0 1.0 1.0
1.0 1.0 1.0 1.0 1.0 1.0 1.0 1.0
1.0 1.0 1.0 1.0 1.0 1.0

layernorm.bias f4 [150]
00000000: 0000 0000 0000 0000 0000 0000 0000 0000
00000010: 0000 0000 0000 0000 0000 0000 0000 0000
00000020: 0000 0000 0000 0000 0000 0000 0000 0000
00000030: 0000 0000 0000 0000 0000 0000 0000 0000
00000040: 0000 0000 0000 0000 0000 0000 0000 0000
00000050: 0000 0000 0000 0000 0000 0000 0000 0000
00000060: 0000 0000 0000 0000 0000 0000 0000 0000
00000070: 0000 0000 0000 0000 0000 0000 0000 0000
00000080: 0000 0000 0000 0000 0000 0000 0000 0000
00000090: 0000 0000 0000 0000 0000 0000 0000 0000
000000a0: 0000 0000 0000 0000 0000 0000 0000 0000
000000b0: 0000 0000 0000 0000 0000 0000 0000 0000
000000c0: 0000 0000 0000 0000 0000 0000 0000 0000
000000d0: 0000 0000 0000 0000 0000 0000 0000 0000
000000e0: 0000 0000 0000 0000 0000 0000 0000 0000
000000f0: 0000 0000 0000 0000 0000 0000 0000 0000
00000100: 0000 0000 0000 0000 0000 0000 0000 0000
00000110: 0000 0000 0000 0000 0000 0000 0000 0000
00000120: 0000 0000 0000 0000 0000 0000 0000 0000
00000130: 0000 0000 0000 0000 0000 0000 0000 0000
00000140: 0000 0000 0000 0000 0000 0000 0000 0000
00000150: 0000 0000 0000 0000 0000 0000 0000 0000
00000160: 0000 0000 0000 0000 0000 0000 0000 0000
00000170: 0000 0000 0000 0000 0000 0000 0000 0000
00000180: 0000 0000 0000 0000 0000 0000 0000 0000
00000190: 0000 0000 0000 0000 0000 0000 0000 0000
000001a0: 0000 0000 0000 0000 0000 0000 0000 0000
000001b0: 0000 0000 0000 0000 0000 0000 0000 0000
000001c0: 0000 0000 0000 0000 0000 0000 0000 0000
000001d0: 0000 0000 0000 0000 0000 0000 0000 0000
000001e0: 0000 0000 0000 0000 0000 0000 0000 0000
000001f0: 0000 0000 0000 0000 0000 0000 0000 0000
00000200: 0000 0000 0000 0000 0000 0000 0000 0000
00000210: 0000 0000 0000 0000 0000 0000 0000 0000
00000220: 0000 0000 0000 0000 0000 0000 0000 0000
00000230: 0000 0000 0000 0000 0000 0000 0000 0000
00000240: 0000 0000 0000 0000 0000 0000 0000 0000
00000250: 0000 0000 0000 0000
0.0 0.0 0.0 0.0 0.0 0.0 0.0 0.0
0.0 0.0 0.0 0.0 0.0 0.0 0.0 0.0
0.0 0.0 0.0 0.0 0.0 0.0 0.0 0.0
0.0 0.0 0.0 0.0 0.0 0.0 0.0 0.0
0.0 0.0 0.0 0.0 0.0 0.0 0.0 0.0
0.0 0.0 0.0 0.0 0.0 0.0 0.0 0.0
0.0 0.0 0.0 0.0 0.0 0.0 0.0 0.0
0.0 0.0 0.0 0.0 0.0 0.0 0.0 0.0
0.0 0.0 0.0 0.0 0.0 0.0 0.0 0.0
0.0 0.0 0.0 0.0 0.0 0.0 0.0 0.0
0.0 0.0 0.0 0.0 0.0 0.0 0.0 0.0
0.0 0.0 0.0 0.0 0.0 0.0 0.0 0.0
0.0 0.0 0.0 0.0 0.0 0.0 0.0 0.0
0.0 0.0 0.0 0.0 0.0 0.0 0.0 0.0
0.0 0.0 0.0 0.0 0.0 0.0 0.0 0.0
0.0 0.0 0.0 0.0 0.0 0.0 0.0 0.0
0.0 0.0 0.0 0.0 0.0 0.0 0.0 0.0
0.0 0.0 0.0 0.0 0.0 0.0 0.0 0.0
0.0 0.0 0.0 0.0 0.0 0.0

batchnorm.weight f4 [150]
00000000: b958 3b3f 5a55 6a3f 4336 9e3f 8735 a63f
00000010: a78c e73e ddc2 153f e002 d43e bff3 a13f
00000020: 1e9d 0e3f af71 b23f e8ee 513e a0f1 6b3f
00000030: 8da3 4a3f d49c 923f 6270 053f 470c d03f
00000040: 2c8c 593f b247 5f3f 09ec 3d3f d506 ca3f
00000050: b18a 1c3f 6d25 923e 0e8e 673f a922 603f
00000060: 3590 8f3f 0c02 8f3e 5706 c43f d216 263f
00000070: a9e3 7a3f b8f3 ed3e 9440 543f e352 373f
00000080: af76 2d3f 2685 ec3e 3203 193f ee12 433f
00000090: e399 e43e c670 8c3f f47c 063f 2632 003f
000000a0: d872 723f e878 123f a7e1 363f 898b 373f
000000b0: d605 0a3f 6357 a43f 6547 af3e bd78 163c
000000c0: 656e f73e f7b6 4a3f 9b90 663f cc94 233f
000000d0: c5bd 3a3f b9ec f63e 0a4d c23f b1c1 103f
000000e0: 1cb4 4e3f dfe4 433f af4c 863e ae2b 783f
000000f0: 2be1 873f 8a26 bb3f 924f 033f a402 833f
00000100: 57e6 2e3f 15f2 823e ab6d 653f 2471 053f
00000110: 54b7 5c3f 8158 133f 1b25 893f fc77 053f
00000120: ea8f 563f e485 363f 21bd 973e c8de 913f
00000130: d2fe 7d3f 829d f33e 71dd c13e bbcf 883f
00000140: f0d7 883e 096a 343f bbe8 f13e 4fe6 493f
00000150: b529 9d3f 3c66 843e 4db6 273f 7b73 1f3f
00000160: 84d4 683f 4106 f03f ba3e 273f db9f c23e
00000170: 81bf 9c3f 8bdd b23f 6690 1e3f b91d 1c3f
00000180: 9ef1 7d3e 58e1 5b3f e76e d13e 09f6 9f3f
00000190: 22fc 033f cb5a 843f 5ead 133f 93f8 a03f
000001a0: 78a1 a83e 3990 923f 60e7 103f 4baf 323f
000001b0: 61c5 7a3f fa9f 493f e1d6 d13f 46cb cf3d
000001c0: 88bb 2d3f 5260 ed3e ba32 6b3f 579f a33f
000001d0: 3410 403f 3a1f 973f 320e 623f 2fff 0f3e
000001e0: 8c35 fa3e e217 6b3f c6d3 863f ba83 b43f
000001f0: 1c24 223f a1c6 073f c4e7 853f 7a51 983e
00000200: 349d 693f c468 163f 3bc0 4f3f e010 5d3f
00000210: f435 b73f 059c 073f 18d2 a83f c4d4 883f
00000220: 7ed0 5f3f 8c5a 223f 5b76 a43f bafd d43e
00000230: a1dd 843f a71d 9f3e cff1 583f 466b 1340
00000240: a3d5 223f b559 213f 0a9c 1b3f 65fa 8e3f
00000250: cf24 843f 0721 0a3f
0.73182255 0.91536486 1.2360309 1.2985085 0.45224497 0.5850046 0.41408443 1.265251
0.5570849 1.3940943 0.20501292 0.92165565 0.7915581 1.145411 0.5212461 1.6253747
0.8497951 0.87218773 0.74188286 1.5783335 0.61149126 0.2854418 0.90451133 0.8755289
1.1215883 0.2793125 1.5314435 0.6487857 0.9800363 0.46475005 0.8291104 0.7161085
0.6775922 0.46195334 0.597705 0.7620076 0.44648656 1.0971916 0.52534413 0.5007652
0.9470649 0.5721574 0.7143807 0.7169729 0.53915155 1.2839168 0.34234157 0.00918406
0.48326412 0.7918543 0.900644 0.6389892 0.72945815 0.4822748 1.517976 0.5654555
0.80743575 0.76521105 0.2623038 0.9694165 1.0615591 1.4621136 0.5129329 1.0235181
0.6832022 0.2557532 0.89620465 0.52125764 0.86217237 0.5755692 1.0714449 0.52136207
0.83813345 0.7129805 0.2963648 1.1396112 0.9921695 0.47581106 0.3786426 1.0688394
0.26727247 0.70474297 0.47247872 0.7886705 1.2278353 0.2585925 0.65512544 0.62285584
0.90949273 1.8751909 0.6533009 0.38012585 1.2245942 1.397386 0.61939085 0.60982853
0.24799201 0.8589072 0.40904924 1.2496959 0.515566 1.0340208 0.5768641 1.2575859
0.3293569 1.1450263 0.5660305 0.69798726 0.97957426 0.7875973 1.6393701 0.10146193
0.67864275 0.4636255 0.9187428 1.2783002 0.75024724 1.1806405 0.8830291 0.14062189
0.48868978 0.9183332 1.0533378 1.41027 0.6333635 0.5303746 1.0461354 0.29749662
0.912555 0.5875361 0.81152695 0.86353874 1.431334 0.5297244 1.3189116 1.0689931
0.8742751 0.63419414 1.2848619 0.41599828 1.0380136 0.3107731 0.8474397 2.3034225
0.63607234 0.6302751 0.6078497 1.1170164 1.0323733 0.53956646

batchnorm.bias f4 [150]
00000000: 8219 eb3e 82e8 9cbe 25ff 1d3f d08c 333f
00000010: 125c 5b3f 5cea 013f ab71 d6be c036 153f
00000020: bf53 ee3e e0fe 293f 68a5 773f 337b 3c3f
00000030: 5238 c5be ba55 063f b544 9e3e ba8c 703f
00000040: 8532 113f a674 2d3f fecc 003f 09ed 293f
00000050: a948 053f 2d75 6e3e 19c1 fa3e 263c 2d3f
00000060: f785 58bf 267f f3be f7f6 fe3e 7d92 2d3f
00000070: d12c 263f 7a18 823e c73f bb3e 9ad9 203f
00000080: 0a82 023f 2d21 dd3e 849a 203f c014 583f
00000090: d7a0 283f e5f4 643e bc32 e13e 62ea 2b3f
000000a0: be61 1b3f a39a 163f ad86 473f a3ca cd3e
000000b0: 225d eb3e d462 4f3f 454c f63e 07f3 323f
000000c0: a380 dd3e 379b 443f 9308 433f 9bc6 3cbf
000000d0: fbdc c13e 0cc2 c73e 4d41 0e3f e1e4 fd3e
000000e0: c222 d53e b0a9 1a3f 778f 193f ccee 0e3f
000000f0: 73e0 493f a0e9 053f a978 b03e 3b1b e33e
00000100: db06 edbe f39d 513f 0cba 363f 9347 d93e
00000110: 2888 b13e f54d b03e 01f2 273f 3a8e db3e
00000120: d388 453f b1f3 023f 2313 503f 9f61 1b3f
00000130: f109 033f 2621 de3e f562 333f d124 eb3e
00000140: ee57 e83e be75 f83e 1140 323f 8c3e 363f
00000150: cb25 3e3f d512 863e 8693 ccbd 790b 893e
00000160: 5314 343f 524d a13e 759f 92be f349 383f
00000170: 9770 123f c75d b93e 4657 aa3e dd7b 3c3f
00000180: 2350 6d3f b7a4 2a3f c7dc eb3e 35f1 2e3d
00000190: af4b b2be 246e ad3e c911 073f b7a5 033f
000001a0: c61a 35bf 5a51 8e3e 36e5 373f 8388 403f
000001b0: 63c0 0b3f c87d 023f 67bd c83e 7a4f be3e
000001c0: fc75 1c3f 891e a73e 16b2 c73e be6a a53e
000001d0: 6853 db3e 3155 933e 473f 1b3f db4a 5b3f
000001e0: e7d7 623e e850 e33e a6a1 d83e 2999 423f
000001f0: 4f6d 273f 64f1 b83e 77af 593e fedb 8f3e
00000200: 724b 193f c919 0b3f a834 423f 46b7 b53e
00000210: 507f e33e 7a21 6bbf 8874 0c3f 39cb 863f
00000220: 6f04 0d3f 14ce 1c3f cb74 07bf b215 3e3d
00000230: 1462 2f3f 50bb ce3e 437b bb3e 8ec7 253f
00000240: 0a57 3a3f 4956 e03e dd4e 113f 915b 3a3f
00000250: ecbe 963e fff8 103f
0.45917898 -0.3064614 0.61717445 0.7013674 0.85687363 0.5074823 -0.41883597 0.58286667
0.46548268 0.66404533 0.96736765 0.7362549 -0.3851953 0.5247456 0.30911794 0.9396473
0.5671771 0.67756116 0.50312793 0.6637731 0.52063996 0.23286887 0.48975447 0.67669904
-0.84579414 -0.47557944 0.49797794 0.6780165 0.64912134 0.254093 0.36572096 0.62832034
0.50979674 0.43189374 0.6273577 0.8440666 0.6587042 0.22359045 0.4398402 0.67154515
0.6069602 0.58829707 0.77939874 0.40193662 0.45969492 0.81010175 0.48105064 0.6990208
0.43262205 0.7679934 0.7618496 -0.7374055 0.37863907 0.39015234 0.5556839 0.49588683
0.4162808 0.6041517 0.59984535 0.55833125 0.7885811 0.5230961 0.34467056 0.44356713
-0.46294293 0.81881636 0.71377635 0.4243742 0.3467419 0.34434476 0.65603644 0.42881948
0.771619 0.51153094 0.812792 0.6069583 0.51187044 0.43384665 0.7007287 0.45926526
0.45379585 0.4852733 0.6962901 0.7118919 0.7427642 0.26186243 -0.09989075 0.26766565
0.7034351 0.31504303 -0.2863728 0.7198784 0.5720305 0.3620436 0.3326971 0.736265
0.92700404 0.66657585 0.46066877 0.0427105 -0.34823367 0.33873093 0.52761513 0.51424736
-0.7074398 0.2779644 0.71834123 0.752083 0.54590434 0.50973177 0.39207003 0.3717001
0.6111753 0.32640484 0.39003056 0.32308 0.4283707 0.28775933 0.6064343 0.85661095
0.22152673 0.44397664 0.42310828 0.76014954 0.65401167 0.36121666 0.21258341 0.28097528
0.59880745 0.5433622 0.758616 0.3549139 0.4443307 -0.91847956 0.5486531 1.0530769
0.5508489 0.6125195 -0.52912587 0.04640741 0.6850903 0.40377283 0.3661748 0.6475762
0.7278906 0.4381583 0.5676096 0.7279597 0.29442537 0.5662994

batchnorm.running_mean f4 [150]
00000000: f0ac ebbe ddd9 a53b cc20 073b 19e7 0e3e
00000010: c4ba 0e3f 8b86 76bf 3ea8 bc3a cb24 2e3f
00000020: 822b aa3e 2522 c83d 8567 d1bb 2df1 32be
00000030: 632b e23c aca7 583f 4ffe 72bf c28a d93e
00000040: 3700 40bc 33c3 763f e2e9 fdbe ec68 393f
00000050: d1b9 0cbd 57eb bcbc 90b2 003b 42c7 06be
00000060: 7c21 be3d 8f6c 3d3f b1c3 3d3d b0ac 363f
00000070: 2745 5d3f f3b5 67bf 584c ef3e f87e cdbd
00000080: b103 77bf f20a 77bf 48d2 d637 8daa 82be
00000090: 1295 7f3d fdea c33e 47b7 9bbe 8b97 ccb8
000000a0: 290c 32bf 24c0 a6bb 443d f7be 91ea 12be
000000b0: 0a62 76bf 0d9c 383f 70ac 43bf 46ae 863c
000000c0: 75d8 3b3c a8d0 04bc 6a77 0d3f 3944 d938
000000d0: df82 77bf a41a 73bf 0b48 063f e70c 673d
000000e0: 8f56 76bf 170c 16be b174 743f d7a8 59bf
000000f0: 17c8 82be 7a91 0a3f bb6e 4ebc c2c6 06bf
00000100: 9cac e0ba 44c0 cc3b b1d5 653f a8d3 73bf
00000110: 0470 5abf 8f3b 77bf 86be 993b bef5 75bf
00000120: 7965 56bc 13bb 52be 5f87 44bf fdb7 ef3e
00000130: 33d1 5dbf 0486 39bf 1f89 753f 484e fb3e
00000140: 18a5 5abf 4007 76bf b9d6 0fbf 70a5 eabd
00000150: 2dcd f23e 03fd 74bf 118b 8eba ab79 74bf
00000160: ec61 243f 0545 9f3e 69ee 3dbf 28b3 6dbf
00000170: ac1d 55bf b9ad eb3d e553 77bf 1280 35be
00000180: d30c 60bc 7eea ffbe 9ac4 32bc 4968 a23e
00000190: ce71 433f 7b07 1b3f bc4f 4bbd 258d 133f
000001a0: e313 a0bc 9734 b83e 48f7 67bd 5d63 75bf
000001b0: 8ecf a4ba 47dd 44bf cca6 5b3c fff3 32bf
000001c0: 9801 653f f01f 75bf 2493 65bf e926 3dbf
000001d0: 9ee1 943e 4de5 62bf a649 beba 4647 24bd
000001e0: d879 74bf ab0d 55bf c815 5bbf c1b6 523f
000001f0: d603 8abd b4f6 6bbf 94bd db3d 9d6d 76bf
00000200: 2334 8ebd 03a0 76bf b767 78ba 33c6 ddbe
00000210: b096 c83e ad79 8ebb fd0b f13e aba0 c3bb
00000220: 7929 d73e 3055 0cb1 4b7e d83d d87a 6ebf
00000230: 2890 c73e 6b51 f8bb a6b1 64bf b390 653f
00000240: de3a 88be a31c 1bbe da53 76bf 37f5 773f
00000250: 9490 49bf 2cdc 69bf
-0.46030378 0.0050613717 0.0020618914 0.13955344 0.5575373 -0.96299046 0.0014393402 0.6802489
0.3323632 0.097721376 -0.0063905143 -0.17474814 0.027608579 0.84630847 -0.94919294 0.42488676
-0.011718801 0.963916 -0.495925 0.72425723 -0.034356896 -0.023061438 0.0019637682 -0.13161948
0.092837304 0.7399377 0.046329204 0.7135725 0.86433643 -0.9051201 0.46737933 -0.10033983
-0.9649001 -0.96501076 2.5608708e-05 -0.25520745 0.062398024 0.3826522 -0.30413267 -9.755705e-05
-0.69549805 -0.005088823 -0.4828893 -0.14347292 -0.96243346 0.72113115 -0.76434994 0.016440522
0.011465182 -0.008106388 0.55260336 0.00010360074 -0.9668407 -0.94962525 0.5245368 0.05640879
-0.9622583 -0.1465305 0.95490557 -0.85023254 -0.2554328 0.5412823 -0.012599642 -0.5264703
-0.0017141285 0.006248506 0.8977919 -0.95244837 -0.8532717 -0.96575254 0.0046919016 -0.960781
-0.013085716 -0.20579176 -0.7676906 0.4682006 -0.8664734 -0.72470117 0.95912355 0.4908316
-0.85408163 -0.9610481 -0.56187016 -0.11457336 0.47422162 -0.95698565 -0.0010875185 -0.9549815
0.64211917 0.31107345 -0.7419191 -0.92851496 -0.832484 0.11507744 -0.9661239 -0.17724636
-0.0136749325 -0.4998359 -0.010911131 0.31720188 0.7634553 0.6055829 -0.049636588 0.57637244
-0.019540733 0.35977623 -0.05663231 -0.9585474 -0.0012574063 -0.7690014 0.013406467 -0.6990356
0.89455557 -0.9575186 -0.89677644 -0.738875 0.29078382 -0.88631135 -0.0014517799 -0.040107034
-0.9549842 -0.8322398 -0.8558011 0.8231011 -0.06739013 -0.92173314 0.107295185 -0.96261007
-0.06943538 -0.9633791 -0.0009475904 -0.43315277 0.39177465 -0.004348001 0.4707946 -0.005970081
0.4202383 -2.0421105e-09 0.105709635 -0.93156195 0.3897717 -0.007578065 -0.8933357 0.8967392
-0.26607412 -0.15147643 -0.962217 0.96858543 -0.78736234 -0.9135158
