src/results/subject_P20/best_model.pth (torch, 481333 bytes, 15 tensors)

input_linear.weight f4 [40, 40]
0.102112964 0.047274053 0.008817285 0.005875364 -0.10276397 0.13545622 0.08754553 0.13499431
-0.09930255 0.14012997 0.106291756 -0.0069017857 -0.1569217 -0.11661403 -0.1017796 -0.09193249
-0.10320013 0.108904794 0.09598185 0.027570471 0.017858386 0.082931235 0.11914937 -0.13490486
0.107819036 0.051190913 0.12635554 0.09187105 -0.14407484 0.02616693 -0.037576407 0.1477272
0.09883706 -0.12553227 -0.11873166 -0.12204623 -0.11694744 -0.006474465 -0.00654608 -0.035342887
-0.085625395 -0.09245697 0.06264809 -0.03592985 0.03712745 -0.06300523 -0.11572021 -0.063598566
0.021983624 -0.1463361 -0.07433754 -0.10424672 0.068015456 -0.04423526 -0.038178682 -0.14803499
-0.09035957 -0.120562896 0.13669945 -0.044885293 -0.11799991 -0.036746584 0.13045831 0.15592872
0.031271353 -0.14467111 -0.054405026 -0.07444832 -0.0023343712 0.08869426 0.104152486 -0.1335957
0.10413827 -0.15719393 0.061265543 0.10812716 0.03490132 -0.15797164 0.12945871 -0.0013405979
0.062969714 -0.12971339 0.05707483 -0.09645624 0.06017497 0.082752764 -0.06684021 0.13604511
0.097846374 -0.09158782 0.054806992 -0.09706105 0.09083617 0.0030507594 -0.086437546 -0.032560915
0.052181393 -0.12978895 0.06441292 0.11846323 0.064561605 -0.003034234 0.069254875 -0.04470075
-0.09200866 -0.10013057 -0.036266036 0.14739947 0.12683125 -0.1499683 0.083107516 -0.14886606
-0.08162669 0.095877185 0.0397103 0.0072404295 0.13524811 -0.0647803 0.0030075908 -0.032166675
-0.06551003 0.044680804 0.03758645 0.12130405 -0.07532534 -0.053323172 0.030655146 -0.06852844
0.00655739 -0.12756437 0.05401863 -0.062170275 0.07372238 -0.11445662 -0.1264361 0.12291376
-0.086894885 -0.13106197 -0.04905554 -0.08608208 -0.11368166 -0.0930327 -0.13445416 0.010055721
0.1112517 0.009358525 -0.0509063 0.04254751 -0.08005494 0.07372296 0.13557832 -0.090654396
0.07527426 -0.049053483 0.084472835 -0.09325779 -0.050869815 -0.12938322 -0.014441103 -0.034836516
0.09411232 0.030596986 -0.10553919 0.059463114 0.011404127 0.15168445 0.047448263 0.13157062
-0.095868155 -0.11798165 -0.12522587 -0.018996611 -0.07448856 -0.045946963 -0.030862123 -0.030952156
0.04090397 -0.06232494 0.06579773 -0.05244126 0.114719585 -0.12698093 -0.12957132 -0.10798213
0.08056608 -0.0063732862 -0.0083763 -0.09714858 0.14513396 0.09360646 -0.049308747 -0.11254099
-0.12410488 -0.07512468 0.046774656 -0.021363601 -0.13606745 0.098180845 -0.0024223328 -0.13007775
0.041036487 0.13796397 0.048068598 -0.13468282 -0.040390044 -0.023997754 -0.0034939498 -0.04273261
-0.07682701 0.08293609 -0.067631066 -0.007534936 0.043782026 -0.09087634 0.15160094 0.037839532
0.054702327 0.07599844 -0.018286064 0.05043961 -0.12060084 -0.03208296 -0.024000809 0.13730799
-0.1495309 -0.073760055 -0.07456878 -0.03823197 -0.10433278 -0.05301884 0.15216188 0.07503185
-0.08991082 0.02021721 0.15047278 -0.02392517 -0.10458104 0.029164448 -0.12554638 -0.06015251
-0.097997814 -0.081642374 0.12133147 -0.062392384 -0.02328369 0.033320934 0.038730547 -0.13683042
-0.10836707 -0.020232305 0.10653059 0.041067258 0.08645648 0.0019446164 0.08245656 0.0065845996
00000000: 9a20 d13d 70a2 413d 6076 103c 2086 c03b
00000010: eb75 d2bd 09b5 0a3e 124b b33d f33b 0a3e
00000020: 235f cbbd 3b7e 0f3e 7eaf d93d 6028 e2bb
00000030: 15b0 20be 56d3 eebd d371 d0bd 1a47 bcbd
00000040: 975a d3bd 7a09 df3d 2292 c43d 78db e13c
00000050: c04b 923c dad7 a93d 9604 f43d 8024 0abe
00000060: 3ad0 dc3d 90ad 513d 5963 013e e426 bc3d
00000070: 5b88 13be 085c d63c b8e9 19bd cd45 173e
00000080: 166b ca3d 888b 00be 9629 f3bd 60f3 f9bd
00000090: 2482 efbd c027 d4bb 8080 d6bb b4c3 10bd
000000a0: 5e5c afbd 145a bdbd a44d 803d 2e2b 13bd
000000b0: f412 183d e308 81bd b8fe ecbd f73f 82bd
000000c0: 0017 b43c 21d9 15be 483e 98bd 4e7f d5bd
000000d0: b04b 8b3d 0830 35bd 4061 1cbd 7c96 17be
000000e0: 700e b9bd aee9 f6bd f1fa 0b3e a4d9 37bd
000000f0: f0a9 f1bd 9683 16bd dd96 053e c7ab 1f3e
00000100: 6416 003d aa24 14be ced7 5ebd 5c78 98bd
00000110: 40fc 18bb 56a5 b53d e64d d53d 50cd 08be
00000120: 7246 d53d 72f7 20be 94f1 7a3d c671 dd3d
00000130: b0f4 0e3d 51c3 21be d390 043e 00b7 afba
00000140: 44f6 803d 96d3 04be 4cc7 693d d98a c5bd
00000150: 087a 763d 487a a93d 85e3 88bd 694f 0b3e
00000160: ae63 c83d 6592 bbbd 4c7d 603d f2c7 c6bd
00000170: 5008 ba3d 40ef 473b 2b06 b1bd 985e 05bd
00000180: 28bc 553d 65e7 04be ecea 833d da9c f23d
00000190: e038 843d 00da 46bb 80d5 8d3d 2218 37bd
000001a0: 096f bcbd 4211 cdbd b28b 14bd e3ef 163e
000001b0: 0de0 013e 4a91 19be 4634 aa3d 5870 18be
000001c0: e52b a7bd 425b c43d 44a7 223d 2041 ed3b
000001d0: 7b7e 0a3e 89ab 84bd 001b 453b 34c1 03bd
000001e0: 1f2a 86bd 3803 373d 40f4 193d 426e f83d
000001f0: 2c44 9abd 6669 5abd 8020 fb3c a458 8cbd
00000200: 60df d63b 3ca0 02be a442 5d3d 42a6 7ebd
00000210: c2fb 963d 3b68 eabd 7778 01be 36ba fb3d
00000220: f2f5 b1bd 1c35 06be 76ee 48bd cd4b b0bd
00000230: eed1 e8bd ee87 bebd 5aae 09be c0c0 243c
00000240: eed7 e33d 8054 193c 2083 50bd 4c46 2e3d
00000250: d8f3 a3bd 10fc 963d 0bd5 0a3e 03a9 b9bd
00000260: 6429 9a3d 4eec 48bd 1800 ad3d f1fd bebd
00000270: de5c 50bd 097d 04be 609a 6cbc bcb0 0ebd
00000280: f6bd c03d 88a6 fa3c ee24 d8bd 988f 733d
00000290: 60d8 3a3c 2b53 1b3e 1c59 423d 73ba 063e
000002a0: 8656 c4bd 5da0 f1bd 363b 00be c89e 9bbc
000002b0: 758d 98bd e232 3cbd 90d2 fcbc 608f fdbc
000002c0: ec8a 273d 7048 7fbd f6c0 863d a6cc 56bd
000002d0: 1af2 ea3d 4a07 02be 58ae 04be bc25 ddbd
000002e0: d4ff a43d 00d7 d0bb c03c 09bc d6f5 c6bd
000002f0: ff9d 143e beb4 bf3d f8f7 49bd e47b e6bd
00000300: b32a febd f8da 99bd c896 3f3d b802 afbc
00000310: 4455 0bbe 0a13 c93d 00c0 1ebb 1a33 05be
00000320: e015 283d 6d46 0d3e 94e3 443d 4bea 09be
00000330: 0870 25bd f096 c4bc c0fa 64bb 6408 2fbd
00000340: 7b57 9dbd 66da a93d 2882 8abd a0e7 f6bb
00000350: c854 333d 601d babd 473d 1b3e a0fd 1a3d
00000360: 8c0f 603d 12a5 9b3d a8cc 95bc c499 4e3d
00000370: 93fd f6bd 6c69 03bd 589d c4bc 779a 0c3e
00000380: a11e 19be 830f 97bd 84b7 98bd 2099 1cbd
00000390: 6dac d5bd 482a 59bd 53d0 1b3e 4caa 993d
000003a0: 2a23 b8bd 909e a53c 8915 1a3e b8fe c3bc
000003b0: 962e d6bd 48ea ee3c 3b8f 00be 7a62 76bd
000003c0: 14b3 c8bd 1e34 a7bd a27c f83d 288f 7fbd
000003d0: 70bd bebc 887b 083d eca3 1e3d 461d 0cbe
000003e0: 8eef ddbd 38be a5bc b62c da3d 2436 283d
000003f0: 1810 b13d 80e2 fe3a fcde a83d a0c3 d73b

input_linear.bias f4 [40]
-0.024177328 -0.07836035 -0.020488888 -0.029231772 0.013612568 0.04400073 0.14843692 -0.101466805
0.100630715 0.07265298 -0.14111614 -0.047652386 -0.06392363 0.1134374 0.14830773 -0.09823212
0.1311179 0.123443946 0.11548449 -0.121338576 -0.13667132 -0.14562592 0.0806316 0.11661966
-0.078465454 0.11806066 0.09035672 0.009718418 -0.005683586 0.06631908 -0.075484954 -0.041418873
-0.083887585 -0.054677784 0.11187433 -0.024957314 -0.020472392 0.15249743 0.023425266 0.04094982
00000000: 880f c6bc 647b a0bd 50d8 a7bc 7877 efbc
00000010: 4007 5f3c 1c3a 343d d9ff 173e d4cd cfbd
00000020: 7a17 ce3d 16cb 943d c080 10be 262f 43bd
00000030: 64ea 82bd de51 e83d fbdd 173e ec2d c9bd
00000040: c543 063e 2ed0 fc3d 2283 ec3d 5c80 f8bd
00000050: 91f3 0bbe f61e 15be 2e22 a53d 4ad6 ee3d
00000060: 7fb2 a0bd cac9 f13d f20c b93d 003a 1f3c
00000070: 603d babb 4cd2 873d db97 9abd d6a6 29bd
00000080: 41cd abbd d0f5 5fbd 5e1e e53d 4873 ccbc
00000090: b8b5 a7bc 4928 1c3e 58e6 bf3c 00bb 273d

lstm.weight_ih_l0 f4 [600, 40]
0.073534094 -0.50019157 0.17190968 -0.80202055 -0.9098488 0.14538787 0.1516123 -0.16066854
-0.19041528 -0.111179404 -0.1553542 -0.74179006 0.28506738 0.12256793 0.6706183 0.91746694
-0.35229006 -0.19441813 -0.13990779 0.1247137 0.17516422 0.17365155 0.37736472 0.2893335
0.11726288 0.46782145 0.113691926 0.14526246 -0.13127127 0.2633561 -0.16335537 0.13264416
-0.13993865 -0.31590748 0.39001924 0.26327702 0.16945815 0.09435613 0.1924678 0.6648712
-0.43198237 0.42582607 0.10885212 0.09184516 0.30015677 0.14563955 0.17513373 -0.08328428
-0.10782346 -0.15649547 0.0015414176 -0.0822748 0.21918862 0.10380792 -0.31742916 0.2107228
0.123050936 0.027447615 0.0878799 0.081456505 0.16766113 0.12443678 -0.45562887 -0.54785883
0.15430485 -0.32903516 2.6584117e-05 0.06881746 0.07121805 -0.11965002 0.0038504095 0.08307275
0.024013225 0.16546163 -0.47713795 -0.54927707 0.10596903 -0.68979186 -0.5351511 -0.23024733
-0.51051503 0.07880689 0.2339007 0.87409556 0.25843832 0.26183987 0.16027434 -0.22095786
-0.09949137 -0.23662524 0.57318985 0.7681656 -0.045420792 0.19938104 -1.5994452 -0.47210038
0.113093905 0.5807939 0.63333344 0.29681805 0.21963087 0.20724535 0.17468429 0.27303836
0.2102009 0.043131612 -0.282875 -0.45349333 0.62636596 -0.5482856 0.6425267 0.28946805
0.65028954 0.14905094 0.21305634 0.3091706 0.20738456 -0.021074051 0.045121353 -1.6547848
-0.15276809 0.08301492 0.17843783 -0.06994547 0.1539034 0.1631638 0.13930862 -0.15969482
-0.17884341 -0.18177806 0.100207426 0.124943316 0.19303206 0.17181805 -0.11844199 -0.06813841
-0.13284288 0.16005118 0.17733203 0.22402248 0.17514151 0.23325127 0.03306017 -0.011417858
0.19834863 0.24615578 0.416295 0.0012888148 0.12658627 0.0008500014 0.10037331 0.20953819
0.1827579 -0.055520993 0.0076774373 0.05639008 0.14781387 0.10847834 0.10173212 -0.16183859
-0.33080637 -1.0630867 0.43133855 -0.17219625 -0.9077662 0.44882435 0.37590256 -0.4326105
-0.35780433 -0.38717175 0.488531 -0.40391868 0.22823673 0.3728401 0.05195859 -0.6511674
-0.09308041 0.42128018 0.4785526 0.36907855 0.46221668 0.3830944 -0.12982322 0.07537636
0.44322494 0.40642592 0.16222522 0.08729336 0.47746783 0.57093376 0.47582453 0.36774725
0.48122346 -0.09934905 -0.1424256 -0.017899923 0.39673185 -0.651767 -0.372306 0.09260614
0.09817784 -0.17769198 -0.38990366 -0.14198673 -0.18019176 -0.36762333 -0.42818892 0.41487876
0.3722232 0.3508995 -0.42152753 0.47273842 -0.39266622 -0.37990132 0.37171882 -0.008651214
-0.10754431 -0.3806526 -0.3844321 -0.40127194 -0.40137878 -0.4368329 0.0076384004 -0.054656215
-0.35677853 -0.13362232 -0.34841287 -0.596181 -0.43644446 0.12912379 -0.46104783 -0.427743
-0.38311067 -0.04742854 0.031339537 -0.049984775 -0.43494502 -0.17576751 -0.39543703 0.35938698
-0.14903875 -0.0729851 0.216618 0.118810125 -0.09303278 0.18550463 0.24194168 -0.23530826
-0.28231746 -0.25022742 0.05244617 -0.21542439 0.2878433 0.21502891 -0.12867843 0.31880108
00000000: 0b99 963d 8e0c 00bf 1709 303e 3851 4dbf
00000010: daeb 68bf 8fe0 143e 4140 1b3e 4b86 24be
00000020: 39fc 42be 07b2 e3bd 2c15 1fbe f4e5 3dbf
00000030: 5af4 913e e504 fb3d a4ad 2b3f 1ddf 6a3f
00000040: 5d5f b4be 8c15 47be fd43 0fbe e569 ff3d
00000050: 405e 333e b6d1 313e f335 c13e 8523 943e
00000060: 8527 f03d 4b86 ef3e 50d7 e83d afbf 143e
00000070: fa6b 06be 9cd6 863e a146 27be dfd3 073e
00000080: 144c 0fbe a0be a1be 9ab0 c73e 3fcc 863e
00000090: 7086 2d3e c93d c13d 4716 453e 0035 2a3f
000000a0: cb2c ddbe e005 da3e dced de3d 5119 bc3d
000000b0: 26ae 993e 8922 153e 4256 333e f390 aabd
000000c0: 8cd2 dcbd 5940 20be 6409 ca3a b17f a8bd
000000d0: fb72 603e 3f99 d43d 1386 a2be b8c7 573e
000000e0: 2102 fc3d d2d9 e03c 61fa b33d abd2 a63d
000000f0: 5caf 2b3e b6d8 fe3d 3048 e9be 7a40 0cbf
00000100: 1702 1e3e 4c77 a8be f500 df37 2bf0 8c3d
00000110: c5da 913d 120b f5bd 2757 7c3b 0c22 aa3d
00000120: 62b7 c43c c66e 293e 6d4b f4be 6c9d 0cbf
00000130: 4a06 d93d 3396 30bf aaff 08bf f5c5 6bbe
00000140: 1db1 02bf 8265 a13d aa83 6f3e bac4 5f3f
00000150: 0752 843e e00f 863e f51e 243e c742 62be
00000160: 22c2 cbbd e34d 72be 92bc 123f 80a6 443f
00000170: 270b 3abd 8b2a 4c3e 9fba ccbf 24b7 f1be
00000180: c79d e73d e9ae 143f 2422 223f 89f8 973e
00000190: eae6 603e 2038 543e 70e0 323e afcb 8b3e
000001a0: e83e 573e c6aa 303d fed4 90be 4730 e8be
000001b0: 8559 203f 725c 0cbf a17c 243f 2835 943e
000001c0: 6079 263f cfa0 183e 712b 5a3e 9c4b 9e3e
000001d0: 9e5c 543e 7da3 acbc 2bd1 383d fdcf d3bf
000001e0: 3d6f 1cbe ba03 aa3d 68b8 363e 923f 8fbd
000001f0: da98 1d3e 6914 273e eba6 0e3e 0a87 23be
00000200: ba22 37be 0724 3abe 8d39 cd3d 48e2 ff3d
00000210: 32aa 453e 12f1 2f3e b791 f2bd 278c 8bbd
00000220: f707 08be 75e4 233e 8796 353e 2666 653e
00000230: 4c58 333e 6cd9 6e3e 1a6a 073d f811 3bbc
00000240: e71b 4b3e 4310 7c3e 9e24 d53e 73ed a83a
00000250: d59f 013e a1d2 5e3a 8690 cd3d 2e91 563e
00000260: e324 3b3e fb69 63bd 0393 fb3b 49f9 663d
00000270: 855c 173e e429 de3d ee58 d03d 04b9 25be
00000280: 745f a9be 3a13 88bf 68d8 dc3e 3754 30be
00000290: 5e63 68bf 4ecc e53e 4d76 c03e 207f ddbe
000002a0: 2132 b7be 603b c6be bc20 fa3e 6ece cebe
000002b0: e4b6 693e e6e4 be3e 88d2 543d e8b2 26bf
000002c0: f1a0 bebd 09b2 d73e d904 f53e ddf7 bc3e
000002d0: aaa7 ec3e f324 c43e 61f0 04be ec5e 9a3d
000002e0: 61ee e23e 0f17 d03e 5e1e 263e dcc6 b23d
000002f0: aa76 f43e b728 123f 469f f33e 5e49 bc3e
00000300: ec62 f63e 8477 cbbd 04d8 11be dca2 92bc
00000310: 7020 cb3e 34da 26bf e49e bebe 4aa8 bd3d
00000320: 7711 c93d e3f4 35be 74a1 c7be f864 11be
00000330: 3084 38be 2039 bcbe 943b dbbe fd6a d43e
00000340: 0a94 be3e 19a9 b33e 75d2 d7be c50a f23e
00000350: 8c0b c9be 6d82 c2be ee51 be3e d2bd 0dbc
00000360: 3140 dcbd e6e4 c2be 49d4 c4be 8473 cdbe
00000370: 8581 cdbe 90a8 dfbe 8c4b fa3b 32df 5fbd
00000380: adab b6be 4ad4 08be 2c63 b2be 519f 18bf
00000390: a675 dfbe 0739 043e 760e ecbe 2101 dbbe
000003a0: 1527 c4be 6e44 42bd e35d 003d d6bc 4cbd
000003b0: 1db1 debe 66fc 33be b976 cabe 9201 b83e
000003c0: 9d9d 18be 3679 95bd 1cd1 5d3e b952 f33d
000003d0: f887 bebd edf4 3d3e 8fbf 773e a6f4 70be
000003e0: ea8b 90be cf1d 80be ccd1 563d 3698 5cbe
000003f0: 3260 933e 8a30 5c3e 47c4 03be e539 a33e

lstm.weight_hh_l0 f4 [600, 150]
-0.22242872 0.39356515 -0.13473482 -0.11992905 -0.53424084 0.2875674 0.2618442 -0.022636326
0.0664082 0.07336591 0.16073869 -0.3408567 -0.63147837 0.05780575 -0.012766687 -0.21836746
0.13127756 -0.11479874 -0.23138706 -0.12080888 0.12408807 0.07362456 0.09575289 0.17694214
0.1638937 0.29747325 0.2032389 0.23415455 -0.06668429 0.36231667 0.19201925 -0.0430664
0.11326957 0.18907084 -0.39803842 0.09738744 0.46007842 -0.34804577 0.07962101 0.2102533
-0.1920602 0.06662373 -0.2086238 -0.13721347 0.15120867 -0.17620409 0.15869464 0.21573666
-0.021802692 0.2694022 0.070609376 0.45614147 0.099398464 0.16984405 0.16279413 -0.26766998
0.024902845 0.2373627 -0.4480321 -0.4290486 0.38115767 0.010920354 0.04757782 -0.10485589
0.078538194 0.40632194 0.06063371 0.27041498 0.049723748 -0.06961423 -0.064896904 -0.12223831
0.08671031 0.028615395 -0.16951908 0.076793894 0.10531781 0.12595937 -0.115560904 -0.035180993
-0.27130824 -0.09300904 0.22676973 0.29871345 0.14014898 -0.21975614 -0.08746175 0.1719641
0.18498088 -0.11861223 -0.081882186 0.18949737 0.21111548 -0.1983359 0.2482443 0.1071598
0.14631505 0.072576776 0.09271594 -0.023303403 0.35103112 0.25608325 0.047257658 -0.40708163
-0.113307424 0.48964104 -0.41864622 0.4323859 -0.1447599 0.15005761 -0.22616978 0.20557706
0.12138427 -0.051181808 -0.30171818 -0.23671423 0.36324096 0.0317852 0.25760084 0.12935631
-0.053661663 0.16252224 0.21624133 0.28901207 -0.16361025 -0.022043666 -0.07601392 0.34568444
0.18835813 0.26885736 0.05607641 -0.3041074 0.35617855 -0.039932646 0.12272666 0.3752145
-0.009986857 0.045117576 0.11415746 0.42413858 0.08655271 0.12732786 0.14114787 -0.18209055
-0.11433058 -0.17381737 -0.36412477 -0.13416937 -0.02459161 -0.09025366 0.036645528 -0.35431406
-0.21654935 0.008123856 -0.066457525 -0.17436147 0.014645727 0.10556684 0.030402694 0.19145201
-0.2182557 0.075382136 -0.15967259 -0.17380369 -0.010349988 0.45882365 -0.08262739 -0.07704908
0.123991825 -0.15090784 0.07047235 0.10459647 -0.05512226 0.29050127 0.07909446 -0.0369838
0.019899163 0.14824925 0.019848995 0.15414451 0.018604835 -0.37076607 -0.21651436 0.01679495
-0.06251357 0.3792387 0.17739981 0.02249989 0.36211166 0.121599145 -0.35765266 0.12748681
0.055760372 0.0027762142 0.16433346 0.102584265 -0.115563326 0.054733824 0.015512244 0.15638751
0.12358374 -0.026912315 -0.10606496 0.03065748 -0.21601394 0.5343603 0.058469787 -0.17207083
-0.14563748 0.18757339 -0.062342755 0.1104656 0.04438247 0.3082597 0.07722269 0.88685745
0.020598063 0.018431745 0.0015248795 0.29631367 -0.07508311 0.39869386 0.1732599 -0.1951053
0.11725501 -0.064769 -0.112327695 0.18805686 -0.00013526392 0.06566182 -0.21133275 0.07298366
0.03965753 0.102303095 -0.028825857 0.38419414 -0.018245656 0.13019064 0.029426416 0.46120384
-0.041776292 -0.054414187 -0.18660662 0.15959938 0.19039059 -0.037494197 0.15541752 -0.009066319
-0.14595562 0.0709812 -0.13477063 0.03261618 0.18012673 0.19833815 0.18262939 0.1074318
00000000: 5bc4 63be 5f81 c93e edf7 09be 5d9d f5bd
00000010: 02c4 08bf 093c 933e 7110 863e d16f b9bc
00000020: 0601 883d de40 963d af98 243e c584 aebe
00000030: 91a8 21bf b9c5 6c3d 5e2b 51bc b89b 5fbe
00000040: a06d 063e 9a1b ebbd bbf0 6cbe a56a f7bd
00000050: e321 fe3d 79c8 963d 171a c43d 5230 353e
00000060: c0d3 273e 6a4e 983e dc1d 503e 36c6 6f3e
00000070: c691 88bd 9281 b93e b2a0 443e 6566 30bd
00000080: e0f9 e73d c99b 413e b1cb cbbe 1173 c73d
00000090: 668f eb3e 0e33 b2be 5710 a33d a44c 573e
000000a0: 6eab 44be 0672 883d 7aa1 55be b081 0cbe
000000b0: 72d6 1a3e d86e 34be d980 223e 12ea 5c3e
000000c0: 8f9b b2bc 16ef 893e a69b 903d 608b e93e
000000d0: 6c91 cb3d 99eb 2d3e 81b3 263e 0a0c 89be
000000e0: 0d01 cc3c 350f 733e 7764 e5be 42ac dbbe
000000f0: 1927 c33e 49eb 323c f6e0 423d afbe d6bd
00000100: a2d8 a03d 6e09 d03e 0e5b 783d d573 8a3e
00000110: 21ab 4b3d e891 8ebd abe8 84bd 1458 fabd
00000120: 2d95 b13d d56a ea3c 6996 2dbe 1e46 9d3d
00000130: ddb0 d73d 7efb 003e 32ab ecbd f219 10bd
00000140: eae8 8abe 867b bebd 5336 683e f8f0 983e
00000150: 3783 0f3e c107 61be 251f b3bd 5b17 303e
00000160: a16b 3d3e f8ea f2bd d9b1 a7bd 990b 423e
00000170: a82e 583e 9118 4bbe c133 7e3e 9976 db3d
00000180: 9dd3 153e 22a3 943d dbe1 bd3d c7e6 bebc
00000190: 5aba b33e 581d 833e 3f91 413d 016d d0be
000001a0: b90d e8bd 3bb2 fa3e cc58 d6be af61 dd3e
000001b0: f03b 14be b4a8 193e 0d99 67be cb82 523e
000001c0: 5198 f83d 04a4 51bd ce7a 9abe 3765 72be
000001d0: b8fa b93e 3331 023d 42e4 833e fb75 043e
000001e0: 55cc 5bbd 3b6c 263e 5e6e 5d3e 64f9 933e
000001f0: 7289 27be eb94 b4bc 30ad 9bbd 8dfd b03e
00000200: f4e0 403e aca7 893e 61b0 653d f7b3 9bbe
00000210: 095d b63e 6a90 23bd 1d58 fb3d 1d1c c03e
00000220: ea9f 23bc 35cd 383d 63cb e93d b128 d93e
00000230: 8c42 b13d 3c62 023e 1189 103e f275 3abe
00000240: 2726 eabd 2efd 31be 906e babe b263 09be
00000250: 5874 c9bc e9d6 b8bd 9f19 163d a768 b5be
00000260: 1dbf 5dbe ec19 053c e21a 88bd d08b 32be
00000270: a2f4 6f3c 6d33 d83d 120f f93c ff0b 443e
00000280: 6c7e 5fbe f361 9a3d 3681 23be 98f9 31be
00000290: ff92 29bc efea ea3e 8d38 a9bd e8cb 9dbd
000002a0: 6def fd3d 9687 1abe cf53 903d ad36 d63d
000002b0: e1c7 61bd 95bc 943e 47fc a13d 537c 17bd
000002c0: 9203 a33c a7ce 173e 5c9a a23c 0fd8 1d3e
000002d0: 2b69 983c 0dd5 bdbe f1b5 5dbe 9095 893c
000002e0: 1d07 80bd 932b c23e 4ca8 353e b051 b83c
000002f0: b366 b93e f908 f93d 401e b7be e78b 023e
00000300: fd64 643d 25f1 353b 0847 283e b317 d23d
00000310: 77ac ecbd 9330 603d 1127 7e3c 0c24 203e
00000320: 7919 fd3d 3777 dcbc 9638 d9bd 6525 fb3c
00000330: c232 5dbe d6cb 083f 047e 6f3d 5633 30be
00000340: fe21 15be 3d13 403e 1e5b 7fbd ca3b e23d
00000350: 65ca 353d 37d4 9d3e ee26 9e3d 1709 633f
00000360: 45bd a83c 2cfe 963c 77de c73a 6db6 973e
00000370: 2cc5 99bd 9a21 cc3e 0b6b 313e afc9 47be
00000380: 6523 f03d 9ca5 84bd 100c e6bd fa91 403e
00000390: a2d5 0db9 b479 863d 9d67 58be 7578 953d
000003a0: ef6f 223d 4984 d13d 3424 ecbc 18b5 c43e
000003b0: ea77 95bc b250 053e ab0f f13c e922 ec3e
000003c0: 9e1d 2bbd 69e1 5ebd ce15 3fbe 056e 233e
000003d0: c0f5 423e 8493 19bd c525 1f3e e68a 14bc
000003e0: 6475 15be 975e 913d 5001 0abe 8b98 053d
000003f0: 2473 383e 2819 4b3e 3303 3b3e 3405 dc3d

lstm.bias_ih_l0 f4 [600]
0.08110704 0.14954366 0.2793966 0.22746153 0.3966396 -0.37314206 0.23685083 0.22923996
0.26280633 0.51994735 0.025955802 0.14112659 0.47800106 0.12859288 0.26296487 -0.11045744
0.23252505 0.21145384 -0.57748604 0.3736623 -0.13433257 0.042262867 -0.24638906 -0.004304802
0.71987903 -0.34105426 0.2654046 0.47471118 0.39343902 0.019536477 0.08506963 0.25969782
0.24802856 0.40968078 -0.48829985 0.21404591 0.5871154 0.079872355 -0.68219435 0.56228465
0.6499501 0.071430564 0.6333831 -0.197546 -0.1308636 -0.24075465 -0.016421532 0.45747647
0.4767083 0.08551013 -0.2425618 0.23209082 -0.4104488 -0.05366583 -0.30096817 -0.12708655
0.26538977 -0.3660888 -0.39706418 0.33686054 0.48399442 0.5363517 0.4586227 -0.12668936
-0.39804724 -0.22226544 0.41553086 0.06167376 0.39987537 -0.20110036 0.28644767 0.14682718
-0.20956926 0.14513108 0.029736327 0.25846967 -0.49191302 -0.2969786 0.43041196 -0.07725185
0.23890187 0.182149 0.34643167 -0.11705624 0.028877439 0.36176246 0.19300026 0.18780603
0.35597727 0.25647724 0.049240366 0.10704628 0.14263296 -0.32862526 0.57919204 0.26789874
0.038068283 0.26873285 0.10623073 0.38549367 0.43973684 0.3028257 0.14538957 -0.013661253
-0.15242936 -0.06666843 -0.7724933 0.22411512 0.19989559 -0.028217234 0.08994063 0.22793673
-0.58232963 -0.12658645 0.17702422 0.15799701 0.34679264 0.7241148 0.49958143 0.16177303
0.028460644 0.26827887 -0.27122942 0.22365175 -0.11286876 0.36077747 0.38377887 0.34231088
-0.29496795 -0.54468566 0.17783919 0.34919125 -0.0830345 0.18636316 0.3086818 -0.058773205
-0.38903987 0.11971802 -0.13046378 0.07591826 0.4057246 0.30996332 -0.12644427 0.0989721
-0.1858869 0.1992959 0.011434861 0.08998717 0.19906332 -0.58583724 -0.21691364 0.21211174
0.52193534 0.06616991 0.1380137 0.07058472 0.07810422 0.23790848 0.25863573 0.5184137
-0.24154472 -0.335569 -0.25787526 -0.1576468 0.14878808 -0.15038897 0.55248183 -0.015714847
-0.15585433 0.19413963 0.3570972 0.52993935 -0.31778336 0.004235732 -0.28296548 0.42394477
0.13891967 0.13831297 0.19655205 0.040444016 -0.3047763 0.27039033 0.5169097 0.17954096
-0.4301102 0.21267484 0.1951971 -0.30207816 -0.27057856 0.20123146 -0.6254268 -0.22253142
-0.33243862 -0.39837644 -0.31851318 -0.17672668 0.1780428 0.18421026 0.35950664 0.2489623
0.17589235 -0.103912964 -0.26828873 -0.031536292 -0.2707128 -0.23172358 0.5600409 0.5624599
-0.12782142 -0.29470864 0.13688909 -0.048369918 0.4055261 0.1016642 -0.1594856 -0.089495294
0.5247177 0.14312334 0.20123824 -0.26056886 0.20257014 0.31417683 -0.009646545 -0.12855017
0.0887337 0.13311666 0.10232914 -0.19427438 0.43645582 -0.13465858 -0.20991191 0.09746475
0.44724095 0.10535529 -0.31306666 -0.4362342 -0.41045487 0.24124469 0.0738568 -0.10546427
0.19469273 -0.08924887 0.18743192 -0.22956723 0.23401956 0.18694326 -0.2587117 -0.47449836
0.3066583 -0.15656693 -0.22840323 0.09820782 -0.05309142 -0.46696323 -0.17558376 -0.22819369
00000000: 731b a63d f921 193e 120d 8f3e adeb 683e
00000010: 5814 cb3e 7a0c bfbe 0689 723e e1bd 6a3e
00000020: 8d8e 863e 451b 053f 43a1 d43c 7d83 103e
00000030: 8ebc f43e daad 033e 55a3 863e 8337 e2bd
00000040: 0c1b 6e3e 5b87 583e 20d6 13bf aa50 bf3e
00000050: 7a8e 09be d41b 2d3d 6a4d 7cbe 4c0f 8dbb
00000060: fe49 383f aa9e aebe 1de3 873e 580d f33e
00000070: d770 c93e f60a a03c fc38 ae3d 1df7 843e
00000080: 33fb 7d3e aec1 d13e 7002 fabe da2e 5b3e
00000090: 324d 163f 1e94 a33d 4aa4 2ebf e3f1 0f3f
000000a0: 2163 263f 304a 923d 6525 223f 8049 4abe
000000b0: 1c01 06be 6388 76be 7386 86bc 5b3a ea3e
000000c0: 1c13 f43e ef1f af3d 1f62 78be 37a9 6d3e
000000d0: 5826 d2be b4d0 5bbd 8018 9abe fa22 02be
000000e0: 2be1 873e fe6f bbbe ff4b cbbe fc78 ac3e
000000f0: 1ece f73e 584e 093f 98d0 ea3e dbba 01be
00000100: d9cc cbbe 8d99 63be 76c0 d43e a09d 7c3d
00000110: 77bc cc3e 41ed 4dbe 45a9 923e dd59 163e
00000120: 5399 56be 3e9d 143e 9999 f33c 2356 843e
00000130: 06dc fbbe 940d 98be f55e dc3e 3836 9ebd
00000140: b1a2 743e 4485 3a3e 7e5f b13e 2fbb efbd
00000150: 6190 ec3c ee38 b93e dca1 453e 3950 403e
00000160: a742 b63e fc50 833e 44b0 493d 143b db3d
00000170: 600e 123e 9241 a8be ee45 143f 062a 893e
00000180: 7ded 1b3d 5a97 893e 7f8f d93d 6d5f c53e
00000190: 3025 e13e f80b 9b3e 01e1 143e 73d3 5fbc
000001a0: 7116 1cbe 7589 88bd 1fc2 45bf 6f7e 653e
000001b0: 6eb1 4c3e d427 e7bc cb32 b83d 3f68 693e
000001c0: 8e13 15bf e19f 01be d645 353e f8c9 213e
000001d0: ce8e b13e 965f 393f 23c9 ff3e d4a7 253e
000001e0: 4c26 e93c d95b 893e 95de 8abe f704 653e
000001f0: bd27 e7bd d3b7 b83e aa7e c43e 5f43 af3e
00000200: 0a06 97be 8570 0bbf 7a1b 363e 32c9 b23e
00000210: fe0d aabd fcd5 3e3e 8a0b 9e3e 2cbc 70bd
00000220: 3c30 c7be b92e f53d 4c98 05be 087b 9b3d
00000230: 23bb cf3e 83b3 9e3e 9b7a 01be e2b1 ca3d
00000240: 2359 3ebe 3914 4c3e 4959 3b3c 324b b83d
00000250: 41d7 4b3e 6ef9 15bf 9c1e 5ebe d233 593e
00000260: 8e9d 053f 1784 873d 7753 0d3e b98e 903d
00000270: 1bf5 9f3d 489e 733e e76b 843e c3b6 043f
00000280: 8057 77be b3cf abbe 3a08 84be 2a6e 21be
00000290: e75b 183e 91ff 19be 736f 0d3f 6cbc 80bc
000002a0: 4798 1fbe 8acc 463e 72d5 b63e 1baa 073f
000002b0: 80b4 a2be e5cb 8a3b dae0 90be 4a0f d93e
000002c0: f540 0e3e eaa1 0d3e f144 493e a0a8 253d
000002d0: a40b 9cbe 9a70 8a3e 3254 043f 96d9 373e
000002e0: 6737 dcbe 6fc7 593e c0e1 473e fda9 9abe
000002f0: 4689 8abe 9f0f 4e3e f91b 20bf 47df 63be
00000300: 6535 aabe fff7 cbbe 2914 a3be d7f7 34be
00000310: da50 363e 9da1 3c3e 4111 b83e f9ef 7e3e
00000320: 201d 343e 52d0 d4bd 245d 89be 332c 01bd
00000330: de9a 8abe f248 6dbe d75e 0f3f 5ffd 0f3f
00000340: 9ee3 02be 0de4 96be a72c 0c3e 891f 46bd
00000350: 1ea1 cf3e 5235 d03d 3150 23be 4f49 b7bd
00000360: e653 063f ed8e 123e 6611 4e3e 4869 85be
00000370: 8c6e 4f3e c9db a03e 8b0c 1ebc a8a2 03be
00000380: 04ba b53d bc4f 083e f191 d13d ddef 46be
00000390: 2377 df3e f0e3 09be 26f3 56be 999b c73d
000003a0: c4fc e43e 84c4 d73d 464a a0be 175a dfbe
000003b0: 2427 d2be d908 773e 3c42 973d a7fd d7bd
000003c0: 885d 473e 1dc8 b6bd 27ee 3f3e ac13 6bbe
000003d0: d3a2 6f3e 0e6e 3f3e dc75 84be 73f1 f2be
000003e0: 5102 9d3e 1553 20be 89e2 69be 2e21 c93d
000003f0: 6476 59bd ce15 efbe 3bcc 33be 9bab 69be

lstm.bias_hh_l0 f4 [600]
0.104333475 0.1005862 0.25511208 0.13936411 0.45069546 -0.4456272 0.21649098 0.28005233
0.22146109 0.5133222 0.009053576 0.20487429 0.4643849 0.047928836 0.2502997 -0.16504806
0.15436105 0.26310906 -0.6247317 0.40202558 -0.071663424 0.08902719 -0.2576908 0.010461339
0.736996 -0.33602235 0.20773906 0.45369262 0.3598635 -0.022192258 0.14617583 0.23943569
0.21104088 0.44927952 -0.48314756 0.21622893 0.6223465 0.054551333 -0.6667065 0.50159025
0.6764265 0.05252947 0.596939 -0.17244852 -0.16690345 -0.24576646 -0.02846688 0.42284137
0.4853713 0.105597764 -0.20420484 0.25609457 -0.3827349 -0.092416756 -0.28372332 -0.10755014
0.29014456 -0.36769995 -0.3081953 0.3331977 0.45622486 0.59872293 0.4562267 -0.11854226
-0.36555856 -0.20630363 0.41312858 -0.0021149842 0.39564204 -0.29777652 0.29245955 0.13558038
-0.15522526 0.12860471 0.11875781 0.27850705 -0.45025352 -0.26603475 0.37092522 -0.11162076
0.20728135 0.21823034 0.30716315 -0.11596411 0.07730923 0.3242639 0.15645863 0.18158439
0.28982112 0.24690235 0.043353733 0.018561803 0.15019928 -0.38026935 0.51141566 0.30776513
0.006222786 0.28754246 0.1767659 0.37839836 0.38813895 0.34629306 0.14074868 -0.027448975
-0.13673232 -0.06270181 -0.7795557 0.20828027 0.23541392 -0.044077516 0.05170738 0.2077004
-0.50686675 -0.118059196 0.16522363 0.13511981 0.42523813 0.7543683 0.44699928 0.19789673
0.008577976 0.23775755 -0.23693761 0.1539248 -0.116274185 0.31572944 0.40130436 0.3083703
-0.30435577 -0.486938 0.2658786 0.40236744 -0.028430149 0.17470075 0.2639504 -0.1102627
-0.4604562 0.10073465 -0.21621174 0.09622302 0.43664548 0.3899125 -0.16512334 0.071386784
-0.16629954 0.263894 -0.034657728 0.08357177 0.11261567 -0.63245016 -0.21895811 0.24625225
0.5200501 0.036793407 0.10911494 0.078551665 0.13931891 0.26893094 0.2793958 0.5235804
-0.260806 -0.35305038 -0.29002112 -0.13998006 0.16341807 -0.1673615 0.46473914 0.031431787
-0.19157508 0.22203442 0.32519618 0.50519013 -0.246778 0.0019096618 -0.27577356 0.34832126
0.15414916 0.18333907 0.17886423 0.033699945 -0.3384444 0.29743212 0.48450044 0.23982681
-0.4480735 0.25468343 0.13413993 -0.3399481 -0.31004483 0.25360146 -0.5617891 -0.2742167
-0.25314754 -0.4050886 -0.4014031 -0.21226473 0.24379142 0.2432904 0.35803032 0.26940286
0.20582446 -0.13106768 -0.21148248 -0.113648735 -0.2694537 -0.15627551 0.5238395 0.60561335
-0.0642815 -0.21573423 0.08563269 -0.084895186 0.44066432 0.013704783 -0.23707002 -0.08953094
0.44724923 0.15412104 0.17096968 -0.28439754 0.18699975 0.32491824 -0.0076616346 -0.16323029
0.04165215 0.09281362 0.101508655 -0.22201209 0.5241219 -0.18603614 -0.23099026 0.08827709
0.41405734 0.1313004 -0.3342295 -0.5076941 -0.3716655 0.23610151 0.07147805 -0.12821259
0.1870268 -0.10585415 0.22497803 -0.26221275 0.28492478 0.18484266 -0.2221122 -0.4111317
0.29123333 -0.17017224 -0.17732973 0.16404983 0.018591093 -0.4683726 -0.20889045 -0.2298984
00000000: caac d53d 2300 ce3d 0d9e 823e 77b5 0e3e
00000010: 8ec1 e63e 4029 e4be d0af 5d3e 0563 8f3e
00000020: b2c6 623e 1569 033f 7355 143c 91ca 513e
00000030: dcc3 ed3e 0751 443d 4827 803e 5c02 29be
00000040: d310 1e3e 3bb6 863e 6bee 1fbf 4cd6 cd3e
00000050: 46c4 92bd e353 b63d 0cf0 83be 0966 2b3c
00000060: c5ab 3c3f 1f0b acbe 8cb9 543e 664a e83e
00000070: 0740 b83e 8acc b5bc 1eaf 153e a12e 753e
00000080: 1a1b 583e f707 e63e 1e5f f7be 1e6b 5d3e
00000090: 1a52 1f3f 3871 5f3d 47ad 2abf 3868 003f
000000a0: 492a 2d3f 2429 573d ffd0 183f 5896 30be
000000b0: bde8 2abe 34aa 7bbe 6033 e9bc aa7e d83e
000000c0: 9682 f83e a443 d83d 131b 51be d41e 833e
000000d0: d4f5 c3be ff44 bdbd 2f44 91be 3f43 dcbd
000000e0: d48d 943e 2b43 bcbe c6cb 9dbe e498 aa3e
000000f0: 4e96 e93e e845 193f 8c96 e93e 49c6 f2bd
00000100: 7e2a bbbe 4241 53be 9785 d33e 8c9b 0abb
00000110: 9891 ca3e 2a76 98be 42bd 953e 95d5 0a3e
00000120: 5ff3 1ebe f4b0 033e 4b37 f33d 7a98 8e3e
00000130: a187 e6be b535 88be e9e9 bd3e 6d99 e4bd
00000140: 9041 543e c677 5f3e 7d44 9d3e 977e edbd
00000150: 4d54 9e3d eb05 a63e b136 203e 42f1 393e
00000160: 6f63 943e f8d3 7c3e af93 313d ec0e 983c
00000170: d7cd 193e aab2 c2be 23ec 023f 6493 9d3e
00000180: 83e8 cb3b c438 933e 1f02 353e 6ebd c13e
00000190: 26ba c63e 534d b13e 6c20 103e acdc e0bc
000001a0: 8f03 0cbe ce69 80bd f690 47bf 6c47 553e
000001b0: 5910 713e a08a 34bd 1ecb 533d 6aaf 543e
000001c0: 05c2 01bf 05c9 f1bd 6230 293e d95c 0a3e
000001d0: d0b8 d93e 481e 413f 17dd e43e 71a5 4a3e
000001e0: a48a 0c3c b776 733e c69f 72be 769e 1d3e
000001f0: 2921 eebd 4aa7 a13e c477 cd3e b6e2 9d3e
00000200: 85d4 9bbe f04f f9be 3d21 883e 1b03 ce3e
00000210: 58e6 e8bc c1e4 323e 8224 873e 69d1 e1bd
00000220: eac0 ebbe f84d ce3d 9c66 5dbe 9310 c53d
00000230: ff8f df3e 9ca2 c73e 1816 29be 3c33 923d
00000240: 6d4a 2abe 1d1d 873e 43f5 0dbd ad27 ab3d
00000250: 0ba3 e63d 41e8 21bf 8e36 60be 8d29 7c3e
00000260: 0122 053f afb4 163d a777 df3d b2df a03d
00000270: 9ea9 0e3e 51b1 893e f70c 8f3e 5d09 063f
00000280: 5d88 85be 05c3 b4be a67d 94be ef56 0fbe
00000290: 1157 273e d060 2bbe 4af2 ed3e 9ebe 003d
000002a0: 422c 44be fe5c 633e 1d80 a63e 2454 013f
000002b0: 5fb3 7cbe 9e4d fa3a 3132 8dbe 2a57 b23e
000002c0: 47d9 1d3e 3dbd 3b3e 2f28 373e f408 0a3d
000002d0: 9648 adbe 0649 983e 7110 f83e 2995 753e
000002e0: e469 e5be de65 823e fa5b 093e ad0d aebe
000002f0: 32be 9ebe 0dd8 813e 69d1 0fbf 2266 8cbe
00000300: 8e9c 81be c667 cfbe b584 cdbe ed5b 59be
00000310: 75a4 793e 1e21 793e c04f b73e 2cef 893e
00000320: a6c3 523e 9b36 06be dd8e 58be abc0 e8bd
00000330: d6f5 89be b006 20be 581a 063f 7a09 1b3f
00000340: 05a6 83bd 6fe9 5cbe 3160 af3d 87dd adbd
00000350: c19e e13e 078a 603c 7cc2 72be ff5b b7bd
00000360: dafd e43e e8d1 1d3e ad12 2f3e 8e9c 91be
00000370: dd7c 3f3e af5b a63e 730e fbbb d725 27be
00000380: 729b 2a3d 1115 be3d c5e3 cf3d 2357 63be
00000390: da2c 063f 4280 3ebe b688 6cbe 9eca b43d
000003a0: 53ff d33e 9d73 063e 2120 abbe 3ef8 01bf
000003b0: f14a bebe 98c4 713e 1563 923d 294a 03be
000003c0: f483 3f3e 10ca d8bd a460 663e c040 86be
000003d0: a9e1 913e 6547 3d3e 6171 63be db7f d2be
000003e0: 891c 953e a241 2ebe ed95 35be aefc 273e
000003f0: 594c 983c 89ce efbe 61e7 55be 7c6a 6bbe

layernorm.weight f4 [150]
1.0 1.0 1.0 1.0 1.0 1.0 1.0 1.0
1.0 1.0 1.0 1.0 1.0 1.0 1.0 1.0
1.0 1.0 1.0 1.0 1.0 1.0 1.0 1.0
1.0 1.0 1.0 1.0 1.0 1.0 1.0 1.0
1.0 1.0 1.0 1.0 1.0 1.0 1.0 1.0
1.0 1.0 1.0 1.0 1.0 1.0 1.0 1.0
1.0 1.0 1.0 1.0 1.0 1.0 1.0 1.0
1.0 1.0 1.0 1.0 1.0 1.0 1.0 1.0
1.0 1.0 1.0 1.0 1.0 1.0 1.0 1.0
1.0 1.0 1.0 1.0 1.0 1.0 1.0 1.0
1.0 1.0 1.0 1.0 1.0 1.0 1.0 1.0
1.0 1.0 1.0 1.0 1.0 1.0 1.0 1.0
1.0 1.0 1.0 1.0 1.0 1.0 1.0 1.0
1.0 1.0 1.0 1.0 1.0 1.0 1.0 1.0
1.0 1.0 1.0 1.0 1.0 1.0 1.0 1.0
1.0 1.0 1.0 1.0 1.0 1.0 1.0 1.0
1.0 1.0 1.0 1.0 1.0 1.0 1.0 1.0
1.0 1.0 1.0 1.0 1.0 1.0 1.0 1.0
1.0 1.0 1.0 1.0 1.0 1.0
00000000: 0000 803f 0000 803f 0000 803f 0000 803f
00000010: 0000 803f 0000 803f 0000 803f 0000 803f
00000020: 0000 803f 0000 803f 0000 803f 0000 803f
00000030: 0000 803f 0000 803f 0000 803f 0000 803f
00000040: 0000 803f 0000 803f 0000 803f 0000 803f
00000050: 0000 803f 0000 803f 0000 803f 0000 803f
00000060: 0000 803f 0000 803f 0000 803f 0000 803f
00000070: 0000 803f 0000 803f 0000 803f 0000 803f
00000080: 0000 803f 0000 803f 0000 803f 0000 803f
00000090: 0000 803f 0000 803f 0000 803f 0000 803f
000000a0: 0000 803f 0000 803f 0000 803f 0000 803f
000000b0: 0000 803f 0000 803f 0000 803f 0000 803f
000000c0: 0000 803f 0000 803f 0000 803f 0000 803f
000000d0: 0000 803f 0000 803f 0000 803f 0000 803f
000000e0: 0000 803f 0000 803f 0000 803f 0000 803f
000000f0: 0000 803f 0000 803f 0000 803f 0000 803f
00000100: 0000 803f 0000 803f 0000 803f 0000 803f
00000110: 0000 803f 0000 803f 0000 803f 0000 803f
00000120: 0000 803f 0000 803f 0000 803f 0000 803f
00000130: 0000 803f 0000 803f 0000 803f 0000 803f
00000140: 0000 803f 0000 803f 0000 803f 0000 803f
00000150: 0000 803f 0000 803f 0000 803f 0000 803f
00000160: 0000 803f 0000 803f 0000 803f 0000 803f
00000170: 0000 803f 0000 803f 0000 803f 0000 803f
00000180: 0000 803f 0000 803f 0000 803f 0000 803f
00000190: 0000 803f 0000 803f 0000 803f 0000 803f
000001a0: 0000 803f 0000 803f 0000 803f 0000 803f
000001b0: 0000 803f 0000 803f 0000 803f 0000 803f
000001c0: 0000 803f 0000 803f 0000 803f 0000 803f
000001d0: 0000 803f 0000 803f 0000 803f 0000 803f
000001e0: 0000 803f 0000 803f 0000 803f 0000 803f
000001f0: 0000 803f 0000 803f 0000 803f 0000 803f
00000200: 0000 803f 0000 803f 0000 803f 0000 803f
00000210: 0000 803f 0000 803f 0000 803f 0000 803f
00000220: 0000 803f 0000 803f 0000 803f 0000 803f
00000230: 0000 803f 0000 803f 0000 803f 0000 803f
00000240: 0000 803f 0000 803f 0000 803f 0000 803f
00000250: 0000 803f 0000 803f

layernorm.bias f4 [150]
0.0 0.0 0.0 0.0 0.0 0.0 0.0 0.0
0.0 0.0 0.0 0.0 0.0 0.0 0.0 0.0
0.0 0.0 0.0 0.0 0.0 0.0 0.0 0.0
0.0 0.0 0.0 0.0 0.0 0.0 0.0 0.0
0.0 0.0 0.0 0.0 0.0 0.0 0.0 0.0
0.0 0.0 0.0 0.0 0.0 0.0 0.0 0.0
0.0 0.0 0.0 0.0 0.0 0.0 0.0 0.0
0.0 0.0 0.0 0.0 0.0 0.0 0.0 0.0
0.0 0.0 0.0 0.0 0.0 0.0 0.0 0.0
0.0 0.0 0.0 0.0 0.0 0.0 0.0 0.0
0.0 0.0 0.0 0.0 0.0 0.0 0.0 0.0
0.0 0.0 0.0 0.0 0.0 0.0 0.0 0.0
0.0 0.0 0.0 0.0 0.0 0.0 0.0 0.0
0.0 0.0 0.0 0.0 0.0 0.0 0.0 0.0
0.0 0.0 0.0 0.0 0.0 0.0 0.0 0.0
0.0 0.0 0.0 0.0 0.0 0.0 0.0 0.0
0.0 0.0 0.0 0.0 0.0 0.0 0.0 0.0
0.0 0.0 0.0 0.0 0.0 0.0 0.0 0.0
0.0 0.0 0.0 0.0 0.0 0.0
00000000: 0000 0000 0000 0000 0000 0000 0000 0000
00000010: 0000 0000 0000 0000 0000 0000 0000 0000
00000020: 0000 0000 0000 0000 0000 0000 0000 0000
00000030: 0000 0000 0000 0000 0000 0000 0000 0000
00000040: 0000 0000 0000 0000 0000 0000 0000 0000
00000050: 0000 0000 0000 0000 0000 0000 0000 0000
00000060: 0000 0000 0000 0000 0000 0000 0000 0000
00000070: 0000 0000 0000 0000 0000 0000 0000 0000
00000080: 0000 0000 0000 0000 0000 0000 0000 0000
00000090: 0000 0000 0000 0000 0000 0000 0000 0000
000000a0: 0000 0000 0000 0000 0000 0000 0000 0000
000000b0: 0000 0000 0000 0000 0000 0000 0000 0000
000000c0: 0000 0000 0000 0000 0000 0000 0000 0000
000000d0: 0000 0000 0000 0000 0000 0000 0000 0000
000000e0: 0000 0000 0000 0000 0000 0000 0000 0000
000000f0: 0000 0000 0000 0000 0000 0000 0000 0000
00000100: 0000 0000 0000 0000 0000 0000 0000 0000
00000110: 0000 0000 0000 0000 0000 0000 0000 0000
00000120: 0000 0000 0000 0000 0000 0000 0000 0000
00000130: 0000 0000 0000 0000 0000 0000 0000 0000
00000140: 0000 0000 0000 0000 0000 0000 0000 0000
00000150: 0000 0000 0000 0000 0000 0000 0000 0000
00000160: 0000 0000 0000 0000 0000 0000 0000 0000
00000170: 0000 0000 0000 0000 0000 0000 0000 0000
00000180: 0000 0000 0000 0000 0000 0000 0000 0000
00000190: 0000 0000 0000 0000 0000 0000 0000 0000
000001a0: 0000 0000 0000 0000 0000 0000 0000 0000
000001b0: 0000 0000 0000 0000 0000 0000 0000 0000
000001c0: 0000 0000 0000 0000 0000 0000 0000 0000
000001d0: 0000 0000 0000 0000 0000 0000 0000 0000
000001e0: 0000 0000 0000 0000 0000 0000 0000 0000
000001f0: 0000 0000 0000 0000 0000 0000 0000 0000
00000200: 0000 0000 0000 0000 0000 0000 0000 0000
00000210: 0000 0000 0000 0000 0000 0000 0000 0000
00000220: 0000 0000 0000 0000 0000 0000 0000 0000
00000230: 0000 0000 0000 0000 0000 0000 0000 0000
00000240: 0000 0000 0000 0000 0000 0000 0000 0000
00000250: 0000 0000 0000 0000

batchnorm.weight f4 [150]
1.112311 0.4649948 1.0418409 0.6329965 0.6012052 0.10267722 1.3273481 1.0551008
1.2004555 0.65735936 -0.28485987 0.46802527 1.1051841 0.69608384 0.5162063 -0.04833871
0.9324798 0.99511606 0.9405075 0.7254782 0.9022445 1.3343931 0.7982621 1.5477526
1.6559654 -0.43758255 1.1878577 0.68744695 0.94515914 1.3732873 1.6780143 0.5356601
0.6723035 0.46020123 0.71946704 0.11930302 1.0652999 0.69422615 1.9199969 0.9472102
1.1692113 1.0687959 0.8416567 1.2742479 0.73547983 0.79060113 0.94075805 1.0956209
0.78504884 0.96032214 0.9814594 0.47801024 1.3284422 1.5207 1.8319997 0.4978567
0.34939954 0.7535373 0.8301266 0.8955744 0.59202766 1.1165159 1.4652656 0.99633145
0.5305319 0.49780655 1.0681833 1.0260142 1.0879989 0.8939279 0.587064 1.0461196
1.0537069 0.17906381 1.1001707 0.52982384 0.8399712 0.57220024 0.7369944 0.51272154
0.31506726 0.53650105 0.45059597 0.55733275 1.1113399 0.7174207 1.8224429 0.48417658
0.55660284 0.836121 0.9990871 0.88988394 0.8997296 -0.28886563 0.75701827 0.7139791
1.2130599 1.1728433 0.6601253 0.6302572 1.1141975 0.6049915 0.63787156 0.37273738
0.84139377 1.1046816 0.71484333 0.611185 1.1218283 1.0024219 0.8712336 0.41963798
1.6217673 0.4158908 1.1967015 0.80202127 1.1258252 1.4096906 1.2421265 1.1933517
0.9396682 0.46594277 0.5956314 0.9570715 0.5593613 1.3987067 1.0255079 0.58570576
0.69653535 1.4696867 0.5857699 1.2436138 1.3755645 1.5048249 1.4509803 0.9631663
0.69259906 0.9029643 0.64253545 0.6305499 0.70731956 0.55432874 0.7191988 0.652633
0.63061345 0.96936405 1.1966574 0.38478062 0.5184944 0.2286152
00000000: 3560 8e3f cc13 ee3e 0b5b 853f 0f0c 223f
00000010: 96e8 193f 6f48 d23d 8be6 a93f 8b0d 873f
00000020: 87a8 993f b448 283f 27d9 91be 02a1 ef3e
00000030: ac76 8d3f 8d32 323f 1926 043f d0fe 45bd
00000040: ffb6 6e3f edbf 7e3f 19c5 703f f0b8 393f
00000050: 7ff9 663f 65cd aa3f e85a 4c3f c21c c63f
00000060: adf6 d33f d20a e0be b90b 983f 86fc 2f3f
00000070: f3f5 713f e1c7 af3f 2cc9 d63f 0521 093f
00000080: 151c 2c3f 7f9f eb3e fe2e 383f 2455 f43d
00000090: bf5b 883f ceb8 313f 75c2 f53f 5e7c 723f
000000a0: b7a8 953f 4ece 883f d076 573f 8e1a a33f
000000b0: 6848 3c3f d664 4a3f 85d5 703f 4e3d 8c3f
000000c0: f6f8 483f acd7 753f ec40 7b3f c2bd f43e
000000d0: 650a aa3f 4ca6 c23f f77e ea3f 13e7 fe3e
000000e0: 7fe4 b23e d2e7 403f 2d83 543f 5d44 653f
000000f0: 208f 173f fee9 8e3f d38d bb3f 940f 7f3f
00000100: f0d0 073f 80e0 fe3e 3bba 883f 6f54 833f
00000110: 8c43 8b3f 75d8 643f d449 163f 3fe7 853f
00000120: dedf 863f 815c 373e 65d2 8c3f 89a2 073f
00000130: 5a08 573f b77b 123f aaab 3c3f b841 033f
00000140: 7f50 a13e 2258 093f 84b4 e63e 5cad 0e3f
00000150: 6340 8e3f e2a8 373f cf45 e93f fee5 f73e
00000160: 867d 0e3f 070c 563f 2cc4 7f3f 6fcf 633f
00000170: ae54 663f 32e6 93be f3cb 413f 56c7 363f
00000180: 8c45 9b3f bb1f 963f f9fd 283f 8958 213f
00000190: 069e 8e3f b9e0 1a3f 8d4b 233f 6fd7 be3e
000001a0: 9565 573f 3566 8d3f f9ff 363f 9f76 1c3f
000001b0: 1298 8f3f 5c4f 803f 2a09 5f3f cada d63e
000001c0: 1296 cf3f a4ef d43e 842d 993f 4451 4d3f
000001d0: 0a1b 903f be70 b43f 00fe 9e3f c0bf 983f
000001e0: 188e 703f 0d90 ee3e 4d7b 183f a302 753f
000001f0: 4d32 0f3f d208 b33f d843 833f d0f0 153f
00000200: 2450 323f b21e bc3f 04f5 153f bd2e 9f3f
00000210: 7f12 b03f 1a9e c03f b9b9 b93f 1192 763f
00000220: 2c4e 313f ab28 673f 347d 243f b86b 213f
00000230: e512 353f 7de8 0d3f 6a1d 383f f512 273f
00000240: e26f 213f 3e28 783f 122c 993f f701 c53e
00000250: 0dbc 043f 1a1a 6a3e

batchnorm.bias f4 [150]
0.4032851 0.67331004 0.3062811 0.29613242 0.48545125 -0.20517142 0.60664874 0.38946012
0.01917262 0.26645225 0.66287977 0.8935845 0.5527423 0.77798456 0.5169447 0.31605086
0.5532902 0.32994536 0.72822773 0.4158002 0.5079633 0.06598355 0.795582 0.75309527
0.58159196 -0.9561692 0.35290608 0.3612015 0.672823 0.63209254 0.86377925 0.5502538
0.72026384 0.21300174 0.9208856 0.4637021 0.34311193 0.40008438 0.81677663 0.5201968
0.6814714 0.5522833 0.52316046 0.476562 0.8986417 0.99278873 0.5623444 0.49179894
0.49110237 0.64515096 0.6854173 0.5780529 0.4942696 0.5834498 0.4597726 0.1527955
-0.7536804 0.47323176 0.70969224 0.662388 0.51775837 0.3105517 0.8489739 0.49503416
0.6652852 0.7462636 0.56397384 0.54913956 0.2483104 -0.8376225 0.5284059 0.6287117
0.42955816 0.60695153 0.7880143 0.48349684 0.79748183 0.6153674 0.37729728 0.6389624
0.57688797 -0.7388227 0.4019564 0.07240321 0.68549114 0.78136945 0.6101896 0.40744075
0.32577026 -0.6350074 0.4392423 -0.5846757 0.59984785 0.77465785 0.82939446 0.58916074
0.29844218 0.60744727 0.6850046 0.5817318 0.44089654 0.62116784 -0.029796973 0.51798403
0.98142475 0.3540041 0.65263426 0.9116809 0.7779787 0.6150729 0.7766152 -0.9435632
0.81840616 0.289103 0.45321006 -0.8069826 0.28562334 0.532511 0.39822298 0.26175514
0.88949406 -1.1243109 0.6578638 0.7389526 0.26463538 0.27588397 0.4858326 0.65071785
-0.276445 0.6453284 0.44846362 0.5393129 0.48861557 0.68228364 0.3380988 0.5144511
0.61887014 -0.5896301 0.62224376 0.6040674 0.56891483 0.52658516 0.6949874 0.7500863
0.6225414 0.61534697 0.62074023 0.20331034 0.48420113 0.78393644
00000000: 627b ce3e 0c5e 2c3f e0d0 9c3e ab9e 973e
00000010: 118d f83e 7518 52be 554d 1b3f 5167 c73e
00000020: e60f 9d3c 6e6c 883e 7db2 293f f4c1 643f
00000030: 8580 0d3f ff29 473f 7d56 043f 6bd1 a13e
00000040: 6da4 0d3f 99ee a83e 226d 3a3f c4e3 d43e
00000050: e209 023f 6222 873d 43ab 4b3f daca 403f
00000060: 36e3 143f 81c7 74bf 1bb0 b43e 67ef b83e
00000070: 213e 2c3f d1d0 213f a320 5d3f 6fdd 0c3f
00000080: 3663 383f 211d 5a3e 29bf 6b3f 5d6a ed3e
00000090: 5eac af3e dcd7 cc3e 4618 513f 9e2b 053f
000000a0: e974 2e3f 7062 0d3f d8ed 053f efff f33e
000000b0: 620d 663f 6727 7e3f cdf5 0f3f 12cd fb3e
000000c0: c571 fb3e 9d28 253f 8277 2f3f 46fb 133f
000000d0: e810 fd3e f75c 153f 5067 eb3e 6c76 1c3e
000000e0: 33f1 40bf 6f4b f23e 64ae 353f 4392 293f
000000f0: d08b 043f a200 9f3e 5a56 593f 1e75 fd3e
00000100: 2250 2a3f 220b 3f3f 9760 103f 6994 0c3f
00000110: 1545 7e3e 6e6e 56bf 9c45 073f 40f3 203f
00000120: 0cef db3e 2d61 1b3f 4ebb 493f e68c f73e
00000130: c527 4c3f b888 1d3f 1c2d c13e 0a93 233f
00000140: eeae 133f 7c23 3dbf 3bcd cd3e 2248 943d
00000150: 597c 2f3f d407 483f 6335 1c3f 139c d03e
00000160: 5ccb a63e d88f 22bf 5ee4 e03e 4fad 15bf
00000170: a18f 193f fa4f 463f 3253 543f 3dd3 163f
00000180: 6acd 983e aa81 1b3f 765c 2f3f 60ec 143f
00000190: 31bd e13e db04 1f3f c818 f4bc 9a9a 043f
000001a0: a73e 7b3f 0740 b53e 0a13 273f eb63 693f
000001b0: 9d29 473f 6b75 1d3f 41d0 463f 5c8d 71bf
000001c0: 1183 513f 4f05 943e 260b e83e 6996 4ebf
000001d0: 393d 923e a452 083f e2e3 cb3e c504 863e
000001e0: e2b5 633f 6be9 8fbf c369 283f ff2b 3d3f
000001f0: 4a7e 873e aa40 8d3e 0dbf f83e 7295 263f
00000200: 338a 8dbe 3e34 253f 069d e53e 6910 0a3f
00000210: d22b fa3e 24aa 2e3f 491b ad3e 11b3 033f
00000220: 466e 1e3f 00f2 16bf 5e4b 1f3f 29a4 1a3f
00000230: 67a4 113f 49ce 063f b2ea 313f a805 403f
00000240: e05e 1f3f 6187 1d3f d5e8 1e3f 9630 503e
00000250: 36e9 f73e 0fb0 483f

batchnorm.running_mean f4 [150]
0.10052321 -0.9309735 -0.82939136 -0.9529335 -0.9587136 -0.0026598058 0.15513165 -0.6977762
-0.8474554 -0.96455854 -0.004700777 0.698412 -0.3122741 -1.1736037e-06 -0.94013983 0.0014497048
-0.46632847 -0.41459092 1.2350711e-06 -0.96985716 -0.630744 -0.89140826 -0.010925084 0.61433077
0.8437806 -0.0033770667 -0.5365441 -0.96512496 -0.96621114 -0.010969957 0.56001437 -0.91941863
-0.77957845 -0.9563072 -0.0015283689 -0.9469947 -0.9072825 0.4128453 0.368597 -0.83541614
0.9203536 -0.38439816 0.80073607 0.77030826 -0.0015546959 -0.00016611622 -0.5307341 -0.75366235
-0.9662027 -0.31580904 0.5291472 -0.760861 0.1663487 0.3523757 0.261889 -0.6163117
0.61265486 -0.5786369 -0.00085422327 -0.180331 -0.95945793 -0.7262873 0.96818674 0.5197477
7.768563e-05 -0.015492231 -0.6481581 -0.78181326 -0.91852826 2.2824338e-08 -0.9423904 -0.8152817
0.0077707823 -0.00083896314 0.7078507 -0.8023265 0.26209816 -0.013418514 -0.9559257 -4.258165e-10
0.06419498 -0.0028131437 -0.93873566 0.8849548 0.46657118 -0.018673757 0.83583385 -0.9390682
-0.9626738 -0.023894502 -0.5752442 0.0015248922 0.84699875 0.0006220816 -0.23397474 -0.9304245
0.054843213 -0.5506427 -0.9584189 -0.21683633 -0.67060465 -0.9634186 -0.9035161 0.72120565
-0.008781419 0.27384624 0.26569945 -0.038869575 0.7758333 -0.084386356 0.74502736 -0.00053245935
0.36735418 -0.0005407261 0.08092152 0.02461404 -0.86943793 0.9367992 -0.8483204 -0.79493326
-0.24614431 -0.0020188617 1.985249e-05 -0.68164045 -0.007510683 -0.90413976 -0.6735263 -0.96224624
0.02472023 0.35246503 -0.9484925 0.5001082 -0.010752131 0.24787116 -0.8933808 0.30144972
-0.003905098 0.021761172 -6.490828e-10 -0.12415484 -0.060172077 -0.9601693 -0.1322803 -0.075012036
0.27045733 0.45659107 -0.38223594 0.0038971298 -0.020151932 0.0023268382
00000000: 1ddf cd3d 4754 6ebf fe52 54bf 73f3 73bf
00000010: 416e 75bf 2350 2ebb d5da 1e3e 76a1 32bf
00000020: d6f2 58bf 4fed 76bf fa08 9abb 21cb 323f
00000030: 64e2 9fbe b784 9db5 01ad 70bf 0504 be3a
00000040: 9bc2 eebe 4345 d4be b8c4 a535 8f48 78bf
00000050: 7078 21bf 5533 64bf 20ff 32bc c844 1d3f
00000060: 0102 583f c751 5dbb f45a 09bf 6e12 77bf
00000070: 9d59 77bf 56bb 33bc 1a5d 0f3f 055f 6bbf
00000080: 7492 47bf 8cd0 74bf 8d53 c8ba 3f6e 72bf
00000090: aa43 68bf 7660 d33e bfb8 bc3e d5dd 55bf
000000a0: 4b9c 6b3f d6cf c4be 0afd 4c3f ec32 453f
000000b0: f0c6 cbba 7c2f 2eb9 31de 07bf 04f0 40bf
000000c0: 0f59 77bf b9b1 a1be 3176 073f c9c7 42bf
000000d0: 5057 2a3e 966a b43e 5116 863e 9bc6 1dbf
000000e0: f3d6 1c3f 8c21 14bf f4ed 5fba b1a8 38be
000000f0: 099f 75bf f7ed 39bf 16db 773f 2f0e 053f
00000100: 28eb a238 20d3 7dbc b0ed 25bf ea24 48bf
00000110: ab24 6bbf 400f c432 7f40 71bf 4db6 50bf
00000120: 0ca2 fe3b dded 5bba b435 353f 4565 4dbf
00000130: bb31 863e 54d9 5bbc 8cb7 74bf 5818 eaaf
00000140: a878 833d b85c 38bb fb50 70bf 668c 623f
00000150: 6be2 ee3e b5f9 98bc 35f9 553f c666 70bf
00000160: ca71 76bf 67be c3bc 3443 13bf e4de c73a
00000170: e9d4 583f 3113 233a 1397 6fbe 4d30 6ebf
00000180: 47a3 603d ecf6 0cbf f15a 75bf 580a 5ebe
00000190: bfac 2bbf 9aa2 76bf d54c 67bf efa0 383f
000001a0: f1df 0fbc 9335 8c3e c209 883e b435 1fbd
000001b0: 039d 463f c1d2 acbd 1dba 3e3f be94 0bba
000001c0: d915 bc3e 84bf 0dba 2fba a53d 62a3 c93c
000001d0: 7c93 5ebf 13d2 6f3f 872b 59bf bf80 4bbf
000001e0: 410d 7cbe e14e 04bb e688 a637 fd7f 2ebf
000001f0: 2d1c f6bb b475 67bf 386c 2cbf c555 76bf
00000200: 1482 ca3c 4c76 b43e 68d0 72bf 1707 003f
00000210: b529 30bc f0d1 7d3e 9bb4 64bf 9e57 9a3e
00000220: acec 7fbb 7c44 b23c 246b 32b0 e544 febd
00000230: ff76 76bd a8cd 75bf 7d74 07be e99f 99bd
00000240: 6279 8a3e 4ec6 e93e 6eb4 c3be fd66 7f3b
00000250: aa15 a5bc de7d 183b
