src/results/subject_P22/best_model.pth (torch, 481333 bytes, 15 tensors)

input_linear.weight f4 [40, 40]
0.048776463 -0.0311559 0.046516627 -0.06182964 0.05607426 -0.080456056 0.031852454 -0.00329791
0.13254495 0.050342485 0.008451998 0.11975609 0.1011949 0.058695883 -0.059666343 -0.11297275
0.060890153 -0.06482865 -0.06864512 -0.089356065 -0.1522579 0.118842855 0.11611207 0.08589165
0.078617424 0.013508603 0.032788217 -0.109515 0.082314834 -0.0700838 0.09210576 0.14094509
-0.11508648 -0.077701256 -0.013926581 0.06006156 -0.022165433 0.103720084 0.05289957 -0.07925432
-0.110403195 -0.06059272 0.05279343 0.022775367 -0.07050083 0.055606037 0.02275896 0.109687164
-0.12123741 0.109694675 -0.1411656 0.018757045 -0.13282259 0.11640565 0.07159248 -0.055950068
0.15672748 0.07888001 -0.047526494 -0.0153404325 0.010057956 0.12123181 0.07781531 -0.059401385
0.09372331 -0.14306171 0.1398959 0.0049949437 -0.027249977 0.15066664 -0.03006123 0.09715699
0.13964956 -0.02593249 -0.13049364 -0.1414776 -0.08269036 -0.088244975 -0.15334049 -0.0151311755
0.060003787 0.13044564 -0.07150186 -0.08388683 -0.15397485 -0.03289695 0.042823255 -0.0013692379
-0.15645595 0.06546292 -0.12219242 -0.058123074 0.076482385 -0.06736006 -0.04068906 0.095634654
-0.0036333352 0.06763244 -0.12504818 -0.13135599 -0.09983052 -0.047322966 0.087258294 -0.11503711
0.12632157 -0.14385048 0.045751974 -0.11579877 0.06035389 0.092325404 0.09850611 0.047559723
0.01598981 0.10261418 -0.05457689 -0.06728823 0.120875135 0.1330524 -0.124232486 0.08073835
0.0006144345 -0.0012361109 0.07652399 -0.14123553 0.029435754 0.02545245 -0.12301592 -0.07652274
0.064254984 0.0038330555 0.039069295 -0.052318066 0.053981796 -0.11740867 -0.09629199 -0.04205907
-0.078983754 0.12315546 -0.037577145 -0.15128082 0.03685534 -0.09663573 0.03458835 0.036958575
0.081514046 0.00805518 0.11503886 -0.062352426 -0.1502293 0.13447602 -0.025854781 0.09598397
0.0894077 0.13856663 -0.0035118163 -0.110650755 -0.12243736 0.13697515 0.12463586 -0.06857483
-0.049136437 0.106307015 0.13975771 0.15531401 0.0877645 0.04198867 0.012686744 0.1339524
-0.10188389 -0.12956843 0.0830898 -0.00025755167 -0.08792468 0.0073464066 -0.1409683 -0.15501148
0.13024412 0.14110266 0.046755016 -0.0022907257 0.075160965 -0.022353321 0.12964796 -0.11201031
0.14109273 0.019590825 -0.07059368 -0.09494454 0.04725513 -0.049210623 0.13892512 -0.11410667
0.07809165 0.01920326 -0.10325852 0.023677796 0.057980463 -0.09988799 -0.002598241 -0.13796005
0.099741295 -0.118233144 0.15107135 -0.11922313 0.11179866 -0.1287645 0.043233648 -0.017782986
-0.13689578 0.034439012 -0.085440464 -0.09827988 0.0049104095 0.021733314 -0.14742851 0.036169693
-0.15109015 -0.028208882 0.054660752 -0.12327143 -0.12063353 0.08179048 -0.15762913 0.029274866
-0.09974071 0.036545232 -0.032455087 0.14274393 0.0047297627 0.11326949 -0.087508105 -0.07718489
0.10628267 -0.02354382 -0.10453075 0.0094046295 -0.061209403 -0.02834186 -0.11868544 -0.008289158
-0.14566888 0.14002268 0.121031865 0.096926376 0.14106084 0.0886991 0.022118181 0.14497419
0.15419115 0.10683553 -0.038453303 0.023779973 0.093683645 -0.0064773113 0.11861269 -0.07400896
00000000: d4c9 473d a83a ffbc 3888 3e3d 1441 7dbd
00000010: 20ae 653d 25c6 a4bd b877 023d c021 58bb
00000020: ddb9 073e ec33 4e3d 407a 0a3c ae42 f53d
00000030: 463f cf3d 186b 703d b264 74bd 425e e7bd
00000040: f467 793d e2c4 84bd d095 8cbd 5000 b7bd
00000050: 7fe9 1bbe e263 f33d 2acc ed3d f6e7 af3d
00000060: 2c02 a13d 3053 5d3c f04c 063d 6649 e0bd
00000070: ae94 a83d 1888 8fbd f2a1 bc3d e953 103e
00000080: 76b2 ebbd d621 9fbd 502c 64bc 1c03 763d
00000090: 4894 b5bc 326b d43d 38ad 583d 1750 a2bd
000000a0: 121b e2bd 1230 78bd ec3d 583d 6893 ba3c
000000b0: bd62 90bd 28c3 633d 0071 ba3c aaa3 e03d
000000c0: 524b f8bd 9aa7 e03d b78d 10be 60a8 993c
000000d0: a502 08be 1666 ee3d 149f 923d e62b 65bd
000000e0: 2b7d 203e d88b a13d 24ab 42bd 7056 7bbc
000000f0: 20ca 243c 6248 f83d a25d 9f3d de4e 73bd
00000100: 02f2 bf3d c57e 12be df40 0f3e a0ac a33b
00000110: 583b dfbc 5b48 1a3e f842 f6bc 3efa c63d
00000120: 4b00 0f3e 6070 d4bc 20a0 05be 81df 10be
00000130: 9059 a9bd c8b9 b4bd 4a05 1dbe c0e8 77bc
00000140: 88c6 753d 8b93 053e 916f 92bd dccc abbd
00000150: 95ab 1dbe f4be 06bd 7067 2f3d 0078 b3ba
00000160: fd35 20be 6c11 863d 0540 fabd 7612 6ebd
00000170: cca2 9c3d 12f4 89bd 92a9 26bd 1adc c33d
00000180: 401d 6ebb e082 8a3d a10c 00be 2f82 06be
00000190: f273 ccbd bad5 41bd 7ab4 b23d 9498 ebbd
000001a0: 715a 013e 8a4d 13be 6c66 3b3d e827 edbd
000001b0: a435 773d 1a15 bd3d 92bd c93d fccd 423d
000001c0: 10fd 823c 6227 d23d 048c 5fbd 69ce 89bd
000001d0: 628d f73d e33e 083e 9a6d febd 265a a53d
000001e0: 0012 213a 0005 a2ba 9cb8 9c3d 0ca0 10be
000001f0: 4023 f13c a881 d03c c5ef fbbd f4b7 9cbd
00000200: 1e98 833d 0034 7b3b 2007 203d 784b 56bd
00000210: 041c 5d3d f573 f0bd bc34 c5bd 2246 2cbd
00000220: 3cc2 a1bd ee38 fc3d 7eea 19bd 5ce9 1abe
00000230: a0f5 163d f4e8 c5bd 84ac 0d3d e061 173d
00000240: d6f0 a63d e0f9 033c 7e99 eb3d 4265 7fbd
00000250: b6d5 19be 15b4 093e 68cd d3bc 3e93 c43d
00000260: 621b b73d 69e4 0d3e 8026 66bb dd9c e2bd
00000270: 70c0 fabd 3743 0c3e 1641 ff3d f670 8cbd
00000280: 4a43 49bd 7eb7 d93d a51c 0f3e a30a 1f3e
00000290: e0bd b33d 50fc 2b3d 10dc 4f3c d12a 093e
000002a0: 80a8 d0bd 96ad 04be fc2a aa3d 0008 87b9
000002b0: db11 b4bd 20ba f03b fe59 10be 54bb 1ebe
000002c0: b75e 053e 377d 103e 3082 3f3d 0020 16bb
000002d0: feed 993d 501e b7bc 6fc2 043e a965 e5bd
000002e0: 9d7a 103e f07c a03c 6b93 90bd 4872 c2bd
000002f0: 988e 413d 1491 49bd 6342 0e3e c2b0 e9bd
00000300: 84ee 9f3d 2850 9d3c 3479 d3bd f0f7 c13c
00000310: ec7c 6d3d 1392 ccbd 4047 2abb 6645 0dbe
00000320: 2a45 cc3d 3824 f2bd 73b2 1a3e 422b f4bd
00000330: b2f6 e43d d7da 03be c415 313d a0ad 91bc
00000340: 682e 0cbe ec0f 0d3d 69fb aebd f646 c9bd
00000350: 80e7 a03b 100a b23c 80f7 16be ac26 143d
00000360: 60b7 1abe 5016 e7bc f4e3 5f3d bb75 fcbd
00000370: b60e f7bd c481 a73d 8869 21be d8d1 ef3c
00000380: db44 ccbd 74b0 153d a0ef 04bd 772b 123e
00000390: 20fc 9a3b d6f9 e73d 7337 b3bd 1d13 9ebd
000003a0: baaa d93d f8de c0bc 3814 d6bd e015 1a3c
000003b0: b6b6 7abd 302d e8bc 5a11 f3bd 40cf 07bc
000003c0: 392a 15be 1b62 0f3e 8edf f73d 5681 c63d
000003d0: 4172 103e e0a7 b53d 3031 b53c 1d74 143e
000003e0: 49e4 1d3e 96cc da3d 3681 1dbd 38ce c23c
000003f0: 36dd bf3d a03f d4bb 36eb f23d 0292 97bd

input_linear.bias f4 [40]
0.11382578 0.08577426 -0.013140067 -0.053932525 -0.110253826 0.08346847 0.15568794 0.0140410215
-0.07785174 0.058299646 -0.11524509 -0.064086065 -0.1459974 -0.11278354 0.08221637 0.031735703
-0.08916445 -0.0900009 -0.11706574 -0.042487048 0.108072594 -0.018127382 0.0056963265 0.02728881
0.14525412 -0.030710742 0.09505941 -0.020351365 -0.14614096 0.043125138 0.039129242 0.07056925
-0.051118143 -0.014596641 0.13759352 -0.065509155 -0.13560233 -0.029236749 0.13168417 0.015704706
00000000: 7e1d e93d 6aaa af3d 7049 57bc 5ae8 5cbd
00000010: c2cc e1bd 84f1 aa3d a96c 1f3e 500c 663c
00000020: bc70 9fbd 9ccb 6e3d 9e05 ecbd 8e3f 83bd
00000030: 5880 15be 0efb e6bd 0e61 a83d 4cfd 013d
00000040: da9b b6bd 6452 b8bd 2ac0 efbd e606 2ebd
00000050: 2a55 dd3d e07f 94bc 40a8 ba3b c88c df3c
00000060: 7fbd 143e 1895 fbbc 82ae c23d e8b7 a6bc
00000070: faa5 15be fca3 303d fc45 203d 9c86 903d
00000080: 4261 51bd c026 6fbc 51e5 0c3e aa29 86bd
00000090: 56db 0abe e881 efbc 37d8 063e 28a7 803c

lstm.weight_ih_l0 f4 [600, 40]
0.19904661 0.20646904 -0.19011433 -0.2149091 0.16158761 -0.19492044 -0.13591549 0.20924212
0.16693527 0.19762348 -0.22929993 -0.19825062 0.08032754 -0.20507155 0.27686268 0.16553012
0.12308476 -0.23989968 -0.23747568 -0.18319839 -0.1658697 -0.1699628 -0.08571718 -0.19135168
-0.16833968 0.18780768 -0.025927207 -0.05779863 -0.27364552 -0.019984685 -0.28283685 -0.1707238
-0.2330694 0.1667343 -0.076943554 -0.16363634 -0.1584262 0.017208965 0.034637086 0.30796662
0.095333315 -0.525164 -0.4407161 -1.4188021 -1.0403337 -0.45685944 -0.47380677 0.4788599
0.39434433 0.4766297 -0.79440784 -0.39439008 0.10362768 -0.4617824 1.7795389 1.3983209
-0.92677766 -0.8145624 -0.82188374 -0.45466 -0.44306335 -0.4552449 -0.17134723 0.25259516
-0.45182028 -0.43698013 0.080749616 0.14401531 -0.8112829 0.7612811 -0.81988746 -0.4262178
-0.80035645 -0.95938635 -0.15446962 0.2592044 -0.46350974 -0.73125833 -0.14437123 1.7383267
-0.054615337 0.15648904 0.17475732 0.19569461 0.13573214 0.19284825 0.1911053 -0.14352958
-0.14752436 -0.1728064 0.208159 -0.075766504 0.09093134 0.18344699 -0.18634044 -0.03541986
0.1456528 0.21268325 0.22305407 0.13416295 0.19228792 0.1672443 0.30009025 -0.19656995
0.14076065 0.012405228 -0.035114005 -0.020743804 0.20315716 -0.011944341 0.16540995 0.13649733
0.17243935 0.13708296 0.28131032 -0.20941584 0.16199528 0.31800875 0.24286787 -0.14349876
-0.0069217593 0.75162953 0.4608028 0.74438643 0.66371524 0.44124624 0.46248302 -0.42068022
-0.46155015 -0.4638669 0.5882171 0.34920582 0.4694329 0.43442652 -0.5037724 0.11682182
0.39578617 0.5496734 0.5401415 0.47604617 0.4301986 0.43668795 0.27969667 0.11153949
0.48494014 0.3106307 -0.37306815 -0.4077963 0.58916664 -0.29236504 0.53458357 0.4701855
0.5723582 0.39749897 0.25833163 0.059648614 0.46657306 0.46918628 0.4382433 -0.50706863
-0.18353039 1.2871238 0.4682005 0.98476464 1.2710265 0.42879218 0.544835 -0.4675745
-0.4407904 -0.48321766 0.85711306 0.18324885 0.1392287 0.43877524 -2.0139272 0.13481604
0.21554683 0.8088752 0.84502256 0.45367324 0.44886795 0.46217397 -0.009259488 0.3532735
0.43402854 0.08730347 0.021986244 -0.12583633 0.8191032 -0.5690765 0.80672455 0.49050647
0.8493346 0.17733525 0.006786001 0.37473857 0.46133882 -0.039876696 -0.082388945 -2.0339434
0.20064686 0.38006356 -0.10309163 0.34921685 0.3137732 -0.1530181 -0.064642824 0.13777395
0.08102586 0.11752553 -0.009079521 0.26958445 -0.15253422 -0.099746324 -0.08436249 -0.16664186
0.24204555 -0.06476481 -0.075206764 -0.09525674 -0.15014328 -0.116589956 0.31564304 -0.75682807
-0.11492652 0.99206984 -0.5032144 -0.3705558 -0.06430142 0.07972868 -0.03233333 -0.08550447
-0.0610542 0.25733525 0.31768358 -0.7669622 -0.11788529 0.0021504574 0.014960668 -0.04737033
0.30746084 -0.3142249 -0.74339116 -0.8660631 -0.4570602 -0.7282126 -0.7762797 0.6977971
0.7097434 0.69569767 -0.84487504 0.13087791 -0.30693755 -0.7439503 1.2103492 0.42337996
00000000: e0d2 4b3e 9f6c 533e 55ad 42be 2211 5cbe
00000010: 3977 253e 3999 47be 6e2d 0bbe 9143 563e
00000020: 14f1 2a3e cf5d 4a3e 9acd 6abe 3602 4bbe
00000030: c482 a43d 47fe 51be f2c0 8d3e ba80 293e
00000040: dd13 fc3d 43a8 75be d32c 73be 5c98 3bbe
00000050: bfd9 29be ba0a 2ebe 7d8c afbd b2f1 43be
00000060: 3d61 2cbe a850 403e 4b65 d4bc 42be 6cbd
00000070: 441b 8cbe ecb6 a3bc fecf 90be 38d2 2ebe
00000080: bfa9 6ebe 65bc 2a3e 9594 9dbd 4990 27be
00000090: 7a3a 22be d1f9 8c3c 9edf 0d3d cdad 9d3e
000000a0: 1d3e c33d 2671 06bf 8aa5 e1be 4f9b b5bf
000000b0: a829 85bf 7be9 e9be cd96 f2be 202d f53e
000000c0: 80e7 c93e cf08 f43e 505e 4bbf 7fed c9be
000000d0: c03a d43d be6e ecbe eec7 e33f 2efc b23f
000000e0: 4d41 6dbf 2987 50bf f966 52bf 32c9 e8be
000000f0: 33d9 e2be dc15 e9be a675 2fbe 2754 813e
00000100: fd54 e7be dcbb dfbe 0e60 a53d c078 133e
00000110: 3cb0 4fbf 51e3 423f 25e4 51bf 3839 dabe
00000120: 29e4 4cbf 589a 75bf 492d 1ebe 70b6 843e
00000130: 2651 edbe bf33 3bbf 0dd6 13be 7d81 de3f
00000140: 55b4 5fbd aa3e 203e 95f3 323e 2b64 483e
00000150: 5efd 0a3e 037a 453e 1cb1 433e 6bf9 12be
00000160: a010 17be 29f4 30be a227 553e 782b 9bbd
00000170: 363a ba3d 87d9 3b3e 07d0 3ebe 6a14 11bd
00000180: 0226 153e a3c9 593e 4968 643e 0362 093e
00000190: 20e7 443e 1742 2b3e 6ea5 993e a249 49be
000001a0: 8f23 103e 4c3f 4b3c b4d3 0fbd e9ee a9bc
000001b0: 6e08 503e 32b2 43bc 3a61 293e f5c5 0b3e
000001c0: f193 303e 7a5f 0c3e e807 903e 1b71 56be
000001d0: 17e2 253e 0bd2 a23e 5bb2 783e 57f1 12be
000001e0: edcf e2bb cb6a 403f 58ee eb3e 1c90 3e3f
000001f0: 3ee9 293f 07eb e13e 93ca ec3e 6663 d7be
00000200: 4d50 ecbe f67f edbe 6595 163f 1bcb b23e
00000210: 8259 f03e 276d de3e 3af7 00bf 4740 ef3d
00000220: 7ca4 ca3e 65b7 0c3f b746 0a3f 53bc f33e
00000230: fe42 dc3e 9095 df3e 6734 8f3e d16e e43d
00000240: 134a f83e fd0a 9f3e ca02 bfbe adca d0be
00000250: a0d3 163f dfb0 95be 78da 083f 27bc f03e
00000260: 1186 123f fc84 cb3e 0b44 843e 1b52 743d
00000270: aae2 ee3e 2f39 f03e 6d61 e03e 40cf 01bf
00000280: 64ef 3bbe 79c0 a43f fab7 ef3e 8919 7c3f
00000290: ffb0 a23f a68a db3e 4e7a 0b3f ed65 efbe
000002a0: 48af e1be 4e68 f7be c36b 5b3f 96a5 3b3e
000002b0: f891 0e3e 26a7 e03e 2fe4 00c0 370d 0a3e
000002c0: 4fb8 5c3e 7212 4f3f 6653 583f dc47 e83e
000002d0: 05d2 e53e 11a2 ec3e 1cb5 17bc 44e0 b43e
000002e0: fd38 de3e 29cc b23d 7f1c b43c 3ddb 00be
000002f0: bfb0 513f ffae 11bf 8085 4e3f aa23 fb3e
00000300: fe6d 593f 5f97 353e 1a5d de3b bcdd bf3e
00000310: 9a34 ec3e bf55 23bd 89bb a8bd 212c 02c0
00000320: 5f76 4d3e b197 c23e b421 d3bd 8dcc b23e
00000330: e2a6 a03e c7b0 1cbe 7563 84bd 9d14 0d3e
00000340: e3f0 a53d 3ab1 f03d 45c2 14bc f906 8a3e
00000350: ee31 1cbe cd47 ccbd 3ec6 acbd 2aa4 2abe
00000360: cada 773e 6aa3 84bd 0106 9abd f715 c3bd
00000370: 29bf 19be b7c6 eebd f79b a13e 7cbf 41bf
00000380: 985e ebbd 4af8 7d3f a9d2 00bf 7db9 bdbe
00000390: 76b0 83bd ca48 a33d f46f 04bd f81c afbd
000003a0: f813 7abd 72c1 833e 6ca7 a23e a257 44bf
000003b0: d86d f1bd b0ee 0c3b 971d 753c 6407 42bd
000003c0: 826b 9d3e 16e2 a0be e24e 3ebf 50b6 5dbf
000003d0: cb03 eabe 246c 3abf 44ba 46bf d5a2 323f
000003e0: beb1 353f 3e19 323f bb49 58bf dc04 063e
000003f0: eb26 9dbe 8773 3ebf b9ec 9a3f 42c5 d83e

lstm.weight_hh_l0 f4 [600, 150]
-0.064602934 -0.093622655 -0.09294094 0.06572519 -0.03790932 -0.017037904 0.013027408 0.0056527345
0.116876006 -0.11545384 -0.057098184 -0.17960924 -0.10147559 0.025051262 0.056525797 -0.028204117
0.09782881 -0.030199857 -0.15176553 0.028681425 0.08819052 0.08113776 -0.1251056 -0.026607668
0.10441091 -0.056318227 -0.16764724 -0.0349979 0.05510568 0.005484418 0.04631039 0.062995546
0.025807844 -0.11057497 -0.07407369 0.020669047 0.06695147 0.24402222 -0.100072615 -0.066436306
0.17609355 -0.108773045 0.12150334 0.01872276 -0.16730517 0.0026860607 -0.038841523 0.144927
-0.013062042 -0.019778423 -0.012624454 -0.046088543 0.07906163 -0.20051338 -0.01849535 0.038249437
0.17971072 0.16023712 -0.065039195 -0.0444798 -0.1173044 -0.09986883 -0.04525163 -0.029306576
-0.0857345 -0.015068085 -0.09541919 0.105802 0.019246887 -0.04036129 -0.18149918 0.10148285
0.08735337 -0.03147236 -0.026287466 0.00031078255 0.11187642 0.07520661 0.06389765 -0.12243015
-0.1305432 0.099877216 -0.18699442 0.07628256 -0.0018919919 -0.03625525 0.061739083 0.13186784
0.10855264 0.105780244 0.16156489 0.08371989 -0.010000879 -0.035721283 -0.14136617 0.06768549
0.09469782 0.033660952 0.06412 -0.030726563 -0.0056151855 -0.08687747 0.09523567 0.021012366
0.03221417 -0.06399486 0.07789303 -0.1003946 -0.10941888 0.05925908 -0.0349401 0.04554411
-0.0017970892 -0.20235565 -0.004983937 -0.064945035 0.15002213 -0.010257412 0.15342881 0.04878897
-0.009804054 0.044866376 0.026450476 0.15012446 0.0036187742 0.110899396 -0.061121643 -0.06536165
0.006037129 -0.10837776 -0.04039518 0.09550326 0.15009445 -0.030400908 0.11795936 0.02744633
0.03970696 0.11078041 0.21428907 -0.07474865 -0.3421106 -0.057871588 -0.02846836 -0.02974741
-0.088363245 0.007983786 -0.15115236 0.023624813 -0.13597906 -0.025374155 -0.169871 -0.55488455
0.45763972 -0.5412565 0.50943613 -0.094402425 -0.29820427 -0.0038104139 -0.27557406 0.46767944
0.11582057 0.22395499 0.36561114 -0.043930843 -0.2970237 -0.08075507 0.11710584 0.5839463
0.3994767 0.43360266 -0.15132897 0.16072614 -0.6286448 0.4499238 0.15254186 0.3746623
0.4796043 -0.09367672 0.5248866 0.20659018 0.43708348 -0.096643224 -0.47892156 -0.09257114
0.4773118 -0.2327857 0.011523767 -0.20243643 0.45824048 0.28612474 -0.25358588 0.35346714
-0.4690329 0.18913536 -0.088362426 0.322984 0.62555474 -0.076110266 -0.24382073 0.6865988
0.2515667 0.47020268 -0.39918652 -0.06477669 0.47384802 -0.24437495 -0.21148539 -0.129074
0.5238417 0.7657019 0.47912443 0.2339661 0.32127348 0.561251 0.37726203 -0.5081784
0.6046919 -0.44030374 0.0777859 0.056315713 -0.25763315 -0.41747123 0.453797 0.18253385
-0.16221982 -0.20374072 -0.5725602 0.6224749 0.2179723 0.24022923 -0.10772889 -0.31501502
0.4192457 -0.63597775 0.20025316 -0.19007635 0.20873639 -0.37062332 -0.41792762 -0.12561235
-0.25916198 -0.46017894 -0.20889512 0.7866482 0.4735982 -0.122157186 -0.00450198 0.36019447
-0.7099137 -0.15460917 0.44656998 0.42717522 -0.35403305 -0.33867037 -0.26710427 0.5223775
00000000: 8b4e 84bd 3cbd bfbd d257 bebd ee9a 863d
00000010: ce46 1bbd 1393 8bbc e970 553c 933a b93b
00000020: b05c ef3d 1073 ecbd c9df 69bd 7ceb 37be
00000030: 6fd2 cfbd 4e38 cd3c 9887 673d 520c e7bc
00000040: 795a c83d b165 f7bc 6c68 1bbe 4ff5 ea3c
00000050: 3b9d b43d 8e2b a63d af1b 00be 53f8 d9bc
00000060: 63d5 d53d f1ad 66bd b8ab 2bbe f559 0fbd
00000070: 7eb6 613d a2b6 b33b f7af 3d3d cf03 813d
00000080: f96a d33c 2175 e2bd f2b3 97bd 2252 a93c
00000090: da1d 893d f6e0 793e dff2 ccbd c20f 88bd
000000a0: de51 343e 67c4 debd bed6 f83d 7960 993c
000000b0: 0c52 2bbe 9f08 303b 4a18 1fbd be67 143e
000000c0: 2d02 56bc 5c06 a2bc ccd6 4ebc 57c7 3cbd
000000d0: 10eb a13d 6153 4dbe 8f83 97bc 71ab 1c3d
000000e0: 1606 383e 3315 243e 4533 85bd 7330 36bd
000000f0: 4a3d f0bd 0788 ccbd c659 39bd 5814 f0bc
00000100: 9295 afbd 21e0 76bc 236b c3bd b8ae d83d
00000110: a6ab 9d3c e151 25bd ecda 39be 3ed6 cf3d
00000120: 53e6 b23d 29e9 00bd d058 d7bc 87f0 a239
00000130: 771f e53d ec05 9a3d c5dc 823d a9bc fabd
00000140: 1ead 05be 6d8c cc3d 777b 3fbe 083a 9c3d
00000150: b7fc f7ba 6380 14bd 1fe2 7c3d 5d08 073e
00000160: d950 de3d 50a3 d83d 4471 253e 5575 ab3d
00000170: bada 23bc 7b50 12bd 4bc2 10be b19e 8a3d
00000180: eef0 c13d 11e0 093d 5951 833d 46b6 fbbc
00000190: 97ff b7bb d1ec b1bd eb0a c33d 2022 ac3c
000001a0: 01f3 033d bd0f 83bd 6286 9f3d af9b cdbd
000001b0: 0117 e0bd a6b9 723d 5a1d 0fbd 768c 3a3d
000001c0: 4f8c ebba 5236 4fbe 4b50 a3bb e701 85bd
000001d0: 679f 193e b40e 28bc 711c 1d3e f1d6 473d
000001e0: 2fa1 20bc cec5 373d abae d83c 3aba 193e
000001f0: f528 6d3b 391f e33d b05a 7abd 54dc 85bd
00000200: 1cd3 c53b 29f5 ddbd 6b75 25bd 3797 c33d
00000210: 5cb2 193e 530b f9bc ad94 f13d 20d7 e03c
00000220: c4a3 223d d7e0 e23d 986e 5b3e d215 99bd
00000230: 1f29 afbe c20a 6dbd 7a36 e9bc d7b0 f3bc
00000240: caf7 b4bd 6dce 023c afc7 1abe d388 c13c
00000250: 183e 0bbe 76dd cfbc aaf2 2dbe ea0c 0ebf
00000260: c14f ea3e c98f 0abf 686a 023f 0f56 c1bd
00000270: 3bae 98be 23b8 79bb 0b18 8dbe ae73 ef3e
00000280: 5633 ed3d 7554 653e 6231 bb3e d4f0 33bd
00000290: 7e13 98be ea62 a5bd 30d5 ef3d 817d 153f
000002a0: 3688 cc3e 2b01 de3e fbf5 1abe 6595 243e
000002b0: deee 20bf 6a5c e63e ef33 1c3e bdd3 bf3e
000002c0: b28e f53e 95d9 bfbd f85e 063f 608c 533e
000002d0: 68c9 df3e e2ec c5bd 3535 f5be f095 bdbd
000002e0: 3662 f43e 605f 6ebe 2fce 3c3c 7f4b 4fbe
000002f0: 7f9e ea3e f17e 923e 02d6 81be a5f9 b43e
00000300: 1525 f0be b3ac 413e 5cf7 b4bd 295e a53e
00000310: 5b24 203f b3df 9bbd 24ac 79be f0c4 2f3f
00000320: 5acd 803e 68be f03e 2d62 ccbe a4a9 84bd
00000330: 359c f23e 6d3d 7abe a08f 58be fa2b 04be
00000340: 7d1a 063f 0a05 443f cc4f f53e cf94 6f3e
00000350: f57d a43e 25ae 0f3f 7d28 c13e fb17 02bf
00000360: 17cd 1a3f 7e6f e1be 374e 9f3d 4eab 663d
00000370: 7ee8 83be cabe d5be 1558 e83e 27ea 3a3e
00000380: f41c 26be 68a1 50be 4e93 12bf 845a 1f3f
00000390: 2134 5f3e a7fe 753e f7a0 dcbd a649 a1be
000003a0: 5fa7 d63e 70cf 22bf 2a0f 4d3e 60a3 42be
000003b0: febe 553e 57c2 bdbe 9cfa d5be 86a0 00be
000003c0: e1b0 84be 939c ebbe 9ae8 55be c761 493f
000003d0: 777b f23e 8c2d fabd 5885 93bb 696b b83e
000003e0: e7bc 35bf de51 1ebe d2a4 e43e b6b6 da3e
000003f0: d243 b5be 3466 adbe e4c1 88be 88ba 053f

lstm.bias_ih_l0 f4 [600]
-0.18407136 -0.4675111 0.18757275 0.4457635 0.48205122 -0.08887637 -0.7447394 0.17341098
0.17095809 0.33218732 0.1309437 0.22652094 0.17545101 0.17661084 0.10578746 0.11961153
0.053185854 0.30978343 -0.34267876 0.8577206 -0.75974524 0.5223508 0.0921005 0.17829561
0.34555373 0.24454862 0.8926287 -0.17171265 0.37411565 -0.20214549 0.41445222 0.37277126
0.60388446 -0.10275692 0.31663078 -0.243233 0.23421474 0.35097077 0.19408922 0.79930073
-0.31971848 0.6352498 0.11795759 0.7538926 0.32650515 0.020577775 0.26152802 0.06356475
-0.7227598 0.45999354 0.48454046 0.23131143 0.025272196 0.15505338 0.1358348 0.45563537
-0.14069778 -0.57310987 0.18597628 0.28037706 0.24161288 0.49971405 0.21597308 0.24577312
0.42935002 0.081073694 0.36559457 -0.23769584 -0.18676014 0.17220873 -0.21178615 -0.062835194
-0.5936628 0.009116473 -0.21591708 0.40390295 0.2800928 0.35187042 0.077138096 0.5482407
-0.0033846472 -0.05575019 0.49122623 -0.16550525 0.29851887 -0.6620822 -0.41651702 -0.5462477
-0.0077562095 -0.4831141 -0.41149536 0.12478571 0.18060918 0.18054892 -0.07140671 0.1861948
0.3867772 0.4671166 -0.91528463 -0.25492227 0.20822707 0.41472492 -0.7012487 0.5716977
0.094079606 0.17020728 0.015691355 0.29347062 1.0637974 -0.028447103 0.3221701 0.7692457
-0.31982175 0.3762964 -0.11174548 0.17416482 -0.15972257 -0.03291737 0.039074328 0.008753572
0.14476988 -0.0037144432 -0.18174629 -0.51654315 -0.4054285 0.28699553 -0.2045028 -0.23068142
-0.098417826 0.20324571 0.13241675 0.13592385 0.0055834986 0.117650375 0.10703748 0.23490852
0.15229364 0.11353664 -0.3598707 0.5790797 0.5572067 0.10839253 0.27395132 0.3825622
0.23768312 0.11820601 0.38176507 0.008749244 -0.20122229 -0.87769055 0.15564908 -0.26682585
0.0881504 -0.702297 0.5392203 -0.28304538 -0.1958199 -0.27283284 0.24819134 0.20994367
0.11696656 -0.0861212 0.30277443 0.28574738 -0.035410296 -0.30655366 0.32063228 0.24675028
-0.2836169 0.031116337 0.1397292 0.21923265 -0.5015106 0.26265466 -0.15026657 0.37652636
-0.21637347 -0.14000519 -0.28405553 0.3069068 1.0711379 -0.21022508 0.47773173 0.2661233
0.37239838 -0.6100806 0.32701495 -0.13980812 0.42432797 0.27184728 -0.17606172 0.17632747
0.33788583 0.3061942 0.28828233 -0.17474975 -0.19600573 0.5367922 0.14638382 0.16711666
-0.25982767 0.29580092 -0.15387 -0.3725169 0.19744103 -0.2925847 -0.21334195 -0.11444418
0.061044008 -0.2804903 0.10306742 -0.16650353 -0.0890094 -0.13750836 0.20629251 -0.0446101
-0.21455216 -0.47375682 0.21543899 0.28872585 -0.33659795 -0.36579204 -0.17289071 -0.21353698
0.08410255 -0.4494701 -0.3002237 0.40951905 -0.27825812 0.28514105 -0.17384465 -0.091842465
0.11812725 -0.41039762 -0.2731623 0.22945017 -0.23542255 -0.20531422 0.3479205 -0.18275219
-0.14264655 -0.4493008 0.17404073 0.099813014 0.35356203 0.020387847 0.29790026 -0.22291574
0.09235141 0.39271885 0.15998125 0.3644087 0.040878024 0.14547305 0.16212277 0.12258022
00000000: 347d 3cbe 9d5d efbe 1213 403e 1d3b e43e
00000010: 6bcf f63e d004 b6bd 3ea7 3ebf a692 313e
00000020: a30f 2f3e 7514 aa3e 1b16 063e 1bf5 673e
00000030: 6ea9 333e 79d9 343e 19a7 d83d e4f6 f43d
00000040: 69d9 593d ef9b 9e3e 9773 afbe 9493 5b3f
00000050: aa7e 42bf c8b8 053f 309f bc3d 2093 363e
00000060: 6bec b03e f46a 7a3e 5183 643f 71d5 2fbe
00000070: 168c bf3e 3aff 4ebe 1533 d43e e0db be3e
00000080: 2c98 1a3f 3872 d2bd 6e1d a23e 1212 79be
00000090: fdd5 6f3e 71b2 b33e 53bf 463e f99e 4c3f
000000a0: 24b2 a3be bb9f 223f c093 f13d 1bff 403f
000000b0: af2b a73e b992 a83c 00e7 853e 3c2e 823d
000000c0: c906 39bf 4684 eb3e b015 f83e e7dc 6c3e
000000d0: a307 cf3c 50c6 1e3e 4718 0b3e 0a49 e93e
000000e0: 1413 10be 54b7 12bf 9170 3e3e 958d 8f3e
000000f0: 5e69 773e 85da ff3e 0c28 5d3e f3ab 7b3e
00000100: c4d3 db3e f709 a63d 362f bb3e 8a66 73be
00000110: 0d3e 3fbe 7c57 303e 78de 58be bdaf 80bd
00000120: 49fa 17bf 425d 153c 5e19 5dbe 5ecc ce3e
00000130: 5368 8f3e 5c28 b43e 94fa 9d3d 8159 0c3f
00000140: f5d0 5dbb 505a 64bd 0182 fb3e 357a 29be
00000150: 77d7 983e 387e 29bf b841 d5be e4d6 0bbf
00000160: cd27 febb bb5a f7be 85af d2be a68f ff3d
00000170: 9df1 383e d1e1 383e ae3d 92bd daa9 3e3e
00000180: a907 c63e e829 ef3e 1850 6abf 2c85 82be
00000190: 7a39 553e d356 d43e 0985 33bf c85a 123f
000001a0: cfac c03d d14a 2e3e 288b 803c c841 963e
000001b0: 832a 883f e609 e9bc 7bf3 a43e 49ed 443f
000001c0: adbf a3be eca9 c03e d0da e4bd 4358 323e
000001d0: 508e 23be 5dd4 06bd 670c 203d 246b 0f3c
000001e0: 8e3e 143e 046e 73bb b31b 3abe 2c3c 04bf
000001f0: 5394 cfbe 14f1 923e 2f69 51be c037 6cbe
00000200: 498f c9bd a51f 503e 4298 073e 9f2f 0b3e
00000210: c8f5 b63b aef2 f03d 7736 db3d dc8b 703e
00000220: ddf2 1b3e e685 e83d f940 b8be 913e 143f
00000230: 19a5 0e3f e7fc dd3d 5943 8c3e 31df c33e
00000240: 3463 733e fe15 f23d b676 c33e fd58 0f3c
00000250: 370d 4ebe 54b0 60bf 7962 1f3e 669d 88be
00000260: 3288 b43d bcc9 33bf 570a 0a3f 53eb 90be
00000270: 0385 48be bfb0 8bbe df25 7e3e 79fb 563e
00000280: 2a8c ef3d 5060 b0bd 4005 9b3e 7b4d 923e
00000290: 630a 11bd 9af4 9cbe ea29 a43e 1bac 7c3e
000002a0: 3c36 91be b0e7 fe3c 2c15 0f3e 867e 603e
000002b0: 0063 00bf ac7a 863e 7bdf 19be 10c8 c03e
000002c0: 0291 5dbe 855d 0fbe ba6f 91be e322 9d3e
000002d0: 0c1b 893f 3e45 57be 4199 f43e 5041 883e
000002e0: 00ab be3e 3e2e 1cbf 816e a73e dc29 0fbe
000002f0: 8441 d93e 912f 8b3e 8649 34be 308f 343e
00000300: 5fff ac3e 7cc5 9c3e be99 933e 99f1 32be
00000310: bab5 48be 376b 093f a4e5 153e a120 2b3e
00000320: 2208 85be 3873 973e 1990 1dbe 89ba bebe
00000330: fb2d 4a3e a9cd 95be 5076 5abe b661 eabd
00000340: 4809 7a3d 6d9c 8fbe 0315 d33d e77f 2abe
00000350: 8f4a b6bd fece 0cbe 583e 533e 15b9 36bd
00000360: 90b3 5bbe 4190 f2be 0a9c 5c3e e0d3 933e
00000370: 9156 acbe 1849 bbbe 430a 31be 70a9 5abe
00000380: f53d ac3d f220 e6be ecb6 99be 7bac d13e
00000390: d977 8ebe 02fe 913e 5504 32be e717 bcbd
000003a0: b3ec f13d a31f d2be eedb 8bbe fcf4 6a3e
000003b0: 9c12 71be e43d 52be a322 b23e 6423 3bbe
000003c0: f011 12be c10a e6be bc37 323e c46a cc3d
000003d0: 1506 b53e 6a04 a73c 6286 983e 0644 64be
000003e0: bc22 bd3d 7212 c93e 20d2 233e c793 ba3e
000003f0: b76f 273d e3f6 143e 8303 263e 570b fb3d

lstm.bias_hh_l0 f4 [600]
-0.19454946 -0.46902695 0.16141552 0.42884701 0.44043183 -0.094440795 -0.7334116 0.17149152
0.16407424 0.28368455 0.14742841 0.23872523 0.16428499 0.1647638 0.15622145 0.12725838
0.06831089 0.34975007 -0.32741192 0.8402497 -0.7368838 0.4797662 0.09039533 0.17467299
0.3154034 0.23543935 0.9258981 -0.20248988 0.38171673 -0.16269492 0.42882562 0.32920024
0.60929453 -0.09169733 0.2919639 -0.28745362 0.23031637 0.37436873 0.21424434 0.8240991
-0.3226893 0.5930564 0.16257633 0.74136627 0.34067056 0.016821092 0.2721174 0.073340796
-0.7488017 0.46287394 0.4837352 0.23621707 0.006752545 0.17390652 0.13346876 0.4373914
-0.16869795 -0.5419534 0.21109948 0.3260032 0.2809065 0.50992477 0.18101053 0.30037755
0.43466097 0.04499021 0.34879434 -0.18666631 -0.12925223 0.1943124 -0.22431211 -0.08642625
-0.58348596 -0.0047745965 -0.2232603 0.4023982 0.27506295 0.32579517 0.075751424 0.5497664
0.014858323 -0.006179864 0.4756182 -0.17265119 0.33849418 -0.6651663 -0.4250298 -0.5741926
0.01723195 -0.5135345 -0.42664665 0.104893014 0.14978173 0.21105969 -0.07996878 0.21694879
0.35702127 0.4747181 -0.91594595 -0.27534428 0.21072026 0.42808974 -0.73559976 0.5676306
0.09858309 0.19442506 0.018467708 0.2464555 1.0442061 0.026262514 0.34969088 0.75807047
-0.31293452 0.38873154 -0.11083496 0.14915831 -0.12964623 -0.04403798 0.047055013 -0.036913987
0.16321187 0.03467398 -0.14776291 -0.5114204 -0.4252575 0.30722323 -0.17787866 -0.29091305
-0.12138372 0.231909 0.11779146 0.10687831 0.021174038 0.14220367 0.07975292 0.18106706
0.1804038 0.08838888 -0.35510126 0.58992094 0.5400227 0.10818422 0.22547339 0.37076035
0.21955127 0.11043205 0.3389631 0.029248314 -0.19661358 -0.8991961 0.16684042 -0.25371483
0.0853568 -0.7519997 0.5576724 -0.3080598 -0.20892577 -0.25529018 0.26725546 0.22981177
0.11196195 -0.060935684 0.29864612 0.23764454 -0.021235518 -0.34652606 0.36583805 0.24398322
-0.29190934 0.07689246 0.14525029 0.18829219 -0.50533223 0.2613023 -0.124441676 0.3982183
-0.21197002 -0.14303891 -0.31697732 0.33750296 1.0915626 -0.2132896 0.47825631 0.20664859
0.36112925 -0.60908693 0.3241108 -0.14139214 0.4404829 0.2692963 -0.17712599 0.2205043
0.34475252 0.32979628 0.31128365 -0.13052642 -0.14211142 0.52954423 0.14118765 0.17944568
-0.24930546 0.3394407 -0.14710644 -0.32883605 0.18240279 -0.30848098 -0.26391056 -0.08086461
0.09807688 -0.26224867 0.14783391 -0.20020765 -0.0741664 -0.13281924 0.21110606 -0.07228762
-0.23973468 -0.45885468 0.2039027 0.2914416 -0.34673294 -0.42675778 -0.18900822 -0.202436
0.044936724 -0.4519124 -0.28004184 0.41854134 -0.2862439 0.24221095 -0.16788647 -0.071743324
0.1436182 -0.41508576 -0.28766775 0.24271439 -0.2525068 -0.22703421 0.2941173 -0.1619696
-0.14481835 -0.4326943 0.17345884 0.12693083 0.37077066 -0.026586095 0.3448624 -0.17499252
0.12747692 0.4028322 0.15427762 0.3712228 0.06113252 0.16462612 0.1378951 0.1320491
00000000: f937 47be 4d24 f0be 1c4a 253e d691 db3e
00000010: 4880 e13e 2d6a c1bd ddc0 3bbf 799b 2f3e
00000020: 1403 283e 1a3f 913e 79f7 163e 6374 743e
00000030: 533a 283e d7b7 283e 84f8 1f3e 0550 023e
00000040: 94e6 8b3d 7112 b33e 89a2 a7be 9b1a 573f
00000050: 6ba4 3cbf eaa3 f53e 3021 b93d 7add 323e
00000060: 8e7c a13e 0317 713e a807 6d3f 8259 4fbe
00000070: 6070 c33e 7f99 26be 088f db3e ef8c a83e
00000080: bafa 1b3f cfcb bbbd 4b7c 953e 1f2d 93be
00000090: 0ed8 6b3e 42ad bf3e de62 5b3e 29f8 523f
000000a0: 8837 a5be 8bd2 173f 697a 263e 2eca 3d3f
000000b0: 5f6c ae3e 63cc 893c f952 8b3e b333 963d
000000c0: 78b1 3fbf d0fd ec3e 24ac f73e e3e2 713e
000000d0: 7444 dd3b 8d14 323e 09ac 083e c4f1 df3e
000000e0: 28bf 2cbe 75bd 0abf 762a 583e e4e9 a63e
000000f0: fad2 8f3e 6e8a 023f d35a 393e 16cb 993e
00000100: e28b de3e a847 383d 2c95 b23e 7425 3fbe
00000110: b25a 04be d4f9 463e 13b2 65be 3f00 b1bd
00000120: 565f 15bf 3874 9cbb 599e 64be 2307 ce3e
00000130: 0dd5 8c3e a0ce a63e 9023 9b3d 7ebd 0c3f
00000140: 5370 733c 7580 cabb 3b84 f33e 79cb 30be
00000150: 1c4f ad3e 5748 2abf 829d d9be 49fe 12bf
00000160: 052a 8d3c ff76 03bf 6e71 dabe 26d2 d63d
00000170: 6260 193e 0820 583e acc6 a3bd d327 5e3e
00000180: 7ecb b63e 400e f33e 6f7b 6abf edf9 8cbe
00000190: 0dc7 573e 942e db3e 4450 3cbf 3d50 113f
000001a0: eee5 c93d 5d17 473e 9749 973c d55e 7c3e
000001b0: 8ca8 853f 7c24 d73c af0a b33e e810 423f
000001c0: f438 a0be d207 c73e 71fd e2bd f5bc 183e
000001d0: fbc1 04be 2b61 34bd c2bc 403d 1f33 17bd
000001e0: 0321 273e 4e06 0e3d 294f 17be 73ec 02bf
000001f0: 5abb d9be 5d4c 9d3e d325 36be 8ef2 94be
00000200: 0798 f8bd 8e79 6d3e a63c f13d 04e3 da3d
00000210: 2d75 ad3c d79d 113e 8055 a33d a569 393e
00000220: c6bb 383e 3b05 b53d d5cf b5be 0f05 173f
00000230: ed3e 0a3f b08f dd3d 7fe2 663e 4dd4 bd3e
00000240: 0cd2 603e 332a e23d 928c ad3e 299a ef3c
00000250: 1255 49be b731 66bf 37d8 2a3e e9e6 81be
00000260: 8ccf ae3d 0d83 40bf 9ec3 0e3f 04ba 9dbe
00000270: a3f0 55be 65b5 82be b5d5 883e c753 6b3e
00000280: 4f4c e53d b297 79bd 25e8 983e 1759 733e
00000290: 1cf6 adbc dd6b b1be 204f bb3e bdd6 793e
000002a0: 2475 95be cb79 9d3d 7ebc 143e abcf 403e
000002b0: 745d 01bf 6ac9 853e 47db febd 45e3 cb3e
000002c0: ab0e 59be cb78 12be da4a a2be 30cd ac3e
000002d0: 53b8 8b3f 9768 5abe 03de f43e b09b 533e
000002e0: efe5 b83e 1fed 1bbf daf1 a53e 1ac9 10be
000002f0: fa86 e13e 34e1 893e 8460 35be e1cb 613e
00000300: 6783 b03e 0fdb a83e 9260 9f3e b8a8 05be
00000310: a885 11be 3690 073f 7f93 103e 9cc0 373e
00000320: ee49 7fbe 2ccb ad3e 12a3 16be 335d a8be
00000330: ccc7 3a3e 38f1 9dbe 491f 87be 589c a5bd
00000340: 88dc c83d 7545 86be c661 173e 3c03 4dbe
00000350: 8ee4 97bd c401 08be 302c 583e 880b 94bd
00000360: 027d 75be 00ef eabe dfcb 503e d537 953e
00000370: fb86 b1be ff7f dabe 5f8b 41be 624b 4fbe
00000380: 920f 383d 1061 e7be a561 8fbe 0d4b d63e
00000390: 8f8e 92be 2606 783e 6eea 2bbe 2aee 92bd
000003a0: a610 133e 1f86 d4be 3049 93be 1f8a 783e
000003b0: 9248 81be a87b 68be 8b96 963e 5cdb 25be
000003c0: 434b 14be 1b8a ddbe 329f 313e 28fa 013e
000003d0: a7d5 bd3e 15cb d9bc ce91 b03e 3d31 33be
000003e0: 4f89 023e 0640 ce3e f4fa 1d3e ea10 be3e
000003f0: 1866 7a3d c093 283e 6034 0d3e e137 073e

layernorm.weight f4 [150]
1.0 1.0 1.0 1.0 1.0 1.0 1.0 1.0
1.0 1.0 1.0 1.0 1.0 1.0 1.0 1.0
1.0 1.0 1.0 1.0 1.0 1.0 1.0 1.0
1.0 1.0 1.0 1.0 1.0 1.0 1.0 1.0
1.0 1.0 1.0 1.0 1.0 1.0 1.0 1.0
1.0 1.0 1.0 1.0 1.0 1.0 1.0 1.0
1.0 1.0 1.0 1.0 1.0 1.0 1.0 1.0
1.0 1.0 1.0 1.0 1.0 1.0 1.0 1.0
1.0 1.0 1.0 1.0 1.0 1.0 1.0 1.0
1.0 1.0 1.0 1.0 1.0 1.0 1.0 1.0
1.0 1.0 1.0 1.0 1.0 1.0 1.0 1.0
1.0 1.0 1.0 1.0 1.0 1.0 1.0 1.0
1.0 1.0 1.0 1.0 1.0 1.0 1.0 1.0
1.0 1.0 1.0 1.0 1.0 1.0 1.0 1.0
1.0 1.0 1.0 1.0 1.0 1.0 1.0 1.0
1.0 1.0 1.0 1.0 1.0 1.0 1.0 1.0
1.0 1.0 1.0 1.0 1.0 1.0 1.0 1.0
1.0 1.0 1.0 1.0 1.0 1.0 1.0 1.0
1.0 1.0 1.0 1.0 1.0 1.0
00000000: 0000 803f 0000 803f 0000 803f 0000 803f
00000010: 0000 803f 0000 803f 0000 803f 0000 803f
00000020: 0000 803f 0000 803f 0000 803f 0000 803f
00000030: 0000 803f 0000 803f 0000 803f 0000 803f
00000040: 0000 803f 0000 803f 0000 803f 0000 803f
00000050: 0000 803f 0000 803f 0000 803f 0000 803f
00000060: 0000 803f 0000 803f 0000 803f 0000 803f
00000070: 0000 803f 0000 803f 0000 803f 0000 803f
00000080: 0000 803f 0000 803f 0000 803f 0000 803f
00000090: 0000 803f 0000 803f 0000 803f 0000 803f
000000a0: 0000 803f 0000 803f 0000 803f 0000 803f
000000b0: 0000 803f 0000 803f 0000 803f 0000 803f
000000c0: 0000 803f 0000 803f 0000 803f 0000 803f
000000d0: 0000 803f 0000 803f 0000 803f 0000 803f
000000e0: 0000 803f 0000 803f 0000 803f 0000 803f
000000f0: 0000 803f 0000 803f 0000 803f 0000 803f
00000100: 0000 803f 0000 803f 0000 803f 0000 803f
00000110: 0000 803f 0000 803f 0000 803f 0000 803f
00000120: 0000 803f 0000 803f 0000 803f 0000 803f
00000130: 0000 803f 0000 803f 0000 803f 0000 803f
00000140: 0000 803f 0000 803f 0000 803f 0000 803f
00000150: 0000 803f 0000 803f 0000 803f 0000 803f
00000160: 0000 803f 0000 803f 0000 803f 0000 803f
00000170: 0000 803f 0000 803f 0000 803f 0000 803f
00000180: 0000 803f 0000 803f 0000 803f 0000 803f
00000190: 0000 803f 0000 803f 0000 803f 0000 803f
000001a0: 0000 803f 0000 803f 0000 803f 0000 803f
000001b0: 0000 803f 0000 803f 0000 803f 0000 803f
000001c0: 0000 803f 0000 803f 0000 803f 0000 803f
000001d0: 0000 803f 0000 803f 0000 803f 0000 803f
000001e0: 0000 803f 0000 803f 0000 803f 0000 803f
000001f0: 0000 803f 0000 803f 0000 803f 0000 803f
00000200: 0000 803f 0000 803f 0000 803f 0000 803f
00000210: 0000 803f 0000 803f 0000 803f 0000 803f
00000220: 0000 803f 0000 803f 0000 803f 0000 803f
00000230: 0000 803f 0000 803f 0000 803f 0000 803f
00000240: 0000 803f 0000 803f 0000 803f 0000 803f
00000250: 0000 803f 0000 803f

layernorm.bias f4 [150]
0.0 0.0 0.0 0.0 0.0 0.0 0.0 0.0
0.0 0.0 0.0 0.0 0.0 0.0 0.0 0.0
0.0 0.0 0.0 0.0 0.0 0.0 0.0 0.0
0.0 0.0 0.0 0.0 0.0 0.0 0.0 0.0
0.0 0.0 0.0 0.0 0.0 0.0 0.0 0.0
0.0 0.0 0.0 0.0 0.0 0.0 0.0 0.0
0.0 0.0 0.0 0.0 0.0 0.0 0.0 0.0
0.0 0.0 0.0 0.0 0.0 0.0 0.0 0.0
0.0 0.0 0.0 0.0 0.0 0.0 0.0 0.0
0.0 0.0 0.0 0.0 0.0 0.0 0.0 0.0
0.0 0.0 0.0 0.0 0.0 0.0 0.0 0.0
0.0 0.0 0.0 0.0 0.0 0.0 0.0 0.0
0.0 0.0 0.0 0.0 0.0 0.0 0.0 0.0
0.0 0.0 0.0 0.0 0.0 0.0 0.0 0.0
0.0 0.0 0.0 0.0 0.0 0.0 0.0 0.0
0.0 0.0 0.0 0.0 0.0 0.0 0.0 0.0
0.0 0.0 0.0 0.0 0.0 0.0 0.0 0.0
0.0 0.0 0.0 0.0 0.0 0.0 0.0 0.0
0.0 0.0 0.0 0.0 0.0 0.0
00000000: 0000 0000 0000 0000 0000 0000 0000 0000
00000010: 0000 0000 0000 0000 0000 0000 0000 0000
00000020: 0000 0000 0000 0000 0000 0000 0000 0000
00000030: 0000 0000 0000 0000 0000 0000 0000 0000
00000040: 0000 0000 0000 0000 0000 0000 0000 0000
00000050: 0000 0000 0000 0000 0000 0000 0000 0000
00000060: 0000 0000 0000 0000 0000 0000 0000 0000
00000070: 0000 0000 0000 0000 0000 0000 0000 0000
00000080: 0000 0000 0000 0000 0000 0000 0000 0000
00000090: 0000 0000 0000 0000 0000 0000 0000 0000
000000a0: 0000 0000 0000 0000 0000 0000 0000 0000
000000b0: 0000 0000 0000 0000 0000 0000 0000 0000
000000c0: 0000 0000 0000 0000 0000 0000 0000 0000
000000d0: 0000 0000 0000 0000 0000 0000 0000 0000
000000e0: 0000 0000 0000 0000 0000 0000 0000 0000
000000f0: 0000 0000 0000 0000 0000 0000 0000 0000
00000100: 0000 0000 0000 0000 0000 0000 0000 0000
00000110: 0000 0000 0000 0000 0000 0000 0000 0000
00000120: 0000 0000 0000 0000 0000 0000 0000 0000
00000130: 0000 0000 0000 0000 0000 0000 0000 0000
00000140: 0000 0000 0000 0000 0000 0000 0000 0000
00000150: 0000 0000 0000 0000 0000 0000 0000 0000
00000160: 0000 0000 0000 0000 0000 0000 0000 0000
00000170: 0000 0000 0000 0000 0000 0000 0000 0000
00000180: 0000 0000 0000 0000 0000 0000 0000 0000
00000190: 0000 0000 0000 0000 0000 0000 0000 0000
000001a0: 0000 0000 0000 0000 0000 0000 0000 0000
000001b0: 0000 0000 0000 0000 0000 0000 0000 0000
000001c0: 0000 0000 0000 0000 0000 0000 0000 0000
000001d0: 0000 0000 0000 0000 0000 0000 0000 0000
000001e0: 0000 0000 0000 0000 0000 0000 0000 0000
000001f0: 0000 0000 0000 0000 0000 0000 0000 0000
00000200: 0000 0000 0000 0000 0000 0000 0000 0000
00000210: 0000 0000 0000 0000 0000 0000 0000 0000
00000220: 0000 0000 0000 0000 0000 0000 0000 0000
00000230: 0000 0000 0000 0000 0000 0000 0000 0000
00000240: 0000 0000 0000 0000 0000 0000 0000 0000
00000250: 0000 0000 0000 0000

batchnorm.weight f4 [150]
0.6934497 1.2224864 0.090525866 1.8144023 0.53771305 0.6809627 0.37408125 0.16693006
0.87138325 0.1799772 0.431525 0.31264904 -0.14556994 -0.3878526 0.8716485 0.33449998
1.0993795 0.33884558 0.647868 0.357884 0.37863365 0.690559 0.45279586 0.5592942
0.65261304 1.3748361 0.7903759 1.0978024 0.66074353 0.22859873 0.9589754 0.66665375
0.7221457 0.1921045 0.34318885 1.3482814 -0.34773874 0.37434465 0.03375316 0.32522535
0.22771768 1.1533808 0.83390176 1.1275799 0.5386117 0.487306 1.1647604 0.62204695
0.24143949 0.010984128 0.9703063 0.2374471 0.78585005 1.2606465 0.004620122 2.0827076
0.38037977 0.87082046 0.30096692 -0.022209784 0.028227277 1.0617146 0.08500745 0.19429506
0.3511887 0.48243326 -0.24206509 1.1126373 0.51233566 0.6066745 0.41464165 0.9794068
0.79130644 0.76108277 0.3641697 -0.5521615 0.68540585 0.6655639 0.9060468 0.15585065
0.25305924 1.3562216 0.18750423 0.186262 0.7032641 -0.14754084 1.2683674 1.4818063
1.2313472 0.14868677 0.8869359 1.0267706 -0.2798069 0.21254516 -0.1091316 0.15860212
0.50887954 -0.16844891 0.60119283 -0.019255484 0.1896253 0.6619121 0.63786393 0.025858914
-0.11546656 0.16446024 0.061311673 0.53046143 0.96942127 -0.4109747 0.44127208 1.9343212
0.3733381 0.7995986 0.5414797 0.35425112 1.513872 0.6448404 0.7252896 0.27216774
0.22447267 1.2499486 0.5069132 0.10885194 -0.06833623 0.48072496 0.2973425 -0.18833776
1.5242883 -0.09546164 0.6400718 0.33003116 0.70475465 -0.0077764285 0.59447 0.692096
-0.05884681 0.7702966 0.33552617 0.80395585 0.3890243 0.9333249 0.5586151 0.656763
0.21217439 0.33770612 0.25775006 0.38448256 0.15489747 0.7979544
00000000: eb85 313f 6f7a 9c3f a065 b93d 563e e83f
00000010: 90a7 093f 9253 2e3f 9487 bf3e b7ef 2a3e
00000020: f912 5f3f f14b 383e d8f0 dc3e 8913 a03e
00000030: 4910 15be 9e94 c6be 5b24 5f3f 9543 ab3e
00000040: 78b8 8c3f 2b7d ad3e adda 253f 923c b73e
00000050: 45dc c13e 7ac8 303f dcd4 e73e e82d 0f3f
00000060: a611 273f a1fa af3f 1356 4a3f ca84 8c3f
00000070: 7d26 293f c915 6a3e 697f 753f d2a9 2a3f
00000080: 8ade 383f 0bb7 443e 73b6 af3e 7c94 ac3f
00000090: d00a b2be 1aaa bf3e c140 0a3d f083 a63e
000000a0: d32e 693e fba1 933f 967a 553f 8a54 903f
000000b0: 75e2 093f 2c80 f93e de16 953f 783e 1f3f
000000c0: ea3b 773e c6f6 333c fe65 783f 5525 733e
000000d0: 782d 493f dd5c a13f 6464 973b 154b 0540
000000e0: 23c1 c23e 17ee 5e3f 5618 9a3e 4bf1 b5bc
000000f0: e43c e73c 44e6 873f 6318 ae3d 49f5 463e
00000100: 01cf b33e 7e01 f73e e9df 77be e66a 8e3f
00000110: 6e28 033f 054f 1b3f e94b d43e 67ba 7a3f
00000120: 0f93 4a3f 52d6 423f 7374 ba3e 755a 0dbf
00000130: c276 2f3f 6562 2a3f aff2 673f 5097 1f3e
00000140: fb90 813e ab98 ad3f 1c01 403e 77bb 3e3e
00000150: 1e09 343f f214 17be dd59 a23f d4ab bd3f
00000160: c99c 9d3f 5841 183e 3b0e 633f 386d 833f
00000170: da42 8fbe 70a5 593e 6380 dfbd 9868 223e
00000180: ee45 023f df7d 2cbe c6e7 193f adbd 9dbc
00000190: 222d 423e 1273 293f 0d4b 233f 13d6 d33c
000001a0: bb79 ecbd 4468 283e f321 7b3d 52cc 073f
000001b0: fe2b 783f 476b d2be 6aee e13e d697 f73f
000001c0: 2c26 bf3e 7eb2 4c3f 6a9e 0a3f 6760 b53e
000001d0: 8fc6 c13f 4314 253f 94ac 393f 9259 8b3e
000001e0: 2adc 653e 51fe 9f3f 10c5 013f c4ed de3d
000001f0: def3 8bbd 9521 f63e 473d 983e 9ddb 40be
00000200: e11b c33f 6481 c3bd bfdb 233f d8f9 a83e
00000210: cd6a 343f 69d1 febb 302f 183f 342d 313f
00000220: 5a09 71bd 2832 453f 16ca ab3e 0dd0 4d3f
00000230: 312e c73e 61ee 6e3f 6601 0f3f 9f21 283f
00000240: 3e44 593e d1e7 ac3e d1f7 833e e6da c43e
00000250: 719d 1e3e bd46 4c3f

batchnorm.bias f4 [150]
0.79438794 0.44138283 -0.5503994 0.3296308 0.18424714 1.1957769 0.3398686 0.7494879
0.5222282 0.544158 1.1866294 0.6794329 0.9005635 0.6129464 0.7639266 0.46335745
-0.8791696 0.4919019 -0.8196274 0.22915392 1.11514 0.42829365 -0.9461328 0.5871656
0.7146327 -0.4574495 0.10849467 0.39884177 0.868954 0.8859716 0.40794286 0.49886048
0.70374656 0.59972984 0.46038288 0.2768647 0.66077346 0.8070935 0.7778328 0.19394705
0.7241496 0.73245656 0.8334834 0.33771783 0.7531144 -0.7280358 0.29941443 0.49796107
0.6766998 0.9263428 0.12724471 0.21329032 0.50838435 0.5958621 0.5237203 0.30426142
0.8328196 0.6809719 0.21531051 0.7097497 -0.3021677 -1.2917736 0.52253693 0.29489866
0.5161042 0.6432094 0.6755144 0.7907356 0.5477888 0.8764071 -0.9488546 0.29687136
0.65505034 0.12064904 1.096485 0.6535093 0.7536396 0.6563539 0.38225937 0.4024537
0.31750554 0.6261008 0.787928 0.8893039 0.6884813 0.73612607 -0.20126975 0.8019442
1.084368 0.48005837 0.6688964 0.6981739 0.25829297 0.47051993 0.86776626 -0.7939438
0.45842317 -0.96091956 0.37029204 -0.8979785 0.5194225 -0.19170435 0.95151895 0.70089227
-0.9164328 0.74153346 0.61647826 0.33646613 0.56927323 0.8266738 0.7365454 0.3998816
1.0290097 -1.1903733 0.6655744 0.58885664 0.48083553 0.7622225 0.548605 0.68312407
-0.7651049 0.709956 0.7848645 0.5105454 0.46297818 0.6451372 1.0133314 1.3299301
-0.63195986 0.71016145 1.0522314 0.68279517 0.5604048 0.60094285 0.87771595 0.7124298
0.6966346 0.8251844 0.8256201 0.82902 -1.0743495 0.6556155 0.79277825 0.7125528
0.26319492 0.30128562 0.3973459 0.70748943 0.77372855 1.0698183
00000000: 025d 4b3f eefc e13e fae6 0cbf 5ec5 a83e
00000010: 48ab 3c3e 380f 993f 4203 ae3e 70de 3f3f
00000020: bfb0 053f f04d 0b3f 79e3 973f 51ef 2d3f
00000030: 548b 663f 0eea 1c3f b290 433f 303d ed3e
00000040: 4211 61bf 91da fb3e 1ad3 51bf 53a7 6a3e
00000050: e8bc 8e3f 4e49 db3e c235 72bf 7c50 163f
00000060: 2bf2 363f d236 eabe 7432 de3d fd34 cc3e
00000070: c573 5e3f 09cf 623f e3dd d03e a46a ff3e
00000080: bc28 343f e587 193f 4eb7 eb3e 36c1 8d3e
00000090: 7328 293f ae9d 4e3f 0d20 473f 0e9a 463e
000000a0: de61 393f 4682 3b3f 2b5f 553f 5ae9 ac3e
000000b0: 1bcc 403f 8e60 3abf d94c 993e c1f4 fe3e
000000c0: 333c 2d3f cd24 6d3f 704c 023e c768 5a3e
000000d0: 7a25 023f 6b8a 183f 8912 063f 27c8 9b3e
000000e0: aa33 553f 2d54 2e3f 5c7a 5c3e 28b2 353f
000000f0: bab5 9abe d658 a5bf fbc4 053f f5fc 963e
00000100: 681f 043f 5fa9 243f 83ee 2c3f a66d 4a3f
00000110: e33b 0c3f 375c 603f 23e8 72bf 86ff 973e
00000120: 61b1 273f d816 f73d 9f59 8c3f 634c 273f
00000130: 86ee 403f cf06 283f 80b7 c33e 690e ce3e
00000140: 1690 a23e 2448 203f a6b5 493f 6ca9 633f
00000150: 4f40 303f c272 3c3f a819 4ebe 374c 4d3f
00000160: 92cc 8a3f 36ca f53e cb3c 2b3f 86bb 323f
00000170: fa3e 843e fde7 f03e ee25 5e3f e73f 4bbf
00000180: 71b6 ea3e d3fe 75bf eb96 bd3e ebe1 65bf
00000190: dff8 043f 254e 44be bf96 733f ad6d 333f
000001a0: 579b 6abf 23d5 3d3f 85d1 1d3f 4a45 ac3e
000001b0: e4bb 113f e5a0 533f 3d8e 3c3f 48bd cc3e
000001c0: 97b6 833f 275e 98bf 1563 2a3f 4fbf 163f
000001d0: 1330 f63e 0421 433f 6171 0c3f 38e1 2e3f
000001e0: eadd 43bf adbf 353f e1ec 483f 1ab3 023f
000001f0: 7a0b ed3e b627 253f d8b4 813f 263b aa3f
00000200: 1fc8 21bf 24cd 353f 85af 863f aacb 2e3f
00000210: b076 0f3f 64d7 193f feb1 603f cd61 363f
00000220: a556 323f 493f 533f d75b 533f a83a 543f
00000230: 4984 89bf 6bd6 273f 84f3 4a3f dc69 363f
00000240: 7cc1 863e 1c42 9a3e ec70 cb3e 071e 353f
00000250: 1313 463f ceef 883f

batchnorm.running_mean f4 [150]
-0.049727447 0.22982952 -0.95763344 0.8363524 -0.968694 -0.023684818 -0.00066381437 -0.001745441
-0.24938476 -0.96587163 -0.12925111 -0.005799327 -0.93623066 -0.89482826 -0.0012267968 0.71577936
0.015350456 -0.9618555 -0.005141825 -0.9568629 0.08646748 -0.021912279 0.00019127788 -0.9703337
-0.051345743 -0.84466916 -0.7614704 0.06741008 -0.6755998 0.033665236 -0.8280126 0.004415398
0.96490383 -0.043366056 -0.96318746 -0.0148102045 0.39988327 0.00012595241 -0.961879 -0.95279896
-0.00030116632 -0.31179926 0.9463859 -0.7942637 0.96185744 -0.0025233154 -0.8243055 -0.046991285
0.03055716 -0.9562461 -0.5824716 -0.9538627 0.28654197 0.33682796 -0.9644634 0.021230817
-0.001181773 -0.0036450033 -0.956867 -0.75350255 -0.9659927 -0.62932926 -0.75589424 -0.94493914
-0.95666283 0.95639384 -0.7326564 0.37822926 -0.74318075 0.95814747 0.22814156 0.22322437
-1.1227997e-06 -0.34260586 -4.661008e-05 -0.58667713 0.8839166 -0.31879988 -0.0066086706 -0.9545483
0.02487209 0.41358522 -0.9607903 -0.0049376506 -0.15827933 0.010036029 0.05637045 0.5139212
0.83526564 0.011849364 0.20890573 0.6549585 -0.0076364917 -0.94895667 -0.95116144 -0.0072631985
-0.0059241354 -0.5772275 0.04881501 0.11152666 -0.96264184 -0.9619017 -0.0031048066 -0.035268195
0.0047483235 -0.94756967 0.0031089725 -0.8946143 -0.36065358 0.008315734 -0.16335702 0.853748
-1.27908e-09 -0.71718216 -4.599571e-05 0.95987165 0.660704 -0.42216033 0.4749267 0.7375216
0.7542535 0.61807156 -0.0053711617 0.0029168637 0.019190297 -0.1361221 2.7482312e-07 -0.0010665149
-0.711113 -0.9532551 0.52106917 -0.023818178 -0.020713083 0.0023661326 0.51181215 -0.23054962
-0.9593899 0.35982674 -0.00063868315 -0.21001934 -0.94957364 -0.380664 -0.46524692 0.7134904
-0.9701088 -0.7530965 -0.9629135 0.6993395 -0.0034661344 -0.004383235
00000000: 02af 4bbd 6e58 6b3e 7727 75bf 311b 563f
00000010: 54fc 77bf aa06 c2bc d403 2eba 48c7 e4ba
00000020: b85e 7fbe 5d43 77bf 675a 04be 4808 bebb
00000030: d0ac 6fbf 7713 65bf 78cc a0ba 513d 373f
00000040: 7b80 7b3c 293c 76bf c17c a8bb f8f4 74bf
00000050: dd15 b13d 6181 b3bc c491 4839 ca67 78bf
00000060: ea4f 52bd 3d3c 58bf b9ef 42bf 4c0e 8a3d
00000070: 1cf4 2cbf 8fe4 093d a2f8 53bf 0baf 903b
00000080: f003 773f 9ba0 31bd 7493 76bf 80a6 72bc
00000090: 80bd cc3e 1812 0439 b43d 76bf a2ea 73bf
000000a0: dce5 9db9 27a4 9fbe 5946 723f de54 4bbf
000000b0: 4a3c 763f 355e 25bb af05 53bf ef79 40bd
000000c0: 0253 fa3c 8bcc 74bf dc1c 15bf 5930 74bf
000000d0: a1b5 923e b774 ac3e 13e7 76bf 40ec ad3c
000000e0: b9e5 9aba 02e1 6ebb 3cf5 74bf 8be5 40bf
000000f0: 4c4b 77bf b91b 21bf 4982 41bf 88e7 71bf
00000100: dbe7 74bf 3ad6 743f 5f8f 3bbf 44a7 c13e
00000110: 1841 3ebf 2749 753f f19d 693e ee94 643e
00000120: 1bb3 96b5 096a afbe 317f 43b8 7930 16bf
00000130: 5c48 623f bd39 a3be 8c8d d8bb 475d 74bf
00000140: 8ec0 cb3c 71c1 d33e 5af6 75bf 04cc a1bb
00000150: fa13 22be 286e 243c b3e4 663d 5790 033f
00000160: f8d3 553f d623 423c 62eb 553e 5cab 273f
00000170: 893b fabb d3ee 72bf 517f 73bf 2000 eebb
00000180: 401f c2bb 2ec5 13bf 3ff2 473d 1768 e43d
00000190: b26f 76bf 313f 76bf 037a 4bbb 6275 10bd
000001a0: d397 9b3b ed93 72bf e7bf 4b3b 7105 65bf
000001b0: 96a7 b8be b73e 083c 1047 27be 3b8f 5a3f
000001c0: a0cb afb0 4099 37bf 84eb 40b8 26ba 753f
000001d0: e623 293f 6625 d8be 9829 f33e 37ce 3c3f
000001e0: c216 413f f039 1e3f 9200 b0bb da28 3f3b
000001f0: f834 9d3c 9763 0bbe 678b 9334 4dca 8bba
00000200: 800b 36bf 8708 74bf ca64 053f 571e c3bc
00000210: 7cae a9bc 1e11 1b3b 1f06 033f 3315 6cbe
00000220: 949a 75bf 363b b83e 4d6d 27ba 4f0f 57be
00000230: 4217 73bf 64e6 c2be d834 eebe 4fa7 363f
00000240: 0d59 78bf efca 40bf 8081 76bf ea07 333f
00000250: 1628 63bb 3da1 8fbb
