src/results/subject_P24/best_model.pth (torch, 481333 bytes, 15 tensors)

input_linear.weight f4 [40, 40]
00000000: 700d dcbc 7a0e 4fbd b23d 15be 8c9f 4dbd
00000010: 11b6 b9bd faf9 1ebd ea3b 79bd 4290 0fbe
00000020: e0f3 633d 555c 163e 7079 88bc a35d 163e
00000030: edfe 0a3e 8ec9 31bd ec6c 863d 4160 20be
00000040: 30d5 293c 4811 4fbd 2040 1f3d bab5 04be
00000050: adfe 1a3e d0a7 e13c c060 4a3b ddd2 20be
00000060: a667 a53d d663 883d 04cf 4f3d 40fc ab3b
00000070: 1e81 bd3d ef60 fbbd 7f45 f7bd 29ff 183e
00000080: 6450 cebd 00cf 383a 2ae1 b9bd c009 483d
00000090: 9811 c73c 4e77 9abd f431 2c3d 40da 76bc
000000a0: 48a3 b5bc 647a d1bd e2df 9e3d 12a9 1fbe
000000b0: 5443 873d c011 f5bd ed33 0b3e a0e2 6cbd
000000c0: deff 24bd a009 d8bc d43f a6bd 0003 a33c
000000d0: 1839 ff3c 220c d4bd a0f1 f23b d070 0fbc
000000e0: f4e3 4e3d 94c8 b73d 6446 973d 3a94 08be
000000f0: 8037 02bb 62b7 c4bd 12d2 95bd 7ad8 67bd
00000100: 5acb fe3d c0c3 4bbc 52aa e53d 8126 0abe
00000110: 8edd 0bbe be69 f03d 63ed 193e adf4 1bbe
00000120: 4073 2b3d 333b 033e 481b 00be 2047 773c
00000130: 9db7 eabd a04b d03c fea4 c23d 8ef8 c33d
00000140: e8b2 743d 4a26 d83d d2c2 65bd a672 d53d
00000150: 40dd 30bc 80f7 ccbc f8cf 1fbd 5605 47bd
00000160: 5490 663d 0553 053e 8205 63bd 54f8 523d
00000170: 408c 79bd 94ab 2ebd a957 e4bd d737 0cbe
00000180: 8043 c7bd c8f6 0bbe 18ca 323d ad64 9abd
00000190: 545f 393d b846 8d3d eae9 c8bd 189f d13c
000001a0: a0d1 b5bd c2fb 21bd bcc1 d9bd f859 18bd
000001b0: 50e0 b1bc 708d 093d e6c2 e0bd 4424 453d
000001c0: c610 37bd 70e7 8f3c 2850 aa3d adb3 1dbe
000001d0: c069 afbb 5f43 0bbe 49f4 203e 2549 c1bd
000001e0: 8212 16bd 36de e03d ed2d 123e eee7 04be
000001f0: 3278 823d f6ae d13d f8cf aebc de6b 9e3d
00000200: ae20 4fbd 348f 763d 4a46 63bd 54f4 893d
00000210: 9524 103e 163e d1bd 0cc1 7d3d ea0c a13d
00000220: ccc9 e8bd 6157 063e 8007 e7ba ea69 0abd
00000230: 0a12 b23d 5035 ba3d cf45 1bbe 30a0 17bd
00000240: 2872 ac3c 1bf6 133e 64c0 b03d a955 103e
00000250: 6000 0dbe 3b7f 87bd 08a4 0f3d 204d 553d
00000260: 54a0 03be 0593 153e 84b5 7c3d cd07 013e
00000270: 1606 a93d 9c99 933d e672 8fbd 40af ec3b
00000280: c4a3 2b3d bd22 1abe a22c c73d bb03 a5bd
00000290: 4841 0d3d fa2c 03be 07b2 1e3e 7d0b 18be
000002a0: 8665 bc3d db87 11be 14fb 4f3d bcf9 293d
000002b0: 784e ab3d b0e6 89bc 7ec0 f83d 384a 6fbd
000002c0: 483a b13d 104f 28bc 8a6a bc3d 90f1 c93c
000002d0: 8877 61bd 9da9 1b3e efa5 18be b095 3ebc
000002e0: ddbe b3bd c793 a4bd 60fc e53b c4e2 343d
000002f0: d8dd ab3d 0a73 963d aa58 72bd c02b 1f3c
00000300: ca12 fe3d c412 a4bd a654 cc3d a8fa c7bc
00000310: 99b2 123e a493 c3bd e87e 8a3d 76aa 95bd
00000320: 282b 3f3d 00e6 34ba e0e3 e33b 5579 e3bd
00000330: 7219 cd3d fe6b cbbd 666c c6bd 26c8 e33d
00000340: a010 453c 7c33 2e3d 561a eb3d 909f 653d
00000350: 30bf fa3c 2dfc babd 8023 c9bb 4bd2 17be
00000360: 15cc 9dbd cb88 19be bef5 cbbd bc1b 20be
00000370: e513 a6bd 040b 7b3d c0b2 f9bc be05 d73d
00000380: e3ad 143e 6ad4 843d 8316 bebd dab7 e93d
00000390: e4b8 eebd b8b2 d5bd 13df 05be 708a 15bc
000003a0: c808 25bd 03ed 13be 0888 263d 0f6a d2bd
000003b0: ceaf e13d ccae 7cbd a068 033c 03f3 86bd
000003c0: dc55 4c3d c0f5 873b 723b f63d 5c65 6fbd
000003d0: 3c5c 74bd 51cf 0a3e a963 1fbe f414 18be
000003e0: e088 f8bd be03 d33d 0b49 a0bd 50de 21be
000003f0: 3839 cd3c f7db b4bd 3f99 173e b0f9 e2bd
-0.026861876 -0.050550915 -0.14574316 -0.050200984 -0.090679295 -0.038812615 -0.060848154 -0.14019874
0.0556525 0.1468366 -0.016659468 0.14684157 0.13573809 -0.04340511 0.06563744 -0.15661718
0.010365769 -0.05055359 0.038879514 -0.12959948 0.15136214 0.02754584 0.0030880421 -0.15705438
0.0807641 0.06659667 0.050734535 0.0052485764 0.09253143 -0.12274348 -0.12073802 0.14941086
-0.10073927 0.00070498884 -0.0907615 0.048837423 0.024300382 -0.07542287 0.042039827 -0.015066683
-0.022172585 -0.10228422 0.07757546 -0.15591839 0.06604639 -0.11966276 0.13594027 -0.057833314
-0.040283076 -0.026371777 -0.08117643 0.019898891 0.031155154 -0.10353877 0.007414058 -0.008754924
0.05051036 0.08973804 0.07386473 -0.13337794 -0.0019869506 -0.0960529 -0.07315458 -0.056602933
0.1244113 -0.012436807 0.11214127 -0.1349125 -0.13658735 0.11738919 0.15031962 -0.15230055
0.041857958 0.12815551 -0.12510407 0.015092641 -0.11460803 0.025426686 0.09504126 0.095688924
0.05974093 0.10554178 -0.056094 0.10422258 -0.010794938 -0.025020361 -0.039016694 -0.048589073
0.056289986 0.1301995 -0.055425175 0.051506355 -0.06092477 -0.0426441 -0.11149532 -0.13693176
-0.097296715 -0.13668358 0.043649763 -0.07538734 0.045256928 0.06898254 -0.098102406 0.025588557
-0.088778734 -0.039546736 -0.10632655 -0.037195176 -0.021713406 0.03358215 -0.10974674 0.04813029
-0.04469373 0.017566413 0.0831607 -0.15400572 -0.0053531826 -0.13599919 0.15718187 -0.09437779
-0.036638744 0.109798834 0.14275332 -0.12979099 0.06370582 0.10238449 -0.021339402 0.07735418
-0.050568275 0.060195163 -0.055486955 0.06736055 0.14076455 -0.1021692 0.061951682 0.07863791
-0.11366615 0.1311927 -0.0017626137 -0.033792414 0.08694847 0.090922 -0.15163349 -0.037018
0.021050528 0.1444935 0.086304456 0.14095177 -0.13769674 -0.06616064 0.03506854 0.052075505
-0.12854129 0.14606865 0.061696544 0.12600632 0.08253114 0.07207033 -0.07004337 0.00722304
0.041904226 -0.15052314 0.0972531 -0.08057352 0.034486085 -0.12810126 0.154976 -0.14848132
0.091990516 -0.14211981 0.050776556 0.04149793 0.08364576 -0.016833633 0.1214609 -0.05842039
0.086536944 -0.010272756 0.09200008 0.024651319 -0.055045635 0.15201421 -0.14907049 -0.011632368
-0.08776639 -0.08035999 0.007018611 0.044161573 0.08391923 0.07346161 -0.059166588 0.009715021
0.124059275 -0.08011392 0.09977083 -0.024411514 0.14325942 -0.095496446 0.06762487 -0.073079035
0.046672016 -0.0006900728 0.006954655 -0.111071266 0.10014619 -0.09932707 -0.09688644 0.1112216
0.0120278895 0.042529568 0.114796326 0.056060374 0.030608743 -0.0913013 -0.006138265 -0.14826314
-0.07704941 -0.14993589 -0.09958981 -0.1563558 -0.08109263 0.061289802 -0.030480742 0.10499142
0.14519458 0.06485827 -0.092816375 0.1141202 -0.11656359 -0.104344785 -0.13073377 -0.009127244
-0.040291578 -0.14445882 0.040657073 -0.10274135 0.1101986 -0.061690137 0.00802055 -0.065893196
0.04988657 0.0041491687 0.12023057 -0.058446273 -0.059658274 0.13555647 -0.15565361 -0.14851743
-0.12135482 0.10303448 -0.07826432 -0.15807462 0.025051698 -0.088310175 0.14804552 -0.1108278

input_linear.bias f4 [40]
00000000: 30bc 8abc e241 ebbd e0d1 93bc bae3 f0bd
00000010: e2a0 41bd 444f 9ebd 54c3 093d d53f 213e
00000020: 4ee9 bfbd 8b78 0c3e 4963 c1bd 5258 9bbd
00000030: 5313 213e a0a4 84bc 00ca 8a3c 30c8 18be
00000040: 8e9d e43d 2e95 ff3d 08bc dabc d4da 713d
00000050: 63cc 123e 566e 873d 08d2 a23d a047 76bc
00000060: 70d3 8f3d 30be 99bc 64dc 4a3d 5899 053d
00000070: 6030 a33d de20 873d 8033 ccbc 837e 023e
00000080: 38f7 f33c e07b eebb a04c 1e3d 20c6 12be
00000090: faea e13d 0079 bc3c 0cec 04bd 76f9 823d
-0.016935438 -0.114871755 -0.018044412 -0.117621854 -0.04727257 -0.077299625 0.033633545 0.15747006
-0.09370671 0.13717858 -0.09442765 -0.07585205 0.15730028 -0.01619178 0.016942024 -0.14920115
0.11162864 0.12479626 -0.026700988 0.05904658 0.1433578 0.06612842 0.079502165 -0.015031725
0.070227504 -0.018767446 0.049526587 0.032616943 0.07968211 0.06598066 -0.0249269 0.12743573
0.029780969 -0.0072779506 0.038647294 -0.14333391 0.11031146 0.023006916 -0.032451674 0.06395237

lstm.weight_ih_l0 f4 [600, 40]
00000000: 94f6 3e3c 786a 073f eee3 e93e 51b1 d93f
00000010: acef 203f f89d d83e f572 c53e f59a d8be
00000020: 2edb b0be 0092 d9be 541c 463f eed0 0d3f
00000030: 408f 36bd 2b41 cb3e 0590 2dc0 da11 2cbf
00000040: dc04 113f 78fc 4a3f 112e 483f 5c85 de3e
00000050: 028a d33e d23b db3e 344b 4e3e 6e1b 053f
00000060: a0fc e23e 81aa d7bd 6f44 f8be af9b 0fbf
00000070: 8cb8 423f 7fe6 24bf 5cb8 443f 9260 db3e
00000080: a2d9 3d3f 4c5d 113f 9bf9 4a3e 45d9 003f
00000090: 2156 e13e c8f8 9a3e e913 ea3d a2d0 2dc0
000000a0: 94be babd 2249 233e 3b38 4cbe cd53 ddbd
000000b0: 8378 183e 0f11 4abe c3dc 3abe 686d 393e
000000c0: 732a 0c3e 97b4 403e b394 8b3a 3075 a63e
000000d0: 0817 c5be f5f4 2dbe cb3a fb3c 242e 913e
000000e0: e1ed 37be b896 a4bc 0c55 ef3c ad90 3abe
000000f0: ad4c 2bbe 236c 19be fa09 f8bd 32d1 7c3e
00000100: f003 4abe 604c 1c3e 6d44 3bbd bb79 063e
00000110: 9cb4 903c af58 3abd 57c9 633c d0ff 42be
00000120: fc47 ca3c ddb2 1fbe 9774 20be e11b 833e
00000130: ee75 39be 8675 483d ce15 543e 7492 533c
00000140: cb78 2dbf 46b4 b23e fa55 c43e b472 cd3e
00000150: dbe6 953e a722 d13e cb17 bf3e 7d5f d4be
00000160: 515e adbe c1b1 dbbe 53a2 3e3f 4b88 973f
00000170: 3eee a53d 71b5 d33e 8000 27bf c434 56bf
00000180: 853b 11bf 4d0b 413f 70d0 343f 275a c73e
00000190: 02a8 da3e ecbf cd3e 06b3 a1be 868c 8fbd
000001a0: 4f68 cc3e ca3d 17bf f69a 583b c884 a9be
000001b0: 2237 3a3f 62bf 543f 2f65 3a3f 937e c23e
000001c0: 2b29 403f 208e 06bf 458d b3be 2c17 70bd
000001d0: cfa9 db3e 8c7e 1ebf 41c4 18bf 8175 1ebf
000001e0: 66a6 61bc a377 c03e 9d0b fd3e 69ec 163f
000001f0: 3b35 003f b0fa f23e d91c e23e 3e5e f3be
00000200: 35a5 ecbe 0ded fdbe 65cb fa3e 78f1 69bd
00000210: 5941 503e 4490 fb3e 6919 65bf 5983 a2be
00000220: 0999 583e c996 ee3e 646e e53e 90f0 e33e
00000230: 1e1e f13e f9e1 f93e 8a91 c2be e366 2abe
00000240: afcc e23e 138f 84be c845 54bc f4cd 883c
00000250: 94a3 f73e fb4a 7e3b b30e ea3e 1ae3 f43e
00000260: 3144 dc3e 3f1a 6f3e f490 b5be 43c3 07be
00000270: aeb9 f73e 56fd d33e f410 be3e e7f2 68bf
00000280: e811 ff3d cad7 0abe 571b f23e 41c1 bf3d
00000290: e76f 41be 0122 d33e da2d f53e 6ebb d4be
000002a0: 785c e8be 1fd4 d9be fb66 e23e 5f09 bdbd
000002b0: 8d69 b63e 7914 df3e cf03 913d cf59 593e
000002c0: 7a6f a03d f58f e53e f43a ee3e 163d e93e
000002d0: 9fd7 e93e 4951 ee3e 8124 2dbd 15a9 c3bd
000002e0: ab8f d83e e777 523e adc7 0a3f 4539 e13e
000002f0: c4a8 f33e 31ea 353e c8c3 ec3e 4731 ea3e
00000300: 1d96 e93e 4e55 db3d 7514 2abd 8de6 b9bd
00000310: bce9 e63e f9bf 01be 7459 0cbe beff 983d
00000320: a755 22be 2be8 803c 1069 323e d229 a63d
00000330: a9c0 363d e896 113e af06 2f3e dea5 24be
00000340: 9339 26be 157e ffbd 61a1 473e 9041 10bc
00000350: 66ff ad3d e6ae 1d3e 9b34 0cbe 44f5 9bbb
00000360: ff22 b6bd 7cb2 0f3e 2543 3c3e 439e f83d
00000370: bcb1 333e b751 133e ddf8 903e f7c3 8ebd
00000380: d414 163e 85d8 dc3d 4fe7 2b3e 04e6 793e
00000390: fda0 343e be70 b13d 8017 4c3e ad9e f33d
000003a0: 6378 123e 997e 06be 9bb9 903e bb46 19bd
000003b0: 4589 f33d e3bc cabc 2ba3 37bd 296d b9bd
000003c0: 9c50 88bd 05e8 4dbe 5752 febc 5ecc 5dbe
000003d0: 6e60 40be c8fd b1bc 0f37 08bd 8ee0 85bb
000003e0: 54d7 d63c bd98 6abb 8d95 5abd 162f d2bd
000003f0: 84a6 903d ea9a a93b 89bc 623e 50a0 313c
0.0116554685 0.52896833 0.4568171 1.7007238 0.6286571 0.4230802 0.38564268 -0.42305723
-0.3454222 -0.42494202 0.77386975 0.55396926 -0.044570208 0.39698157 -2.7119153 -0.6721474
0.5664804 0.79291487 0.7819529 0.4346112 0.4131623 0.42819077 0.20145875 0.5199498
0.44333363 -0.10530568 -0.4848971 -0.5609693 0.76062846 -0.6441421 0.7684381 0.42847115
0.74160206 0.56782985 0.1982178 0.50331527 0.44011024 0.3026793 0.11429579 -2.715859
-0.09118381 0.15945867 -0.19943325 -0.10806999 0.14889722 -0.1973307 -0.18248276 0.18108141
0.13688068 0.1881889 0.0010649174 0.32511282 -0.38494134 -0.16987975 0.030667683 0.28355515
-0.17961837 -0.0200914 0.029215358 -0.18219252 -0.16728468 -0.14982657 -0.12111278 0.24689177
-0.19728065 0.1526351 -0.045719553 0.13132374 0.017664246 -0.04549473 0.013902984 -0.19042897
0.024692528 -0.15595575 -0.15669475 0.25607207 -0.18111393 0.048940204 0.20711443 0.012913335
-0.6776244 0.34903163 0.38346845 0.40126574 0.2927769 0.4084675 0.3732284 -0.41479102
-0.3386102 -0.42909053 0.7446644 1.1838468 0.08102082 0.41349366 -0.6523514 -0.83674264
-0.56731445 0.7540787 0.7063055 0.38935968 0.42706305 0.40185487 -0.31581897 -0.070092246
0.3992333 -0.5907866 0.0033051348 -0.33109117 0.72740376 0.83104527 0.72810644 0.37987193
0.7506282 -0.52560616 -0.35068718 -0.05861585 0.4290299 -0.61911845 -0.5967446 -0.61898047
-0.013772583 0.37591276 0.49422923 0.58954483 0.50081223 0.47456884 0.44162634 -0.4753284
-0.46219793 -0.49594918 0.48983303 -0.05711505 0.20337428 0.49133503 -0.894919 -0.31740835
0.21152128 0.46599415 0.44810784 0.44519472 0.4709329 0.48805216 -0.38001662 -0.1664081
0.44296786 -0.25890407 -0.01295609 0.016699769 0.48366988 0.0038802016 0.4571434 0.47829515
0.43020776 0.23349856 -0.35462153 -0.1325808 0.4838385 0.41404217 0.3712231 -0.9099564
0.12454587 -0.1355888 0.47286484 0.09363032 -0.18890344 0.4123688 0.47886544 -0.41549248
-0.45383048 -0.42544648 0.44219193 -0.09230303 0.35627404 0.43570307 0.070808046 0.21225666
0.078337625 0.44836393 0.46529353 0.45554417 0.45672318 0.4654639 -0.04227114 -0.09553734
0.4229711 0.20553552 0.5421093 0.43989006 0.47589695 0.17765118 0.4624312 0.4574072
0.4562234 0.1070963 -0.041523416 -0.09077177 0.451002 -0.12670888 -0.13705999 0.07470654
-0.15852986 0.015735706 0.1742289 0.08113445 0.04461733 0.14217722 0.17092393 -0.16078898
-0.162329 -0.1247522 0.19495155 -0.008804694 0.08495979 0.1539875 -0.13691942 -0.0047594626
-0.08893394 0.1403293 0.18384989 0.12139561 0.17548269 0.1438664 0.28314868 -0.06970971
0.14656383 0.10783485 0.16787456 0.2440415 0.17639537 0.08664082 0.1993084 0.118954994
0.14303736 -0.1313423 0.28266606 -0.03742097 0.118914165 -0.024748271 -0.044833343 -0.09054024
-0.06656 -0.2010804 -0.031045122 -0.21659991 -0.18786785 -0.021727458 -0.033255633 -0.004085607
0.026225723 -0.0035796606 -0.05336528 -0.10262887 0.0706301 0.005175938 0.22142233 0.010841444

lstm.weight_hh_l0 f4 [600, 150]
00000000: 3daf 603b 9f40 263e 0f05 d5bd e0aa 06be
00000010: 1771 6bbd 1583 d83d 8189 203e 369f 263d
00000020: 42e7 86be c932 16be d1aa 07be acef 943e
00000030: ca4e 4abe ab24 113e 4422 7b3d 01ef 8abe
00000040: 28de 8f3e 58e7 84be c30e d5be 45af f8bd
00000050: 236d a7bd 1b4b 3ebe 8683 af3e c937 66be
00000060: ae60 78be 8c10 843e 38f7 753e 1b49 13be
00000070: 259d 3e3d 1046 04be babe a33d 3e97 fabd
00000080: 9156 f63e 3b26 aebc 17e8 80be a608 b2be
00000090: 59ce 82bd 41b2 e23d a9fe 2b3e 2284 f9bd
000000a0: ef81 d13d fb24 503d 5bd4 9a3e ecf5 ee3c
000000b0: 0eac 8f3e bf26 87be 5eed 05be 27b3 6ebe
000000c0: fb7f 413e 8dc6 72bd ecbd d5bd 0bc3 7fbd
000000d0: 23d6 cfbd 8d00 7bbe e3e0 e73d c0c6 593f
000000e0: 013c 74be 1e54 623e 2909 dfbd b6cd 833c
000000f0: 381e 013d 70d3 a63e 9f8c 64be fda4 233e
00000100: 8c2a b6bd 8a1b fbbd ccc0 e2bd b195 bdbd
00000110: 7334 143d b3b7 38be a18f a5bc da59 42be
00000120: ac4a 23be 65f4 3abe 4d8d 84be 76d1 fcbd
00000130: c94a 803d 8e8a 7e3d 76ac be3e bfe3 2fbf
00000140: be43 ab3e 711a 2bbe 93ff a9bd e071 223f
00000150: cb8d 083e 639b 48be cdba 9f3e 87d7 1dbe
00000160: ad3d 033f 79e3 aa3e 4794 7b3e febb 353f
00000170: 880c e2be a9bc 95bd 2421 71be e77a 4f3e
00000180: fe16 e93d 4bad 8cbe 52e0 45be 9ecb 4cbe
00000190: c6c1 27be 6839 af3e f403 cbbe c56e 39be
000001a0: 6906 a13e 16c5 b63e 6973 27be c0bb 983d
000001b0: c348 f93e 5c48 b93d 2ebb f7bd 3146 eabd
000001c0: aa18 993d c6b5 7f3d edd4 ca3e ec16 573e
000001d0: 8cf2 483e b6d4 73bd b272 2fbe b821 413d
000001e0: 0a3c 9d3e b774 82bd 195b 763d 11f1 863e
000001f0: 94e4 873e 9845 7e3e ff45 8b3e 2ce2 893e
00000200: 6ee9 85be 0ec6 093d 9f2a b43e f19c 8d3e
00000210: ba75 0dbe d5ca 553e db52 9abe b515 8e3e
00000220: 7379 783e 9689 5e3e f287 3d3e 64f8 64be
00000230: 9b4f f2bd 21be 1abe 780e a83d 8618 5bbd
00000240: 9427 b5bb ce82 363e a178 853e 883a 02be
00000250: ee6e 413e baff 9e3e 3d0c c53d 8a54 00be
00000260: 63c3 8a3d 80b3 5bbe dd65 e6bd e532 76be
00000270: 9297 0fbd 5f76 d53d 73d0 fd3d 1be2 833e
00000280: 8722 56bc 45e8 b73a 1764 563e 8085 ae3e
00000290: 7cf7 e1bd c56b e3bd 0472 603e 1815 c5be
000002a0: d6ed 683e 52c1 b43e 6cce b53d de5f 363d
000002b0: fdc0 a1be ff85 9abd c964 1e3e 8360 d0bd
000002c0: ea12 13be 5458 3d3e c03d 81bd 7743 58bd
000002d0: bb1d c8bd c3bf 5bbe 7b78 d9be b114 7d3d
000002e0: ce02 873c 72e1 f23e 0afa 60be 970f fe3e
000002f0: 8d11 133e c614 cdbd 7dda 393e 49a0 8d3e
00000300: 2305 5fbc 95f4 cc3c 45f8 c03d 1a95 fc3d
00000310: 1e7b 2f3e 7b57 4b3e 9aa0 cf3d dbf7 943e
00000320: 2033 873e 50d0 803d c10c 6e3c e16a 483b
00000330: 9d14 523d 53c9 713e 1165 4d3d ac45 6c3e
00000340: 0666 f73e 1679 7cbd 795a 8ebd c6cd 4cbc
00000350: b773 093e 381e 9b3e abd3 6a3d 589f b4bd
00000360: 6d0e 113f 8c54 853d 6f56 6b3e a800 b63d
00000370: 0a23 22bc 0de5 10be d55a 153d 7829 3e3e
00000380: 4fac 113e ec2e a43e fcae af3e afb0 a6be
00000390: 38a6 59be 2c96 2c3e 26cf 88bd 4656 6b3d
000003a0: 00fb 273e 07d9 803e bf2d 3b3c 7677 523e
000003b0: 0426 c23d a85e a23e 829a 233e 3cf3 523e
000003c0: 2bd7 173e 1903 cdbd ee33 7fbd 42ab 213d
000003d0: e1b8 1f3e d06f ad3b 9bb0 c8be e0f0 b3bc
000003e0: d63d a53e ea57 103e 2d89 babe f15e a13b
000003f0: 4386 7a3e acd1 cb3d d048 9a3e cecf 653e
0.0034284138 0.16235588 -0.104013555 -0.13151121 -0.057480898 0.10571877 0.15677454 0.04067918
-0.2634831 -0.1466781 -0.13248755 0.29089105 -0.19756618 0.14174144 0.061311975 -0.2713547
0.2809918 -0.2595775 -0.41612825 -0.12142805 -0.08175113 -0.18583338 0.34280032 -0.22482218
-0.2425563 0.25793874 0.24020088 -0.14383356 0.046536583 -0.12917352 0.079953626 -0.122358784
0.4811292 -0.021258464 -0.2517707 -0.34772223 -0.06387014 0.110691555 0.16796364 -0.121834055
0.10229861 0.050816517 0.3024014 0.029169999 0.28060955 -0.26396748 -0.1307883 -0.23310529
0.18896477 -0.059271384 -0.10436615 -0.062441867 -0.10148265 -0.24511929 0.113221906 0.85068893
-0.23851015 0.221024 -0.10890419 0.016089302 0.03152296 0.3258319 -0.22319268 0.15980907
-0.08894834 -0.12261112 -0.11071929 -0.09257067 0.036182832 -0.18038826 -0.02021009 -0.18979588
-0.15946454 -0.18257292 -0.25889054 -0.12344639 0.06264264 0.062143855 0.37240952 -0.6870689
0.3345012 -0.16709305 -0.083007 0.6345501 0.1333534 -0.19590525 0.31197205 -0.15414248
0.51265985 0.33376673 0.24568282 0.7098998 -0.44150186 -0.07311375 -0.23547798 0.20261727
0.113813385 -0.27475962 -0.19323853 -0.19999549 -0.16382512 0.34223485 -0.39651453 -0.18108661
0.31450203 0.3569724 -0.16352619 0.074576855 0.48688325 0.090470046 -0.120962486 -0.11439169
0.074754074 0.062429212 0.39615574 0.21004838 0.19623774 -0.05952903 -0.17133597 0.047151297
0.3070987 -0.06369918 0.06014547 0.26355794 0.2654158 0.24831235 0.2720184 0.26930368
-0.26154655 0.033636145 0.35188767 0.276588 -0.1381444 0.20878156 -0.3014134 0.27750936
0.24265079 0.21732172 0.1850889 -0.22360379 -0.1183159 -0.15111591 0.08205885 -0.053490184
-0.0055283997 0.17823336 0.26068595 -0.1271764 0.18889973 0.3105448 0.09621475 -0.12532249
0.06775548 -0.21455193 -0.11249898 -0.24042852 -0.035056658 0.10422968 0.12393274 0.25758442
-0.013069755 0.0014031014 0.20936619 0.34086227 -0.11033532 -0.1110454 0.21918494 -0.38492656
0.22746977 0.35303742 0.088772625 0.04452502 -0.3159255 -0.07545089 0.15468134 -0.10174658
-0.14362684 0.18490726 -0.06310606 -0.052798714 -0.09771296 -0.2145987 -0.42474732 0.06178731
0.01648083 0.47437626 -0.21970382 0.4962127 0.14362164 -0.10013728 0.18149753 0.2766135
-0.0136120645 0.02501897 0.09422354 0.12333126 0.17136809 0.1985759 0.10138054 0.2909535
0.26406193 0.062897325 0.014529408 0.0030581283 0.05128919 0.23611955 0.050145213 0.23073453
0.48320025 -0.061638914 -0.0695085 -0.012500232 0.13423048 0.30296493 0.05733077 -0.08819455
0.56662637 0.06510267 0.2298219 0.08886844 -0.009896049 -0.14149876 0.036463577 0.18570507
0.14225887 0.3206705 0.3431319 -0.32556674 -0.21254814 0.16854161 -0.066801354 0.057455324
0.16404343 0.2516558 0.011424481 0.20553383 0.09479907 0.31712842 0.15976909 0.20600599
0.14828174 -0.100103565 -0.062305383 0.039469965 0.1559787 0.00529287 -0.3919724 -0.021965444
0.3227374 0.14096037 -0.36432782 0.004924648 0.2446528 0.09952101 0.30133677 0.22442552

lstm.bias_ih_l0 f4 [600]
00000000: 563d d93e c4ca 1abe 988b ca3e 32d6 ec3e
00000010: f5b4 de3e 6a79 0e3e cb08 4cbd e8c4 273f
00000020: f4b3 433e 7f26 10be bf6e ac3e f9dd 0c3f
00000030: 917d 663e 18b2 223e 21de 9abc ccec 4abe
00000040: 40d8 02be ad64 8f3e 3dba 5fbd 660d e9be
00000050: 30af 623f 3910 ef3e 26d6 623d 1200 8d3e
00000060: 3159 ad3e 98b9 8fbe 4140 09bf 6b7f 033f
00000070: 1eab c43d b9ac 353e cc53 30be bf30 dcbd
00000080: bed4 783e d218 5d3e aaa0 9d3e 7e71 cf3e
00000090: a4a0 0ebd e4b9 b8bd c22b 5abd d2f7 0d3e
000000a0: 3b8f 7fbe 2c6e 71be 8a7c ba3d ee7a dcbe
000000b0: cfcb 34bf 22e9 e73d acd4 b43e bef8 653e
000000c0: fcc0 a63d 99a7 43bf 21d5 e83d 8c57 183f
000000d0: e1de b23e dca4 5ebe e640 c53d 4a9f 63bf
000000e0: 1a86 5e3e 6a7f 55be 1e62 06be f37d 003e
000000f0: d4e4 063f 76e6 85be 92eb b93e c3ce a0bd
00000100: ce04 443e 6d31 8f3e 1d2e 60bf 5766 203f
00000110: e3e4 a83c 33da a73e 69cf 033e a9aa 8b3d
00000120: 04ce 493e 46b0 963e 83e4 303e fd2c abbd
00000130: 9000 7dbd 471a 1bbd 01f7 863a 213f 823e
00000140: 0385 77bd 479a 47be b4d1 6c3e 0e01 b43e
00000150: c8b3 dd3e a97d 8c3e 9ef5 e8bd 11bf fd3e
00000160: 8baa 863e 7f87 113f 4baa 503d 08c5 963d
00000170: 033c 16bd 838f 1b3e 55ae 443e 5751 67be
00000180: 9a77 0d3f dee2 943e 0730 183f cdb9 873e
00000190: 47f1 1e3e 0a53 dfbe ec4e ef3d b655 a83d
000001a0: af20 253e c6b9 65bf a5f1 41be 2c94 28bc
000001b0: 05eb 3bbe 1d73 fa3e 0c20 a03e 0be0 473e
000001c0: 11f7 2bbe 604a b6bc e851 96be 3dd7 0fbe
000001d0: c5ef b93d a3e1 ac3c 7ae0 963d ec29 95bd
000001e0: 5456 74bd 8c3c 80ba f69f 333e 79cf 02bf
000001f0: 8c90 cdbe 8b9b 2bbf 1726 393e 30f4 62bf
00000200: 1f2f f93d 95fb 503d 44ed 1dbe fc14 283d
00000210: 39f0 f2bd 5b39 85bf cd93 45bf 6366 043e
00000220: 602d 673f 636c fc3c 0bf5 b43d f43c a93e
00000230: f372 1d3f 2665 b83d 358e 533c 2376 62bc
00000240: afff 2dbe 9314 3abe fbbe 01bc 789c b53e
00000250: 65dc 103e 41e3 793d 5aa4 1a3e 589f 62be
00000260: b724 49be 9914 6d3e 8d04 4dbe 4ae2 53be
00000270: 86ad 10be 8060 b7be 6b49 183d 2b10 1dbe
00000280: f1dd 7b3e 9c24 9ebe be54 503e f9f6 edbe
00000290: 809d 053e 3d54 0f3e 5db6 02bf 9507 4ebe
000002a0: 03c0 c13e bbe1 3e3e 9f82 1d3f 4a44 a33e
000002b0: 8de9 c3be cae6 833e 887c df3e 4f7e 9bbe
000002c0: 48ff 463f 49d9 9dbe 5044 72be 5c40 d43b
000002d0: 0cc8 19bf a756 21be 1e72 573e ddd5 0bbe
000002e0: d9f9 ec3d 1227 b1be 5b4d a93c 5659 abbd
000002f0: dd1d f6bd b64e 823e 96e1 213e d07a dc3d
00000300: 6913 e83b 8f1f 10be 1b06 823e b0c5 1c3e
00000310: 106f 823e 1f8e c43e eeed bdbe 58d9 d63d
00000320: 5391 a63d eef4 ccbe eb54 ed3e f8fa 023e
00000330: 704c c33e b705 803f 3d8a 0c3e 1e03 c0be
00000340: 9453 e2bd 2899 0b3d 6072 dfbd 9e45 493e
00000350: 1588 fb3d 8efe 0bbf 2008 ba3e 0c21 573e
00000360: 0b6a d33e 751b 81be 4428 e23d b315 093e
00000370: c4d3 753e 7efc 703e dfdc dd3d 3544 81be
00000380: cfb7 5c3e 1997 fcbe 1d39 84be 4889 383e
00000390: 787a 573e 83a8 21be c39c d6be ec4f 653d
000003a0: 709b 143e 45cc d93d f54f 74be af95 c63d
000003b0: c185 f93c b18e 453e 1c0f 923e 4c78 f53e
000003c0: eba4 00bd 7548 f83e 6eb0 c8bd f3ef 0a3e
000003d0: 31f7 943e 9afa 0cbf 6d81 333e 6506 2d3e
000003e0: 14c1 f3be b0e2 70be acde 433e b7aa f2be
000003f0: 58ba a5be b94a 9d3e 24d4 e83d 0f5a c1be
0.42429608 -0.15116411 0.39559627 0.46257168 0.43497434 0.13913503 -0.049813073 0.6553483
0.19111615 -0.14077185 0.33678243 0.55026203 0.22508837 0.1588825 -0.018904747 -0.19816893
-0.12777805 0.28006497 -0.05462097 -0.45518035 0.88548565 0.46692064 0.05538001 0.27539116
0.3385711 -0.28071284 -0.5361367 0.513663 0.096029505 0.1774167 -0.17219466 -0.10751485
0.24299905 0.215915 0.3078664 0.40516275 -0.034821168 -0.09019831 -0.053264387 0.13864067
-0.24956982 -0.23577183 0.09105785 -0.43062538 -0.7062349 0.113237634 0.35318506 0.22458169
0.081422776 -0.7642761 0.11368776 0.59508586 0.34935668 -0.21742576 0.09631519 -0.8891493
0.21730843 -0.20849386 -0.13123366 0.12548046 0.52692914 -0.2615239 0.36312538 -0.07851937
0.19142458 0.27967396 -0.87570363 0.6265616 0.020616954 0.3278366 0.1287209 0.0681966
0.19707495 0.2943136 0.1727467 -0.0835819 -0.061768115 -0.037866857 0.0010297002 0.2543879
-0.060429584 -0.19492446 0.2312687 0.35157055 0.43301225 0.2743962 -0.11374973 0.49559835
0.2630199 0.56847376 0.050943654 0.073617995 -0.036678325 0.15191464 0.19207127 -0.22589622
0.5526062 0.29079336 0.59448284 0.26508942 0.15521728 -0.4361804 0.11684975 0.08219473
0.16125749 -0.8973659 -0.18939836 -0.010289233 -0.18351372 0.4891595 0.3127445 0.1951906
-0.16793467 -0.022252262 -0.29359365 -0.1404695 0.090789355 0.021103686 0.07367034 -0.072833866
-0.05965264 -0.0009783669 0.17541489 -0.5109783 -0.40149343 -0.67034215 0.18080936 -0.8865385
0.12167191 0.051021177 -0.15422541 0.041035637 -0.11862225 -1.0408128 -0.7717865 0.12929682
0.9030361 0.030813402 0.08835801 0.33054316 0.61503524 0.090036675 0.012912323 -0.013822111
-0.16992067 -0.18171911 -0.007919068 0.3547094 0.14146574 0.06100774 0.15101758 -0.22131097
-0.19642912 0.23152389 -0.20021267 -0.20691791 -0.14128694 -0.3581581 0.03717939 -0.15338199
0.24596383 -0.30887306 0.20344827 -0.46477488 0.13048363 0.13996978 -0.51059514 -0.2012008
0.37841806 0.18640797 0.61527437 0.31888038 -0.38264123 0.25762016 0.43649697 -0.30369803
0.7773328 -0.30829838 -0.23658872 0.006477399 -0.6007087 -0.15755711 0.21039626 -0.13655801
0.11571092 -0.3460012 0.020666769 -0.08366649 -0.12017415 0.25450677 0.1580871 0.10765612
0.007082392 -0.14074539 0.25395283 0.15309787 0.2547536 0.3838968 -0.37095588 0.10490674
0.08133187 -0.40030617 0.4635385 0.1279105 0.38144255 1.0001744 0.13724609 -0.37502378
-0.110510975 0.034081608 -0.10910487 0.19655463 0.12281815 -0.54685295 0.36334324 0.210087
0.41291842 -0.2521626 0.11042836 0.13387184 0.24006563 0.23533818 0.108331434 -0.2524735
0.21554492 -0.49334028 -0.25824824 0.18021119 0.21042812 -0.15786938 -0.41916475 0.055984423
0.1451242 0.106346644 -0.23858626 0.09696519 0.030459287 0.19292714 0.28527153 0.47943342
-0.031407278 0.4849278 -0.09799276 0.13568096 0.29094842 -0.5506989 0.17529841 0.1689697
-0.47608244 -0.23523974 0.19127911 -0.4739587 -0.32368731 0.3072107 0.113685876 -0.37764022

lstm.bias_hh_l0 f4 [600]
00000000: 581e e93e e5af 1dbe 64fc c83e 98f1 e03e
00000010: e2a7 ea3e 87c4 2f3e d5f8 8abc eecb 1f3f
00000020: 27de 4c3e a5c8 3cbe b5f7 923e 7d10 063f
00000030: 176d 5a3e ba65 f33d ce4c 48bd 0422 35be
00000040: bac9 14be 4dd5 9c3e 9908 62bd b7e5 f2be
00000050: c2ac 5e3f 68ad fd3e 62cc 243d 2a37 933e
00000060: f909 a13e 7a78 79be 255d 08bf 7912 063f
00000070: 77bb bb3d 8282 ff3d 527d 3dbe a9cf d7bd
00000080: 71a7 723e abd2 723e d959 953e e99c c63e
00000090: 0d61 1abd 7cc7 bfbd a431 8fbd 65a7 2c3e
000000a0: 095f 7dbe 99ab 67be d490 7b3d 77e0 dcbe
000000b0: 4cc4 2ebf 5bbb ef3d e7ff b93e dd6e 3b3e
000000c0: 21a5 833d 9fbe 51bf 0c99 173e e36f 123f
000000d0: 4ebf a23e 83c7 71be 4f1c 753d aebe 62bf
000000e0: 509c 6c3e 6a22 34be d827 d1bd 4c35 163e
000000f0: 576a 003f bd81 92be 1673 ba3e 9e7a 81bd
00000100: 64bb 5d3e 48ce 673e 0797 53bf f803 203f
00000110: 8dcd 3d3d b5c8 bb3e 7af8 b73d 527c ab3d
00000120: 6857 353e 3077 833e 3476 0f3e 6781 32bd
00000130: 05ed bbbd 7df6 28bd 2361 343b ccb5 883e
00000140: 2ccd b2bc a564 51be edd7 543e 6298 b03e
00000150: acd0 f23e b787 7d3e 52a4 dabd d7a7 f83e
00000160: afb6 923e f409 1a3f 813f 813d f36e e63d
00000170: 7726 3ebc 18a4 0f3e f2f3 243e 200d 68be
00000180: 8bb0 073f 3ee4 a33e f81e 143f 442b 7d3e
00000190: b68d 1b3e c9a4 e2be a6fb 1a3e 7b4d c43d
000001a0: 1ebd 1d3e aadd 69bf 6ba1 50be 27ed db3a
000001b0: 149e 3bbe 0b0d ed3e ad33 a23e 186d 3e3e
000001c0: 4f48 44be 1dfb 9abc 8105 95be 0804 18be
000001d0: 3411 d33d 1193 4d3c 64a7 5c3d 0cac d8bd
000001e0: 0eee d8bd 2e12 9e3b 8975 4a3e 9e14 05bf
000001f0: 93bc b2be f7f2 26bf 9036 323e 2070 6fbf
00000200: 34a4 ff3d 7d78 5c3d 130b 2ebe 8718 d43c
00000210: 2786 b1bd e6f3 84bf fb25 49bf f6a5 ff3d
00000220: ab16 5e3f db8d de3c 842f 943d 85f3 8e3e
00000230: 1c0d 223f e348 ae3d 9456 a83c e29e 01bd
00000240: 03f6 35be cda2 43be 88b9 edbb ee30 a23e
00000250: 1ee8 253e 7694 813d 85ea 413e 323c 3abe
00000260: ed04 5abe 8a7c 4f3e 67ff 6cbe b388 43be
00000270: c85e 14be 4da7 ccbe a5b3 243d 0340 0bbe
00000280: 6e61 923e fba2 afbe a27f 153e e0fd ddbe
00000290: 3b7a c13d b67c f23d b1ba 0abf b565 3ebe
000002a0: 23c3 a43e 5da1 3e3e 5303 143f c36c 8e3e
000002b0: b4e4 cabe 2765 8f3e 2075 dd3e 6e0b 8abe
000002c0: d96f 3a3f 64d4 8ebe 51cd 69be 3093 053d
000002d0: 4731 18bf a928 1abe 2d30 663e 84e0 07be
000002e0: cbb6 d33d 14c4 b1be 1f39 5ab8 33c0 d6bd
000002f0: 57eb aebd 182e 913e d685 003e 7516 db3d
00000300: e950 f8bc 2e83 12be 2d61 603e 33f4 193e
00000310: 6953 8b3e 87a5 d23e c778 c1be e6d6 133e
00000320: 160c ee3d 84b2 d9be 63f7 013f 3928 d63d
00000330: 0106 a83e 1984 783f 6ee1 213e faf7 dbbe
00000340: e4fd 11be 62f8 393d ea8f 0ebe 0fda 513e
00000350: 7b9b fa3d 7b4a 09bf 7262 b13e 4b07 283e
00000360: 5dc3 c53e 3bc3 8bbe 37d9 953d 98ec 1a3e
00000370: 0b5a 4a3e 2651 6a3e 83e8 f73d 8915 4cbe
00000380: 0991 4a3e bad3 09bf 9a31 5fbe b68b 433e
00000390: 30ac 2c3e 57db 15be 740e e8be 3f3e 5b3d
000003a0: e9b4 e53d fc66 a83d 4e21 41be 2f80 913d
000003b0: cdee 443d 2393 423e 4dc2 913e 60c5 ee3e
000003c0: ac41 6cbd c091 063f a609 f3bd f8e3 2d3e
000003d0: 12f4 883e 1a66 10bf cc13 043e 051e 013e
000003e0: 78c0 03bf 6bb7 76be af52 493e d6ef f1be
000003f0: 74d6 9dbe 32ef 9c3e 08a4 d63d 2d57 dfbe
0.45530963 -0.1539913 0.3925506 0.4393432 0.4583121 0.17164813 -0.016964355 0.62420547
0.2000662 -0.18435915 0.2870461 0.5236891 0.21330677 0.11884637 -0.04890137 -0.17688757
-0.14530078 0.30631486 -0.05518398 -0.47440884 0.8698236 0.4954636 0.040233977 0.28753024
0.3145292 -0.24362364 -0.5326713 0.5237194 0.091666155 0.12476064 -0.18504837 -0.10537655
0.23696686 0.23713176 0.2917011 0.38791588 -0.03769021 -0.093642205 -0.0699189 0.16860731
-0.24743284 -0.22624053 0.061417416 -0.43140003 -0.68268275 0.11705657 0.3632805 0.1830401
0.0642798 -0.8193149 0.14804476 0.57201976 0.3178658 -0.23611264 0.05984145 -0.88572204
0.23106503 -0.17591253 -0.10212678 0.14668769 0.5016226 -0.28614607 0.3641593 -0.063222155
0.21653515 0.22637284 -0.82652324 0.62506056 0.046338607 0.36676565 0.0898294 0.083733216
0.17709124 0.2567687 0.14009935 -0.04358044 -0.09176067 -0.041250695 0.0027523718 0.267012
-0.02182635 -0.20448549 0.20785494 0.3449126 0.4742483 0.24758802 -0.10675873 0.48565552
0.28655002 0.6017144 0.063109405 0.11251631 -0.01160585 0.1402744 0.16108683 -0.22661257
0.5300376 0.32010072 0.57859755 0.24723536 0.15190777 -0.44266346 0.15135059 0.09585091
0.15404174 -0.9135386 -0.20374076 0.0016779051 -0.18322021 0.46299013 0.3168005 0.18596303
-0.19168209 -0.018918568 -0.29105762 -0.14845288 0.103060156 0.01254727 0.053870574 -0.1057969
-0.1059228 0.0048239445 0.19771399 -0.51984584 -0.34909496 -0.65214485 0.17403626 -0.93530464
0.12482491 0.053825844 -0.16996412 0.025890602 -0.08668166 -1.0386932 -0.7857358 0.124828264
0.8675334 0.027167251 0.072356254 0.27920166 0.63301253 0.08509996 0.020549096 -0.031645663
-0.17769627 -0.19105072 -0.007254783 0.31677955 0.16201827 0.06327145 0.18937118 -0.18187025
-0.21290942 0.20262352 -0.23144303 -0.19095115 -0.14489281 -0.3997139 0.040210385 -0.13598637
0.28589958 -0.34304032 0.1459947 -0.43357754 0.09447142 0.11840193 -0.5419112 -0.18593486
0.32180128 0.18616243 0.5781757 0.27817354 -0.39627612 0.2800686 0.43253422 -0.26961845
0.72826916 -0.27896416 -0.22832228 0.032611072 -0.5945019 -0.15054573 0.22479315 -0.1326924
0.10337599 -0.34719908 -5.202845e-05 -0.10485878 -0.08540981 0.2835548 0.12551054 0.10697643
-0.030312018 -0.14307854 0.2191207 0.15034561 0.27212074 0.41141912 -0.37787458 0.14437446
0.11623399 -0.4251901 0.5076811 0.104568906 0.3281708 0.97076565 0.15808651 -0.4296263
-0.14257008 0.045402892 -0.13922086 0.20493339 0.12236687 -0.53629273 0.3464542 0.16409032
0.38625613 -0.27297387 0.07316821 0.15129316 0.19760911 0.22882518 0.12104895 -0.1993009
0.19781889 -0.53838694 -0.21796265 0.19096264 0.1686256 -0.14634453 -0.45323527 0.05352616
0.112161465 0.08222768 -0.18860361 0.07104527 0.0480793 0.1900144 0.28468552 0.4663496
-0.057679817 0.52566147 -0.11867075 0.16981494 0.2674871 -0.56405795 0.12898177 0.12609108
-0.5146556 -0.24093406 0.19660448 -0.47253293 -0.30827677 0.30651242 0.10480505 -0.43621197

layernorm.weight f4 [150]
00000000: 0000 803f 0000 803f 0000 803f 0000 803f
00000010: 0000 803f 0000 803f 0000 803f 0000 803f
00000020: 0000 803f 0000 803f 0000 803f 0000 803f
00000030: 0000 803f 0000 803f 0000 803f 0000 803f
00000040: 0000 803f 0000 803f 0000 803f 0000 803f
00000050: 0000 803f 0000 803f 0000 803f 0000 803f
00000060: 0000 803f 0000 803f 0000 803f 0000 803f
00000070: 0000 803f 0000 803f 0000 803f 0000 803f
00000080: 0000 803f 0000 803f 0000 803f 0000 803f
00000090: 0000 803f 0000 803f 0000 803f 0000 803f
000000a0: 0000 803f 0000 803f 0000 803f 0000 803f
000000b0: 0000 803f 0000 803f 0000 803f 0000 803f
000000c0: 0000 803f 0000 803f 0000 803f 0000 803f
000000d0: 0000 803f 0000 803f 0000 803f 0000 803f
000000e0: 0000 803f 0000 803f 0000 803f 0000 803f
000000f0: 0000 803f 0000 803f 0000 803f 0000 803f
00000100: 0000 803f 0000 803f 0000 803f 0000 803f
00000110: 0000 803f 0000 803f 0000 803f 0000 803f
00000120: 0000 803f 0000 803f 0000 803f 0000 803f
00000130: 0000 803f 0000 803f 0000 803f 0000 803f
00000140: 0000 803f 0000 803f 0000 803f 0000 803f
00000150: 0000 803f 0000 803f 0000 803f 0000 803f
00000160: 0000 803f 0000 803f 0000 803f 0000 803f
00000170: 0000 803f 0000 803f 0000 803f 0000 803f
00000180: 0000 803f 0000 803f 0000 803f 0000 803f
00000190: 0000 803f 0000 803f 0000 803f 0000 803f
000001a0: 0000 803f 0000 803f 0000 803f 0000 803f
000001b0: 0000 803f 0000 803f 0000 803f 0000 803f
000001c0: 0000 803f 0000 803f 0000 803f 0000 803f
000001d0: 0000 803f 0000 803f 0000 803f 0000 803f
000001e0: 0000 803f 0000 803f 0000 803f 0000 803f
000001f0: 0000 803f 0000 803f 0000 803f 0000 803f
00000200: 0000 803f 0000 803f 0000 803f 0000 803f
00000210: 0000 803f 0000 803f 0000 803f 0000 803f
00000220: 0000 803f 0000 803f 0000 803f 0000 803f
00000230: 0000 803f 0000 803f 0000 803f 0000 803f
00000240: 0000 803f 0000 803f 0000 803f 0000 803f
00000250: 0000 803f 0000 803f
1.0 1.0 1.0 1.0 1.0 1.0 1.0 1.0
1.0 1.0 1.0 1.0 1.0 1.0 1.0 1.0
1.0 1.0 1.0 1.0 1.0 1.0 1.0 1.0
1.0 1.0 1.0 1.0 1.0 1.0 1.0 1.0
1.0 1.0 1.0 1.0 1.0 1.0 1.0 1.0
1.0 1.0 1.0 1.0 1.0 1.0 1.0 1.0
1.0 1.0 1.0 1.0 1.0 1.0 1.0 1.0
1.0 1.0 1.0 1.0 1.0 1.0 1.0 1.0
1.0 1.0 1.0 1.0 1.0 1.0 1.0 1.0
1.0 1.0 1.0 1.0 1.0 1.0 1.0 1.0
1.0 1.0 1.0 1.0 1.0 1.0 1.0 1.0
1.0 1.0 1.0 1.0 1.0 1.0 1.0 1.0
1.0 1.0 1.0 1.0 1.0 1.0 1.0 1.0
1.0 1.0 1.0 1.0 1.0 1.0 1.0 1.0
1.0 1.0 1.0 1.0 1.0 1.0 1.0 1.0
1.0 1.0 1.0 1.0 1.0 1.0 1.0 1.0
1.0 1.0 1.0 1.0 1.0 1.0 1.0 1.0
1.0 1.0 1.0 1.0 1.0 1.0 1.0 1.0
1.0 1.0 1.0 1.0 1.0 1.0

layernorm.bias f4 [150]
00000000: 0000 0000 0000 0000 0000 0000 0000 0000
00000010: 0000 0000 0000 0000 0000 0000 0000 0000
00000020: 0000 0000 0000 0000 0000 0000 0000 0000
00000030: 0000 0000 0000 0000 0000 0000 0000 0000
00000040: 0000 0000 0000 0000 0000 0000 0000 0000
00000050: 0000 0000 0000 0000 0000 0000 0000 0000
00000060: 0000 0000 0000 0000 0000 0000 0000 0000
00000070: 0000 0000 0000 0000 0000 0000 0000 0000
00000080: 0000 0000 0000 0000 0000 0000 0000 0000
00000090: 0000 0000 0000 0000 0000 0000 0000 0000
000000a0: 0000 0000 0000 0000 0000 0000 0000 0000
000000b0: 0000 0000 0000 0000 0000 0000 0000 0000
000000c0: 0000 0000 0000 0000 0000 0000 0000 0000
000000d0: 0000 0000 0000 0000 0000 0000 0000 0000
000000e0: 0000 0000 0000 0000 0000 0000 0000 0000
000000f0: 0000 0000 0000 0000 0000 0000 0000 0000
00000100: 0000 0000 0000 0000 0000 0000 0000 0000
00000110: 0000 0000 0000 0000 0000 0000 0000 0000
00000120: 0000 0000 0000 0000 0000 0000 0000 0000
00000130: 0000 0000 0000 0000 0000 0000 0000 0000
00000140: 0000 0000 0000 0000 0000 0000 0000 0000
00000150: 0000 0000 0000 0000 0000 0000 0000 0000
00000160: 0000 0000 0000 0000 0000 0000 0000 0000
00000170: 0000 0000 0000 0000 0000 0000 0000 0000
00000180: 0000 0000 0000 0000 0000 0000 0000 0000
00000190: 0000 0000 0000 0000 0000 0000 0000 0000
000001a0: 0000 0000 0000 0000 0000 0000 0000 0000
000001b0: 0000 0000 0000 0000 0000 0000 0000 0000
000001c0: 0000 0000 0000 0000 0000 0000 0000 0000
000001d0: 0000 0000 0000 0000 0000 0000 0000 0000
000001e0: 0000 0000 0000 0000 0000 0000 0000 0000
000001f0: 0000 0000 0000 0000 0000 0000 0000 0000
00000200: 0000 0000 0000 0000 0000 0000 0000 0000
00000210: 0000 0000 0000 0000 0000 0000 0000 0000
00000220: 0000 0000 0000 0000 0000 0000 0000 0000
00000230: 0000 0000 0000 0000 0000 0000 0000 0000
00000240: 0000 0000 0000 0000 0000 0000 0000 0000
00000250: 0000 0000 0000 0000
0.0 0.0 0.0 0.0 0.0 0.0 0.0 0.0
0.0 0.0 0.0 0.0 0.0 0.0 0.0 0.0
0.0 0.0 0.0 0.0 0.0 0.0 0.0 0.0
0.0 0.0 0.0 0.0 0.0 0.0 0.0 0.0
0.0 0.0 0.0 0.0 0.0 0.0 0.0 0.0
0.0 0.0 0.0 0.0 0.0 0.0 0.0 0.0
0.0 0.0 0.0 0.0 0.0 0.0 0.0 0.0
0.0 0.0 0.0 0.0 0.0 0.0 0.0 0.0
0.0 0.0 0.0 0.0 0.0 0.0 0.0 0.0
0.0 0.0 0.0 0.0 0.0 0.0 0.0 0.0
0.0 0.0 0.0 0.0 0.0 0.0 0.0 0.0
0.0 0.0 0.0 0.0 0.0 0.0 0.0 0.0
0.0 0.0 0.0 0.0 0.0 0.0 0.0 0.0
0.0 0.0 0.0 0.0 0.0 0.0 0.0 0.0
0.0 0.0 0.0 0.0 0.0 0.0 0.0 0.0
0.0 0.0 0.0 0.0 0.0 0.0 0.0 0.0
0.0 0.0 0.0 0.0 0.0 0.0 0.0 0.0
0.0 0.0 0.0 0.0 0.0 0.0 0.0 0.0
0.0 0.0 0.0 0.0 0.0 0.0

batchnorm.weight f4 [150]
00000000: 1cfa 4a3f 84ce 813e 5dc0 e33e 269c a4bd
00000010: 86d1 903f 44b4 56bd 6414 003f f017 63bd
00000020: 4869 8e3e 87f2 ac3e 026b 0e3e 80eb a83e
00000030: 02b4 833e 8ad1 eb3e d354 233f cf3f cb3e
00000040: 68db 873d ebef df3e 87a9 d23d 656f 88be
00000050: 4fe7 9d3f 8e09 d03e ea7f 3a3f 36e5 283f
00000060: d301 263f eda1 783f b3b4 593f 1cc9 913f
00000070: 2665 d23c 76bb b83e ef3a 9e3e 9d05 f43e
00000080: f896 393f 02bc cb3d c88e a93e 0a9a 003e
00000090: fb15 393f 6542 163f 592f bb3e d6a3 1e3e
000000a0: 9a1c 623d b6b0 b23e 4c91 db3d d315 963e
000000b0: ca89 a33e b07d c13e 51b9 c03e 6541 b53e
000000c0: b324 d03e 5e60 4a3e 7910 ae3d 54ff 673f
000000d0: 3339 7d3f b810 d13e 3c20 a7bd fef5 773f
000000e0: ddd4 be3e 6f81 f43f 29dc 433e ebfc 683d
000000f0: 8910 713e 1308 683e bf8f dc3e 44df 313f
00000100: ac60 ac3e 746b 443f 9f53 d33e e147 3f3f
00000110: a324 b83d dbd9 c43e 4140 043f ccda 053f
00000120: 0fdc 493d 1594 b13f 0ac8 e83e 2043 033f
00000130: 5482 293f d410 bf3d 8f4e b5be 8e82 2c3e
00000140: b313 963f ee36 513e 9873 053f 55b3 e33b
00000150: 43e1 403f 1e66 2a3f 0059 bf3f 8b99 5c3f
00000160: 5144 bfbe 19ed cf3e cfca 9a3e b2b6 8d3f
00000170: 6a9c 8d3e ef69 5c3f 021a a63e 9771 03be
00000180: 9d47 68bf 670c 423e 3a8e b63f 73cd 753e
00000190: d627 dbbe 18e8 913f f0fe 8c3e e99a db3d
000001a0: 46f8 aebe 186d 883f bcfa 153f f4bb 38be
000001b0: 3df2 773f 7e05 5f3f 6eb9 ef3d e920 ca3e
000001c0: b290 b33e bab5 b83d ca3e a63e 89e6 9a3f
000001d0: 115f 9f3e 716c 263f 2dd2 d43e f480 b53e
000001e0: db56 e03e 388b d23e d324 13be 111c 2b3f
000001f0: a053 623e a7e9 333e ca68 5c3e 5ce1 903f
00000200: 89e2 c73e 97c2 173f e9df ea3e 187b 183f
00000210: 184a f13e e9db 143f d0dd 9b3f 742e bb3d
00000220: 90ca 9dbe 48ed f93d 3fe7 eb3e ee43 293d
00000230: b7b0 683f 1385 623f aa8a fb3e c758 533f
00000240: 4ee1 78bd 8807 ac3e 09c6 eb3d db0e b83f
00000250: 5728 953f 3866 9f3e
0.79287887 0.2535287 0.444827 -0.080375955 1.1313941 -0.05241801 0.50031114 -0.05544275
0.27814698 0.33778784 0.13908008 0.32992172 0.25723273 0.46058303 0.63801306 0.3969712
0.06633645 0.4373773 0.10286241 -0.26647487 1.2336215 0.4063229 0.7285143 0.6597475
0.64846534 0.9712208 0.8504135 1.1389499 0.025682997 0.3608052 0.30904338 0.47660533
0.72495985 0.09947969 0.33116746 0.12558761 0.72299165 0.5869506 0.3655956 0.15492186
0.055203058 0.34900445 0.107210726 0.29313526 0.31941062 0.37791204 0.37641385 0.35401455
0.40653 0.19763324 0.08499236 0.90623975 0.98915404 0.40833068 -0.08160445 0.9685973
0.37271777 1.9102 0.19126953 0.056881826 0.23541464 0.2265933 0.4307842 0.694813
0.33667505 0.7672646 0.41274735 0.74719054 0.08991363 0.3844746 0.51660544 0.5228698
0.04928213 1.3873316 0.45465118 0.512743 0.6621449 0.093293816 -0.35411498 0.16846678
1.1724762 0.2043111 0.5212951 0.0069488683 0.7534372 0.6656207 1.4949036 0.8617179
-0.3735681 0.4061058 0.30232856 1.1071379 0.27658397 0.8609914 0.32441717 -0.128363
-0.90734273 0.18950044 1.4262154 0.24004154 -0.4280383 1.1398954 0.27538252 0.10722906
-0.34173793 1.0658293 0.58585715 -0.18040448 0.96854 0.87117755 0.1170529 0.39478233
0.3507133 0.090190366 0.3246978 1.2101604 0.31127217 0.6500922 0.415666 0.35449946
0.43816265 0.4112184 -0.14369516 0.668397 0.22102213 0.175696 0.21524349 1.1318774
0.3904002 0.59281296 0.45873955 0.59562826 0.47126842 0.58148056 1.2177067 0.091397196
-0.30818605 0.12203461 0.46074864 0.04132455 0.90894645 0.88484305 0.4912923 0.8255734
-0.060761742 0.33599496 0.115123816 1.4379534 1.1652936 0.31132674

batchnorm.bias f4 [150]
00000000: 427c 623e f635 58bf 7374 463f 4ef8 003f
00000010: 38c1 46bf 3c8b 723f b067 7e3e 48d3 6c3f
00000020: 6fb9 173f cc4f 2e3f b4b1 243f 07c4 5ebf
00000030: 121a 013f 9ead f13e 7e68 fcbe 6142 3b3f
00000040: 6ccb 603f b2a5 53bf f9a2 2a3f 7bbc 603f
00000050: 67d1 2d3f 157a 2d3f 99ec 403f dc75 443f
00000060: 04ad 9e3e 2dfe 2b3f d0a1 183f 2310 1b3f
00000070: 96f5 783f 1a35 993e 8d64 913f 004c 073f
00000080: 303b 873e e3fb 2d3f bae3 ba3e 5a83 5b3f
00000090: 40e3 4e3f 71ec 023f 115d 4c3f a9c5 133f
000000a0: 09e7 343f 999c 3cbf f4e4 333f 9ba4 81be
000000b0: db8c 263f ffb6 133f b4cd df3e 7126 f13e
000000c0: 58f1 5c3f 0502 37bf a435 3e3f 84ef 223e
000000d0: 1283 103f b72c 723f e25e 3c3f a651 86bf
000000e0: 219f 263f e56a b33d 8eaf 553f b7ad 41bf
000000f0: cc2d 163f 67a1 29bf 963e 153f a565 d03e
00000100: cbea c63e d332 343f fa81 46bf 3920 043f
00000110: 4584 693f eca5 743f d762 3e3f d3d0 133f
00000120: c221 663f d18c 2ebf d179 1d3f 2f57 3d3f
00000130: 1c42 2d3f 0263 4d3f 4e4f 673f ece3 20bf
00000140: d0b9 023f 435b 383f 241e 223f f7ba 153f
00000150: c3d6 2c3f e89e 2c3f d1be ca3e 4822 1abf
00000160: 366d 3e3f 0c73 243f a682 0f3e 996b 85bf
00000170: e002 5ebf c16c a03e 0b56 2e3f 104d 893f
00000180: 6c80 82bf 46d2 e83e a029 ef3e bf1e bf3e
00000190: 1768 553f dc89 d43e 03d0 283f 20b3 dc3e
000001a0: 871a 61bf 761f 973e 0a50 27bf da28 1c3f
000001b0: aefd 263f d5fc 323f 1e16 3c3f ecd1 c23e
000001c0: 9f42 10bf 704e 633f 40da 7e3e 365b 63bf
000001d0: a87c 073f 5c67 6e3f 1688 163f 8c34 4bbf
000001e0: c2e0 0e3e eaf5 433f ab27 dc3e 5103 8e3f
000001f0: d9d9 243f 5ece 363f 0a6a 613e ade7 e33e
00000200: 2bbb e63e 0096 1f3f 1fdd 053f bada 6abe
00000210: 0585 6e3f 39a1 46be 304e 163f c247 5abf
00000220: 5506 5fbf a731 203f 5a46 7ebf e414 293f
00000230: 69da 293f d6f1 be3e e9e3 09bf d6a2 463f
00000240: 293d 473f 4f7a 2d3f c179 5f3e 7e56 8abe
00000250: cdcc 1a3f 1d5f 66bf
0.22117713 -0.8445734 0.7752144 0.5037888 -0.7763858 0.94743705 0.24844241 0.9250989
0.59267324 0.6809051 0.64333653 -0.87017864 0.50430405 0.47202772 -0.4929847 0.7314816
0.878104 -0.82674706 0.66654927 0.877876 0.6789765 0.6776441 0.7536102 0.7674234
0.30991375 0.67184716 0.59621906 0.605715 0.97249734 0.29923326 1.1358811 0.5285034
0.26412344 0.67962474 0.36501867 0.857473 0.80815506 0.5114203 0.7982951 0.5772348
0.7066503 -0.7367645 0.7027123 -0.25320897 0.6505868 0.57701105 0.43711627 0.4709964
0.8630576 -0.71487457 0.743006 0.1591168 0.5645 0.9459948 0.7358228 -1.0493667
0.6508656 0.08760623 0.83471 -0.7565569 0.5866363 -0.66261905 0.58298624 0.4070255
0.38851008 0.7039005 -0.7754208 0.5161167 0.9121745 0.95565677 0.7436957 0.57740515
0.8989526 -0.6818362 0.61514 0.73961157 0.67679 0.802292 0.90355384 -0.6284778
0.5106478 0.72014254 0.6332724 0.5848841 0.675152 0.6742997 0.39598706 -0.6020856
0.7438539 0.6423805 0.14014682 -1.0423461 -0.86723137 0.31332973 0.6810004 1.0726643
-1.0195441 0.45472926 0.46711445 0.37328145 0.83361953 0.41511428 0.659424 0.43105412
-0.879311 0.2951619 -0.65356505 0.60999835 0.65230834 0.6991704 0.7347125 0.38050783
-0.56351656 0.8879156 0.24887943 -0.8881105 0.52924585 0.93126464 0.588014 -0.79377055
0.13952926 0.7654711 0.42999014 1.1094762 0.6439491 0.7140864 0.22013107 0.44512692
0.45064673 0.62338257 0.5229053 -0.22935 0.9317172 -0.19397439 0.58713055 -0.85265744
-0.87119037 0.62575763 -0.993261 0.660475 0.6634889 0.3729388 -0.5386339 0.7759222
0.778277 0.67764753 0.21823789 -0.27019113 0.6046875 -0.8998888

batchnorm.running_mean f4 [150]
00000000: 295f 48bf f0f5 4d39 a10c 72bb 8d80 6ebf
00000010: 5edf 10bf 1b99 ed3c ba3b 8f3a 8f7c 38bf
00000020: 62cd 76bf a7a2 b3ba 75eb 73bf d9d6 423f
00000030: b66a 73bf 2cd3 283f cc65 78bb a66e 64bd
00000040: 4912 283b ff5e db3b 83bb 56bd 7856 093d
00000050: c892 08bf c777 73bf cf26 953e eda6 4ebe
00000060: 40df acbe 8d27 6a3e 8717 3a3f d5b9 0fbe
00000070: 1e1c e9bc 2617 27bf e3a9 21b5 c151 4eb9
00000080: 4e18 31bf 99ed 2abf 2012 78bf 3cff c0bc
00000090: cf03 82bd df93 78bd b3af 1cbb 49d7 f9be
000000a0: e142 51bf f794 b3b8 cca5 5cbf 8b42 18bb
000000b0: 3a04 2b3b 3711 76bf fb0d 6fbf d8ed 77bf
000000c0: 29b2 60bb 472d 1cbb 01a6 3abc d2c3 b3be
000000d0: 9739 1f3e 3761 4ebb 25b5 73bc 73c4 993c
000000e0: 86e9 dabd 74aa cc3e 7b87 40ba e9b3 deba
000000f0: e70c 3d3f 51e1 06b3 bd76 74bf 5cbc 81bd
00000100: 95a9 753f 02e1 adbd ae18 163c 45ac 4bbe
00000110: 0658 25bb ca0e dfbb e379 0cbc aa63 62bc
00000120: 2855 73bf 2573 fabe 9c3b d4bc 84b5 96bd
00000130: e246 bebb d956 b13e 63d4 163b ec72 ffbd
00000140: e92a fe3e 612c b2be bc4b 393f d1e1 6bbf
00000150: 229d b1be 8a20 3abe 9553 043f b860 f8bb
00000160: b2f6 6bbf de23 723f ae83 683f e983 813e
00000170: 05a2 b1bb e6f9 09bf b56e 53be 18b9 d13b
00000180: fef5 573f 559f 76bf 8b1d adbe a172 42bf
00000190: a979 6abf a7e4 933e fd43 c3bd 3f6a 72bf
000001a0: 1987 703f fa32 043f 6d09 5bb9 92d7 623e
000001b0: 1a73 773e 7981 163f a94c 4dbc f751 71bf
000001c0: 6d87 0a2f 3cb1 a5be e486 1d3c 2265 603d
000001d0: 38b8 eabb ff1b 51bc 1e7a 83bc cdc9 66b2
000001e0: 2f59 2c3c a213 52bc 1d7f 9d3b c7ef 47ba
000001f0: a16f b13a 3bb5 d43b 3476 6bbf 3d23 ec3e
00000200: 5705 78bf d7e5 9abc 07f4 b1bb e469 b33c
00000210: 1220 f0bb 96e8 9e39 5eb6 353f 47c3 0c3c
00000220: 3c4f 473f 2efa 9ebd 197f 413f caa5 3abf
00000230: b652 86be 650f 68bf 27c0 262e d7c5 1dbe
00000240: 69eb f233 ed9b 37bd 2482 803c ae9d 42bf
00000250: d502 333f 300a 733f
-0.782702 0.00019641942 -0.0036933797 -0.931649 -0.5659083 0.02900367 0.0010927834 -0.7206506
-0.9640714 -0.001370509 -0.95281154 0.7610908 -0.950847 0.6594722 -0.0037902473 -0.055769585
0.0025645664 0.006694674 -0.05242492 0.03352973 -0.5334897 -0.9510464 0.2913117 -0.20180865
-0.33764076 0.2286665 0.7269215 -0.14035733 -0.02845579 -0.65269697 -6.022439e-07 -0.00019676147
-0.6917771 -0.66768795 -0.96902657 -0.023559205 -0.06348383 -0.060687896 -0.0023908436 -0.48797062
-0.81742674 -8.563132e-05 -0.86190486 -0.0023233022 0.0026095049 -0.9612002 -0.9338071 -0.96847296
-0.003428588 -0.0023830698 -0.0113921175 -0.35110337 0.15549313 -0.003149105 -0.014874731 0.018770432
-0.10689072 0.39973795 -0.0007344407 -0.0016990873 0.7384781 -3.140423e-08 -0.9549368 -0.06334755
0.95961887 -0.084901825 0.0091611575 -0.19889934 -0.0025229468 -0.006807183 -0.008573982 -0.013817707
-0.95051813 -0.48915973 -0.02590733 -0.0735884 -0.0058067897 0.34636572 0.0023014776 -0.124730915
0.49642113 -0.34799483 0.72381186 -0.92141443 -0.34690195 -0.18176475 0.51690036 -0.007579889
-0.921733 0.9458598 0.9082593 0.25295952 -0.0054209256 -0.5389694 -0.206477 0.0064002387
0.8435973 -0.9633687 -0.33811602 -0.7595616 -0.9159189 0.28885385 -0.09534452 -0.9469337
0.9395614 0.51640284 -0.00020888979 0.22152546 0.24165002 0.5879131 -0.012530484 -0.94265693
1.259914e-10 -0.32361782 0.00961468 0.054783948 -0.007163074 -0.012763022 -0.016049441 -1.3433646e-08
0.01051931 -0.012822064 0.004806413 -0.0007626977 0.0013537296 0.006491331 -0.9197724 0.46120635
-0.9688315 -0.018908424 -0.0054307017 0.021901079 -0.007328042 0.00030309398 0.70981395 0.00859148
0.7785528 -0.07762562 0.7558456 -0.72909224 -0.26234978 -0.9064849 3.7914696e-11 -0.15407501
1.1311824e-07 -0.044826437 0.015687056 -0.7602185 0.69926196 0.9493742
