src/results/subject_P1/best_model.pth (torch, 481333 bytes, 15 tensors)

input_linear.weight f4 [40, 40]
00000000: d221 45bd d48d 1f3d 6e4f d93d deb6 6cbd
00000010: e07c 68bd f26c fabd e18f 0b3e ab46 06be
00000020: 4eee e83d 3200 51bd ccc2 41bd 03ce 08be
00000030: 725d fd3d 1669 d0bd 400b dcbd 6561 0ebe
00000040: c448 963d f40b 703d b834 2cbd 2d82 1bbe
00000050: 20b9 e6bc a991 033e 508a 8a3c 474d 123e
00000060: 0951 213e 3a6a f03d 07ab 093e 9865 1dbe
00000070: b4f0 dcbd 83ca 003e 002c a53d 0389 9fbd
00000080: 805c f1ba d043 44bd 585f 4b3d f642 a13d
00000090: 53fb 093e c55b 04be 92b4 8d3d faf1 15bd
000000a0: 6e01 05be ebbd 0e3e 187d debc 0607 bd3d
000000b0: 63ef 103e 97bf 1abe 2696 c83d 3f43 1c3e
000000c0: ad5b 9fbd e2e7 cfbd 46bb 833d 0119 0f3e
000000d0: f0df 93bc 803e b5bd 177e 0bbe ba11 febd
000000e0: 74d9 1c3d 00e8 d0ba 3646 79bd a77b 9cbd
000000f0: 2858 79bd 2012 eb3b 2a09 96bd e606 f13d
00000100: 5a3d c43d f64c d9bd 7c0c d5bd e152 1abe
00000110: 6e26 8fbd 6093 6cbc f8eb a4bc c30e 193e
00000120: aad6 e13d 9077 67bc 4516 a0bd a0e3 393c
00000130: 9c5b a13d e3fb 073e c285 01be cc00 c5bd
00000140: 37fc 063e a4fe e3bd 3950 ebbd 518a 033e
00000150: c4f1 b23d 706c 843d a88d 9dbd 0edb d03d
00000160: 2ada 00be 6ebc 953d bb9a 90bd c423 6b3d
00000170: 64ee 30bd d04b 87bd c88f 8b3c d0c7 d93c
00000180: 8844 923c 00f2 4eba 1568 1b3e 9878 563d
00000190: 46c7 ff3d 1e55 bbbd 1852 5a3d b418 743d
000001a0: a462 b2bd 0807 d3bc 5ebc 03be 00f7 933c
000001b0: 2080 3c3c 90df 223d d1aa 1d3e 265c f9bd
000001c0: 94ff 80bd d0ae afbd d7c8 033e 628a 813d
000001d0: fbba 19be 7639 ecbd f2fa 6bbd bea5 8fbd
000001e0: 3f1f b7bd 90c8 1c3d 0082 efbb addd a6bd
000001f0: 31f7 103e e4ae f4bd 3cc8 c8bd 9bf8 f8bd
00000200: 14d6 2f3d 968d f43d 3525 0ebe 58b7 c7bc
00000210: 5043 f9bc 8048 163c 2417 143d 57e6 05be
00000220: 222c b63d 48fd b5bc 8699 1ebe 2097 023c
00000230: f4be cbbd e05c d6bb b255 e03d e0ce 9f3b
00000240: 62e3 0fbe 403c f13c 4697 923d bbed 0ebe
00000250: c225 56bd 7067 aebc 91f3 023e 0001 ebbc
00000260: 95b8 bdbd 9af1 df3d 2a68 e83d eeae e7bd
00000270: 5f46 1e3e b0fe fabc 0098 1eba 0e89 ef3d
00000280: 666b 0dbe 8066 59bb 2e9a 0abe 42f1 23bd
00000290: 9427 c1bd c491 0b3d 04f4 9f3d dacf 3cbd
000002a0: 2df9 94bd 608d e6bb 1db0 98bd d750 063e
000002b0: a2b7 c3bd 8524 033e bc48 953d d9da 143e
000002c0: 90ca 7c3c 52f3 0cbe e7d5 213e 8497 bdbd
000002d0: d2bb bf3d 108f 473c 6625 32bd 9633 0cbe
000002e0: ef69 e4bd c67a 4abd 4b9c 06be bcab b0bd
000002f0: c8d2 15be 0176 1c3e 17bb 8ebd aa24 65bd
00000300: 21b6 143e f269 bb3d 0eef f1bd 0e5b ee3d
00000310: 9812 99bc 1fe1 f4bd 9bf2 0b3e fc92 18be
00000320: 640d 2cbd 2267 d13d 6029 d5bb 4867 04bd
00000330: ac25 0e3d 35d6 edbd 0ba4 1cbe 4d07 9abd
00000340: 6019 c2bb 4889 99bd aa47 8fbd bb68 97bd
00000350: 0a76 fb3d ba66 a93d e044 8d3b c653 f8bd
00000360: 57ee f5bd 0a47 82bd f78a 89bd cf38 043e
00000370: 7ec9 cb3d 3447 d5bd 6ab0 51bd 60c3 0cbe
00000380: ea55 f6bd 488f 09bd 285a be3c 00e6 69bb
00000390: 5694 8dbd e8e2 4e3d 4e74 15be 5b07 bbbd
000003a0: 68af 8e3d f015 123c 9ef0 c33d a2ae 5dbd
000003b0: 4ced 7c3d b069 a73d 5e0a a33d e403 11be
000003c0: 9673 e73d 57b0 a0bd 1e61 b53d 4aa4 cf3d
000003d0: fed1 f93d 506d 373c 93fe b9bd b85a 86bc
000003e0: be43 b13d e042 cbbc 8293 ec3d 0476 bb3d
000003f0: deed 0ebd b138 0a3e 6603 51bd c07c 31bd
-0.048127957 0.038953617 0.10610853 -0.057791583 -0.056759715 -0.12227811 0.13629104 -0.13112895
0.11373578 -0.051025577 -0.047304913 -0.13359837 0.12371339 -0.101762936 -0.10744333 -0.1390434
0.07338098 0.05860515 -0.042042464 -0.15186377 -0.028164446 0.12848534 0.016911656 0.14287291
0.15753569 0.11739011 0.13444148 -0.15370786 -0.10788098 0.12577252 0.08065033 -0.07789805
-0.0018414408 -0.047916234 0.049651474 0.078741 0.13474779 -0.12925632 0.06919207 -0.03660772
-0.12988827 0.13939635 -0.027159259 0.09229855 0.14153819 -0.15112148 0.097942635 0.15260027
-0.07781158 -0.1015165 0.06432204 0.13974382 -0.018051118 -0.088498116 -0.13622318 -0.12405725
0.038293317 -0.0015938282 -0.060857974 -0.07640772 -0.060875088 0.0071737915 -0.07325967 0.11768894
0.095820144 -0.10610382 -0.10402772 -0.15070678 -0.06989752 -0.014439434 -0.02013205 0.14947037
0.11027272 -0.014127627 -0.078167476 0.011345774 0.07878801 0.13279681 -0.12648681 -0.096192926
0.1318215 -0.11132553 -0.11489911 0.12845732 0.087375194 0.06465995 -0.076930344 0.10198031
-0.12583223 0.07311331 -0.070607625 0.057407156 -0.043196097 -0.06606257 0.017036334 0.026584536
0.017854944 -0.0007894337 0.15176423 0.0523611 0.1248918 -0.09147094 0.053300947 0.05959387
-0.087102205 -0.025760189 -0.12864825 0.018062115 0.011505157 0.039763987 0.15397193 -0.12175779
-0.06298748 -0.08578265 0.12869583 0.063252226 -0.15012734 -0.11534397 -0.057612367 -0.07014035
-0.089415066 0.03827721 -0.0073091984 -0.0814775 0.14156796 -0.1194742 -0.09803817 -0.12156793
0.04292877 0.11941068 -0.13881381 -0.024379417 -0.030427605 0.009172559 0.03615488 -0.13076149
0.088951364 -0.0222155 -0.15488252 0.007970601 -0.09948531 -0.0065418333 0.10953845 0.0048769563
-0.14051583 0.029447675 0.07157759 -0.13957874 -0.052282102 -0.021289557 0.12788226 -0.028687
-0.09263722 0.10934754 0.11347993 -0.11312662 0.15456532 -0.030639023 -0.00060498714 0.11696063
-0.138105 -0.0033172667 -0.13535377 -0.040025003 -0.09431377 0.03407456 0.07810214 -0.04609666
-0.07274089 -0.007035896 -0.07455466 0.13116775 -0.095565096 0.128069 0.072892636 0.14536609
0.015429154 -0.13764694 0.15804254 -0.09257415 0.09361996 0.012180105 -0.043492697 -0.13691553
-0.11153018 -0.049433492 -0.13145559 -0.08626506 -0.14631188 0.1527939 -0.06969278 -0.05594317
0.14522602 0.09151067 -0.11813174 0.11638461 -0.018685624 -0.11957001 0.13666765 -0.1489982
-0.042004958 0.10224749 -0.0065051764 -0.03232506 0.034703895 -0.116131224 -0.15296952 -0.07520924
-0.005923435 -0.074968874 -0.06996091 -0.073930226 0.122783735 0.08271547 0.004311189 -0.121253535
-0.1200835 -0.06361206 -0.067159586 0.12912296 0.09950541 -0.104139715 -0.051193632 -0.13746405
-0.120281056 -0.03358391 0.02323635 -0.003569007 -0.069130585 0.050509363 -0.14595148 -0.09132262
0.0696705 0.008916363 0.095673785 -0.05412162 0.06174974 0.08174455 0.07960962 -0.1416164
0.11301343 -0.07846134 0.08856414 0.101387575 0.12198256 0.011195496 -0.09081759 -0.01640068
0.08655499 -0.024812162 0.115515724 0.09153369 -0.034894817 0.13498189 -0.05102863 -0.04333186

input_linear.bias f4 [40]
00000000: 9c42 783d 729c 4dbd 1e5c 19be 8fe3 093e
00000010: 63ce 02be 3268 77bd b69c d43d e0c6 523c
00000020: 28c0 e1bd 3011 c8bd 023e f73d 9d42 acbd
00000030: 8c14 e3bd 00d7 48bd 285b 90bd 005d 343a
00000040: 9e21 0bbe 90e9 81bc 06ca f0bd eb78 1f3e
00000050: 29b9 0a3e bcaa b13d 18b5 5b3d 0861 d2bc
00000060: 8aff f53d 4816 f1bc c048 10bd 6d15 c3bd
00000070: 0965 043e 80f7 06be 95a0 0a3e f04a 27bc
00000080: 447e 353d e0ec fd3b 7897 2abd 1e05 ef3d
00000090: d4dd 813d 3e15 e23d be8d ba3d 00a5 933c
0.0606104 -0.050198026 -0.14976546 0.13465713 -0.12774043 -0.060402103 0.10381453 0.012864798
-0.11022979 -0.09768903 0.12072374 -0.08411143 -0.110879034 -0.049033165 -0.07048637 0.0006880313
-0.13587043 -0.015858442 -0.11757283 0.1557347 0.13547195 0.08675143 0.0536395 -0.025681034
0.12011631 -0.02942957 -0.03522563 -0.09525571 0.12929167 -0.13180351 0.1353782 -0.010210738
0.04430987 0.007749185 -0.041648358 0.11670898 0.063411385 0.11039208 0.091090664 0.018023014

lstm.weight_ih_l0 f4 [600, 40]
00000000: c799 15bf 2b3f a7be 6074 a1be e446 a53d
00000010: 0955 42bd a417 9abe b9c0 83be 1b9d 8a3e
00000020: 671a ac3e 0704 aa3e d528 02be 82ed 733e
00000030: 0f97 91be a8cf 8fbe bdaa 4cbf 9f9e 00bf
00000040: ff70 79bf 2b35 96bd 6d4b eabd 76e6 8cbe
00000050: 5648 8abe 43e9 a4be fc47 fbbe ea4f 013f
00000060: b121 a9be 14ca 033f 3fb0 b53e 9f4b d33e
00000070: 11d6 b4bd 4560 103f d5b2 f0bd 03ae 91be
00000080: e9cb 89bd 54a3 7abf 55bd febe ffc6 eb3e
00000090: 69f4 a6be 7a42 6dbf b191 09bf b8e5 3fbf
000000a0: bd15 773e 1d9f 02bd ba7a 54be 9709 c3bd
000000b0: dfb8 e7bd ae2a 4bbe 9444 5bbe e48e 6d3e
000000c0: 4c75 8d3e 8226 483e 12c4 16be 33f4 d53c
000000d0: 3d29 87be 8a78 5abe 917a 233e 4649 0f3e
000000e0: 6770 15bc 6c58 3bbe 8491 48be 0187 82be
000000f0: 34e3 3ebe 492c 7fbe 3a80 65bd 48bc 243d
00000100: 2b0f 64be 4997 d1bd 5007 c9bc e5dd c9bd
00000110: 43ea 29be acd9 00bd bc3c 3cbe 643c 4fbe
00000120: de04 3ebe 6013 ef3c ea53 53bd 9f42 be3d
00000130: 9d4f 52be 5679 2dbc 0c2c 6cbd 2071 0b3e
00000140: 9348 9b3e 974c debe 1568 96be 9875 0fbf
00000150: 4623 a6be 6d28 9abe 8fcf 73be 84d7 ab3e
00000160: 0670 8d3e 4051 9e3e effa d2be d135 c5be
00000170: 9dd1 af3c 029d 94be e16c 343f e030 93be
00000180: 46e4 81be 2133 cabe b8df e0be d269 a2be
00000190: f307 acbe 9a5a 99be d57e 033f f486 993d
000001a0: 93b8 b0be 327c 8a3e c703 47bd 1851 69bd
000001b0: 238c debe 12da 25be 77f6 e4be 9f49 92be
000001c0: 9567 d4be 271c 42be cc7d 0e3f c51b d93d
000001d0: 721c 98be 67f8 e2be d3cf d6be 179e 2e3f
000001e0: c46e 98bc e2d2 8bbe ca80 56be c9a3 bcbe
000001f0: 6296 5fbe 0fde 79be 03b0 65be 22d4 543e
00000200: 421a 6c3e 7ce8 7c3e fccb b2be 3740 a9bb
00000210: 3a11 d0bd 4827 77be 2521 c43e aede 81bd
00000220: 06dc 89be a329 c4be e536 b0be 2a31 80be
00000230: b436 8abe 7151 5dbe af06 603e aa2d 57bd
00000240: ea66 78be df59 343c 3b6a 08be 6491 0abe
00000250: 20b0 b5be 7c54 653d 69a5 b1be 9404 65be
00000260: fb82 b7be ac7e 89be e4eb 493e 195c 3cbd
00000270: aa6a 69be d4e0 653d c998 a73d 172f c53e
00000280: 4e91 14bf e568 553e fcca 7e3e 6211 d63e
00000290: a52c 1e3e 509b 8d3e fa75 4e3e 5594 80be
000002a0: 9d0a 17be e75c 81be 0040 f53e 429d 8d3e
000002b0: c7fa f63d 0e36 5d3e f109 1fbf 98f4 683e
000002c0: 9b5a e7be 8a8c da3e 10d4 d83e 01f7 723e
000002d0: 4160 8d3e 6579 813e a595 c9be 234e e43d
000002e0: 016d 6f3e 3eb7 8f3e 55f8 163f 93dc da3e
000002f0: fdbf e73e ed2e af3e e35e e03e c97e 5d3e
00000300: 1f61 dd3e 98d0 e2be 9011 c1be 474f 183e
00000310: 3668 623e ef47 debe ed60 d2be 2251 19bf
00000320: 771e b6bd 33c2 05be 91ee 86be 00b1 82be
00000330: 7b04 3fbd 9068 88be da98 4abe dad1 5d3e
00000340: 79b8 683e 9d21 813e 4b24 d2be c420 a33a
00000350: e889 32be 0ca1 82be 4116 0f3f e234 29be
00000360: 77f6 17be 8f3a b6be 67e6 b9be e4f1 8cbe
00000370: 0a69 90be a0f4 73be a9df 01be ed07 da3d
00000380: c78f 5cbe 5e4d 8abe 1d09 ff3d c6cd 373e
00000390: 7d3b c8be 1e36 ca3e bb59 bcbe ab84 83be
000003a0: 1561 c6be 0359 3ebe d58b d3bd 6337 d73d
000003b0: 8d39 89be 317f 90be e7fd 0bbe efa7 123f
000003c0: 42db ce3d c37d 083e 4072 0bba e36b 1c3e
000003d0: c292 c83d 098b 41bd b2ca 4b3c 0763 d4bb
000003e0: 1908 863c 8f0a 1b3d 1480 6c3d 195f 093d
000003f0: f51a 6ebd 5d55 08bd e00a b93d be0b e73d
-0.5843777 -0.3266538 -0.315341 0.08070162 -0.047444377 -0.3009616 -0.25732973 0.27072987
0.33613893 0.33206198 -0.12710889 0.23821071 -0.2843556 -0.28088117 -0.79948026 -0.50242037
-0.97438043 -0.0733436 -0.114401676 -0.27519578 -0.27008313 -0.32209215 -0.49078357 0.50512564
-0.33033517 0.5148022 0.35486028 0.41268632 -0.088298924 0.56396896 -0.117528595 -0.28453073
-0.06728346 -0.9790547 -0.49753824 0.4605026 -0.32608345 -0.9267956 -0.5373793 -0.749599
0.24129386 -0.031890023 -0.20749941 -0.095233135 -0.11314558 -0.198405 -0.21412879 0.2319904
0.27628553 0.1954594 -0.14723232 0.02611742 -0.2639865 -0.21335045 0.15964724 0.13992795
-0.009121037 -0.18295449 -0.1958676 -0.25493625 -0.18641359 -0.24919237 -0.05603049 0.04021862
-0.22271411 -0.102339335 -0.02453962 -0.09856776 -0.1659327 -0.031457588 -0.18382543 -0.20237881
-0.18556544 0.029184043 -0.0515937 0.09290051 -0.20538183 -0.010588011 -0.057659194 0.13617373
0.30328807 -0.43417808 -0.29376283 -0.5603881 -0.32448786 -0.30108967 -0.23809646 0.33562863
0.2762453 0.30921364 -0.41207072 -0.3851762 0.021462256 -0.29026037 0.70478636 -0.28748226
-0.2536947 -0.39492133 -0.43920684 -0.3172136 -0.33599815 -0.29951936 0.51365405 0.074964434
-0.3451582 0.27047879 -0.048587587 -0.056962103 -0.4346629 -0.16196468 -0.44719288 -0.28571793
-0.41485277 -0.18956052 0.556607 0.10601 -0.29709202 -0.4433014 -0.41955432 0.68209976
-0.018607505 -0.27309328 -0.20947567 -0.36843708 -0.2183471 -0.24401115 -0.22430424 0.20784047
0.23056892 0.24698061 -0.34921253 -0.0051651257 -0.10159536 -0.24136078 0.38306537 -0.06341301
-0.26925677 -0.38313016 -0.3441688 -0.2503751 -0.2699486 -0.21613099 0.2187755 -0.052533783
-0.24258009 0.011007755 -0.13321774 -0.13532025 -0.35485935 0.055988774 -0.3469651 -0.22365028
-0.35842118 -0.26854455 0.19718891 -0.04598627 -0.22794595 0.056122616 0.08183438 0.3851249
-0.5803422 0.20840795 0.2488212 0.41810137 0.15446718 0.27657557 0.20162192 -0.25113168
-0.14750142 -0.2526619 0.4790039 0.2765904 0.12059551 0.21602651 -0.62124544 0.22749555
-0.45186314 0.42685348 0.4234929 0.23727037 0.27612498 0.2528793 -0.39371982 0.11147716
0.23381425 0.2806949 0.58972675 0.4274641 0.45263663 0.3421549 0.43822393 0.21630396
0.4323816 -0.4429977 -0.37708712 0.14873992 0.22110066 -0.43414256 -0.41089574 -0.59889424
-0.088925295 -0.13062362 -0.26353887 -0.25525665 -0.046635132 -0.26642275 -0.1978487 0.21662083
0.2272662 0.25220957 -0.41043314 0.0012445678 -0.1743542 -0.25513494 0.5589333 -0.1652408
-0.14840113 -0.35591552 -0.36308596 -0.27528298 -0.28205138 -0.23823786 -0.12682976 0.10646043
-0.21539222 -0.2701215 0.1245291 0.1794959 -0.39107886 0.39494413 -0.3678721 -0.25687155
-0.38745943 -0.18588643 -0.10329405 0.10508611 -0.2680172 -0.2822204 -0.13671075 0.57287496
0.10100414 0.13329224 -0.0005319454 0.1527553 0.09793617 -0.047251735 0.012438463 -0.0064815315
0.016361283 0.037851866 0.057739332 0.033537958 -0.058131177 -0.033284534 0.09035277 0.112815365

lstm.weight_hh_l0 f4 [600, 150]
00000000: 691c 39bf f086 54be ee04 393e c5c4 e03e
00000010: 3ca1 ab3e c33c 803d 682c 04be 4c04 67be
00000020: 8797 b4be 01aa 60bf ed08 9cbe c261 1b3d
00000030: e852 89bf bae3 02bf 7971 24bf 82f8 363e
00000040: 5b00 35be c6ed 873d 9e52 31be 47c8 fcbd
00000050: 57ba e5bd b272 163e 1d59 253e 5fc3 063e
00000060: d8cd 45be 5669 c7be 8a55 05be c798 35bd
00000070: 9226 21bf ba36 fc3d ec1d c03c 9dfb 163e
00000080: 2d9e 89be a15d 6dbd 4414 d23e 8e3e 42bf
00000090: 880d d7be 1bcd 163c 0671 493e b97e 593f
000000a0: 99cc 1cbc 596a 0d3e 9c9f f63d 3272 573e
000000b0: 0b11 c13d bfee 703d 718b 263e ff82 0abf
000000c0: 2933 bc3c 128a 4cbe 8443 913d 2a4f ad3c
000000d0: 7750 123f f6c8 793f 945f 03bf ffa6 473e
000000e0: 3333 41bf 8bda 71be 13bf b1be 6d95 13bd
000000f0: 2964 a6be 5884 cbbd e63e a73d 5da2 a63d
00000100: aafc 073f 0436 4bbd e7c6 76bd aee7 463e
00000110: 618c 6abe 0275 3ebc c8d5 01bf cf95 203e
00000120: 3710 03bf 5efb bcbc a690 9bbe 2083 4abd
00000130: 5f99 b6be 8d6b b0be fd36 3e3d 8168 f5be
00000140: 68c2 42be a7c5 e63d 7e0c 82be 2c08 22bf
00000150: 7ade 0d3f aa98 acbb 8d00 15be f969 d7be
00000160: e953 edbd f3a1 f13d 9390 4f3e 4fc9 ebbe
00000170: d306 17bf 6244 2e3d b88a 973b 2eaa 873d
00000180: a276 4abe 6806 173f 3af3 5bbe 182a 86be
00000190: e9f1 023e da44 af3d fc6e e43d c563 fd3e
000001a0: 4095 eb3e 4f73 543e 25b8 9bbc 8dad 33be
000001b0: 9869 c0be 609c 6a3e 22ad 7d3d b135 d4bd
000001c0: 23f0 873e ecc0 213f 6490 223d a2ee 193d
000001d0: b70a 933e 41da 203d 1689 acbe a436 febe
000001e0: 3d23 c1be c249 8d3e b60f a4be eff8 19be
000001f0: e75d c2bd faa4 0bbf 8630 e23e bff8 c43e
00000200: e401 99bd 5270 f4be d18a 57ba be1d 613e
00000210: 6064 273e cd8e 7fbe 1c1a ccbe 6280 31bf
00000220: 7db0 e23d 598b 1dba 6450 d53e f383 b1be
00000230: 43ac 98be 7e46 653e 4ae9 68bf 09c7 2d3d
00000240: 7ef0 0a3d 11a0 0dbd 3e95 9a3c 65f1 253d
00000250: f12b e0be e7b4 32bf fc7e 08be fc52 3bbe
00000260: f2a1 32be fbe7 fd3e 7850 ff3e bad9 da3d
00000270: c4d6 b93e 0350 daba 042e b93d beeb ca3e
00000280: aeb9 623e 60ea 353e f087 4f3e 98f5 693e
00000290: 3710 46be dcd2 2a3d 6847 f03d 6993 7ebd
000002a0: e0b4 d73c 7939 f13d ef37 c83d e529 2fbe
000002b0: e8a9 ae3d 7fc9 623e 880b fc3e acbf 183f
000002c0: e8f1 763d 8040 743e a629 79be 15ae 13bd
000002d0: 89c1 03be 9f2a 83bd 5860 393e 990e d2bd
000002e0: 944b ecbd aaf0 343f 3bd2 a33e 1221 0d3f
000002f0: 38d9 903d 8b15 d1be 4f67 ddbd 6429 28be
00000300: 2e0e 7d3d 7d8b 933e ec8e 143e 2c41 37be
00000310: cc7f d3bd 55a0 58bf 5ab9 343e e51e a5bd
00000320: 118d 0c3d f98d 0a3e 9c6a 30be a088 60be
00000330: a44c 9e3d cc75 dabd fc1a a43e 69b7 4abe
00000340: cecd 8a3e 29b1 d93d 2c7c 003a 165e 87bd
00000350: bf97 9a3e 45c5 653d 249e 893e e2c1 c63e
00000360: 1fe4 6cbe f43f 0cbd b276 98bd 7d6f 063d
00000370: 6177 6ebe 9b88 0b3f 8a25 d13e 3b8e a83d
00000380: 73ad 1f3e 8998 f3bd c557 553c 4af3 ecbb
00000390: abfe 743e 26a6 8c3e 42db aebe 2729 fa3d
000003a0: 75f1 933e 0f1d 723e 5ff9 763d 6b9f 123e
000003b0: 0ae0 c13d e90b 5b3e fc3a 513e 8b24 413e
000003c0: c583 3d3e dba7 d73c 1940 0fbe 1633 93bd
000003d0: f710 f2bd a52f f63d fefd ff3d c35b 25bd
000003e0: ca3a f7bc 392c 7d3d 2f09 553d e593 2dbe
000003f0: 09bd 71bd ab29 633e 1648 423e ed5b 673d
-0.72308975 -0.207546 0.18068287 0.43900123 0.3352145 0.062615894 -0.12907565 -0.22560233
-0.35271856 -0.87759405 -0.3047556 0.037935026 -1.0728426 -0.51128733 -0.64235646 0.17868236
-0.17675917 0.066371486 -0.17316672 -0.12342887 -0.11217182 0.1469219 0.16147275 0.13160466
-0.19316804 -0.38947552 -0.13020912 -0.044335153 -0.6294948 0.12315126 0.023451768 0.1474442
-0.2687849 -0.05795062 0.41031086 -0.758767 -0.4200251 0.009204174 0.19672021 0.8495899
-0.009570264 0.138101 0.12042162 0.21039656 0.09427079 0.058821436 0.1626413 -0.54106134
0.022973614 -0.19974545 0.07092956 0.021155912 0.5715403 0.9757227 -0.51317716 0.19497298
-0.7546875 -0.23618524 -0.3471609 -0.036031175 -0.3249829 -0.09937352 0.08166294 0.08136437
0.5311991 -0.04961206 -0.06024828 0.19424316 -0.22905113 -0.0116245765 -0.5071683 0.15682147
-0.51196617 -0.02306908 -0.30383795 -0.049441457 -0.35663888 -0.34457055 0.04643916 -0.47931293
-0.19019473 0.11268168 -0.25400156 -0.6329372 0.554176 -0.0052672224 -0.14550991 -0.42073038
-0.1158827 0.117984675 0.20269994 -0.46052024 -0.5899479 0.042545684 0.004624691 0.06624256
-0.19771817 0.5899415 -0.21479502 -0.2620399 0.12787594 0.08558054 0.11153981 0.4949018
0.46012306 0.20747112 -0.019008705 -0.17546673 -0.37580562 0.22911215 0.06193269 -0.10361803
0.26550397 0.63185 0.039688483 0.037581094 0.28719112 0.039270643 -0.33698338 -0.49651062
-0.37722197 0.27595335 -0.32043236 -0.15036367 -0.09490567 -0.5454861 0.44177645 0.38471028
-0.07471064 -0.47741944 -0.00082222844 0.21984002 0.16346884 -0.24956818 -0.3986367 -0.6933652
0.11068819 -0.0006009839 0.41662896 -0.34670982 -0.29818925 0.22390172 -0.9098097 0.042426143
0.033920757 -0.03457648 0.018869992 0.040513415 -0.43783525 -0.69807285 -0.1332969 -0.18293375
-0.1744459 0.4959105 0.4986608 0.10686059 0.36296666 -0.0016655925 0.0904198 0.39632982
0.22141144 0.17765188 0.202667 0.22847593 -0.19342123 0.041704997 0.1173237 -0.0621523
0.026331365 0.1177854 0.097762935 -0.17105825 0.08528501 0.22147177 0.49227548 0.5966747
0.060289294 0.2385273 -0.24332294 -0.03605469 -0.12866797 -0.06404614 0.18103158 -0.102566905
-0.11537853 0.70679724 0.3199633 0.55128586 0.07072681 -0.40836748 -0.1081072 -0.1642204
0.0617811 0.2881736 0.14507645 -0.17895955 -0.1032711 -0.8461965 0.17648831 -0.08062533
0.03431422 0.13530721 -0.17228168 -0.21927118 0.07729462 -0.10666999 0.32051837 -0.19796528
0.27110142 0.10629494 0.00049013156 -0.06609742 0.30193898 0.056096334 0.26878464 0.38819796
-0.23133896 -0.034240678 -0.07444514 0.032821167 -0.23287727 0.5450532 0.40848953 0.08230253
0.1559351 -0.11894328 0.013021414 -0.0072311508 0.23925273 0.2747051 -0.34151655 0.122148804
0.28895155 0.23643897 0.060296413 0.14318626 0.0946656 0.21391262 0.20432657 0.18861596
0.18507297 0.026325157 -0.13989295 -0.07187478 -0.11819642 0.12020806 0.12499617 -0.040370714
-0.0301794 0.061809752 0.05201071 -0.16950949 -0.05901817 0.22183864 0.18972811 0.05648415

lstm.bias_ih_l0 f4 [600]
00000000: 98e9 acbe a581 80be 42a7 98be 0c15 6bbe
00000010: 9178 8d3e d15a 8fbe fc83 32bd 8310 ec3d
00000020: 6cf9 99be ea2c 16bf 61bc 0f3d 5e48 ab3e
00000030: c009 d53d b636 95be 496a 393e 6cce 2c3e
00000040: bfc4 953e 6e87 ba3e 818f 4b3e b53f 163f
00000050: f843 ffbd 032a 4ebd 3d0a 503e 3ce9 4e3e
00000060: d6b6 8cbe a210 2f3e ea00 183e d6d2 babe
00000070: e509 213e 431f ef3d 43ed 57bf 2099 58be
00000080: ad27 f6bd 1318 743e 2a3a 44be 1252 1ebf
00000090: 5fa6 19bd 925b 54bf 0ef1 833e 4c17 773e
000000a0: e1f5 efbd 2f69 68be 0540 873e e8bc b5bd
000000b0: 4369 9a3e c30b 91be feca fd3c b805 093f
000000c0: a315 833e be5c 16be 67f0 d3bc 6ea4 aebe
000000d0: f021 093f 4718 a4be 1411 60bf 11c8 003e
000000e0: d079 a33c 6b36 43be ab13 053e 047a 753e
000000f0: e763 74bd f93b ad3e 52bf 513e 0ab0 b43e
00000100: bf7a d5be 6664 fe3e 7850 16be 4cb9 953e
00000110: f4c1 343e b748 0abd d1b5 893e bb1f 87bc
00000120: fb0b 163e e66d 183f 7114 5c3e efa9 69be
00000130: 75df 0bbf 8017 d4bd 97ba 28be 0ff3 533e
00000140: e247 373e b5bf 2e3e 8f6b fe3e a317 ff3e
00000150: 9bb4 6b3e a49f 4e3e e12d 503e 9eb0 943e
00000160: ed52 08bf 3160 9c3e 88f3 5c3e f397 973e
00000170: be4b 2cbe 6d89 993e 8963 c03e 136e a13e
00000180: e103 b63e 6e64 dc3e 2b57 3a3f d467 ac3e
00000190: de1e a13e 5529 943d 18e7 0ebf b853 5a3e
000001a0: 1242 08be d498 953e e2ae 963e 9246 83bf
000001b0: 52f0 a43e 0003 18bf 8f19 9abd 8acb 433f
000001c0: 5bcc 7cbe 826d 803e 7fac 0e3d 359f 833e
000001d0: abb2 5b3e e0ab 00be 52cc d13d 4862 0fbd
000001e0: f85b 183d 1e5f 9a3e 7ece 843e e523 89be
000001f0: 5617 943e 1cff 02bf cf0f 6abe ae75 9dbe
00000200: f58d 673d 8f4f 293d c4a9 843e 437d d4bd
00000210: 0975 b43d 61f1 643d bf0e fa3e a5fb 113e
00000220: 75a2 683e 69b7 423e 14b7 8c3e a7e3 0b3f
00000230: 93a9 2d3f 7329 9e3e 7937 b13d 6616 853e
00000240: 6155 ad3d 557e 1abe 0c8f af3e 73b8 aa3e
00000250: ff5d ed3d 6ab8 763e d14e e0bd 767a 9b3d
00000260: c122 d6bd 4b20 a13d 0e53 643e 1dee 35be
00000270: eefd 033f 9324 1ebe 1964 2fbe 9f9f e43e
00000280: 9785 2bbe 6d20 e33e 274b 8bbe c12e 06be
00000290: fef8 24be c974 323e 99f6 783e 79d7 853d
000002a0: d020 9dbe 34d0 45be f19a 84be c60e 13be
000002b0: 0789 93be 1d64 2bbf 3900 4ebe dba1 d8bd
000002c0: f927 c53e c53d ff3d 0a08 32be e3ff 16be
000002d0: 5363 fabe a96f 5f3e 68c9 f2bd 504f acbc
000002e0: e6a9 b9bd 4bb3 073f b317 713e 3680 5c3e
000002f0: f08a a93e 538c 83be 8b73 e53e 7766 2cbe
00000300: 180e a93e 1c76 263d 650b 8f3e 1ba4 d03d
00000310: cdd1 043e 0165 0d3f 6140 a2be 4f50 ebbe
00000320: cd0c 14be 6c05 56be c73b 82be 3c4b 593f
00000330: e47b 9dbe c72a 51be 751d 053f b71a 523e
00000340: a038 4ebe 774e fd3e ea52 49be 4760 7f3e
00000350: 622f 8b3e 2e42 8b3e 096d febd 9607 353e
00000360: e26e a8be 6439 00bf 69e9 793e 38b4 11be
00000370: e61a 853d 1727 6dbf 4e98 6b3e 1b11 13be
00000380: bb70 853e 0d70 61be 7c15 bebe fb44 d63d
00000390: 776e 003e 14b7 453e 9394 223e 81fc e93d
000003a0: 3981 6d3e 9a4c ac3e 5f86 d2be 5db5 123f
000003b0: 75af 403e 6b94 bc3e 3b1a 8fbe c157 213e
000003c0: 5656 793e 04f9 373e 1276 0ebe f809 813e
000003d0: 27e1 863e fc26 483e 7e71 613e e61e 4b3e
000003e0: cc4b 85be 10e5 1ebe 5573 123d b001 a33c
000003f0: 3a3c a4be 0dbd 26be b202 783e d21d a63e
-0.33771968 -0.2509891 -0.29815108 -0.22957247 0.27631047 -0.27998975 -0.0435829 0.11526587
-0.30073106 -0.58662283 0.03509176 0.3345365 0.1040225 -0.29143304 0.18106951 0.16875619
0.29251668 0.3643145 0.19878961 0.5869096 -0.12464136 -0.050333034 0.20316406 0.2020616
-0.27483243 0.17096189 0.14844099 -0.3648898 0.1572643 0.116758846 -0.8434641 -0.21152163
-0.12019286 0.23837309 -0.19162813 -0.6184398 -0.03751218 -0.82952225 0.25769848 0.24129981
-0.117168196 -0.22696374 0.2641603 -0.08873922 0.30158433 -0.28329286 0.030980583 0.5352435
0.25602445 -0.14683816 -0.025871469 -0.34109825 0.5356741 -0.32049772 -0.8752606 0.1257632
0.019955546 -0.19063728 0.12995784 0.23972327 -0.059665587 0.33834818 0.20483139 0.35290557
-0.4169521 0.49685973 -0.14679134 0.29242933 0.17652112 -0.033760753 0.26896527 -0.016494622
0.14653008 0.5954269 0.21492173 -0.22818731 -0.54637843 -0.10356045 -0.16477428 0.20698188
0.17898515 0.17065318 0.49691436 0.4982272 0.23018114 0.20178086 0.20330001 0.29040998
-0.53251535 0.30542138 0.21577275 0.29608116 -0.16825768 0.2998766 0.3757594 0.31529292
0.35549834 0.43045372 0.7278926 0.33672965 0.31468862 0.07234446 -0.5582137 0.21320999
-0.13306454 0.2921816 0.294303 -1.0255911 0.322146 -0.5937958 -0.07524406 0.7648245
-0.2468733 0.25083548 0.034832474 0.25707403 0.21454875 -0.12565565 0.10244049 -0.035005838
0.037197083 0.30150694 0.2593879 -0.26785198 0.28924054 -0.51170516 -0.22857593 -0.30753845
0.056531865 0.04133564 0.2591077 -0.10375454 0.08811385 0.05589426 0.48839375 0.14256151
0.22718222 0.19015278 0.27483428 0.54644245 0.67836875 0.30890998 0.08653159 0.2599365
0.0846355 -0.15087254 0.34288824 0.3334385 0.11590194 0.24093786 -0.10952533 0.07591717
-0.104558475 0.078674875 0.22297308 -0.17766614 0.5155934 -0.1544364 -0.17128028 0.4465303
-0.16750179 0.44360676 -0.27205774 -0.13103773 -0.16110608 0.17427363 0.2431282 0.06535239
-0.30689096 -0.19317704 -0.2589946 -0.14361104 -0.2881548 -0.66949636 -0.20117272 -0.105777465
0.3850706 0.124629535 -0.17385879 -0.1474605 -0.48903903 0.21819939 -0.118548214 -0.021033913
-0.09065609 0.53007954 0.23544197 0.21533284 0.33113813 -0.25692996 0.44814715 -0.16835962
0.33018565 0.04063998 0.2793838 0.10187551 0.12970658 0.55232245 -0.31689742 -0.45959708
-0.14458008 -0.20900506 -0.25436231 0.84880424 -0.30758584 -0.20426475 0.5199807 0.20518003
-0.20138788 0.49473926 -0.19660535 0.2493907 0.27184588 0.2719893 -0.124231406 0.17678675
-0.32897097 -0.5008757 0.24405445 -0.14228904 0.06499271 -0.9263777 0.23007318 -0.14361994
0.2606257 -0.220154 -0.37125766 0.10462376 0.12542139 0.1930812 0.15876989 0.114251144
0.23193826 0.33652192 -0.41118142 0.5730799 0.18816932 0.36831984 -0.279497 0.15756132
0.24349341 0.17966086 -0.13912228 0.25202918 0.26343653 0.19546121 0.2201595 0.19836006
-0.2603439 -0.15517068 0.03575452 0.019898266 -0.320772 -0.16283055 0.24219778 0.32444626

lstm.bias_hh_l0 f4 [600]
00000000: b072 91be f41d 7ebe ba1c a4be 1d64 56be
00000010: eda4 673e c8d9 63be 10fd d53b 0423 7a3d
00000020: 87e0 a7be b0db 15bf 0a64 b23b f7c5 9e3e
00000030: 596d 0d3e 418a 9fbe 69cf 3e3e 1eaa 363e
00000040: 7a0e 9c3e 4941 a93e 1c90 6a3e 905c 193f
00000050: f340 f6bd cb82 2ebd 2717 503e 981f 163e
00000060: 6e64 86be 4aa0 043e 010e 493e d293 d5be
00000070: 8a3a 373e a1a5 153e f360 46bf 9b3b 3cbe
00000080: 626d 0bbe aa6c 913e 6352 53be 9a09 26bf
00000090: ffda 85bd 7033 58bf 10a6 773e 647a 7b3e
000000a0: 251c 03be 93b4 79be b4ea 803e a6df 05be
000000b0: 64de 993e 9999 a5be c74d 92bc 012e f63e
000000c0: 8aaf 5b3e c7d2 20be 68e6 d73b 10df 96be
000000d0: c358 f63e ca3f 8cbe 447b 54bf 05bb 953d
000000e0: 2374 0d3d 5701 3ebe 343b ee3d 48e5 713e
000000f0: e3b1 b6bd b0c4 a43e c35e 5f3e a973 b53e
00000100: ff67 e0be fbf8 fc3e dedd 4dbe b8d6 9b3e
00000110: 14ff 233e 26e5 2bbd 4d9f 903e dde0 1b3d
00000120: 921f 083e d14f 173f b02c 523e 9aaa 71be
00000130: e763 0bbf 952b d9bd f766 30be 28f7 713e
00000140: 7a88 4c3e 73d3 283e 7280 0e3f 3726 043f
00000150: 6818 4a3e 1075 1a3e 5fee 873e 6fd7 9b3e
00000160: 9776 0cbf ae2a 853e 5d3f 4e3e dcda 903e
00000170: 6b38 46be 9a05 883e 6f28 d23e c620 823e
00000180: f2c3 bd3e 9388 f03e 7cf6 3b3f 36d8 a43e
00000190: 8cb4 873e 7477 a03c 8aae 0ebf daaa 703e
000001a0: c561 0fbe 47a4 a63e 8e1e ac3e 62d1 8abf
000001b0: 1c84 9f3e 324e 0abf 00b3 1cbd bdce 473f
000001c0: 51d5 57be 7d5a 843e 9394 73bc 5bc8 7d3e
000001d0: ccee 323e 6dcb 13be e14b 803d 1793 adbc
000001e0: eaad 863d e131 983e 2700 7a3e 4aac 8ebe
000001f0: c53d a43e b676 fbbe 580e 5ebe 814a 9ebe
00000200: 0d22 7b3d 5f19 423d bafb 803e 4ca0 05be
00000210: 011a f33d 1f12 9c3d 429a dc3e 6a52 4a3e
00000220: e69a 723e e39e 603e 47e0 653e 0f12 163f
00000230: 8bc1 333f 855c 913e fe8c c73d 72bc 803e
00000240: fc6b ec3d 0ec9 1dbe 7eb6 b13e efcc 8f3e
00000250: 3b94 f93d 3aef 473e 232c ecbd 75b9 063d
00000260: c5a4 a5bd 37d8 6b3d d230 403e a150 6bbe
00000270: 1a9a fc3e 4d21 ecbd 8214 11be 3dad d93e
00000280: 981f 5ebe a35f e63e 48d5 62be 60b1 05be
00000290: d243 30be 9b10 323e 5f3e 4b3e 89ce 183d
000002a0: dd39 88be 3041 4dbe e6fc 95be d67c 25be
000002b0: 8cdb 9cbe 6ec1 2ebf a258 63be 6fa2 31be
000002c0: 4ae2 cf3e 7a4c 143e c162 21be 52b6 c2bd
000002d0: 282d d6be 0d7f 5f3e 9814 0fbe 6884 48bc
000002e0: 3405 54bd d5f2 0b3f 5661 453e 119d 613e
000002f0: a999 a13e 6014 7ebe c85a f13e 080f 1fbe
00000300: 40a5 873e b2c3 c23d 7777 953e 62cf c63d
00000310: 36af f43d 8a5e 113f d142 9cbe 6141 01bf
00000320: 53e3 1abe d6b1 5cbe 1586 6dbe 6e3c 5d3f
00000330: 18e3 92be a8dd 7bbe 6102 043f 9809 323e
00000340: 5fd8 5bbe 04b5 ec3e 2397 58be c597 8d3e
00000350: 6a0c 743e 072f 863e 2104 f9bd 26cb 6f3e
00000360: bdbb 9abe 8801 ffbe 44d0 6e3e 8657 1fbe
00000370: 0456 d93d 7080 63bf 2c26 6e3e f79d 0fbe
00000380: 2eed 553e 25b1 29be 4180 bebe ea39 ae3d
00000390: d324 1e3e 00e5 113e e8e8 223e c777 0e3e
000003a0: 1493 603e 27db 983e 9635 debe d668 0d3f
000003b0: 0065 5c3e 91c2 ae3e db71 99be 492d 243e
000003c0: afbd 633e f057 673e a4f5 04be 3417 7e3e
000003d0: aa1c 8f3e 5cce 2b3e 5e8f 6c3e 8994 323e
000003e0: 1589 94be c16a 5bbe 71e6 703d 1d8e 293c
000003f0: 5388 94be 01bd 13be a821 903e a20d c73e
-0.28407812 -0.24816114 -0.32053167 -0.20936628 0.22621508 -0.22251046 0.0065304115 0.06106855
-0.32788488 -0.5853834 0.0054440545 0.3101041 0.13811244 -0.31160167 0.18633808 0.17838332
0.30479795 0.3305762 0.22906536 0.59906864 -0.12024107 -0.042605203 0.20321332 0.1466049
-0.26248497 0.1295177 0.19634248 -0.4171434 0.17893425 0.14613964 -0.7749168 -0.18382113
-0.13615945 0.28403217 -0.20636897 -0.648584 -0.06535911 -0.8445349 0.24184442 0.24558407
-0.12803705 -0.2438529 0.25179064 -0.13073596 0.30052483 -0.32343748 -0.017859353 0.48081973
0.21453682 -0.15705405 0.006588746 -0.29467058 0.48114595 -0.27392417 -0.8300059 0.07311062
0.034534585 -0.18555199 0.11632386 0.2362262 -0.08920648 0.3218131 0.21813492 0.35439804
-0.43829343 0.49408707 -0.20104167 0.30437255 0.16015273 -0.04196658 0.28246537 0.038056243
0.13293293 0.59106165 0.2052486 -0.23600236 -0.54449314 -0.10604016 -0.17226778 0.23629439
0.19973937 0.16486911 0.5566474 0.5162081 0.19735873 0.15083718 0.2654905 0.304378
-0.54868454 0.26009125 0.20141359 0.28291976 -0.19357459 0.26566774 0.41046473 0.2541563
0.37063557 0.46979198 0.7342298 0.32196206 0.26504934 0.01958821 -0.55735075 0.23502675
-0.1400214 0.3254721 0.3361706 -1.0845149 0.3115548 -0.54025567 -0.038256645 0.7804983
-0.21077468 0.25850287 -0.014866966 0.24783461 0.17473906 -0.1443307 0.06264473 -0.021188302
0.0657614 0.29725555 0.2441412 -0.2786582 0.32078376 -0.49114007 -0.21685159 -0.30916217
0.06131177 0.047387477 0.25192052 -0.1304943 0.11870194 0.07620644 0.4308644 0.19758001
0.23691902 0.2193561 0.22448836 0.58621305 0.702172 0.283909 0.09743689 0.25143772
0.11544034 -0.15408728 0.34709543 0.2808604 0.12186476 0.19524851 -0.11531856 0.03289171
-0.08088068 0.057579245 0.18768623 -0.22979976 0.4933632 -0.11529789 -0.1416798 0.42514983
-0.2169174 0.4499484 -0.22151673 -0.13055944 -0.17213371 0.17389147 0.19848011 0.037306342
-0.26606646 -0.20044398 -0.2929451 -0.16160902 -0.3063625 -0.682639 -0.2220178 -0.1734712
0.40602332 0.14482298 -0.15760328 -0.09507431 -0.41831326 0.2182581 -0.139727 -0.012238599
-0.051762775 0.5466741 0.19275412 0.22032572 0.31562546 -0.2481246 0.47139573 -0.15533078
0.26493263 0.09509982 0.29192707 0.09707524 0.11947481 0.5678488 -0.30519727 -0.50490385
-0.1512578 -0.21552214 -0.2319568 0.86420333 -0.28688884 -0.24596274 0.5156613 0.17386472
-0.21469258 0.46231854 -0.21151404 0.27654853 0.2383286 0.26207754 -0.12158991 0.23417339
-0.30221358 -0.49805856 0.23321635 -0.15560731 0.10612109 -0.88867855 0.23256749 -0.14025103
0.20891258 -0.16571482 -0.37207225 0.0850714 0.15443735 0.14247513 0.15909159 0.13912879
0.21931106 0.298547 -0.43400258 0.5523809 0.21522903 0.34132817 -0.29969677 0.160329
0.22240327 0.22592139 -0.1298433 0.24813539 0.27951556 0.16777939 0.23101565 0.17439474
-0.29010835 -0.21427442 0.058813516 0.010348824 -0.29010257 -0.14427568 0.28150678 0.3887759

layernorm.weight f4 [150]
00000000: 0000 803f 0000 803f 0000 803f 0000 803f
00000010: 0000 803f 0000 803f 0000 803f 0000 803f
00000020: 0000 803f 0000 803f 0000 803f 0000 803f
00000030: 0000 803f 0000 803f 0000 803f 0000 803f
00000040: 0000 803f 0000 803f 0000 803f 0000 803f
00000050: 0000 803f 0000 803f 0000 803f 0000 803f
00000060: 0000 803f 0000 803f 0000 803f 0000 803f
00000070: 0000 803f 0000 803f 0000 803f 0000 803f
00000080: 0000 803f 0000 803f 0000 803f 0000 803f
00000090: 0000 803f 0000 803f 0000 803f 0000 803f
000000a0: 0000 803f 0000 803f 0000 803f 0000 803f
000000b0: 0000 803f 0000 803f 0000 803f 0000 803f
000000c0: 0000 803f 0000 803f 0000 803f 0000 803f
000000d0: 0000 803f 0000 803f 0000 803f 0000 803f
000000e0: 0000 803f 0000 803f 0000 803f 0000 803f
000000f0: 0000 803f 0000 803f 0000 803f 0000 803f
00000100: 0000 803f 0000 803f 0000 803f 0000 803f
00000110: 0000 803f 0000 803f 0000 803f 0000 803f
00000120: 0000 803f 0000 803f 0000 803f 0000 803f
00000130: 0000 803f 0000 803f 0000 803f 0000 803f
00000140: 0000 803f 0000 803f 0000 803f 0000 803f
00000150: 0000 803f 0000 803f 0000 803f 0000 803f
00000160: 0000 803f 0000 803f 0000 803f 0000 803f
00000170: 0000 803f 0000 803f 0000 803f 0000 803f
00000180: 0000 803f 0000 803f 0000 803f 0000 803f
00000190: 0000 803f 0000 803f 0000 803f 0000 803f
000001a0: 0000 803f 0000 803f 0000 803f 0000 803f
000001b0: 0000 803f 0000 803f 0000 803f 0000 803f
000001c0: 0000 803f 0000 803f 0000 803f 0000 803f
000001d0: 0000 803f 0000 803f 0000 803f 0000 803f
000001e0: 0000 803f 0000 803f 0000 803f 0000 803f
000001f0: 0000 803f 0000 803f 0000 803f 0000 803f
00000200: 0000 803f 0000 803f 0000 803f 0000 803f
00000210: 0000 803f 0000 803f 0000 803f 0000 803f
00000220: 0000 803f 0000 803f 0000 803f 0000 803f
00000230: 0000 803f 0000 803f 0000 803f 0000 803f
00000240: 0000 803f 0000 803f 0000 803f 0000 803f
00000250: 0000 803f 0000 803f
1.0 1.0 1.0 1.0 1.0 1.0 1.0 1.0
1.0 1.0 1.0 1.0 1.0 1.0 1.0 1.0
1.0 1.0 1.0 1.0 1.0 1.0 1.0 1.0
1.0 1.0 1.0 1.0 1.0 1.0 1.0 1.0
1.0 1.0 1.0 1.0 1.0 1.0 1.0 1.0
1.0 1.0 1.0 1.0 1.0 1.0 1.0 1.0
1.0 1.0 1.0 1.0 1.0 1.0 1.0 1.0
1.0 1.0 1.0 1.0 1.0 1.0 1.0 1.0
1.0 1.0 1.0 1.0 1.0 1.0 1.0 1.0
1.0 1.0 1.0 1.0 1.0 1.0 1.0 1.0
1.0 1.0 1.0 1.0 1.0 1.0 1.0 1.0
1.0 1.0 1.0 1.0 1.0 1.0 1.0 1.0
1.0 1.0 1.0 1.0 1.0 1.0 1.0 1.0
1.0 1.0 1.0 1.0 1.0 1.0 1.0 1.0
1.0 1.0 1.0 1.0 1.0 1.0 1.0 1.0
1.0 1.0 1.0 1.0 1.0 1.0 1.0 1.0
1.0 1.0 1.0 1.0 1.0 1.0 1.0 1.0
1.0 1.0 1.0 1.0 1.0 1.0 1.0 1.0
1.0 1.0 1.0 1.0 1.0 1.0

layernorm.bias f4 [150]
00000000: 0000 0000 0000 0000 0000 0000 0000 0000
00000010: 0000 0000 0000 0000 0000 0000 0000 0000
00000020: 0000 0000 0000 0000 0000 0000 0000 0000
00000030: 0000 0000 0000 0000 0000 0000 0000 0000
00000040: 0000 0000 0000 0000 0000 0000 0000 0000
00000050: 0000 0000 0000 0000 0000 0000 0000 0000
00000060: 0000 0000 0000 0000 0000 0000 0000 0000
00000070: 0000 0000 0000 0000 0000 0000 0000 0000
00000080: 0000 0000 0000 0000 0000 0000 0000 0000
00000090: 0000 0000 0000 0000 0000 0000 0000 0000
000000a0: 0000 0000 0000 0000 0000 0000 0000 0000
000000b0: 0000 0000 0000 0000 0000 0000 0000 0000
000000c0: 0000 0000 0000 0000 0000 0000 0000 0000
000000d0: 0000 0000 0000 0000 0000 0000 0000 0000
000000e0: 0000 0000 0000 0000 0000 0000 0000 0000
000000f0: 0000 0000 0000 0000 0000 0000 0000 0000
00000100: 0000 0000 0000 0000 0000 0000 0000 0000
00000110: 0000 0000 0000 0000 0000 0000 0000 0000
00000120: 0000 0000 0000 0000 0000 0000 0000 0000
00000130: 0000 0000 0000 0000 0000 0000 0000 0000
00000140: 0000 0000 0000 0000 0000 0000 0000 0000
00000150: 0000 0000 0000 0000 0000 0000 0000 0000
00000160: 0000 0000 0000 0000 0000 0000 0000 0000
00000170: 0000 0000 0000 0000 0000 0000 0000 0000
00000180: 0000 0000 0000 0000 0000 0000 0000 0000
00000190: 0000 0000 0000 0000 0000 0000 0000 0000
000001a0: 0000 0000 0000 0000 0000 0000 0000 0000
000001b0: 0000 0000 0000 0000 0000 0000 0000 0000
000001c0: 0000 0000 0000 0000 0000 0000 0000 0000
000001d0: 0000 0000 0000 0000 0000 0000 0000 0000
000001e0: 0000 0000 0000 0000 0000 0000 0000 0000
000001f0: 0000 0000 0000 0000 0000 0000 0000 0000
00000200: 0000 0000 0000 0000 0000 0000 0000 0000
00000210: 0000 0000 0000 0000 0000 0000 0000 0000
00000220: 0000 0000 0000 0000 0000 0000 0000 0000
00000230: 0000 0000 0000 0000 0000 0000 0000 0000
00000240: 0000 0000 0000 0000 0000 0000 0000 0000
00000250: 0000 0000 0000 0000
0.0 0.0 0.0 0.0 0.0 0.0 0.0 0.0
0.0 0.0 0.0 0.0 0.0 0.0 0.0 0.0
0.0 0.0 0.0 0.0 0.0 0.0 0.0 0.0
0.0 0.0 0.0 0.0 0.0 0.0 0.0 0.0
0.0 0.0 0.0 0.0 0.0 0.0 0.0 0.0
0.0 0.0 0.0 0.0 0.0 0.0 0.0 0.0
0.0 0.0 0.0 0.0 0.0 0.0 0.0 0.0
0.0 0.0 0.0 0.0 0.0 0.0 0.0 0.0
0.0 0.0 0.0 0.0 0.0 0.0 0.0 0.0
0.0 0.0 0.0 0.0 0.0 0.0 0.0 0.0
0.0 0.0 0.0 0.0 0.0 0.0 0.0 0.0
0.0 0.0 0.0 0.0 0.0 0.0 0.0 0.0
0.0 0.0 0.0 0.0 0.0 0.0 0.0 0.0
0.0 0.0 0.0 0.0 0.0 0.0 0.0 0.0
0.0 0.0 0.0 0.0 0.0 0.0 0.0 0.0
0.0 0.0 0.0 0.0 0.0 0.0 0.0 0.0
0.0 0.0 0.0 0.0 0.0 0.0 0.0 0.0
0.0 0.0 0.0 0.0 0.0 0.0 0.0 0.0
0.0 0.0 0.0 0.0 0.0 0.0

batchnorm.weight f4 [150]
00000000: de85 2d3f 88f3 9d3e b8e9 13bc 6f65 f43b
00000010: 58b6 403e 66dc fd3d 0f29 e03e 2e0c 183f
00000020: 3992 fa3e 7e38 903f c316 ff3e f180 5b3f
00000030: 7c0b cd3e 3a7d e03e 1a3f a03f dddb b03e
00000040: 89ef 923f c2c8 673f b1f7 593e bba8 1c3f
00000050: b87d d23e e3e7 a93f c9c4 a23d 4db0 963f
00000060: c34f 243f 6fb8 7d3f b0f1 283e 5e2a b03d
00000070: 43fd 263f 488e 053f 8a71 843f 249b b7bd
00000080: 4b07 c73e c6a3 463f 65cc 083f e028 983f
00000090: 356d 223f 22cd a73f 4e77 983e 4060 613f
000000a0: a93a e0be 19fd 113f 707f a73e b46c e7be
000000b0: 5094 fb3e 5fb7 b8bc d068 c33e 366e d83e
000000c0: 5a20 403e 411b db3e baf1 fa3e 864f 393f
000000d0: 9317 b43f 75e8 573f a632 813f feb9 d33e
000000e0: ce90 043f 9c98 223e 8d1e 183f 12af 483f
000000f0: a743 84bd c97c 543f 779f 993f b202 7c3e
00000100: 1725 863e 9e01 ab3e 72dd d03e 86f9 703c
00000110: 8902 213f a9be b03e f58f f23e 7fda 213f
00000120: 7f2c 183f 9514 923f 3c7b 303f 18b1 ff3e
00000130: 33ec 553f 15c5 c03c db2e 0b3f 0971 9a3f
00000140: 1e2f b63e 4d02 933e ac88 ec3e 72d1 a23f
00000150: 158b 3e3f 9c5b 043f a4c8 fc3e 8296 413f
00000160: 2dc0 0c3f d68f d53e 4f4a 3c3e f7e5 3e3f
00000170: 882b a03e fbd9 dc3e 4a8a 543c 8338 6f3f
00000180: 50c7 543e 5d2d eb3e e5a7 4d3f dfd9 773f
00000190: 1747 553e b8cf f93e 9826 d73e 0ae3 8b3e
000001a0: 0967 6b3e cedc ce3e 708f 963e f103 a73f
000001b0: e035 1e3f f454 57bb 6bcd 0f3f 4379 663f
000001c0: 34ec f4bd 7d61 0f3f 4c02 f53e a21d d93e
000001d0: 23cb a83e 2740 1f3f 7522 513f 307b 0a3f
000001e0: e028 d13e 9a6a d03e 1f19 643f 47cc 343e
000001f0: 3441 f33e 11ab 1b3f 5b2c 4e3f fb74 e63e
00000200: 4ba6 9e3e 53b8 c93e 44d8 973d 6155 06be
00000210: 375d 7d3e b431 fa3e b37b ccbe aa94 663f
00000220: 10d5 2d3e 146b 413e cb92 593e d1b7 973f
00000230: 2fef 743f 542f 033e 0475 df3f 23fb ba3e
00000240: 16e8 123f ea7c a73e a4ac a03d 36eb f43e
00000250: 085f bd3f aa29 9a3f
0.6778239 0.30849862 -0.009027891 0.007458381 0.18819559 0.12395553 0.43781325 0.59393585
0.48939684 1.126724 0.49822053 0.85743624 0.40047824 0.4384554 1.2519257 0.34542742
1.147935 0.9054071 0.21285893 0.6119496 0.4111154 1.3273891 0.0794769 1.1772553
0.64184207 0.9910955 0.16498446 0.08601831 0.65230197 0.5217023 1.0347149 -0.089651376
0.38872752 0.7759365 0.5343688 1.1887474 0.63447887 1.3109477 0.29778522 0.8803749
-0.43794754 0.5702682 0.32714415 -0.4520012 0.4913659 -0.022548376 0.38165903 0.42271584
0.18762341 0.4279423 0.49012548 0.7238697 1.4069694 0.84339076 1.0093582 0.41352838
0.51783454 0.15878528 0.59421617 0.78392136 -0.06458216 0.8300291 1.200179 0.24610403
0.26200172 0.3339967 0.4079395 0.0147079285 0.62894493 0.34520462 0.47375455 0.63224024
0.59442896 1.1412531 0.6893804 0.499398 0.83563536 0.023531476 0.5436837 1.2065746
0.35582823 0.28712693 0.46198022 1.2720168 0.7443097 0.51702285 0.49371827 0.7562028
0.54980737 0.417113 0.18387721 0.7456965 0.31283212 0.43135056 0.012972424 0.93445605
0.20779157 0.45933047 0.8033431 0.9681682 0.208279 0.4879129 0.42021632 0.27321655
0.22988524 0.40402836 0.2940631 1.3048078 0.61800957 -0.0032857032 0.5617282 0.9002878
-0.11959115 0.5600813 0.47853315 0.4240542 0.3296748 0.62207264 0.816932 0.5409422
0.40851498 0.4070633 0.8910083 0.1765605 0.47510684 0.608079 0.8053643 0.45011124
0.30986246 0.3939844 0.07414296 -0.13118507 0.2474259 0.48866045 -0.39938125 0.90070593
0.16975808 0.18888503 0.21247403 1.1852971 0.95677465 0.12811023 1.7457585 0.36519727
0.57385385 0.3271249 0.078454286 0.47835702 1.4794626 1.2043965

batchnorm.bias f4 [150]
00000000: 3db7 73bf b770 373f 60e0 213f d990 0c3f
00000010: f490 193f 12cc 313f 6d3d 253f 518b 2abf
00000020: 2524 3c3f e858 e53e bf8a 053f 2a96 a73d
00000030: 1f37 243f d266 403f 79c8 df3e 1785 8f3e
00000040: 43b7 4a3f 2740 253f 5f35 3cbf 0cba 983e
00000050: 15de 4b3f 7f17 febe 5fa7 cb3e 83a1 4dbd
00000060: eaf5 503f f7fb 083f c19d 023f f271 393f
00000070: 6637 093f bf8f 523f d23f 503f 3db8 473f
00000080: 7f30 5f3f fdcd 0d3f 34c6 5c3f 93da bd3e
00000090: 4d77 403f d282 313f 43d1 413f 45b9 c73e
000000a0: 1820 233f fc55 523f e34f f83e b405 3d3f
000000b0: 7a36 113f d604 0c3f 482b 49bf b3e3 44bf
000000c0: 2564 51bf cd76 663f 01fd 363f f486 5b3f
000000d0: 0482 a3bf e54c 66bf 0769 d83e 114f bd3d
000000e0: 1bce 273f 13cf d73e 2acd cb3e 5499 283f
000000f0: 1fa9 f83e d3c1 153f 0dab 93bf 73dd 963e
00000100: 18f3 593e 4529 263f 18ee bd3e 6c19 423f
00000110: 5d0f 24bf aa17 afbd 29e5 40bf b74c 0ebf
00000120: 23ba 3d3f 157e c53e ed58 703f 7379 3d3f
00000130: baed 093f de4c 3b3f c4a1 593f 3502 dc3e
00000140: f05b c3be 12e7 4d3e 85ed 223f 7a9e 473f
00000150: 0829 74bf 601e bf3e 631d 223f 64e7 003f
00000160: 52de 3b3f 7cad 5e3f 93fe dc3e 4a9b 503f
00000170: 38cc 55bf f563 023f 2957 2f3f 0f2e 033f
00000180: bd5a 103f 170a 713f 49a7 dd3e d9b0 123f
00000190: b523 10bb 996d 863f b4b1 4c3f 2efd 553f
000001a0: 9aea 473f 9c18 f63e e1f3 a33e 335d 453f
000001b0: 006b 1c3f 6873 113f 0a0a 3dbf 78f8 b83e
000001c0: e848 043f 8d0c 143f 1c17 ae3e 641c 0f3f
000001d0: bf31 90bf 331f 3e3f de7c 9f3e e50d 3e3f
000001e0: 7d57 6a3e f46f 2d3f f6f9 1e3f 0e2a 0b3f
000001f0: edee 033f 4f73 5e3f 733f 713f 98f2 f43e
00000200: 2fc5 323f fdfa 263f caec 1a3f 3f3a 3c3f
00000210: c0b8 e63e 2090 443f e34f 583f 5955 213f
00000220: ca64 163f a7d7 843e 2068 cd3e 1157 233f
00000230: 1ccb 213f 4312 543f d1ec 0f3f d273 093f
00000240: 2484 513f 3bcc 2b3f 9f45 493f caca 7e3e
00000250: 9763 f13e 49ea 283f
-0.95201474 0.71656364 0.63232994 0.5490852 0.59986806 0.6945201 0.64546853 -0.6661883
0.7349265 0.44794393 0.52164835 0.081829384 0.6414661 0.7515689 0.43707636 0.28031227
0.79185885 0.64551014 -0.7351894 0.29829443 0.79635745 -0.496273 0.39776132 -0.050202858
0.81625235 0.5350947 0.51021963 0.7243949 0.53600156 0.8225059 0.8134738 0.780155
0.87183374 0.5539244 0.86239934 0.3708082 0.7518204 0.6934024 0.75709933 0.39008537
0.63720846 0.8216245 0.4849845 0.7383683 0.5672375 0.5469488 -0.78581667 -0.7690994
-0.81793433 0.90025026 0.71479803 0.857528 -1.2774053 -0.8996108 0.4226763 0.09243596
0.65548867 0.42150173 0.39804965 0.6585896 0.4856653 0.5849888 -1.1536576 0.29465827
0.21284139 0.6490672 0.37095714 0.7582004 -0.6408594 -0.085494354 -0.7534967 -0.5558581
0.7411215 0.38572755 0.9388569 0.7401344 0.53878367 0.73164165 0.8501246 0.42970434
-0.3815608 0.20107678 0.63643676 0.7797619 -0.9537511 0.37327862 0.6332609 0.50353074
0.7338611 0.86983466 0.43162975 0.8148695 -0.8351474 0.5093377 0.6849237 0.51242155
0.56388456 0.9415602 0.4329169 0.573011 -0.002199394 1.0502197 0.79958653 0.83589447
0.7809235 0.4806565 0.32022002 0.77095336 0.6110077 0.5681672 -0.73843443 0.36127067
0.51673746 0.5783165 0.34002006 0.55902696 -1.1265181 0.74266356 0.31149954 0.7423995
0.22884937 0.6774895 0.6210016 0.54361045 0.51536447 0.86894697 0.9423744 0.47841334
0.6983213 0.6522673 0.6051756 0.73526376 0.45062828 0.7678242 0.844969 0.63020855
0.5874754 0.2594578 0.40118504 0.6380473 0.63200545 0.82840365 0.5622073 0.5369235
0.81842256 0.67108506 0.7862186 0.24882045 0.47146294 0.6598249

batchnorm.running_mean f4 [150]
00000000: df2a 353d a42d c8ba 9e7a 8c3b ee6e 393c
00000010: 4481 75bf 9a2d 5639 27e5 c2be ec58 4338
00000020: 17ee 1fbb 8e42 2c3e 4906 3e3f 2196 31bf
00000030: 3da8 11be 410f d2bc 9586 a93e d43e bdbe
00000040: 7b33 b7be abaf 41be f779 e83e f5ab 83bd
00000050: 4c08 d2bb 7286 413d 947e 26bf 10b6 2abf
00000060: 6302 f7ba 9180 8d3e 5706 73bf ea96 cdbb
00000070: 1aba a9bd 11fb 22bd b5c0 a13d b672 d13b
00000080: c166 75ba 6440 773f 6c93 f3bb 688d 5fbd
00000090: df79 d3bd 2765 213f 8a31 74bf 00dd d5bd
000000a0: fed1 81bc 4176 8f33 b0f9 90bd ce19 0a3d
000000b0: b1cf 77bf 4c22 753b 6808 703f b583 15bb
000000c0: 2882 3f3f 7c24 d13e d396 b2b2 b336 2c2f
000000d0: 508f 553e bf39 3b3d f2bf 433e 9a4f 3fbf
000000e0: 9dcc 87bb 3b2f 72bd 751b dabd ec9a dbbe
000000f0: aed9 5a3b 6cb2 743f 051a 6e3e 7e68 76bf
00000100: 0d2c f43b a871 77bf 080a e23b c4cd 2abf
00000110: 11e3 a1bb 229d 163c 7bdc d33b 5745 2a3f
00000120: 068b 28be cf8f 7dbe 88df 20bf 6834 03bc
00000130: 0406 1d3e b5a9 43bb fb77 ebba 4539 38bf
00000140: e9f9 6cbf 6e6a 76bf 9a36 4cbf 5eec 50be
00000150: 19e3 e13d a94b 76bf ccb0 753f 04ad 6fbe
00000160: dd02 82b7 4bce 06bf dfe1 6ebf ab4d 94be
00000170: bff9 5aba b2d5 72bf 9e14 71bf 5c4f 08bf
00000180: 3548 6dbf 8c21 46bd 0113 083f e2f3 c73e
00000190: 469d 6dbf 6712 6c3f 08cf fcb9 d577 8fb6
000001a0: 1b83 323c 43fe f5bc 4fa2 75bf dbee 6c3e
000001b0: 4d72 48be 9088 eb3b 835f e534 dfe4 37bf
000001c0: 3d82 e03c e283 70bd 60b5 69bf 526e 77bf
000001d0: 31e7 ddbb a3c0 23b7 4028 c4bc c667 2cbe
000001e0: 6bf1 913c 3494 763f d12e 95be 4be2 35be
000001f0: 406c 373f 2165 6437 49dc 503f 2149 82ba
00000200: f975 363f 12e6 9cbc f772 54bf f4e4 4bbf
00000210: 04f3 71bf c106 82bd 0139 04bf 34ab 3b3f
00000220: cd4b 65bb 8fec 76bf fdef 72bf 7f3d c5be
00000230: 2e57 80be b1b3 1c3f 5a60 fd3e 8fcc 77bf
00000240: 1380 7bbb d428 63bb b163 743f bca0 76bf
00000250: 32ba 143f 38e5 c83e
0.04423034 -0.0015272391 0.004287078 0.011317952 -0.9590037 0.00020425618 -0.38065454 4.6574438e-05
-0.0024403387 0.16822264 0.7422834 -0.69369704 -0.14224334 -0.02564204 0.3311049 -0.36961997
-0.35781464 -0.18914668 0.45405552 -0.064292826 -0.0064096805 0.047247358 -0.6503689 -0.66684055
-0.0018845316 0.2763715 -0.9493155 -0.006274094 -0.08287449 -0.039790217 0.07898084 0.0063918484
-0.000936132 0.9658263 -0.0074333455 -0.054578215 -0.103259794 0.6304497 -0.9538809 -0.10442543
-0.015847202 6.680467e-08 -0.07078874 0.033716016 -0.96801287 0.0037404476 0.93762827 -0.00228141
0.7480798 0.40848148 -2.0790514e-08 1.5662742e-10 0.2085545 0.045709368 0.1911619 -0.7473084
-0.004144265 -0.059127074 -0.10649768 -0.42891634 0.0033393907 0.9558475 0.23252113 -0.9625319
0.0074515403 -0.966578 0.0068981685 -0.66720223 -0.0049403985 0.009192737 0.0064654923 0.66512054
-0.16459283 -0.2476189 -0.6284108 -0.0080081 0.15334326 -0.0029855792 -0.0017964834 -0.71962386
-0.9256883 -0.9625615 -0.79770815 -0.20402667 0.110296436 -0.962092 0.95972896 -0.23405844
-1.5498541e-05 -0.5265853 -0.933134 -0.28965506 -0.0008353255 -0.94857323 -0.94172084 -0.5324609
-0.92688304 -0.048371837 0.53154 0.39053255 -0.92818105 0.9221558 -0.00048219436 -4.2756824e-06
0.010895516 -0.030028468 -0.9595079 0.23137991 -0.19574852 0.0071879104 4.2724068e-07 -0.71833605
0.027405852 -0.058719523 -0.9129238 -0.9665271 -0.006771945 -9.760409e-06 -0.023944974 -0.16836461
0.017815312 0.9631989 -0.2913728 -0.17762105 0.7164955 1.3613405e-05 0.8158613 -0.0009940007
0.7127376 -0.019152675 -0.8298792 -0.7964623 -0.9451144 -0.063489445 -0.5164948 0.7330811
-0.0034987808 -0.9645471 -0.94897443 -0.3852348 -0.25066513 0.6121169 0.49487573 -0.96796507
-0.0038375899 -0.0034661787 0.95464617 -0.9633901 0.5809661 0.3923738
