src/results/subject_P21/best_model.pth (torch, 481333 bytes, 15 tensors)

input_linear.weight f4 [40, 40]
0.03216493 -0.122790426 -0.009192854 -0.050765842 0.096474096 0.048950523 -0.1420545 -0.06450777
-0.08746717 -0.047127903 0.14809291 -0.10696656 0.040428028 -0.02598989 -0.037721016 -0.12033911
0.060341746 -0.05273722 -0.09874198 0.09383981 -0.11666411 0.08271895 0.14766015 0.1481886
0.020599887 0.093335524 0.04927486 0.12140192 0.131873 0.023439884 -0.0416909 -0.11996901
-0.1121905 -0.01625505 -0.068103164 0.13895811 0.08493693 -0.07483705 -0.07175595 -0.14694236
0.1496178 0.030880824 -0.028625667 -0.07976063 0.0864487 -0.067092106 -0.065903 -0.094841115
0.15573953 0.1211171 0.0798945 -0.14685225 -0.07206705 -0.15296845 0.022265255 -0.1202001
-0.13244084 -0.028638586 -0.038794167 0.10540201 -0.13507381 -0.013700888 0.028021112 -0.059242778
-0.044694223 -0.0507178 -0.15749101 -0.024466306 0.1558166 -0.10101309 0.10907443 -0.1555763
-0.08203557 0.026931211 -0.09250062 -0.08561289 0.07923156 0.096919015 -0.026540965 -0.06271058
0.15752874 0.1292337 -0.10533005 -0.103469774 0.028399706 -0.033879988 -0.07140933 0.12661631
-0.008111596 -0.100155585 0.029999465 0.085436344 0.109058335 -0.060638577 -0.13543266 -0.09985471
0.1087174 0.09127003 0.013026059 0.11283012 0.12483461 -0.03147243 0.022932261 0.115488425
0.13251485 0.103824064 -0.034153856 -0.045198537 0.034242466 -0.10722488 0.061439246 -0.031715542
-0.095765665 0.027118921 0.012799606 -0.10889576 0.09082362 -0.05483287 -0.12042464 0.06782171
-0.12116228 -0.02814813 -0.1527962 0.12046684 -0.033686765 -0.053889476 -0.085785136 0.1414582
0.066372514 0.10053243 -0.12389585 -0.0955994 -0.024669126 0.006520167 0.15111195 0.05009006
-0.07116528 -0.06570435 -0.05816333 0.12625422 0.13583352 -0.103989474 0.0010321736 0.064158395
0.024852216 -0.04378538 0.06721391 -0.045985453 -0.056343235 0.14991798 0.0717278 -0.11701693
-0.13483062 -0.15548784 -0.07327316 0.034177512 0.069827095 -0.09189609 0.051809773 -0.08586247
0.06469916 0.06741384 0.008206412 0.03699957 -0.03478185 0.08595446 0.14497732 -0.14571793
0.07145631 0.084295616 -0.0366562 0.07537408 0.0014652163 0.05135046 0.0017130226 0.076843396
0.15541689 -0.033061102 0.15037157 0.0253506 0.025809884 0.032318726 0.027204469 0.11058502
-0.09438443 0.012290299 0.058315888 0.14519243 0.054108337 -0.071799934 0.0047477484 0.061080426
0.08940518 0.120581225 0.07934505 0.102920935 -0.07261943 0.10072805 -0.119398825 -0.048235826
0.019754052 -0.14782934 0.12421049 0.15590943 0.12661003 0.026715785 0.086318016 -0.13667291
-0.101428315 0.03857796 -0.02441451 0.03751065 -0.012962267 -0.040276103 0.0899812 -0.03823042
0.008291632 -0.09067263 0.07043797 -0.09922963 -0.0043028593 -0.11414528 -0.08224983 0.08193831
0.114975676 -0.021005377 -0.0031743795 -0.11377307 0.0049485266 0.030451655 0.083227456 0.025110409
-0.008747637 -0.08989617 -0.11223896 0.031855807 -0.14151835 0.07135855 0.13263823 0.020916075
-0.1433672 -0.08242237 0.026543021 -0.031164706 0.034327745 0.037431687 0.12693237 0.09522857
-0.07373672 0.060790733 0.06047514 0.0034906715 -0.10586147 0.010340482 -0.12531006 0.15207104
00000000: 60bf 033d 8c79 fbbd a09d 16bc d8ef 4fbd
00000010: 3694 c53d 5880 483d bc76 11be a61c 84bd
00000020: fd21 b3bd 3009 41bd aba5 173e 4911 dbbd
00000030: dc97 253d c0e8 d4bc 5a81 1abd 5a74 f6bd
00000040: e828 773d fc02 58bd 3c39 cabd 162f c03d
00000050: 98ed eebd 8e68 a93d 3934 173e c1be 173e
00000060: 18c1 a83c b226 bf3d 70d4 493d 92a1 f83d
00000070: b709 073e 0005 c03c 14c4 2abd 50b2 f5bd
00000080: 22c4 e5bd 5029 85bc ac79 8bbd 094b 0e3e
00000090: 6af3 ad3d 2b44 99bd c9f4 92bd 0f78 16be
000000a0: 6935 193e c8f9 fc3c 6080 eabc 8b59 a3bd
000000b0: 040c b13d 9667 89bd 27f8 86bd 0f3c c2bd
000000c0: 2f7a 1f3e 3e0c f83d ba9f a33d 7060 16be
000000d0: e497 93bd c3a3 1cbe a065 b63c 782b f6bd
000000e0: 929e 07be 789b eabc a2e6 1ebd 02dd d73d
000000f0: ca50 0abe b079 60bc 888c e53c 8ea8 72bd
00000100: 4a11 37bd 78bd 4fbd 5345 21be 906d c8bc
00000110: 638e 1f3e f3df cebd 6a62 df3d 654f 1fbe
00000120: 4402 a8bd d89e dc3c f770 bdbd d055 afbd
00000130: 2844 a23d 7a7d c63d 706c d9bc 686e 80bd
00000140: 374f 213e d755 043e 48b7 d7bd f6e7 d3bd
00000150: 80a6 e83c bec5 0abd 0e3f 92bd b5a7 013e
00000160: 80e6 04bc 5f1e cdbd 70c1 f53c 40f9 ae3d
00000170: fa59 df3d 2860 78bd dcae 0abe a080 ccbd
00000180: 3aa7 de3d c8eb ba3d 406b 553c 7a13 e73d
00000190: 4aa9 ff3d 3ce9 00bd 70dc bb3c 3285 ec3d
000001a0: f9b1 073e b6a1 d43d eae4 0bbd 1a22 39bd
000001b0: d441 0c3d b898 dbbd b8a7 7b3d 28e8 01bd
000001c0: ca20 c4bd 8028 de3c 70b5 513c bd04 dfbd
000001d0: bc01 ba3d 6e98 60bd 32a1 f6bd 1ce6 8a3d
000001e0: ee23 f8bd e896 e6bc 9b76 1cbe 52b7 f63d
000001f0: 22fb 09bd 36bb 5cbd 1eb0 afbd 6bda 103e
00000200: 50ee 873d f2e3 cd3d 1bbd fdbd 9ec9 c3bd
00000210: e816 cabc 20a7 d53b 17bd 1a3e 3c2b 4d3d
00000220: 1abf 91bd 0190 86bd ac3c 6ebd c948 013e
00000230: f117 0b3e 6ff8 d4bd 004a 873a 7a65 833d
00000240: e096 cb3c 4c58 33bd 72a7 893d 3e5b 3cbd
00000250: 2ac8 66bd 1984 193e 06e6 923d 92a6 efbd
00000260: 0a11 0abe 3438 1fbe 3d10 96bd b8fd 0b3d
00000270: 8201 8f3d 0434 bcbd 7c36 543d aad8 afbd
00000280: fe80 843d 4410 8a3d 3074 063c dc8c 173d
00000290: 6a77 0ebd e408 b03d ef74 143e 1537 15be
000002a0: b057 923d 2ea3 ac3d d024 16bd ba5d 9a3d
000002b0: 800c c03a dc54 523d 8087 e03a 1260 9d3d
000002c0: 9b25 1f3e 146b 07bd 01fb 193e 10ac cf3c
000002d0: 406f d33c a460 043d e8db de3c 667a e23d
000002e0: a04c c1bd 405d 493c a4dc 6e3d 53ad 143e
000002f0: b4a0 5d3d d80b 93bd 0093 9b3b 782f 7a3d
00000300: 101a b73d 4af3 f63d a87f a23d 36c8 d23d
00000310: 7fb9 94bd 824a ce3d 5f87 f4bd ee92 45bd
00000320: 40d3 a13c 9360 17be 1262 fe3d b9a6 1f3e
00000330: 0fa6 013e 10db da3c 80c7 b03d fcf3 0bbe
00000340: a6b9 cfbd ec03 1e3d f000 c8bc c4a4 193d
00000350: b05f 54bc 8ef8 24bd 1048 b83d 8097 1cbd
00000360: a0d9 073c 92b2 b9bd c841 903d e738 cbbd
00000370: 00ff 8cbb 00c5 e9bd 9972 a8bd 46cf a73d
00000380: 5e78 eb3d 7813 acbc 4009 50bb db01 e9bd
00000390: 4027 a23b c075 f93c 2873 aa3d 58b4 cd3c
000003a0: 4052 0fbc 7c1b b8bd 8add e5bd 3c7b 023d
000003b0: 30ea 10be 6e24 923d 51d2 073e 3058 ab3c
000003c0: dace 12be 0fcd a8bd c070 d93c 204d ffbc
000003d0: 409b 0c3d f851 193d 8ffa 013e 3207 c33d
000003e0: 4703 97bd b4ff 783d c8b4 773d c0c3 643b
000003f0: e6cd d8bd 206b 293c 4851 00be 83b8 1b3e

input_linear.bias f4 [40]
0.13081126 -0.11615292 0.0016043931 0.038908556 -0.0016679317 0.13627411 0.08722441 0.1518011
-0.07674044 -0.09605777 0.109809205 -0.12509364 -0.007774353 0.117772326 -0.1534931 -0.087134205
0.06692034 -0.027351618 -0.07107812 -0.08926054 -0.055563882 0.13528307 0.025153056 -0.12208977
-0.101367235 -0.029698804 0.14203744 0.0941291 0.12291102 0.01790163 -0.0732764 0.085158855
0.13906683 0.15123995 -0.07579062 0.109735265 0.09328641 0.0582774 0.008292139 0.0312735
00000000: 63f3 053e 95e1 edbd 804a d23a 945e 1f3d
00000010: 809e daba 718b 0b3e b6a2 b23d bf71 1b3e
00000020: 182a 9dbd f0b9 c4bd a6e3 e03d 8c18 00be
00000030: 00c0 febb 9e32 f13d 4c2d 1dbe 6b73 b2bd
00000040: 880d 893d 8010 e0bc 6891 91bd 3bce b6bd
00000050: f496 63bd a587 0a3e c80d ce3c 340a fabd
00000060: a099 cfbd e84a f3bc 4372 113e c2c6 c03d
00000070: c6b8 fb3d 70a6 923c f011 96bd c467 ae3d
00000080: 8967 0e3e a5de 1a3e 1d38 9bbd e2bc e03d
00000090: f20c bf3d 48b4 6e3d c0db 073c a418 003d

lstm.weight_ih_l0 f4 [600, 40]
-0.1765968 0.3826771 0.2007111 0.8307825 0.45733342 0.18681866 0.20954727 -0.20087555
-0.15931807 -0.20952085 0.29139492 0.2217117 0.098860286 0.20603761 -1.2083097 -0.13406466
-0.13583517 0.32349047 0.31493607 0.17939967 0.17250404 0.20820159 -0.28426227 0.019956721
0.19168589 0.10158476 -0.17994721 -0.23421444 0.32559508 -0.24302612 0.3001441 0.21150944
0.30222258 -0.12741064 -0.28426486 -0.016982451 0.20543094 -0.2005942 -0.2329081 -1.2417475
-0.09129709 0.05678937 0.1392674 0.029297426 0.05666877 0.12183314 0.13928574 -0.10988926
-0.13581073 -0.121974714 0.06721339 -0.001783965 0.17554452 0.11410314 -0.071351975 -0.06366234
-0.014225811 0.083744034 0.09225158 0.13745673 0.12925641 0.13326478 -0.005198022 -0.001162087
0.13528202 0.020045245 0.12713797 0.1137233 0.10041425 0.0536637 0.08074529 0.11502252
0.062711805 -0.023940386 -0.010045632 0.004933753 0.12322302 -0.0197673 -0.049583297 -0.046910286
-0.1098028 0.08020983 0.120846555 0.1393954 0.10799692 0.11151163 0.09489968 -0.1196293
-0.112509646 -0.12859772 0.07267645 0.11150221 0.0807061 0.10694734 -0.06194952 -0.023331558
0.0011105259 0.079419896 0.06984473 0.108439 0.10909463 0.10857058 -0.10618276 -0.290988
0.103871815 -0.25525388 0.06412182 0.023461508 0.062476728 0.17686382 0.06530337 0.1148838
0.0819919 -0.0057683666 -0.11714774 -0.27659407 0.10277388 0.10820997 0.13198376 -0.07123101
-0.121003166 -0.006902031 0.63032407 0.26609617 -0.08376179 0.6077916 0.63025445 -0.62747747
-0.6498504 -0.60881877 0.28454036 -0.4589736 0.6505662 0.6319925 -0.14398076 0.61341846
0.16473664 0.26215348 0.24749102 0.6263644 0.6270659 0.63482904 -0.2337332 -0.49052647
0.6200832 0.1394992 0.45804262 0.4359387 0.26331437 -0.67926836 0.28330925 0.6235326
0.28585568 0.17999779 -0.2560884 -0.4817661 0.6339088 0.35153556 -0.17764154 -0.16796404
-0.124140196 0.022387708 0.15123956 0.15236269 0.053851116 0.17328238 0.17095633 -0.18167141
-0.17612217 -0.1484333 0.15398231 0.030631531 0.12040859 0.1558264 -0.15979792 -0.05508123
0.06528271 0.14420956 0.15899791 0.15655094 0.16251546 0.14982922 -0.043356407 0.05379862
0.16688621 -0.0025479074 0.059061456 0.09388848 0.14030764 -0.04466948 0.16729952 0.17095023
0.1556648 0.045132473 -0.050587654 0.049320213 0.15549375 -0.018433757 -0.0050903237 -0.1792828
-0.52225375 0.6693702 0.59418625 0.35942617 0.5869473 0.59831667 0.60802203 -0.6226832
-0.604439 -0.6215303 0.4517601 -0.21283321 0.722431 0.6006136 -0.40485457 0.8653166
-0.7759297 0.48101124 0.46914956 0.62536234 0.61093825 0.6117141 0.38515455 -0.50078416
0.6104905 0.04396828 0.6801767 0.62010396 0.4806559 -0.184458 0.44936126 0.5981995
0.4590487 -0.75429773 0.3572581 -0.47781235 0.6109777 0.40869072 0.44104794 -0.42057797
0.537433 -0.09512077 -0.2901766 -0.84168607 -0.42107797 -0.32272014 -0.315091 0.32654506
0.2975226 0.29452106 -0.53312683 -0.441398 0.03477949 -0.30705965 1.281558 0.90921825
00000000: cbd5 34be 41ee c33e 3687 4d3e 29ae 543f
00000010: 9b27 ea3e 644d 3f3e 8f93 563e 52b2 4dbe
00000020: 4724 23be a28c 56be b731 953e 6408 633e
00000030: 4377 ca3d 86fb 523e e4a9 9abf 3f48 09be
00000040: 6018 0bbe 8ba0 a53e 4d3f a13e 8cb4 373e
00000050: e6a4 303e cc32 553e d38a 91be 477c a33c
00000060: 4e49 443e ac0b d03d 1544 38be e9d5 6fbe
00000070: 66b4 a63e d7db 78be 7dac 993e ee95 583e
00000080: ebbc 9a3e ef77 02be 2a8b 91be c81e 8bbc
00000090: 7d5c 523e 9168 4dbe 767f 6ebe 95f1 9ebf
000000a0: f8f9 babd f89b 683d 1d9c 0e3e 2801 f03c
000000b0: 831d 683d a783 f93d eca0 0e3e 9f0d e1bd
000000c0: f811 0bbe e1cd f9bd 2ca7 893d efd3 e9ba
000000d0: f1c1 333e e8ae e93d fc20 92bd 6761 82bd
000000e0: 6013 69bc fe81 ab3d 65ee bc3d 75c1 0c3e
000000f0: cb5b 043e 9076 083e 2b54 aabb 2b51 98ba
00000100: 5f87 0a3e ed35 a43c 7530 023e c3e7 e83d
00000110: fca5 cd3d 78ce 5b3d c95d a53d ed90 eb3d
00000120: 0c6f 803d a11e c4bc 6f96 24bc 52ab a13b
00000130: 5a5c fc3d 08ef a1bc db17 4bbd 0025 40bd
00000140: 4ae0 e0bd 0d45 a43d 667e f73d abbd 0e3e
00000150: 7d2d dd3d 3660 e43d c35a c23d 3500 f5bd
00000160: 756b e6bd 1faf 03be 64d7 943d 455b e43d
00000170: 3d49 a53d 3507 db3d c8be 7dbd d321 bfbc
00000180: 118f 913a e6a6 a23d c10a 8f3d 4415 de3d
00000190: 016d df3d 415a de3d 5976 d9bd 61fc 94be
000001a0: bfba d43d a3b0 82be 4d52 833d 5932 c03c
000001b0: 99e7 7f3d ca1b 353e c6bd 853d 3348 eb3d
000001c0: 5feb a73d 9104 bdbb 28eb efbd bd9d 8dbe
000001d0: 1d7b d23d 309d dd3d c026 073e 90e1 91bd
000001e0: 82d0 f7bd 6f2a e2bb eb5c 213f c23d 883e
000001f0: 4d8b abbd 3b98 1b3f 5b58 213f 5da2 20bf
00000200: 995c 26bf 8cdb 1bbf 46af 913e 96fe eabe
00000210: 828b 263f 43ca 213f b16f 13be fe08 1d3f
00000220: b9b0 283e fb38 863e 496e 7d3e 6b59 203f
00000230: 6487 203f 2884 223f c257 6fbe 4926 fbbe
00000240: c6bd 1e3f e1d8 0e3e 9084 ea3e 5b33 df3e
00000250: 24d1 863e 88e4 2dbf e90d 913e d59f 1f3f
00000260: ad5b 923e 5751 383e 051e 83be 0caa f6be
00000270: d947 223f 78fc b33e aae7 35be c4fe 2bbe
00000280: 373d febd 6d66 b73c 8bde 1a3e f704 1c3e
00000290: fd92 5c3d f070 313e 2d0f 2f3e 1208 3abe
000002a0: 5f59 34be e6fe 17be 8aad 1d3e faee fa3c
000002b0: c798 f63d f590 1f3e 11a2 23be db9c 61bd
000002c0: f1b2 853d acab 133e 59d0 223e e44e 203e
000002d0: 746a 263e d56c 193e 7d96 31bd f15b 5c3d
000002e0: 38e4 2a3e cbfa 26bb 6dea 713d 9a48 c03d
000002f0: ceac 0f3e 58f7 36bd 9150 2b3e 940d 2f3e
00000300: 9866 1f3e d4dc 383d 0035 4fbd fe03 4a3d
00000310: c139 1f3e 6402 97bc bbcc a6bb e995 37be
00000320: 6cb2 05bf d85b 2b3f 971c 183f b506 b83e
00000330: 2e42 163f 482b 193f 55a7 1b3f 2b68 1fbf
00000340: 84bc 1abf 9c1c 1fbf 1a4d e73e f3f0 59be
00000350: 3df1 383f d0c1 193f 1949 cfbe 6485 5d3f
00000360: 54a3 46bf 1b47 f63e 5f34 f03e bf17 203f
00000370: 7366 1c3f 4c99 1c3f fa32 c53e 6433 00bf
00000380: 1b49 1c3f 1518 343d 0f20 2e3f 22bf 1e3f
00000390: 8818 f63e 8fe2 3cbe ae12 e63e 9a23 193f
000003a0: 6e08 eb3e a819 41bf 89ea b63e d2a3 f4be
000003b0: 0969 1c3f e93f d13e 09d1 e13e ff55 d7be
000003c0: 3695 093f aece c2bd 0792 94be bd78 57bf
000003d0: 8897 d7be 933b a5be 9c53 a1be ea30 a73e
000003e0: e254 983e 77cb 963e 007b 08bf ebfe e1be
000003f0: f074 0e3d ec36 9dbe 180a a43f 87c2 683f

lstm.weight_hh_l0 f4 [600, 150]
-0.08445334 -0.5378062 0.3598755 -0.5740322 -0.13615617 -0.31848377 0.42193788 0.11687663
-0.065331064 -0.53935975 -0.7226291 0.12033275 0.3933607 -0.12999031 -0.64866257 -0.23489326
-0.23688272 0.55556726 0.36641192 -0.54019076 0.36782488 0.02328287 0.16269419 -0.04889083
-0.41977254 0.090051994 0.13824582 -0.09599245 -0.35772753 0.2263275 0.17671165 0.4542234
-0.5777793 -0.15338668 -0.4495936 0.112540014 -0.09510903 0.42265528 0.23944539 -0.5842692
-0.41760778 0.07445171 0.31686458 -0.52381563 0.4830919 -0.039863445 0.10582015 0.2803147
-0.1710233 -0.9336526 -0.46848667 0.0066913837 -0.2166725 0.55023587 0.33714673 0.7027069
-0.524241 -0.11127672 -0.5634232 -0.5060646 0.1003111 0.31370184 -0.5936169 0.53962195
0.3488121 -0.378816 0.4232573 -0.06394738 0.09186797 0.29911867 0.19736166 -0.040236093
0.25445658 0.18211977 -0.25385207 0.25410688 0.008701454 -0.13810146 0.501016 -0.1535005
-0.2905861 0.1489397 -0.5320943 0.16998167 0.18608445 -0.8219003 0.17516917 0.42627898
-0.15771471 0.25180528 -0.2598778 -0.5460377 -0.598691 0.555824 -0.42151383 0.10983312
0.040249202 -0.0401821 -0.015994746 0.07116248 0.13484475 0.08763593 0.3485955 0.19207427
-0.0031299205 -0.9479111 -0.5523809 -0.5629022 -0.24790879 -0.5777472 -0.5512834 0.10802615
-0.5450638 0.62449527 0.0042248163 0.24641854 -0.4602224 0.16550305 0.45548218 -0.55863065
0.014473566 -0.48933977 0.35090905 -0.015993785 0.7131887 0.06904554 -0.27802753 -0.613231
-0.65509653 -0.39103886 0.05783025 -0.1060717 -0.009984768 0.0737801 -0.5210038 -0.5674754
-0.44862095 -0.127528 -0.05894722 0.4671039 0.34695116 -0.6019491 0.65252817 0.31269023
-0.040152885 -0.13140438 -0.19777727 -0.18051162 0.10833212 0.2800408 -0.09012119 -0.04573941
0.11309793 -0.051016863 -0.1165279 0.0908964 0.063857585 0.035178706 -0.073597066 -0.05476188
-0.090366356 0.018129325 0.058544353 -0.08973234 -0.032355767 -0.03590473 0.09902731 0.038932428
-0.10233975 -0.04984698 0.053815246 -0.049344864 0.026271246 -0.047762584 0.031841192 0.08861048
0.06325778 -0.06527792 -0.06872743 0.02264778 -0.081707515 0.020722615 -0.07138085 -0.04753311
-0.07869305 0.041453835 -0.08806465 0.03467022 0.03985611 -0.039354283 -0.06627695 -0.10035887
0.073625624 -0.089098975 0.06885393 -0.0012292414 0.047721144 0.074682295 -0.058115494 0.022391973
-0.087614596 0.01434561 -0.054340404 -0.014019361 0.044830162 0.1332869 -0.06836774 -0.081023134
-0.06961146 -0.11289706 -0.085652314 0.016455121 -0.10242411 -0.11523198 0.061400726 -0.03686755
-0.068314664 0.05128406 -0.11192203 -0.006505369 0.08728297 0.0430463 -0.042483363 0.023568751
0.19233006 0.06160872 0.010327895 -0.19893916 0.010096943 -0.025077041 0.063129716 0.05717613
-0.06505355 0.08935097 0.14850241 0.19491751 0.06169983 0.031764485 -0.016062569 0.08226779
-0.0997153 -0.05090746 -0.059883997 0.078597896 0.02668033 0.046048194 -0.040392254 -0.061512712
0.0092935115 0.048262417 -0.021534488 0.0720153 0.025460428 -0.093892366 -0.05228996 -0.012977176
00000000: dff5 acbd abad 09bf 9a41 b83e c6f3 12bf
00000010: 866c 0bbe 4e10 a3be 3e08 d83e 045d ef3d
00000020: 4bcc 85bd 7b13 0abf 38fe 38bf 0471 f63d
00000030: 9366 c93e 2e1c 05be c00e 26bf dc87 70be
00000040: 6291 72be a839 0e3f 589a bb3e f149 0abf
00000050: 8b53 bc3e b8bb be3c 4e99 263e c041 48bd
00000060: 6dec d6be 2e6d b83d 5090 0d3e b197 c4bd
00000070: 1028 b7be 65c2 673e e6f3 343e f88f e83e
00000080: 58e9 13bf 6611 1dbe 2231 e6be 617b e63d
00000090: 86c8 c2bd 4666 d83e 2c31 753e ab92 15bf
000000a0: b0d0 d5be 237a 983d 133c a23e c818 06bf
000000b0: d257 f73e da47 23bd 3cb8 d83d 6985 8f3e
000000c0: bb20 2fbe db03 6fbf 7cdd efbe 6543 db3b
000000d0: 65df 5dbe 42dc 0c3f 7f9e ac3e 99e4 333f
000000e0: a834 06bf 0de5 e3bd 813c 10bf 738d 01bf
000000f0: e86f cd3d 879d a03e 47f7 17bf aa24 0a3f
00000100: 8097 b23e 2cf4 c1be 2eb5 d83e d8f6 82bd
00000110: 4625 bc3d 1526 993e 2d19 4a3e 9ace 24bd
00000120: 2248 823e 9b7d 3a3e e6f8 81be 4c1a 823e
00000130: 8b90 0e3c 786a 0dbe 9642 003f 3c2f 1dbe
00000140: b4c7 94be a683 183e 5537 08bf ad0f 2e3e
00000150: ec8c 3e3e 0f68 52bf 8c5f 333e 3d41 da3e
00000160: f77f 21be 9fec 803e b40e 85be 20c9 0bbf
00000170: d043 19bf 7b4a 0e3f a9d0 d7be 30f0 e03d
00000180: 59dc 243d fc95 24bd 6a07 83bc a2bd 913d
00000190: be14 0a3e 777a b33d 1c7b b23e 1eaf 443e
000001a0: 5a1f 4dbb 4daa 72bf d668 0dbf 5c1a 10bf
000001b0: cddb 7dbe 3ee7 13bf e920 0dbf d03c dd3d
000001c0: 4d89 0bbf ecde 1f3f 5470 8a3b 2455 7c3e
000001d0: 45a2 ebbe a279 293e f634 e93e 6b02 0fbf
000001e0: 8922 6d3c be8a fabe 5aaa b33e 6605 83bc
000001f0: 8993 363f c067 8d3d a059 8ebe b5fc 1cbf
00000200: 68b4 27bf 3f36 c8be 6adf 6c3d 1f3c d9bd
00000210: 2797 23bc 051a 973d 8160 05bf 1146 11bf
00000220: a5b1 e5be b396 02be a472 71bd 3e28 ef3e
00000230: 95a3 b13e 5619 1abf 160c 273f ef18 a03e
00000240: 5a77 24bd df8e 06be 2086 4abe 0ad8 38be
00000250: 3bdd dd3d 8261 8f3e 7591 b8bd 3f59 3bbd
00000260: e39f e73d 0ff7 50bd 2ea6 eebd e427 ba3d
00000270: c4c7 823d 8c17 103d 0fba 96bd fe4d 60bd
00000280: ff11 b9bd f383 943c 34cc 6f3d 97c5 b7bd
00000290: 7b87 04bd d710 13bd d5ce ca3d 9c77 1f3d
000002a0: 8197 d1bd 592c 4cbd 606d 5c3d d71d 4abd
000002b0: cc36 d73c b3a2 43bd e96b 023d 6979 b53d
000002c0: 4c8d 813d 6eb0 85bd f8c0 8cbd d687 b93c
000002d0: 4556 a7bd 79c2 a93c 2030 92bd 14b2 42bd
000002e0: d229 a1bd 7fcb 293d 3d5b b4bd 5c02 0e3d
000002f0: 2940 233d f531 21bd 36bc 87bd f488 cdbd
00000300: 08c9 963d 8679 b6bd 4a03 8d3d 7f1e a1ba
00000310: 3f77 433d 08f3 983d 830a 6ebd 5f6f b73c
00000320: 486f b3bd d909 6b3c 0b94 5ebd 76b1 65bc
00000330: d59f 373d 5c7c 083e 6304 8cbd 75ef a5bd
00000340: 7490 8ebd 9336 e7bd 7b6a afbd e4cc 863c
00000350: bbc3 d1bd bffe ebbd 547f 7b3d 6e02 17bd
00000360: 8fe8 8bbd 3c0f 523d 6137 e5bd fe2a d5bb
00000370: 6ac1 b23d 5151 303d 0903 2ebd 4113 c13c
00000380: 2cf2 443e 6d59 7c3d 5536 293c b5b6 4bbe
00000390: a66d 253c 5e6e cdbc 274a 813d 8531 6a3d
000003a0: cc3a 85bd a4fd b63d 0411 183e 7598 473e
000003b0: f6b8 7c3d 7a1b 023d a695 83bc 047c a83d
000003c0: 8937 ccbd 5784 50bd ec48 75bd eff7 a03d
000003d0: b590 da3c 089d 3c3d 5972 25bd c1f4 7bbd
000003e0: d043 183c d0ae 453d 1869 b0bc c27c 933d
000003f0: 6392 d03c a44a c0bd ff2d 56bd 399e 54bc

lstm.bias_ih_l0 f4 [600]
0.20934978 0.120563604 0.1143994 0.6383446 0.15061574 0.6067665 -0.30121043 -0.132601
0.09220263 0.2337475 0.3388452 -0.19051157 0.02154351 0.21512283 0.27663526 0.15011753
0.28841212 0.3043661 -0.069879085 0.326776 -0.6430618 0.053376343 -0.27834198 -0.11987684
-0.20744862 -0.13078095 0.19504465 0.14939342 0.5366636 -0.29840392 -0.0915367 -0.59289104
0.20886555 0.2617292 0.44327864 -0.118251994 -0.5528974 -0.6188169 -0.44040245 0.39725024
0.2380021 0.20710346 -0.016388115 0.08003261 0.1315131 0.02596946 -0.1612091 -0.4891633
0.31827775 0.8212889 0.12461385 -0.32254863 0.2430113 -0.22209026 0.35988712 0.06738609
0.1828962 0.612854 0.27234447 0.10902868 -0.21690479 0.14918111 -0.03229392 0.6124783
-0.669627 0.06736627 0.33403125 -0.23275006 0.0207587 0.14966325 -0.27901667 0.08643383
0.12185623 0.055487722 0.49363866 0.14069872 -0.17032163 -0.7403469 -0.10388009 0.30690083
-0.42514434 0.05720949 0.21325555 0.029458812 -0.18017685 1.1063075 -0.008086579 0.21471068
-0.05987883 -0.48035067 0.35068047 0.4399378 0.53863484 -0.025588209 -0.021505797 -0.069387145
-0.4675232 -0.032327946 -0.59692717 0.006650682 -0.18894036 -0.12213249 -0.28746125 -1.7412094
0.22556852 -0.2589232 0.25035506 0.3006454 0.35513386 0.3152349 0.31256184 -0.075699605
0.22721665 0.6806435 -0.15002382 -0.4220298 0.2337609 0.09315662 0.22081575 0.37085256
-0.05061997 0.22299545 -0.35654786 -0.29792184 0.083460435 -0.09060403 -0.009026647 0.46446183
-0.18445677 0.41630277 -0.45707086 -0.20555454 0.07959703 -0.11473029 0.63413495 0.38552272
0.13604638 -0.43788785 -0.17506854 0.42725 -0.37793535 0.5109712 1.1741478 -0.13199645
-0.60112065 0.123981066 0.27382398 0.37070498 -0.12905535 -0.30471796 0.21552956 0.053682923
0.13082108 0.16478333 0.10631455 -0.054781605 -0.12780158 -0.15493877 0.20181565 0.19553307
0.5162517 -0.0997129 -0.0525709 -0.5505191 0.14772157 0.16885488 -0.23088755 0.27630806
0.21327604 0.073310286 -0.5767185 -0.11830845 -0.076262206 0.07079234 -0.41866386 -0.26694927
0.5591576 -0.1868617 0.18014053 0.1414926 0.1252314 -0.21472618 0.10445987 0.5793339
0.44888026 -0.06564572 -0.1264626 -0.12031843 -0.12415062 -0.17560564 -0.16356431 0.4265157
0.116875686 0.21793604 -0.045581304 0.4093348 -0.13163903 0.22396758 0.15946327 0.18225427
0.29452825 0.10599819 0.20256497 0.3465086 -0.13704152 0.07296864 0.12506522 0.32651812
0.2016895 -0.5412731 -0.13227145 -0.16181831 0.23906916 -0.67897916 -0.18168834 -0.080944866
0.3156457 -0.16792159 0.72800225 -0.25950035 -0.104290284 -0.04480543 -0.24212098 -0.13081147
0.19279242 -0.080852196 -0.07719358 0.08315359 -0.24933465 0.11520812 -0.2372196 -0.105084635
-0.061542194 0.47017387 -0.56259865 0.30072573 -1.1344718 -0.5989263 0.18088439 0.22002093
-0.723861 0.11530081 -0.22571841 0.37828502 0.16119717 -0.27041197 -0.10716704 0.15900543
0.29691765 0.35860693 0.10998931 -0.13593747 0.24996401 0.6242088 -0.26879528 0.4545893
00000000: ca5f 563e 0dea f63d 3c4a ea3d 8d6a 233f
00000010: 033b 1a3e 0d55 1b3f 4138 9abe 8ec8 07be
00000020: bcd4 bc3d 815b 6f3e 1e7d ad3e 7715 43be
00000030: 047c b03c 2949 5c3e 23a3 8d3e 69b8 193e
00000040: c1aa 933e e0d5 9b3e c41c 8fbd 2f4f a73e
00000050: b39f 24bf 27a1 5a3d d782 8ebe fd81 f5bd
00000060: 696d 54be 71eb 05be c9b9 473e 97fa 183e
00000070: c962 093f 66c8 98be 9877 bbbd b5c7 17bf
00000080: dae0 553e 5f01 863e 6bf5 e23e 1a2e f2bd
00000090: af8a 0dbf c96a 1ebf 6e7c e1be 6264 cb3e
000000a0: d3b6 733e ee12 543e 5e40 86bc 23e8 a33d
000000b0: 5fab 063e e8bd d43c 0014 25be 9d73 fabe
000000c0: 4df5 a23e fd3f 523f 8c35 ff3d 1825 a5be
000000d0: f4d7 783e a16b 63be 2043 b83e b801 8a3d
000000e0: 2449 3b3e 00e4 1c3f bc70 8b3e 6e4a df3d
000000f0: 4a1c 5ebe efc2 183e a146 04bd 61cb 1c3f
00000100: ad6c 2bbf 54f7 893d 2506 ab3e 0856 6ebe
00000110: 260e aa3c 5341 193e 46db 8ebe 3804 b13d
00000120: c28f f93d 1847 633d 35be fc3e 5313 103e
00000130: cb68 2ebe 6087 3dbf 16bf d4bd 1b22 9d3e
00000140: 85ac d9be 8054 6a3d aa5f 5a3e 9b53 f13c
00000150: 4880 38be 7c9b 8d3f 927d 04bc 1edd 5b3e
00000160: 8143 75bd 86f0 f5be 648c b33e 873f e13e
00000170: f9e3 093f 5d9e d1bc ed2c b0bc d91a 8ebd
00000180: 335f efbe 4f6a 04bd 38d0 18bf f7ed d93b
00000190: 9579 41be 9920 fabd 1f2e 93be f3df debf
000001a0: 6ffb 663e 9591 84be 8a2e 803e 32ee 993e
000001b0: 1bd4 b53e 7866 a13e 1b08 a03e 6508 9bbd
000001c0: 7bab 683e a73e 2e3f d89f 19be 4a14 d8be
000001d0: 045f 6f3e e6c8 be3d 861d 623e 63e0 bd3e
000001e0: e356 4fbd eb58 643e 718d b6be 3689 98be
000001f0: 4eed aa3d 9b8e b9bd 80e4 13bc f1cd ed3e
00000200: 3ce2 3cbe a325 d53e 3105 eabe e47c 52be
00000210: c503 a33d b7f7 eabd ab56 223f 3c63 c53e
00000220: be4f 0b3e d632 e0be 2b45 33be 83c0 da3e
00000230: be80 c1be 02cf 023f 7a4a 963f 142a 07be
00000240: 0be3 19bf c9e9 fd3d a832 8c3e 0bcd bd3e
00000250: 1627 04be fe03 9cbe c8b3 5c3e a0e2 5b3d
00000260: f6f5 053e f6bc 283e 71bb d93d ad62 60bd
00000270: 6bde 02be 45a8 1ebe c3a8 4e3e d239 483e
00000280: 1229 043f 4736 ccbd 9654 57bd d2ee 0cbf
00000290: 5344 173e 4be8 2c3e c96d 6cbe 4078 8d3e
000002a0: 0965 5a3e b423 963d d3a3 13bf b34b f2bd
000002b0: 5c2f 9cbd 93fb 903d 1c5b d6be 93ad 88be
000002c0: f424 0f3f ac58 3fbe c276 383e 70e3 103e
000002d0: a93c 003e 2ee1 5bbe 0eef d53d 3a4f 143f
000002e0: a2d3 e53e 4371 86bd 697f 01be 8269 f6bd
000002f0: ae42 febd f7d1 33be 677d 27be 4460 da3e
00000300: 855c ef3d a02a 5f3e 76b3 3abd 5594 d13e
00000310: 62cc 06be c257 653e 574a 233e dda0 3a3e
00000320: 68cc 963e 9415 d93d 316d 4f3e 9369 b13e
00000330: 9d54 0cbe 9570 953d 1911 003e 622d a73e
00000340: b187 4e3e e090 0abf 2b72 07be b3b3 25be
00000350: 8cce 743e 94d1 2dbf 820c 3abe 6cc6 a5bd
00000360: 509c a13e a3f3 2bbe 5b5e 3a3f 3bdd 84be
00000370: 2596 d5bd e685 37bd 90ee 77be 71f3 05be
00000380: 606b 453e d695 a5bd ab17 9ebd 6e4c aa3d
00000390: 9551 7fbe 3cf2 eb3d b2e9 72be 9d36 d7bd
000003a0: ab13 7cbd a1ba f03e 7706 10bf b9f8 993e
000003b0: 5f36 91bf 3c53 19bf c239 393e 2b4d 613e
000003c0: f44e 39bf d522 ec3d ba22 67be 93ae c13e
000003d0: df10 253e 7073 8abe 657a dbbd 52d2 223e
000003e0: 9705 983e 549b b73e 1342 e13d 3133 0bbe
000003f0: 91f6 7f3e 26cc 1f3f 899f 89be eebf e83e

lstm.bias_hh_l0 f4 [600]
0.20900923 0.11296023 0.10311689 0.6075152 0.17374206 0.60008776 -0.31557187 -0.13433643
0.0748319 0.2549325 0.35585096 -0.1836226 0.037332714 0.20073149 0.25244084 0.16250844
0.30217573 0.32507858 -0.049448855 0.35576835 -0.6566367 0.046062108 -0.2498523 -0.12265173
-0.20273833 -0.14274465 0.18560259 0.16387922 0.5261777 -0.27000245 -0.11871385 -0.583998
0.18692619 0.26254383 0.46977526 -0.11248539 -0.55319923 -0.63825625 -0.45666188 0.3818633
0.23826109 0.1969202 -0.009827687 0.076336004 0.14362895 0.048062168 -0.16238098 -0.46946535
0.35162807 0.80317044 0.13917111 -0.29311937 0.23502833 -0.1994365 0.36171684 0.06641896
0.20256627 0.6120858 0.2797841 0.08994644 -0.22249128 0.12548506 -0.011685644 0.6082071
-0.6697314 0.0647301 0.31159982 -0.23702991 0.017922195 0.13894774 -0.30727723 0.11739626
0.13615963 0.060492065 0.47380412 0.12361896 -0.14864786 -0.7188121 -0.12416081 0.3154311
-0.42438167 0.057823177 0.22729667 0.047347717 -0.18436752 1.0851991 0.023394901 0.22803196
-0.061702468 -0.46558774 0.36278424 0.42667753 0.51032674 -0.0077186804 -0.026175087 -0.056524806
-0.46967778 -0.026771247 -0.6007923 0.011801096 -0.18021868 -0.10679449 -0.279963 -1.7432333
0.23788808 -0.23711605 0.24569358 0.27739462 0.36951983 0.31122985 0.32117334 -0.09117057
0.22784072 0.6813436 -0.14387542 -0.41303605 0.23014306 0.11670868 0.22464466 0.36985362
-0.01463472 0.23776098 -0.3306782 -0.31970742 0.06943408 -0.10723425 -0.011020353 0.46994558
-0.18702789 0.41001594 -0.45442382 -0.2002784 0.08775376 -0.118417636 0.6408125 0.38144642
0.15316585 -0.4302009 -0.1737704 0.41299537 -0.36501786 0.5157655 1.1817766 -0.13065459
-0.5932592 0.11297211 0.26700664 0.34192887 -0.09410079 -0.28208774 0.2375034 0.055797275
0.12122365 0.15007922 0.11105712 -0.0657986 -0.13708282 -0.14174862 0.20305853 0.21520196
0.5057207 -0.098734334 -0.056061003 -0.5740342 0.15065815 0.17053463 -0.20387892 0.26322067
0.20147252 0.07091614 -0.58500516 -0.10111573 -0.08137968 0.07328467 -0.451712 -0.25569117
0.5772005 -0.18045993 0.1689741 0.11438715 0.14234827 -0.21556395 0.10290062 0.5905996
0.43843776 -0.079423524 -0.11629524 -0.112619676 -0.11930166 -0.1805238 -0.17853318 0.40776908
0.1306931 0.2060898 -0.05425039 0.40944195 -0.1507038 0.22686306 0.15263182 0.19207853
0.3025592 0.09525338 0.20681344 0.33355898 -0.14877638 0.060545802 0.15175426 0.2985552
0.19274531 -0.5301813 -0.107380025 -0.15561761 0.21475492 -0.67220265 -0.19447142 -0.07854194
0.30869755 -0.17453136 0.7002527 -0.2503456 -0.096903525 -0.034308936 -0.2430025 -0.15275992
0.20334202 -0.092788026 -0.080774255 0.09622033 -0.26688176 0.09517969 -0.22366183 -0.07657007
-0.07007129 0.495686 -0.5699607 0.2889126 -1.1590174 -0.6168017 0.17575939 0.23370713
-0.75471926 0.09087226 -0.22476459 0.3554837 0.1497188 -0.25332248 -0.09622124 0.15523563
0.32143438 0.36843672 0.09546027 -0.11894624 0.26364338 0.6365665 -0.2824271 0.4252687
00000000: 8406 563e b157 e73d f32e d33d 1e86 1b3f
00000010: 70e9 313e 5a9f 193f a392 a1be 7d8f 09be
00000020: 7841 993d 8386 823e 1932 b63e 9007 3cbe
00000030: 30ea 183d 8e8c 4d3e ed3f 813e 9d68 263e
00000040: c7b6 9a3e b370 a63e e28a 4abd 4527 b63e
00000050: 5819 28bf 9fab 3c3d 48d9 7fbe d530 fbbd
00000060: a39a 4fbe a72b 12be 9b0e 3e3e f4cf 273e
00000070: 95b3 063f c33d 8abe 3f20 f3bd e580 15bf
00000080: 9469 3f3e 256c 863e 6286 f03e bd5e e6bd
00000090: 779e 0dbf c364 23bf 96cf e9be 9683 c33e
000000a0: b7fa 733e 73a5 493e 4f04 21bc 0d56 9c3d
000000b0: 7813 133e d6dc 443d 3347 26be c35d f0be
000000c0: 9808 b43e 949c 4d3f df82 0e3e be13 96be
000000d0: 44ab 703e 1539 4cbe f332 b93e aa06 883d
000000e0: 886d 4f3e a8b1 1c3f dd3f 8f3e d735 b83d
000000f0: c1d4 63be 287f 003e 2575 3fbc 76b3 1b3f
00000100: 8473 2bbf 3791 843d 038a 9f3e f8b7 72be
00000110: 91d1 923c 5148 0e3e 7153 9dbe 736d f03d
00000120: 6e6d 0b3e 87c6 773d 7496 f23e f02b fd3d
00000130: 2537 18be 1204 38bf 0648 febd 2f80 a13e
00000140: 8e48 d9be ffd7 6c3d 75c0 683e aeef 413d
00000150: d7ca 3cbe cee7 8a3f aaa6 bf3c 3681 693e
00000160: babb 7cbd 8461 eebe dbbe b93e 7a75 da3e
00000170: c6a4 023f fcec fcbb 236d d6bc 8e86 67bd
00000180: 9b79 f0be 604f dbbc 86cd 19bf 6259 413c
00000190: 3f8b 38be 12b7 dabd 4f57 8fbe 4522 dfbf
000001a0: ef98 733e 8dce 72be 1997 7b3e ab06 8e3e
000001b0: b431 bd3e 8559 9f3e d570 a43e a3b7 babd
000001c0: 144f 693e 896c 2e3f 1454 13be 7679 d3be
000001d0: 9faa 6b3e f604 ef3d 4009 663e 745d bd3e
000001e0: 77c6 6fbc 9d77 733e a74e a9be b1b0 a3be
000001f0: 7433 8e3d a19d dbbd b68e 34bc b59c f03e
00000200: 3d84 3fbe 9ced d13e 3daa e8be c815 4dbe
00000210: 3eb8 b33d f284 f2bd 4a0c 243f f24c c33e
00000220: 82d7 1c3e 4b43 dcbe def0 31be 2174 d33e
00000230: 9fe3 babe 3509 043f 7544 973f 51ca 05be
00000240: d6df 17bf ec5d e73d 18b5 883e 4d11 af3e
00000250: eab7 c0bd ce6d 90be 1734 733e af8b 643d
00000260: 1b44 f83d 5eae 193e ea71 e33d 6bc1 86bd
00000270: 705f 0cbe 8d26 11be 93ee 4f3e e75d 5c3e
00000280: e976 013f 3a35 cabd 39a0 65bd e8f3 12bf
00000290: 2146 1a3e a1a0 2e3e a3c5 50be dcc4 863e
000002a0: d04e 4e3e 7b3c 913d e6c2 15bf c415 cfbd
000002b0: 64aa a6bd 4616 963d cc46 e7be f4e9 82be
000002c0: 69c3 133f 7dca 38be 8c07 2d3e cf43 ea3d
000002d0: bfc3 113e ccbc 5cbe 8fbd d23d 8931 173f
000002e0: ea7a e03e cda8 a2bd 332c eebd 25a5 e6bd
000002f0: 6e54 f4bd 3bdb 38be 67d1 36be 1cc7 d03e
00000300: 69d4 053e 3409 533e a835 5ebd 60a2 d13e
00000310: 1952 1abe ca4e 683e 844b 1c3e 3cb0 443e
00000320: 0ae9 9a3e 3414 c33d e7c6 533e 3ec8 aa3e
00000330: d658 18be e0fe 773d 7865 1b3e 3adc 983e
00000340: 075f 453e f6b9 07bf 0fea dbbd 395a 1fbe
00000350: b7e8 5b3e 7915 2cbf 8423 47be 99da a0bd
00000360: 9b0d 9e3e 59b8 32be c343 333f 4c2d 80be
00000370: 5b75 c6bd 8787 0cbd a6d5 78be 196d 1cbe
00000380: e438 503e a607 bebd f96c a5bd 2a0f c53d
00000390: baa4 88be 92ed c23d 9b07 65be c5d0 9cbd
000003a0: 8981 8fbd 8eca fd3e f2e8 11bf 5aec 933e
000003b0: af5a 94bf b7e6 1dbf 45fa 333e ec50 6f3e
000003c0: 4835 41bf 3c1b ba3d b028 66be f601 b63e
000003d0: e34f 193e 7cb3 81be a40f c5bd 17f6 1e3e
000003e0: 0c93 a43e bda3 bc3e ad80 c33d 169a f3bd
000003f0: 44fc 863e 06f6 223f 499a 90be d2bc d93e

layernorm.weight f4 [150]
1.0 1.0 1.0 1.0 1.0 1.0 1.0 1.0
1.0 1.0 1.0 1.0 1.0 1.0 1.0 1.0
1.0 1.0 1.0 1.0 1.0 1.0 1.0 1.0
1.0 1.0 1.0 1.0 1.0 1.0 1.0 1.0
1.0 1.0 1.0 1.0 1.0 1.0 1.0 1.0
1.0 1.0 1.0 1.0 1.0 1.0 1.0 1.0
1.0 1.0 1.0 1.0 1.0 1.0 1.0 1.0
1.0 1.0 1.0 1.0 1.0 1.0 1.0 1.0
1.0 1.0 1.0 1.0 1.0 1.0 1.0 1.0
1.0 1.0 1.0 1.0 1.0 1.0 1.0 1.0
1.0 1.0 1.0 1.0 1.0 1.0 1.0 1.0
1.0 1.0 1.0 1.0 1.0 1.0 1.0 1.0
1.0 1.0 1.0 1.0 1.0 1.0 1.0 1.0
1.0 1.0 1.0 1.0 1.0 1.0 1.0 1.0
1.0 1.0 1.0 1.0 1.0 1.0 1.0 1.0
1.0 1.0 1.0 1.0 1.0 1.0 1.0 1.0
1.0 1.0 1.0 1.0 1.0 1.0 1.0 1.0
1.0 1.0 1.0 1.0 1.0 1.0 1.0 1.0
1.0 1.0 1.0 1.0 1.0 1.0
00000000: 0000 803f 0000 803f 0000 803f 0000 803f
00000010: 0000 803f 0000 803f 0000 803f 0000 803f
00000020: 0000 803f 0000 803f 0000 803f 0000 803f
00000030: 0000 803f 0000 803f 0000 803f 0000 803f
00000040: 0000 803f 0000 803f 0000 803f 0000 803f
00000050: 0000 803f 0000 803f 0000 803f 0000 803f
00000060: 0000 803f 0000 803f 0000 803f 0000 803f
00000070: 0000 803f 0000 803f 0000 803f 0000 803f
00000080: 0000 803f 0000 803f 0000 803f 0000 803f
00000090: 0000 803f 0000 803f 0000 803f 0000 803f
000000a0: 0000 803f 0000 803f 0000 803f 0000 803f
000000b0: 0000 803f 0000 803f 0000 803f 0000 803f
000000c0: 0000 803f 0000 803f 0000 803f 0000 803f
000000d0: 0000 803f 0000 803f 0000 803f 0000 803f
000000e0: 0000 803f 0000 803f 0000 803f 0000 803f
000000f0: 0000 803f 0000 803f 0000 803f 0000 803f
00000100: 0000 803f 0000 803f 0000 803f 0000 803f
00000110: 0000 803f 0000 803f 0000 803f 0000 803f
00000120: 0000 803f 0000 803f 0000 803f 0000 803f
00000130: 0000 803f 0000 803f 0000 803f 0000 803f
00000140: 0000 803f 0000 803f 0000 803f 0000 803f
00000150: 0000 803f 0000 803f 0000 803f 0000 803f
00000160: 0000 803f 0000 803f 0000 803f 0000 803f
00000170: 0000 803f 0000 803f 0000 803f 0000 803f
00000180: 0000 803f 0000 803f 0000 803f 0000 803f
00000190: 0000 803f 0000 803f 0000 803f 0000 803f
000001a0: 0000 803f 0000 803f 0000 803f 0000 803f
000001b0: 0000 803f 0000 803f 0000 803f 0000 803f
000001c0: 0000 803f 0000 803f 0000 803f 0000 803f
000001d0: 0000 803f 0000 803f 0000 803f 0000 803f
000001e0: 0000 803f 0000 803f 0000 803f 0000 803f
000001f0: 0000 803f 0000 803f 0000 803f 0000 803f
00000200: 0000 803f 0000 803f 0000 803f 0000 803f
00000210: 0000 803f 0000 803f 0000 803f 0000 803f
00000220: 0000 803f 0000 803f 0000 803f 0000 803f
00000230: 0000 803f 0000 803f 0000 803f 0000 803f
00000240: 0000 803f 0000 803f 0000 803f 0000 803f
00000250: 0000 803f 0000 803f

layernorm.bias f4 [150]
0.0 0.0 0.0 0.0 0.0 0.0 0.0 0.0
0.0 0.0 0.0 0.0 0.0 0.0 0.0 0.0
0.0 0.0 0.0 0.0 0.0 0.0 0.0 0.0
0.0 0.0 0.0 0.0 0.0 0.0 0.0 0.0
0.0 0.0 0.0 0.0 0.0 0.0 0.0 0.0
0.0 0.0 0.0 0.0 0.0 0.0 0.0 0.0
0.0 0.0 0.0 0.0 0.0 0.0 0.0 0.0
0.0 0.0 0.0 0.0 0.0 0.0 0.0 0.0
0.0 0.0 0.0 0.0 0.0 0.0 0.0 0.0
0.0 0.0 0.0 0.0 0.0 0.0 0.0 0.0
0.0 0.0 0.0 0.0 0.0 0.0 0.0 0.0
0.0 0.0 0.0 0.0 0.0 0.0 0.0 0.0
0.0 0.0 0.0 0.0 0.0 0.0 0.0 0.0
0.0 0.0 0.0 0.0 0.0 0.0 0.0 0.0
0.0 0.0 0.0 0.0 0.0 0.0 0.0 0.0
0.0 0.0 0.0 0.0 0.0 0.0 0.0 0.0
0.0 0.0 0.0 0.0 0.0 0.0 0.0 0.0
0.0 0.0 0.0 0.0 0.0 0.0 0.0 0.0
0.0 0.0 0.0 0.0 0.0 0.0
00000000: 0000 0000 0000 0000 0000 0000 0000 0000
00000010: 0000 0000 0000 0000 0000 0000 0000 0000
00000020: 0000 0000 0000 0000 0000 0000 0000 0000
00000030: 0000 0000 0000 0000 0000 0000 0000 0000
00000040: 0000 0000 0000 0000 0000 0000 0000 0000
00000050: 0000 0000 0000 0000 0000 0000 0000 0000
00000060: 0000 0000 0000 0000 0000 0000 0000 0000
00000070: 0000 0000 0000 0000 0000 0000 0000 0000
00000080: 0000 0000 0000 0000 0000 0000 0000 0000
00000090: 0000 0000 0000 0000 0000 0000 0000 0000
000000a0: 0000 0000 0000 0000 0000 0000 0000 0000
000000b0: 0000 0000 0000 0000 0000 0000 0000 0000
000000c0: 0000 0000 0000 0000 0000 0000 0000 0000
000000d0: 0000 0000 0000 0000 0000 0000 0000 0000
000000e0: 0000 0000 0000 0000 0000 0000 0000 0000
000000f0: 0000 0000 0000 0000 0000 0000 0000 0000
00000100: 0000 0000 0000 0000 0000 0000 0000 0000
00000110: 0000 0000 0000 0000 0000 0000 0000 0000
00000120: 0000 0000 0000 0000 0000 0000 0000 0000
00000130: 0000 0000 0000 0000 0000 0000 0000 0000
00000140: 0000 0000 0000 0000 0000 0000 0000 0000
00000150: 0000 0000 0000 0000 0000 0000 0000 0000
00000160: 0000 0000 0000 0000 0000 0000 0000 0000
00000170: 0000 0000 0000 0000 0000 0000 0000 0000
00000180: 0000 0000 0000 0000 0000 0000 0000 0000
00000190: 0000 0000 0000 0000 0000 0000 0000 0000
000001a0: 0000 0000 0000 0000 0000 0000 0000 0000
000001b0: 0000 0000 0000 0000 0000 0000 0000 0000
000001c0: 0000 0000 0000 0000 0000 0000 0000 0000
000001d0: 0000 0000 0000 0000 0000 0000 0000 0000
000001e0: 0000 0000 0000 0000 0000 0000 0000 0000
000001f0: 0000 0000 0000 0000 0000 0000 0000 0000
00000200: 0000 0000 0000 0000 0000 0000 0000 0000
00000210: 0000 0000 0000 0000 0000 0000 0000 0000
00000220: 0000 0000 0000 0000 0000 0000 0000 0000
00000230: 0000 0000 0000 0000 0000 0000 0000 0000
00000240: 0000 0000 0000 0000 0000 0000 0000 0000
00000250: 0000 0000 0000 0000

batchnorm.weight f4 [150]
0.4345972 0.13419595 0.16550066 0.024473839 0.081679255 -0.23331934 0.19807933 0.30170956
0.596478 -0.013294126 -0.18764508 0.00473669 0.360832 -0.10164513 -0.07437518 0.0325562
0.44558144 1.7035601 -0.096346855 0.33361557 1.1643748 0.10032886 -0.034293763 0.8103543
-2.2138789 0.23186754 1.1260945 0.90923125 0.93332654 0.16148849 -0.17823815 1.2520847
0.09579731 0.2898931 1.2843155 0.20059471 0.51421577 1.0521922 0.16393451 0.25243768
-0.030102976 0.8720301 0.876595 0.12975682 -0.1065372 0.68081 0.0029258889 -0.70064455
-0.5656777 -0.17612934 -0.07709462 0.31464538 0.6216912 1.9247153 0.16962959 -0.66813076
0.31650817 1.6426232 0.23744743 0.19760664 0.20420268 0.9012177 -0.25232565 1.7666909
1.596131 0.5831794 0.454895 -0.21633 0.19762257 0.052836597 0.44105712 0.30395898
1.0297065 -0.98439646 -0.31759858 0.17576016 0.29569522 0.30810246 2.046387 0.59530103
0.479798 0.5597427 0.14278227 1.5027629 0.6896593 0.27978984 -0.31921145 0.76149875
0.033809215 0.57208866 0.910482 1.135808 0.12848562 1.8161212 -0.8276323 0.09342014
0.6973195 0.41198027 0.6618706 0.14025639 0.29665983 0.4670696 0.45088547 0.75388193
-0.122803144 -0.033278912 -0.15482584 0.41044256 -0.27912697 -0.14596152 0.3851189 0.25910917
-0.16134621 0.93588173 0.12103647 0.32301736 0.40269068 0.4401991 0.050613146 -0.111395374
0.48769292 0.20298254 1.8871086 -0.19649486 -0.17588033 -0.35961786 0.55707943 -0.42251152
0.3414933 0.19787763 0.28476864 0.27773044 0.72149646 0.0235702 0.41486472 0.32030675
0.48280758 0.34272662 0.3137502 1.2178586 1.2695267 0.07243778 0.7052857 -0.0026445806
0.66854805 -0.79604906 1.1161547 0.31594545 0.27357048 0.18676326
00000000: 8683 de3e aa6a 093e 0179 293e 5c7d c83c
00000010: 7447 a73d 44eb 6ebe 4fd5 4a3e ad79 9a3e
00000020: c8b2 183f 9bcf 59bc 0826 40be 3c36 9b3b
00000030: f9be b83e 522b d0bd 0452 98bd a659 053d
00000040: 4023 e43e 420e da3f 8051 c5bd a9cf aa3e
00000050: 3c0a 953f 3879 cd3d 9e77 0cbd 6173 4f3f
00000060: 31b0 0dc0 af6e 6d3e dd23 903f 61c3 683f
00000070: 7dee 6e3f 3d5d 253e 1084 36be 5044 a03f
00000080: 6131 c43d de6c 943e 7364 a43f b368 4d3e
00000090: a5a3 033f 3cae 863f 73de 273e 833f 813e
000000a0: 849a f6bc 5d3d 5f3f 8868 603f f9de 043e
000000b0: 2d30 dabd 9049 2e3f 45c0 3f3b 715d 33bf
000000c0: 41d0 10bf 405b 34be c9e3 9dbd 3319 a13e
000000d0: 2827 1f3f 125d f63f 61b3 2d3e 9e0a 2bbf
000000e0: 5c0d a23e 7a41 d23f 6b25 733e 6559 4a3e
000000f0: 821a 513e 34b6 663f d430 81be ed22 e23f
00000100: 054e cc3f 3f4b 153f ffe7 e83e 9d85 5dbe
00000110: 925d 4a3e 306b 583d 3dd2 e13e 83a0 9b3e
00000120: 6ccd 833f 6801 7cbf 489c a2be 79fa 333e
00000130: 5d65 973e 9bbf 9d3e 01f8 0240 a665 183f
00000140: 15a8 f53e 4c4b 0f3f 8435 123e 895a c03f
00000150: 838d 303f 9d40 8f3e af6f a3be 95f1 423f
00000160: 887b 0a3d 6774 123f 5915 693f 2862 913f
00000170: bc91 033e a976 e83f b6df 53bf 0f53 bf3d
00000180: 8883 323f 14ef d23e 5a70 293f 5f9f 0f3e
00000190: cce3 973e bf23 ef3e 76da e63e 68fe 403f
000001a0: 3780 fbbd 784f 08bd aa8a 1ebe 8725 d23e
000001b0: bbe9 8ebe f076 15be 4e2e c53e f5a9 843e
000001c0: f137 25be f295 6f3f f8e1 f73d 8862 a53e
000001d0: 792d ce3e c761 e13e bb4f 4f3d 4223 e4bd
000001e0: e3b2 f93e a8da 4f3e c68c f13f f335 49be
000001f0: f919 34be d51f b8be c29c 0e3f 6e53 d8be
00000200: 36d8 ae3e 6fa0 4a3e 32cd 913e af32 8e3e
00000210: feb3 383f 4b16 c13c 2669 d43e 3fff a33e
00000220: 8e32 f73e dd79 af3e dea3 a03e cae2 9b3f
00000230: da7f a23f 425a 943d 9b8d 343f b350 2dbb
00000240: f725 2b3f dfc9 4bbf 28de 8e3f 9ac3 a13e
00000250: 6e11 8c3e de3e 3f3e

batchnorm.bias f4 [150]
0.8447505 0.25483635 0.7405255 1.0779537 0.99039584 0.8154726 0.32892105 0.92059344
0.75005215 0.39382818 0.8611046 1.026498 0.54392225 0.8042992 0.6786898 0.9654122
0.977989 0.60980135 0.8370966 0.39586228 0.7533247 0.47733244 0.7129603 0.86488616
0.4335995 1.0433526 -1.2203674 0.7862301 1.1858954 0.69944376 0.89547676 0.39582562
0.51095164 0.42418188 -0.19086902 1.1610698 -0.6116881 0.15745685 0.99440557 0.616108
0.7555156 0.783818 0.37428153 0.6400174 0.8943878 0.8211667 0.78579956 1.1137617
0.94925225 0.56898856 0.6953924 0.83884907 1.229906 0.1605761 1.0997926 -1.0939411
0.49382684 -0.10162055 0.0535145 -0.057407044 0.7611837 0.5873101 0.59424883 0.5612656
0.6041203 0.9220133 0.7667441 -0.6341609 1.0394889 0.72826993 0.6216156 0.70838696
-1.1597111 0.6489058 1.0723816 0.40862316 1.2900733 1.1604241 0.08418686 0.9765761
-0.9601372 -0.16133887 0.5726077 -0.9497205 0.7206123 0.7034281 0.87239885 0.6345952
0.74734443 0.82170457 0.020054122 -0.27959523 0.35724482 0.34101108 1.2110139 0.6686257
-1.0463722 0.7249175 -0.7475132 0.63822365 0.6771987 -0.8853646 0.3782357 1.0195925
0.7736237 0.5783303 0.7607844 0.41242343 0.76471806 1.0015502 0.7620674 1.0022466
0.8425604 0.8934011 -0.8346297 0.74152803 0.84023494 -0.35439548 0.46573302 0.8122596
0.930217 0.38873369 0.27119598 0.79491884 -0.8764931 0.65611273 0.056396723 1.0235845
0.60413057 1.0470221 -0.8244886 0.70226055 0.50813824 0.8189495 0.40214938 0.35211658
0.63753027 0.9794391 0.9895123 0.82926524 0.46036687 0.92199105 -0.7563946 0.51688105
0.7581724 0.9591453 0.5643091 0.60911655 0.92986727 0.74990296
00000000: 9241 583f e979 823e 1493 3d3f 63fa 893f
00000010: 958a 7d3f d0c2 503f 5768 a83e 03ac 6b3f
00000020: 6b03 403f d9a3 c93e 5a71 5c3f 4964 833f
00000030: 7d3e 0b3f 8de6 4d3f 9dbe 2d3f 4125 773f
00000040: 7d5d 7a3f f11b 1c3f f64b 563f 76ae ca3e
00000050: e3d9 403f eb64 f43e 9184 363f 2e69 5d3f
00000060: c100 de3e 948c 853f 0035 9cbf 6046 493f
00000070: 6ccb 973f bf0e 333f f73d 653f a8a9 ca3e
00000080: bacd 023f 5e2e d93e 2b73 43be ef9d 943f
00000090: 9797 1cbf 5e3c 213e 5d91 7e3f 41b9 1d3f
000000a0: 7869 413f 4ca8 483f d4a1 bf3e 2ed8 233f
000000b0: 99f6 643f fb37 523f 292a 493f be8f 8e3f
000000c0: 3202 733f 3ca9 113f 3c05 323f d0be 563f
000000d0: 8f6d 9d3f 106e 243e 01c6 8c3f 4306 8cbf
000000e0: dfd6 fc3e 6f1e d0bd 0532 5b3d a623 6bbd
000000f0: efdc 423f f459 163f b120 183f 1aaf 0f3f
00000100: a1a7 1a3f 1009 6c3f 5749 443f 5e58 22bf
00000110: f90d 853f e66f 3a3f 3322 1f3f d958 353f
00000120: 6a71 94bf b11e 263f cd43 893f 0e37 d13e
00000130: 1f21 a53f c788 943f 296a ac3d e400 7a3f
00000140: 8dcb 75bf 0436 25be 6b96 123f e220 73bf
00000150: 0c7a 383f dd13 343f 8855 5f3f d574 223f
00000160: f751 3f3f 3b5b 523f 8b48 a43c 1b27 8fbe
00000170: cbe8 b63e 0199 ae3e 8102 9b3f 0e2b 2b3f
00000180: 86ef 85bf 3194 393f 065d 3fbf a062 233f
00000190: e55c 2d3f 41a7 62bf 1ca8 c13e 0282 823f
000001a0: 340c 463f 740d 143f c4c2 423f 2a29 d33e
000001b0: 90c4 433f cc32 803f d916 433f 9e49 803f
000001c0: 0ab2 573f efb5 643f 4baa 55bf c8d4 3d3f
000001d0: a319 573f 5373 b5be 8f74 ee3e 3ff0 4f3f
000001e0: b422 6e3f 1a08 c73e 33da 8a3e cd7f 4b3f
000001f0: da61 60bf 01f7 273f 4000 673d d104 833f
00000200: 4da8 1a3f d204 863f af11 53bf 59c7 333f
00000210: 5915 023f ada6 513f 86e6 cd3e a048 b43e
00000220: 2f35 233f 85bc 7a3f ae50 7d3f ba4a 543f
00000230: 35b5 eb3e 9b07 6c3f 14a3 41bf 5152 043f
00000240: 9617 423f 8c8a 753f 9076 103f 10ef 1b3f
00000250: c80b 6e3f a4f9 3f3f

batchnorm.running_mean f4 [150]
0.95534986 -0.9234449 -0.01934485 0.9566266 -0.7566496 0.917095 0.0007567443 1.1094414e-06
-0.055173967 -0.96242213 -0.93127525 -0.011405635 0.017250502 -0.7471232 -0.9647347 -0.94965684
-0.2206694 0.40041572 0.05220241 -0.96177506 0.0122929 -0.0013155303 0.0011135715 -0.04848277
-0.375979 1.2154043e-06 0.1385174 -0.12061089 -0.14282599 -0.0059069693 0.005069812 0.32479733
-0.9508335 0.9199248 -0.8802945 -0.00027033497 -0.0006514186 0.23942569 -6.5715336e-05 -0.92405385
-0.7338102 0.38055563 0.7646253 -0.9678627 0.024719445 -0.053075418 -0.008127081 0.014887032
-0.6888701 -0.96223015 -0.9439367 -0.0003490002 0.66888714 0.57224256 0.7051913 0.93960005
-0.9229344 -0.8681429 -0.9597691 -0.7415367 9.08863e-07 -0.0019875674 -0.90409833 0.85007936
0.52919066 -0.08570576 0.96417695 1.880794e-07 -0.036011845 -0.027144715 6.251274e-09 -0.013922992
0.75622475 0.06444506 -0.36571693 -0.92355824 -0.003072 -0.0030750465 0.21026754 -0.0725623
-0.005168352 -0.001406232 -0.7624476 0.42506206 -0.0062261345 -0.965963 -0.72780454 0.076347485
-0.0012135234 -0.01765131 -0.6572683 -0.8271104 -0.76117563 0.52915156 -0.83700407 1.04519636e-07
2.2505557e-05 -0.013005851 -0.0038821793 -0.8248832 -0.0013984533 8.958882e-12 0.001531226 0.0119093
-0.74080116 -0.029134415 -0.96520394 -0.96358 -0.9079032 -0.9411234 -0.9682411 -0.0054492694
-0.96625084 0.94342536 -1.2312918e-06 -0.035207756 -0.9498875 0.008556328 0.0045286757 -0.95729446
0.6609643 -0.96241784 0.31490186 0.00043311418 0.93906975 -0.0015690577 -0.39581367 -0.9319992
-0.05903905 -0.09342852 -0.00084989535 -0.0015358959 -0.07829721 1.1246767e-05 -0.9706063 -0.961318
-0.29368603 -0.0015929379 -0.016083416 0.9310403 0.19911733 -0.9524015 0.96240216 -4.6935108e-07
-0.009871809 0.21355525 -0.022178134 -0.4438217 -1.9619998e-11 -0.0015251366
00000000: cf91 743f e366 6cbf 1779 9ebc 7be5 743f
00000010: cab3 41bf bdc6 6a3f 4060 463a 1ee8 9435
00000020: 19fe 61bd 4c61 76bf 0e68 6ebf b3de 3abc
00000030: ed50 8d3c 7743 3fbf daf8 76bf b61c 73bf
00000040: 29f7 61be 4a03 cd3e 32d2 553d e436 76bf
00000050: 2968 493c df6d acba 42f5 913a de95 46bd
00000060: 5280 c0be f920 a335 81d7 0d3e d802 f7bd
00000070: fa40 12be 408f c1bb aa20 a63b d64b a63e
00000080: d369 73bf 3180 6b3f fb5a 61bf bfbb 8db9
00000090: f6c3 2aba 022c 753e a7d0 89b8 cb8e 6cbf
000000a0: fcda 3bbf 30d8 c23e 7cbe 433f dac5 77bf
000000b0: 6f80 ca3c 9c65 59bd 7327 05bc bde8 733c
000000c0: ca59 30bf b754 76bf d6a5 71bf 04fa b6b9
000000d0: 303c 2b3f 7d7e 123f 6b87 343f a189 703f
000000e0: 6e45 6cbf 9d3e 5ebf 6eb3 75bf 59d5 3dbf
000000f0: 97f8 7335 d941 02bb fd72 67bf cd9e 593f
00000100: 0a79 073f 8086 afbd 4dd4 763f dff2 4934
00000110: 2881 13bd 985e debc caca d631 431d 64bc
00000120: f297 413f c6fb 833d 403f bbbe 506e 6cbf
00000130: 9c53 49bb b886 49bb 6050 573e 8b9b 94bd
00000140: 475b a9bb 5151 b8ba c42f 43bf bca1 d93e
00000150: 9a04 ccbb 5a49 77bf 6651 3abf 125c 9c3d
00000160: 170f 9fba 7b99 90bc bc42 28bf 82bd 53bf
00000170: 68dc 42bf 7a76 073f e645 56bf 4774 e033
00000180: 51ca bc37 7e16 55bc 296c 7ebb 8c2b 53bf
00000190: 4e4c b7ba 389b 1d2d 6bb3 c83a 3a1f 433c
000001a0: 25a5 3dbf 4cab eebc 9b17 77bf 2ead 76bf
000001b0: 586c 68bf 77ed 70bf a6de 77bf c98f b2bb
000001c0: 375c 77bf 5384 713f dd42 a5b5 0236 10bd
000001d0: d42b 73bf d72f 0c3c 4965 943b 4011 75bf
000001e0: f534 293f 0461 76bf d13a a13e 9a13 e339
000001f0: e066 703f d7a8 cdba 17a8 cabe 8097 6ebf
00000200: eed2 71bd 7457 bfbd 83cb 5eba 1d50 c9ba
00000210: 4a5a a0bd 7fb0 3c37 a879 78bf f018 76bf
00000220: 045e 96be 20ca d0ba 5ec1 83bc a858 6e3f
00000230: 6ae5 4b3e 96d0 73bf fd5f 763f 1ffb fbb4
00000240: 5ebd 21bc 3aae 5a3e ebae b5bc 993c e3be
00000250: 4f94 acad 18e7 c7ba
