src/results/subject_P11/best_model.pth (torch, 481333 bytes, 15 tensors)

input_linear.weight f4 [40, 40]
00000000: be75 cb3d a08a b93b 7473 8f3d 2cca 013d
00000010: 2121 213e 90f1 15be 15c6 1dbe c007 013c
00000020: 4905 1a3e cef6 9d3d 7eca 76bd 8441 07bd
00000030: a0e1 e63c 251e 093e c00a 49bc da9c 9e3d
00000040: f854 9a3c 4565 1c3e aa2a dd3d 5e52 e93d
00000050: 5069 0d3d e50e 0b3e e321 a3bd 557b 1e3e
00000060: 345b 423d c5d4 97bd e37d 0fbe c6ac 09bd
00000070: 8eed b4bd d017 fcbd 9ea1 c43d 6ede 2ebd
00000080: e428 05be 105b 893c a0a5 fc3c 101f 13bc
00000090: 703a 433c 4075 1fbb 9e08 84bd 6005 913d
000000a0: 8f94 b3bd 3622 c63d 10d5 c53c 74c5 00bd
000000b0: 629c 3cbd f797 1e3e 55c4 02be 98dc 4e3d
000000c0: aac6 883d 4fe2 053e 3e53 cfbd 8ccf d3bd
000000d0: d09b 09bd cd79 0e3e b862 f03c 463e 873d
000000e0: 205c c6bc 1db8 21be f00e 163d c40d 283d
000000f0: 2157 9cbd c08d c03b d4a6 5b3d e570 bebd
00000100: 6fc0 1f3e 70a4 83bc 7243 fc3d 902f 463d
00000110: 92bc b1bd 8082 de3a c9cf 1d3e a68b 0fbe
00000120: 365c 9b3d ae67 e93d bae0 19bd 00da dc3c
00000130: 4890 b93c 0082 923d 7067 b93d e234 f53d
00000140: 3809 f43c 5a35 9e3d e8a0 db3c 525d fb3d
00000150: cece a03d 48b1 923c ffef 093e aaa4 ac3d
00000160: a81e dcbc e37e 213e f971 a3bd ebfb 143e
00000170: a0c6 c5bc 8d95 b0bd a46a 3dbd 08b7 debc
00000180: 5967 99bd 3507 163e d28d fbbd 1ab7 1fbe
00000190: 7bae 103e 006c b939 4086 423d 97ce 153e
000001a0: 39c6 203e 1463 1bbd a15e 1f3e fcc4 00bd
000001b0: 06b4 bf3d 3090 5ebc 40b6 78bb 00eb 463b
000001c0: 5d04 18be d71c 0e3e 10f3 debd 438c b8bd
000001d0: 2ec4 0ebd 9b13 1fbe e078 f63c 9ed1 1cbe
000001e0: 140a 6d3d ee21 e4bd 3a01 9f3d 7655 fd3d
000001f0: 001e e4bb 74f5 6bbd ee3e 8a3d a205 ca3d
00000200: 501c 243c 7011 903c 2dbe eabd e099 833c
00000210: a54d 1f3e 2ea7 15be e25b 99bd 160f 90bd
00000220: 78f9 d2bd 730f c0bd 4825 ddbc d0dd 7e3d
00000230: 7001 d9bc d049 f83c 98f0 533d 969a 39bd
00000240: f4aa 3abd 9f0a febd 0060 dab9 5862 15be
00000250: d25e b33d 44f5 173d e0d1 f3bd 6ec7 afbd
00000260: 9c2f 3abd 35e9 20be ccfc 0f3d fc23 a23d
00000270: a0a0 00be 303b 74bd ea60 0abe 6c97 233d
00000280: 3e63 d33d a95e 1bbe bc4b 473d 2017 59bc
00000290: b881 1b3d 609e 6e3c 9634 0ebe 9cab 723d
000002a0: 0e11 a23d 3eb7 7cbd ce8a debd d2f5 c43d
000002b0: 129b e53d 21b1 bbbd 043f 4d3d f02b 1bbd
000002c0: 20be acbb 0ef4 9a3d 453f 0f3e 0478 213d
000002d0: 6550 003e ea0a c13d 120e a93d 08a3 3dbd
000002e0: c04c f53c b892 1cbe 58e8 533d 677d 153e
000002f0: a093 48bc 02eb d93d e66a e0bd 203b 0abe
00000300: 68a0 8c3d 362e 2ebd 14a3 313d ca75 0abe
00000310: 49ca c4bd f0d4 17bd a807 b1bc 0053 e3bd
00000320: 70c2 1b3c 6010 19bd ecd4 fbbd 522b ff3d
00000330: b0d7 e5bd 12e6 ecbd 3054 04be feb3 e13d
00000340: 3858 b6bd 4320 82bd 0690 d5bd 249e 4b3d
00000350: 92cc ddbd d870 323d d7b6 9cbd e858 e73c
00000360: e02b e4bd 851b 1fbe 3cb7 19be 0ed2 68bd
00000370: f0af c23c 5970 07be a187 0f3e 9328 0bbe
00000380: e2e0 b93d 5264 7abd 3299 ec3d 7503 9cbd
00000390: 4aa8 803d 3354 93bd f0fb ecbc f469 34bd
000003a0: 397c 90bd 43bd a7bd 0a24 d73d cee1 ba3d
000003b0: 302c 5b3c 8268 61bd b9bb e8bd 8dce 0b3e
000003c0: 2ca1 1fbe 5bec 153e ec26 29bd 5df4 193e
000003d0: dcf1 183d f1b8 1cbe 3266 d93d 64d2 c8bd
000003e0: 368d e93d a073 bf3c 0559 08be 86d7 f13d
000003f0: b721 203e b0cf 18be b33a 1b3e 9484 d9bd
0.09934567 0.0056622773 0.07004443 0.031686947 0.15735294 -0.1464293 -0.15407594 0.007875383
0.15041079 0.0771309 -0.060251705 -0.033021465 0.028183758 0.13390405 -0.012270629 0.07744761
0.018839344 0.15273006 0.10799153 0.113926634 0.034524262 0.135799 -0.07965448 0.15476735
0.04745026 -0.074136294 -0.14012866 -0.033612035 -0.088343725 -0.123092294 0.096011385 -0.042692594
-0.1300388 0.016767055 0.030840695 -0.008979574 0.011915788 -0.002433136 -0.06446956 0.07081103
-0.0876857 0.09674494 0.024149448 -0.031438306 -0.046047576 0.15487657 -0.12770207 0.050503343
0.06678517 0.13074611 -0.10123299 -0.10342321 -0.03359586 0.13913651 0.029343948 0.066036746
-0.02421385 -0.1579289 0.03663534 0.041028753 -0.07633806 0.005876273 0.053625897 -0.09298877
0.15600751 -0.01606962 0.12317552 0.048385203 -0.08678545 0.0016976148 0.15411295 -0.14018115
0.07585947 0.113967285 -0.03756783 0.02695942 0.022651806 0.07153702 0.09052932 0.11972977
0.029789552 0.0772502 0.026810125 0.12273659 0.07851945 0.0179068 0.13470457 0.08429845
-0.026870087 0.1577106 -0.07980723 0.14549224 -0.024142563 -0.086222745 -0.04624428 -0.027186885
-0.07490415 0.14651187 -0.122829095 -0.15597191 0.14129059 0.00035366416 0.047491312 0.14629589
0.15700616 -0.037936285 0.15563442 -0.03143786 0.093605086 -0.013584182 -0.0037950426 0.0030352473
-0.14845414 0.13878189 -0.10886204 -0.09011128 -0.03485506 -0.15534823 0.030086935 -0.15314338
0.05787094 -0.11139284 0.07763906 0.12369816 -0.006961584 -0.05760713 0.06750284 0.098643556
0.010016516 0.01758644 -0.114620544 0.016064584 0.15556963 -0.14614555 -0.074882284 -0.070341274
-0.10301489 -0.09377947 -0.026995316 0.062223256 -0.026489943 0.030308634 0.05174312 -0.04531344
-0.04557319 -0.124043696 -0.00041651726 -0.14588296 0.0875832 0.037099138 -0.11905265 -0.0858296
-0.04545556 -0.15713961 0.035153195 0.0791702 -0.12561274 -0.059626758 -0.13513532 0.03993933
0.10321663 -0.15172829 0.04865621 -0.013250142 0.037965506 0.014564127 -0.13887247 0.05924569
0.07913409 -0.06169819 -0.10866319 0.09617199 0.11211218 -0.09164644 0.050108925 -0.0378837
-0.005271688 0.07566081 0.13988979 0.039421096 0.12530668 0.0942591 0.08254637 -0.046298057
0.029943824 -0.15290344 0.051735252 0.14598618 -0.012242228 0.10640527 -0.10957889 -0.13499117
0.068665326 -0.04252454 0.043368414 -0.13521495 -0.09608895 -0.037068307 -0.021610096 -0.11099815
0.009506807 -0.037369132 -0.12296471 0.124594346 -0.1122278 -0.1156732 -0.1292274 0.11020659
-0.08903545 -0.0635381 -0.10427861 0.04971136 -0.10830034 0.043564647 -0.076520614 0.028240636
-0.11141181 -0.15537842 -0.15011305 -0.05684095 0.023765534 -0.13226451 0.14016582 -0.13589697
0.09076096 -0.06113083 0.11552657 -0.07617847 0.062820986 -0.07193794 -0.028928727 -0.044046357
-0.070549436 -0.08190396 0.10504921 0.091251 0.013377234 -0.055031307 -0.1136393 0.13653012
-0.15588826 0.14640944 -0.041296884 0.15034623 0.03734003 -0.15304925 0.10615195 -0.09805754
0.11403887 0.023370564 -0.13315208 0.11808686 0.15637861 -0.14922976 0.1515911 -0.106209904

input_linear.bias f4 [40]
00000000: 8725 fcbd 6301 88bd 8255 1fbd 205f b63b
00000010: 93c3 82bd 4038 7dbb dc46 ae3d 2cf7 863d
00000020: f078 573d 4818 c13c 4f52 8ebd d6c4 be3d
00000030: d2dd 29bd 8360 103e 6832 0ebe 0024 9f3d
00000040: 6e71 813d fed3 e23d 10ba 09bc 4ed0 bf3d
00000050: 252d 9bbd 0240 eabd c8ec 9e3c 8046 283d
00000060: 28bb a3bc 386f d4bd afc7 9abd 62ca ef3d
00000070: 2f51 1bbe 73e0 e4bd a8d5 eabc 1877 f53c
00000080: 4ffd f0bd e4f7 483d af7a 20be f026 b03c
00000090: f404 a33d 664c d63d d835 9a3c ad57 1a3e
-0.12311845 -0.066408895 -0.038899906 0.005565539 -0.06384959 -0.0038638264 0.08509609 0.06590113
0.05260557 0.023571149 -0.06949293 0.09314887 -0.04147131 0.14099316 -0.13886416 0.07770538
0.06320463 0.110755906 -0.008406177 0.09365903 -0.0757697 -0.1143799 0.019400015 0.04108286
-0.019986704 -0.10372776 -0.07557618 0.11708523 -0.15167688 -0.11175623 -0.028666332 0.029964015
-0.11767065 0.049064532 -0.156718 0.021502942 0.07959929 0.104637906 0.018824503 0.15072508

lstm.weight_ih_l0 f4 [600, 40]
00000000: c554 72bd b518 ef3d 2be3 52bd a6cb 403e
00000010: 11e0 e33d f859 37bd e946 a5bd c325 8f3d
00000020: 596f c63c 51d5 373d 0af0 043c 2b5e 103e
00000030: a6db adbd aa58 5dbd 9d84 d6bd d07e 633b
00000040: 0a03 aabe 8747 a53c 4d21 a83c 6849 2dbd
00000050: 642d 19bd 3c32 8ebd e2e2 adbe 9d7a 653e
00000060: 50ec a9bd 2e34 51be ddbc 41be bece 03be
00000070: e143 1a3d 50a8 06be a5c3 e93c 8145 63bd
00000080: 155c 8e3d 6bd2 b5be afd2 90be 4bbe 803e
00000090: a890 c0bd 922d 753c 80b4 7f3c e7c8 06be
000000a0: 5ffc 60bd 412b a9bf b78f 8abe a647 e2be
000000b0: e889 8dbf 30d7 79be 9b85 dabe 034e 8c3e
000000c0: 7b89 fa3e f3b9 903e a28a e6be 62cc 22bf
000000d0: bda4 703e ffdf 82be 5d28 b73e fa4a 933e
000000e0: 45da 23bf 3179 e8be ee74 e8be b29b 75be
000000f0: 1c00 84be 598a 95be ad07 563f b6b8 65be
00000100: df82 86be f46c 0dbf 232a 223f 9c60 263f
00000110: 11d9 d7be 498c c33e 54c8 d5be 91fc 82be
00000120: 9864 d4be 3c8e 2abf 27f2 533f 3d4a 6cbe
00000130: 88fb 84be bd3b 27be c242 c63e f693 a53e
00000140: 9b6c 29bf 5450 0bbf ccfe 133f f174 873f
00000150: 961f 803e 9476 173f 78e6 0e3f 62a1 13bf
00000160: 0c43 14bf 6fb5 11bf 884f 053f df0f 1e3f
00000170: a34f 30be caf2 0f3f f836 b4bf e627 a7bf
00000180: a69c abbe 5588 093f 1a9a 003f dc67 143f
00000190: 9b6d 0f3f 0369 153f 5229 113e 3ca4 433e
000001a0: 45ec 153f 8f3a 083f c448 7abe dd4f 6abe
000001b0: 3305 013f 3a81 ec3e cf0c 093f 4296 1a3f
000001c0: b523 fe3e 6316 a9be 71be d43d 4ee7 403e
000001d0: 94cb 093f a53c ae3e 1ac0 713e d76f b5bf
000001e0: b33e f9bd b004 8e3e 1b8e 883e 7588 3b3d
000001f0: f76f 5d3e 6052 8f3e 8706 8e3e e4ce 8abe
00000200: 0fd6 73be 7229 91be 4806 463e 4069 64be
00000210: aff6 553e dde7 873e 9a7a 75be d6c1 053f
00000220: 35eb 91bd 421a 0f3e 6547 1c3e 290b 893e
00000230: 24dc 7f3e 0ec8 643e 121e f0bd eb8d 1f3d
00000240: d088 703e e387 773d 3f56 5f3e 33a9 7e3e
00000250: 59da 4a3e cf77 48be 8605 2f3e 2ddf 843e
00000260: 48a5 113e ea5a c6bd dc67 0bbe 9d15 163d
00000270: 8b24 6a3e 309e 0c3e 2ca9 cebd 5619 39be
00000280: 7b38 d4bd 7603 cbbd 6871 513e a906 61bd
00000290: 83d8 d9bd f8de 373e 9e6a 583e 8214 1dbe
000002a0: 6f19 4fbe 2a87 51be ae83 193e 8091 52be
000002b0: 56b9 4e3e 23e4 433e 37c0 e3bd edf8 2dbd
000002c0: 00e4 acbd 5d60 df3d 1b10 cd3d f9ce 433e
000002d0: 7db3 343e 320a 403e 06e3 e83d 603b e83d
000002e0: 561e 5d3e e83b 873d 18ae 8d3d 1a52 933d
000002f0: 35f3 ca3d a472 2bbe 5dd7 133e 833e 203e
00000300: 65fb ff3d 59a6 85bd 5fb5 d23d 1f1b e63d
00000310: f1cf 303e a4d3 14bd 2bb8 f7bc 852e 03be
00000320: a4b3 023f a439 313d a413 12bd 990a 903e
00000330: 3e86 393e 0685 89bc 3298 adbb 2a8e 2c3c
00000340: 263e 413d 8ec8 d0ba 9164 263e 281c db3e
00000350: 2489 f5bd 9f54 143c 2429 4e3d c17f 70be
00000360: 3172 183f 1d9b 2f3e 386f 233e 5a91 44bd
00000370: eee0 30bd 73ff 1ebd 6ada 6d3e 2eb9 babd
00000380: 59f1 163c e2c6 e2be 1fcb d2be 550d 93be
00000390: 3c2c 103e f858 ee3d ff16 183e 97a3 f13b
000003a0: cc30 493e 76b8 153f 8c68 803e cb6e eebd
000003b0: 6109 72bc 92d7 5b3f fab7 673f 49bf 963d
000003c0: db83 d0bf fbb5 c63f efbf 5c3f 930e 5d3f
000003d0: eeb1 d63f ecf5 523f 7910 4d3f 9e29 59bf
000003e0: b973 52bf 9965 53bf d7bd a63f 89b8 043f
000003f0: 3c42 71bd 1ffd 5f3f 185a 38c0 0b71 09bf
-0.059162874 0.11674634 -0.051486176 0.18827686 0.11126722 -0.044763535 -0.08070166 0.06989624
0.024223017 0.04488117 0.00811387 0.14098422 -0.0848916 -0.054039635 -0.10474513 0.0034713037
-0.33205444 0.020175708 0.020523692 -0.042306334 -0.037396803 -0.06943175 -0.3396216 0.22410055
-0.08297026 -0.20430061 -0.18919702 -0.12871835 0.03766239 -0.13150144 0.028535673 -0.055486206
0.06951157 -0.355121 -0.2828574 0.25145182 -0.09402591 0.014964478 0.015606999 -0.13162576
-0.05492818 -1.3216325 -0.2706277 -0.44195288 -1.1057711 -0.24398494 -0.42680058 0.27403268
0.48933014 0.28266868 -0.45027643 -0.63593113 0.23500343 -0.2556152 0.35772982 0.2876814
-0.6400493 -0.45404962 -0.4540171 -0.23985174 -0.25781333 -0.29207113 0.8360546 -0.22433743
-0.26271722 -0.55244374 0.63345546 0.64991164 -0.42157796 0.38192967 -0.417544 -0.25583318
-0.41482997 -0.6662328 0.8279137 -0.23075195 -0.25973153 -0.16331382 0.38722807 0.32339448
-0.66181344 -0.54419446 0.57810664 1.0582563 0.25024098 0.5916531 0.5582042 -0.57668126
-0.57914805 -0.5691747 0.5207448 0.6174297 -0.17217879 0.5622984 -1.4079275 -1.3059051
-0.3351795 0.5372365 0.5023514 0.57970977 0.5602662 0.5836336 0.14175919 0.19105619
0.58563644 0.53214353 -0.2444182 -0.22882028 0.5039856 0.46192342 0.5353517 0.60385525
0.49636617 -0.33024892 0.10387886 0.18838236 0.5382626 0.34030643 0.23608437 -1.4174756
-0.12170162 0.2773795 0.26670918 0.045784432 0.21624742 0.27992535 0.27739355 -0.2711097
-0.23812126 -0.28351933 0.19338334 -0.22305775 0.20894884 0.26544085 -0.2397255 0.52248895
-0.0712494 0.1397486 0.1526161 0.26766327 0.2498632 0.2234194 -0.117244855 0.038953703
0.2348969 0.060432326 0.21810244 0.24869232 0.19809856 -0.19576953 0.17091951 0.2595152
0.14223206 -0.09685309 -0.13613838 0.036641706 0.22865503 0.13732219 -0.10090861 -0.18076071
-0.10362335 -0.099127695 0.20453417 -0.054937992 -0.106369995 0.1795615 0.21134421 -0.15339854
-0.20224546 -0.20461717 0.14991638 -0.20563316 0.20187888 0.19129996 -0.111206464 -0.042473722
-0.08441925 0.10907052 0.100128375 0.19121923 0.17646594 0.18753889 0.11371426 0.1133945
0.21593603 0.06603223 0.069179714 0.07193394 0.09909669 -0.1674295 0.14437623 0.15648846
0.124991216 -0.06525869 0.102885 0.11235642 0.17266823 -0.03633465 -0.030239185 -0.12810715
0.5105536 0.04326786 -0.035663262 0.28133085 0.18117616 -0.016787063 -0.005297684 0.010531941
0.04717841 -0.001592891 0.162493 0.4279492 -0.11989048 0.009053378 0.050332204 -0.23486234
0.5954924 0.17149015 0.15960395 -0.04799018 -0.04318326 -0.038817834 0.2322785 -0.091173515
0.009212815 -0.4429236 -0.41170594 -0.2872111 0.14079374 0.11638063 0.14852522 0.0073742378
0.19647521 0.5848459 0.25079763 -0.11642226 -0.014772744 0.8587581 0.905151 0.073607035
-1.6290239 1.5524286 0.8623037 0.86350363 1.677305 0.82406497 0.8010326 -0.8482913
-0.8220783 -0.825769 1.3026685 0.5184408 -0.058901057 0.8749561 -2.880499 -0.53688115

lstm.weight_hh_l0 f4 [600, 150]
00000000: 8891 dbbd 818c d43d 57f9 35be b763 14be
00000010: 5bdc e4bd 7579 db3d 4257 cd3e eb0f e93e
00000020: 6a33 ab3d 136a e1bd c587 cd3d 67f2 063e
00000030: df70 073e a63a 563e 99cb 903d f03b 5c3e
00000040: dc33 3a3e f7a1 0dbc b8c3 78bd 62be aa3d
00000050: 5740 543d 0cd9 78bd ba21 49be a8d0 b63d
00000060: 62e8 2a3e fb35 7d3e 3150 d73d 521e 50bd
00000070: 1c5e ac3d f437 893e c4a3 363e 48f5 52bd
00000080: f45e 93bd f3ad 16be 158f c2be fb5b d1be
00000090: 476a 43be 3616 adbd 0b7c a0bd dbec 533d
000000a0: fb2b 9b3b 8c1f b3bd 695f ddbb 2030 0a3e
000000b0: 08ae 09bb e13b febe 0d67 b8bd 1b18 823c
000000c0: 75aa 863c fd3a d8be c99d c8bd 6116 b53d
000000d0: ab93 3cbd f6b4 d03d 77fd 4abd ea4c 18bd
000000e0: aa34 26be 47b4 2fbd 9bf3 083d bd28 c53c
000000f0: 7921 6abc 9eaf 9cbd def9 e33d e312 5bbd
00000100: 5cff 8ebd 041e 4c3e 2993 28bd 8802 bb3e
00000110: 2c34 523c 266a 10be 54eb 053f 7e4d e43d
00000120: c306 01be 4270 39be d331 cebd e863 e5bd
00000130: 4072 4abd 5cb0 873d 4055 1fbe d2a9 5c3d
00000140: d958 e3bd aa56 48bd a48b e3bc 61ad 1fbf
00000150: 9e95 e3bd 9553 cb3d 4dfa cfbd e2cf 1e3e
00000160: 5bd2 613d 013a c8bd 96eb 393e b303 283e
00000170: a01c f7bd 904f 85bd 1cef 92bd de82 3b3e
00000180: 0277 e6bd 0ca3 7fbc dae4 bd3e fa43 a93e
00000190: 2696 bdbd 895c 97bd 6cff 82bd 15f4 dbbd
000001a0: 1f36 7fbd da03 f63e 892b d7bd 9a8e 9fbd
000001b0: 2826 b3bd a5ee c63d 1a46 15be 7605 ccbd
000001c0: fcb5 ef3d cef0 c23e aa8d 93be 76d6 e3bd
000001d0: b39f 07bd c5fe 3fbe b788 033e 986e 11be
000001e0: 27d9 37be 8387 35be 0572 bb3d 1cff cabe
000001f0: fcb2 863d 665f f4bd 0604 143d a273 3a3e
00000200: 7ecc 2f3e e419 da3e eb33 e7bc e059 003e
00000210: d13a 49bc 596b a7bd 2cc2 073e 9b35 a0bd
00000220: a04b d7bd 27a8 85be d833 8fbd c5b8 fc3e
00000230: 3b70 5abe 9e9c 05bd b4b9 f03d af5f 973e
00000240: aaa2 75bd cfce 013e c547 4c3e 576e 543c
00000250: 76c8 c63d 2554 b23d 9fe9 583e 2bf3 4dbf
00000260: aa40 febe ca89 27bf e33d 4c3f 5d54 023d
00000270: c89a bcbe 8bbc 53bf 4b4a 0e3f 94e1 e2be
00000280: e5be cc3e 6f1b 933f 762c c63d 6a93 413e
00000290: 8c5a 1abe e6d8 893c 3307 9fbe 5afe 1b3d
000002a0: 32c2 fabd bc72 643f 1b75 143f 78a0 8a3d
000002b0: 5623 0dbf 853e 88bf 9445 1cbf 1c09 1abe
000002c0: c6cd 1abf 43ad 62bd e176 fdbe d366 8abf
000002d0: a7e7 073d 6450 883c e2b2 62bf 3dfa 0ebf
000002e0: 6a2a c43e 77d8 7e3f b8e9 653f 604d 69bf
000002f0: 9d9d 6fbe e819 8fbf 7528 34bf 1cc2 f7be
00000300: d633 43be 7c37 103f 60f0 5ebe 7064 753f
00000310: c34f 51be 018e 91bd 5070 4fbf 12b5 653f
00000320: b64d e53e 15aa d3be 9baf 1a3f 2a60 b53e
00000330: 37e7 8abf 94f5 633e 611d 01be 0e4a 11bf
00000340: d985 693f d23f c03d 72ab 1e3c 598c 85bf
00000350: 6783 103f 4154 2dbe 652d 90bf 85f7 81bf
00000360: fef7 1ebc 2aaa a0be 40ab 02be d63b 76be
00000370: 0f3f a63d 87da 163f 42d4 bcbe 4c73 5a3e
00000380: c3fa 87bf 7662 20be 1358 6cbf 40b2 32be
00000390: 31c7 75be d32d 773f c538 8abf 38a8 633e
000003a0: 7791 313f 4e5c 8b3f bbde 18bf 9a65 bebe
000003b0: b422 25bf 1abc 8aba 2a90 283f 3583 0b3e
000003c0: f1da 8ebf d3c5 56bf 7445 9c3e a8d0 8abf
000003d0: 6abb 68bf 76a2 9abe 310e 8fbe 69a0 bb3e
000003e0: 7c2f 5fbe 6d5b a0be 5b3d 87bf 92c9 e7bd
000003f0: 70a5 82bf 161a 85bf a9ee 6fbf 8f93 893b
-0.10721117 0.103783615 -0.17770897 -0.14491163 -0.11174842 0.107165255 0.40105635 0.45519957
0.08359416 -0.1100656 0.100356616 0.13178407 0.1322665 0.2092081 0.07070083 0.2150724
0.18183845 -0.008644572 -0.060733527 0.08337094 0.05181917 -0.060753867 -0.19641772 0.08926517
0.1669021 0.24727623 0.10513342 -0.050810166 0.084163874 0.268005 0.17835909 -0.05150345
-0.07195845 -0.14714794 -0.37999788 -0.40890488 -0.1908351 -0.08451502 -0.07836159 0.051739555
0.0047354675 -0.087462515 -0.0067557585 0.1349492 -0.0021008272 -0.4965506 -0.090040304 0.015880635
0.016438702 -0.42232504 -0.0979572 0.08842159 -0.046039265 0.101907656 -0.04955813 -0.037182726
-0.16231027 -0.042896535 0.033435445 0.024067277 -0.014290207 -0.07650684 0.11131643 -0.05348481
-0.069823 0.19933325 -0.041155968 0.3652537 0.012829822 -0.14102992 0.5231221 0.11147593
-0.12600236 -0.18109229 -0.10068097 -0.11200696 -0.049425364 0.06625435 -0.15559864 0.05387289
-0.11100931 -0.048910774 -0.027776547 -0.6237393 -0.111125216 0.099280514 -0.10155163 0.15508988
0.05513225 -0.09776688 0.18156275 0.16407661 -0.12066007 -0.06509316 -0.07174513 0.1831164
-0.11253168 -0.015602838 0.37088662 0.33059675 -0.09257154 -0.073906966 -0.06396374 -0.10739914
-0.062307473 0.48049814 -0.105063505 -0.07790871 -0.08747512 0.097134866 -0.14577523 -0.09961979
0.11704633 0.38074344 -0.2881902 -0.111248896 -0.033111285 -0.1874953 0.12845121 -0.14202344
-0.17953931 -0.17727475 0.09152607 -0.39647758 0.06577107 -0.11932258 0.03613665 0.18208173
0.17167851 0.42597878 -0.028222999 0.12534285 -0.012282089 -0.08174772 0.13257664 -0.078227244
-0.10512471 -0.26104853 -0.0699231 0.49359718 -0.21331875 -0.032620065 0.1175417 0.29565188
-0.05996958 0.12676547 0.19949253 0.01296576 0.09706204 0.087074555 0.2118287 -0.8044917
-0.4965871 -0.65444624 0.7978193 0.031818736 -0.3683684 -0.8270957 0.5558211 -0.44312727
0.3998939 1.1492747 0.09676449 0.1890389 -0.15073603 0.016827058 -0.3106018 0.038084365
-0.12244071 0.8923757 0.5799119 0.06768888 -0.55132043 -1.064408 -0.6104367 -0.15042537
-0.60470235 -0.055341017 -0.4950476 -1.081263 0.033179905 0.016639896 -0.88554204 -0.55850583
0.3831361 0.9954905 0.8980975 -0.9113369 -0.23399968 -1.1179781 -0.7037423 -0.4839028
-0.19062743 0.5633466 -0.21771383 0.9585638 -0.20440583 -0.07107163 -0.8103075 0.89729416
0.4478585 -0.413407 0.604242 0.3542493 -1.0851811 0.2226165 -0.12608863 -0.56753623
0.9121986 0.09387173 0.00968443 -1.0433456 0.56450504 -0.16926672 -1.1263853 -1.0153662
-0.009702681 -0.31379825 -0.12760639 -0.24046263 0.08117496 0.58927196 -0.3688069 0.21333045
-1.0623401 -0.1566256 -0.9232189 -0.1745081 -0.24001767 0.965543 -1.0798575 0.22232139
0.69362587 1.0887544 -0.5971486 -0.3718689 -0.6450608 -0.0010584623 0.65844977 0.1362427
-1.1160566 -0.83895606 0.3052174 -1.0844927 -0.9091097 -0.30202073 -0.27940515 0.3664582
-0.21795458 -0.31319752 -1.0565599 -0.11317743 -1.0206738 -1.0398586 -0.9372354 0.0041984986

lstm.bias_ih_l0 f4 [600]
00000000: ab4d b7bd 8de6 74be 17d5 0a3f 4df1 903e
00000010: 825a 303e 1eab ecbc 4907 623f 0602 833e
00000020: e7af 553d 33d3 7cbe 618a ae3e 88a4 093f
00000030: 8227 73be ce4d f3be 5954 183e df35 0bbf
00000040: ba9a d5bd 2b11 22bd 7f53 743e 8346 ba3e
00000050: 3174 c0bd dec4 a83d a44b 663e bd8e 123f
00000060: 6e10 903e 929b d2be f390 21be a6f6 003e
00000070: 2493 04bf 1ac1 8a3e 4a57 b2be d7f6 25be
00000080: 1c9e 663f 345f e43d 54b5 903e bfc0 d63e
00000090: d7ea 313e 8543 0d3f 19c6 eb3e 3c72 eb3e
000000a0: fc79 0e3f 96e4 c03e c011 9e3d 9272 84bc
000000b0: d1b0 3d3e ac64 3e3e 2121 ad3d b4c0 01be
000000c0: 8769 fe3d ae5c b83d b044 82bf 1b76 7a3e
000000d0: 0038 663e 1383 68be 5f37 4e3e c4cf 003e
000000e0: 2c72 753e bab6 e0bc 6aba 2cbe e557 37be
000000f0: f16b 31bf 344c 3abd eb69 c6be ab6c 2a3e
00000100: 261e 783e 1268 00be f53a 1f3e a111 6fbe
00000110: 3077 b33e 5631 a6be 009e 72bd ff36 3d3d
00000120: 2f47 3b3f 33c4 e4bd c2b0 fe3e dd1e fb3e
00000130: 8c84 843e 8c54 c23c 0416 3d3e 5052 5a3d
00000140: 40d3 de3e 28f1 68be 748b 9e3e 1921 c73e
00000150: ce9c 863e 9050 923e dcb1 103f f5c2 47be
00000160: 684e 833c 167f 043e a2e1 8a3e 0a3b 0b3f
00000170: ceb7 6a3e d301 373e edd0 dd3e c74d 9e3b
00000180: 0ee0 aebe 64c3 b3bd e3bb 0b3b 6b23 523e
00000190: e75b 6e3e cffa 1dbe 629e a93e c604 4e3e
000001a0: c241 913e 1bdd b2be fdf3 023f ec78 b53e
000001b0: 3871 b13d 24fc e33e 1804 963e c4e3 8c3e
000001c0: cd3d b03e ceff 893e 82ff 423e 60ab a73e
000001d0: b83f 753e 80ef aa3e 94ce 96bd 0aec 843e
000001e0: b241 0d3e b70a d03e 2655 43be 6ae3 88be
000001f0: 0191 db3c 632e b6bd fb3b f7bd 74bf f5be
00000200: d47d 593e 19c3 89bb 8b5c 9dbe 876a b13e
00000210: 2c50 96bc 4004 9b3e 8044 243f db6f 8f3e
00000220: c0cb 403e d888 893e 13af ea3d 0f0b 0e3e
00000230: 87c3 2a3e 2628 7d3e bfc6 e5be 164f 9bbb
00000240: 878d 903e 2898 3fbf 2cbf d8bd d291 69be
00000250: 01c1 1c3e 5e5c d4be 2dcb b03e 8164 90be
00000260: c233 c0be 83fd e13e 5123 52bd 61b9 f2bd
00000270: 9380 c33e 42a3 d43e c23c af3d a4cb 383e
00000280: 9af1 95be 7148 19bf 4535 63be 73ee fabd
00000290: 87d7 fbbc f189 9cbe 92c0 2a3e e2e9 6fbe
000002a0: 3c27 4ebe 185c e3bd 8f3f 5f3e 818f 25be
000002b0: fd59 58be 80c3 e33e 8b22 1abd 3c00 eabe
000002c0: e8e9 b33e 2e64 84be b204 86be f40a 3d3e
000002d0: 794c a63c c19a 1fbe 37bb b8bd 57bd 3fbb
000002e0: 4453 1a3f 55fc 0e3f e9ce be3e 1ea0 d5bd
000002f0: 03d6 a93e b76b f73e 5979 153e afbf bfbe
00000300: e0b4 e5bd 3f34 523e 282b 8dbe 798b 33bf
00000310: 7e92 543e 960a ffbd bc10 673e ec3a 58be
00000320: 9c02 8b3e 7804 afbe 1445 6ebf 2f28 a8be
00000330: d490 a23e 51d2 ebbd c6cd 0c3e 0655 42be
00000340: 8bef 053e ac07 d0bd ef99 fe3e cbf2 23be
00000350: f8ec 5dbe 7925 44be 5ebd 69bd 4eb1 8c3e
00000360: 87af 05be cb3d 2f3e cbf3 1fbe b4a6 78be
00000370: 6cdf bdbe ef58 01be 30e6 06bf 5c60 a8bd
00000380: 2634 773e 2f98 313e dd64 843e 2c9f 0b3e
00000390: 25ef 4b3e 7085 5abe 1a0f d93d fb0c 16bf
000003a0: 9fd3 803e c4b4 cebe 33fa af3e bf40 b13e
000003b0: 7461 293e 9664 dc3d 6914 8f3e e0d1 db3c
000003c0: b847 1c3e d343 ccbe 689f d03e f333 95bd
000003d0: 68e6 223f a950 643e f306 803d 4a3b c2bd
000003e0: 7f36 44be b87e 52be 0c0d c23e 958c e6be
000003f0: cf64 c83e 843f a23e d8d2 9f3e c8fb bd3b
-0.08950361 -0.23916073 0.542314 0.28309098 0.17222026 -0.028890189 0.88292366 0.2558748
0.052169707 -0.24689941 0.3408995 0.5376668 -0.2374554 -0.47520298 0.14875926 -0.54379076
-0.104299024 -0.039567154 0.23859976 0.3638192 -0.09397162 0.082406744 0.22489792 0.5724905
0.28137535 -0.41134316 -0.1577795 0.12594089 -0.5178702 0.2710045 -0.3483222 -0.16207443
0.90085006 0.11150971 0.28263342 0.4194393 0.1737474 0.5518115 0.46049574 0.4598559
0.55654883 0.37674397 0.07718229 -0.016167913 0.18524481 0.18593091 0.084535845 -0.12671167
0.124224715 0.09002052 -1.0177212 0.24459116 0.224823 -0.22706251 0.2013831 0.12579256
0.23969334 -0.02743088 -0.16867986 -0.17904623 -0.6930533 -0.04548283 -0.38752684 0.16643016
0.2423025 -0.125397 0.15549834 -0.23346569 0.3505187 -0.32459515 -0.05923271 0.046195026
0.7315549 -0.111702345 0.4974423 0.49046984 0.25882375 0.023721956 0.1846543 0.053301156
0.43520546 -0.22748244 0.3096577 0.3889244 0.26291507 0.2857709 0.5652139 -0.19507964
0.016028598 0.12939104 0.2712527 0.5438696 0.22921678 0.1787179 0.4332346 0.004831049
-0.34155315 -0.08777502 0.0021321706 0.20521323 0.23277245 -0.15427707 0.3312865 0.20119008
0.28370482 -0.34934315 0.51153547 0.3544382 0.08664173 0.44528306 0.29299998 0.2751752
0.3442215 0.26952976 0.19042781 0.32747936 0.23950088 0.3338585 -0.073636204 0.25961334
0.13794592 0.40633175 -0.1907545 -0.26736003 0.026802542 -0.08895566 -0.12071987 -0.4799763
0.21239406 -0.0042041657 -0.30734667 0.34651586 -0.018348776 0.3027668 0.6416702 0.28015026
0.18827724 0.26862216 0.11459174 0.13871406 0.1667615 0.24722347 -0.44878194 -0.0047396524
0.28232977 -0.74841547 -0.10583338 -0.22809532 0.15308 -0.4147672 0.3453001 -0.28201678
-0.37539488 0.44138727 -0.05130321 -0.118517645 0.38184032 0.41530806 0.085565105 0.18046433
-0.2928589 -0.5987616 -0.2218829 -0.12252512 -0.03074242 -0.3057399 0.16675022 -0.23429063
-0.20132154 -0.1110155 0.2180159 -0.16168024 -0.21128078 0.44485092 -0.0376306 -0.45703304
0.35139394 -0.2585768 -0.26175457 0.1846121 0.020300137 -0.15586378 -0.090200834 -0.0029257142
0.60283303 0.5585378 0.37267235 -0.104309306 0.3317109 0.48324367 0.14597072 -0.3745093
-0.1121614 0.20527743 -0.27571988 -0.70134693 0.20759007 -0.12453191 0.22564977 -0.21116227
0.27150428 -0.34183097 -0.93074155 -0.32843158 0.3175112 -0.11514724 0.13750371 -0.18977746
0.1307966 -0.10157713 0.49726817 -0.16010587 -0.21672428 -0.1915492 -0.05706536 0.27479023
-0.1305524 0.17113416 -0.15620343 -0.24282342 -0.3708452 -0.12631582 -0.5269499 -0.08221504
0.24140987 0.1734321 0.25858203 0.13634938 0.19915445 -0.21339965 0.105985835 -0.58613557
0.25161454 -0.40372288 0.34370574 0.3461971 0.16541082 0.10761373 0.2794526 0.026833475
0.15261734 -0.39895496 0.40746617 -0.07285299 0.6363282 0.22296394 0.062513255 -0.09483965
-0.19161414 -0.20556152 0.3790058 -0.4502913 0.3913941 0.31689084 0.3121555 0.005797837

lstm.bias_hh_l0 f4 [600]
00000000: d00c 1abd 6460 85be 6996 0f3f a4ae 763e
00000010: eb57 203e c889 8d3c d187 583f 9505 893e
00000020: 1765 0f3d 0394 50be 1b94 a23e ad30 133f
00000030: 4de4 4bbe a72e eabe 0908 253e 0169 0fbf
00000040: ef89 d7bd 0047 83bc db28 883e 457b b93e
00000050: 5f94 f5bd 1352 903d b537 433e 060a 213f
00000060: 1a34 873e d9ad ecbe c370 2bbe b2b0 003e
00000070: 99ec 0ebf a21c 963e 6611 a6be 2ab7 43be
00000080: 6497 683f ba26 d53d 5a83 903e 1a43 c83e
00000090: 3a94 393e e2de 0d3f 27e8 fb3e 28ba eb3e
000000a0: 126d 113f 9c96 ba3e 08d7 c23d 2499 56bd
000000b0: eca0 563e b195 303e 3965 9f3d c814 febd
000000c0: dbdc d83d 131c ea3d 27e8 76bf f3e9 703e
000000d0: 4a3a 473e 6bc8 6bbe 5019 283e 1f2a 273e
000000e0: 3e1e 8f3e 90db 63bc 14bf 44be e983 56be
000000f0: 78ef 30bf 1f9e a3bd f292 b9be 11f5 033e
00000100: a8ce 853e 5823 1bbe 57da 1a3e ab9d 3bbe
00000110: 8282 ac3e e076 aabe 8b60 16bd 5cfd 2f3d
00000120: c087 343f b254 dfbd c096 f13e 1a66 e73e
00000130: f748 8d3e cb92 133d d579 443e 4417 b93d
00000140: eceb dd3e 6d5e 88be 6d15 8f3e 455f c63e
00000150: a55a 803e d719 953e 90e1 153f 08a2 77be
00000160: cc1d 4e3d 1f63 2e3e 7ab7 a03e c54d 0f3f
00000170: 15c0 7c3e 9865 323e d50e d93e 1dca c73b
00000180: d99e 9abe f998 78bd 3ec5 bb3c da20 4f3e
00000190: b29d 663e 500b 43be add6 8c3e 6fc1 323e
000001a0: f634 713e 2b49 c6be 8c49 023f d271 bd3e
000001b0: b610 a13d 5687 e93e 17b3 993e 3ae9 793e
000001c0: 8ad6 a83e bb90 9c3e 6d50 363e cdee a23e
000001d0: 9bd0 723e 3208 a13e 4eeb 0bbd 2b28 643e
000001e0: 03e7 ca3d 52ab e43e a716 42be 5394 7bbe
000001f0: 3d56 9a3d 4ae0 dcbd 5b94 febd a519 efbe
00000200: a7b7 323e c37b 8b3c a2e9 92be e4b4 b43e
00000210: 37fb 273b b608 ae3e deee 203f b8bf 943e
00000220: a62d 1d3e 3cd2 8c3e 8ac3 b93d 3d88 073e
00000230: a6c6 353e 9e0b 7f3e 869c e6be cfbb 8abc
00000240: 5ef0 a03e 355d 3cbf b6d4 f4bd 343b 58be
00000250: 1de7 2d3e 7cda d2be 9cac a23e 8391 9ebe
00000260: 3762 cdbe 765b d13e 4177 cbbd 6036 0fbe
00000270: a794 bf3e 8489 da3e b118 253d ce9c 0a3e
00000280: 05fe 8ebe 65ed 25bf b930 71be e0b1 b2bd
00000290: 28da f1bc c84d 9ebe 5ad6 013e 8444 87be
000002a0: 4300 6bbe fc88 ccbd 6204 663e 8ab7 06be
000002b0: 94c5 3dbe 69a0 d03e 4faf abbd 08b4 edbe
000002c0: f8f2 c33e c040 65be ab8a 97be 2aea 3d3e
000002d0: 118d 14bc 1ded 3dbe 24d3 ddbd 8804 e8bb
000002e0: bc29 183f f6ae 0c3f ab63 b93e 0281 12be
000002f0: 4928 c23e c84c 043f 78d1 103e 5b64 c6be
00000300: 30f3 f8bd 8074 5c3e 3aaf 9bbe 71d0 38bf
00000310: 1ef3 853e b199 0abe 106d 683e 7961 56be
00000320: 475e 893e 8425 acbe 04c6 6cbf 52f6 a8be
00000330: 5ee0 9b3e 509d 17be 356d cb3d 8273 44be
00000340: 34c5 333e dd0f aebd 5315 e73e ca6d 21be
00000350: 4e6f 40be 122a 1bbe a410 e5bc 721d 9a3e
00000360: e7e9 febd 7fb3 2c3e 57ac 28be f482 85be
00000370: 3f5b dcbe 831c 16be 7fbb 02bf 87a2 a7bd
00000380: dd8a 533e 3b06 503e fe5f 863e ae52 d73d
00000390: 3da9 473e cf8c 5abe 1072 963d 1b78 19bf
000003a0: ec68 5b3e 17a4 b2be 08f8 a03e ecb2 b53e
000003b0: 7dd0 473e 40ce eb3d 767a 753e 1166 13bd
000003c0: 41b6 fb3d ec0d c9be b62e d13e 3f5e 81bc
000003d0: 9d5d 233f e5f6 513e 87f2 623d 9717 cbbd
000003e0: a609 29be 6940 35be 25e9 b63e 3f3b e6be
000003f0: e3b4 b53e 1201 943e a424 933e 4005 643c
-0.037609875 -0.26050103 0.5608888 0.24090058 0.15658538 0.017277613 0.8458224 0.2676207
0.035008516 -0.20368962 0.3175362 0.5749615 -0.19911309 -0.45738718 0.16116346 -0.560196
-0.105243556 -0.016025066 0.2659367 0.3622686 -0.1199119 0.070469044 0.1906422 0.6290592
0.26406938 -0.46226385 -0.16742234 0.12567404 -0.5582977 0.2931872 -0.3243515 -0.1911284
0.90856004 0.10407777 0.28225213 0.39113694 0.1812295 0.5541822 0.49200556 0.46040463
0.56807053 0.3644303 0.0951367 -0.05239214 0.20959824 0.17244603 0.077829786 -0.124063075
0.10589 0.11431136 -0.96447986 0.23526745 0.1945583 -0.23025672 0.16415906 0.16324662
0.2795276 -0.013907328 -0.19213516 -0.20948757 -0.691154 -0.079891436 -0.36244923 0.12886454
0.2613423 -0.15150201 0.15122353 -0.18321864 0.3369332 -0.3329382 -0.036713164 0.04296623
0.7051964 -0.10904826 0.47185326 0.45195085 0.2759473 0.036028665 0.191871 0.09037641
0.43344057 -0.2663454 0.27946034 0.3874456 0.25069156 0.29121277 0.58547306 -0.24182904
0.050321385 0.17029999 0.31389982 0.5597804 0.24682648 0.17421567 0.42394128 0.006097092
-0.30199316 -0.06069276 0.0229212 0.20227376 0.22521093 -0.19047284 0.27507535 0.17456602
0.23555359 -0.38727698 0.50893474 0.370009 0.078645155 0.45611066 0.30019447 0.24405375
0.3297618 0.3057917 0.17804118 0.31822816 0.23712389 0.31451565 -0.03415995 0.22280948
0.09907343 0.44661957 -0.18953954 -0.245683 0.0753598 -0.10784967 -0.1243064 -0.46699253
0.1745287 0.017026788 -0.28693873 0.3529426 0.0025631913 0.3399102 0.6286448 0.2905252
0.15349445 0.27504146 0.09070499 0.13235565 0.1775156 0.24906775 -0.45041293 -0.016935257
0.31433386 -0.7357972 -0.11954634 -0.21116334 0.16982694 -0.41182315 0.31772316 -0.30970392
-0.40113994 0.40890092 -0.09934855 -0.13985586 0.374181 0.4268304 0.04030675 0.13536379
-0.27928177 -0.6481536 -0.23553742 -0.08725333 -0.02952297 -0.30918717 0.12679425 -0.2641946
-0.22949319 -0.09987065 0.2246261 -0.13155952 -0.18532401 0.40747383 -0.08383047 -0.46426415
0.38271308 -0.22387981 -0.29597983 0.18546358 -0.009066836 -0.18547483 -0.108312875 -0.0070806183
0.5943868 0.5495447 0.36208853 -0.14307025 0.3792136 0.5167966 0.14142406 -0.3874844
-0.12155759 0.21528816 -0.30407125 -0.72193056 0.26162046 -0.13535191 0.22697854 -0.2093562
0.2682974 -0.33622372 -0.9248965 -0.33000427 0.30444616 -0.14806104 0.09932939 -0.19184688
0.17555696 -0.084991194 0.45133457 -0.15764537 -0.1879246 -0.15152767 -0.027962036 0.3010059
-0.12446957 0.16865347 -0.16471992 -0.26076472 -0.43038365 -0.14659314 -0.51067346 -0.081852965
0.20658441 0.20314877 0.2624511 0.10513817 0.19498153 -0.21342777 0.073459744 -0.5994889
0.21426743 -0.34890816 0.31439233 0.3548807 0.19513126 0.115139484 0.23972496 -0.03598601
0.122906215 -0.39268434 0.4085595 -0.01579201 0.6381472 0.20504339 0.055407073 -0.09916609
-0.16507587 -0.17700352 0.3572475 -0.44967076 0.35489568 0.28907067 0.28738892 0.013917267

layernorm.weight f4 [150]
00000000: 0000 803f 0000 803f 0000 803f 0000 803f
00000010: 0000 803f 0000 803f 0000 803f 0000 803f
00000020: 0000 803f 0000 803f 0000 803f 0000 803f
00000030: 0000 803f 0000 803f 0000 803f 0000 803f
00000040: 0000 803f 0000 803f 0000 803f 0000 803f
00000050: 0000 803f 0000 803f 0000 803f 0000 803f
00000060: 0000 803f 0000 803f 0000 803f 0000 803f
00000070: 0000 803f 0000 803f 0000 803f 0000 803f
00000080: 0000 803f 0000 803f 0000 803f 0000 803f
00000090: 0000 803f 0000 803f 0000 803f 0000 803f
000000a0: 0000 803f 0000 803f 0000 803f 0000 803f
000000b0: 0000 803f 0000 803f 0000 803f 0000 803f
000000c0: 0000 803f 0000 803f 0000 803f 0000 803f
000000d0: 0000 803f 0000 803f 0000 803f 0000 803f
000000e0: 0000 803f 0000 803f 0000 803f 0000 803f
000000f0: 0000 803f 0000 803f 0000 803f 0000 803f
00000100: 0000 803f 0000 803f 0000 803f 0000 803f
00000110: 0000 803f 0000 803f 0000 803f 0000 803f
00000120: 0000 803f 0000 803f 0000 803f 0000 803f
00000130: 0000 803f 0000 803f 0000 803f 0000 803f
00000140: 0000 803f 0000 803f 0000 803f 0000 803f
00000150: 0000 803f 0000 803f 0000 803f 0000 803f
00000160: 0000 803f 0000 803f 0000 803f 0000 803f
00000170: 0000 803f 0000 803f 0000 803f 0000 803f
00000180: 0000 803f 0000 803f 0000 803f 0000 803f
00000190: 0000 803f 0000 803f 0000 803f 0000 803f
000001a0: 0000 803f 0000 803f 0000 803f 0000 803f
000001b0: 0000 803f 0000 803f 0000 803f 0000 803f
000001c0: 0000 803f 0000 803f 0000 803f 0000 803f
000001d0: 0000 803f 0000 803f 0000 803f 0000 803f
000001e0: 0000 803f 0000 803f 0000 803f 0000 803f
000001f0: 0000 803f 0000 803f 0000 803f 0000 803f
00000200: 0000 803f 0000 803f 0000 803f 0000 803f
00000210: 0000 803f 0000 803f 0000 803f 0000 803f
00000220: 0000 803f 0000 803f 0000 803f 0000 803f
00000230: 0000 803f 0000 803f 0000 803f 0000 803f
00000240: 0000 803f 0000 803f 0000 803f 0000 803f
00000250: 0000 803f 0000 803f
1.0 1.0 1.0 1.0 1.0 1.0 1.0 1.0
1.0 1.0 1.0 1.0 1.0 1.0 1.0 1.0
1.0 1.0 1.0 1.0 1.0 1.0 1.0 1.0
1.0 1.0 1.0 1.0 1.0 1.0 1.0 1.0
1.0 1.0 1.0 1.0 1.0 1.0 1.0 1.0
1.0 1.0 1.0 1.0 1.0 1.0 1.0 1.0
1.0 1.0 1.0 1.0 1.0 1.0 1.0 1.0
1.0 1.0 1.0 1.0 1.0 1.0 1.0 1.0
1.0 1.0 1.0 1.0 1.0 1.0 1.0 1.0
1.0 1.0 1.0 1.0 1.0 1.0 1.0 1.0
1.0 1.0 1.0 1.0 1.0 1.0 1.0 1.0
1.0 1.0 1.0 1.0 1.0 1.0 1.0 1.0
1.0 1.0 1.0 1.0 1.0 1.0 1.0 1.0
1.0 1.0 1.0 1.0 1.0 1.0 1.0 1.0
1.0 1.0 1.0 1.0 1.0 1.0 1.0 1.0
1.0 1.0 1.0 1.0 1.0 1.0 1.0 1.0
1.0 1.0 1.0 1.0 1.0 1.0 1.0 1.0
1.0 1.0 1.0 1.0 1.0 1.0 1.0 1.0
1.0 1.0 1.0 1.0 1.0 1.0

layernorm.bias f4 [150]
00000000: 0000 0000 0000 0000 0000 0000 0000 0000
00000010: 0000 0000 0000 0000 0000 0000 0000 0000
00000020: 0000 0000 0000 0000 0000 0000 0000 0000
00000030: 0000 0000 0000 0000 0000 0000 0000 0000
00000040: 0000 0000 0000 0000 0000 0000 0000 0000
00000050: 0000 0000 0000 0000 0000 0000 0000 0000
00000060: 0000 0000 0000 0000 0000 0000 0000 0000
00000070: 0000 0000 0000 0000 0000 0000 0000 0000
00000080: 0000 0000 0000 0000 0000 0000 0000 0000
00000090: 0000 0000 0000 0000 0000 0000 0000 0000
000000a0: 0000 0000 0000 0000 0000 0000 0000 0000
000000b0: 0000 0000 0000 0000 0000 0000 0000 0000
000000c0: 0000 0000 0000 0000 0000 0000 0000 0000
000000d0: 0000 0000 0000 0000 0000 0000 0000 0000
000000e0: 0000 0000 0000 0000 0000 0000 0000 0000
000000f0: 0000 0000 0000 0000 0000 0000 0000 0000
00000100: 0000 0000 0000 0000 0000 0000 0000 0000
00000110: 0000 0000 0000 0000 0000 0000 0000 0000
00000120: 0000 0000 0000 0000 0000 0000 0000 0000
00000130: 0000 0000 0000 0000 0000 0000 0000 0000
00000140: 0000 0000 0000 0000 0000 0000 0000 0000
00000150: 0000 0000 0000 0000 0000 0000 0000 0000
00000160: 0000 0000 0000 0000 0000 0000 0000 0000
00000170: 0000 0000 0000 0000 0000 0000 0000 0000
00000180: 0000 0000 0000 0000 0000 0000 0000 0000
00000190: 0000 0000 0000 0000 0000 0000 0000 0000
000001a0: 0000 0000 0000 0000 0000 0000 0000 0000
000001b0: 0000 0000 0000 0000 0000 0000 0000 0000
000001c0: 0000 0000 0000 0000 0000 0000 0000 0000
000001d0: 0000 0000 0000 0000 0000 0000 0000 0000
000001e0: 0000 0000 0000 0000 0000 0000 0000 0000
000001f0: 0000 0000 0000 0000 0000 0000 0000 0000
00000200: 0000 0000 0000 0000 0000 0000 0000 0000
00000210: 0000 0000 0000 0000 0000 0000 0000 0000
00000220: 0000 0000 0000 0000 0000 0000 0000 0000
00000230: 0000 0000 0000 0000 0000 0000 0000 0000
00000240: 0000 0000 0000 0000 0000 0000 0000 0000
00000250: 0000 0000 0000 0000
0.0 0.0 0.0 0.0 0.0 0.0 0.0 0.0
0.0 0.0 0.0 0.0 0.0 0.0 0.0 0.0
0.0 0.0 0.0 0.0 0.0 0.0 0.0 0.0
0.0 0.0 0.0 0.0 0.0 0.0 0.0 0.0
0.0 0.0 0.0 0.0 0.0 0.0 0.0 0.0
0.0 0.0 0.0 0.0 0.0 0.0 0.0 0.0
0.0 0.0 0.0 0.0 0.0 0.0 0.0 0.0
0.0 0.0 0.0 0.0 0.0 0.0 0.0 0.0
0.0 0.0 0.0 0.0 0.0 0.0 0.0 0.0
0.0 0.0 0.0 0.0 0.0 0.0 0.0 0.0
0.0 0.0 0.0 0.0 0.0 0.0 0.0 0.0
0.0 0.0 0.0 0.0 0.0 0.0 0.0 0.0
0.0 0.0 0.0 0.0 0.0 0.0 0.0 0.0
0.0 0.0 0.0 0.0 0.0 0.0 0.0 0.0
0.0 0.0 0.0 0.0 0.0 0.0 0.0 0.0
0.0 0.0 0.0 0.0 0.0 0.0 0.0 0.0
0.0 0.0 0.0 0.0 0.0 0.0 0.0 0.0
0.0 0.0 0.0 0.0 0.0 0.0 0.0 0.0
0.0 0.0 0.0 0.0 0.0 0.0

batchnorm.weight f4 [150]
00000000: 15df 943c 053b 913f 3258 963f 7cfe bf3e
00000010: 378c ef3e 1fca 8d3e 6ca2 8c3f c1ad 913e
00000020: 9c97 833f d1b2 ce3e f793 b33f 772b d03e
00000030: fea0 4f3f fc95 673e e69b cd3e 03d0 dc3e
00000040: c010 243f 66ae e63e 165a 743e 74f9 f43f
00000050: 041f 953f 5a6a e93d 191f af3e 83c1 4f3f
00000060: e2e3 ce3f 3a3e 2e3f afa5 01bd 46b7 8a3f
00000070: abe8 8e3f 3275 c3bd c94a 26bd 3608 0a3f
00000080: a356 553f 2dd5 cf3e 6392 7ebf fb4d 003f
00000090: a9d8 2f3f 3c06 feba 357f 6c3e 0775 eb3e
000000a0: 0035 943f c427 4b3f f7aa de3e 7e1a a53f
000000b0: 28fd 7c3f 1f74 933d 462f 473f 732d 4a3f
000000c0: 46f1 a03d 08a5 96bb 7ccb 413f de28 91bd
000000d0: 1a54 aa3f 30a1 893e 0c3f 013f b068 b63f
000000e0: f87d 1f3f b620 543f dcdc da3e 1f5e f13e
000000f0: 87ef 1dbe 82c6 393f 8268 e03f 7f09 963f
00000100: 9d32 ea3e ec13 973e 83f0 213f 4f4d 493f
00000110: 6bf7 0e3f 106e 143f bacb 173f 42ac ac3f
00000120: c01f 933f f1a4 a23e 549e d93e 97b2 0b3f
00000130: ceb4 323f d846 fe3d 4af7 a03e a352 0c40
00000140: e707 2d3e db55 6f3e 92ad de3f 404f 613f
00000150: ee7b 0e3f dfdf f43e 7bed 093f bf57 ef3e
00000160: 8ef9 a73f 0d94 653d 0cf7 073e 7ed9 403f
00000170: bdf3 ee3e e2f0 bb3e 2d81 113f 5f46 083f
00000180: 6c31 3c3f 7226 c33e ecbc 1b3f 9b71 c4be
00000190: 642b 083f 85d2 a23e 2f33 f03e e4d4 aa3e
000001a0: e756 843e 6932 a43d 5818 033f 8edd 293e
000001b0: 4dc3 663e 13e9 9a3f 8513 d63e 25db e33e
000001c0: 5915 743f 36ca 163c 6e91 393f 5a0b da3e
000001d0: 92d7 523f b34c 043f 7c90 623e 19f6 d83e
000001e0: 7022 a53e 13a6 fd3e 4d78 943f c826 e43d
000001f0: 03e3 213f 19f2 b13d ac4a 63bc be35 1e3f
00000200: bedd 103f 9610 063e 5a78 273d 6dc0 6e3f
00000210: 5c6b b03e 7aae 8e3e 8760 0a3f efaf aa3e
00000220: 5744 a03f 4afb 073f f108 0a3f fb8d 533f
00000230: 777a 1e3f 4c1c cd3e df5e 2c3f 2f16 b33e
00000240: 366b 0d3f 92a6 bc3e cb52 eb3e 02c6 f03e
00000250: f599 0040 79e8 a73e
0.01817278 1.1346136 1.1745665 0.37498844 0.46786663 0.2769327 1.0987067 0.28452876
1.0280643 0.403708 1.402953 0.4065816 0.8110503 0.22615808 0.40158004 0.4312745
0.6408806 0.4505493 0.2386249 1.9138627 1.165009 0.11397238 0.34203413 0.8115465
1.6163294 0.680637 -0.03165215 1.0837181 1.1164755 -0.095438376 -0.040598664 0.5391878
0.8333532 0.40592328 -0.9944212 0.5011899 0.6868997 -0.001938052 0.230954 0.45987722
1.1578674 0.7935755 0.4348981 1.289871 0.98823786 0.07199883 0.7780651 0.789756
0.07858519 -0.00459731 0.7570112 -0.07087873 1.3306916 0.2688079 0.50486827 1.4250698
0.6230159 0.8286241 0.42746627 0.4714212 -0.15423404 0.72568524 1.7531893 1.1721648
0.4574174 0.29507387 0.63257617 0.7863359 0.5584628 0.5798044 0.5929524 1.3490069
1.1494064 0.31766465 0.42503607 0.5456938 0.69807136 0.12415856 0.31438667 2.1925437
0.16897546 0.23372595 1.739672 0.8801155 0.5565785 0.4782705 0.5387799 0.46746632
1.3123033 0.056049395 0.13277835 0.75331867 0.46670333 0.36707217 0.5683773 0.5323238
0.7351291 0.3811527 0.60835147 -0.38367924 0.5319121 0.3180124 0.4691405 0.33365548
0.2584755 0.080174275 0.5120902 0.16588423 0.22535439 1.2102379 0.41811767 0.44503132
0.95345074 0.009203484 0.72487533 0.42586786 0.82360184 0.51679534 0.22125429 0.42375258
0.32252836 0.49540767 1.1599213 0.111402094 0.6323702 0.086887546 -0.013872784 0.61800754
0.5658835 0.13092265 0.04088626 0.9326237 0.3445691 0.2786749 0.5405354 0.33337352
1.2520856 0.5311781 0.53919894 0.8263852 0.61905617 0.4006065 0.6733226 0.34977862
0.55241716 0.36845833 0.45961604 0.47026068 2.0093968 0.3279455

batchnorm.bias f4 [150]
00000000: 5567 853f 09ae 9bbe 4b2e 4f3f 7a86 403f
00000010: 9836 6c3f a927 483f c8a4 4c3f f1b1 053f
00000020: f3e6 143f 33eb 053f 5146 003f e405 373f
00000030: 558e 96bd 9fb3 133f 1668 4e3f 1fae 583f
00000040: 3599 4d3f b871 863f a011 833f c3bf 693e
00000050: 546a 413f 90b2 883f f015 573f 64b0 a3bd
00000060: 76d2 aebe 5fb8 1e3f 66ea 293f f843 303f
00000070: 98f3 60bf 8bf9 303f 53db 343f 4d72 703f
00000080: 5767 4d3f 4b9c 3a3f 78b4 6b3f 53ce 333f
00000090: d345 51bf bbc1 073f 391a 133f 433e ee3e
000000a0: 8233 183f 5281 803f 8ac7 4bbf 199c 4e3f
000000b0: aa71 ee3e bffb 8b3f 1717 4b3f 767a 663f
000000c0: baa8 143f 98a8 4a3f e09d 943e 70dc 1b3f
000000d0: 1095 ac3e 0669 393f 6973 2c3f 29eb 343f
000000e0: 9958 603f 15e8 d13e 03de 223f 378a 3d3f
000000f0: d831 3b3f 7aac 4cbf f69d 123f 89e5 233f
00000100: 6441 243f c8a6 463f fbee 313f 98a9 583f
00000110: 0dfe 433f bbd4 0cbf ed38 74bf e31c 6a3e
00000120: d3b9 023f 2421 6f3f 7996 1a3f ac5a 223f
00000130: cbe7 b33e 1aad 063f f15c 113f f2a2 e43e
00000140: d0c7 fd3e 462e 0cbf e720 8bbf 4a9c 7dbf
00000150: 2d10 1b3f 3f18 48bf f165 5e3f c540 313e
00000160: dd65 1c3f 77a4 6a3f 6cc4 2b3f d313 24bf
00000170: 0c61 273f 049b 983e 82c0 ca3e aa13 e43e
00000180: 5925 693f bf4c edbe 7bef 4abf e34b 4e3f
00000190: d075 1b3f d094 613f 92eb 393f f633 ac3e
000001a0: 7438 ba3e c4d9 763f 979f 253f 5064 4d3f
000001b0: 6d2f 313f e747 123f fa8d e53e 84b1 463f
000001c0: 0b49 143f 7f70 6e3f 6cb2 9bbf 935c 3b3f
000001d0: 8611 793f 4bc5 1c3f bbdb 1a3f 9572 e13e
000001e0: ccff 8abf 2bc1 e63e 9863 293f 91a7 6ebf
000001f0: 8905 4d3f dd45 3a3f 0b77 3d3f 0b34 173f
00000200: aa97 723f a779 473f 411d 343f 4bce 123f
00000210: 728c 013f 18b6 293f fd25 103f 2aed 393f
00000220: 0136 db3e abf0 483f 40b8 053f f488 48bf
00000230: 3293 3d3f 51cc f83e 6d2e 9cbd 85d3 803f
00000240: 9b94 323f 07d5 363f 8abf 533f cd8e 59bf
00000250: 95ae 1b3f 99d4 513f
1.042216 -0.30406216 0.8093001 0.75205195 0.92270803 0.78185517 0.79938936 0.5222464
0.581649 0.5231201 0.50107294 0.71493363 -0.073513664 0.57695955 0.8062757 0.8464069
0.803119 1.0503454 1.0239754 0.22827058 0.7555287 1.0679493 0.8401785 -0.07992628
-0.34144944 0.6200008 0.6637329 0.6885371 -0.87871695 0.6913077 0.7064716 0.9392441
0.8023581 0.72894734 0.9207225 0.702367 -0.8174717 0.53029984 0.5746189 0.46531877
0.59453595 1.0039465 -0.7960135 0.80706936 0.46571094 1.0936202 0.7933211 0.9003061
0.58069956 0.79163504 0.290267 0.60883236 0.33707476 0.7242588 0.673636 0.70671326
0.8763519 0.40997377 0.63620013 0.74039024 0.7312293 -0.7995068 0.5727228 0.6402212
0.6416228 0.7759824 0.6950528 0.8463378 0.76559526 -0.550121 -0.9539936 0.22862582
0.51064795 0.93409944 0.60385853 0.63419604 0.35137782 0.5260788 0.5678244 0.44655567
0.49566507 -0.5475811 -1.0869416 -0.99066603 0.6057156 -0.78161997 0.868743 0.17309864
0.6109293 0.91657203 0.6709659 -0.6409275 0.65382457 0.29805768 0.39599997 0.44546252
0.91072613 -0.46347615 -0.7927167 0.80584544 0.6072664 0.88117695 0.72625077 0.33633393
0.36371195 0.96426034 0.6469664 0.8023119 0.6921299 0.57140964 0.44834882 0.7761462
0.57923955 0.93140405 -1.2163825 0.7318813 0.97292364 0.61238545 0.6049153 0.44032732
-1.0859313 0.4506925 0.66167593 -0.93224436 0.8008657 0.7276285 0.7400977 0.59063786
0.9476267 0.7792 0.7035714 0.5734603 0.5060493 0.6629348 0.56307966 0.7262751
0.4281464 0.7849223 0.5223427 -0.78333974 0.7405273 0.4859338 -0.076260425 1.0064551
0.69758004 0.71418804 0.8271414 -0.8498352 0.60813266 0.81965023

batchnorm.running_mean f4 [150]
00000000: 65f5 debb b4de c0be a5f7 ebbc ad2e 9fbc
00000010: 3703 64bb 00bf 22bd e12d 0abf 32d8 70bf
00000020: dff3 303f 6fdc 6ebc 9497 ef3e 3e98 153f
00000030: 0fe7 b73a c3e4 4d38 8605 08be 5314 b9bb
00000040: 7ae9 12bf 3747 deb9 3990 47bb c984 153f
00000050: eb7c 323f d46a e2bb a4d1 3cbd 3042 cfbe
00000060: 3c70 1abf fba7 7ebc 56aa 893c 22a4 263f
00000070: 87a9 00bc e370 72bf 896d 8cbc a4f1 6e33
00000080: 1243 ccbe 377f 5bbe 7803 b03d 569a 733f
00000090: 948a 733f a918 40bf 84b7 74bf 11b7 75bf
000000a0: aaee 10bf 3406 4dbe e2f1 0f3a 1775 413f
000000b0: 0643 0a3f 3e87 1d3f a591 e4bd c314 89b6
000000c0: 6cf6 74bf b33c d73e c8fa 693a f699 38bf
000000d0: 327f 343f 87a1 26bb 0a02 76bf b46f 1fbe
000000e0: 0f05 47bc ca6e 4cbe 64a3 a13d 394e abb1
000000f0: a008 5b3b 7c94 13ba 1b21 dd3e 4a53 cdbe
00000100: 3616 66bf a490 1abd cf99 7fbc dc39 69bc
00000110: 0c4e 313f f374 bcba 0d23 e1bc 84ac cf3e
00000120: 5200 8bbe 8378 9ebb 81ff 76bf 08dc 37bf
00000130: b364 e1be 4d11 1f3b 1d1b a4bc 988b e63e
00000140: 6ff2 73bf 9034 73b6 c2e1 a83e cc0f 3e3f
00000150: 6be5 2ebc 6fcb 363d c556 a3be 54ee b53b
00000160: c14c 143f 082c 613b 683b 30bd 6724 51bf
00000170: 8cc2 60bf e87c 3dbf d293 75bf 8ddc 9bbd
00000180: 22a2 83bd 8358 7abc decb da3b 3e9a 39bf
00000190: 6ec0 e7be eb33 e0bc 7bda 76bf 5667 75bf
000001a0: 410d 76bf 5c8a 8abb c3d8 77bf 882c 54bc
000001b0: f8cc 42bf d2ea 6e3f 6f00 73bf f079 0abd
000001c0: 8c80 613f 10ff 3fbf f7e9 4dbf 3b25 77bf
000001d0: de93 733f 1739 733f 97b9 54bf dbe9 76bf
000001e0: b2eb 3e3f 4d5e 5dbb f835 613f aa08 61b7
000001f0: ff2a 93bb 9269 4cbc 150b f63b 7558 bd3b
00000200: ee9a 73bc 2747 73bf 171e 3e3d f732 783f
00000210: e457 82be b629 77bf 528c 2c3f dbfd 47bf
00000220: fa3b 28bf 8dfc 763f a136 77bf c8ac 3bbf
00000230: 5dd3 483f 4a7f 6ebf e100 aa3b fe3a 4bbb
00000240: 98a5 4f3f e90b 133c e7db 68bd 0e76 b8b8
00000250: d864 0a3f ab0f cfb8
-0.0068041557 -0.3766991 -0.02880461 -0.019431436 -0.0034791955 -0.039732933 -0.53976256 -0.9407989
0.6912212 -0.014578923 0.46795332 0.5843543 0.0014030653 4.908886e-05 -0.13283357 -0.005648175
-0.57387507 -0.000423962 -0.0030450954 0.5840574 0.6972186 -0.0069097076 -0.046098366 -0.40480185
-0.60327506 -0.015542979 0.016804855 0.65094197 -0.0078529185 -0.947035 -0.017142074 5.5633464e-08
-0.3989492 -0.21435247 0.085944116 0.9515737 0.9513333 -0.7503763 -0.9559252 -0.9598246
-0.5661417 -0.20021898 0.00054910604 0.7556929 0.5400852 0.6153449 -0.11160592 -4.085335e-06
-0.9568851 0.42038497 0.0008925614 -0.72109926 0.70506585 -0.0025425868 -0.9609686 -0.15569955
-0.012147202 -0.19964138 0.078924924 -4.985648e-09 0.003342189 -0.0005629731 0.4318932 -0.40102607
-0.8987764 -0.037735596 -0.015600636 -0.014234986 0.69259715 -0.0014378115 -0.027482534 0.40561306
-0.27148682 -0.0048361435 -0.9648362 -0.71820116 -0.4402214 0.0024271787 -0.02003246 0.45028377
-0.952918 -3.6240417e-06 0.3298474 0.74242854 -0.010674815 0.044627603 -0.31902137 0.0055520926
0.5792962 0.003435852 -0.043025404 -0.8169617 -0.87796855 -0.74018717 -0.9592868 -0.07610426
-0.06427409 -0.015279892 0.006677135 -0.7250098 -0.45264 -0.027368506 -0.96427125 -0.95860803
-0.96113974 -0.0042279195 -0.9681513 -0.01295007 -0.7609401 0.9332706 -0.94922537 -0.033807695
0.8808677 -0.7499857 -0.8043513 -0.96541184 0.951475 0.9500899 -0.8309569 -0.96450585
0.7457839 -0.0033778131 0.87972975 -1.3413062e-05 -0.0044912095 -0.012476342 0.0075086453 0.005778367
-0.014868481 -0.95030445 0.046415415 0.96952766 -0.2545768 -0.9654802 0.6740161 -0.7812173
-0.65716517 0.9647911 -0.9656773 -0.7331052 0.78447515 -0.9316298 0.005188093 -0.0031010504
0.8111205 0.008975008 -0.05685034 -8.795793e-05 0.54060125 -9.8734476e-05
