src/results/subject_P16/best_model.pth (torch, 481333 bytes, 15 tensors)

input_linear.weight f4 [40, 40]
000000 fe 7a f9 3d 38 3b 45 bd 57 97 9d bd 9d 60 10 3e
       0.12181662 -0.04815218 -0.076948814 0.14099355
000010 80 6d 45 bd 24 7c 1b bd 15 aa 86 bd dc 1f 6e 3d
       -0.04820013 -0.037960187 -0.06575409 0.058135852
000020 2e 1e 68 bd 9b bf 13 3e 38 60 3f bd 6e 5c 89 bd
       -0.056669407 0.1442856 -0.04672262 -0.06707083
000030 f8 bf fb 3c 80 5d a7 3c 7a 43 c8 3d f5 a2 96 bd
       0.030731186 0.020430326 0.09778495 -0.073553
000040 c5 15 ee bd 08 f5 e8 bd 88 98 94 bc 1a 9c a0 3d
       -0.11625246 -0.11374861 -0.018139139 0.07842274
000050 84 68 2c 3d 21 b5 ce bd 3a 3d 71 bd 53 c0 0b be
       0.04209186 -0.10093141 -0.05889628 -0.13647585
000060 5c bc 06 3d 54 8e 51 3d a8 93 5e 3d cf 93 05 be
       0.032894477 0.051161125 0.054340035 -0.13044666
000070 54 76 ac bd 02 34 c0 3d 0a 5d 99 bd 8c 92 a0 bd
       -0.08421007 0.0938492 -0.07488449 -0.078404516
000080 5e d5 ee 3d d8 8e 04 bd 9c 15 0f 3d e3 e6 09 3e
       0.1166179 -0.03236279 0.034932718 0.13466983
000090 63 0d 08 be ee 25 fb 3d 7e 48 b6 3d 77 be 0b be
       -0.13286357 0.12263094 0.089005455 -0.13646875
0000a0 ac 8a 02 3d f8 b7 e3 3c 28 60 a7 3c 12 e9 84 bd
       0.03187053 0.027797684 0.020431593 -0.06489767
0000b0 44 be 6a 3d 78 d3 87 bc c4 38 18 3d b8 15 33 3d
       0.057310358 -0.016580328 0.03716351 0.043721884
0000c0 a4 ca 74 3d db ac 0b 3e a3 12 d9 bd cb 27 1a 3e
       0.059763566 0.13640158 -0.10599258 0.15054242
0000d0 dc bd 97 3d 00 81 e0 bd 88 e7 b5 3c b2 dd c5 3d
       0.0740926 -0.10962105 0.02220513 0.09661426
0000e0 61 1d eb bd 7e 4b d9 3d a8 17 9e 3c 22 76 a8 3d
       -0.11480213 0.10610102 0.01929839 0.08225657
0000f0 6e da 09 be cb 94 a4 bd b4 f7 7c 3d c0 99 22 bd
       -0.1346223 -0.080361925 0.061759666 -0.03969741
000100 1b 01 82 bd 74 0e 72 3d 6f 77 06 3e dc b8 86 3d
       -0.06347867 0.059095815 0.13131498 0.06578228
000110 da c1 bc 3d c0 38 52 bd ed 19 1b 3e e2 f2 bf 3d
       0.09216662 -0.051323652 0.15146609 0.09372498
000120 a5 7a 20 be fc 18 d2 bd 88 f1 90 3d fe 1f fb 3d
       -0.15671785 -0.10258672 0.070773184 0.122619614
000130 17 44 15 3e ac c2 81 3d 1f 46 16 3e da bf dd bd
       0.14576755 0.06335959 0.14675187 -0.108276084
000140 b0 0b f4 3c d1 ff 12 be ce 42 3b bd 92 0c ed bd
       0.02979073 -0.14355399 -0.045718007 -0.11574663
000150 40 35 8c bb 90 1f 97 3d c0 bd ad bd a0 ae e8 bc
       -0.004278809 0.07379067 -0.084834576 -0.02840358
000160 0d f7 9c bd 10 67 9f bc 0a ac 2c bd 6a ba c8 3d
       -0.07664309 -0.019458324 -0.042156257 0.09801181
000170 70 0c 22 3c ac 82 b6 3d 8a e1 a7 3d 38 97 b8 3c
       0.009890661 0.089116424 0.08197315 0.022533044
000180 cc ac 52 3d be 5a 1f be 57 1a d5 bd f8 c4 ac 3d
       0.051434323 -0.15561959 -0.104054146 0.08436006
000190 b8 77 22 bd 0c 6c 92 3d 0e 03 09 be 30 a5 e7 bd
       -0.039664954 0.071495146 -0.13380072 -0.11310804
0001a0 12 26 d0 bd c0 11 0c bc 3a a3 f6 3d 00 1e 05 3a
       -0.10163511 -0.008549154 0.12042852 0.0005078018
0001b0 50 4a 1c bc 96 df 1a be c8 50 ca bc d5 49 00 3e
       -0.009539202 -0.15124354 -0.024696723 0.12528165
0001c0 68 bb 3e bd 1d 8e 1f be c0 3e a7 3c bb 62 16 3e
       -0.046565443 -0.15581556 0.020415664 0.146861
0001d0 b8 9d bc 3c c8 19 b4 3c b5 c1 07 3e fe e4 bb 3d
       0.023024425 0.02198495 0.13257487 0.09174536
0001e0 18 5e 17 be 00 63 db 3c cf 2c 18 3e 5f f5 1f be
       -0.14781988 0.026780605 0.14860843 -0.15620945
0001f0 34 80 c3 bd d3 ee 86 bd be b5 d0 3d 4c e9 64 bd
       -0.09545937 -0.06588521 0.101909146 -0.05588655
000200 3c d6 db bd 9c 05 50 3d 2c f9 97 3d 3c d4 da bd
       -0.10734221 0.0507866 0.07420573 -0.10685012
000210 eb ce b5 bd 0e 2c f2 3d 58 35 31 bd e2 75 5f bd
       -0.08877357 0.11824809 -0.043263763 -0.05455578
000220 ea b3 f2 3d df 31 0a 3e 7a c4 d7 3d c8 06 b6 bd
       0.11850722 0.13495587 0.10535522 -0.08888012
000230 e4 79 79 bd 60 b5 e4 bb 84 64 49 3d 80 7e 5f 3b
       -0.06090726 -0.0069796294 0.049168125 0.00341025
000240 44 7a 68 3d 82 33 ae bd e8 13 cf bc 24 21 34 bd
       0.056757227 -0.08505918 -0.025278047 -0.043976918
000250 23 6d c9 bd ae 5a e0 3d db 95 0d 3e 08 1c c8 bc
       -0.09835269 0.10954796 0.13826697 -0.024427429
000260 15 a6 17 be f3 79 09 3e 80 c2 0a 3c 2a 1d bb bd
       -0.14809449 0.13425426 0.008469224 -0.09136422
000270 60 d7 b4 3c 7c 9a 69 3d 3c 3b 11 3d 40 df e5 bb
       0.022075355 0.057032093 0.03545688 -0.007015139
000280 be 50 fb 3d 1f cf 21 be 80 9a 47 bb 86 98 35 bd
       0.1227126 -0.15801667 -0.003045708 -0.04433491
000290 f7 2e 1c be ad 43 03 3e b2 0a d7 3d 38 52 10 3d
       -0.1525229 0.12818785 0.10500087 0.03523466
0002a0 24 e3 35 3d e2 a7 f0 3d 7e a3 e7 3d a2 4e da 3d
       0.04440607 0.11750771 0.113104805 0.10659529
0002b0 14 09 8f 3d 3a 00 4f bd 29 4d d3 bd e6 6e 06 be
       0.069841534 -0.050537325 -0.103174515 -0.13128242
0002c0 29 66 a9 bd 78 f9 d7 bd 60 58 8c 3d c0 75 1c bc
       -0.08271439 -0.10545629 0.06852794 -0.009549558
0002d0 c8 b7 5a 3d 1b 86 13 3e f0 9c a1 3d a6 7f 84 bd
       0.053397924 0.14406626 0.078912616 -0.064696595
0002e0 06 17 ef 3d d2 d3 b4 bd 10 f2 94 3c 29 db 0c 3e
       0.11674313 -0.08829464 0.01818183 0.13755478
0002f0 d8 4d 7d 3d 84 5c 78 3d 22 d9 f7 3d 26 2b c4 3d
       0.061841816 0.060635105 0.12101962 0.095785424
000300 80 16 49 bc dc 96 fb bd 80 be 6b bc dd 38 9e bd
       -0.012273431 -0.122846335 -0.01438868 -0.077256896
000310 50 9b 90 bd 64 82 5c 3d 20 02 1b 3d 57 3d 11 3e
       -0.070608735 0.053835288 0.037843823 0.14183556
000320 72 e7 b0 3d 99 08 a6 bd c6 19 f5 bd b8 5c a3 3c
       0.08637895 -0.081071086 -0.119678065 0.019941673
000330 20 ae 7b bd 30 68 af 3d 97 c2 18 3e 24 14 2a 3d
       -0.061445355 0.08564794 0.1491798 0.041523114
000340 31 61 20 3e 60 0d 7f 3c 68 78 e2 bc 48 5f c7 bd
       0.15662076 0.015567154 -0.027645305 -0.0973497
000350 af 0c ef bd d4 e6 91 bd 78 57 c5 3c b0 49 47 bc
       -0.11672341 -0.07124105 0.02408956 -0.012163565
000360 be e8 d0 3d 0d f4 0f 3e cc 37 5f 3d 3c 46 fb bd
       0.10200642 0.14057942 0.05449657 -0.122692555
000370 70 84 15 bc 68 4d 08 3d 29 13 0b 3e 38 f9 fb bd
       -0.009125814 0.033276945 0.13581528 -0.12303394
000380 94 2b 35 3d f8 49 9a bc b9 ff 18 3e 38 86 9a 3d
       0.044231012 -0.0188341 0.149413 0.075451314
000390 cc 6e 1e bd 90 22 56 3c 68 ac c3 bc 3c 06 73 3d
       -0.038679883 0.013069764 -0.02388592 0.059332117
0003a0 e0 74 8a 3b 38 0e f8 bd 78 ba c8 bd 30 be 2e 3c
       0.0042253584 -0.12112087 -0.09801191 0.010665461
0003b0 6e ba a3 bd 71 51 13 3e fa 76 c2 3d 35 b8 11 3e
       -0.07994543 0.14386536 0.09495349 0.14230426
0003c0 f6 86 ff 3d 30 b8 13 be 00 b4 cb 3b d4 1e 67 3d
       0.12476914 -0.1442573 0.006216526 0.056425884
0003d0 1d 33 16 be 72 e1 c8 bd a4 63 b4 3d c2 db 13 be
       -0.14667936 -0.09808625 0.088080674 -0.144393
0003e0 a0 3a 3b 3d 4b 98 ac bd 80 0b c3 ba b6 d6 ea bd
       0.045710206 -0.08427485 -0.0014880747 -0.11466734
0003f0 70 a7 19 bc 24 90 08 be 34 2e 27 3d dc c7 58 bd
       -0.009378299 -0.13336235 0.040815547 -0.052924976

input_linear.bias f4 [40]
000000 d2 28 df bd f0 ae ce bc ec 82 b5 3d a6 01 aa 3d
       -0.10896458 -0.025229901 0.08862862 0.08301096
000010 cc 7c 3e 3d 70 e5 56 bc 16 2c c1 3d 7a 92 e0 bd
       0.046505734 -0.013116226 0.09432237 -0.10965438
000020 1e 20 c3 3d 00 43 f0 ba 7c ab 04 be 2a dc e8 3d
       0.0952761 -0.0018330514 -0.12956041 0.11370118
000030 42 c9 d7 3d 1d b3 97 bd 38 2c 3b 3d d9 12 13 3e
       0.10536434 -0.0740721 0.045696467 0.14362659
000040 80 b4 ab bb fc da 6e bd 50 3f 35 bc 40 85 17 3b
       -0.005240023 -0.05831431 -0.011062458 0.0023120195
000050 22 60 99 bd 70 ef ed 3c e0 be 66 3c 4a ae a2 3d
       -0.07489039 0.029044837 0.014083594 0.07943399
000060 e5 68 18 3e 47 d3 04 3e 7b e4 1f be f6 ef af 3d
       0.14883764 0.12971221 -0.15614502 0.08590691
000070 8f 42 1b 3e c6 f7 c4 3d 10 ee 04 bc 34 6b 2f 3d
       0.15162109 0.096175715 -0.008113399 0.042826846
000080 f2 4e 21 be 01 b3 87 bd e0 94 85 3c b0 b1 1f be
       -0.15752771 -0.06625939 0.01630634 -0.15595126
000090 60 12 d1 3c f2 11 a7 bd d6 ed f5 3d 98 00 0c be
       0.025521457 -0.0815772 0.12008254 -0.13672101

lstm.weight_ih_l0 f4 [600, 40]
000000 f2 d8 1b 3e e3 ef f8 bd d5 6b 05 3e cc 7c 25 3d
       0.15219477 -0.1215513 0.13029416 0.04040222
000010 38 bf 53 be dd 6a 19 3e 5e e7 21 3e 0d 3b 31 be
       -0.20678413 0.14982171 0.15810916 -0.17307682
000020 35 34 35 be 21 50 b0 bd 46 5c 0b 3d b4 1e ba bc
       -0.17695697 -0.086090334 0.034023546 -0.022719719
000030 7d 3f 6c 3e 3f a6 0c 3e 21 17 07 bd eb c9 2d 3e
       0.23071094 0.13735293 -0.03298104 0.16971557
000040 07 aa 48 bd b3 74 9b 3d 77 cc d8 3c 17 05 e4 3d
       -0.048990276 0.07590618 0.026464684 0.11133783
000050 fd 94 be 3d 76 e2 2d 3e e9 17 2e be a8 97 5d 3e
       0.09305761 0.16980919 -0.17001309 0.21639884
000060 b6 bd 13 3e 1c ae 47 be 33 3c 9d 3e be e5 2d 3e
       0.14427838 -0.19500011 0.3070999 0.16982171
000070 1a 06 9e 3d 69 ff ad 3e 83 10 8d 3d 32 0c c4 3d
       0.077160075 0.33983925 0.06887915 0.095726386
000080 b6 2b fc 3c 2a 59 69 bc 1d 2e 07 be 7e bc 9f 3e
       0.030782562 -0.01424245 -0.13201185 0.31198496
000090 78 ff f7 3d 0b f6 72 be 3d a0 5e bd 19 da 85 bd
       0.12109274 -0.2372667 -0.054352034 -0.065357395
0000a0 b2 89 16 3e fd 64 80 bd 74 5e 7f 3d e3 df 9d be
       0.14700964 -0.06269262 0.062345937 -0.30834875
0000b0 f3 bf 32 be a4 50 80 3b cd a8 f4 3d 98 47 c6 bc
       -0.17456035 0.003915863 0.11946259 -0.02420406
0000c0 31 af 1e bd 01 34 bc bc e0 7c 38 be 3d 8a 9d be
       -0.038741294 -0.022974016 -0.18016386 -0.3076953
0000d0 bb 21 ee 3d 54 fc 23 3d a6 5f eb 3e 9d f5 88 3e
       0.11627527 0.04003556 0.4597141 0.26749888
0000e0 51 7c 7c be 46 1b f7 bd 3a 97 ff bd ea ea 1b 3d
       -0.24656798 -0.12065749 -0.12480016 0.03806583
0000f0 ce b6 a8 3d 17 57 db 3d 25 24 ab 3e 89 d7 31 be
       0.08237992 0.107099704 0.33426014 -0.17367376
000100 62 0b 0f 3d 3f f9 6d 3e 68 2a 83 3d be db 14 3e
       0.034922965 0.23239611 0.06404573 0.1453695
000110 08 00 2f be 73 95 00 3d 57 17 07 be 30 42 c8 3c
       -0.17089856 0.031392526 -0.13192497 0.024445623
000120 93 69 3a be 2b ed 51 be 4a db b6 3e cd f4 54 be
       -0.18204336 -0.20500629 0.3571418 -0.20796509
000130 18 61 a7 3c ab 8d 2c 3c 24 25 f0 bc 63 54 e4 3e
       0.02043204 0.010531823 -0.029314585 0.44595632
000140 37 43 47 3e 76 46 bb 3d ab e3 bc be c9 c9 7d be
       0.19459234 0.09144299 -0.36892447 -0.24784006
000150 f0 0d 4e 3e c5 1c d7 be e4 fb d7 be 5c fc ce 3e
       0.20122504 -0.42014137 -0.42184365 0.4042691
000160 ea cc be 3e ce 18 dc 3e d9 38 bf be 6b 3f e0 3e
       0.37265712 0.42987674 -0.3734806 0.43798384
000170 c9 c4 bb be cc 8d db be 77 57 d3 3e a1 92 46 bd
       -0.36673573 -0.4288162 0.41277668 -0.04847968
000180 de 82 04 be cb 26 e3 be 43 2f e7 be 03 ee ac be
       -0.12940547 -0.44365534 -0.45153245 -0.3377534
000190 18 2d b3 be b0 d4 d2 be 6b cd 02 3e ee d0 9f bc
       -0.3499534 -0.41177893 0.12773673 -0.019508805
0001a0 56 fc b6 be 55 9f 32 be 1e a8 9e be 85 bc 8e be
       -0.35739392 -0.17443593 -0.30987638 -0.27878204
0001b0 5f 7d c5 be 9f 5e 8d 3c d1 93 be be 0f 9a dd be
       -0.38572213 0.017257033 -0.3722215 -0.432816
0001c0 e1 aa cf be 9a 46 c7 bd a2 2b 2e 3e 16 98 95 3c
       -0.40560058 -0.09730263 0.17008832 0.018260997
0001d0 60 79 d9 be 53 2e 19 3e 7b a0 40 3e a5 ef ce 3e
       -0.42475414 0.14959078 0.18811218 0.4041721
0001e0 90 f1 44 3c 05 34 6f be 8f 88 5d 3e 49 3b 0d bd
       0.012020484 -0.23359688 0.21634124 -0.034480367
0001f0 bb fc 94 be 1d fb 6d 3e 3f 70 27 3e 74 83 90 be
       -0.29099068 0.23240323 0.16351412 -0.2822529
000200 fb c7 46 be ed 80 7c be a6 8c 5d bd 08 6b c9 be
       -0.19412224 -0.24658556 -0.05408921 -0.3933947
000210 76 a8 d9 3e d4 b3 62 3e 9c 8a 95 3d 2b 3b 2a 3e
       0.42511338 0.22138911 0.07301828 0.16624133
000220 bd 5f 47 3e 95 56 29 bd ec 75 75 bd a9 6c 90 3e
       0.19470115 -0.041342337 -0.059926912 0.282079
000230 5c ef 3b 3e 24 5b 8a 3e 41 74 20 3e 4a ec e6 3c
       0.18353027 0.2702266 0.15669347 0.028188843
000240 11 22 45 3e f7 09 a9 bd 83 e9 05 3e c3 9e 80 3d
       0.19251277 -0.08253854 0.13077359 0.062802814
000250 a2 91 8b bd 4f 56 d0 bd c6 37 53 bb d9 5e 81 3e
       -0.06814887 -0.10172712 -0.0032229288 0.25267676
000260 99 b0 ad bd 69 c4 d8 3d 02 7b 39 3e b5 72 05 3d
       -0.08480949 0.10584337 0.1811333 0.032580096
000270 2e d8 50 3e 59 c1 0e be 2a bc 44 be 2b 7d dd 3c
       0.20394966 -0.13940944 -0.19212404 0.027037224
000280 10 f3 a7 be b3 cf 5e 3e be b9 b3 3e 4c c0 13 3e
       -0.3280263 0.21758918 0.35102648 0.14428824
000290 ad a7 43 3e 6e a2 c7 3e db 22 a7 3e 60 65 b4 be
       0.19106932 0.38991112 0.3264378 -0.35233593
0002a0 1f 37 c8 be 7c 14 9f be 7c 06 6a 3e af c1 67 3e
       -0.39104554 -0.31070316 0.22854036 0.22632478
0002b0 95 f4 61 3e ad f6 c7 3e 4f 65 61 be a3 58 84 3e
       0.22065957 0.39055386 -0.22011302 0.25848874
0002c0 09 e6 8e be 88 30 8c 3e fa ae 84 3e aa 79 c0 3e
       -0.27909878 0.27380776 0.25914747 0.37592822
0002d0 64 db a5 3e 6d 92 b4 3e ec c3 6c be c2 22 9f 3d
       0.32393944 0.35267964 -0.23121613 0.077703014
0002e0 40 5b b5 3e 38 17 a5 3d 86 4c 73 3e 4e 29 a6 3e
       0.3542118 0.08061069 0.2375966 0.32453388
0002f0 31 9f 81 3e 53 f2 ff 3d 2d eb 4f 3e 6c 97 9c 3e
       0.25316766 0.124973916 0.20304556 0.30584276
000300 8b 55 5d 3e 11 c5 7d be c7 64 4b be 1a df 97 3d
       0.21614663 -0.24782206 -0.19862662 0.074156
000310 40 88 aa 3e 6e 75 18 bd 2d fe cb 3c 19 5f 45 be
       0.33307076 -0.037221365 0.024901474 -0.19274558
000320 43 63 ed be 39 ed b6 3e 1e ce 11 3f 95 c6 8b 3e
       -0.46364793 0.35727862 0.56955135 0.27299944
000330 d6 12 42 3e aa 7e ff 3e ef 09 14 3f b4 ba 0d bf
       0.18952498 0.49901325 0.5782766 -0.5536301
000340 85 de 10 bf 7d 45 03 bf 10 db dd 3e 22 8b 73 3e
       -0.5658954 -0.51277906 0.43331194 0.23783544
000350 c1 a3 6a 3e ba df f1 3e a6 b6 e6 be d1 b0 b2 3e
       0.2291403 0.47241002 -0.45061225 0.34900525
000360 67 7d 0b be d7 d7 01 3f 2f fc 06 3f 65 f9 fe 3e
       -0.13622056 0.5071997 0.5272855 0.49799648
000370 46 69 10 3f 2d f4 06 3f 25 cc 92 be db 55 84 be
       0.56410635 0.5271633 -0.28671375 -0.25846753
000380 93 c6 fa 3e c1 db 31 3e f5 a4 21 be 07 3b 79 3e
       0.48979625 0.17368986 -0.15785582 0.24338923
000390 f1 da f3 3e b6 9e 15 be 37 4b 03 3f 69 f2 08 3f
       0.47627977 -0.14611325 0.51286644 0.5349489
0003a0 5a f0 ed 3e 2c 4c bf bd 6c dc 7f be ef a7 91 be
       0.46472436 -0.093407005 -0.24986428 -0.28448436
0003b0 f8 01 0e 3f 01 31 00 3e 04 10 b6 3e ea c1 08 bf
       0.55471754 0.12518694 0.35559094 -0.5342089
0003c0 45 a9 62 3e e7 15 19 be f0 bc ba be 98 c9 b2 be
       0.22134884 -0.14949761 -0.36472273 -0.3491943
0003d0 43 50 53 be 6e 72 ed be 3e a8 e1 be ce 3e d9 3e
       -0.20636086 -0.46376365 -0.4407367 0.4243073
0003e0 d6 7f cd 3e 82 db e0 3e a8 fd b1 be 3a 88 3e bd
       0.40136594 0.4391747 -0.34763837 -0.046516635
0003f0 4a a2 c4 be 55 9b e8 be 0e 8a d7 3e 65 f5 ac 3e
       -0.38405067 -0.4543101 0.42097515 0.3378097

lstm.weight_hh_l0 f4 [600, 150]
000000 03 df 87 be 69 a7 88 be b5 e1 09 3e 16 8b 62 be
       -0.26537332 -0.26690224 0.13465007 -0.2212337
000010 e8 d3 56 be 2f d6 d7 bd 61 c2 45 3d 26 48 c1 bc
       -0.20979273 -0.10538899 0.048281077 -0.023593973
000020 14 dc 34 be 50 13 67 3e 5c ab 29 bd a0 ad f0 3d
       -0.17662078 0.22565961 -0.041423187 0.11751866
000030 9a 8b 59 be 04 85 85 be 55 69 05 be 16 91 63 be
       -0.2124466 -0.26078045 -0.13028462 -0.22223315
000040 d7 51 44 bd bc 6f 8d bd e4 63 27 3e 8d a2 b8 bd
       -0.04792961 -0.06906077 0.16346699 -0.09015379
000050 a4 96 bb be 1b e1 29 3e da 0a 11 3d 3c fa f8 bd
       -0.36638367 0.16589777 0.03541074 -0.121571034
000060 09 26 52 be 51 0d 56 be cb e3 34 be 92 c5 8e bd
       -0.20522322 -0.20903517 -0.17665021 -0.06971277
000070 15 4a 9e 3d 32 f5 d6 3d dd 15 a6 be a3 2f c3 3d
       0.07728974 0.10495986 -0.32438555 0.0953057
000080 da fe 9b 3d ab a2 2e 3c 3b 4c 30 be b8 6d 69 3e
       0.076169685 0.0106589 -0.1721658 0.2279576
000090 98 88 2e be 10 87 12 be c5 71 25 3d a5 ff 8f 3b
       -0.17044294 -0.14309335 0.040391702 0.004394489
0000a0 90 b5 fa bd 5d db 2b bd b8 fb 81 3e 1f 60 d9 bc
       -0.122416615 -0.041957248 0.2538736 -0.026535092
0000b0 bb 61 7e be 6c c3 d0 bc 7e fe a8 be a1 0a 6b be
       -0.24841969 -0.02548381 -0.33006662 -0.22953273
0000c0 3c f5 8c 3e 80 de 68 be 8e f3 48 be c7 db 59 be
       0.2753085 -0.22741127 -0.19624159 -0.21275245
0000d0 16 de 2f 3e 5e 38 06 bc 1e 5a fb bd 92 78 2d be
       0.17174563 -0.00819215 -0.12273048 -0.16940525
0000e0 3f 65 82 be 10 00 36 3d 1f b4 85 3d ba d7 58 be
       -0.2546787 0.044433653 0.06528496 -0.21176043
0000f0 94 34 24 bc 7e b9 03 3c d2 1b 91 3e 60 75 36 3d
       -0.010022301 0.00803983 0.28341538 0.04454553
000100 ee a9 1c be c0 1d 32 3c ce 93 93 bd 70 40 1f 3e
       -0.15299198 0.010871351 -0.07205926 0.15551925
000110 cd 00 7f 3e c2 48 ab 3d 4e a7 3e be 42 6f 43 be
       0.24902649 0.08363487 -0.18618509 -0.1908541
000120 88 24 52 be c6 f0 54 3e 3c 13 73 be 53 ec 02 bc
       -0.20521748 0.20794973 -0.23737806 -0.007990914
000130 2c dc 3e be 6c 7b fc 3d ee 41 42 be de 54 0c 3e
       -0.18638676 0.12328228 -0.18970463 0.1370425
000140 1b 00 c0 3d a3 4c 4f 3e 07 34 25 3e c6 0e 94 bd
       0.0937502 0.20244078 0.16133128 -0.0722938
000150 cb 97 a3 bd 17 68 58 3e 92 42 17 bd a8 cc 56 bc
       -0.079879366 0.21133457 -0.03692872 -0.013110317
000160 a1 c3 39 be ca b9 0b bd f6 31 7d 3c 71 82 ed bb
       -0.18141033 -0.03411273 0.015453806 -0.007248216
000170 8f 3b 1b bd be 98 7e bd f3 57 c2 ba cc 03 3a 3e
       -0.037898596 -0.062157385 -0.0014827236 0.18165511
000180 33 bb 2f be 92 f9 a3 bd 94 59 75 3d f4 23 1e be
       -0.17161255 -0.08006586 0.05989988 -0.15443403
000190 6d bb 22 be f2 c0 22 3e d5 85 fa bd 8f 77 01 3c
       -0.1589181 0.15893915 -0.12232558 0.00790204
0001a0 f1 9d f9 bc fd e8 00 be 5d 2a 44 be 92 a4 e9 bc
       -0.03047082 -0.12588878 -0.19156785 -0.028520856
0001b0 60 20 00 be e1 25 5a be da b8 15 be 95 3b 91 bc
       -0.1251235 -0.21303512 -0.14621297 -0.017728606
0001c0 d0 eb 1f bc d3 7e 99 3e 1d bb 01 be 58 62 32 be
       -0.009760812 0.29979572 -0.12669034 -0.17420328
0001d0 61 a1 32 3d 8e d5 27 bd a4 7c 39 be 50 b8 3c bd
       0.043610934 -0.040975146 -0.18113953 -0.04607421
0001e0 54 7a d5 3d 51 95 3a bd 04 96 9e 3d 6b 01 f5 bd
       0.10423723 -0.045552555 0.07743457 -0.11963161
0001f0 bd 60 0a be e8 57 b3 3d 47 f6 43 3d fc 73 96 bd
       -0.13513465 0.08757001 0.04784229 -0.07346341
000200 94 70 42 be 93 b3 9b bd 62 09 1e 3e 5a c6 5a be
       -0.18988258 -0.076026104 0.15433267 -0.21364728
000210 42 fc 5e be 3f d4 57 be 5c 1a 8a be d8 52 59 be
       -0.21775916 -0.21077059 -0.26973236 -0.21223009
000220 3e 29 0b 3d d3 ea 4d be 08 d9 09 be 64 f8 40 3b
       0.03397488 -0.2010911 -0.13461697 0.0029444927
000230 47 17 28 3c 72 34 2d be 1d a1 0e 3e a5 cd 9d 3d
       0.010259456 -0.16914538 0.13928647 0.07705239
000240 57 41 78 3c d2 85 3b be 37 6f 12 3e 7f 13 be 3d
       0.015152297 -0.18312767 0.14300238 0.09281062
000250 e2 71 f2 3d a7 8c a1 3d 89 3f 9b be a2 32 41 bd
       0.11838128 0.078881554 -0.3032191 -0.047167428
000260 d6 fe b4 be 2c 47 02 3e b5 2a 3d 3e 12 ae 2a 3e
       -0.35350674 0.12722462 0.18473323 0.16667965
000270 00 c2 26 3c 1b 75 5a 3e 64 5b 88 be d2 21 26 be
       0.010178089 0.21333735 -0.26632226 -0.16223839
000280 0d 95 83 3e 24 08 20 be e4 1e 1a 3e 11 e8 6a 3e
       0.25699654 -0.15628105 0.15050846 0.22940089
000290 39 69 18 bc 0d 89 63 be 79 64 b7 bd 2b d9 84 bc
       -0.009302431 -0.2222025 -0.089547105 -0.016216835
0002a0 97 c9 1c bd b6 14 37 3e a2 07 48 3e ad 64 cb 3d
       -0.03827819 0.17878994 0.19534162 0.09931312
0002b0 17 78 72 3d 75 e8 8b bc 59 11 85 be 8e 56 39 3e
       0.059196558 -0.017078618 -0.25989798 0.18099424
0002c0 51 c5 13 3e ec 65 ed bd 9c aa 67 3d db 53 a8 3d
       0.14430739 -0.11591706 0.05655919 0.08219119
0002d0 4e 75 e0 bd a0 75 bd bd bf 0e 31 3e 81 de b0 be
       -0.10959874 -0.09250951 0.17290781 -0.34544757
0002e0 1e eb fb 3d 6e 36 d2 3e 9f af 27 bc fb 79 f2 bd
       0.123007044 0.41057152 -0.010234742 -0.11839672
0002f0 bf e9 02 be a2 f6 13 3e 0a 2d b4 be b2 b0 56 3e
       -0.1278448 0.14449552 -0.35190612 0.20965841
000300 db d9 2b 3e b6 fc 8c 3c 8f d8 1b 3e 95 42 cb be
       0.16782324 0.017210346 0.1521933 -0.39699236
000310 bd b5 19 be 60 67 5c 3d 34 c1 08 3b 0d 81 11 3e
       -0.15010734 0.053809524 0.002086711 0.14209385
000320 8e 1c 31 3e c0 cc e4 3d 1a 7b 4d 3d 62 2e fc 3c
       0.17296049 0.111718655 0.050166227 0.030783836
000330 21 c2 6f bb 36 eb e8 3e ce 04 2e 3e 1f a7 f0 bd
       -0.0036584216 0.45491952 0.1699402 -0.11750626
000340 e0 9b 8c 3e 94 fb df be 54 61 d6 3e ad 52 b0 3e
       0.27462673 -0.43746626 0.4187113 0.34438077
000350 85 5e c2 bc 68 fe cb bd 12 f9 f9 3d f3 0d 10 bd
       -0.023726711 -0.099606335 0.122057095 -0.035169553
000360 a4 a6 51 be 77 57 ca bd d0 d0 da be fe 61 9e bd
       -0.20473725 -0.09879964 -0.42737436 -0.07733534
000370 28 40 3d 3e 8a a0 70 3e 4f 3a 36 3e 29 b7 04 bf
       0.18481505 0.23498741 0.1779568 -0.5184198
000380 71 16 2c be b8 e1 36 3e 77 20 1e 3e 39 02 95 3e
       -0.16805436 0.17859542 0.15442072 0.29103258
000390 59 ad 32 3d a3 d9 08 be 4f e4 8d 3e c5 99 34 be
       0.04362235 -0.13364272 0.27713248 -0.17636783
0003a0 eb 5d 50 be df ee 2c 3e 7c bf 4a 3e 30 30 e6 bd
       -0.20348327 0.16887997 0.19799608 -0.1123966
0003b0 4f 0b 83 3e 64 ed 48 3d be d5 52 3e 7d 2d 68 3e
       0.25594565 0.04905452 0.20589349 0.22673602
0003c0 47 7b 54 3e 9e 4f ba 3d 4f 79 c3 3d 73 80 96 be
       0.20750152 0.09097217 0.09544622 -0.29394874
0003d0 ae ab bb 3e 42 1a e1 be cf 4c 32 3e 66 ff 93 3e
       0.3665442 -0.43965346 0.17412113 0.2890579
0003e0 83 f7 5a be e9 c5 cd 3d 5b 9f 9a 3d cf ed ea bd
       -0.2138348 0.10047514 0.07549926 -0.1147114
0003f0 a2 3c d4 bd d0 3f 76 be 13 5d 2e 3e 66 9d ea 3e
       -0.10363127 -0.2404778 0.17027692 0.4582321

lstm.bias_ih_l0 f4 [600]
000000 73 62 fc 3d 90 57 5a 3d 56 70 c3 be b5 52 4a 3e
       0.12323465 0.053306162 -0.38171643 0.19758113
000010 29 19 d0 3e 06 7d 0b 3f a2 54 c9 be 7c b6 b9 3e
       0.40644196 0.54487646 -0.39322382 0.36272037
000020 0f 68 fd 3e 49 ad 8a 3e 09 f3 ca 3e 5c 03 b1 3e
       0.49493453 0.2708533 0.39638546 0.34572875
000030 f3 94 d6 3e 65 c7 a2 3e 8c 7e 2c be 21 74 e4 bd
       0.41910514 0.3179275 -0.16845149 -0.11154962
000040 93 f2 2b be d4 a9 37 3e b9 c1 d2 bd a5 8e 1b 3f
       -0.16791753 0.17935878 -0.10290856 0.60764533
000050 23 9a fe 3d ad ad b2 3e 7a e9 2f 3d 9e 33 80 be
       0.12431743 0.3489813 0.04294727 -0.2503938
000060 47 19 a0 be 9e 6e ee 3d 99 7a d5 3e a2 ac 88 3e
       -0.31269285 0.11642192 0.41695097 0.26694208
000070 72 f1 c1 3e 03 2e 66 3e d1 a0 83 3e ba 7e 31 be
       0.3787952 0.2247849 0.2570863 -0.17333499
000080 d2 06 82 be d5 7c 98 3d 69 1e 8b 3e 82 fb 9d be
       -0.25395828 0.07445685 0.2717164 -0.30855948
000090 00 e5 12 3e 41 4f 93 3d c0 80 0a bf d5 9b 71 3e
       0.14345169 0.07192851 -0.54102707 0.23594601
0000a0 6b 0f 26 bf b3 71 6f be 40 e0 20 3f 70 bb 1a 3e
       -0.64867276 -0.23383217 0.6284218 0.15110564
0000b0 8c a0 ac 3e ad b0 bc bd a3 aa 5b 3e 3b 3f 74 3e
       0.33716238 -0.09213386 0.21451811 0.23852246
0000c0 13 23 84 3e 87 f1 80 3e b3 75 4b 3f 20 52 ee 3e
       0.2580801 0.2518427 0.7947647 0.4654703
0000d0 48 91 b0 3e ab 05 8b 3e 84 eb 7a 3e ff 3d e8 3d
       0.3448584 0.27152762 0.24503905 0.1133995
0000e0 cd 52 68 3e 0b d2 1d bf 13 eb 6b 3e e0 a1 fb 3d
       0.22687836 -0.61648625 0.23038892 0.122867346
0000f0 a5 e7 c9 3d db 37 4d 3e 80 ab ce 3e 68 c3 5c 3e
       0.09858636 0.20040838 0.4036522 0.21558917
000100 91 27 d5 3e 6f ec 1a 3e ba bf a1 bd 41 b8 56 bd
       0.4163175 0.15129255 -0.07897897 -0.052421812
000110 7b be ed be a2 02 86 3e 1f ca ce 3d 92 f5 2a 3f
       -0.46434388 0.26173884 0.10097145 0.6678096
000120 10 49 6c 3e 60 5d 11 be 35 f8 86 3e bd 67 d9 3e
       0.23074746 -0.14195776 0.26361242 0.4246196
000130 88 f5 39 3e 61 23 e4 3d 3e d2 68 3e 37 e4 5c 3e
       0.18160069 0.111395605 0.22736451 0.21571432
000140 8b 55 93 bd 89 b6 bd bc 6f 2b 0b 3e 31 b5 77 3c
       -0.071940504 -0.023158329 0.13590787 0.015118883
000150 e8 bf 38 3e fc 2a c9 3e c3 18 86 3e 0a 4b 91 bd
       0.18041956 0.39290607 0.26190767 -0.07094391
000160 c2 b7 f0 3e 7d 17 00 3e f5 f6 78 3e 8c d1 b5 be
       0.47015196 0.1250896 0.24312957 -0.35511434
000170 13 69 32 bd a4 33 06 3d 70 a9 a3 be a2 f9 80 3e
       -0.043557238 0.032764092 -0.31965208 0.25190455
000180 5a 10 67 3e 9a f3 bf 3c f6 b3 26 bf 59 ec 75 3e
       0.22564831 0.023431588 -0.6511835 0.2401594
000190 71 68 16 3e 7f 2b 06 3f da 7b cd 3e ab 5d 8b 3e
       0.14688279 0.5241012 0.40133554 0.272199
0001a0 84 31 0a bc 77 61 7e be 9d b5 fa 3e fe 62 e3 3e
       -0.008434657 -0.24841867 0.48966685 0.44411463
0001b0 91 5d d1 bc 9d 42 50 3e 68 c4 a4 be 15 66 2b 3e
       -0.025557311 0.20337911 -0.32181096 0.1673816
0001c0 ff 5d a3 3d 6e a5 83 3e b6 42 06 3f 87 9b 1e be
       0.07976913 0.2571215 0.5244554 -0.15489016
0001d0 3e 75 39 3e f0 91 01 3f 31 9f a3 3e bb e6 ad 3e
       0.1811113 0.5061331 0.3195739 0.33965096
0001e0 3c 61 89 3e 3c d6 0d 3e 6b 8c 8b 3e 67 42 81 be
       0.26831996 0.13851255 0.27255568 -0.25245973
0001f0 f8 05 13 bd 05 d5 ab 3e ae 30 99 be 93 27 85 be
       -0.035894364 0.33560959 -0.29919952 -0.26006755
000200 35 7f fb bd e0 64 8e 3c 22 5b 01 be c3 5f a9 3d
       -0.12280122 0.017382085 -0.1263242 0.08270218
000210 b5 58 8d 3e 78 b7 88 3e 00 a0 a6 bb 6e 16 99 3e
       0.2760674 0.26702476 -0.0050849915 0.29899925
000220 b8 19 04 be 2b 1f 9f be 6a e2 88 3e 79 e6 2a bf
       -0.12900436 -0.31078467 0.2673524 -0.66757923
000230 79 a1 d0 3e 4e 45 b9 3e 1d 62 12 bf 7b f7 e8 3d
       0.40748194 0.36185688 -0.5718096 0.11375328
000240 ff 5c 17 3e ef e1 9b 3d 2c 2c 24 be 51 47 c9 3d
       0.14781569 0.07611453 -0.16032475 0.09828056
000250 24 09 62 3d f8 d4 9e 3e 26 21 06 3d b1 bf 00 bf
       0.0551845 0.31021857 0.032746457 -0.502925
000260 8b ea 6d 3e ba 23 a7 3e 2d 78 ca 3d 6f 38 aa 3e
       0.23234002 0.32644445 0.09886203 0.3324618
000270 d6 6d 39 be db de 59 3e bc d8 43 3e 01 11 e1 be
       -0.18108305 0.21276419 0.19125646 -0.43958285
000280 80 9f b1 3e 43 77 2d be e9 4d a5 3e a3 f7 e8 3e
       0.34692 -0.16940026 0.32286003 0.45501432
000290 e4 be 35 3d fa 12 0b be 41 c8 b5 be c4 0b fa 3e
       0.0443715 -0.13581458 -0.35504344 0.488371
0002a0 6b ec 43 be 4e 4d b7 3e 2e fc 49 bd cd 65 83 3e
       -0.19133155 0.35801166 -0.049312763 0.25663605
0002b0 a5 93 42 3e a0 88 ac bd 2e 71 f0 be d6 ad ac 3e
       0.19001634 -0.08424497 -0.4696135 0.33726376
0002c0 fa f8 36 3e 87 21 6d be 2e 2b d9 3e 66 ef 79 be
       0.17868415 -0.23157321 0.42415756 -0.2440773
0002d0 d1 8c 05 bf 6e 67 79 bc 65 12 de 3e 0e 5d ed 3e
       -0.52167994 -0.015222413 0.4337341 0.46360058
0002e0 ee 3f b8 3e fe 32 16 3e 66 10 09 be 1a 65 a5 bd
       0.35986274 0.1466789 -0.13385162 -0.08075924
0002f0 58 05 0d be 56 b2 aa 3e 3a 25 34 be f6 30 88 be
       -0.1377157 0.33339185 -0.17592326 -0.26599854
000300 30 ec b5 be 56 77 38 3e 3b ee e1 be ed 0d 0a be
       -0.3553176 0.18014273 -0.44127068 -0.13481875
000310 ec 42 8e be 60 27 d1 3e 90 8b 8b 3e f4 06 ca 3e
       -0.27785432 0.40850353 0.27254915 0.3945843
000320 28 3e 87 3e ae 3e ce 3e 17 16 5f be e3 cf 4d 3e
       0.2641461 0.40282196 -0.2178577 0.20098834
000330 84 7c f6 3d 14 9a 7c 3e 21 86 db 3e 00 04 ac bd
       0.12035468 0.24668151 0.4287577 -0.083992004
000340 46 84 29 3f c5 ab d3 be 44 03 94 3d 0b 79 c3 3d
       0.6621746 -0.41341987 0.07227185 0.095445715
000350 6e 41 b1 3e 4f f4 d8 be d3 e1 24 3d 0c 67 ba be
       0.3462023 -0.42373893 0.040254425 -0.36406744
000360 df 44 a2 be 02 59 95 3e a5 0c 31 bf 40 4e 7c be
       -0.3169317 0.2916947 -0.6915992 -0.24639225
000370 88 fb e0 3e 52 b1 0c bd 08 d4 9b 3e 0a 9f 68 be
       0.43941903 -0.034348793 0.30435205 -0.22716919
000380 16 76 61 3e a8 dd c0 3e ec fa 47 be 97 e0 8f be
       0.22017702 0.3766911 -0.19529313 -0.28101036
000390 b6 89 4e be 3d 58 cf 3d 95 58 c0 be 85 84 96 be
       -0.2016972 0.10124252 -0.37567583 -0.2939798
0003a0 b4 04 04 3f 08 9b 29 3e f3 7e b0 3e 03 d2 5c be
       0.51569676 0.16563046 0.34471855 -0.21564488
0003b0 2b ff 7d 3e 48 80 02 be 2d 7b 44 3f 88 12 bc be
       0.2480437 -0.12744248 0.7675045 -0.36732888
0003c0 54 34 42 3f bf 1e 2a bf c9 00 79 bd 17 bf c0 bd
       0.75861096 -0.66453165 -0.060791764 -0.094114475
0003d0 a7 8c 30 be 53 3d 37 be 62 90 ad 3e f6 da 6e be
       -0.17241155 -0.17894487 0.33899218 -0.23325714
0003e0 a8 87 a7 be d8 3a 97 3d 3c 3b 51 3d 5c 11 8a be
       -0.32720685 0.073842704 0.05108188 -0.2696637
0003f0 b8 b4 37 3e 7a e6 83 be f4 d0 3b 3e c4 0d 64 be
       0.17940032 -0.25761777 0.18341428 -0.22270876

lstm.bias_hh_l0 f4 [600]
000000 b7 27 12 3e 63 e6 08 3d 9b eb b6 be 08 a0 8e 3e
       0.14272963 0.03342284 -0.35726628 0.2785647
000010 da b3 af 3e cc 91 0f 3f 8a 8d ca be 3e 71 b4 3e
       0.34316903 0.56081843 -0.3956111 0.35242647
000020 47 b2 0f 3f 02 9d 7d 3e 98 15 d4 3e 18 29 ce 3e
       0.56131405 0.24766925 0.41422725 0.40265727
000030 fc 34 c0 3e b7 f8 bf 3e 68 38 44 be 1d 26 e3 bd
       0.37540424 0.37494442 -0.19162142 -0.11091254
000040 90 ee 85 be 33 12 68 3e 0d e8 cd bd 22 3d 1d 3f
       -0.2615857 0.22663192 -0.10054026 0.61421406
000050 e9 c9 d0 3d 2b 13 b3 3e 05 22 97 3d 2d 18 71 be
       0.10194761 0.34975561 0.073795356 -0.23544379
000060 70 29 a4 be f2 94 26 3d bd 3c b0 3e 21 bb 8e 3e
       -0.32062864 0.04066939 0.3442134 0.27877143
000070 c7 9a b1 3e e6 6d 82 3e 32 ce 90 3e 90 cb 11 be
       0.34688398 0.2547447 0.28282315 -0.14237809
000080 74 d7 4c be 6d 4f 30 3e 26 3e 8d 3e 8a 92 95 be
       -0.20004064 0.17217799 0.27586478 -0.29213363
000090 89 93 f7 3d 35 e3 f8 3c b4 b2 04 bf 61 f4 5f 3e
       0.12088687 0.030381778 -0.5183518 0.21870567
0000a0 82 ca 1c bf 3f 80 79 be 42 79 19 3f 06 7e f8 3d
       -0.612465 -0.24365328 0.5995065 0.12133412
0000b0 7a 82 95 3e 36 04 36 be 93 ba 86 3e 28 3e 97 3e
       0.29201108 -0.17775044 0.2631422 0.2953961
0000c0 b0 12 97 3e 64 cb 84 3e e6 dd 55 3f 84 2f e5 3e
       0.29506445 0.25936425 0.83541715 0.44762814
0000d0 4c 74 ad 3e 13 20 9d 3e 5e 1f 44 3e 73 69 14 3e
       0.3387779 0.30688533 0.1915259 0.1449335
0000e0 65 39 80 3e 75 10 31 bf 3c d9 78 3e ba 1b 31 3e
       0.2504379 -0.69165736 0.24301618 0.17295733
0000f0 b1 c2 07 3e c9 f3 03 3e 66 d8 dd 3e 86 31 79 3e
       0.13257863 0.12885965 0.4332916 0.24335298
000100 7d ca be 3e fc 21 3e 3e 35 44 3e 3b 81 2a 6d bd
       0.3726386 0.18567652 0.0029032354 -0.057901863
000110 77 63 f1 be f4 35 b1 3e 08 da 41 3e b7 61 14 3f
       -0.47146198 0.34611475 0.18930829 0.579616
000120 84 19 60 3e 72 46 59 be b6 95 82 3e 16 4c e1 3e
       0.21884733 -0.21218279 0.25504845 0.4400336
000130 2b 02 50 3e e5 27 be 3d ba 0a 85 3e ab 5a 44 3e
       0.20313327 0.09284953 0.25984746 0.19175212
000140 c6 1a 5c bd d6 67 05 3d f7 21 2f 3e 2d 7a 5c bb
       -0.05373647 0.03256973 0.171028 -0.0033642158
000150 7f 71 74 3e 40 b0 b0 3e d1 62 64 3e e8 be 38 bd
       0.2387142 0.34509468 0.2230332 -0.045103937
000160 57 35 ee 3e 9f 59 fa 3d 10 c4 2c 3e 30 a0 b4 be
       0.4652507 0.12224125 0.16871667 -0.35278463
000170 3f 37 c0 bc 2e 29 8a 3d 98 b0 bd be 23 63 73 3e
       -0.023463843 0.06746136 -0.37048793 0.23768286
000180 89 52 60 3e 1c 09 22 bd fc e7 0d bf d9 53 91 3e
       0.21906485 -0.03955947 -0.55432105 0.28384283
000190 81 6f 5d 3e c1 61 05 3f 69 26 da 3e b0 92 8e 3e
       0.21624567 0.52102286 0.4260743 0.2784629
0001a0 f2 ea cf 3a 89 eb 5a be a0 13 d5 3e 9e e0 d9 3e
       0.0015862866 -0.21378912 0.41616535 0.42554182
0001b0 da a4 44 bd 71 0e 38 3e 90 18 9d be 33 22 39 3e
       -0.048008777 0.17974259 -0.30682802 0.18079452
0001c0 9d 95 04 3e 63 c8 93 3e 7d 67 f4 3e 05 65 3c be
       0.12947698 0.2886382 0.47735205 -0.18397911
0001d0 f7 ee 0a 3e d5 b4 e8 3e 47 44 a3 3e b0 8e a9 3e
       0.1356772 0.45450464 0.3188803 0.33116674
0001e0 bf 98 9b 3e 2b 2a 37 3e 24 65 8d 3e 44 3b 89 be
       0.30389974 0.1788718 0.27616227 -0.2680303
0001f0 39 03 ae bb 41 17 8d 3e ec da 80 be 77 19 77 be
       -0.0053104428 0.27556804 -0.25167024 -0.24130808
000200 40 bb ce bd 7e 21 e2 bc 02 2a fb bd a5 86 e8 3d
       -0.10094309 -0.027603861 -0.12263872 0.113538064
000210 b2 00 a0 3e 2f 65 af 3e 6f 6e c3 3c ed 48 8a 3e
       0.3125053 0.34256884 0.02385637 0.27008763
000220 d3 c6 ee bd b1 a1 82 be e5 7a 7e 3e 61 1a 1b bf
       -0.116590165 -0.25513986 0.24851568 -0.60587126
000230 a0 a3 ca 3e 35 47 c0 3e c5 aa 1b bf 45 30 a0 3d
       0.3957796 0.37554327 -0.6080745 0.07821707
000240 9b 91 32 3e cd 89 31 3d 01 e3 7b be 01 70 48 3d
       0.17438357 0.043344308 -0.24598314 0.04893494
000250 70 56 22 3d 20 db ce 3e 0e d8 24 3c dc 77 fa be
       0.039633214 0.40401554 0.010061277 -0.4891957
000260 d8 df 5b 3e 59 f0 8d 3e 46 9d 05 3e 70 4e a4 3e
       0.21472108 0.27722433 0.13048276 0.32091093
000270 38 5a 52 be 19 79 4b 3e d2 80 26 3e ee 89 c0 be
       -0.20542228 0.19870414 0.16260079 -0.37605232
000280 c5 9a a2 3e 3f 75 37 be c3 10 be 3e ed 37 d2 3e
       0.31758705 -0.1791582 0.37122163 0.41058293
000290 17 c0 ae 3c 29 2d 15 be 79 f5 be be 64 55 fe 3e
       0.02133183 -0.14568008 -0.37296656 0.49674523
0002a0 90 a2 6d be 9a 7b be 3e eb ec d1 bd df 58 71 3e
       -0.23206544 0.37203676 -0.10250267 0.23569058
0002b0 ea b5 07 3e 01 91 91 bd ed 3c f2 be 2a b5 c0 3e
       0.13252988 -0.071077354 -0.47312108 0.37638217
0002c0 09 05 89 3e 04 60 24 be 0e a2 ee 3e 76 8b 7e be
       0.26761654 -0.16052252 0.46608013 -0.24857888
0002d0 27 da e4 be 45 e8 b9 bc 09 fd e5 3e b1 91 f0 3e
       -0.44697687 -0.022693763 0.44919613 0.46986154
0002e0 aa 90 bb 3e f1 f9 27 3e cd b1 d4 bd 72 38 d9 bd
       0.36633807 0.16403939 -0.10385475 -0.10606469
0002f0 33 72 fd bd d2 69 c5 3e e8 33 79 be 2c ba 9e be
       -0.123752974 0.38557297 -0.24336207 -0.31001413
000300 8a 8b ad be 3d 92 4e 3e 47 50 e7 be 3a 35 94 bd
       -0.33895522 0.20172973 -0.45178434 -0.07236715
000310 02 f8 a4 be 39 6a ef 3e 65 79 89 3e 12 5a d8 3e
       -0.32220465 0.4676073 0.2685043 0.42256218
000320 75 07 93 3e a4 2f e4 3e e1 f2 54 be 3a 45 0b 3e
       0.28716627 0.44567597 -0.20795776 0.13600627
000330 51 af 23 3e 33 36 7a 3e c5 8f d7 3e 2d 7e 10 be
       0.15984847 0.24434738 0.42101875 -0.14110632
000340 e8 be 25 3f a5 d0 b7 be 66 45 21 3e 71 3b 2d 3e
       0.64744425 -0.3590137 0.1574913 0.16917206
000350 71 99 a7 3e ff 4e c1 be 6b 3a 9e 3d 36 cd b1 be
       0.32734254 -0.37755582 0.07725986 -0.34726876
000360 a4 7b c1 be 94 c9 b7 3e 84 b7 27 bf 35 ef 64 be
       -0.37789643 0.3589598 -0.655144 -0.22356875
000370 9d 5f ca 3e ce 4f 99 3c 7c ec 93 3e 44 1e 0a be
       0.39526072 0.018714812 0.2889136 -0.13488108
000380 a5 eb 57 3e e1 5a bc 3e de 88 1b be 40 77 a4 be
       0.21085985 0.36788085 -0.1518893 -0.3212223
000390 61 10 86 be 34 6c 5f 3d dc 0c 9f be 67 4e 99 be
       -0.2618437 0.05454655 -0.31064498 -0.2994263
0003a0 5a 96 ea 3e ef 98 6e 3e 04 a9 ba 3e 8c a1 91 be
       0.45817834 0.23300527 0.36457074 -0.28443563
0003b0 80 c1 8f 3e ce 4f 22 be ec 9f 45 3f 07 9c e6 be
       0.28077316 -0.15850756 0.77197146 -0.45040914
0003c0 70 6c 33 3f b6 c7 1b bf c1 e2 6b bb c2 a3 34 be
       0.7008734 -0.6085161 -0.003599331 -0.17640594
0003d0 4a 3e 36 be 68 96 57 be 72 65 aa 3e 13 b5 26 be
       -0.17797199 -0.21053469 0.33280522 -0.16280012
0003e0 12 20 bc be 82 d0 3d 3d 2c ea 3d 3d ef 89 90 be
       -0.36743218 0.046341427 0.0463659 -0.28230235
0003f0 f7 25 5c 3e d1 09 8d be 48 d3 06 3e 45 ee 8d be
       0.21498857 -0.27546552 0.13166535 -0.27720848

layernorm.weight f4 [150]
000000 00 00 80 3f 00 00 80 3f 00 00 80 3f 00 00 80 3f
       1.0 1.0 1.0 1.0
000010 00 00 80 3f 00 00 80 3f 00 00 80 3f 00 00 80 3f
       1.0 1.0 1.0 1.0
000020 00 00 80 3f 00 00 80 3f 00 00 80 3f 00 00 80 3f
       1.0 1.0 1.0 1.0
000030 00 00 80 3f 00 00 80 3f 00 00 80 3f 00 00 80 3f
       1.0 1.0 1.0 1.0
000040 00 00 80 3f 00 00 80 3f 00 00 80 3f 00 00 80 3f
       1.0 1.0 1.0 1.0
000050 00 00 80 3f 00 00 80 3f 00 00 80 3f 00 00 80 3f
       1.0 1.0 1.0 1.0
000060 00 00 80 3f 00 00 80 3f 00 00 80 3f 00 00 80 3f
       1.0 1.0 1.0 1.0
000070 00 00 80 3f 00 00 80 3f 00 00 80 3f 00 00 80 3f
       1.0 1.0 1.0 1.0
000080 00 00 80 3f 00 00 80 3f 00 00 80 3f 00 00 80 3f
       1.0 1.0 1.0 1.0
000090 00 00 80 3f 00 00 80 3f 00 00 80 3f 00 00 80 3f
       1.0 1.0 1.0 1.0
0000a0 00 00 80 3f 00 00 80 3f 00 00 80 3f 00 00 80 3f
       1.0 1.0 1.0 1.0
0000b0 00 00 80 3f 00 00 80 3f 00 00 80 3f 00 00 80 3f
       1.0 1.0 1.0 1.0
0000c0 00 00 80 3f 00 00 80 3f 00 00 80 3f 00 00 80 3f
       1.0 1.0 1.0 1.0
0000d0 00 00 80 3f 00 00 80 3f 00 00 80 3f 00 00 80 3f
       1.0 1.0 1.0 1.0
0000e0 00 00 80 3f 00 00 80 3f 00 00 80 3f 00 00 80 3f
       1.0 1.0 1.0 1.0
0000f0 00 00 80 3f 00 00 80 3f 00 00 80 3f 00 00 80 3f
       1.0 1.0 1.0 1.0
000100 00 00 80 3f 00 00 80 3f 00 00 80 3f 00 00 80 3f
       1.0 1.0 1.0 1.0
000110 00 00 80 3f 00 00 80 3f 00 00 80 3f 00 00 80 3f
       1.0 1.0 1.0 1.0
000120 00 00 80 3f 00 00 80 3f 00 00 80 3f 00 00 80 3f
       1.0 1.0 1.0 1.0
000130 00 00 80 3f 00 00 80 3f 00 00 80 3f 00 00 80 3f
       1.0 1.0 1.0 1.0
000140 00 00 80 3f 00 00 80 3f 00 00 80 3f 00 00 80 3f
       1.0 1.0 1.0 1.0
000150 00 00 80 3f 00 00 80 3f 00 00 80 3f 00 00 80 3f
       1.0 1.0 1.0 1.0
000160 00 00 80 3f 00 00 80 3f 00 00 80 3f 00 00 80 3f
       1.0 1.0 1.0 1.0
000170 00 00 80 3f 00 00 80 3f 00 00 80 3f 00 00 80 3f
       1.0 1.0 1.0 1.0
000180 00 00 80 3f 00 00 80 3f 00 00 80 3f 00 00 80 3f
       1.0 1.0 1.0 1.0
000190 00 00 80 3f 00 00 80 3f 00 00 80 3f 00 00 80 3f
       1.0 1.0 1.0 1.0
0001a0 00 00 80 3f 00 00 80 3f 00 00 80 3f 00 00 80 3f
       1.0 1.0 1.0 1.0
0001b0 00 00 80 3f 00 00 80 3f 00 00 80 3f 00 00 80 3f
       1.0 1.0 1.0 1.0
0001c0 00 00 80 3f 00 00 80 3f 00 00 80 3f 00 00 80 3f
       1.0 1.0 1.0 1.0
0001d0 00 00 80 3f 00 00 80 3f 00 00 80 3f 00 00 80 3f
       1.0 1.0 1.0 1.0
0001e0 00 00 80 3f 00 00 80 3f 00 00 80 3f 00 00 80 3f
       1.0 1.0 1.0 1.0
0001f0 00 00 80 3f 00 00 80 3f 00 00 80 3f 00 00 80 3f
       1.0 1.0 1.0 1.0
000200 00 00 80 3f 00 00 80 3f 00 00 80 3f 00 00 80 3f
       1.0 1.0 1.0 1.0
000210 00 00 80 3f 00 00 80 3f 00 00 80 3f 00 00 80 3f
       1.0 1.0 1.0 1.0
000220 00 00 80 3f 00 00 80 3f 00 00 80 3f 00 00 80 3f
       1.0 1.0 1.0 1.0
000230 00 00 80 3f 00 00 80 3f 00 00 80 3f 00 00 80 3f
       1.0 1.0 1.0 1.0
000240 00 00 80 3f 00 00 80 3f 00 00 80 3f 00 00 80 3f
       1.0 1.0 1.0 1.0
000250 00 00 80 3f 00 00 80 3f
       1.0 1.0

layernorm.bias f4 [150]
000000 00 00 00 00 00 00 00 00 00 00 00 00 00 00 00 00
       0.0 0.0 0.0 0.0
000010 00 00 00 00 00 00 00 00 00 00 00 00 00 00 00 00
       0.0 0.0 0.0 0.0
000020 00 00 00 00 00 00 00 00 00 00 00 00 00 00 00 00
       0.0 0.0 0.0 0.0
000030 00 00 00 00 00 00 00 00 00 00 00 00 00 00 00 00
       0.0 0.0 0.0 0.0
000040 00 00 00 00 00 00 00 00 00 00 00 00 00 00 00 00
       0.0 0.0 0.0 0.0
000050 00 00 00 00 00 00 00 00 00 00 00 00 00 00 00 00
       0.0 0.0 0.0 0.0
000060 00 00 00 00 00 00 00 00 00 00 00 00 00 00 00 00
       0.0 0.0 0.0 0.0
000070 00 00 00 00 00 00 00 00 00 00 00 00 00 00 00 00
       0.0 0.0 0.0 0.0
000080 00 00 00 00 00 00 00 00 00 00 00 00 00 00 00 00
       0.0 0.0 0.0 0.0
000090 00 00 00 00 00 00 00 00 00 00 00 00 00 00 00 00
       0.0 0.0 0.0 0.0
0000a0 00 00 00 00 00 00 00 00 00 00 00 00 00 00 00 00
       0.0 0.0 0.0 0.0
0000b0 00 00 00 00 00 00 00 00 00 00 00 00 00 00 00 00
       0.0 0.0 0.0 0.0
0000c0 00 00 00 00 00 00 00 00 00 00 00 00 00 00 00 00
       0.0 0.0 0.0 0.0
0000d0 00 00 00 00 00 00 00 00 00 00 00 00 00 00 00 00
       0.0 0.0 0.0 0.0
0000e0 00 00 00 00 00 00 00 00 00 00 00 00 00 00 00 00
       0.0 0.0 0.0 0.0
0000f0 00 00 00 00 00 00 00 00 00 00 00 00 00 00 00 00
       0.0 0.0 0.0 0.0
000100 00 00 00 00 00 00 00 00 00 00 00 00 00 00 00 00
       0.0 0.0 0.0 0.0
000110 00 00 00 00 00 00 00 00 00 00 00 00 00 00 00 00
       0.0 0.0 0.0 0.0
000120 00 00 00 00 00 00 00 00 00 00 00 00 00 00 00 00
       0.0 0.0 0.0 0.0
000130 00 00 00 00 00 00 00 00 00 00 00 00 00 00 00 00
       0.0 0.0 0.0 0.0
000140 00 00 00 00 00 00 00 00 00 00 00 00 00 00 00 00
       0.0 0.0 0.0 0.0
000150 00 00 00 00 00 00 00 00 00 00 00 00 00 00 00 00
       0.0 0.0 0.0 0.0
000160 00 00 00 00 00 00 00 00 00 00 00 00 00 00 00 00
       0.0 0.0 0.0 0.0
000170 00 00 00 00 00 00 00 00 00 00 00 00 00 00 00 00
       0.0 0.0 0.0 0.0
000180 00 00 00 00 00 00 00 00 00 00 00 00 00 00 00 00
       0.0 0.0 0.0 0.0
000190 00 00 00 00 00 00 00 00 00 00 00 00 00 00 00 00
       0.0 0.0 0.0 0.0
0001a0 00 00 00 00 00 00 00 00 00 00 00 00 00 00 00 00
       0.0 0.0 0.0 0.0
0001b0 00 00 00 00 00 00 00 00 00 00 00 00 00 00 00 00
       0.0 0.0 0.0 0.0
0001c0 00 00 00 00 00 00 00 00 00 00 00 00 00 00 00 00
       0.0 0.0 0.0 0.0
0001d0 00 00 00 00 00 00 00 00 00 00 00 00 00 00 00 00
       0.0 0.0 0.0 0.0
0001e0 00 00 00 00 00 00 00 00 00 00 00 00 00 00 00 00
       0.0 0.0 0.0 0.0
0001f0 00 00 00 00 00 00 00 00 00 00 00 00 00 00 00 00
       0.0 0.0 0.0 0.0
000200 00 00 00 00 00 00 00 00 00 00 00 00 00 00 00 00
       0.0 0.0 0.0 0.0
000210 00 00 00 00 00 00 00 00 00 00 00 00 00 00 00 00
       0.0 0.0 0.0 0.0
000220 00 00 00 00 00 00 00 00 00 00 00 00 00 00 00 00
       0.0 0.0 0.0 0.0
000230 00 00 00 00 00 00 00 00 00 00 00 00 00 00 00 00
       0.0 0.0 0.0 0.0
000240 00 00 00 00 00 00 00 00 00 00 00 00 00 00 00 00
       0.0 0.0 0.0 0.0
000250 00 00 00 00 00 00 00 00
       0.0 0.0

batchnorm.weight f4 [150]
000000 5e 79 0f 3f 8b 49 eb 3e 81 af 1e 3f 5b 4b 0b 3f
       0.56044567 0.45954546 0.6198655 0.5441186
000010 a4 1b 16 3f 94 e4 87 3f 98 99 05 3f cf 8f 21 3f
       0.58635926 1.0616632 0.5218749 0.6311006
000020 7d 34 c0 3e 2b b2 26 3f 06 5a 41 3f 8d f9 e7 3f
       0.37540045 0.6511561 0.7552799 1.8123032
000030 98 11 0c 3f 2b b6 30 3f a0 e1 e1 3d 68 9a 49 3f
       0.54714346 0.69027966 0.11029363 0.7875123
000040 42 09 80 3f f2 dd 2b 3f cf a1 4c 3f d2 f9 7e 3f
       1.0002825 0.67135537 0.799344 0.99599946
000050 30 79 57 3f d6 6c 40 3f c6 4e 90 3f 78 bf 29 3f
       0.8416929 0.7516607 1.127404 0.66307783
000060 06 6b 60 3f d9 ab fb 3e c6 ed 23 3f ef 2f 8c 3f
       0.87663305 0.49154547 0.6403469 1.0952128
000070 15 bd 9f 3f b5 72 8d 3f 33 c4 66 3f a4 85 bc 3f
       1.2479578 1.1050631 0.90143126 1.4728284
000080 08 25 97 3f ff 83 da 3f 5b 20 24 3f 52 c3 3d 3f
       1.1808176 1.7071532 0.6411187 0.7412616
000090 87 86 ce 3e d0 14 8b 3f 5f 8f c2 3f d1 32 95 3f
       0.4033701 1.0865726 1.5200003 1.1656133
0000a0 e6 42 9d 3f 36 aa e0 3e 42 3f 5b 3f 38 d0 38 3f
       1.2286041 0.4387986 0.856434 0.72192717
0000b0 c7 53 8b 3f 06 7f 6d 3f 62 ec 16 3f 2b 77 2d 3f
       1.0884942 0.9277195 0.5895444 0.6775996
0000c0 a8 43 4e 3f 72 56 a3 3f 66 3a 8c 3f 2a 6b 29 3f
       0.80571985 1.2760756 1.0955322 0.66179144
0000d0 2c 31 5f 3f e3 ee 3f 3f 32 b2 4d 3f 8c ad 79 3f
       0.87184405 0.7497389 0.8035003 0.97530437
0000e0 81 05 22 3f 2d 81 6b 3f 1d 1a 81 3f 08 eb 38 3f
       0.6328965 0.9199398 1.0086094 0.7223363
0000f0 54 c2 f2 3e 9e b4 2f 3f a3 25 79 3f 62 e1 1b 3f
       0.47413886 0.68634975 0.97323054 0.6089078
000100 f6 d2 03 3f 09 77 66 3f 79 e8 8c 3f 73 be 5e 3f
       0.51493776 0.90025383 1.1008445 0.8700935
000110 c3 28 dc 3f 19 25 dc 3f 2d 8d 09 3f b9 72 e5 3e
       1.719994 1.7198821 0.5373104 0.4481409
000120 2a ff af 3f 65 bd 69 3f a3 c1 63 3f 4a a5 8b 3f
       1.3749745 0.9130462 0.8896734 1.0909817
000130 9a 99 9b 3f 92 8e 3e 3e 11 14 c5 3f 05 0b 8c 3f
       1.215625 0.18609074 1.5396749 1.0940863
000140 00 06 34 3f 67 ba 65 3f 81 8b 94 3f 4c 90 56 3f
       0.70321655 0.8973755 1.1605073 0.8381393
000150 c6 7a 86 3f 8e bc a3 3f 93 00 82 3f 39 0e 20 3f
       1.0506217 1.2791917 1.0156425 0.625217
000160 f6 5f 62 3f 26 cd d1 3f e1 6f 95 3f 57 6f 9f 3f
       0.88427675 1.6390731 1.1674768 1.2455853
000170 7e 1b 36 3f 95 7d 9c 3f aa f9 82 3f 8a 2a a6 3f
       0.711357 1.2225825 1.0232441 1.2981732
000180 87 cc 2b 3f 31 6f 74 3f 3b 68 f4 3f 4c d4 7f 3f
       0.6710896 0.95482165 1.9094309 0.99933314
000190 4c bf 64 3e 3f a2 d5 3f a4 5f a3 3f 90 72 dc 3e
       0.22338599 1.6690139 1.2763562 0.43056154
0001a0 30 c0 4a 3f 28 ff 8d 3f 23 c2 84 3f 6e 13 00 3f
       0.79199505 1.1093493 1.0371746 0.5002965
0001b0 84 95 02 3f d6 12 fb 3e 28 fd be 3e a7 ef c3 3d
       0.5100939 0.49037808 0.37302518 0.095671944
0001c0 d2 9d 8d 3f bf 61 90 3f f1 28 87 3e f1 2f fa 3e
       1.1063788 1.127983 0.26398423 0.488647
0001d0 fd e1 b6 3f 3c bc 10 3f 2e f0 00 3f 59 69 73 3f
       1.4287716 0.5653722 0.50366485 0.9508262
0001e0 94 dd 36 3f de 60 f1 3e 47 f5 a2 3f 24 b6 20 3f
       0.7143185 0.47144216 1.2731103 0.62777925
0001f0 99 77 1a 3f e4 d6 8b 3f e3 a9 6d 3f 50 8b 8d 3d
       0.6033874 1.0924954 0.9283735 0.069113374
000200 a3 f6 e2 3e ff 73 63 3f 38 17 f1 3e 1f c8 a3 3f
       0.44328794 0.8884887 0.47088027 1.2795447
000210 fb 97 0a 3f 15 75 d7 3e b5 39 75 3f 2c 4e f3 3e
       0.54138154 0.42081514 0.9579118 0.47520578
000220 ad 6b 8b 3f 94 36 d2 3e b4 86 d4 3e fa a2 16 40
       1.0892235 0.41057265 0.4150902 2.3536973
000230 c7 3c 79 3f fc b8 ed 3e a6 75 1b 3f 21 ef a4 3e
       0.97358364 0.46430194 0.6072639 0.3221369
000240 a0 55 33 3f d3 7c dc 3f 42 f2 88 3f 0e 17 f8 3e
       0.7005253 1.7225593 1.0698931 0.4845509
000250 1f d4 95 3d 04 41 b1 3f
       0.073158495 1.3847966

batchnorm.bias f4 [150]
000000 87 1d 3c 3f 6e ae 12 3f 8e 9a 07 3e 56 3c 24 3f
       0.73482555 0.5729741 0.13242552 0.64154565
000010 69 75 0a 3f f5 cd 2e 3f 04 aa 59 bf 20 21 12 3f
       0.54085404 0.68283015 -0.8502505 0.57081795
000020 16 1d 13 3f cf 3e 99 3e 2d 81 1f 3f c0 24 05 3f
       0.57466257 0.29930732 0.6230648 0.520092
000030 d3 d1 f8 3e 72 38 13 3f f2 83 82 3f 8b 80 31 3f
       0.48597583 0.57508004 1.0196517 0.69336766
000040 f8 04 f1 3e a1 95 f0 3e 7c e3 39 3f 2a d9 10 3f
       0.47074103 0.46989158 0.7261274 0.56581366
000050 33 f6 58 3f 52 58 11 3f 78 4b 59 3f c4 08 2c 3f
       0.8475067 0.5677539 0.8488078 0.67200875
000060 38 c1 7f 3f b2 f4 14 3f 27 c1 05 3f 6c a7 1d 3f
       0.99904203 0.58185875 0.5224785 0.6158359
000070 ba 0f ff 3e d0 c8 f3 3e fd f2 04 3f 3e 69 60 3f
       0.49816686 0.47614145 0.5193327 0.87660587
000080 7c ad 14 3f a1 98 fb 3e 08 e5 f6 3e 1a ca 04 3f
       0.58077216 0.49139884 0.48221612 0.5187088
000090 b0 40 81 3e ee 84 52 3f 6f a2 18 3f 32 ac 36 3f
       0.25244665 0.82234085 0.59622854 0.713565
0000a0 e6 f5 0f 3f 30 98 85 3f 03 a5 03 3f 15 c1 48 3f
       0.56234586 1.0437069 0.5142366 0.7841962
0000b0 66 d5 86 3e 12 c9 4d 3f 85 f9 86 3e 81 f5 40 3f
       0.26334685 0.80384934 0.26362243 0.7537461
0000c0 7f 4d 35 3f a8 47 24 3f 18 41 0b 3f 40 dd b3 3e
       0.70821375 0.6417184 0.543962 0.35129738
0000d0 1a 39 28 3f 23 b9 22 3f 22 9d 1f 3f 36 9c e2 3e
       0.6571213 0.63563746 0.6234914 0.44259804
0000e0 2e 72 dd 3e 26 c9 0c 3f 6b fa 4b 3f 07 34 13 bf
       0.43251175 0.5499443 0.7967898 -0.5750126
0000f0 85 73 c5 3e cf 84 f2 3e cc ab 61 3f 5c c4 49 3f
       0.38564697 0.4736695 0.88152766 0.78815246
000100 bf a7 0c 3f ab c7 f4 3e fa bd bc 3e 03 78 17 3f
       0.5494346 0.47808585 0.3686369 0.591675
000110 ff d6 d4 3e fc 7d 49 3f 12 87 d4 3e 0a 5d 1e 3f
       0.4157028 0.7870786 0.415093 0.61860716
000120 7c 6b 00 3f 33 4c c8 3e ca 74 3c bf b7 4e c5 3e
       0.5016401 0.39120635 -0.73615706 0.38536617
000130 9b 3c 01 3f 93 f9 d1 3e 6f 11 83 bf 9a e9 db 3e
       0.504831 0.41010723 -1.0239695 0.4295166
000140 a0 c9 22 3f 10 9c b6 3e 1d 92 d9 3e da fc e8 3e
       0.63588905 0.3566594 0.42494288 0.4550541
000150 56 e6 dd 3e db 94 db 3e ca b2 21 3f 7c 70 fc 3e
       0.43339795 0.42887005 0.63163435 0.4930457
000160 44 c6 0f 3f c6 1a f9 3e 18 c9 bb 3e 92 ef dd 3e
       0.56161904 0.4865324 0.3667686 0.4334684
000170 a6 e4 30 3f 46 d0 13 3f 3f 71 2d 3f 52 88 22 3f
       0.6909889 0.57739675 0.67750925 0.6348926
000180 12 42 0c 3f 2c 66 3a 3f f3 47 5c 3f 99 2d 38 3f
       0.54788315 0.7281215 0.86047286 0.71944577
000190 d5 dd 15 bd 63 d3 11 3f 8c d2 0f 3f e9 19 02 3f
       -0.03658851 0.56963176 0.56180644 0.50820786
0001a0 b3 bf 1b 3f 21 02 15 3f 40 2b c1 3e 14 8d 14 bf
       0.60839385 0.58206373 0.3772831 -0.5802777
0001b0 64 88 71 3f 32 6f 11 3f 21 e0 8c be 0a 24 18 3f
       0.9434874 0.56810296 -0.27514747 0.5942999
0001c0 c6 05 81 3f 33 62 19 3f 9a 0c a6 3e 2e 5a 06 3f
       1.0079887 0.59915465 0.3243149 0.52481353
0001d0 25 fa 21 3f ad d7 d8 3e 05 71 d6 3e 50 f6 10 3f
       0.63272315 0.42352048 0.41883102 0.56625843
0001e0 57 6d 14 3f 04 56 64 3e 8b 5f 1e 3f 2d af 1e 3f
       0.5797934 0.22298437 0.61864537 0.6198605
0001f0 5f dc ec 3e 55 87 c1 3e 11 55 54 3f 2c 75 60 3f
       0.4626188 0.37798563 0.829423 0.8767879
000200 70 18 08 3f 85 d6 34 3f 09 84 c6 3e bc 2f 18 3f
       0.5316229 0.7063983 0.3877261 0.59447837
000210 5e 3f dd 3e 23 15 91 3e f3 70 07 3f 6c 7e 1f 3f
       0.43212408 0.2833644 0.5290672 0.6230228
000220 94 c9 45 3f 6d 88 ce 3e c3 d7 15 3f 86 b3 1d 3f
       0.7726071 0.4033846 0.5853235 0.61602056
000230 31 69 5e 3f 1c 43 df 3e ba 67 45 3f 79 de 37 3e
       0.8687926 0.43605888 0.771114 0.1795596
000240 20 0c 0d 3f 84 c2 47 3e 3c c3 02 3f 7a 40 33 3f
       0.55096626 0.19507796 0.51079154 0.7002026
000250 d2 8b 8a 3e b0 43 90 bf
       0.270598 -1.1270657
