src/results/subject_P4/best_model.pth (torch, 481333 bytes, 15 tensors)

input_linear.weight f4 [40, 40]
000000 f1 82 1a be 80 82 f8 bb ec 28 62 3d 1e c9 dd 3d
       -0.15089013 -0.007583916 0.055214807 0.10829376
000010 ea 9c da 3d 6c 65 30 bd 3c c6 85 3d fe 84 02 be
       0.1067446 -0.043065473 0.06531951 -0.12746045
000020 80 a4 41 bd 3b 9e 00 3e ad 56 1b 3e 4e 38 a3 3d
       -0.04727602 0.1256036 0.15169783 0.07969724
000030 79 47 14 be f0 f3 73 bd 12 de e6 3d b0 9e 73 3c
       -0.1448039 -0.05955881 0.11272825 0.014869377
000040 46 01 1c be f5 90 80 bd 65 a7 c0 bd 2a 5f e7 3d
       -0.15234861 -0.06277648 -0.09406928 0.11297448
000050 e3 0d 05 3e 0c a3 70 3d 2e 36 0c be e6 1c e4 3d
       0.12993579 0.058749244 -0.13692543 0.111383244
000060 00 a1 b7 bb 88 0a 93 3d aa 45 f2 bd 35 d0 16 3e
       -0.0056039095 0.07179743 -0.118296936 0.14727862
000070 33 35 21 3e cc fc 0d 3d 29 3e 01 be fa f8 d9 bd
       0.1574295 0.034664914 -0.12621368 -0.10643192
000080 82 01 d1 bd 40 b2 aa 3d 9d 7e 12 3e 44 12 83 bd
       -0.10205366 0.0833478 0.14306112 -0.06399968
000090 72 4f 74 bd bc f8 ab 3d 3e e4 d1 3d b8 92 73 3d
       -0.059646077 0.08397052 0.10248612 0.059466094
0000a0 52 85 20 be 77 73 21 3e b8 65 57 3d c8 6c b1 3c
       -0.15675858 0.15766703 0.05258724 0.021658316
0000b0 82 53 f3 3d 9a 55 08 be 88 a3 37 3d fc 55 99 bd
       0.11881162 -0.13313904 0.04483369 -0.07487103
0000c0 58 9f 02 be 3a e0 08 be e4 22 5f 3d aa 2f d8 bd
       -0.12756097 -0.13366786 0.054476634 -0.10555966
0000d0 26 69 08 be 46 b9 93 bd 0b 65 02 be 14 44 4d bd
       -0.13321361 -0.072130725 -0.12733857 -0.050113752
0000e0 50 09 4e 3d c9 49 09 3e 3e 63 dd 3d 36 51 c1 bd
       0.05030185 0.13407053 0.108099446 -0.09439318
0000f0 f5 f4 0e 3e da 8e d9 3d 17 f7 ba bd a8 f1 ca 3c
       0.13960631 0.1062295 -0.0912916 0.024773434
000100 88 5d 85 bd 4f 8f 9c bd 60 fb 30 bd fd 51 00 3e
       -0.0651198 -0.076445214 -0.04320848 0.12531276
000110 30 fb 2e bc dc 3f 0e bd 10 4f 7c 3d 58 bb e6 bd
       -0.010680005 -0.03472887 0.061598837 -0.11266202
000120 36 9f c4 bd 90 41 61 3d 44 d4 18 be ea 77 f1 3d
       -0.096006796 0.054994166 -0.14924723 0.1179045
000130 08 8f df 3c 08 33 8c bd 57 1f 16 3e 5d 76 07 3e
       0.027289882 -0.06845671 0.14660393 0.13228746
000140 64 17 16 bd 40 87 b5 3b ca 40 11 bd 00 7c 33 3b
       -0.0366434 0.0055398047 -0.03546218 0.0027387142
000150 b0 ab 4f 3c 25 58 04 3e 18 8f 79 3d 34 00 2b 3d
       0.012675211 0.1292425 0.06092748 0.04174824
000160 77 89 1b 3e 60 bd c8 bd 61 dd 00 be 20 f0 0a bc
       0.15189157 -0.098017454 -0.1258445 -0.008480102
000170 ce 5b cf 3d 1e ae 89 3d 26 aa 21 bd 70 82 fc bd
       0.10124932 0.06722663 -0.039468907 -0.123295665
000180 3e fa a9 3d 22 c7 2c bd 4c 2e 18 3d af 88 13 be
       0.08299683 -0.042182095 0.037153527 -0.1440761
000190 00 3d 8d bb f0 c1 a9 3d 00 ee 27 bb 9b e3 15 be
       -0.0043102503 0.08288944 -0.0025624037 -0.14637606
0001a0 8d e9 cc bd 3d 1b 86 bd a0 b8 f2 bc ac 9f 2d 3d
       -0.10005484 -0.06548164 -0.029629052 0.042388603
0001b0 50 d9 5f bc 80 af c1 3c 16 cc de bd 18 33 97 3c
       -0.013662651 0.023643255 -0.1087877 0.01845698
0001c0 da 15 cb 3d 1e 7d 8e 3d 3c 97 92 3d f0 32 a1 bc
       0.09916277 0.06957458 0.07157752 -0.01967761
0001d0 aa 22 c1 3d 0f dc b5 bd 40 6d 61 3b 32 ca 1f bd
       0.0943044 -0.088798635 0.0034397393 -0.039011188
0001e0 00 e7 ce bb 0c cf 04 3d b2 c2 a2 3d 9a f9 1b bd
       -0.0063141584 0.032424018 0.079472914 -0.038079835
0001f0 9d 9e 16 be 06 88 f4 3d f0 d3 fd bc 81 83 07 3e
       -0.14708944 0.11940007 -0.030984849 0.13233759
000200 28 92 88 bc 1c d3 18 be 3a b8 df bd 23 4d 07 3e
       -0.016671255 -0.14924282 -0.1092381 0.13213019
000210 00 ea d5 bb d1 c9 14 be 5c f6 f1 bd cd 26 bb bd
       -0.006528139 -0.14530112 -0.118145674 -0.0913826
000220 fc 62 27 3d c4 3d 63 3d 5f 16 d1 bd 50 fd 33 3c
       0.040865883 0.055478826 -0.10209345 0.010985687
000230 46 17 e4 3d e8 6a 84 bd 00 05 2a bd a8 15 fa 3c
       0.111372516 -0.06465703 -0.041508675 0.030527905
000240 e4 63 0a be 73 93 87 bd 40 c4 81 3d 68 e5 ac 3c
       -0.13514668 -0.066199206 0.0633626 0.021105483
000250 2f b1 20 3e f5 24 10 3e d6 c4 db 3d dc f2 3e 3d
       0.1569259 0.14076598 0.10730903 0.046618327
000260 b0 58 d5 3c 18 97 00 3d 7a 8e 8f 3d a0 10 37 bc
       0.026043266 0.031394094 0.07009597 -0.011173397
000270 bb 37 d2 bd f2 eb 72 bd 9c 97 aa 3d ab 4e 12 3e
       -0.10264536 -0.059307046 0.083296984 0.14287822
000280 1e cf 3f bd 6e 7b cc 3d 08 30 cd bd 80 08 89 3a
       -0.04682838 0.0998448 -0.10018927 0.0010454804
000290 70 68 7b 3d cf 7e 11 be e0 45 d5 bb aa 72 f1 3d
       0.061378896 -0.1420853 -0.006508574 0.117894486
0002a0 64 ad 12 be b8 96 a0 3d d8 33 a7 bc c0 d2 d0 bb
       -0.14323956 0.07841247 -0.020410463 -0.0063727796
0002b0 b8 d9 29 3d c0 7e b1 3b d4 13 00 be 82 4f dd 3d
       0.0414674 0.005416721 -0.12507564 0.108061805
0002c0 c4 e5 38 bd 4c 44 93 bd 66 e5 20 be a6 35 f8 3d
       -0.045140997 -0.07190761 -0.15712509 0.121196076
0002d0 60 33 49 3d c7 f9 97 bd ff 8d fb bd 8a f9 e0 3d
       0.04912126 -0.07420688 -0.12282943 0.10985096
0002e0 da 9c 25 bd d9 cc 16 3e 40 2a 60 bc ac fd 1e bd
       -0.04043279 0.1472658 -0.013681948 -0.03881614
0002f0 ff 35 18 3e 52 7a e0 3d 74 b9 42 bd 60 23 77 bc
       0.14864348 0.10960831 -0.047540143 -0.015084118
000300 f7 cc 1a 3e c0 10 08 3d 78 44 bc bc 44 d0 d6 bd
       0.1511725 0.0332191 -0.022981867 -0.10488942
000310 28 ad a8 bd 20 40 fb bd 22 94 0b be 9c 8a 01 be
       -0.08236152 -0.1226809 -0.13630727 -0.12650532
000320 67 69 17 be 96 d0 a8 bd 1b f7 a6 bd e0 3c 71 3d
       -0.14786302 -0.082429096 -0.081526004 0.058895946
000330 52 76 fa bd 58 8b 90 3d 28 cc 86 bd 71 ed 0e 3e
       -0.12229599 0.07057828 -0.065819085 0.13957764
000340 e4 14 34 3d 50 b5 59 bc a8 88 a5 bc ad d4 15 3e
       0.043965235 -0.013287857 -0.020206764 0.1463191
000350 ca 10 b6 bd d0 f5 56 bc e1 2f 1e 3e 47 17 0d be
       -0.08889921 -0.01312013 0.15447952 -0.13778411
000360 52 bf d9 3d 6b c1 1c 3e b4 c9 73 3d 8a 98 84 bd
       0.106321946 0.15308158 0.05951853 -0.06474407
000370 00 20 04 bd 61 95 0f 3e 12 0e 9c 3d e8 6c 0c be
       -0.03225708 0.14021827 0.07619871 -0.1371342
000380 65 42 21 3e 04 61 25 3d 79 d7 1f 3e 30 85 0b 3c
       0.15747984 0.040375724 0.1560954 0.008515641
000390 c0 65 1b bd 0a 7d 56 bd 72 3a f9 3d 6e 53 fa 3d
       -0.037938833 -0.05236534 0.12169351 0.12222944
0003a0 92 98 eb bd 36 38 8c 3d 10 2f 16 3c b6 ac e4 3d
       -0.1150371 0.06846659 0.009166494 0.111657545
0003b0 f3 66 20 3e fe 82 30 bd 23 3b 21 3e 74 84 9b 3d
       0.15664272 -0.043093674 0.15745215 0.07593623
0003c0 47 e7 1a be f0 7b 3a 3c a1 84 14 3e 9a 6e 82 3d
       -0.15127288 0.011382088 0.14503719 0.06368752
0003d0 74 cf 2f 3d 37 57 a0 bd 10 e0 60 3c 06 f7 f3 bd
       0.042922452 -0.07829135 0.013725296 -0.1191235
0003e0 8c 67 8e bd 8e 12 a5 bd 27 07 0b 3e 0f 3a 81 bd
       -0.06953344 -0.0806018 0.13576947 -0.06309902
0003f0 4c 98 e0 bd e0 34 bd bd 58 43 1f be 4a ba c9 bd
       -0.10966548 -0.09238601 -0.15553033 -0.09849985

input_linear.bias f4 [40]
000000 6e 8d c5 3d 2a 9d db bd 12 93 5f bd 78 7a 28 3d
       0.09646116 -0.10723336 -0.054583617 0.04113242
000010 30 e7 09 3c ee 50 26 bd d0 65 05 3d e0 fa 6c bd
       0.008416936 -0.040604524 0.0325678 -0.05785644
000020 de e0 be bd 54 d9 ed bd e1 40 15 3e 40 8e 10 3d
       -0.09320234 -0.11613718 0.1457553 0.03529191
000030 84 59 ab 3d 9e 15 1d be 90 ba 05 bd 8f c0 03 3e
       0.08366683 -0.15340278 -0.032648623 0.12866424
000040 95 51 0c 3e ec 45 06 3d a0 ff 75 3c f8 c5 8c 3d
       0.13702996 0.032781526 0.015014559 0.06873697
000050 f6 f3 d8 3d 3e dd 9e 3d 5e 5b 64 bd 36 34 ef 3d
       0.10593407 0.07757042 -0.055751197 0.1167988
000060 08 14 eb bd 5a 06 ce bd 7a c6 45 bd 1f c4 a1 bd
       -0.1147843 -0.10059805 -0.048284985 -0.07898735
000070 44 56 54 bd 94 89 ae bd e6 2d 65 bd 4c 47 12 3d
       -0.05184008 -0.08522335 -0.055951975 0.035712525
000080 18 e8 d5 bc f0 f4 b8 3c 22 78 8d 3d 00 c8 8b bb
       -0.026111647 0.022577733 0.06907679 -0.004265785
000090 2e 7a eb 3d a8 cc d5 3c 20 8c 86 3c fa 67 ff 3d
       0.11497913 0.026098564 0.016424239 0.12471004

lstm.weight_ih_l0 f4 [600, 40]
000000 e2 39 00 3f 6b ef 60 3f 73 63 27 bd 1f db 46 be
       0.5008832 0.8786532 -0.040866327 -0.19419526
000010 3a d4 3a 3f 23 61 be bc 1d d6 60 bd b1 2a c4 3c
       0.7298008 -0.023239678 -0.054891694 0.023946138
000020 11 20 e5 3c f2 48 9e 3b 0d 77 9c be 15 1b 4b be
       0.027969392 0.004830473 -0.3055958 -0.1983455
000030 c4 23 a7 3e 38 89 03 3b 5e c9 0d 3f ea e2 b4 3e
       0.32644475 0.0020070802 0.55385387 0.35329372
000040 76 28 02 bf 3f 70 90 be 42 45 9b be eb 9b 42 bd
       -0.5084299 -0.28210637 -0.30326277 -0.047511976
000050 98 d2 5d bd ff 80 54 bd 00 1d 18 3e 19 86 25 be
       -0.054155916 -0.051880833 0.14854813 -0.16164435
000060 55 8d 84 bd a4 03 80 3e d0 5a 05 bf bd 49 04 bf
       -0.064722694 0.25002778 -0.52091694 -0.51675016
000070 8a ee 95 be 00 e8 8c 3f fc 08 9b be 04 23 4b bd
       -0.29283553 1.1008301 -0.30280292 -0.04959394
000080 6f 20 8c be ee 15 fe be d0 bf 27 3e 83 42 12 be
       -0.27368495 -0.49626106 0.16381764 -0.14283185
000090 08 33 89 bd 5e af d8 be 98 0d b9 be 45 51 05 3f
       -0.066991866 -0.42321295 -0.36143184 0.5207713
0000a0 d3 a6 e4 be 30 80 a9 3e 3e ba d9 3e b2 fc a3 3e
       -0.44658527 0.33105612 0.42524904 0.3202873
0000b0 78 53 83 3e 9e 49 cf 3e 21 11 d8 3e 9e 10 e5 be
       0.2564962 0.40485853 0.42200568 -0.4473924
0000c0 ad d2 d9 be ac 9d cf be b0 a1 ce 3e b7 3e 83 bd
       -0.42543545 -0.40549982 0.40357733 -0.06408446
0000d0 f1 f5 cf 3e a6 13 d1 3e f9 01 e7 be de 4e 0c 3e
       0.40617326 0.40835303 -0.45118693 0.1370196
0000e0 bb c8 c0 be d7 7f dd 3e 36 ce ca 3e 8f 67 ce 3e
       -0.37653145 0.43261597 0.3961045 0.40313384
0000f0 64 fd cf 3e 9f e7 d3 3e 20 16 c7 be a4 41 dc 3e
       0.4062301 0.4138765 -0.38884068 0.4301883
000100 cf 96 ca 3e 18 03 2d be 6e 07 1e be 6a 7d ae be
       0.39568183 -0.16895711 -0.15432522 -0.34080058
000110 8e 4f df 3e 98 61 d8 3e c5 60 ea 3e ab 5e d0 3e
       0.43615383 0.42261958 0.45776954 0.40697226
000120 c4 d8 db 3e 11 7e c8 be 65 81 c7 be ac a3 e7 3e
       0.42938817 -0.3915868 -0.38965908 0.4524206
000130 03 7c d1 3e b5 fc 84 3e c8 9f fb 3e ef e0 da be
       0.40914926 0.2597405 0.4914534 -0.42749736
000140 c6 cc 52 3e 9b 86 13 3d ab 7d 40 be 26 6f e6 bd
       0.20585927 0.03601704 -0.18797939 -0.11251669
000150 cb b5 03 3e 7e 44 15 be 17 89 3d be 7b 28 0e 3e
       0.12862317 -0.14576909 -0.18509327 0.1388263
000160 16 e0 4a 3e 50 db 0b 3e cb 67 ea bd 18 7a c2 3e
       0.19812045 0.1365788 -0.11445578 0.37983775
000170 7a fb 24 be bb c3 3c be 2e 27 38 3e c4 6f 0d be
       -0.16111556 -0.1843404 0.17983696 -0.13812166
000180 23 13 7a 3e a3 e8 27 be 7c 63 0a be 3d 24 19 be
       0.24421363 -0.16397338 -0.13514513 -0.1495523
000190 94 d1 18 be 54 31 18 be 4f 14 b1 3d 0d ea 1c 3d
       -0.14923698 -0.14862567 0.08646452 0.038309146
0001a0 be 69 05 be 3b 22 b9 3e 41 f7 60 bd 14 17 95 be
       -0.13028619 0.36158928 -0.0549233 -0.2911917
0001b0 ef ca 23 be fa 9e cb bd 2d 52 29 be 2b 52 04 be
       -0.15995382 -0.09942432 -0.16535254 -0.1292197
0001c0 9d b1 e3 bd 7e 47 5e 3e 4d 19 91 3d 05 2d f4 3b
       -0.111178614 0.2170696 0.07084904 0.007451656
0001d0 db ec 0b be e1 33 17 3e 9a a5 95 3e c9 8c 01 3e
       -0.13664572 0.14765884 0.29227906 0.12651362
0001e0 ef 9a c9 bc 41 ce 4e 3d 9d 47 a2 be b4 82 03 bf
       -0.02461001 0.050489668 -0.31695262 -0.5137131
0001f0 14 7e b0 bd 16 9f 99 be aa c8 79 be 7e a9 98 3e
       -0.086177975 -0.30004185 -0.24392954 0.29816812
000200 3f c4 61 3e a0 0e 9f 3e d6 df c6 be 6a a9 17 bd
       0.22047518 0.31065845 -0.38842648 -0.0370268
000210 24 12 a7 3d f5 33 80 be ff 4c 21 3f 3d ef d6 3e
       0.08157757 -0.2503964 0.6300811 0.419794
000220 50 57 40 bd 77 21 bf be 3c 77 cb be 0b aa 95 be
       -0.046958268 -0.3733022 -0.39739406 -0.29231295
000230 52 36 8d be 51 1b 8b be d6 c4 48 3e 57 89 22 be
       -0.27580506 -0.27169278 0.19606337 -0.15872703
000240 f6 51 87 be 98 e5 1c be 71 9e 21 bd 07 f5 0d 3d
       -0.2642972 -0.15321958 -0.039457742 0.034657504
000250 0c 89 ae be 1a 6c 4e 3e 6f fc b3 be a7 14 82 be
       -0.34088933 0.20158425 -0.3515353 -0.2540638
000260 1a 44 ba be 16 b5 03 bc 64 53 4f 3e 71 e1 08 be
       -0.36380082 -0.00803878 0.20246655 -0.13367249
000270 4d 50 81 be 13 91 15 bd 04 da 05 be e7 64 27 3f
       -0.25256577 -0.036515307 -0.13071448 0.6538834
000280 e9 33 40 3c 02 f8 a2 3d 3a 5b 45 bd 46 5f 9f 3e
       0.011731126 0.0795746 -0.048182704 0.31127375
000290 24 97 43 3e 7b b7 85 bd 37 94 af bd af 0a 72 3d
       0.19100624 -0.06529137 -0.085731916 0.05909222
0002a0 a6 69 74 3d 19 b8 81 3d 5f c3 d4 3c 5b 35 8f 3e
       0.059671067 0.06333942 0.025972066 0.27970394
0002b0 0e 41 49 be 9a 73 ce bd 6c f8 0d be 76 17 5c be
       -0.19653723 -0.10080643 -0.13864297 -0.21493325
0002c0 83 90 2b 3e 19 a7 a8 3c 20 b9 8c 3c 5b e9 70 bd
       0.16754346 0.02058749 0.017178118 -0.058816295
0002d0 ae 0c 95 bd 95 18 39 bd 73 06 b1 be d6 9f e2 3e
       -0.07277809 -0.04518946 -0.34575233 0.4426257
0002e0 06 e2 b2 bd 05 f8 d6 3d 9e 92 76 be b4 15 1c 3c
       -0.08734517 0.10496525 -0.24079368 0.009526659
0002f0 28 5d 03 3d 19 30 d1 3e 1b 4b 2f 3d 96 68 6d bd
       0.032071263 0.40857008 0.042796236 -0.05796107
000300 49 8c 97 3c d7 a8 28 3e 61 ac bd be e5 8f cd 3e
       0.01849951 0.16470657 -0.37045577 0.40148845
000310 f8 07 69 bd 23 3a df 3e 80 36 cc 3e 1a d3 36 be
       -0.056892365 0.43599042 0.3988533 -0.17853966
000320 1f e6 a1 be e9 89 7f 3d e6 67 97 bd 81 c8 b2 3e
       -0.3162088 0.06238738 -0.07392864 0.34918597
000330 f3 88 24 3e dd 81 e1 bc 9f 70 a9 3c 12 c2 96 3d
       0.16067867 -0.027527744 0.020683585 0.07361235
000340 76 e1 03 3d 6e 16 a4 3c d6 e6 c7 3d 0c 1c 84 3e
       0.03219744 0.020030227 0.09760825 0.25802648
000350 77 8c 09 be 4e 38 87 bd c1 e1 04 bf a9 b2 ab bd
       -0.1343249 -0.06602536 -0.51906973 -0.08383686
000360 55 d5 50 bf c5 ed ca 3d 02 9e c8 3d a5 66 c1 bc
       -0.8157552 0.09908632 0.097957626 -0.023608515
000370 23 c5 1b bd 2e 0f fa bc 24 e8 f8 3d 88 29 8c 3e
       -0.0380298 -0.030524816 0.12153652 0.27375436
000380 3c 75 34 bd ec f3 7c be 84 05 2a 3e e1 3e 1b 3e
       -0.044057116 -0.24702424 0.16603667 0.15160705
000390 da e4 f4 3d e0 e1 2a 3f e5 73 ba 3d 96 da ad bc
       0.119577125 0.6675091 0.091041364 -0.021222394
0003a0 1e d4 ef 3d 33 4f 57 bf 1a b1 18 3e 0e bf 8c 3e
       0.1171038 -0.84105223 0.14911309 0.27489513
0003b0 4d 07 90 bd 39 f2 7f bf 68 d4 3e bf aa 02 03 bf
       -0.070326425 -0.9997898 -0.74542856 -0.5117594
0003c0 f7 d0 18 3f 86 3d 81 be 78 ca 9e be 4d 6e c6 3e
       0.59693855 -0.2524225 -0.31013846 0.38756028
0003d0 f4 87 93 be 05 63 af be cd 2e 95 be d8 1a a0 3e
       -0.28814662 -0.34255233 -0.2913727 0.3127048
0003e0 5d f3 9e 3e f9 ec b6 3e 9b b3 c9 be 35 f5 b1 bd
       0.31045046 0.3572767 -0.3939484 -0.08689348
0003f0 f0 75 44 be b1 e5 99 be c7 59 91 bb 50 e9 98 3e
       -0.19185615 -0.30058053 -0.004435751 0.29865503

lstm.weight_hh_l0 f4 [600, 150]
000000 83 ff a3 3e c0 ec 30 3e 89 77 ad be 19 1b df 3e
       0.32030877 0.17277813 -0.3388026 0.4357536
000010 43 e7 52 3e dd 9d 3f 3e e6 46 be bd 5d 74 82 3b
       0.20596032 0.18712564 -0.092908666 0.0039811567
000020 a3 6b 6d 3e 83 b8 3b 3e b4 6b ef 3a 30 aa 96 3e
       0.23185591 0.18332104 0.0018266351 0.29426718
000030 71 76 46 3e 79 0d 7f 3e 9b 7d 7d be ad e0 4d be
       0.1938112 0.24907483 -0.24754946 -0.20105238
000040 1e d5 94 3d 8e d3 4f be 2f e7 8f 3e 10 f3 82 3e
       0.072672114 -0.20295545 0.28106067 0.25576067
000050 92 97 db bd 55 9d d5 be f2 29 1e bd bf 53 5c be
       -0.10722269 -0.41721597 -0.03861422 -0.21516322
000060 b5 3a f0 3d 25 58 28 3e 11 f1 5f be fb 3d 94 be
       0.117299475 0.16439874 -0.21869303 -0.28953537
000070 63 e7 10 3e a5 d1 74 3f e7 95 2e bd f4 ce 95 be
       0.14150767 0.9563239 -0.042623427 -0.29259455
000080 3c 10 37 3e 30 3f ef bd a0 73 71 bd c5 ed 6b be
       0.17877287 -0.11681974 -0.05894816 -0.2303992
000090 09 4e 2b bd 0a 57 09 3f 2d 1a b5 3c 59 f1 57 3c
       -0.041822467 0.53648436 0.022107208 0.0131801
0000a0 94 9d 89 bd f8 c1 03 3d f8 9e 42 3d 4e 98 85 3d
       -0.06719509 0.032167405 0.047514886 0.065231904
0000b0 c9 83 8f 3e 87 db 09 be 94 bc 0d be 02 d3 ae 3e
       0.28030232 -0.1346265 -0.13841468 0.3414536
0000c0 b8 a4 81 be 32 98 c5 3d 33 d4 09 3d e6 7f e2 3c
       -0.25320983 0.096481696 0.033649635 0.027648877
0000d0 38 ea 40 3e ba d6 aa bd 6d 90 c0 3d 39 60 11 bc
       0.18839347 -0.08341737 0.09402547 -0.008873039
0000e0 33 13 aa bd da 7a 91 3d 06 af 8b be b3 05 d4 3c
       -0.08304443 0.0710351 -0.2728197 0.025881624
0000f0 a0 b2 8a be 13 bd d8 3e a7 01 30 be db aa 90 3e
       -0.27089405 0.42331752 -0.1718813 0.28255352
000100 a1 e8 e1 bd d3 ed 5d 3e 99 10 bf be ff 1a c9 bd
       -0.110306986 0.21672754 -0.3731735 -0.09819602
000110 e2 9a 8c 3e 88 e2 48 3d 03 81 47 3d 1a 46 be be
       0.27461916 0.049044162 0.04870702 -0.37162858
000120 60 0b 37 be 77 6d 31 3e 7a 31 ad 3d 50 53 32 be
       -0.17875433 0.17326914 0.084567025 -0.17414594
000130 17 54 98 3e 4a 2a 55 be 21 27 33 bf 34 37 6a bc
       0.29751655 -0.20816913 -0.6998158 -0.014295388
000140 3e 02 c4 be 63 2b 85 3c 41 c0 44 be 74 0a 90 be
       -0.3828296 0.01625604 -0.19213964 -0.28132975
000150 d6 8c 24 3e fa 04 75 3e 21 f6 96 bd 3b be 9b bc
       0.1606935 0.2392768 -0.07371164 -0.019011607
000160 08 e2 65 3d 19 9f 7f be a7 a9 71 be bf 0f ba be
       0.056123763 -0.24963035 -0.23599873 -0.36340138
000170 53 7f b5 3d 61 c2 98 3c 17 c0 65 be 25 7b 02 3f
       0.08862176 0.018647375 -0.22436558 0.50969154
000180 c1 4a 0b bf 3f c4 95 be fd 21 53 be 2b 2f 70 3e
       -0.5441094 -0.29251286 -0.20618434 0.23455493
000190 77 a3 d3 be ec 79 23 be f5 f1 8d be 39 3a 1e be
       -0.4133565 -0.15964478 -0.2772366 -0.15451898
0001a0 eb 66 89 3e 43 d6 cd 3d b0 d4 c6 3d 77 fc 26 3e
       0.26836333 0.10050633 0.09708536 0.16307245
0001b0 10 e2 ce be 1d ee 81 be 9a cd 70 3e c6 fd e8 bd
       -0.40406847 -0.2537698 0.23515931 -0.113765284
0001c0 1a 30 8d 3e b5 8d c3 3d 01 ab b8 3c f0 76 1a be
       0.2757576 0.09548513 0.022542479 -0.15084434
0001d0 e7 a4 43 3d 65 1a 76 3c 9a 60 a1 3d 21 0a 86 3e
       0.047764685 0.015020941 0.078797534 0.26179603
0001e0 2d 1f 6f 3e 46 48 3f 3c 1c 60 a0 3e 9d 12 58 3e
       0.23351736 0.011674946 0.31323326 0.2110085
0001f0 3c 7d 68 be a5 f2 df 3d b4 49 e5 bc 12 1e 9c bd
       -0.22704023 0.10934953 -0.027989246 -0.07622923
000200 b5 e1 43 be d5 ae 25 be 9b f7 b2 3e e6 51 4b be
       -0.19129069 -0.16179974 0.34954533 -0.1985546
000210 8a d9 8f be b0 bf e6 3c 44 d0 98 bd 1c b6 ee bd
       -0.28095657 0.028167576 -0.074615985 -0.11655828
000220 59 b6 88 bd 1a 15 19 be 9c 43 74 3e 32 32 b8 3e
       -0.06675405 -0.14949456 0.23853916 0.35975796
000230 a1 fd 41 3d 77 43 b5 3e 5f 94 ab be a7 31 d1 3e
       0.04736102 0.35403034 -0.33511636 0.40858194
000240 10 98 67 be db 8a d1 3d c4 45 5e 3e b3 d6 8b 3b
       -0.22616601 0.10231563 0.21706301 0.0042675375
000250 d4 30 a1 bd c9 e1 61 be 73 8a d0 3d 5a 29 2e 3f
       -0.07870641 -0.22058786 0.10182657 0.6803185
000260 5c 3a bc 3d af 98 35 3e 50 7f 0a be 52 0c 07 3c
       0.09190819 0.17734025 -0.13525128 0.0082426835
000270 75 86 21 be 66 7f e1 be 0a 87 38 be 95 f4 64 be
       -0.15773948 -0.4404251 -0.18020263 -0.22358926
000280 0d 7a 9c bd d2 7f a9 bc 36 58 f3 bd 96 f4 81 3d
       -0.07640467 -0.020690832 -0.11882059 0.06345479
000290 06 fc ec be 9e a4 ee be a4 74 46 3e 8b 44 f2 3d
       -0.4628603 -0.46609968 0.19380432 0.1182948
0002a0 75 ce e5 3c c4 26 3d 3c 1f f2 ab be 68 4d d3 bd
       0.028052548 0.011544887 -0.3358316 -0.103174984
0002b0 87 9d d8 3c 4a c4 d8 be 26 04 12 be 2b 56 48 bd
       0.026442302 -0.42337257 -0.14259395 -0.0489103
0002c0 d5 e3 25 bf 51 02 0a bf ed e7 97 3d d5 56 25 3e
       -0.6480077 -0.53909785 0.07417283 0.16146405
0002d0 b2 84 0b bb 45 ef 06 bf 70 ed d9 bd 87 17 b0 be
       -0.002128881 -0.52708846 -0.10640991 -0.3439295
0002e0 ae e8 7e be a4 c2 60 3f 05 13 f3 3d 9d 3d ea 3e
       -0.24893448 0.87797 0.11868862 0.45750132
0002f0 05 21 40 bd 74 9b c5 be 0b 9f e4 bd 3d 43 32 be
       -0.04690649 -0.38595164 -0.111631475 -0.17408462
000300 42 d1 41 3e b9 6c 63 3d df d1 d2 3e 9c 96 25 bf
       0.18927482 0.055523608 0.41175744 -0.64682937
000310 be 0c e4 be 9d f2 1d 3e 68 a5 3e be ac 9e 26 bc
       -0.44540972 0.15424581 -0.18617785 -0.010169666
000320 a5 1b 31 be 8d a3 28 3e 98 27 d9 bd e4 2a 6d 3e
       -0.17295702 0.1646864 -0.10603255 0.23160893
000330 bd fb 0c be f9 76 08 3e d2 c5 38 be 22 dc b4 bd
       -0.13767906 0.13326634 -0.18044212 -0.088310495
000340 07 88 05 bf 48 bf 53 3e 09 a4 a1 bd 2a 97 d4 be
       -0.52160686 0.20678437 -0.07892615 -0.4152158
000350 7a 79 97 3d 8d b8 2f 3e 60 89 65 be e5 0c 07 3f
       0.07396217 0.17160244 -0.22415686 0.5275405
000360 12 3d 7e 3e 71 40 1e 3e a4 7b 35 3f a3 26 19 be
       0.24827984 0.1545427 0.70891786 -0.14956145
000370 1d 97 5f bd e9 70 a4 bd b8 ff ed be 54 a2 e8 3e
       -0.054587472 -0.080293484 -0.4648416 0.45436347
000380 be 12 30 be 77 95 ec be 5c a0 05 bf 70 b8 28 3e
       -0.1719465 -0.46207783 -0.52197814 0.16476607
000390 2b 96 6d bc e8 bb 96 3d b9 d0 07 bf 92 7e ec 3e
       -0.014501135 0.07360059 -0.5305286 0.46190315
0003a0 27 30 62 be ba 31 91 3d 25 07 1a 3c f6 ef 0b 3e
       -0.22088681 0.07089563 0.009401117 0.13665757
0003b0 3e 34 d3 3e 6e 77 cd bd 55 16 ce bc 3f 35 d0 bc
       0.41250795 -0.10032545 -0.025157133 -0.025416015
0003c0 09 16 a2 bd dd 40 ee be 56 47 68 be b6 21 40 bd
       -0.07914359 -0.46533862 -0.22683463 -0.04690715
0003d0 c7 17 f3 be f6 a5 c8 3e c3 0a a6 be ba 87 09 bf
       -0.47479078 0.39189118 -0.32430086 -0.5372273
0003e0 d4 9b e0 be a0 bb 51 3d 40 4e 02 be 18 d9 ee be
       -0.43868887 0.051204324 -0.12725163 -0.46650004
0003f0 7f df e9 be 86 e9 64 be 0f 2f 0f 3f 2b c0 ed be
       -0.45678326 -0.22354707 0.5593118 -0.46435675

lstm.bias_ih_l0 f4 [600]
000000 83 a6 30 bc 56 d0 e4 3e 8e 87 2e be 17 cb 84 be
       -0.010781887 0.44690198 -0.17043898 -0.25936195
000010 fb 91 81 bd 34 ed 5c bd 62 3b 9d be 18 ee 50 3e
       -0.06326672 -0.053937152 -0.30709368 0.20403326
000020 ed b9 15 3e 26 7b 49 bf 13 76 e4 3c 33 b3 cd 3d
       0.14621706 -0.78703535 0.027888333 0.10043945
000030 68 94 31 3d a7 58 80 39 29 3f af 3e 15 3d f6 3d
       0.04335442 0.00024480114 0.34227875 0.12023369
000040 37 0a af 3e 33 28 3e bd 3e 38 e5 3d 8a 2f d4 be
       0.3418748 -0.046425056 0.11192368 -0.4144252
000050 74 1c 1c 3d e7 fd ea bd 4b c6 4b be da 85 d0 3e
       0.038113073 -0.11474209 -0.19899862 0.4072712
000060 71 9a 91 be 6f 07 b0 bd 1e b2 ce 3e 99 f9 fa 3e
       -0.28438142 -0.08595168 0.40370268 0.49018553
000070 55 6f 87 3e 7a 0f 04 3e 9d c1 bb be fc 5a c0 3e
       0.26452127 0.12896529 -0.36671153 0.37569416
000080 8a 95 4e be af 87 5e 3d ed e6 fb 3d 7c 7b a0 3e
       -0.20174232 0.054328617 0.12299905 0.3134421
000090 58 c8 59 be 02 0a b7 3c b3 0f 66 be f1 8b 04 be
       -0.21267831 0.02234364 -0.22466926 -0.12944008
0000a0 c8 ff 9f be c1 75 59 be 91 f2 bf be 75 16 6a 3e
       -0.31249833 -0.21236326 -0.3748975 0.22860129
0000b0 8a 04 08 bd 62 9f 0e 3f 6d eb a4 3e 42 a3 09 bc
       -0.033207454 0.5571195 0.32210866 -0.00840074
0000c0 02 a9 23 3e 71 e9 9f bd 21 de 15 3f 7d 1b d1 3c
       0.1598244 -0.07808197 0.58542067 0.025525803
0000d0 9a 8f ba bd 1d 2e 34 3d fa d5 94 3e 3c 4f 1c 3e
       -0.09109421 0.04398929 0.290695 0.152646
0000e0 bd d2 f2 3d 4b aa d0 be be 27 21 3e 7f 66 3e bf
       0.118566014 -0.40754923 0.15737817 -0.74375147
0000f0 e7 09 32 3e 88 64 fa 3e f8 3e d7 3d 01 32 0e 3e
       0.1738659 0.48904824 0.10510057 0.13886262
000100 bd 86 b3 3c cc c1 04 bf cd 89 a8 3d 31 f1 3c bd
       0.021914834 -0.5185821 0.082294084 -0.046128456
000110 44 13 da 3e 41 d7 6b be 1e 28 04 3f 74 d2 65 be
       0.42592824 -0.23031332 0.51623714 -0.22443563
000120 f9 94 8d 3e 2f 10 68 3e 81 5d 8a be 63 7e 0c 3d
       0.2765272 0.22662424 -0.27024463 0.03430022
000130 4a 5c d8 3e d6 f1 83 3d d8 e8 51 3d 2e 2b 70 be
       0.4225791 0.06442611 0.051247448 -0.23453972
000140 e6 99 e4 3e 41 df 6b 3e d0 d7 84 3e 5f a5 44 be
       0.44648665 0.23034383 0.25945902 -0.19203709
000150 85 2e ab bd 29 72 98 bd 31 ad a5 3e 66 0c d4 bc
       -0.08358482 -0.07443649 0.32358697 -0.025884818
000160 d4 05 90 3f d8 8a c0 3d 5d 40 76 3e 5b 93 9d 3e
       1.1251779 0.09401482 0.2404799 0.30776486
000170 1f d1 7f 3e f2 15 96 be 65 11 25 3e 66 91 1e bf
       0.24982117 -0.29313618 0.16119917 -0.6194061
000180 5d 8d f6 3e 03 6e a7 3e 56 54 80 3e 47 55 47 3e
       0.48154727 0.3270112 0.25064343 0.19466124
000190 02 a0 14 bd 60 60 69 3d b8 fa 78 3e 5e 34 61 3f
       -0.036285408 0.056976676 0.24314392 0.8797053
0001a0 b5 6f 22 bf d4 a1 29 3e 18 66 ab 3d 21 91 f8 bd
       -0.634517 0.16565639 0.08369082 -0.12137056
0001b0 fc dc 58 3e 68 af 53 3e 2c 14 6d 3e 42 53 86 3e
       0.21178049 0.20672381 0.23152226 0.26235396
0001c0 5e 00 b8 3d 24 52 6f be 47 d6 c2 3e 77 fc 0e 3e
       0.08984445 -0.23371178 0.38054106 0.13963495
0001d0 b0 49 bb bd b8 18 4a 3e e9 aa 00 3f e3 78 02 3e
       -0.09144914 0.19735992 0.5026079 0.12741427
0001e0 f6 89 c2 3e cf 6b 30 3e e7 7a f6 3d c1 36 89 3e
       0.3799588 0.17228626 0.120351605 0.26799586
0001f0 ea 61 0d 3f db 11 9f 3d 4a 8a ba 3e 76 b3 29 3e
       0.5522753 0.077670775 0.3643363 0.16572365
000200 0b 21 8e 3e 5b 80 83 3c 1f 15 6f 3e 1f bc ae 3e
       0.27759585 0.016052416 0.23347901 0.341279
000210 84 ea 80 3e b1 6f 2c be 4a eb 1c 3e 84 4a 0f be
       0.2517892 -0.16839482 0.1532413 -0.13993269
000220 1e 9b ef be 22 28 b6 bc 90 2d ab 3e a8 85 d5 bd
       -0.46798033 -0.022235934 0.334332 -0.104258835
000230 c0 ff a2 3d af 82 7b 3e 7f 66 b2 3d 93 31 4b 3e
       0.07958937 0.2456157 0.08710956 0.1984313
000240 5e 54 d1 3e 6a 77 5b 3c 4e 75 b7 be 2d 70 5b be
       0.4088468 0.01339517 -0.35831684 -0.2142951
000250 e8 8d f9 3d 1d 41 7b 3e 85 0b 06 bf c5 0b 4e 3e
       0.121852696 0.24536557 -0.5236133 0.20121677
000260 a9 d4 0a 3e 24 22 69 be 94 92 ed bd 56 88 96 3e
       0.13557686 -0.2276693 -0.11600223 0.2940089
000270 c5 bd 66 be d9 5c b3 3e fb 84 a8 be 53 66 0e be
       -0.22533329 0.35031775 -0.32913956 -0.13906221
000280 62 73 e5 bd c2 81 d7 bd b9 04 ed 3e 2a 8c b7 be
       -0.11203648 -0.10522796 0.46292666 -0.35849124
000290 ee 0b 0a 3f 43 fd 63 be 8e 2d a8 be 92 b6 5f be
       0.53924453 -0.2226458 -0.32847255 -0.21846989
0002a0 95 b7 7e 3c b2 b0 c7 bd 43 15 c3 bd c2 43 17 3e
       0.015546699 -0.09750499 -0.0952554 0.14771941
0002b0 73 70 18 bf 9e aa 89 3c 7b d0 93 be 15 b3 4a be
       -0.59546584 0.01680499 -0.28869995 -0.19794877
0002c0 b8 9e 87 be 05 bd 0a 3f 11 69 13 be 16 ee a1 3c
       -0.2648828 0.5419467 -0.14395548 0.019766849
0002d0 b8 ea 56 bd 1f cb b5 3e 26 46 4c be da 70 85 3e
       -0.05246994 0.35506532 -0.19948635 0.2606266
0002e0 4e 37 51 3e 05 f7 7e bc b3 c1 03 3d ed dd 5c be
       0.20431253 -0.015561824 0.032167148 -0.21569033
0002f0 09 7e cb bd b8 1f b9 3e d3 07 06 3e c4 05 01 be
       -0.09936149 0.36157012 0.13088922 -0.12599856
000300 70 fc 22 be 12 96 c2 bd 94 68 82 3e ed 5d 07 3e
       -0.1591661 -0.0950128 0.25470412 0.13219424
000310 06 1b 7d 3e 2c b9 57 be 94 a6 66 3c e2 d7 0e be
       0.2471734 -0.21066731 0.014077801 -0.1394954
000320 a6 92 8a 3d b4 7d a9 3d dd 2c e3 bd 4b 9d 15 be
       0.06766252 0.08275929 -0.11092541 -0.14610784
000330 e1 4a 7e 3e ba 28 5f bf ac db 83 be 2c fd e0 bd
       0.24833252 -0.8717152 -0.25753534 -0.10985789
000340 09 57 de 3d 6e 2d fd be a2 4a 18 3e be cc 9e 3e
       0.108564444 -0.49448723 0.1487222 0.3101558
000350 9a c0 46 3e 25 f5 bd be 00 6d 8c 3e b0 23 c5 be
       0.19409409 -0.37101093 0.2742691 -0.3850379
000360 29 9c 86 3e e6 d6 81 3e 7b fe 24 bf eb 6c c1 be
       0.26291016 0.25359267 -0.64450806 -0.3777841
000370 72 88 6b 3d d6 bf c3 bd d1 3e 9e 3e e2 23 7b 3e
       0.05750317 -0.09558074 0.309073 0.24525407
000380 bd a5 74 bb ac c1 eb 3e f9 b7 5a be 4e ff f2 bd
       -0.0037330233 0.46046197 -0.21359242 -0.11865102
000390 36 26 c6 3d 21 15 64 be eb a0 7c 3e 70 44 b1 be
       0.09675257 -0.22273685 0.2467076 -0.34622526
0003a0 22 56 25 3e 9d 68 d3 bd 2a df 32 be 3d ee d1 3e
       0.16146138 -0.10322688 -0.17467943 0.41002074
0003b0 63 4e 00 bf 98 ac 08 3e 64 0d f7 3d c1 4c f3 3e
       -0.5011961 0.1334709 0.12063101 0.47519496
0003c0 18 0d 14 3e 1e 1b 2f 3e b0 83 ed be ae 79 30 be
       0.1445812 0.17100188 -0.46389532 -0.17233917
0003d0 d1 d3 a0 3e 1d 45 2a 3e 16 5c eb be 63 ff 37 3e
       0.31411603 0.16627927 -0.45968693 0.17968516
0003e0 95 68 41 3e f2 4b b7 bd 45 c5 72 be 63 09 12 be
       0.18887551 -0.08950032 -0.23708065 -0.14261393
0003f0 38 37 86 3e 6d c2 81 be 46 dd 2e bf 17 68 bc be
       0.26214004 -0.25343648 -0.68306386 -0.36798164

lstm.bias_hh_l0 f4 [600]
000000 4b 1f 9e bc 3b b7 e3 3e b9 e1 20 be 4f 40 8c be
       -0.019302031 0.4447573 -0.15711106 -0.27392814
000010 d5 20 70 bd ce 11 5d bd 8f 80 a7 be 72 f6 51 3e
       -0.05862506 -0.053972058 -0.3271527 0.20504168
000020 08 e2 1a 3e 7a 1e 4b bf 57 a2 aa bc 9e f3 a1 3d
       0.15125287 -0.7934338 -0.020829363 0.079077944
000030 47 4a 0a 3c b4 4a 3e 3d 43 1c bd 3e ee a8 20 3e
       0.008440561 0.04645796 0.36935624 0.15689442
000040 d6 fa a1 3e 86 42 02 bd 27 99 e1 3d 79 22 db be
       0.31636685 -0.031801723 0.110155396 -0.42799738
000050 4f 95 9d 3d a8 90 09 be fb d7 7c be 58 bf b8 3e
       0.07694494 -0.13434088 -0.24691765 0.36083484
000060 a0 9a 94 be 23 af a8 bd d7 04 cf 3e e1 d9 fa 3e
       -0.2902422 -0.0823653 0.4043338 0.48994353
000070 8f cd a3 3e f7 27 3b 3e 1d 0d d3 be 92 d0 b8 3e
       0.31992766 0.18276964 -0.41220942 0.36096627
000080 9e ad 4c be a5 b2 6b 3c e8 0d bb 3d f1 b7 bc 3e
       -0.19988105 0.014385854 0.09133512 0.36859086
000090 06 88 56 be a4 8e 42 bc d2 ea 78 be 58 85 10 be
       -0.20950326 -0.0118748285 -0.24308327 -0.14113367
0000a0 b9 53 b2 be a1 c2 88 be 6c 7b bb be 64 30 92 3e
       -0.348295 -0.2671099 -0.366176 0.28552544
0000b0 0e 0b c8 bc 92 d2 12 3f 93 7e aa 3e d1 09 53 bc
       -0.024419334 0.57352555 0.33299693 -0.012880758
0000c0 9e 7e 10 3e 22 e4 a4 bd e3 57 10 3f a2 e6 3b 3d
       0.141108 -0.080513254 0.56384104 0.045874245
0000d0 c0 63 ce bd cc 78 7a 3d 42 83 9b 3e 02 3e 1c 3e
       -0.100776196 0.061150357 0.3037358 0.15258029
0000e0 40 42 2f 3e 4f 93 c8 be e0 7b ff 3d cd 77 41 bf
       0.17115116 -0.39174888 0.12474799 -0.75573426
0000f0 65 6d 29 3e f0 58 f0 3e de 8a 7e 3d ce d4 fb 3d
       0.16545637 0.46942854 0.062144153 0.12296449
000100 12 e2 8c 3c 72 e9 0e bf 41 a1 93 3d f0 ef 8e bd
       0.017197642 -0.5582496 0.07208491 -0.06979358
000110 68 59 d5 3e a4 8f 7d be 30 20 08 3f 19 a9 61 be
       0.41669774 -0.24761826 0.53174114 -0.22037162
000120 01 68 9b 3e 4f a4 88 3e a4 7c 6b be 89 71 87 3c
       0.30352786 0.26687858 -0.22996765 0.01653363
000130 29 e6 cb 3e 05 18 a2 3d fa 26 06 3d c2 da 52 be
       0.39824036 0.079147376 0.032752015 -0.20591262
000140 13 76 c8 3e be 7c 81 3e be 96 6a 3e 91 34 0d be
       0.39152583 0.25290483 0.22909066 -0.13789584
000150 45 c6 99 bd d4 0f 0b be ef 3a 95 3e 9f 64 9a 3c
       -0.0750852 -0.13580257 0.29146525 0.018846808
000160 0d cf 91 3f ce 80 f1 3d 43 8e 55 3e a2 07 aa 3e
       1.1391312 0.11792146 0.2085505 0.33208948
000170 04 13 66 3e 10 4c 8b be ac 32 18 3e 1c 67 18 bf
       0.22468191 -0.2720647 0.1486308 -0.5953233
000180 91 21 06 3f ea c3 a1 3e 7c c6 85 3e 33 6d 19 3e
       0.5239497 0.31594783 0.26127994 0.14983062
000190 a1 13 1d bd 13 b9 9b 3d 1d ca 93 3e ee ea 64 3f
       -0.038348798 0.076036595 0.28865138 0.89420974
0001a0 a9 9e 1b bf d2 56 43 3e 72 66 12 3e d1 be d5 bd
       -0.6078897 0.19076088 0.14296892 -0.10436786
0001b0 e7 20 5b 3e e9 fd 5c 3e f0 61 82 3e 74 56 89 3e
       0.2139927 0.21581234 0.25465345 0.2682377
0001c0 b5 fe 68 3d 42 2e 8e be 0a 27 b3 3e 2d ad 48 3e
       0.056883533 -0.27769667 0.34990722 0.19597311
0001d0 17 aa 11 be d9 d3 2f 3e 89 fd 03 3f e9 2f e0 3d
       -0.1422504 0.17170657 0.5155874 0.10946638
0001e0 00 0a b4 3e 54 14 29 3e 8f 24 1e 3e db 71 67 3e
       0.3516388 0.16511661 0.15443633 0.22602026
0001f0 c8 35 16 3f bd 73 5a 3d 03 64 b8 3e 1a 62 0e 3e
       0.58675814 0.053333033 0.36013803 0.1390461
000200 95 59 7d 3e 89 c2 39 3b c1 15 76 3e 10 a5 a8 3e
       0.24741204 0.0028344712 0.24031736 0.32938433
000210 9c 39 8a 3e 5f 56 5f be d0 fb fe 3d c2 7a 1c be
       0.26997077 -0.21810292 0.12450373 -0.15281203
000220 c6 50 df be 1a e0 b6 bb 34 19 ba 3e f3 1c c2 bd
       -0.43616313 -0.005580914 0.36347353 -0.09478178
000230 5e ca 32 3d 4e ae 8b 3e f4 c1 da 3d c5 c3 66 3e
       0.043650024 0.2728142 0.10681525 0.22535618
000240 34 50 cc 3e 5e 41 35 3d 91 3b b7 be 81 25 6b be
       0.3990494 0.044251792 -0.35787633 -0.22963525
000250 3d 4d c0 3d f3 23 7f 3e 5d 82 0f bf c4 10 2b 3e
       0.09389732 0.24916057 -0.56058294 0.16705614
000260 00 8f 08 3e 66 84 8f be 25 33 f8 bd 77 55 a8 3e
       0.133358 -0.280307 -0.1211913 0.32877705
000270 ce e8 62 be a6 94 9d 3e 58 43 a9 be 4c 18 21 be
       -0.2215912 0.30777472 -0.33059192 -0.15731925
000280 08 80 cd bd 49 62 c5 bd 33 21 ed 3e d1 88 cd be
       -0.10034186 -0.09637887 0.46314391 -0.40143445
000290 11 39 07 3f 32 44 5a be ba 1b 9f be c5 61 6f be
       0.5282145 -0.21315077 -0.3107584 -0.2337714
0002a0 78 ea 33 3c ec ba c2 bd 7f a6 12 be 3a 32 4a 3e
       0.010981195 -0.09508309 -0.14321326 0.19745722
0002b0 7c b2 15 bf fb 79 83 ba a9 ab 8c be c2 c7 35 be
       -0.5847547 -0.001003086 -0.27474716 -0.17751983
0002c0 7b 6c 74 be 2d 8c 10 3f aa 1c 3a be 25 33 93 3c
       -0.23869507 0.5646389 -0.18174997 0.017968724
0002d0 55 5a f9 39 61 fb c5 3e a0 02 52 be 31 1e 5a 3e
       0.00047560284 0.3866835 -0.20508814 0.2130058
0002e0 e5 8b 47 3e b5 52 1d 3c f4 9d 2f 3d c3 2b 36 be
       0.1948696 0.009602238 0.042875245 -0.17790131
0002f0 9f 2f 02 be 9d b3 bf 3e cb 94 a7 3d 47 41 a0 bd
       -0.12713479 0.37441722 0.08182677 -0.07824951
000300 69 5b fb bd 18 27 16 be c6 f3 78 3e ef 16 07 3e
       -0.122732945 -0.1466335 0.24311742 0.13192342
000310 8b 7c 89 3e e3 fe 5b be 42 81 2b bb fa 5d 1a be
       0.2685283 -0.2148395 -0.0026169573 -0.15074912
000320 9c dc ce 3d fe 5e 1f 3d 41 bd 19 be 1d 38 16 be
       0.10100672 0.03890895 -0.15013601 -0.14669843
000330 ee 05 8f 3e f8 a1 61 bf 87 60 5a be d8 e5 0b be
       0.27934211 -0.8813777 -0.21325885 -0.13661897
000340 72 b3 00 3e 65 ce ee be e8 ac d1 3d 8c 36 bc 3e
       0.12568453 -0.46641842 0.102380574 0.36760366
000350 34 b6 49 3e 23 a3 d8 be 70 81 79 3e b0 05 be be
       0.19698411 -0.42311963 0.24365783 -0.37113714
000360 77 39 8d 3e 63 d9 7f 3e 02 9b 2e bf 73 4c ce be
       0.27582905 0.2498527 -0.68205273 -0.402927
000370 c3 36 8f 3d 65 11 b0 bd 0b 98 99 3e 8d a5 86 3e
       0.06992867 -0.08597068 0.29998812 0.2629818
000380 cd f4 b5 bc 89 b4 fd 3e 65 1f 43 be 48 65 b3 bd
       -0.022211457 0.495518 -0.19054945 -0.08759552
000390 51 41 10 3e ff d4 48 be 5e 72 86 3e 87 3a c3 be
       0.14087416 -0.19612502 0.2625913 -0.3813059
0003a0 1e 7d 15 3e 08 ee 19 be c3 07 37 be 67 d9 c1 3e
       0.1459851 -0.15032208 -0.17874055 0.37861177
0003b0 b0 5c 09 bf 38 67 20 3e b1 b9 c9 3d 8e 4e e5 3e
       -0.53657055 0.15664375 0.09849871 0.44786495
0003c0 01 eb 26 3e 23 31 69 3e 39 b1 ed be 58 c6 15 be
       0.16300584 0.2277265 -0.46424273 -0.14626443
0003d0 7b 12 9e 3e 29 eb 60 3e 60 e7 f2 be 0d 7a 37 3e
       0.30873474 0.21964706 -0.4744215 0.17917652
0003e0 5b ff 5a 3e 21 96 a6 bd a6 c1 3f be 00 2a 1c be
       0.21386473 -0.081341036 -0.18726215 -0.15250397
0003f0 9a a7 8a 3e ef 16 7b be f4 60 26 bf a0 b3 b2 be
       0.27080995 -0.24520467 -0.6499169 -0.34902668

layernorm.weight f4 [150]
000000 00 00 80 3f 00 00 80 3f 00 00 80 3f 00 00 80 3f
       1.0 1.0 1.0 1.0
000010 00 00 80 3f 00 00 80 3f 00 00 80 3f 00 00 80 3f
       1.0 1.0 1.0 1.0
000020 00 00 80 3f 00 00 80 3f 00 00 80 3f 00 00 80 3f
       1.0 1.0 1.0 1.0
000030 00 00 80 3f 00 00 80 3f 00 00 80 3f 00 00 80 3f
       1.0 1.0 1.0 1.0
000040 00 00 80 3f 00 00 80 3f 00 00 80 3f 00 00 80 3f
       1.0 1.0 1.0 1.0
000050 00 00 80 3f 00 00 80 3f 00 00 80 3f 00 00 80 3f
       1.0 1.0 1.0 1.0
000060 00 00 80 3f 00 00 80 3f 00 00 80 3f 00 00 80 3f
       1.0 1.0 1.0 1.0
000070 00 00 80 3f 00 00 80 3f 00 00 80 3f 00 00 80 3f
       1.0 1.0 1.0 1.0
000080 00 00 80 3f 00 00 80 3f 00 00 80 3f 00 00 80 3f
       1.0 1.0 1.0 1.0
000090 00 00 80 3f 00 00 80 3f 00 00 80 3f 00 00 80 3f
       1.0 1.0 1.0 1.0
0000a0 00 00 80 3f 00 00 80 3f 00 00 80 3f 00 00 80 3f
       1.0 1.0 1.0 1.0
0000b0 00 00 80 3f 00 00 80 3f 00 00 80 3f 00 00 80 3f
       1.0 1.0 1.0 1.0
0000c0 00 00 80 3f 00 00 80 3f 00 00 80 3f 00 00 80 3f
       1.0 1.0 1.0 1.0
0000d0 00 00 80 3f 00 00 80 3f 00 00 80 3f 00 00 80 3f
       1.0 1.0 1.0 1.0
0000e0 00 00 80 3f 00 00 80 3f 00 00 80 3f 00 00 80 3f
       1.0 1.0 1.0 1.0
0000f0 00 00 80 3f 00 00 80 3f 00 00 80 3f 00 00 80 3f
       1.0 1.0 1.0 1.0
000100 00 00 80 3f 00 00 80 3f 00 00 80 3f 00 00 80 3f
       1.0 1.0 1.0 1.0
000110 00 00 80 3f 00 00 80 3f 00 00 80 3f 00 00 80 3f
       1.0 1.0 1.0 1.0
000120 00 00 80 3f 00 00 80 3f 00 00 80 3f 00 00 80 3f
       1.0 1.0 1.0 1.0
000130 00 00 80 3f 00 00 80 3f 00 00 80 3f 00 00 80 3f
       1.0 1.0 1.0 1.0
000140 00 00 80 3f 00 00 80 3f 00 00 80 3f 00 00 80 3f
       1.0 1.0 1.0 1.0
000150 00 00 80 3f 00 00 80 3f 00 00 80 3f 00 00 80 3f
       1.0 1.0 1.0 1.0
000160 00 00 80 3f 00 00 80 3f 00 00 80 3f 00 00 80 3f
       1.0 1.0 1.0 1.0
000170 00 00 80 3f 00 00 80 3f 00 00 80 3f 00 00 80 3f
       1.0 1.0 1.0 1.0
000180 00 00 80 3f 00 00 80 3f 00 00 80 3f 00 00 80 3f
       1.0 1.0 1.0 1.0
000190 00 00 80 3f 00 00 80 3f 00 00 80 3f 00 00 80 3f
       1.0 1.0 1.0 1.0
0001a0 00 00 80 3f 00 00 80 3f 00 00 80 3f 00 00 80 3f
       1.0 1.0 1.0 1.0
0001b0 00 00 80 3f 00 00 80 3f 00 00 80 3f 00 00 80 3f
       1.0 1.0 1.0 1.0
0001c0 00 00 80 3f 00 00 80 3f 00 00 80 3f 00 00 80 3f
       1.0 1.0 1.0 1.0
0001d0 00 00 80 3f 00 00 80 3f 00 00 80 3f 00 00 80 3f
       1.0 1.0 1.0 1.0
0001e0 00 00 80 3f 00 00 80 3f 00 00 80 3f 00 00 80 3f
       1.0 1.0 1.0 1.0
0001f0 00 00 80 3f 00 00 80 3f 00 00 80 3f 00 00 80 3f
       1.0 1.0 1.0 1.0
000200 00 00 80 3f 00 00 80 3f 00 00 80 3f 00 00 80 3f
       1.0 1.0 1.0 1.0
000210 00 00 80 3f 00 00 80 3f 00 00 80 3f 00 00 80 3f
       1.0 1.0 1.0 1.0
000220 00 00 80 3f 00 00 80 3f 00 00 80 3f 00 00 80 3f
       1.0 1.0 1.0 1.0
000230 00 00 80 3f 00 00 80 3f 00 00 80 3f 00 00 80 3f
       1.0 1.0 1.0 1.0
000240 00 00 80 3f 00 00 80 3f 00 00 80 3f 00 00 80 3f
       1.0 1.0 1.0 1.0
000250 00 00 80 3f 00 00 80 3f
       1.0 1.0

layernorm.bias f4 [150]
000000 00 00 00 00 00 00 00 00 00 00 00 00 00 00 00 00
       0.0 0.0 0.0 0.0
000010 00 00 00 00 00 00 00 00 00 00 00 00 00 00 00 00
       0.0 0.0 0.0 0.0
000020 00 00 00 00 00 00 00 00 00 00 00 00 00 00 00 00
       0.0 0.0 0.0 0.0
000030 00 00 00 00 00 00 00 00 00 00 00 00 00 00 00 00
       0.0 0.0 0.0 0.0
000040 00 00 00 00 00 00 00 00 00 00 00 00 00 00 00 00
       0.0 0.0 0.0 0.0
000050 00 00 00 00 00 00 00 00 00 00 00 00 00 00 00 00
       0.0 0.0 0.0 0.0
000060 00 00 00 00 00 00 00 00 00 00 00 00 00 00 00 00
       0.0 0.0 0.0 0.0
000070 00 00 00 00 00 00 00 00 00 00 00 00 00 00 00 00
       0.0 0.0 0.0 0.0
000080 00 00 00 00 00 00 00 00 00 00 00 00 00 00 00 00
       0.0 0.0 0.0 0.0
000090 00 00 00 00 00 00 00 00 00 00 00 00 00 00 00 00
       0.0 0.0 0.0 0.0
0000a0 00 00 00 00 00 00 00 00 00 00 00 00 00 00 00 00
       0.0 0.0 0.0 0.0
0000b0 00 00 00 00 00 00 00 00 00 00 00 00 00 00 00 00
       0.0 0.0 0.0 0.0
0000c0 00 00 00 00 00 00 00 00 00 00 00 00 00 00 00 00
       0.0 0.0 0.0 0.0
0000d0 00 00 00 00 00 00 00 00 00 00 00 00 00 00 00 00
       0.0 0.0 0.0 0.0
0000e0 00 00 00 00 00 00 00 00 00 00 00 00 00 00 00 00
       0.0 0.0 0.0 0.0
0000f0 00 00 00 00 00 00 00 00 00 00 00 00 00 00 00 00
       0.0 0.0 0.0 0.0
000100 00 00 00 00 00 00 00 00 00 00 00 00 00 00 00 00
       0.0 0.0 0.0 0.0
000110 00 00 00 00 00 00 00 00 00 00 00 00 00 00 00 00
       0.0 0.0 0.0 0.0
000120 00 00 00 00 00 00 00 00 00 00 00 00 00 00 00 00
       0.0 0.0 0.0 0.0
000130 00 00 00 00 00 00 00 00 00 00 00 00 00 00 00 00
       0.0 0.0 0.0 0.0
000140 00 00 00 00 00 00 00 00 00 00 00 00 00 00 00 00
       0.0 0.0 0.0 0.0
000150 00 00 00 00 00 00 00 00 00 00 00 00 00 00 00 00
       0.0 0.0 0.0 0.0
000160 00 00 00 00 00 00 00 00 00 00 00 00 00 00 00 00
       0.0 0.0 0.0 0.0
000170 00 00 00 00 00 00 00 00 00 00 00 00 00 00 00 00
       0.0 0.0 0.0 0.0
000180 00 00 00 00 00 00 00 00 00 00 00 00 00 00 00 00
       0.0 0.0 0.0 0.0
000190 00 00 00 00 00 00 00 00 00 00 00 00 00 00 00 00
       0.0 0.0 0.0 0.0
0001a0 00 00 00 00 00 00 00 00 00 00 00 00 00 00 00 00
       0.0 0.0 0.0 0.0
0001b0 00 00 00 00 00 00 00 00 00 00 00 00 00 00 00 00
       0.0 0.0 0.0 0.0
0001c0 00 00 00 00 00 00 00 00 00 00 00 00 00 00 00 00
       0.0 0.0 0.0 0.0
0001d0 00 00 00 00 00 00 00 00 00 00 00 00 00 00 00 00
       0.0 0.0 0.0 0.0
0001e0 00 00 00 00 00 00 00 00 00 00 00 00 00 00 00 00
       0.0 0.0 0.0 0.0
0001f0 00 00 00 00 00 00 00 00 00 00 00 00 00 00 00 00
       0.0 0.0 0.0 0.0
000200 00 00 00 00 00 00 00 00 00 00 00 00 00 00 00 00
       0.0 0.0 0.0 0.0
000210 00 00 00 00 00 00 00 00 00 00 00 00 00 00 00 00
       0.0 0.0 0.0 0.0
000220 00 00 00 00 00 00 00 00 00 00 00 00 00 00 00 00
       0.0 0.0 0.0 0.0
000230 00 00 00 00 00 00 00 00 00 00 00 00 00 00 00 00
       0.0 0.0 0.0 0.0
000240 00 00 00 00 00 00 00 00 00 00 00 00 00 00 00 00
       0.0 0.0 0.0 0.0
000250 00 00 00 00 00 00 00 00
       0.0 0.0

batchnorm.weight f4 [150]
000000 42 b8 d6 3d b7 b1 2e 3f 41 a9 8f 3e d7 b4 8f 3d
       0.10484363 0.6823992 0.28058818 0.07016914
000010 34 fe b9 3e ee 52 e2 3d fe 29 07 3f 7f 3a ae 3e
       0.36326754 0.11050974 0.5279845 0.34029004
000020 04 92 a0 3e 8c 65 34 3f a7 1a d1 3e 49 1b b6 3e
       0.313614 0.7046745 0.40840647 0.35567692
000030 a0 e7 48 3f 54 9b b4 3f 90 67 aa 3e b5 e3 85 3f
       0.7847843 1.4109902 0.33282137 1.0460116
000040 95 51 65 bd 37 17 4d 3e f1 67 a3 3e 9d 34 d1 3f
       -0.055986006 0.20028387 0.31915238 1.6344181
000050 b9 e4 3c bf a3 89 09 3f ae 0e 05 3f ac 13 57 3e
       -0.73786503 0.5372564 0.51975524 0.21003598
000060 ce 86 a0 3e 99 48 fb 3e 4a 04 9e 3f 7b bc a0 3e
       0.31352848 0.49078825 1.2345059 0.313938
000070 13 87 7d 3e f3 a3 cd 3e c6 f7 9a 3e 52 35 ac 3e
       0.24758558 0.40164146 0.3026716 0.3363443
000080 79 ea 1e 3f a2 b8 71 3e 1c 2b c0 3e ce 9b e7 3e
       0.62076527 0.23605588 0.3753289 0.45236057
000090 d6 44 b2 3e ac c1 9b 3f 18 e3 80 3e 1b 3a 50 3f
       0.34818143 1.2168479 0.2517326 0.8133866
0000a0 e6 c4 a7 3e 5d 1a ca 3e b9 50 90 3e b7 cd f7 3c
       0.3276741 0.3947324 0.28186586 0.03024946
0000b0 6f 2d b5 3f 3b 38 eb 3d 48 98 82 3e c7 59 02 40
       1.415449 0.114853345 0.25506806 2.0367296
0000c0 17 40 81 3f 4e 53 b8 3e e1 27 28 3e 7c ea 35 3e
       1.0097684 0.36001056 0.16421463 0.1776523
0000d0 7f 9f aa 3e d2 bf 21 3d 77 0c 32 3f d9 71 ad ba
       0.3332481 0.039489575 0.6955027 -0.0013232782
0000e0 3d 9b 5e 3f fb 38 bb 3e ae 05 80 3e 70 77 72 bd
       0.86955625 0.3656691 0.25004333 -0.059195936
0000f0 03 d0 47 3f 51 d6 54 3f 78 7f cf 3d ff 74 59 3e
       0.78051776 0.8313952 0.101317346 0.21236037
000100 ff 26 25 3f 5d a9 d5 bd 33 d7 02 be fc 82 10 3e
       0.6451263 -0.10432694 -0.12777404 0.14112467
000110 31 c4 db 3f 37 c6 28 3f 91 a3 8b 3f 68 0c cc 3e
       1.7169248 0.6592745 1.0909292 0.39853215
000120 10 d7 ab 3e 8e 9d 2d 3f db 2c d2 3e bc 4f 2c 3f
       0.33562517 0.67818534 0.41049847 0.67309165
000130 7f 91 b2 3e 2d 0d 9c be f2 91 6f 3e b0 bd 67 3e
       0.3487663 -0.30478802 0.23395517 0.22630954
000140 b7 85 07 3f ea 9e 81 3f 91 b4 00 3e ad 1a e8 3e
       0.5293841 1.0126622 0.1256888 0.45332852
000150 b1 05 32 3c 73 72 73 3d fc b7 a5 3f b8 8e 2e 3f
       0.010865615 0.05943532 1.2946773 0.6818652
000160 34 65 40 3e 06 66 49 be 5f 6b 19 3f 51 cf ff 3d
       0.18788606 -0.19667825 0.5992946 0.12490714
000170 7b 5d 8f 3f 90 24 10 3f b7 6b 31 3e d3 ba db 3f
       1.1200403 0.5630579 0.17326246 1.7166389
000180 7c 8c 35 3f 5f 18 80 3e 7d 54 88 3e 43 1c ef 3e
       0.7091749 0.25018594 0.2662696 0.4670125
000190 4a 19 69 3d 18 8e 8b 3f 31 d8 bb 3e 76 db 34 3f
       0.056908883 1.0902739 0.36688378 0.7064737
0001a0 9c b4 39 bd 23 e8 ef 3e 96 3a 9e 3e 3b 9f a7 3f
       -0.04533826 0.46856794 0.30904073 1.3095468
0001b0 a1 cc 43 3f ec 7b 5d 3e b3 80 d4 3f 5e 74 57 3f
       0.76484114 0.21629304 1.6601776 0.8416194
0001c0 e2 1c b1 3e 7d 57 a0 3e bf 6c c4 3e 7d 7e 97 3e
       0.34592348 0.31316748 0.38364217 0.2958869
0001d0 1c c9 8a 3e 48 9b 67 3e 5f e9 8b 3f 03 07 fe 3d
       0.2710656 0.22617829 1.0930594 0.12403681
0001e0 f7 63 5f 3f ce 98 63 3f 87 64 b5 3e 4e 54 5d 3f
       0.8726191 0.88905036 0.3542826 0.86456764
0001f0 46 66 34 3f 20 01 4d 3e 61 bd d0 3e f1 65 56 3e
       0.70468557 0.2001996 0.40769485 0.20937325
000200 b2 25 b3 3e e4 e2 e6 3e f4 9d 96 3f 62 5e 1b 3f
       0.34989697 0.4509498 1.1766953 0.6069089
000210 e3 01 9e 3e 29 5a a9 3e ae d9 c3 3e fe ad cd 3e
       0.30860814 0.330766 0.38252014 0.40171808
000220 4b 87 43 3f da 3a 14 3f 2b 53 81 3e 4c e9 ba 3e
       0.76378316 0.579023 0.25258765 0.36506116
000230 9b cd 5b 3e d7 7a 80 3f d9 01 08 3f 0a a6 1b 3f
       0.21465151 1.0037488 0.5312782 0.6080023
000240 b5 9e 7d 3e 00 72 aa be 14 90 09 3f e4 96 42 3e
       0.24767573 -0.332901 0.5373547 0.19002873
000250 dc 3a 64 3f eb 3b 13 3f
       0.8915231 0.575133

batchnorm.bias f4 [150]
000000 d4 8f 16 3f ac fc 30 3f 2e 25 55 3f 9b ca 1e 3f
       0.58813214 0.69135547 0.83259857 0.620279
000010 8b e3 5d 3f 67 7e f0 3e 4d 6b f3 3e 39 34 e8 3d
       0.8667533 0.46971437 0.47542801 0.11338086
000020 d2 a6 ed be e0 35 36 3f f9 7f 35 3f e7 31 c0 3c
       -0.46416336 0.71175957 0.70898396 0.023461295
000030 35 62 3a 3f 53 15 5a 3e 37 41 ac 3e b3 93 49 bf
       0.728061 0.21297197 0.33643505 -0.78740996
000040 26 4b 28 3f 9b 0c 28 3f 87 f1 8a 3e 74 e1 01 3f
       0.6573967 0.65644234 0.27137396 0.5073464
000050 6d f4 5b 3f ee 14 53 3f 77 2b 82 bf 17 14 e3 3e
       0.8591984 0.8245381 -1.0169514 0.44351265
000060 7c 20 4f bf 21 6f 50 3f b4 e7 2e 3e 75 08 26 3f
       -0.8090894 0.8141957 0.17080575 0.64856654
000070 b4 f3 38 bf 44 91 48 3f cc d9 a6 3f fb d9 f7 3e
       -0.7224686 0.7834666 1.3035216 0.48408493
000080 3f 24 7b 3f 93 d2 15 3f 47 27 35 3f 39 dc 83 bf
       0.9810218 0.58524436 0.7076306 -1.0301582
000090 6d 76 3f bf 6b 70 07 3f c9 54 70 bf c9 c7 42 3f
       -0.7479008 0.5290591 -0.9387937 0.760861
0000a0 d2 28 3f bf 5b 99 75 3f 3d 72 43 3f 79 32 23 3f
       -0.7467166 0.95937127 0.7634619 0.6374889
0000b0 14 5f 17 3f 33 c8 3e 3f 52 9b de 3e 74 8d ae 3e
       0.5912945 0.7452423 0.43477875 0.34092295
0000c0 5d 75 4b 3f 28 b8 f6 3e 72 19 52 3f 01 05 cd 3e
       0.7947596 0.48187375 0.82070076 0.4004288
0000d0 87 00 4b 3f ca 7c 10 3f e0 5a 55 3f 2a 16 40 3f
       0.7929768 0.56440413 0.8334179 0.7503382
0000e0 e6 d4 2c 3f af ea 29 3f 4f 84 4f 3e 41 97 2e 3f
       0.6751236 0.66373724 0.20265315 0.68199545
0000f0 23 b9 1c 3f 5f f8 3c 3f 7b ce 59 3f 71 19 01 3f
       0.61219996 0.73816484 0.8508069 0.50429446
000100 3f 9a 1c 3f 5d 18 4a 3f d4 d5 47 3f 88 1a 03 3f
       0.6117286 0.78943425 0.7806065 0.5121236
000110 1e 76 bc 3e 3b 09 67 3f c5 0d 1a 3f ff 38 31 3f
       0.36808866 0.9024846 0.6017726 0.69227594
000120 89 be 3c 3f 0d 2a 30 3f e1 5f 35 3f a4 87 05 3f
       0.73728234 0.68814164 0.70849425 0.52160096
000130 a2 e1 46 3f 36 27 1e 3f ea 3b 4b 3f 2b b9 e9 3e
       0.7768804 0.6177858 0.79388297 0.45649084
000140 a7 65 03 3d 60 bb 15 bf 6a df 33 3e 8d 54 43 3f
       0.032079365 -0.58489037 0.17565694 0.7630089
000150 77 16 f6 3e 26 40 93 3f b2 0c 06 3f 8e fb 0a 3f
       0.48064014 1.1503952 0.5236312 0.5429009
000160 82 75 35 3f 0b f9 62 3f 85 1c 74 3f e6 6f 12 3f
       0.7088243 0.8866126 0.9535602 0.57201993
000170 e0 51 0d 3f 5b 98 41 3f 40 f8 b4 3e a5 f2 17 3f
       0.55203056 0.756231 0.3534565 0.5935462
000180 ba 8e 07 3f 5d 81 d5 3e 7c a1 45 3f 2a 89 6c be
       0.5295216 0.4170026 0.7719953 -0.23099199
000190 c6 b5 be 3e 56 8a 05 3b 8f bc fe 3e 00 0a 94 3e
       0.37248057 0.0020376644 0.49753234 0.2891388
0001a0 2d 7c 15 3f 30 cd 31 3f f8 9e 3c 3f 7e c6 ae 3e
       0.583926 0.69453716 0.7368007 0.34135813
0001b0 ac 24 57 bf e1 f2 2b 3e 0e cf b7 3e d4 84 7f be
       -0.8404033 0.1679187 0.35900158 -0.24953014
0001c0 e3 73 51 3f 9d 45 42 3f 95 e1 28 3f 73 d7 ea 3e
       0.81817454 0.7588747 0.6596921 0.458675
0001d0 d2 c5 4d 3f eb 54 88 bf 25 c4 25 3f ae 0a b4 3e
       0.80379975 -1.0650915 0.6475242 0.35164398
0001e0 0f 4b ca 3e b3 a2 aa 3e 3a 6a 2e 3f d7 e8 fe 3e
       0.3951039 0.33327255 0.6813084 0.49787018
0001f0 5c 79 54 bf a9 02 23 3f ad 74 84 bf e6 e8 cd 3e
       -0.8299768 0.63675934 -1.0348107 0.4021675
000200 97 eb 19 3f 6e 06 48 3f 72 d7 94 bf 2b fc 0a 3f
       0.60125107 0.7813481 -1.1628249 0.5429103
000210 3c d5 ec 3e 02 53 af 3e 81 ee 29 3f 37 3a 80 bf
       0.46256435 0.34243017 0.66379553 -1.0017766
000220 03 8f 30 3f 0c b2 5e 3f a7 ce 60 3f 9e 9e 6a bf
       0.6896822 0.8699043 0.87815326 -0.9164828
000230 43 30 49 3f 96 5f f5 3e fb ee 36 3f 52 65 ab 3e
       0.78589267 0.4792449 0.71458405 0.3347574
000240 87 08 13 3f 39 de 3f 3f dc 76 62 bf dd 92 5e 3f
       0.57434887 0.7494846 -0.88462615 0.86942846
000250 84 c0 22 3f d0 f6 2a 3f
       0.63575006 0.66782856
