src/results/subject_P19/best_model.pth (torch, 481333 bytes, 15 tensors)

input_linear.weight f4 [40, 40]
0	0xbc14a010	-0.009071365
1	0x3c4af030	0.012386367
2	0xbca7be28	-0.020476416
3	0x3d662024	0.056182995
4	0xbc0eb400	-0.0087099075
5	0xbe10cd45	-0.14140804
6	0x3d8c7760	0.068587065
7	0xbddc0dd0	-0.10744822
8	0x3db4e498	0.08832663
9	0x3b9c82e0	0.0047763437
10	0x3d9898f8	0.074510515
11	0x3dd959da	0.10612841
12	0xbddefafa	-0.10887714
13	0x3cbde838	0.02318202
14	0x3e1f9ab9	0.15586366
15	0x3ccfd948	0.025372162
16	0x3d389e74	0.045072988
17	0x3ca70b78	0.02039121
18	0x3df66dea	0.12032683
19	0xbe012ddd	-0.12615152
20	0x3dc88852	0.09791626
21	0x3cbb9cc0	0.022901893
22	0xbdc661ea	-0.096866444
23	0x3d589b40	0.052882433
24	0x3d883aa8	0.06651813
25	0x3dc5a5f2	0.09650792
26	0x3b235540	0.002492264
27	0x3defad82	0.11703016
28	0xbe1a99ef	-0.15097784
29	0xbd1a90ac	-0.037735626
30	0x3c6bd920	0.014395028
31	0x3df57a2e	0.119861946
32	0xbe1d0119	-0.1533245
33	0xbd74a54e	-0.05972796
34	0x3c2d7c60	0.010588735
35	0x3d5f1bf4	0.054470018
36	0xbde4646b	-0.11151966
37	0xbca98e58	-0.020697758
38	0xbc4f31a0	-0.012646109
39	0xbd3542a2	-0.044253
40	0xbdcb1b6c	-0.0991734
41	0x3d453280	0.048143864
42	0xbe12f663	-0.14351802
43	0xbe04af7b	-0.12957565
44	0x3d05aaf8	0.03263375
45	0x3c3529d0	0.011057332
46	0x3ddea116	0.108705685
47	0xbdd42386	-0.10358338
48	0xbdf51ab6	-0.11967985
49	0xbe0b535e	-0.13606021
50	0xbd08b16e	-0.033372335
51	0x3cf5c330	0.0300003
52	0xbe1167f2	-0.14199808
53	0xbcfdfec8	-0.031005278
54	0x3dfef4ce	0.124490365
55	0x3d8bae0e	0.06820308
56	0x3e173539	0.14766397
57	0xbe21b8d1	-0.15793158
58	0x3e1c0fcb	0.152404
59	0xbb448000	-0.002998352
60	0x3d495a28	0.049158245
61	0x3d761f4c	0.06008844
62	0xbd5f4548	-0.05450943
63	0xbd80ee99	-0.06295509
64	0xbe063e62	-0.13109735
65	0x3d8ff9dc	0.07030079
66	0x3dc6fb6e	0.09715925
67	0x3e0cba57	0.13742958
68	0xbd9b885e	-0.07594369
69	0xbddd420e	-0.108036146
70	0x3db50472	0.088387385
71	0x3dd0901e	0.10183738
72	0x3de8f466	0.1137474
73	0xbe1b83e9	-0.15187038
74	0xbe0a13af	-0.13484071
75	0x3dc46f12	0.095914975
76	0x3d09da04	0.03365518
77	0xbd7609e4	-0.060068026
78	0x3c614c40	0.01375109
79	0xbce31548	-0.027720109
80	0xbce63528	-0.028101519
81	0xbd7255cc	-0.059163854
82	0x3da58fb4	0.0808405
83	0xbdf95c84	-0.12175849
84	0xbdf9ec75	-0.12203304
85	0x3c2e0ea0	0.010623604
86	0x3dff1646	0.1245542
87	0xbd44db06	-0.04806044
88	0xbd85a3b2	-0.06525363
89	0xbdfa3730	-0.122175574
90	0x3d30cc54	0.043163612
91	0x3e07dd2d	0.13267966
92	0x3d60cbbc	0.054881796
93	0xbd88f10a	-0.066865996
94	0xbe15e903	-0.14639668
95	0x3d4ad1f0	0.04951662
96	0xbd23db60	-0.040004134
97	0xbe196dc5	-0.1498328
98	0x3d96dc00	0.073661804
99	0x3c3edbe0	0.011649102
100	0xbd4647f8	-0.04840848
101	0x3e01cb4f	0.12675212
102	0xbdb3fdf1	-0.0878867
103	0x3cbb8d48	0.022894517
104	0x3dad7af0	0.08470714
105	0xbd837b28	-0.064199746
106	0x3d890a1c	0.06691381
107	0xbe178602	-0.14797214
108	0x3ce39af8	0.027783856
109	0x3c9b97f8	0.018993363
110	0xbc9baca8	-0.019003227
111	0x3e0f7499	0.14009322
112	0xbd9697cd	-0.073531725
113	0xbdd4cc6b	-0.10390552
114	0x3d0ef39c	0.034900293
115	0xbdefc733	-0.11707916
116	0xbcafd288	-0.021462694
117	0x3de2ea92	0.11079897
118	0x3e11f317	0.14252888
119	0xbd016fa0	-0.031600595
120	0xbd7de06a	-0.061981596
121	0x3e1a9139	0.1509446
122	0xbdda4a3a	-0.10658689
123	0xbd531fa8	-0.05154386
124	0xbe1128dd	-0.14175744
125	0x3dbfdefa	0.09368701
126	0xbc6376e0	-0.0138833225
127	0x3d8033e8	0.062599
128	0x3ce8e0b0	0.028427452
129	0x3db90fb4	0.09036198
130	0x3c88ce18	0.016699836
131	0x3c6f8de0	0.014621228
132	0xbc943aa8	-0.018094376
133	0x3e16eaad	0.14737959
134	0xbe1f2e66	-0.15545043
135	0x3e1c6895	0.1527427
136	0x3d91ed96	0.07125394
137	0xbd5203aa	-0.051273026
138	0xbd97ee5b	-0.074185096
139	0xbc8af978	-0.01696466
140	0x3d888052	0.066651
141	0xbda4e333	-0.08051147
142	0xbd715d20	-0.0589267
143	0x3e121099	0.14264144
144	0xbdd3a97d	-0.10335062
145	0xb841a000	-4.6163797e-05
146	0xbd4576ba	-0.04820893
147	0xbdb66124	-0.08905247
148	0x3b80f740	0.0039357245
149	0x3d8f41f2	0.06995
150	0xbd245ea6	-0.040129326
151	0xbdf0aaad	-0.11751304
152	0xbdf699e0	-0.12041068
153	0x3db60c00	0.088890076
154	0x3daa4276	0.08313458
155	0x3db29b44	0.08721021
156	0x3de50442	0.11182453
157	0xbda29044	-0.07937673
158	0x3cf6d828	0.030132368
159	0xbd3ca41c	-0.046054944
160	0xbcb979e8	-0.022641137
161	0x3dc3bd7a	0.09557624
162	0xbdc06b11	-0.09395421
163	0xbbd50b20	-0.0065015703
164	0x3cc38cb8	0.02387081
165	0xbc890438	-0.016725644
166	0x3dd19cb6	0.10234968
167	0x3e0f9801	0.14022829
168	0x3d549ec0	0.05190921
169	0xbd91cb9f	-0.07118916
170	0xbdb95e1b	-0.09051152
171	0x3e029aa3	0.12754302
172	0xbd063f50	-0.032775223
173	0xbd230ea8	-0.0398089
174	0xbe0504ac	-0.12990063
175	0xbd835c9e	-0.0641415
176	0x3e0f0f17	0.139706
177	0x3dc14fbe	0.09439038
178	0x3d99e396	0.07514112
179	0x3d3faaac	0.046793625
180	0x3e0d31cd	0.13788529
181	0xbdffd388	-0.12491518
182	0x3d8eefda	0.06979342
183	0x3dd8e186	0.1058989
184	0x3d4dcdbc	0.05024503
185	0xbd4314ec	-0.047627375
186	0x3ce99148	0.028511658
187	0x3ddb290e	0.1070119
188	0x3d74e3d8	0.0597876
189	0xbd3907b8	-0.045173377
190	0x3cb28b40	0.021794915
191	0x3b283780	0.0025667846
192	0xbcfcc8c8	-0.030857459
193	0x3b3ca500	0.002878487
194	0xbba30900	-0.004975438
195	0x3ad5d480	0.001631394
196	0x3d9a57e0	0.07536292
197	0xbbae4f60	-0.005319521
198	0xbe173ec9	-0.14770044
199	0xbe01c56e	-0.1267297
200	0x3d4575bc	0.048207983
201	0xbda7790b	-0.08177384
202	0xbe217a48	-0.15769303
203	0xbcec2be8	-0.02882953
204	0xbe13158b	-0.14363687
205	0xbe157843	-0.14596657
206	0x3d28633c	0.041110262
207	0xbd3afd32	-0.045651622
208	0x3ccc7748	0.024959221
209	0x3dc1f216	0.09470002
210	0x3ddc9a7a	0.107716516
211	0x3d857f8e	0.0651847
212	0xbe0761ec	-0.13220948
213	0x3d9afe1c	0.07567999
214	0x3c9f9708	0.019481197
215	0xbe1c6f6f	-0.15276884
216	0xbd340a2e	-0.04395502
217	0x3ccc8978	0.024967894
218	0xbad1bf80	-0.0016002506
219	0xbdf31da0	-0.11870885
220	0xbddaed76	-0.10689823
221	0xbcbc8318	-0.02301173
222	0xbd92cf46	-0.071684405
223	0x3d9a611e	0.07538055
224	0x3ddb0242	0.1069379
225	0xbd866282	-0.065617576
226	0xbdbd03a1	-0.09229208
227	0xbdd5e5f0	-0.10444248
228	0xbda1304e	-0.078705415
229	0x3e139bdf	0.14414929
230	0x3daa27e6	0.08308391
231	0x3da11ee2	0.078672186
232	0xbda30f1d	-0.07961867
233	0xbd11db54	-0.03560956
234	0xbdb105b6	-0.086436674
235	0x3e11b69b	0.14229815
236	0x3d117864	0.035515204
237	0xbd6ab6d0	-0.05730325
238	0x3cdaf208	0.026726738
239	0x3e074ab5	0.13212092
240	0x3d810320	0.06299424
241	0xbdf5b1ae	-0.1199678
242	0x3dc22506	0.09479718
243	0x3d82f8a4	0.06395081
244	0x3c525be0	0.0128392875
245	0x3db2a694	0.087231785
246	0xbc385b00	-0.011252165
247	0x3e1d212d	0.15344687
248	0xbd9dfe20	-0.07714486
249	0x3db4641a	0.08808155
250	0xbdd95994	-0.10612789
251	0xbde122d8	-0.10992974
252	0x3d997d1c	0.07494566
253	0xbd627ec0	-0.05529666
254	0x3c939b70	0.018018454
255	0xbdcaeaa8	-0.099080384

input_linear.bias f4 [40]
0	0x3c967710	0.01836732
1	0xbe0550f8	-0.13019168
2	0xbe125a19	-0.14292182
3	0xbd343706	-0.043997787
4	0x3df40082	0.11914159
5	0xbdbfb164	-0.093600065
6	0x3dd27aa6	0.102772996
7	0xbda65402	-0.08121492
8	0xbe1a743d	-0.15083404
9	0xbcf5ada0	-0.029990017
10	0x3db7b860	0.089707136
11	0x3e20ecbf	0.15715311
12	0x3cc5c480	0.02414155
13	0x3de6109e	0.11233638
14	0xbc03b420	-0.008038551
15	0x3d086fe4	0.033309832
16	0x3d20686c	0.039162084
17	0x3d08908c	0.033340976
18	0x3e1369bb	0.14395802
19	0xbdab91fb	-0.08377453
20	0x3e006a53	0.1254056
21	0x3d7d94b4	0.061909392
22	0xbde1dbcc	-0.11028251
23	0x3e118d91	0.1421416
24	0xbd46e8c0	-0.04856181
25	0x3e18c4f1	0.14918877
26	0x3d8a3da6	0.0675004
27	0x3d16b2a8	0.036791474
28	0xbd938d72	-0.07204713
29	0xbcb11268	-0.021615222
30	0x3e20b5c5	0.1569434
31	0x3c523f40	0.012832463
32	0xbdf5dee7	-0.12005406
33	0xbd36954a	-0.044575967
34	0xbd4a7c0e	-0.049434714
35	0xbde96012	-0.11395277
36	0xbd6337ce	-0.05547314
37	0xbd5e5f6c	-0.05429022
38	0x3e10110b	0.14069001
39	0xbe1446a3	-0.14480071

lstm.weight_ih_l0 f4 [600, 40]
0	0xbea35a63	-0.31904897
1	0xbdee468f	-0.11634552
2	0xbec6b2a2	-0.3880816
3	0xbf8e99b7	-1.114066
4	0xbe9ba61e	-0.30400175
5	0xbeea0e1c	-0.4571389
6	0xbecd0a25	-0.40046802
7	0x3eef0108	0.46680474
8	0x3ef142da	0.47121316
9	0x3ecdff64	0.4023391
10	0xbefb1497	-0.49039146
11	0xbf3c67aa	-0.7359568
12	0xbd84747f	-0.06467532
13	0xbef5908d	-0.47961846
14	0x3f14d5d3	0.5813877
15	0x3eaa2a42	0.33235365
16	0xbe71ed15	-0.23625596
17	0xbefb571d	-0.490899
18	0xbefe3a6c	-0.49653947
19	0xbedae927	-0.42756006
20	0xbef10577	-0.47074482
21	0xbeccde50	-0.4001336
22	0x3ee2a856	0.44269055
23	0xbd763a61	-0.06011427
24	0xbec5d30b	-0.38637576
25	0x3e9388b6	0.2881524
26	0xbf296ac3	-0.6617853
27	0xbf1c501d	-0.61059743
28	0xbef0443c	-0.4692706
29	0x3e895f8e	0.26830715
30	0xbeda6c37	-0.42660686
31	0xbed267df	-0.41094872
32	0xbf00447e	-0.5010451
33	0xbe473cbf	-0.19456767
34	0x3ef45799	0.47723082
35	0xbc882bd5	-0.016622463
36	0xbeda4c2c	-0.4263624
37	0xbf311589	-0.69173485
38	0xbf5d6227	-0.86477894
39	0x3f234fee	0.6379384
40	0x3d8cc1e3	0.068729185
41	0x3fa463e5	1.2842985
42	0x3ea49722	0.32146555
43	0x3fda67db	1.7062944
44	0x3fa08090	1.2539234
45	0x3ec1a30e	0.37819713
46	0x3ed4605f	0.41479775
47	0xbec6a697	-0.38798973
48	0xbebd2bdf	-0.36947533
49	0xbed1dd30	-0.40989065
50	0x3f07fc87	0.531197
51	0xbb5814b2	-0.003297132
52	0x3e7adfa2	0.24499372
53	0x3ea835c6	0.32853526
54	0xc03cb792	-2.9487042
55	0xbcd6fc23	-0.026243275
56	0x3f24ffe5	0.64452964
57	0x3ef6ba1d	0.48188868
58	0x3ee8d349	0.45473698
59	0x3ecc3d14	0.3989035
60	0x3e9b40cf	0.30322883
61	0x3ece429f	0.40285203
62	0xbfc38636	-1.5275333
63	0xbc8e0fee	-0.01734158
64	0x3eaa80f8	0.3330152
65	0x3ea4e0a9	0.32202652
66	0xbf3ef9b3	-0.7459976
67	0xbf130fc6	-0.57445943
68	0x3ee0e3f1	0.43923905
69	0xbcd71638	-0.026255712
70	0x3f053bab	0.5204417
71	0x3ea3659c	0.3191346
72	0x3effe219	0.49977186
73	0x3f33b80b	0.702027
74	0xbfc5bac9	-1.5447627
75	0x3d27a6c1	0.040930513
76	0x3eaf5044	0.34240925
77	0x3f115c42	0.567814
78	0x3ed6424e	0.4184746
79	0xc03919b0	-2.8921928
80	0xbe0eea97	-0.13956676
81	0x3d8563fa	0.0651321
82	0xbe32ed39	-0.17473306
83	0xbe863a5a	-0.26216394
84	0x3e0ba6f7	0.13637911
85	0xbdbbf90a	-0.0917836
86	0xbe08341c	-0.13301128
87	0x3e0fd7e4	0.140472
88	0x3df1f8dd	0.11815045
89	0x3e4332b6	0.19062313
90	0xbe6ad334	-0.2293213
91	0xbdea695b	-0.11445876
92	0x3d3abf44	0.04559256
93	0xbdc01d1e	-0.09380554
94	0x3e953fcb	0.29150233
95	0xbef124b0	-0.47098303
96	0x3e23a229	0.15979828
97	0xbe9431c6	-0.28944224
98	0xbe995bab	-0.2995275
99	0xbe2c6239	-0.16834344
100	0xbe2f9a33	-0.17148666
101	0xbe2cf5ff	-0.16890715
102	0xbe66f4e5	-0.22554357
103	0xbf0cc638	-0.5498996
104	0xbdd9defb	-0.10638233
105	0x3e63e90a	0.22256866
106	0xbdd2665d	-0.102734305
107	0xbc2ffd6f	-0.010741576
108	0xbe855916	-0.2604453
109	0x3ec1a06d	0.37817708
110	0xbe8885fc	-0.26664722
111	0xbe334352	-0.1750615
112	0xbe9460a1	-0.28979972
113	0x3e4efd33	0.20213775
114	0xbe53ad7e	-0.20671651
115	0xbf0c2d42	-0.5475656
116	0xbe05216e	-0.13001034
117	0xbeacfb04	-0.3378526
118	0xbdbda46a	-0.09259875
119	0x3e994122	0.29932505
120	0x3d69436c	0.056949064
121	0xbd80bee6	-0.06286411
122	0xbd8d00f9	-0.06884951
123	0xbf208004	-0.62695336
124	0xbd98f0f6	-0.07467835
125	0xbda17966	-0.07884483
126	0xbda20964	-0.07911947
127	0x3d6f2ef7	0.0583944
128	0x3be828ce	0.0070849424
129	0x3d622c80	0.05521822
130	0xbe94812f	-0.2900481
131	0xbea5fe14	-0.3242041
132	0x3e76e008	0.24108899
133	0xbcbf5e06	-0.023360264
134	0x3ec953a9	0.3932164
135	0x3e0cf63b	0.13765804
136	0xbf226737	-0.63438743
137	0xbebc35c7	-0.3675978
138	0xbeb623cc	-0.35574186
139	0xbd5632e8	-0.05229464
140	0xbd62af0b	-0.055342715
141	0xbd454a75	-0.04816671
142	0xbe8c935a	-0.2745617
143	0x3df1159d	0.117717005
144	0xbd4eee8a	-0.050520457
145	0x3e696d46	0.22795591
146	0xbef495c7	-0.4777052
147	0xbee56b8c	-0.44808614
148	0xbec20ad7	-0.37898895
149	0x3f52c2e0	0.82328606
150	0xbe943b12	-0.28951317
151	0xbd7aa7b8	-0.061195105
152	0xbe964af9	-0.29354075
153	0xbf136350	-0.57573414
154	0xbeb1fdb9	-0.34763888
155	0x3dffc156	0.12488048
156	0xbd1cc21c	-0.038271055
157	0xbf0fe214	-0.5620434
158	0xbeff0196	-0.49805897
159	0x3ed170de	0.40906423
160	0xbe8cdf33	-0.27514037
161	0x3edc8d93	0.43076763
162	0x3ed0bbf6	0.40768403
163	0x3e8573eb	0.26065
164	0x3ec72758	0.38897204
165	0x3eb4b82c	0.35296762
166	0x3eb121e1	0.3459616
167	0xbec55617	-0.38542244
168	0xbed5028a	-0.416035
169	0xbec33402	-0.38125616
170	0x3ea5fc8d	0.32419243
171	0xbde9fcad	-0.11425147
172	0x3e840f2c	0.25792825
173	0x3eceb284	0.40370572
174	0xbeab66d3	-0.33476886
175	0x3e5082fa	0.20362464
176	0xbdefbf70	-0.11706436
177	0x3eb1129a	0.34584504
178	0x3ea216c0	0.31657982
179	0x3ec7a30e	0.38991588
180	0x3ec701fe	0.38868707
181	0x3ebd250e	0.36942333
182	0xbc3c80a4	-0.01150528
183	0x3e280252	0.16407135
184	0x3ebfa456	0.37430066
185	0xbd4ecf8f	-0.050490912
186	0x3dcd4b93	0.1002418
187	0x3e382c0e	0.17985556
188	0x3eb8898b	0.36042437
189	0xbbead6b0	-0.007166706
190	0x3ed28894	0.41119826
191	0x3ede1b6e	0.43380302
192	0x3ea9eeb9	0.33189943
193	0xbd846725	-0.06464986
194	0xbcbeb60b	-0.023280164
195	0x3e2723c0	0.16322231
196	0x3ecdd0f1	0.40198472
197	0x3ca3b791	0.019984992
198	0x3d8c66ed	0.06855569
199	0xbe9595eb	-0.2921594
200	0xbd3c3e13	-0.045957636
201	0x3e823c12	0.25436455
202	0x3ec3e456	0.38260144
203	0x3ea3cd87	0.31992742
204	0x3e4c3078	0.19940364
205	0x3edbc3d1	0.42922834
206	0x3ea4a8d5	0.3216006
207	0xbedf632f	-0.4363036
208	0xbebdc95d	-0.3706769
209	0xbec39b2c	-0.38204324
210	0x3ecde46f	0.40213344
211	0x3d18358c	0.03716044
212	0x3e52a314	0.20570022
213	0x3eb4393e	0.35199922
214	0xbe9fa240	-0.31178474
215	0xbdec8a63	-0.11549833
216	0x3e2d8295	0.16944344
217	0x3ec9163f	0.39274785
218	0x3eb7e0f4	0.35913813
219	0x3ec23cab	0.3793691
220	0x3eca293b	0.3948458
221	0x3ec163f9	0.37771586
222	0x3d80267d	0.06257341
223	0x3e2abe03	0.16674046
224	0x3edf08ed	0.43561497
225	0x3d7ccacc	0.06171684
226	0x3e87d84c	0.2653221
227	0x3e9a45f1	0.30131486
228	0x3ed831f1	0.42225602
229	0x3cfaa468	0.030595973
230	0x3ee65de9	0.44993523
231	0x3edfdf8f	0.4372525
232	0x3ee54d26	0.44785422
233	0x3e3bacf6	0.18327698
234	0x3d77fa70	0.06054157
235	0x3dcf7300	0.101293564
236	0x3ed001bb	0.4062632
237	0xbda240b2	-0.07922496
238	0xbe6bd8f2	-0.23031977
239	0xbe8c8a8f	-0.27449462
240	0xbd0f04b8	-0.03491661
241	0x3e1b89ce	0.15189287
242	0xbd92f1a4	-0.071749955
243	0xbe8048ce	-0.25055546
244	0x3e3b1db9	0.18273057
245	0xbdecddb1	-0.11565722
246	0xbe1a5f76	-0.15075478
247	0x3e105699	0.14095534
248	0x3e0c429c	0.13697284
249	0x3dc0ccd9	0.094140716
250	0xbe232fa0	-0.15936136
251	0xbde9e877	-0.11421292
252	0x3daaa055	0.08331362
253	0xbe0dce85	-0.13848312
254	0x3e33183d	0.17489715
255	0x3b8e370a	0.0043400573

lstm.weight_hh_l0 f4 [600, 150]
0	0xbf28c4d3	-0.6592533
1	0xbf6938fb	-0.9110257
2	0x3eb7cb9d	0.35897532
3	0xbec6ac04	-0.38803113
4	0x3e89d758	0.26922107
5	0xbf4f4e9d	-0.8097933
6	0x3e588d00	0.21147537
7	0xbf2b3018	-0.6687026
8	0x3eb4d385	0.35317627
9	0xbf25e826	-0.64807355
10	0xbf5ce482	-0.86286175
11	0xbf1972d4	-0.5994084
12	0xbef2bf27	-0.47411463
13	0xbf87077e	-1.0549161
14	0xbf11fef2	-0.5702964
15	0xbe949de9	-0.29026726
16	0x3f25fcec	0.64839053
17	0x3f04772e	0.51744354
18	0x3e130d09	0.14360441
19	0xbf528ab0	-0.8224287
20	0x3f86ab71	1.052107
21	0xbf108934	-0.56459355
22	0xbf851a5d	-1.039867
23	0xbf0e9cb1	-0.5570784
24	0xbeb8f6e4	-0.36125863
25	0xbe828ff8	-0.25500464
26	0x3e636708	0.22207272
27	0xbf2fc538	-0.68660307
28	0xbf607e53	-0.87692755
29	0xbf5870df	-0.8454723
30	0xbf4d1bc2	-0.8012048
31	0x3d4b8e81	0.04969645
32	0x3f15b628	0.58481073
33	0xbf1d8d7b	-0.6154401
34	0x3e861eda	0.26195413
35	0xbf737914	-0.95106626
36	0xbf1cd8f4	-0.61268544
37	0x3eed44c1	0.46341518
38	0xbe35a56b	-0.17738883
39	0xbed05d72	-0.40696293
40	0x3f780e97	0.9689726
41	0x3da332d2	0.079686776
42	0x3d8843fb	0.06653591
43	0xbf82f1a8	-1.0229998
44	0xbf66e0cf	-0.9018678
45	0x3f039e2f	0.51413244
46	0xbf6f995a	-0.9359337
47	0xbf83035a	-1.0235398
48	0xbf7d2f11	-0.9889994
49	0x3f471502	0.7776643
50	0xbe636261	-0.22205497
51	0xbf97dd4f	-1.1864413
52	0x3ce24c49	0.027624266
53	0x3f2aaee0	0.6667309
54	0x3f664932	0.8995544
55	0x3e2da345	0.16956814
56	0x3f37a06e	0.7172917
57	0x3fa5dc91	1.2957937
58	0x3f9b2207	1.2119759
59	0xbe5e4684	-0.21706587
60	0xbf83e6ab	-1.0304769
61	0xbf81b016	-1.0131862
62	0x3f59f5b6	0.8514055
63	0x3f2f2f76	0.68431795
64	0xbf5cdac9	-0.8627134
65	0xbf943794	-1.1579461
66	0x3f592456	0.8482107
67	0xbf9ac27b	-1.2090601
68	0x3f256242	0.64603055
69	0xbe2c5f2c	-0.1683318
70	0x3d6f640d	0.058445025
71	0xbf750e67	-0.957251
72	0xbcf1fe86	-0.029540312
73	0xbf48a34b	-0.78374165
74	0xbbacd8d9	-0.0052748737
75	0xbf836184	-1.0264134
76	0x3ed43a2a	0.41450626
77	0xbf9701d2	-1.179743
78	0xbf95d11c	-1.170444
79	0x3ea4a3c1	0.32156184
80	0x3f1f2b1c	0.62175155
81	0xbf800036	-1.0000064
82	0xbf6a592c	-0.91542315
83	0xbeedc573	-0.46439704
84	0x3f71d061	0.94458586
85	0xbf7b1b8f	-0.98088926
86	0xbee2c7cd	-0.4429306
87	0xbedb2eee	-0.42809242
88	0xbf840399	-1.0313598
89	0xbf8a545f	-1.0806998
90	0xbf163439	-0.58673435
91	0xbeba5be2	-0.36398226
92	0xbf6a0a62	-0.9142209
93	0x3e4dd5d2	0.20101097
94	0x3dd9868e	0.106213674
95	0xbf6937b9	-0.9110065
96	0xbee1ed0c	-0.44126165
97	0xbf68a060	-0.9086971
98	0xbf7ec892	-0.99524796
99	0x3df5e0b0	0.12005746
100	0x3dc6b72f	0.09702908
101	0xbf60af4c	-0.8776748
102	0xbf0dad32	-0.553424
103	0xbf50aa31	-0.8150969
104	0x3f774394	0.9658749
105	0x3f502158	0.8130088
106	0x3f0f22e1	0.55912596
107	0x3a9caf08	0.0011954019
108	0x3f06fdc6	0.5273098
109	0x3f91200b	1.1337904
110	0xbf8e21f2	-1.1104109
111	0x3f2e26d8	0.6802802
112	0xbf8f9067	-1.1215943
113	0xbf872e3c	-1.0560985
114	0xbf961580	-1.1725311
115	0xbf66c2d7	-0.9014105
116	0xbedfaccc	-0.4368652
117	0xbe5ea134	-0.21741182
118	0x3f2a579c	0.6653993
119	0xbf808413	-1.0040306
120	0x3f4467bd	0.7672079
121	0xbf559cf7	-0.83442634
122	0x3f8783b5	1.0587069
123	0xbf51d688	-0.81967974
124	0x3e824361	0.2544203
125	0xbe955714	-0.29167998
126	0xbf5e3358	-0.86797094
127	0xbf9355ad	-1.1510521
128	0xbe7da757	-0.24770866
129	0xbd3f3b9b	-0.046687704
130	0x3f894ae9	1.0725986
131	0xbc37aea0	-0.011211067
132	0xbe6ac67c	-0.22927278
133	0xbe4ff963	-0.20309977
134	0xbd69a63e	-0.057043307
135	0x3f9a7c33	1.2069153
136	0xbedb4e9b	-0.4283341
137	0xbdc242e5	-0.09485415
138	0xbf9225a5	-1.1417738
139	0x3cd4ea32	0.02599058
140	0x3f58bc74	0.84662557
141	0xbf898104	-1.0742497
142	0x3e5b7a78	0.21433437
143	0xbe115257	-0.14191566
144	0x3f5d2844	0.86389565
145	0x3f30e0d8	0.69093084
146	0xbf92a5fe	-1.1456907
147	0xbf963f56	-1.1738079
148	0xbf659fa0	-0.89696693
149	0xbe08bbe1	-0.1335292
150	0x3f3c5e28	0.7358117
151	0xbecdeddc	-0.40220535
152	0x3ed2e1de	0.41187948
153	0xbe8abfa8	-0.27099347
154	0xbe2ee517	-0.17079578
155	0xbf33b9fc	-0.70205665
156	0x3e25a46c	0.16176003
157	0xbf40f27f	-0.7537002
158	0x3e429a55	0.19004185
159	0xbf32a6de	-0.6978587
160	0xbed7a6f4	-0.42119563
161	0xbe9bd001	-0.30432132
162	0xbe4000e3	-0.18750338
163	0xbf1ff19d	-0.6247805
164	0xbe341dc2	-0.17589477
165	0xbf3d4886	-0.73938787
166	0x3f22e630	0.6363249
167	0x3f39bf3f	0.72557443
168	0xbe3b802f	-0.18310617
169	0xbedad1f5	-0.4273831
170	0x3f40280f	0.75061125
171	0xbeeaab5a	-0.45833856
172	0xbf41f58a	-0.7576529
173	0xbeb28bf7	-0.3487241
174	0x3e9c3388	0.30508065
175	0x3e21a2fe	0.15784833
176	0xbe8b5ab5	-0.2721764
177	0xbdcd798c	-0.10032949
178	0xbf446aaa	-0.76725256
179	0xbecd1080	-0.4005165
180	0xbf3ca2f9	-0.73686177
181	0x3ea95aa5	0.3307697
182	0x3f20549e	0.62629116
183	0xbeef5cf0	-0.46750593
184	0x3f2d0f1e	0.6760119
185	0xbf4957e1	-0.7864972
186	0xbecb35c6	-0.39689463
187	0xbccf9109	-0.025337713
188	0xbea34ffe	-0.31896967
189	0xbe81da61	-0.25361922
190	0x3f52ffd4	0.8242161
191	0x3e3f6583	0.18691067
192	0x3d3b7b8f	0.04577213
193	0xbf47ceb5	-0.78049785
194	0xbf15a407	-0.5845341
195	0x3f2b5bdd	0.6693705
196	0xbf08f759	-0.5350242
197	0xbf35e15e	-0.7104701
198	0xbf033e11	-0.5126658
199	0x3f42dc61	0.7611752
200	0x3d1ec22d	0.0387594
201	0xbf38dd7f	-0.72212976
202	0x3ec1e5e5	0.37870708
203	0x3f21e4b9	0.6323963
204	0x3f35141f	0.7073383
205	0x3e12e64e	0.14345667
206	0x3f20ed75	0.6286233
207	0x3f3840fd	0.71974164
208	0x3f3eb38f	0.74492735
209	0x3e94d3e8	0.29067922
210	0xbef96b7d	-0.4871482
211	0xbf3d801f	-0.7402362
212	0x3f2564de	0.64607036
213	0x3ef8743b	0.48526177
214	0xbf8c885c	-1.0979114
215	0xbf312566	-0.6919769
216	0x3f55a80f	0.8345956
217	0xbf1e1af0	-0.61759853
218	0x3d953cda	0.07286997
219	0xbde56bf4	-0.11202231
220	0x3d0276fd	0.031851757
221	0xbf3360b8	-0.70069456
222	0xbdf7e5c7	-0.121043734
223	0xbf48f918	-0.78505087
224	0x3e86c9a4	0.26325715
225	0xbefaacd0	-0.4895997
226	0x3ed681b3	0.41895828
227	0xbf3c2b57	-0.7350363
228	0xbf2ae034	-0.66748357
229	0xbe1c39d5	-0.15256436
230	0x3e8d93ad	0.2765173
231	0xbf6dc0a5	-0.9287208
232	0xbf3d6163	-0.73976725
233	0xbe3ebfdd	-0.18627878
234	0x3f3f9a55	0.74844867
235	0xbf21bb2c	-0.63176227
236	0xbeda4bd9	-0.42635992
237	0xbe9e666d	-0.3093752
238	0xbf5cd8dd	-0.8626841
239	0xbf444cce	-0.76679695
240	0xbe2627e9	-0.16226162
241	0xbda7c529	-0.08191902
242	0xbf18d8f5	-0.5970605
243	0xbc5c83f1	-0.013459192
244	0x3e7fe464	0.24989468
245	0xbefe0b66	-0.4961807
246	0x3ea1ed3a	0.31626302
247	0xbeddd325	-0.43325153
248	0xbf3a79bc	-0.72842
249	0x3d27fa82	0.041010387
250	0x394f0ff1	0.00019746997
251	0xbf2ad2fd	-0.6672819
252	0xbe8c21b0	-0.27369452
253	0xbf301f04	-0.68797326
254	0x3f2d148b	0.6760947
255	0x3f90b175	1.1304156

lstm.bias_ih_l0 f4 [600]
0	0xbed163d8	-0.40896487
1	0x3ec723b1	0.38894418
2	0xbe0f1ca9	-0.13975777
3	0xbd236b5a	-0.0398973
4	0x3ebae956	0.36506146
5	0x3ebc48df	0.36774346
6	0xbe19537d	-0.14973255
7	0x3eae323c	0.340227
8	0xbe897ed8	-0.26854587
9	0x3ef48502	0.47757727
10	0x3e97f8a7	0.29681894
11	0x3e5caec6	0.21551046
12	0x3e9f3bf8	0.3110044
13	0x3ef82f49	0.48473576
14	0xbec5d7de	-0.38641256
15	0x3db685d6	0.08912246
16	0x3e30f3b4	0.17280465
17	0xbee94718	-0.45562053
18	0xbdaa3bf2	-0.08312215
19	0xbd9dff9a	-0.07714768
20	0x3e7e6e17	0.24846683
21	0x3d1139ca	0.035455503
22	0x3e88b89a	0.2670334
23	0x3e745dcb	0.23863904
24	0x3e7c6178	0.24646556
25	0xbf2ca3de	-0.6743754
26	0x3d30717b	0.043076973
27	0x3e3ec1da	0.18628636
28	0x3e49f74b	0.19723241
29	0x3e58f44b	0.2118694
30	0x3eb59369	0.35464028
31	0xbce2da6f	-0.027692048
32	0x3cdaa54f	0.026690153
33	0x3e3539ed	0.17697878
34	0xbef6c6df	-0.48198602
35	0x3ebebae9	0.37251976
36	0x3eea8ce5	0.4581062
37	0xbec6a1a4	-0.38795197
38	0x3df6d087	0.12051492
39	0x3f17b44a	0.59259474
40	0x3eda5206	0.42640704
41	0xbdf18b1c	-0.11794111
42	0xbe909ffd	-0.2824706
43	0x3d254857	0.04035219
44	0x3e409164	0.18805462
45	0x3de8d78d	0.11369238
46	0x3d088c74	0.03333707
47	0x3e57c89e	0.21072623
48	0x3e304fbd	0.17217918
49	0xbe12ba25	-0.14328821
50	0xbe2ee78a	-0.17080513
51	0x3ea760ff	0.3269119
52	0xbe9a668d	-0.30156365
53	0x3e1d091c	0.15335506
54	0x3ec1a434	0.3782059
55	0x3eba8304	0.36428082
56	0xbe83594b	-0.25654063
57	0xbd957aea	-0.072988346
58	0x3f089bf4	0.53362966
59	0xbf29da67	-0.6634888
60	0x3ebb7969	0.36616066
61	0x3f075d7e	0.5287703
62	0x3ebc18cd	0.36737671
63	0xbece2dae	-0.40269226
64	0x3ebdbcc6	0.37058085
65	0x3e7ca4aa	0.2467219
66	0x3e225bb9	0.15855302
67	0x3e5757cb	0.21029584
68	0x3e9bc657	0.3042476
69	0x3e5a524f	0.2132046
70	0x3e0c4fe3	0.1370235
71	0x3e807c1f	0.25094697
72	0xbcb4cdb2	-0.02207074
73	0x3f28fbdf	0.66009325
74	0x3e8a5d0f	0.27024123
75	0xbd970676	-0.07374279
76	0x3e252f4e	0.16131327
77	0x3ef2384f	0.47308585
78	0x3e3db1cb	0.18524854
79	0xbe698f64	-0.22808605
80	0x3e8264f2	0.2546764
81	0x3f46e625	0.7769492
82	0x3ec1e45a	0.3786953
83	0x3ec419a6	0.38300818
84	0xbf0d7144	-0.55250955
85	0x3ee60e1d	0.44932643
86	0xbdb54123	-0.088503145
87	0xbde71a7b	-0.112843476
88	0x3dd4b402	0.10385896
89	0x3eb0d76c	0.34539354
90	0xbc062c43	-0.008189264
91	0x3e8a1f67	0.26977083
92	0x3ea265a6	0.31718177
93	0x3e252625	0.16127832
94	0xbf08d576	-0.53450716
95	0x3ed59d8b	0.41721758
96	0x3d9832b8	0.07431549
97	0x3eb4bbfd	0.35299674
98	0x3eb113c6	0.34585398
99	0xbeb1c67c	-0.34721744
100	0x3ebc737d	0.3680686
101	0xbed2553a	-0.41080648
102	0x3e936a42	0.28792006
103	0x3f06071e	0.5235461
104	0xbef30b5e	-0.4746961
105	0x3e8ba1a0	0.27271748
106	0xbe987126	-0.29773825
107	0xbdcb7609	-0.09934623
108	0xbf37d875	-0.7181466
109	0x3e87d066	0.26526183
110	0x3eaefc90	0.34177065
111	0xbedaf2f9	-0.42763498
112	0x3eca8f28	0.39562345
113	0x3f0b1799	0.5433288
114	0x3f02a511	0.5103312
115	0xbcccb6b4	-0.024989463
116	0x3ebaa0e4	0.36450875
117	0xbdc83f20	-0.09777665
118	0xbee1319f	-0.4398317
119	0x3f30ffb8	0.69140196
120	0xbdc8788a	-0.09788616
121	0x3d969637	0.0735287
122	0xbedfe29c	-0.43727577
123	0x3f00e943	0.5035593
124	0xbe15c1aa	-0.14624658
125	0x3e990480	0.29886246
126	0x3ecdac57	0.40170547
127	0x3ec90336	0.39260262
128	0xbeaf43eb	-0.34231505
129	0x3e4375d2	0.19087914
130	0x3e67e92b	0.2264754
131	0xbdd516e0	-0.10404754
132	0xbeac68cd	-0.33673707
133	0xbeba8b99	-0.3643463
134	0xbf21af38	-0.6315799
135	0x3cd0bd7c	0.025480978
136	0x3cd34f06	0.025794517
137	0x3e7d2c6e	0.2472398
138	0x3ea4a7f1	0.3215938
139	0xbe9f40f2	-0.31104237
140	0xbe928138	-0.2861421
141	0x3e9bb269	0.30409554
142	0xbe9cca6e	-0.30623192
143	0xbe9e05fe	-0.30863947
144	0x3ea2f6e3	0.31828985
145	0x3ee73d86	0.45164126
146	0x3ed01573	0.40641364
147	0x3ee17b79	0.44039515
148	0x3d46d38d	0.048541594
149	0xbe857342	-0.26064497
150	0x3e13635e	0.14393374
151	0x3e430266	0.19043884
152	0xbe38d4af	-0.18049882
153	0xbc99c7d7	-0.018772049
154	0x3eb1aec1	0.3470364
155	0x3d61a450	0.05508834
156	0x3ece6550	0.4031167
157	0xbe7189bd	-0.23587699
158	0x3d428224	0.047487393
159	0x3ea181be	0.31544298
160	0x3ea1ce23	0.31602582
161	0xbe046cf9	-0.12932195
162	0x3e9eeb91	0.31039098
163	0x3ecd838c	0.40139425
164	0x3e5fbe13	0.21849851
165	0x3ec4f0af	0.38464877
166	0xbe82c099	-0.25537565
167	0x3dd65314	0.10465065
168	0x3e1edda3	0.15514235
169	0x3e63cf5f	0.22247075
170	0x3e8a595d	0.27021304
171	0xbee6b3ab	-0.4505895
172	0x3d9842f2	0.07434644
173	0xbe21a639	-0.15786065
174	0x3ea1b910	0.31586504
175	0xbe22745f	-0.15864705
176	0xbdb57b5f	-0.08861422
177	0xbded6ea9	-0.115933724
178	0x3e5c0c48	0.2148906
179	0x3d2578dd	0.040398467
180	0x3ef3f839	0.47650316
181	0xbe0b810f	-0.1362345
182	0xbe880145	-0.2656347
183	0x3e835a03	0.2565461
184	0xbe94657b	-0.28983673
185	0x3e4e7cc2	0.20164779
186	0xbe1e829f	-0.15479515
187	0xbdae39b5	-0.085071005
188	0x3e2296f5	0.15877898
189	0xbdefcd59	-0.11709089
190	0x3ecf6fc1	0.4051495
191	0xbe67e154	-0.2264455
192	0xbe9a2e34	-0.30113375
193	0x3ea628ce	0.32453007
194	0xbe11d75d	-0.14242311
195	0xbebc5572	-0.3678394
196	0x3ec2ec9b	0.3807114
197	0x3f0a9869	0.5413881
198	0x3e40a65d	0.18813463
199	0xbc39f45d	-0.011349765
200	0x3f019b61	0.50627714
201	0x3e38342d	0.17988653
202	0xbe163332	-0.14667967
203	0x3ea59b4f	0.32345054
204	0x3e62dc4f	0.22154354
205	0xbc84d2bb	-0.016213765
206	0xbd4302f6	-0.047610246
207	0x3ed0b3c7	0.4076216
208	0xbf08dba9	-0.53460175
209	0xbe2267ad	-0.15859862
210	0x3e69aab8	0.2281903
211	0x3ec7180d	0.38885537
212	0xbe07cba9	-0.13261284
213	0xbe949274	-0.29017985
214	0x3df236bf	0.11826848
215	0x3f0ef0d1	0.55836207
216	0x3db411e8	0.08792478
217	0x3e2b108e	0.16705534
218	0x3e735a8b	0.23765008
219	0x3f186ed6	0.5954412
220	0xbdc681b1	-0.096927054
221	0xbebf8132	-0.37403256
222	0xbe587934	-0.21139985
223	0x3e8b1376	0.27163285
224	0x3ee75ba1	0.45187095
225	0xbe8c4439	-0.273958
226	0xbd5d1928	-0.05397907
227	0x3e55c296	0.2087501
228	0x3f0ce50b	0.5503699
229	0xbec28142	-0.3798924
230	0x3f5a94b3	0.85383147
231	0x3e7ff56d	0.24995966
232	0x3ed13ba5	0.40865818
233	0x3e8a0475	0.26956525
234	0xbe69fbc8	-0.22849953
235	0x3ecd9077	0.4014928
236	0x3ee3441a	0.44387895
237	0x3eb8c5f0	0.36088514
238	0x3eed7bfa	0.4638365
239	0x3e9daa44	0.30793965
240	0xbe7b3472	-0.24531725
241	0x3e6442c7	0.22291099
242	0xbea185ea	-0.3154748
243	0xbd333c62	-0.043758757
244	0xbe3cf48a	-0.18452659
245	0x3e82d2d6	0.2555148
246	0xbe3ba4dc	-0.18324608
247	0x3e921852	0.2853418
248	0x3eb46ff1	0.35241655
249	0xbed02444	-0.40652668
250	0x3ec8ba02	0.39204413
251	0x3e37b634	0.17940599
252	0xbe71f6b2	-0.23629263
253	0x3f008b50	0.50212574
254	0x3e92cd23	0.28672132
255	0x3e05127e	0.12995335

lstm.bias_hh_l0 f4 [600]
0	0xbee13601	-0.43986514
1	0x3ebb04cf	0.36527106
2	0xbe33e1f0	-0.17566657
3	0xbc8e02f9	-0.017335402
4	0x3ec0c238	0.37648177
5	0x3ede9baf	0.43478152
6	0xbe0c230f	-0.13685249
7	0x3e9e87ce	0.30962986
8	0xbe98e34e	-0.2986092
9	0x3ecfbfcc	0.40576017
10	0x3ebb7add	0.36617175
11	0x3e4f05ca	0.20217052
12	0x3ea086cb	0.3135284
13	0x3f062bde	0.52410686
14	0xbebf4050	-0.37353754
15	0x3d9de55d	0.07709763
16	0x3e04444b	0.12916677
17	0xbf07815b	-0.52931756
18	0xbe104213	-0.14087705
19	0xbc043c15	-0.008070965
20	0x3e83c0a6	0.25732917
21	0x3ca77c8b	0.020445129
22	0x3e9e7c05	0.30953994
23	0x3e4f5e95	0.20250924
24	0x3e858378	0.26076865
25	0xbf3f1d24	-0.7465384
26	0x3c2b2c27	0.010447538
27	0x3e0a3c9d	0.13499685
28	0x3e512107	0.20422755
29	0x3e2183c9	0.15772928
30	0x3eb9b332	0.36269528
31	0x3d56fed0	0.052489102
32	0x3c1dd8b0	0.009634182
33	0x3e7f5b2a	0.2493712
34	0xbefbd27e	-0.4918403
35	0x3ed02fde	0.4066152
36	0x3f0ad3cb	0.5422942
37	0xbeddfc43	-0.43356523
38	0x3dfb8c5b	0.1228263
39	0x3f112cb8	0.5670886
40	0x3eaed704	0.3414842
41	0xbd77e0ba	-0.06051705
42	0xbe9ad504	-0.30240643
43	0x3de4c62e	0.11170612
44	0x3dd4d5a0	0.10392308
45	0x3dbed0e6	0.09317188
46	0x3ce9a1a4	0.02851946
47	0x3e6b21a3	0.2296205
48	0x3e05ebc0	0.13078213
49	0xbe5720eb	-0.21008651
50	0xbe5481d9	-0.20752658
51	0x3ea5aa94	0.32356703
52	0xbec4b450	-0.38418818
53	0x3e2a0a13	0.16605406
54	0x3e90f9b2	0.28315502
55	0x3ea2b445	0.3177816
56	0xbe4515ea	-0.19246641
57	0xbdcc9388	-0.09989077
58	0x3f13d899	0.57752377
59	0xbf281bca	-0.656674
60	0x3ea5728b	0.32313952
61	0x3eec41b4	0.46143878
62	0x3ed96a84	0.42464077
63	0xbea3eb2b	-0.32015356
64	0x3eb790df	0.35852715
65	0x3e73b6e8	0.23800242
66	0x3dc194db	0.0945222
67	0x3e96aa9f	0.2942705
68	0x3e8704cd	0.2637085
69	0x3e6694ee	0.2251775
70	0x3e093923	0.13400702
71	0x3e8821d7	0.26588318
72	0xbd951f60	-0.07281375
73	0x3f1ffa9c	0.62491775
74	0x3e4cfb9b	0.20017855
75	0xbd5caaa4	-0.053873673
76	0x3e45c675	0.19313987
77	0x3f02d7b7	0.51110405
78	0x3e25a8de	0.16177699
79	0xbe871d4d	-0.26389542
80	0x3e64c7c7	0.22341834
81	0x3f436e0c	0.76339793
82	0x3ebc2219	0.36744764
83	0x3ea92ded	0.3304285
84	0xbeeac7f4	-0.45855677
85	0x3ec109ed	0.37702885
86	0xbdfe8096	-0.124268696
87	0xbe1a98b5	-0.15097316
88	0x3d10a792	0.035316058
89	0x3e8e6ce4	0.27817452
90	0xbd135a0e	-0.035974555
91	0x3e8ca67d	0.2747077
92	0x3e86824c	0.26271284
93	0x3e0d93c8	0.13825905
94	0xbf14dca8	-0.58149195
95	0x3ec3cd9f	0.38242814
96	0x3d6d3822	0.05791486
97	0x3ec7145b	0.38882717
98	0x3eb21cbf	0.34787557
99	0xbe96bae1	-0.29439452
100	0x3ebe9acd	0.3722748
101	0xbed3718e	-0.41297573
102	0x3e68b05d	0.22723527
103	0x3f01ef0d	0.5075539
104	0xbf058165	-0.52150565
105	0x3e8a375c	0.2699536
106	0xbe544baf	-0.20731996
107	0xbe06f456	-0.13179144
108	0xbf432dee	-0.7624196
109	0x3e9fb5c2	0.31193358
110	0x3e92a6d9	0.2864292
111	0xbead64a3	-0.33865842
112	0x3ed5d865	0.41766658
113	0x3f0b963c	0.54526114
114	0x3ee2f61d	0.44328395
115	0x3c17588f	0.009237423
116	0x3ed21305	0.41030136
117	0xbe2e8801	-0.17044069
118	0xbed13188	-0.40858102
119	0x3f25cbcd	0.647641
120	0xbe017cd0	-0.12645268
121	0x3e1b3dce	0.15160295
122	0xbecf19dc	-0.40449417
123	0x3eec7a21	0.46186927
124	0xbe0f6a49	-0.14005388
125	0x3e89e08f	0.26929137
126	0x3ec48152	0.38379914
127	0x3ed39350	0.41323328
128	0xbea8833e	-0.3291263
129	0x3e47e526	0.19521007
130	0x3e3a5db8	0.18199813
131	0xbd9cd2bc	-0.07657382
132	0xbea79acb	-0.32735285
133	0xbec7ab33	-0.38997802
134	0xbf1fd941	-0.6244088
135	0x3dad9867	0.08476334
136	0xbd1dba53	-0.03850777
137	0x3e8d3de3	0.27586278
138	0x3e8809a6	0.2656986
139	0xbe928a85	-0.28621307
140	0xbe8d9e2b	-0.27659735
141	0x3e9a31a4	0.30115998
142	0xbea5d000	-0.32385254
143	0xbe9906b3	-0.29887924
144	0x3e8aac58	0.27084613
145	0x3eea9738	0.45818496
146	0x3ef1e20b	0.4724277
147	0x3ee8c9a9	0.45466354
148	0x3c7f9585	0.015599613
149	0xbe8bb4a8	-0.27286267
150	0x3dac3cf9	0.08410067
151	0x3e195737	0.14974676
152	0xbe32a208	-0.17444623
153	0xbc53781a	-0.012907052
154	0x3eb3a4f3	0.35086784
155	0x3de08478	0.109627664
156	0x3ed4cfb1	0.41564706
157	0xbe85864f	-0.26079032
158	0x3df92307	0.12164884
159	0x3e9b60a6	0.30347174
160	0x3e9b10ef	0.30286357
161	0xbdba1847	-0.09086662
162	0x3e979b67	0.2961075
163	0x3ea2e2f1	0.31813768
164	0x3e2897d5	0.1646417
165	0x3ec4605a	0.3835476
166	0xbead3cf8	-0.33835578
167	0x3de6594b	0.112475
168	0x3e4f3e36	0.20238575
169	0x3e853c64	0.26022637
170	0x3e6e2b72	0.2325876
171	0xbf02e91f	-0.51136965
172	0x3df5db41	0.1200471
173	0xbe5cebe7	-0.21574365
174	0x3eb39a1a	0.35078508
175	0xbe6e7184	-0.2328549
176	0xbd9f45a4	-0.07776955
177	0xbd511b9a	-0.051051714
178	0x3e62daee	0.22153828
179	0x3d741509	0.059590373
180	0x3ed03f7e	0.4067344
181	0xbda8fe30	-0.082516074
182	0xbe64cde3	-0.22344165
183	0x3eac278e	0.33623928
184	0xbe9d7a78	-0.307575
185	0x3e8495d2	0.25895554
186	0xbe29ce95	-0.16582711
187	0xbe16b698	-0.14718091
188	0x3e5c2b32	0.21500853
189	0xbe2e94f6	-0.17049012
190	0x3eca1938	0.39472365
191	0xbe7b6069	-0.24548496
192	0xbe8e8bb1	-0.2784095
193	0x3e9fa946	0.31183833
194	0xbdbfda08	-0.09367758
195	0xbee95b2d	-0.45577374
196	0x3ed4ea1d	0.41584864
197	0x3f12a907	0.57289165
198	0x3e6b2c19	0.2296604
199	0xbd0f046f	-0.034916338
200	0x3f0c1d07	0.5473179
201	0x3e74df89	0.23913397
202	0xbe5a2c6a	-0.21306005
203	0x3e9b275e	0.30303472
204	0x3e064ab3	0.13114433
205	0xbcda070b	-0.026614686
206	0xbd4ce59f	-0.05002367
207	0x3eef9acb	0.46797785
208	0xbf0d607a	-0.55225337
209	0xbe282192	-0.16419056
210	0x3e94c0d5	0.2905337
211	0x3ef12359	0.4709728
212	0xbdd776e5	-0.10520724
213	0xbea669bb	-0.3250254
214	0x3e0cc5c6	0.1374732
215	0x3f1a2275	0.6020883
216	0x3da7a43e	0.081856236
217	0x3da3c16c	0.07995877
218	0x3e4f475c	0.20242065
219	0x3f0a1d01	0.53950506
220	0xbe13217f	-0.14368246
221	0xbeb0c505	-0.34525314
222	0xbdf64f0e	-0.12026797
223	0x3e575df0	0.21031928
224	0x3ef320c2	0.4748593
225	0xbe85e7af	-0.26153323
226	0xbdc3d361	-0.09561802
227	0x3e5c5933	0.21518402
228	0x3f084e5a	0.53244555
229	0xbee42f32	-0.44567257
230	0x3f62a5dc	0.8853433
231	0x3ea54471	0.3227878
232	0x3ecc62cf	0.39919135
233	0x3e8596c9	0.26091602
234	0xbe71500b	-0.2356569
235	0x3ebf6acf	0.37386176
236	0x3ee2570e	0.44207042
237	0x3eb75955	0.35810342
238	0x3ef22655	0.4729487
239	0x3ea4dd91	0.32200292
240	0xbe49b36a	-0.19697347
241	0x3e209a86	0.15683946
242	0xbe7902bc	-0.2431745
243	0xbda0e7e3	-0.07856729
244	0xbe37fc04	-0.1796723
245	0x3e9cf799	0.30657652
246	0xbe0cfc1e	-0.1376805
247	0x3e69c191	0.22827746
248	0x3e9ef692	0.31047493
249	0xbed744d4	-0.420447
250	0x3ec12815	0.37725893
251	0x3e20fb8e	0.1572096
252	0xbe22cebd	-0.15899177
253	0x3f0ded57	0.55440277
254	0x3e88a434	0.26687777
255	0x3d93d00e	0.07217418

layernorm.weight f4 [150]
0	0x3f800000	1.0
1	0x3f800000	1.0
2	0x3f800000	1.0
3	0x3f800000	1.0
4	0x3f800000	1.0
5	0x3f800000	1.0
6	0x3f800000	1.0
7	0x3f800000	1.0
8	0x3f800000	1.0
9	0x3f800000	1.0
10	0x3f800000	1.0
11	0x3f800000	1.0
12	0x3f800000	1.0
13	0x3f800000	1.0
14	0x3f800000	1.0
15	0x3f800000	1.0
16	0x3f800000	1.0
17	0x3f800000	1.0
18	0x3f800000	1.0
19	0x3f800000	1.0
20	0x3f800000	1.0
21	0x3f800000	1.0
22	0x3f800000	1.0
23	0x3f800000	1.0
24	0x3f800000	1.0
25	0x3f800000	1.0
26	0x3f800000	1.0
27	0x3f800000	1.0
28	0x3f800000	1.0
29	0x3f800000	1.0
30	0x3f800000	1.0
31	0x3f800000	1.0
32	0x3f800000	1.0
33	0x3f800000	1.0
34	0x3f800000	1.0
35	0x3f800000	1.0
36	0x3f800000	1.0
37	0x3f800000	1.0
38	0x3f800000	1.0
39	0x3f800000	1.0
40	0x3f800000	1.0
41	0x3f800000	1.0
42	0x3f800000	1.0
43	0x3f800000	1.0
44	0x3f800000	1.0
45	0x3f800000	1.0
46	0x3f800000	1.0
47	0x3f800000	1.0
48	0x3f800000	1.0
49	0x3f800000	1.0
50	0x3f800000	1.0
51	0x3f800000	1.0
52	0x3f800000	1.0
53	0x3f800000	1.0
54	0x3f800000	1.0
55	0x3f800000	1.0
56	0x3f800000	1.0
57	0x3f800000	1.0
58	0x3f800000	1.0
59	0x3f800000	1.0
60	0x3f800000	1.0
61	0x3f800000	1.0
62	0x3f800000	1.0
63	0x3f800000	1.0
64	0x3f800000	1.0
65	0x3f800000	1.0
66	0x3f800000	1.0
67	0x3f800000	1.0
68	0x3f800000	1.0
69	0x3f800000	1.0
70	0x3f800000	1.0
71	0x3f800000	1.0
72	0x3f800000	1.0
73	0x3f800000	1.0
74	0x3f800000	1.0
75	0x3f800000	1.0
76	0x3f800000	1.0
77	0x3f800000	1.0
78	0x3f800000	1.0
79	0x3f800000	1.0
80	0x3f800000	1.0
81	0x3f800000	1.0
82	0x3f800000	1.0
83	0x3f800000	1.0
84	0x3f800000	1.0
85	0x3f800000	1.0
86	0x3f800000	1.0
87	0x3f800000	1.0
88	0x3f800000	1.0
89	0x3f800000	1.0
90	0x3f800000	1.0
91	0x3f800000	1.0
92	0x3f800000	1.0
93	0x3f800000	1.0
94	0x3f800000	1.0
95	0x3f800000	1.0
96	0x3f800000	1.0
97	0x3f800000	1.0
98	0x3f800000	1.0
99	0x3f800000	1.0
100	0x3f800000	1.0
101	0x3f800000	1.0
102	0x3f800000	1.0
103	0x3f800000	1.0
104	0x3f800000	1.0
105	0x3f800000	1.0
106	0x3f800000	1.0
107	0x3f800000	1.0
108	0x3f800000	1.0
109	0x3f800000	1.0
110	0x3f800000	1.0
111	0x3f800000	1.0
112	0x3f800000	1.0
113	0x3f800000	1.0
114	0x3f800000	1.0
115	0x3f800000	1.0
116	0x3f800000	1.0
117	0x3f800000	1.0
118	0x3f800000	1.0
119	0x3f800000	1.0
120	0x3f800000	1.0
121	0x3f800000	1.0
122	0x3f800000	1.0
123	0x3f800000	1.0
124	0x3f800000	1.0
125	0x3f800000	1.0
126	0x3f800000	1.0
127	0x3f800000	1.0
128	0x3f800000	1.0
129	0x3f800000	1.0
130	0x3f800000	1.0
131	0x3f800000	1.0
132	0x3f800000	1.0
133	0x3f800000	1.0
134	0x3f800000	1.0
135	0x3f800000	1.0
136	0x3f800000	1.0
137	0x3f800000	1.0
138	0x3f800000	1.0
139	0x3f800000	1.0
140	0x3f800000	1.0
141	0x3f800000	1.0
142	0x3f800000	1.0
143	0x3f800000	1.0
144	0x3f800000	1.0
145	0x3f800000	1.0
146	0x3f800000	1.0
147	0x3f800000	1.0
148	0x3f800000	1.0
149	0x3f800000	1.0

layernorm.bias f4 [150]
0	0x00000000	0.0
1	0x00000000	0.0
2	0x00000000	0.0
3	0x00000000	0.0
4	0x00000000	0.0
5	0x00000000	0.0
6	0x00000000	0.0
7	0x00000000	0.0
8	0x00000000	0.0
9	0x00000000	0.0
10	0x00000000	0.0
11	0x00000000	0.0
12	0x00000000	0.0
13	0x00000000	0.0
14	0x00000000	0.0
15	0x00000000	0.0
16	0x00000000	0.0
17	0x00000000	0.0
18	0x00000000	0.0
19	0x00000000	0.0
20	0x00000000	0.0
21	0x00000000	0.0
22	0x00000000	0.0
23	0x00000000	0.0
24	0x00000000	0.0
25	0x00000000	0.0
26	0x00000000	0.0
27	0x00000000	0.0
28	0x00000000	0.0
29	0x00000000	0.0
30	0x00000000	0.0
31	0x00000000	0.0
32	0x00000000	0.0
33	0x00000000	0.0
34	0x00000000	0.0
35	0x00000000	0.0
36	0x00000000	0.0
37	0x00000000	0.0
38	0x00000000	0.0
39	0x00000000	0.0
40	0x00000000	0.0
41	0x00000000	0.0
42	0x00000000	0.0
43	0x00000000	0.0
44	0x00000000	0.0
45	0x00000000	0.0
46	0x00000000	0.0
47	0x00000000	0.0
48	0x00000000	0.0
49	0x00000000	0.0
50	0x00000000	0.0
51	0x00000000	0.0
52	0x00000000	0.0
53	0x00000000	0.0
54	0x00000000	0.0
55	0x00000000	0.0
56	0x00000000	0.0
57	0x00000000	0.0
58	0x00000000	0.0
59	0x00000000	0.0
60	0x00000000	0.0
61	0x00000000	0.0
62	0x00000000	0.0
63	0x00000000	0.0
64	0x00000000	0.0
65	0x00000000	0.0
66	0x00000000	0.0
67	0x00000000	0.0
68	0x00000000	0.0
69	0x00000000	0.0
70	0x00000000	0.0
71	0x00000000	0.0
72	0x00000000	0.0
73	0x00000000	0.0
74	0x00000000	0.0
75	0x00000000	0.0
76	0x00000000	0.0
77	0x00000000	0.0
78	0x00000000	0.0
79	0x00000000	0.0
80	0x00000000	0.0
81	0x00000000	0.0
82	0x00000000	0.0
83	0x00000000	0.0
84	0x00000000	0.0
85	0x00000000	0.0
86	0x00000000	0.0
87	0x00000000	0.0
88	0x00000000	0.0
89	0x00000000	0.0
90	0x00000000	0.0
91	0x00000000	0.0
92	0x00000000	0.0
93	0x00000000	0.0
94	0x00000000	0.0
95	0x00000000	0.0
96	0x00000000	0.0
97	0x00000000	0.0
98	0x00000000	0.0
99	0x00000000	0.0
100	0x00000000	0.0
101	0x00000000	0.0
102	0x00000000	0.0
103	0x00000000	0.0
104	0x00000000	0.0
105	0x00000000	0.0
106	0x00000000	0.0
107	0x00000000	0.0
108	0x00000000	0.0
109	0x00000000	0.0
110	0x00000000	0.0
111	0x00000000	0.0
112	0x00000000	0.0
113	0x00000000	0.0
114	0x00000000	0.0
115	0x00000000	0.0
116	0x00000000	0.0
117	0x00000000	0.0
118	0x00000000	0.0
119	0x00000000	0.0
120	0x00000000	0.0
121	0x00000000	0.0
122	0x00000000	0.0
123	0x00000000	0.0
124	0x00000000	0.0
125	0x00000000	0.0
126	0x00000000	0.0
127	0x00000000	0.0
128	0x00000000	0.0
129	0x00000000	0.0
130	0x00000000	0.0
131	0x00000000	0.0
132	0x00000000	0.0
133	0x00000000	0.0
134	0x00000000	0.0
135	0x00000000	0.0
136	0x00000000	0.0
137	0x00000000	0.0
138	0x00000000	0.0
139	0x00000000	0.0
140	0x00000000	0.0
141	0x00000000	0.0
142	0x00000000	0.0
143	0x00000000	0.0
144	0x00000000	0.0
145	0x00000000	0.0
146	0x00000000	0.0
147	0x00000000	0.0
148	0x00000000	0.0
149	0x00000000	0.0

batchnorm.weight f4 [150]
0	0x3f94df8f	1.1630725
1	0x3f99fa12	1.202944
2	0x3f59b5f4	0.85043263
3	0x3ef75abd	0.48311415
4	0x3f46b4c8	0.776196
5	0x3ee4e7a1	0.4470797
6	0x3f2a15eb	0.66439694
7	0x3f075363	0.52861613
8	0x3eda6b5d	0.42660037
9	0x3ee881d4	0.4541155
10	0x3fa81d93	1.3134025
11	0x3f8f26b2	1.1183684
12	0x3ee60899	0.44928434
13	0x3f2ddbc2	0.6791345
14	0x3ec87d84	0.3915826
15	0x3ead4d42	0.33848006
16	0x3f7f5549	0.9973951
17	0x3fc32b09	1.5247508
18	0x3eda0b2d	0.4258665
19	0x3f90e9d1	1.1321355
20	0x3f84aad7	1.0364636
21	0x3f65f98b	0.898339
22	0x3f073c09	0.5282598
23	0x3eee8d3c	0.46592128
24	0x3f0d3eed	0.5517414
25	0x3f7c199b	0.9847657
26	0x3f486f98	0.7829528
27	0x3f69c24d	0.91312104
28	0x3f2ca478	0.6743846
29	0x3f4c1bfd	0.79730207
30	0x3f1c73ee	0.61114395
31	0x3f4cca4b	0.79996175
32	0x3ee786fc	0.45220172
33	0x3f3deba3	0.7418768
34	0x3fac6eb1	1.347128
35	0x3f03abee	0.5143422
36	0x3f4566bb	0.7710988
37	0x3f3fbfa8	0.7490182
38	0x3f863d02	1.0487368
39	0x3fe19184	1.7622533
40	0x3fac086a	1.3440068
41	0x3ee06606	0.43827838
42	0x3f1e31ae	0.61794555
43	0x3f1e8290	0.6191797
44	0x3f227513	0.6345989
45	0x3f42ff35	0.76170665
46	0x3f674848	0.9034467
47	0x3f401358	0.75029516
48	0xbea150f8	-0.31507087
49	0x3f96c5fa	1.1779168
50	0x3f07fbdd	0.5311869
51	0x3f8cecee	1.1009805
52	0x3f4b54da	0.7942635
53	0x3f6f1e48	0.9340558
54	0x3fc573cf	1.5425967
55	0x3f219326	0.63115156
56	0x3f70cd4b	0.9406325
57	0x3f964c5a	1.1742051
58	0x3ffe2647	1.9855431
59	0x3f68d57d	0.9095076
60	0x3ee8f20a	0.4549716
61	0x3f3b789a	0.732309
62	0x3fa2d64d	1.272165
63	0x3f88c412	1.0684836
64	0x3f5543b0	0.8330641
65	0x3f103282	0.5632707
66	0x3f810751	1.0080358
67	0x3f57293d	0.840473
68	0x3f20ee4d	0.6286362
69	0x3f511422	0.81671345
70	0x3f216349	0.6304212
71	0x3f3ed33b	0.7454106
72	0x3f443407	0.7664189
73	0x3fa84b9e	1.3148077
74	0x3f6a7c86	0.9159626
75	0x3f7204fb	0.9453885
76	0x3ea803bc	0.3281535
77	0x3f2b798b	0.66982335
78	0x3fb1b936	1.3884647
79	0x3f32148d	0.6956261
80	0x3fa9db2a	1.3270009
81	0x3f21ed11	0.6325236
82	0x3f77a148	0.9673047
83	0x3f42fc55	0.7616628
84	0x3fbea4c2	1.489403
85	0x3f3798e8	0.7171769
86	0x3f2c539c	0.6731508
87	0x3f6b4e09	0.9191595
88	0x3fb6ae1d	1.4271885
89	0x3f3133bd	0.6921957
90	0x3f649124	0.89283967
91	0x3f20fc80	0.62885284
92	0x3ee60d54	0.44932044
93	0x3eb4c3a0	0.353055
94	0x3f85ba85	1.0447546
95	0x3f8cb0ce	1.0991457
96	0x3f08ed05	0.53486663
97	0x3f853ad2	1.0408576
98	0x3f2582d8	0.64652777
99	0x3ecb6584	0.39725888
100	0x3f5fe53f	0.87459177
101	0x3f80dde4	1.0067716
102	0x3f4007db	0.75011986
103	0x3f57ebee	0.84344375
104	0x3f8cd92b	1.1003774
105	0x3ec69a92	0.38789803
106	0x3f9d68f8	1.2297659
107	0x3f166f57	0.5876364
108	0x3f93fb2f	1.156103
109	0x3f634413	0.8877575
110	0x3f232d63	0.6374113
111	0x3fa51871	1.2898084
112	0x3f04383f	0.51648325
113	0x3f11a5c3	0.5689356
114	0x3f6ae6b7	0.9175829
115	0x3f90e98e	1.1321275
116	0x3f9545f1	1.166197
117	0x3f5ddc47	0.8666424
118	0x3fa47cb4	1.2850556
119	0x3efa9976	0.48945206
120	0x3fa53ebf	1.2909774
121	0x3f970917	1.1799649
122	0x3fe82175	1.813521
123	0x3f7a5060	0.9777889
124	0x3ecb8314	0.39748442
125	0x3f480674	0.78134847
126	0x3fcf6599	1.620288
127	0x3f2d08a5	0.67591316
128	0x3f6fd3ee	0.93682754
129	0x3f8d0e52	1.1019995
130	0x3f06f4b5	0.52717143
131	0x3e9e32cb	0.30898127
132	0x3f2f3b6a	0.68450034
133	0x3f0b2a95	0.5436185
134	0x3f6164e0	0.8804455
135	0x3f9b22a4	1.2119946
136	0x3f3f343a	0.74689066
137	0x3f04ad16	0.5182661
138	0x3f085c52	0.5326587
139	0x3f6983cf	0.9121675
140	0x3fa7ce04	1.3109746
141	0x3f716211	0.9429026
142	0x3f7fc9d2	0.9991733
143	0x3f3081df	0.6894817
144	0x3e98cb8e	0.298428
145	0x3f9c357c	1.2203822
146	0x3f29d3d1	0.6633883
147	0x3f3bc160	0.7334194
148	0x3eebe386	0.46072024
149	0x3f906ca8	1.1283159

batchnorm.bias f4 [150]
0	0x3f68f744	0.910023
1	0x3e719fc4	0.23596102
2	0x3f262b96	0.64910257
3	0x3f2735af	0.6531629
4	0x3f2690f4	0.6506493
5	0x3f0f3f9e	0.5595645
6	0xbf1ff5e1	-0.62484556
7	0xbd3e94e5	-0.046528716
8	0x3ede72e7	0.4344704
9	0x3eb5e012	0.35522515
10	0x3e746864	0.23867947
11	0x3f3268f1	0.6969138
12	0x3f18e457	0.5972342
13	0x3f0f7132	0.560321
14	0x3eb03b65	0.34420314
15	0x3eede262	0.4646178
16	0x3f08c201	0.53421026
17	0x3f40a4f2	0.75251687
18	0x3eba952e	0.3644194
19	0x3f7c6a16	0.98599374
20	0x3ed9c0c2	0.42529875
21	0x3f18d055	0.5969289
22	0x3f15d45a	0.5852715
23	0x3f5eb301	0.8699189
24	0xbefdc40b	-0.4956363
25	0x3ed07159	0.40711477
26	0x3f1c2fb5	0.61010295
27	0xbf5284c3	-0.8223383
28	0x3f0c741a	0.54864657
29	0x3f2acc85	0.6671832
30	0x3f24b747	0.6434216
31	0x3f00a6cd	0.5025452
32	0x3ed9f870	0.42572355
33	0x3f235d48	0.6381421
34	0x3f6e3d46	0.93062246
35	0x3ef87c1e	0.48532194
36	0x3f750795	0.95714694
37	0xbf11f3be	-0.57012546
38	0x3f22ee06	0.63644445
39	0x3f247241	0.6423684
40	0x3f3400a2	0.70313466
41	0xbd3371dc	-0.043809757
42	0xbf44f47f	-0.7693557
43	0x3efe2ae5	0.496421
44	0x3f28865a	0.65830004
45	0x3eb6a1c1	0.35670283
46	0x3e69dd38	0.22838295
47	0x3eea6114	0.4577719
48	0x3f9a68c8	1.2063227
49	0x3f624e72	0.8840095
50	0x3f13b652	0.57700074
51	0x3f11e294	0.56986356
52	0x3f42da63	0.7611448
53	0x3eaa0403	0.33206186
54	0x3f3ef645	0.7459453
55	0xbf953fda	-1.1660111
56	0x3eabe4ad	0.33572903
57	0x3f33006d	0.69922525
58	0x3f0b47f6	0.5440668
59	0x3f51e663	0.8199217
60	0x3efe3234	0.49647677
61	0x3efe9fd4	0.49731314
62	0x3f2f7d04	0.68550134
63	0x3ed563d1	0.41677716
64	0x3ea0a32c	0.3137449
65	0x3f05fc05	0.52337676
66	0x3f6fc0d2	0.93653595
67	0x3ef3b80e	0.4760136
68	0x3f38a321	0.72123915
69	0x3f387e2e	0.72067535
70	0x3e99e0b1	0.30054238
71	0xbf363a1a	-0.71182406
72	0x3f0c680f	0.5484628
73	0x3ee1b980	0.44086838
74	0x3f1a8199	0.60354
75	0x3f2914f4	0.66047597
76	0x3dd84a62	0.105610624
77	0x3f00f3ae	0.50371826
78	0xbe5524db	-0.2081484
79	0x3f160534	0.5860169
80	0xbf983004	-1.1889653
81	0x3f06cd25	0.52656776
82	0x3f2e1b5b	0.6801049
83	0x3f2cfd1f	0.6757373
84	0x3f2a8327	0.6660637
85	0x3f014d16	0.5050825
86	0x3f28d037	0.6594271
87	0x3f785a6a	0.9701296
88	0xbe0d7445	-0.13813885
89	0x3eb951a6	0.36195105
90	0x3ebc8bb5	0.36825338
91	0x3f2bb3e9	0.67071396
92	0xbf423b87	-0.7587208
93	0x3f02d3ae	0.5110425
94	0x3f173a47	0.590733
95	0x3f03c62c	0.5147426
96	0x3f22b2bb	0.6355397
97	0x3ed446e6	0.4146034
98	0x3e8f5b83	0.27999505
99	0x3f384cf1	0.71992403
100	0x3f7656d5	0.96226245
101	0x3f1248cd	0.57142335
102	0x3f3397bb	0.701534
103	0x3eae67cf	0.34063575
104	0x3f52725b	0.8220574
105	0x3e311b77	0.17295633
106	0x3f348f09	0.70530754
107	0xbcf480ae	-0.029846516
108	0x3f2fc19e	0.6865481
109	0x3f0799c3	0.52968997
110	0x3e995044	0.2994405
111	0x3f053e48	0.5204816
112	0x3f022720	0.5084095
113	0x3ec9aa69	0.39387825
114	0x3ea87058	0.3289821
115	0x3e7e2181	0.24817468
116	0x3f213565	0.629721
117	0x3f302e4b	0.6882064
118	0x3f1b3d31	0.60640246
119	0x3e7df886	0.24801835
120	0x3f49eb50	0.78874683
121	0x3eeef943	0.46674547
122	0x3e8c4d77	0.2740285
123	0x3e802ddc	0.25034988
124	0xbeba88ed	-0.3643259
125	0x3ec89191	0.39173558
126	0x3f3608b6	0.7110704
127	0x3f369727	0.7132439
128	0x3ed66043	0.41870317
129	0x3f657df2	0.896453
130	0x3f51e6f6	0.81993043
131	0x3f28635b	0.65776604
132	0x3f24a464	0.6431334
133	0x3f031722	0.5120717
134	0x3f47874f	0.7794084
135	0x3f04fbe9	0.51946884
136	0x3f1a3634	0.6023896
137	0x3e162425	0.14662226
138	0x3ed83ec3	0.42235383
139	0x3f0f5738	0.5599246
140	0x3f10ad0c	0.5651405
141	0x3f25d682	0.6478044
142	0x3f575a38	0.8412204
143	0x3f15f5ca	0.5857817
144	0x3f6cfbfb	0.9257199
145	0x3f2aaced	0.66670114
146	0x3f012754	0.50450635
147	0x3f2bcd87	0.67110485
148	0x3efa7ba1	0.48922446
149	0x3f5d0561	0.8633633
