src/results/subject_P12/best_model.pth (torch, 481333 bytes, 15 tensors)

input_linear.weight f4 [40, 40]
-0.09363109 -0.0166841 0.15558656 -0.023347959 0.05799906 -0.12434578 0.030235827 -0.13686034
0.031498387 -0.03777402 0.007256329 0.10174753 -0.08628036 -0.06881487 -0.15331404 -0.102800295
-0.02102004 -0.101062655 0.10099985 0.043629527 -0.056630768 -0.051228672 -0.08508368 -0.0006354749
-0.111336865 -0.030892849 -0.14123799 -0.067702465 0.10106452 0.09622751 -0.0598474 -0.124135315
-0.0004682392 0.055611238 0.07323098 0.054986954 -0.15391429 0.15721358 -0.0993218 0.032530993
-0.075614214 -0.104567036 -0.0052911043 -0.007986888 0.11157523 -0.111570865 0.05348082 0.07383235
-0.01568234 -0.02545178 -0.055617616 -0.01149857 0.1047817 0.07437718 -0.073474616 0.06020151
-0.028009579 -0.10070206 -0.1354639 -0.0112387985 0.009827152 -0.0051383674 0.12935118 0.11996375
-0.11876366 0.119785026 -0.030214265 0.1290717 -0.051277436 -0.04908192 0.046579808 0.103413925
0.120061085 -0.06751024 0.030447647 -0.020338759 0.09731479 -0.031726703 0.080252156 -0.11404917
-0.12704685 0.12372188 -0.062457018 -0.09194989 -0.042841688 -0.03887768 -0.07011503 0.15414341
0.0135009885 -0.039840475 -0.041367605 -0.108979315 0.10350378 0.069934994 -0.1446983 0.07875799
0.102753 0.005251527 0.07965104 -0.015635476 -0.107261956 0.018144265 -0.12560353 0.0049853474
-0.019867435 -0.0104867965 0.09314276 -0.0074626803 0.0021824539 0.03252378 -0.1567095 0.051974684
0.14859118 -0.13668399 -0.1419506 0.027168542 -0.05591499 -0.051696815 -0.14459836 0.10173793
-0.09260325 0.110805884 0.020266652 0.1194828 -0.087152116 -0.101881295 -0.005333692 -0.07643074
-0.015463755 0.061735436 -0.12164152 0.018824652 0.13690518 -0.11291672 -0.06942849 0.00652124
-0.106110886 0.13855119 -0.13796273 -0.02182354 0.050353438 0.1441433 0.048865885 0.05378005
0.14853881 0.13659696 0.0013552308 0.03040795 -0.15376179 -0.12193067 0.14440651 -0.118194245
-0.118124485 -0.13281699 0.028568566 0.12126197 -0.033745408 0.14991657 0.0013353527 -0.06474743
-0.14513588 -0.123076364 -0.006613761 0.11124031 0.124184564 -0.09122359 0.0138267875 0.045263037
0.09440778 -0.10805041 0.08907224 0.07506402 -0.13702269 -0.04965677 0.11827476 0.1476856
-0.03974913 -0.059858598 0.14686124 0.06340742 -0.020048961 -0.07443433 0.06006798 0.044285774
0.021285936 0.12936904 0.08588062 -0.060187884 -0.09362566 -0.08157872 -0.047698945 0.09345479
0.031097993 0.12969698 -0.10403852 0.11440249 -0.11912131 0.012326956 -0.122930914 0.14203162
0.05971536 0.033949316 -0.1106417 0.040691137 0.044674113 0.039097413 -0.14448586 -0.09735935
-0.0912882 -0.02947031 0.14583306 -0.08208243 0.13339774 0.111659005 -0.07772723 0.027454406
-0.08408689 0.010592446 -0.03647639 -0.15320441 0.07353018 0.15659548 0.05342546 -0.00086440146
-0.12696235 -0.12636054 -0.13616337 -0.06990926 0.015153989 0.03230667 0.08678052 -0.1524476
-0.054552197 -0.116949484 -0.13899983 0.06510173 0.023113415 -0.024970606 -0.009838507 0.104624644
0.07575855 0.035251617 -0.056758955 -0.045489162 -0.03323549 -0.00143601 0.023785666 -0.03239958
-0.08308363 0.060466245 0.008461207 -0.1521218 -0.15695801 -0.09943174 -0.021505192 0.024664134
00000000: a8c1 bfbd 18ad 88bc 1552 1f3e 3844 bfbc
00000010: 6c90 6d3d 00a9 febd 20b1 f73c 1e25 0cbe
00000020: 7404 013d eeb8 1abd 80c6 ed3b 0261 d03d
00000030: c2b3 b0bd d0ee 8cbd 5bfe 1cbe f688 d2bd
00000040: 3832 acbc f0f9 cebd 02d9 ce3d e0b4 323d
00000050: aaf5 67bd 28d5 51bd 5a40 aebd 0096 26ba
00000060: 9504 e4bd 0013 fdbc b1a0 10be 97a7 8abd
00000070: eafa ce3d ee12 c53d 8c22 75bd a83a febd
00000080: 007e f5b9 9cc8 633d 20fa 953d 003a 613d
00000090: b59b 1dbe 99fc 203e 3a69 cbbd 383f 053d
000000a0: a0db 9abd 3e27 d6bd 0061 adbb 70db 02bc
000000b0: 8e81 e43d 447f e4bd b40e 5b3d 6a35 973d
000000c0: 4078 80bc 4080 d0bc 4ccf 63bd 8064 3cbc
000000d0: ca97 d63d 1053 983d dc79 96bd dc95 763d
000000e0: 5874 e5bc e23c cebd 0cb7 0abe f022 38bc
000000f0: 1002 213c c05f a8bb a374 043e 8eaf f53d
00000100: 5d3a f3bd da51 f53d e883 f7bc 5f2b 043e
00000110: 4a08 52bd 200a 49bd 78ca 3e3d aeca d33d
00000120: 96e2 f53d cf42 8abd 586d f93c 789d a6bc
00000130: fa4c c73d dcf3 01bd 3e5b a43d 9c92 e9bd
00000140: 9218 02be e661 fd3d eed2 7fbd 3950 bcbd
00000150: c47a 2fbd 343e 1fbd 7898 8fbd c5d7 1d3e
00000160: 4033 5d3c c42f 23bd 1471 29bd 8c30 dfbd
00000170: caf9 d33d 143a 8f3d cb2b 14be de4b a13d
00000180: 2a70 d23d 0015 ac3b 1620 a33d f815 80bc
00000190: 28ac dbbd 48a3 943c 369e 00be 205c a33b
000001a0: 08c1 a2bc d0d0 2bbc a2c1 be3d 8089 f4bb
000001b0: 8007 0f3b a837 053d 7578 20be 68e3 543d
000001c0: 4928 183e e3f6 0bbe 805b 11be 9090 de3c
000001d0: 1e07 65bd 0ac0 53bd 9811 14be fa5b d03d
000001e0: c6a6 bdbd 32ee e23d 4006 a63c 66b3 f43d
000001f0: cf7c b2bd 24a7 d0bd 40c6 aebb b887 9cbd
00000200: b05b 7dbc 4cde 7c3d 301f f9bd 2836 9a3c
00000210: df30 0c3e e240 e7bd 8630 8ebd 20b0 d53b
00000220: aa50 d9bd 5de0 0d3e 1a46 0dbe 48c7 b2bc
00000230: 683f 4e3d 4d9a 133e 9827 483d 7848 5c3d
00000240: 8f1a 183e 13e0 0b3e 00a2 b13a 181a f93c
00000250: bb73 1dbe cab6 f9bd 4ddf 133e d30f f2bd
00000260: 40eb f1bd 2d01 08be a008 ea3c 3258 f83d
00000270: a038 0abd bb83 193e 0007 af3a 4d9a 84bd
00000280: 809e 14be 760f fcbd 40b8 d8bb f6d1 e33d
00000290: 7a54 fe3d 6fd3 babd c089 623c bc65 393d
000002a0: de58 c13d 8949 ddbd 826b b63d 2abb 993d
000002b0: ad4f 0cbe e664 4bbd 0a3a f23d e53a 173e
000002c0: fccf 22bd 4a2e 75bd cb62 163e c0db 813d
000002d0: b83d a4bc 0771 98bd d809 763d 0065 353d
000002e0: d85f ae3c 5179 043e 2ee2 af3d 9287 76bd
000002f0: cfbe bfbd be12 a7bd f85f 43bd 3a65 bf3d
00000300: 38c1 fe3c 49cf 043e 2612 d5bd da4b ea3d
00000310: e0f5 f3bd 00f7 493c 34c3 fbbd bd70 113e
00000320: 1898 743d 700e 0b3d 1e98 e2bd c0ab 263d
00000330: 34fc 363d 9c24 203d 1af4 13be 5764 c7bd
00000340: 4ff5 babd b86b f1bc 4355 153e d51a a8bd
00000350: 6b99 083e 7aad e43d 742f 9fbd 10e8 e03c
00000360: bf35 acbd f08b 2d3c 4468 15bd 9ee1 1cbe
00000370: fe96 963d 915a 203e a8d4 5a3d 0099 62ba
00000380: 6b02 02be a864 01be 696e 0bbe 962c 8fbd
00000390: 7048 783c 0054 043d fcb9 b13d 391b 1cbe
000003a0: 2072 5fbd 3683 efbd f955 0ebe 0e54 853d
000003b0: 5858 bd3c 288f ccbc b031 21bc 7245 d63d
000003c0: 4c27 9b3d 0064 103d 147c 68bd d852 3abd
000003d0: f021 08bd 8038 bcba 28da c23c 6cb5 04bd
000003e0: c027 aabd 74ab 773d e0a0 0a3c d1c5 1bbe
000003f0: 9ab9 20be dea2 cbbd a82b b0bc 700c ca3c

input_linear.bias f4 [40]
0.12068139 0.07805441 -0.12774794 -0.035284452 0.13463338 -0.062481992 -0.0794731 0.03539513
-0.023777172 0.009918079 0.10379286 -0.030293673 0.1520565 -0.1417035 0.04338211 -0.0062075555
0.15170766 0.04298599 0.14896227 -0.12303281 -0.05390936 -0.012366682 -0.025528863 -0.14320019
0.030258745 -0.05280246 -0.009702548 0.103724375 -0.017120525 0.034881353 0.054138824 0.060041577
0.031501904 0.07590401 -0.08038441 -0.12743846 0.15620272 -0.06568788 -0.09435198 0.14906739
00000000: ce27 f73d feda 9f3d 5bd0 02be 6e86 10bd
00000010: 55dd 093e 1eed 7fbd cbc2 a2bd 7cfa 103d
00000020: 58c8 c2bc 707f 223c 5a91 d43d 702a f8bc
00000030: b3b4 1b3e b91a 11be 70b1 313d c068 cbbb
00000040: 4159 1b3e 1412 303d 9189 183e a0f8 fbbd
00000050: 10d0 5cbd a09d 4abc e821 d1bc 12a3 12be
00000060: 30e1 f73c 6447 58bd 70f7 1ebc 726d d43d
00000070: 5840 8cbc c0df 0e3d acc0 5d3d 28ee 753d
00000080: 2408 013d 9073 9b3d 95a0 a4bd 3a7f 02be
00000090: 9bf3 1f3e 5e87 86bd 9c3b c1bd 1fa5 183e

lstm.weight_ih_l0 f4 [600, 40]
-0.1329124 0.22105713 0.3511488 0.4332046 0.32182062 0.3351894 0.31338584 -0.32045633
-0.32557404 -0.3113857 0.29530835 0.023366958 0.059009057 0.34079352 -0.5329502 -0.14397226
0.042079516 0.27179533 0.2533346 0.34763053 0.3326125 0.35244223 -0.09449003 0.3487437
0.3238003 -0.2647348 0.021502487 -0.03128457 0.2895196 -0.3979139 0.25616106 0.3143733
0.27157864 0.0043778867 -0.12656067 0.32177883 0.30905646 0.022085715 0.050861783 -0.52433395
-0.058507297 -0.09822286 -0.08416267 -0.21518059 -0.11777056 -0.11128881 -0.07445675 0.09078213
0.08776602 0.13093369 -0.22055574 -0.17007662 0.06894424 -0.090887725 0.27075794 -0.01572319
-0.15490378 -0.21663445 -0.22541274 -0.0908835 -0.10677911 -0.08398076 -0.045405433 -0.09028368
-0.108348794 0.115746304 0.118364125 0.117585026 -0.1956457 0.15023841 -0.19486736 -0.104961924
-0.18612505 -0.1519549 -0.045640364 -0.12203243 -0.1287074 -0.123175815 -0.12010227 0.21008456
-0.27055997 0.3432711 0.37698555 0.075693786 0.2309763 0.43131468 0.3938862 -0.37688243
-0.4179377 -0.4177387 0.28648436 -0.12051143 0.3462732 0.4061835 -0.12086057 0.2676487
-0.12619917 0.2954229 0.2965588 0.4035009 0.3839147 0.3812912 -0.0017430289 0.09310582
0.4167458 -0.1465703 0.656844 0.6342544 0.28869927 -0.6091662 0.25985494 0.39426258
0.30562195 -0.10352062 0.029430531 0.07454973 0.41737327 -0.266017 -0.33797297 -0.104539245
-0.14390852 0.15708067 0.22535054 0.08631806 0.14254378 0.22200127 0.19470915 -0.20759942
-0.17928824 -0.19481231 0.14269707 0.08006428 0.2984245 0.1763743 -0.13607813 -0.08577764
0.018854419 0.13758318 0.14233734 0.21424147 0.2002499 0.17434539 -0.097284295 -0.021007065
0.21791786 0.117862575 0.18410367 0.22515176 0.11375473 -0.08749182 0.12861188 0.18332985
0.1340073 0.007039529 -0.09413022 -0.032184795 0.2221194 0.14415286 0.16728292 -0.15217389
-0.6774358 0.5561596 0.13166574 0.6595846 0.5672155 0.16050251 0.10857558 -0.18651544
-0.082315445 -0.14611568 0.2927462 0.6723758 -0.12597153 0.14444873 -1.8558847 0.04336251
0.16679147 0.27353886 0.30667818 0.18084766 0.18175197 0.18805707 0.20866373 0.093973495
0.15580943 -0.04704892 -0.76797235 -0.76702046 0.2906044 -0.7400742 0.30903593 0.17458774
0.30453956 0.17572127 0.25372642 0.14829189 0.18977207 0.022267554 0.08280596 -1.8628834
-0.14747277 0.15360457 0.15073788 0.13508914 0.13179392 0.20476185 0.20520781 -0.17730688
-0.20373067 -0.20316555 0.13670945 -0.01731668 0.11387578 0.15425107 -0.13113473 -0.07231034
-0.13431638 0.17057797 0.15331927 0.15737282 0.14498529 0.19168817 0.029048359 0.006568839
0.1647965 -0.013218547 0.13635199 0.13691004 0.17804682 0.027779339 0.14678559 0.1869892
0.17383318 -0.12988643 -0.0012040368 -0.015121466 0.20599408 -0.041173697 0.025280386 -0.117359824
-0.026602821 -0.2510502 0.31171015 -0.2895114 -0.21005087 0.30786622 0.29069486 -0.299815
-0.34401476 -0.31063676 0.12045073 -0.20110919 0.43720496 0.3017811 0.18318166 -0.043378633
00000000: 301a 08be cd5c 623e c7c9 b33e fecc dd3e
00000010: acc5 a43e f29d ab3e 1c74 a03e da12 a4be
00000020: a4b1 a6be f26d 9fbe a832 973e 106c bf3c
00000030: 7bb3 713d 7d7c ae3e 6d6f 08bf 776d 13be
00000040: 925b 2c3d c228 8b3e 13b5 813e a1fc b13e
00000050: 304c aa3e 4f73 b43e fd83 c1bd 898e b23e
00000060: 27c9 a53e 528b 87be fc25 b03c 4024 00bd
00000070: ea3b 943e 5fbb cbbe 8b27 833e 8af5 a03e
00000080: 5b0c 8b3e 6074 8f3b 1f99 01be 32c0 a43e
00000090: a63c 9e3e 1aed b43c 7254 503d c03a 06bf
000000a0: 59a5 6fbd 1129 c9bd 7a5d acbd 4d58 5cbe
000000b0: b131 f1bd 63eb e3bd c87c 98bd fbeb b93d
000000c0: acbe b33d 7b13 063e 5dd9 61be 9128 2ebe
000000d0: a332 8d3d 5823 babd c9a0 8a3e ebcd 80bc
000000e0: 199f 1ebe 6cd5 5dbe 99d2 66be 2121 babd
000000f0: 02af dabd 1bfe abbd 0cfb 39bd a6e6 b8bd
00000100: f9e5 ddbd 660c ed3d e468 f23d 6bd0 f03d
00000110: 5957 48be 19d8 193e 4f8b 47be 47f6 d6bd
00000120: 9197 3ebe 119a 1bbe 64f1 3abd 23ec f9bd
00000130: dfcb 03be 9a43 fcbd 2ef8 f5bd 6820 573e
00000140: d686 8abe 3bc1 af3e 4004 c13e 5805 9b3d
00000150: 0d85 6c3e 47d5 dc3e 74ab c93e bcf6 c0be
00000160: eefb d5be d9e1 d5be 14ae 923e b2ce f6bd
00000170: b94a b13e 49f7 cf3e bf85 f7bd 4009 893e
00000180: 5b3a 01be ac41 973e 8ed6 973e ac97 ce3e
00000190: 7890 c43e 9a38 c33e 5876 e4ba 44ae be3d
000001a0: b55f d53e 8616 16be ee26 283f 7f5e 223f
000001b0: 64d0 933e 51f2 1bbf b50b 853e c9dc c93e
000001c0: 7b7a 9c3e 9e02 d4bd 4c18 f13c 87ad 983d
000001d0: f3b1 d53e 6133 88be cb0a adbe ac18 d6bd
000001e0: c15c 13be c1d9 203e 4bc2 663e 86c7 b03d
000001f0: fff6 113e 4d54 633e d661 473e f194 54be
00000200: 5697 37be e17c 47be 2e1f 123e bef8 a33d
00000210: 19cb 983e 779b 343e 1158 0bbe 30ac afbd
00000220: 9574 9a3c 9be2 0c3e e1c0 113e 1e62 5b3e
00000230: 4f0e 4d3e 9987 323e fd3c c7bd 0217 acbc
00000240: dc25 5f3e ef61 f13d ac85 3c3e 2f8e 663e
00000250: 3df8 e83d e92e b3bd d5b2 033e d2ba 3b3e
00000260: 3639 093e d9ab e63b 58c7 c0bd 34d4 03bd
00000270: 4573 633e cf9c 133e 374c 2b3e 79d3 1bbe
00000280: 6f6c 2dbf 7a60 0e3f 62d3 063e 89da 283f
00000290: 0935 113f c55a 243e e05c de3d e7fd 3ebe
000002a0: 0095 a8bd 599f 15be d4e2 953e d220 2c3f
000002b0: aefe 00be 5eea 133e a18d edbf e39c 313d
000002c0: 62cb 2a3e 490d 8c3e ec04 9d3e 2130 393e
000002d0: 301d 3a3e 0892 403e f2ab 553e 2d75 c03d
000002e0: 828c 1f3e 5eb6 40bd d699 44bf 745b 44bf
000002f0: 1aca 943e 8175 3dbf f539 9e3e 21c7 323e
00000300: 9cec 9b3e 47f0 333e 6ee8 813e d4d9 173e
00000310: 9c53 423e 726a b63c 2c96 a93d f772 eebf
00000320: 1a03 17be 844a 1d3e 085b 1a3e cf54 0a3e
00000330: fcf4 063e 17ad 513e ff21 523e ef8f 35be
00000340: c69e 50be a10a 50be 90fd 0b3e b6db 8dbc
00000350: b437 e93d fef3 1d3e 2f48 06be 7217 94bd
00000360: 3c8a 09be feab 2e3e baff 1c3e 5726 213e
00000370: 0677 143e e749 443e d3f6 ed3c 6a3f d73b
00000380: 6ac0 283e 9b92 58bc db9f 0b3e 2532 0c3e
00000390: e851 363e 7f91 e33c f64e 163e 197a 3f3e
000003a0: 5301 323e f300 05be c5d0 9dba 06c0 77bc
000003b0: 1df0 523e c0a5 28bd d018 cf3c 595a f0bd
000003c0: 29ee d9bc a789 80be 7998 9f3e d73a 94be
000003d0: 9317 57be a4a0 9d3e f5d5 943e 5a81 99be
000003e0: b422 b0be c80b 9fbe dfae f63d 91ef 4dbe
000003f0: 54d9 df3e 0d83 9a3e f993 3b3e cbad 31bd

lstm.weight_hh_l0 f4 [600, 150]
-0.3552654 -0.07067288 0.25663665 -0.13374051 -0.32213163 -0.23534979 0.22809406 0.05492661
-0.26724628 -0.0331134 -0.15481548 -0.396699 -0.039231397 -0.24713305 -0.2600204 0.17134394
-0.21618588 0.07624267 -0.23604806 -0.2543852 0.14470042 -0.2241444 -0.26014546 -0.061851062
-0.17037329 -0.11574119 -0.07813466 -0.1546344 -0.08117827 0.26688445 -0.288184 0.42078853
-0.0020028423 0.103560835 0.20784688 -0.10518428 -0.17974086 -0.5761324 -0.16851623 -0.29761705
-0.1443425 0.29124153 -0.094779484 0.19299348 0.1157446 0.19227503 0.25135618 -0.082247645
-0.25899503 0.26043138 0.12992544 -0.28793994 -0.33229533 0.5804016 -0.26284853 0.066192634
-0.4782813 -0.23507103 -0.3124507 0.026228298 -0.16316907 0.17753895 -0.45394385 -0.26299518
0.21674421 -0.269696 0.36038834 -0.63196176 -0.17172855 -0.042133696 0.12585163 0.20690295
-0.28058252 -0.2587699 0.037131857 -0.040461473 -0.027586473 -0.08684305 0.21300945 -0.07579312
0.08311219 -0.16542757 -0.33368847 0.22358555 -0.1831373 -0.20105156 0.00031547295 0.004047898
-0.3146117 -0.09550397 -0.26252195 0.16158739 -0.22858557 -0.2718223 -0.36133122 0.11539909
-0.14397557 -0.22977795 0.0011384073 -0.21011552 -0.23019254 0.07509349 0.01216001 0.070954144
-0.12648328 0.12651919 0.20246474 0.19761015 0.18703122 -0.3896554 -0.26195422 -0.22052057
-0.32913545 0.3357968 0.21627425 0.15559933 -0.21097913 -0.22008184 0.15591735 -0.24838488
0.25332868 0.24434891 -0.23175097 0.21687059 0.08123066 -0.21480191 0.11332976 0.16410652
0.27808085 -0.19637291 -0.23968838 0.42512253 0.14298911 -0.15979438 0.057478156 -0.18895684
0.23882551 0.16103943 -0.36938608 0.24918534 0.19621187 -0.073583886 -0.14227422 0.1632735
-0.3738356 0.09527522 0.04084335 0.31920063 0.12112998 -0.013470757 -0.036789287 -0.053657975
0.051156864 0.08210185 -0.047424536 -0.0046381396 -0.021935001 0.2729266 0.14978787 0.17167863
0.03841268 0.16076888 0.15274833 0.028662728 -0.08268108 0.05987782 0.096993804 0.01822418
0.012052734 0.060590215 0.23834857 -0.07523715 -0.06666983 0.051799472 0.0239912 0.026466647
0.011704896 0.16224982 0.004062889 0.15165426 -0.025246682 0.24284272 -0.19787005 -0.12305929
0.2116818 -0.011309339 0.28406903 0.12374456 -0.20027898 0.068085775 0.18180154 -0.06779203
-0.061418734 -0.03668687 -0.063368805 0.049842764 -0.06280816 0.15160829 -0.11757419 -0.20275238
0.058221355 0.12298756 0.013221955 -1.1375623 0.011524889 -0.114488095 -0.17936061 0.038614742
0.110860705 0.086878 -0.09748617 -0.022815526 -0.02295668 -0.21713568 0.038344543 0.0037331518
-0.4231043 0.018825933 0.25198638 -0.11025887 0.010009328 0.0954475 0.14005123 0.051048707
0.14491607 0.086897455 -0.3567829 -0.029627394 0.09436491 0.062380597 0.24125385 0.024106361
-0.07857212 0.13161272 0.0069484436 -0.03380238 -0.22545126 0.14205849 0.03434444 0.16111536
-0.007070801 0.09571135 -0.02772554 0.10363473 -0.1214302 -0.2732291 0.08174061 0.33462778
0.17431356 -0.0019036023 -0.1485833 -0.11808989 -0.054188434 0.20000328 -0.07328021 0.1572916
00000000: 59e5 b5be f1bc 90bd e165 833e 46f3 08be
00000010: 70ee a4be 89ff 70be 7d91 693e bafa 603d
00000020: 81d4 88be eba1 07bd f387 1ebe 221c cbbe
00000030: 1ab1 20bd 7210 7dbe 6521 85be c974 2f3e
00000040: d55f 5dbe 1e25 9c3d 95b6 71be c73e 82be
00000050: 592c 143e 1c86 65be c931 85be 8a57 7dbd
00000060: 5676 2ebe b809 edbd 1105 a0bd 7b58 1ebe
00000070: cb40 a6bd 14a5 883e da8c 93be 9871 d73e
00000080: 1e42 03bb b417 d43d d0d5 543e db6a d7bd
00000090: fd0d 38be 6a7d 13bf 858f 2cbe 4361 98be
000000a0: 85ce 13be 9c1d 953e bf1b c2bd 15a0 453e
000000b0: 810b ed3d bfe3 443e c2b1 803e 7471 a8bd
000000c0: ff9a 84be 4357 853e 2d0b 053e dd6c 93be
000000d0: 9d22 aabe 3395 143f 1594 86be 0190 873d
000000e0: 49e1 f4be 76b6 70be 8af9 9fbe badc d63c
000000f0: cb15 27be c5cc 353e 546b e8be 4ea7 86be
00000100: 32f2 5d3e 9815 8abe d284 b83e 3fc8 21bf
00000110: 9cd9 2fbe 6294 2cbd 40df 003e 5ede 533e
00000120: 83a8 8fbe 7d7d 84be 9317 183d eeba 25bd
00000130: 07fd e1bc c5da b1bd 261f 5a3e 6c39 9bbd
00000140: b936 aa3d d865 29be 37d9 aabe 9cf3 643e
00000150: 5888 3bbe 76e0 4dbe 1066 a539 3ba4 843b
00000160: c914 a1be 9697 c3bd 4769 86be 2a77 253e
00000170: 5612 6abe 4b2c 8bbe 6800 b9be 5c56 ec3d
00000180: 556e 13be e94a 6bbe 9c36 953a 8628 57be
00000190: 98b7 6bbe 9eca 993d c73a 473c 6850 913d
000001a0: d584 01be 3f8e 013e eb52 4f3e 515a 4a3e
000001b0: 1d85 3f3e ea80 c7be dd1e 86be 25d0 61be
000001c0: 7184 a8be 8fed ab3e ff76 5d3e 6e55 1f3e
000001d0: ea0a 58be 225d 61be cca8 1f3e 9b58 7ebe
000001e0: 4cb4 813e 9a36 7a3e 2050 6dbe 5313 5e3e
000001f0: 435c a63d 08f5 5bbe 6f19 e83d 8a0b 283e
00000200: 9d60 8e3e fb15 49be df70 75be a9a9 d93e
00000210: bd6b 123e 23a1 23be 376e 6b3d e77d 41be
00000220: ad8e 743e 85e7 243e 2c20 bdbe 712a 7f3e
00000230: c4eb 483e 26b3 96bd 55b0 11be 2b31 273e
00000240: 6167 bfbe a81f c33d 5b4b 273d 446e a33e
00000250: ff12 f83d 73b4 5cbc 5db0 16bd 77c8 5bbd
00000260: dc89 513d 0425 a83d 3b40 42bd 89fb 97bb
00000270: 08b1 b3bc 09bd 8b3e fe61 193e 86cc 2f3e
00000280: 9d56 1d3d 99a0 243e 0f6a 1c3e 19ce ea3c
00000290: b354 a9bd 7242 753d b0a4 c63d e04a 953c
000002a0: d578 453c 722d 783d a611 743e ef15 9abd
000002b0: 318a 88bd af2b 543d 3189 c43c 95d0 d83c
000002c0: e4c5 3f3c d124 263e fc21 853b 414b 1b3e
000002d0: 21d2 cebc c3ab 783e 729e 4abe 8206 fcbd
000002e0: 1dc3 583e ce4a 39bc 7f71 913e ca6d fd3d
000002f0: ef15 4dbe 8e70 8b3d 2f2a 3a3e 8cd6 8abd
00000300: 3692 7bbd f944 16bd 81c7 81bd ed27 4c3d
00000310: 91a1 80bd 343f 1b3e bdca f0bd 529e 4fbe
00000320: 8479 6e3d e7e0 fb3d e6a0 583c a49b 91bf
00000330: e3d2 3c3c bc78 eabd 4faa 37be 7e2a 1e3d
00000340: f00a e33d 18ed b13d d4a6 c7bd a0e7 babc
00000350: a60f bcbc d158 5ebe 2b0f 1d3d e5a7 743b
00000360: 20a1 d8be d838 9a3c 5c04 813e 67cf e1bd
00000370: 2afe 233c fb79 c33d 9769 0f3e 7318 513d
00000380: e164 143e 4bf7 b13d 40ac b6be 26b5 f2bc
00000390: 6442 c13d cc82 7f3d 400b 773e b47a c53c
000003a0: 6bea a0bd 7cc5 063e c5af e33b 5d74 0abd
000003b0: b2dc 66be c877 113e c1ac 0c3d 6dfb 243e
000003c0: 2eb2 e7bb 5004 c43d ac20 e3bc 723e d43d
000003d0: 66b0 f8bd afe4 8bbe 9f67 a73d 5554 ab3e
000003e0: 417f 323e 4b82 f9ba 3826 18be 1dd9 f1bd
000003f0: b1f4 5dbd a9cd 4c3e ef13 96bd 0d11 213e

lstm.bias_ih_l0 f4 [600]
0.33424327 -0.08797479 0.41960764 0.18893063 0.15716681 0.18764524 0.31521466 -0.22197863
-0.20414218 0.17809907 0.16919164 -0.49787223 0.18591528 0.18545611 0.24525228 0.16605003
-0.10473141 -0.017383106 0.26722062 0.33756056 -1.0568343 0.49118817 0.19085407 0.24158502
0.18476178 0.57697654 0.13395637 0.022185074 -0.07124229 0.24213205 0.11715655 0.05718048
-0.20565571 0.033586323 -0.7679778 -0.23107478 0.42793274 0.10572881 -0.37998065 -0.3585155
0.49683714 -0.28224006 0.03832273 -0.4292553 0.0875312 -0.6133989 -0.23323208 0.46258628
0.13889992 -0.36605433 -0.34134355 0.2189478 0.15987302 -0.34434122 0.34174794 -0.04022596
-0.74191016 -0.02479051 0.62118506 0.6474445 -0.13106577 0.10851231 -0.27324575 0.2404361
0.8988979 0.38201302 -0.92460227 0.43169495 0.8066984 0.08661219 -0.2296317 0.19247462
0.12104413 0.25753236 0.092470944 -0.27337632 0.16560127 0.11959974 0.03190871 0.4770199
-0.3721402 -0.29298502 -0.13594069 0.22697526 0.07465238 0.1331296 0.118347615 0.37473556
0.5174676 0.3943381 0.4944373 -0.003993888 0.4530331 0.15151481 0.041229818 -0.6534171
0.16315295 0.6327853 0.20949638 0.16261153 0.13258655 -0.39694688 -0.25995582 -0.077159174
-0.570261 -0.45458937 -0.16435441 0.11915761 -0.048253004 0.1096873 0.18444535 -0.26594567
0.1649789 -0.51416695 -0.1519736 -0.33626348 0.27749854 0.45518076 0.16711082 0.24142225
0.5537866 0.4693305 0.500145 0.15815589 -0.7112915 0.22986901 0.14546761 0.10048197
0.42988226 0.6079115 -0.023185166 -0.1762024 0.63474786 0.20858665 -0.5594926 -0.0020151678
-0.5887102 0.0052419715 0.10516553 0.13014852 -0.026375597 -0.50143206 -0.15304384 -0.11258765
-0.043469727 0.5784453 -0.03490044 0.36325178 0.40847883 -0.13866027 -0.29956117 -0.21776816
-0.31407195 -0.124119565 -0.0006658771 0.02779925 0.29785815 -0.4667697 -0.3528831 0.4068681
0.3895911 -0.35394943 0.06281101 0.31224808 0.39048892 -0.42185357 -0.0077850358 -0.29817775
-0.11379239 0.19092846 0.21994363 0.42982844 0.16733178 0.15547763 0.15051365 0.45886502
-0.15009585 0.23635833 -0.14295793 -0.3798209 0.34795842 -0.12726344 -0.16805485 0.46821126
-0.94019634 -0.11734727 -0.17205729 0.61401635 0.23633987 -0.28203753 0.11088979 0.42945364
0.16691992 -0.17390221 0.23893599 -0.25671154 0.35057855 0.20058343 0.3065896 -0.14351852
0.12925246 0.6858122 0.40620568 0.18238084 0.11934825 -0.01682203 0.3034442 0.10062116
-0.007958658 -0.5278511 -0.27629822 -0.1533624 -0.0312353 -0.45861915 0.41402817 0.085602716
-0.22681677 -0.033443198 0.3476476 0.011731574 0.06422726 -0.25948396 0.30836943 -0.07920479
-0.40706253 -0.1341652 -0.09753085 -0.2777519 -0.19452496 0.44942114 -0.1508887 0.55080235
-0.12407686 -0.7592345 0.6620951 -0.21281298 0.16074838 -0.33406815 0.24708943 0.11535814
0.2314877 0.17860027 0.28854647 0.18511255 0.26584852 -0.2427457 0.16933246 -0.40004793
0.57275385 0.5277262 -0.06321586 -0.4418713 -0.12677205 -0.12178546 0.15538882 -0.34201047
00000000: ef21 ab3e 202c b4bd d0d6 d63e 0877 413e
00000010: 56f0 203e 1326 403e d163 a13e 5e4e 63be
00000020: a60a 51be 9a5f 363e 9340 2d3e 1ce9 febe
00000030: 9360 3e3e 35e8 3d3e 6a23 7b3e 0509 2a3e
00000040: 6c7d d6bd 0467 8ebc 24d1 883e bdd4 ac3e
00000050: 5946 87bf 047d fb3e 406f 433e 1062 773e
00000060: 3132 3d3e bcb4 133f dc2b 093e 79bd b53c
00000070: 7ae7 91bd 77f1 773e c6ef ef3d 1436 6a3d
00000080: 6997 52be d091 093d 319a 44bf de9e 6cbe
00000090: 001a db3e 5988 d83d d38c c2be 588f b7be
000000a0: 7061 fe3e c581 90be 4cf8 1c3d 5ac7 dbbe
000000b0: 8f43 b33d b607 1dbf 64d4 6ebe 1cd8 ec3e
000000c0: c83b 0e3e 796b bbbe 95c4 aebe da33 603e
000000d0: c1b5 233e 7e4d b0be 96f9 ae3e fac3 24bd
000000e0: d3ed 3dbf 7815 cbbc fc05 1f3f ecbe 253f
000000f0: 1b36 06be b43b de3d dee6 8bbe e234 763e
00000100: 2c1e 663f 3697 c33e bcb2 6cbf 1f07 dd3e
00000110: c983 4e3f bb61 b13d 9324 6bbe 1118 453e
00000120: fce5 f73d 48db 833e 6861 bd3d fbf7 8bbe
00000130: 6193 293e b5f0 f43d b5b2 023d f43b f43e
00000140: 2989 bebe 2202 96be 0934 0bbe 346c 683e
00000150: 59e3 983d 2053 083e 3c60 f23d 57dd bf3e
00000160: c278 043f afe6 c93e e326 fd3e 29df 82bb
00000170: f4f3 e73e b326 1b3e 99e0 283d 5846 27bf
00000180: 9111 273e 38fe 213f 3886 563e a383 263e
00000190: c5c4 073e 9f3c cbbe ee18 85be a105 9ebd
000001a0: a0fc 11bf f0bf e8be 864c 28be e808 f43d
000001b0: f1a4 45bd bca3 e03d 3edf 3c3e 082a 88be
000001c0: 3bf0 283e 72a0 03bf f89e 1bbe ba2a acbe
000001d0: 4a14 8e3e 740d e93e 191f 2b3e 6537 773e
000001e0: f5c4 0d3f 164c f03e 8109 003f 9ef3 213e
000001f0: 3317 36bf c862 6b3e 76f5 143e 7ec9 cd3d
00000200: 8719 dc3e 17a0 1b3f d1ee bdbc 676e 34be
00000210: d67e 223f bd97 553e e83a 0fbf e810 04bb
00000220: b6b5 16bf d8c4 ab3b 0761 d73d a745 053e
00000230: a311 d8bc da5d 00bf 86b7 1cbe 5b94 e6bd
00000240: 500d 32bd fe14 143f c4f3 0ebd 23fc b93e
00000250: 2324 d13e f5fc 0dbe 1560 99be 9efe 5ebe
00000260: 0ace a0be 6632 febd 418e 2eba 41bb e33c
00000270: dd80 983e 70fc eebe 18ad b4be 0451 d03e
00000280: 7c78 c73e dc38 b5be 0fa3 803d fbde 9f3e
00000290: 2aee c73e 31fd d7be 9d19 ffbb c1aa 98be
000002a0: fc0b e9bd c082 433e e738 613e 7912 dc3e
000002b0: 0659 2b3e 8735 1f3e 4020 1a3e 5bf0 ea3e
000002c0: bab2 19be eb07 723e 9063 12be e377 c2be
000002d0: 9b27 b23e 5951 02be 9216 2cbe 63b9 ef3e
000002e0: b5b0 70bf c453 f0bd c92f 30be 2d30 1d3f
000002f0: 1403 723e 3967 90be 301a e33d 59e1 db3e
00000300: 0eed 2a3e 6c13 32be a3ab 743e b26f 83be
00000310: 087f b33e be65 4d3e 50f9 9c3e 85f6 12be
00000320: c25a 043e 6391 2f3f 31fa cf3e 0bc2 3a3e
00000330: db6c f43d 5bce 89bc 0a5d 9b3e 7712 ce3d
00000340: 0865 02bc 4021 07bf f676 8dbe 080b 1dbe
00000350: 2ce1 ffbc 21d0 eabe 80fb d33e 7a50 af3d
00000360: a842 68be bcfb 08bd defe b13e ca35 403c
00000370: 9589 833d 15db 84be 99e2 9d3e 1f36 a2bd
00000380: 806a d0be 9a62 09be 41be c7bd 7f35 8ebe
00000390: 8d31 47be 871a e63e 9182 1abe 6201 0d3f
000003a0: 021c febd 315d 42bf 117f 293f a5eb 59be
000003b0: 399b 243e fb0a abbe 0305 7d3e e340 ec3d
000003c0: 1d0b 6d3e fde2 363e 5dbc 933e 258e 3d3e
000003d0: 4c1d 883e 5492 78be 7d65 2d3e 15d3 ccbe
000003e0: ff9f 123f 1019 073f 5177 81bd f43c e2be
000003f0: 88d0 01be a86a f9bd 3f1e 1f3e ff1b afbe

lstm.bias_hh_l0 f4 [600]
0.3148496 -0.09003261 0.3886653 0.2330954 0.16180125 0.19978653 0.28232464 -0.2696452
-0.21360116 0.16875918 0.15845783 -0.51271397 0.17575642 0.18710673 0.2863155 0.15886086
-0.108748056 -0.038727142 0.26063794 0.30940986 -1.0828052 0.46055883 0.19048887 0.25136226
0.19394809 0.5764066 0.14197554 0.045361716 -0.03661674 0.2266262 0.10376032 0.041189376
-0.18199913 0.005876322 -0.7497443 -0.23038615 0.44141304 0.11294414 -0.40833482 -0.32628226
0.53570646 -0.30741894 0.048534892 -0.430536 0.13665286 -0.6321791 -0.24321209 0.45877025
0.14233848 -0.36899278 -0.34430197 0.22531953 0.16288993 -0.360787 0.30449528 -0.044543207
-0.78886354 -0.0042626 0.62826085 0.6767729 -0.11130189 0.14849088 -0.30380294 0.21132195
0.86840254 0.35457772 -0.94776607 0.4353119 0.7900443 0.07409289 -0.2485372 0.15099551
0.108754806 0.25272614 0.04729865 -0.25386086 0.20581049 0.124046944 -0.0148172425 0.5029521
-0.40968555 -0.3238686 -0.13101386 0.20772065 0.03739373 0.15649378 0.12659961 0.38160995
0.5015869 0.36003545 0.4946663 0.005323804 0.45684192 0.18250668 0.05946144 -0.6369203
0.11452423 0.672209 0.26426575 0.17669317 0.13841213 -0.42462134 -0.24611467 -0.05445282
-0.5124557 -0.46122223 -0.18844263 0.14066909 -0.040221218 0.08197619 0.19441162 -0.26391575
0.17085707 -0.5591532 -0.1372454 -0.31290913 0.2753323 0.45905432 0.20602272 0.22926877
0.53170717 0.50124276 0.5351014 0.19570719 -0.7420407 0.24227415 0.15977903 0.08733031
0.38937482 0.57965904 0.0058775744 -0.14704227 0.6091153 0.24889131 -0.5826646 0.024864329
-0.5916829 -0.014720286 0.11309872 0.14921042 -0.02973556 -0.5532588 -0.18048787 -0.09705517
-0.038500402 0.5662694 -0.053936757 0.37573043 0.46650097 -0.14342798 -0.2756056 -0.17711294
-0.3084381 -0.084761456 0.009920035 -0.024963615 0.30621588 -0.50501037 -0.35483724 0.44404152
0.41800895 -0.35541266 0.07369582 0.25346884 0.38130444 -0.3970982 -0.029827273 -0.33164847
-0.101328686 0.18743873 0.2547489 0.40024263 0.14856006 0.14995617 0.15391892 0.4640601
-0.15183797 0.26091403 -0.16835263 -0.32795554 0.32774597 -0.10584966 -0.17358047 0.48676598
-0.94688565 -0.13852546 -0.17431596 0.6502205 0.23845285 -0.27139902 0.1540296 0.43282807
0.14274752 -0.2111782 0.2656903 -0.24853781 0.31574303 0.2014887 0.33050856 -0.14212357
0.16643652 0.67493975 0.39624953 0.18390818 0.122212686 0.003908685 0.3186161 0.08537768
0.014370639 -0.55128235 -0.28463975 -0.17598227 -0.06568553 -0.48040867 0.39616415 0.10403367
-0.2453302 -0.024344351 0.33453286 -0.002258752 0.0130051775 -0.22160015 0.3068581 -0.08135849
-0.39094505 -0.1546015 -0.050550714 -0.26006955 -0.2111672 0.43241343 -0.16588613 0.58921707
-0.13016544 -0.74948573 0.676977 -0.21173282 0.18333599 -0.35511953 0.23404771 0.10205097
0.23461382 0.19350217 0.31825057 0.16543129 0.25998253 -0.24768478 0.16211882 -0.41673872
0.6120707 0.51235694 -0.051319912 -0.4062822 -0.100461066 -0.14846134 0.19684874 -0.33775422
00000000: f733 a13e 0463 b8bd 23ff c63e 8fb0 6e3e
00000010: 3aaf 253e d794 4c3e db8c 903e f00e 8abe
00000020: 43ba 5abe 35cf 2c3e c542 223e 3941 03bf
00000030: 7ef9 333e e898 3f3e f297 923e 6cac 223e
00000040: 4db7 debd 5aa0 1ebd 5672 853e f86a 9e3e
00000050: 5c99 8abf 5ece eb3e 840f 433e 8eb2 803e
00000060: 549a 463e 628f 133f 0962 113e 35cd 393d
00000070: 6ffb 15bd b310 683e 4a80 d43d 31b6 283d
00000080: fb5d 3abe 298e c03b 3eef 3fbf 59ea 6bbe
00000090: e400 e23e 424f e73d 4311 d1be 780e a7be
000000a0: 0f24 093f 0466 9dbe 86cc 463d 376f dcbe
000000b0: baee 0b3e 7dd6 21bf 970c 79be efe3 ea3e
000000c0: 2ec1 113e 9fec bcbe 5948 b0be 2aba 663e
000000d0: 9ecc 263e 13b9 b8be cee6 9b3e f072 36bd
000000e0: f6f2 49bf 48ad 8bbb b4d5 203f fd40 2d3f
000000f0: 3ff2 e3bd fe0d 183e 0f8c 9bbe c864 583e
00000100: a14f 5e3f 368b b53e cca0 72bf 34e1 de3e
00000110: 5840 4a3f 03be 973d 8980 7ebe 919e 1a3e
00000120: d7ba de3d 5265 813e 3bbc 413d 0dfa 81be
00000130: fcbf 523e 530c fe3d 05c4 72bc 78c1 003f
00000140: 4ec2 d1be 1bd2 a5be 7f28 06be b9b4 543e
00000150: 2b2a 193d e83f 203e 54a3 013e 6162 c33e
00000160: 0068 003f 9156 b83e e744 fd3e 4e73 ae3b
00000170: 2fe7 e93e 08e3 3a3e d78d 733d 350d 23bf
00000180: ae8b ea3d e415 2c3f d74d 873e 0eef 343e
00000190: e9bb 0d3e f867 d9be 7c05 7cbe ec09 5fbd
000001a0: 4c30 03bf 5225 ecbe 1bf7 40be 8f0b 103e
000001b0: 01bf 24bd 22e3 a73d d713 473e f71f 87be
000001c0: 28f5 2e3e aa24 0fbf 0f8a 0cbe a035 a0be
000001d0: 5bf8 8c3e 2b09 eb3e 9ff7 523e 6fc5 6a3e
000001e0: f61d 083f 7251 003f 68fc 083f 7767 483e
000001f0: 61f6 3dbf b716 783e 1d9d 233e 3cda b23d
00000200: 235c c73e 8964 143f ab98 c03b 4092 16be
00000210: fbee 1b3f 5ddd 7e3e 8229 15bf 47b0 cb3c
00000220: 8878 17bf 5b2d 71bc 4da0 e73d 9eca 183e
00000230: fd97 f3bc 5ea2 0dbf d0d1 38be dcc4 c6bd
00000240: 99b2 1dbd 08f7 103f caec 5cbd bd5f c03e
00000250: 37d9 ee3e c9de 12be 2d1c 8dbe 185d 35be
00000260: 99eb 9dbe 6a97 adbd a487 223c 7f80 ccbc
00000270: 54c8 9c3e 5c48 01bf 3aad b5be 6959 e33e
00000280: 4505 d63e a6f8 b5be d6ed 963d abc6 813e
00000290: 563a c33e 7550 cbbe 5358 f4bc d4cd a9be
000002a0: 6a85 cfbd f0ef 3f3e 736e 823e 9aec cc3e
000002b0: 2120 183e 1c8e 193e ec9c 1d3e 4999 ed3e
000002c0: 6a7b 1bbe 8696 853e a264 2cbe cae9 a7be
000002d0: 52ce a73e b5c7 d8bd 14bf 31be 6439 f93e
000002e0: 1967 72bf 9ed9 0dbe e27f 32be da74 263f
000002f0: fc2c 743e d0f4 8abe efb9 1d3e a49b dd3e
00000300: 682c 123e 193f 58be 8f08 883e b280 7ebe
00000310: 12a9 a13e 0e53 4e3e 6b38 a93e d788 11be
00000320: 566e 2a3e dac8 2c3f 38e1 ca3e 6d52 3c3e
00000330: a54a fa3d 6d14 803b a621 a33e 7eda ae3d
00000340: d472 6b3c d720 0dbf 4dbc 91be b234 34be
00000350: 2386 86bd 20f8 f5be 07d6 ca3e 9b0f d53d
00000360: d737 7bbe ce6d c7bc e447 ab3e 9207 14bb
00000370: ab13 553c 26eb 62be 811c 9d3e 489f a6bd
00000380: f329 c8be db4f 1ebe 440e 4fbd d627 85be
00000390: 373c 58be 4b65 dd3e 0ede 29be eed6 163f
000003a0: 174a 05be 4cde 3fbf 5d4e 2d3f 7dd0 58be
000003b0: 6ebc 3b3e 3ad2 b5be 34aa 6f3e 1900 d13d
000003c0: 9b3e 703e 6f25 463e bdf1 a23e d266 293e
000003d0: 6e1c 853e 14a1 7dbe 7a02 263e c75e d5be
000003e0: aab0 1c3f d329 033f d434 52bd 3804 d0be
000003f0: 88be cdbd 4006 18be b792 493e 1fee acbe

layernorm.weight f4 [150]
1.0 1.0 1.0 1.0 1.0 1.0 1.0 1.0
1.0 1.0 1.0 1.0 1.0 1.0 1.0 1.0
1.0 1.0 1.0 1.0 1.0 1.0 1.0 1.0
1.0 1.0 1.0 1.0 1.0 1.0 1.0 1.0
1.0 1.0 1.0 1.0 1.0 1.0 1.0 1.0
1.0 1.0 1.0 1.0 1.0 1.0 1.0 1.0
1.0 1.0 1.0 1.0 1.0 1.0 1.0 1.0
1.0 1.0 1.0 1.0 1.0 1.0 1.0 1.0
1.0 1.0 1.0 1.0 1.0 1.0 1.0 1.0
1.0 1.0 1.0 1.0 1.0 1.0 1.0 1.0
1.0 1.0 1.0 1.0 1.0 1.0 1.0 1.0
1.0 1.0 1.0 1.0 1.0 1.0 1.0 1.0
1.0 1.0 1.0 1.0 1.0 1.0 1.0 1.0
1.0 1.0 1.0 1.0 1.0 1.0 1.0 1.0
1.0 1.0 1.0 1.0 1.0 1.0 1.0 1.0
1.0 1.0 1.0 1.0 1.0 1.0 1.0 1.0
1.0 1.0 1.0 1.0 1.0 1.0 1.0 1.0
1.0 1.0 1.0 1.0 1.0 1.0 1.0 1.0
1.0 1.0 1.0 1.0 1.0 1.0
00000000: 0000 803f 0000 803f 0000 803f 0000 803f
00000010: 0000 803f 0000 803f 0000 803f 0000 803f
00000020: 0000 803f 0000 803f 0000 803f 0000 803f
00000030: 0000 803f 0000 803f 0000 803f 0000 803f
00000040: 0000 803f 0000 803f 0000 803f 0000 803f
00000050: 0000 803f 0000 803f 0000 803f 0000 803f
00000060: 0000 803f 0000 803f 0000 803f 0000 803f
00000070: 0000 803f 0000 803f 0000 803f 0000 803f
00000080: 0000 803f 0000 803f 0000 803f 0000 803f
00000090: 0000 803f 0000 803f 0000 803f 0000 803f
000000a0: 0000 803f 0000 803f 0000 803f 0000 803f
000000b0: 0000 803f 0000 803f 0000 803f 0000 803f
000000c0: 0000 803f 0000 803f 0000 803f 0000 803f
000000d0: 0000 803f 0000 803f 0000 803f 0000 803f
000000e0: 0000 803f 0000 803f 0000 803f 0000 803f
000000f0: 0000 803f 0000 803f 0000 803f 0000 803f
00000100: 0000 803f 0000 803f 0000 803f 0000 803f
00000110: 0000 803f 0000 803f 0000 803f 0000 803f
00000120: 0000 803f 0000 803f 0000 803f 0000 803f
00000130: 0000 803f 0000 803f 0000 803f 0000 803f
00000140: 0000 803f 0000 803f 0000 803f 0000 803f
00000150: 0000 803f 0000 803f 0000 803f 0000 803f
00000160: 0000 803f 0000 803f 0000 803f 0000 803f
00000170: 0000 803f 0000 803f 0000 803f 0000 803f
00000180: 0000 803f 0000 803f 0000 803f 0000 803f
00000190: 0000 803f 0000 803f 0000 803f 0000 803f
000001a0: 0000 803f 0000 803f 0000 803f 0000 803f
000001b0: 0000 803f 0000 803f 0000 803f 0000 803f
000001c0: 0000 803f 0000 803f 0000 803f 0000 803f
000001d0: 0000 803f 0000 803f 0000 803f 0000 803f
000001e0: 0000 803f 0000 803f 0000 803f 0000 803f
000001f0: 0000 803f 0000 803f 0000 803f 0000 803f
00000200: 0000 803f 0000 803f 0000 803f 0000 803f
00000210: 0000 803f 0000 803f 0000 803f 0000 803f
00000220: 0000 803f 0000 803f 0000 803f 0000 803f
00000230: 0000 803f 0000 803f 0000 803f 0000 803f
00000240: 0000 803f 0000 803f 0000 803f 0000 803f
00000250: 0000 803f 0000 803f

layernorm.bias f4 [150]
0.0 0.0 0.0 0.0 0.0 0.0 0.0 0.0
0.0 0.0 0.0 0.0 0.0 0.0 0.0 0.0
0.0 0.0 0.0 0.0 0.0 0.0 0.0 0.0
0.0 0.0 0.0 0.0 0.0 0.0 0.0 0.0
0.0 0.0 0.0 0.0 0.0 0.0 0.0 0.0
0.0 0.0 0.0 0.0 0.0 0.0 0.0 0.0
0.0 0.0 0.0 0.0 0.0 0.0 0.0 0.0
0.0 0.0 0.0 0.0 0.0 0.0 0.0 0.0
0.0 0.0 0.0 0.0 0.0 0.0 0.0 0.0
0.0 0.0 0.0 0.0 0.0 0.0 0.0 0.0
0.0 0.0 0.0 0.0 0.0 0.0 0.0 0.0
0.0 0.0 0.0 0.0 0.0 0.0 0.0 0.0
0.0 0.0 0.0 0.0 0.0 0.0 0.0 0.0
0.0 0.0 0.0 0.0 0.0 0.0 0.0 0.0
0.0 0.0 0.0 0.0 0.0 0.0 0.0 0.0
0.0 0.0 0.0 0.0 0.0 0.0 0.0 0.0
0.0 0.0 0.0 0.0 0.0 0.0 0.0 0.0
0.0 0.0 0.0 0.0 0.0 0.0 0.0 0.0
0.0 0.0 0.0 0.0 0.0 0.0
00000000: 0000 0000 0000 0000 0000 0000 0000 0000
00000010: 0000 0000 0000 0000 0000 0000 0000 0000
00000020: 0000 0000 0000 0000 0000 0000 0000 0000
00000030: 0000 0000 0000 0000 0000 0000 0000 0000
00000040: 0000 0000 0000 0000 0000 0000 0000 0000
00000050: 0000 0000 0000 0000 0000 0000 0000 0000
00000060: 0000 0000 0000 0000 0000 0000 0000 0000
00000070: 0000 0000 0000 0000 0000 0000 0000 0000
00000080: 0000 0000 0000 0000 0000 0000 0000 0000
00000090: 0000 0000 0000 0000 0000 0000 0000 0000
000000a0: 0000 0000 0000 0000 0000 0000 0000 0000
000000b0: 0000 0000 0000 0000 0000 0000 0000 0000
000000c0: 0000 0000 0000 0000 0000 0000 0000 0000
000000d0: 0000 0000 0000 0000 0000 0000 0000 0000
000000e0: 0000 0000 0000 0000 0000 0000 0000 0000
000000f0: 0000 0000 0000 0000 0000 0000 0000 0000
00000100: 0000 0000 0000 0000 0000 0000 0000 0000
00000110: 0000 0000 0000 0000 0000 0000 0000 0000
00000120: 0000 0000 0000 0000 0000 0000 0000 0000
00000130: 0000 0000 0000 0000 0000 0000 0000 0000
00000140: 0000 0000 0000 0000 0000 0000 0000 0000
00000150: 0000 0000 0000 0000 0000 0000 0000 0000
00000160: 0000 0000 0000 0000 0000 0000 0000 0000
00000170: 0000 0000 0000 0000 0000 0000 0000 0000
00000180: 0000 0000 0000 0000 0000 0000 0000 0000
00000190: 0000 0000 0000 0000 0000 0000 0000 0000
000001a0: 0000 0000 0000 0000 0000 0000 0000 0000
000001b0: 0000 0000 0000 0000 0000 0000 0000 0000
000001c0: 0000 0000 0000 0000 0000 0000 0000 0000
000001d0: 0000 0000 0000 0000 0000 0000 0000 0000
000001e0: 0000 0000 0000 0000 0000 0000 0000 0000
000001f0: 0000 0000 0000 0000 0000 0000 0000 0000
00000200: 0000 0000 0000 0000 0000 0000 0000 0000
00000210: 0000 0000 0000 0000 0000 0000 0000 0000
00000220: 0000 0000 0000 0000 0000 0000 0000 0000
00000230: 0000 0000 0000 0000 0000 0000 0000 0000
00000240: 0000 0000 0000 0000 0000 0000 0000 0000
00000250: 0000 0000 0000 0000

batchnorm.weight f4 [150]
0.7031705 0.5464423 0.4314468 0.7560377 0.61324835 0.19756044 0.3557088 0.4520017
0.091170795 1.367124 0.72512513 0.2244056 0.662404 0.4665725 0.63789064 0.7216988
0.1893972 0.76732093 0.43853024 0.8160404 1.5739747 0.4779523 0.38846642 0.45817712
0.4307556 0.38601 0.57483166 0.23899536 0.4020897 1.236616 0.61792886 -0.4147865
0.5365965 -0.011771865 0.83366936 0.47870988 1.0588566 0.86496705 0.6445516 0.17031106
0.03187227 0.1628541 0.5510061 2.0126557 1.0067351 0.5785017 0.17139214 1.0021781
0.5097309 0.6536905 0.2606421 1.4218704 0.09313774 0.27532232 0.3135203 0.2763836
0.6035708 0.42091787 0.60898024 0.67055255 0.5577887 0.7392599 0.4574969 1.0878998
1.0268782 0.28723037 0.20078197 0.41813895 1.0525732 0.6259788 0.4388359 0.0037051612
0.43004796 0.8732843 0.92518157 0.52898157 0.18940143 0.41494188 0.1057054 1.2267345
1.4623224 0.2525051 0.5034538 0.67976445 1.0398071 0.16203888 0.45248437 0.50313646
1.3204051 -0.018956019 0.48781142 0.4877415 0.37119868 0.24240145 0.43284386 0.6097081
0.7586849 0.8714937 0.9181599 0.59763587 0.51660323 0.91570294 0.7149687 1.137223
-0.027563531 0.339872 -0.24299745 0.050523546 1.8430736 0.5732218 0.28246167 0.92192733
0.61646605 0.17706084 0.27577144 0.27203184 0.78024083 0.23256162 0.4422793 0.40853548
1.1623362 1.2341313 0.18695903 -0.36226133 0.6877975 0.62092394 0.31505895 0.3225782
1.0637639 0.651453 0.65598696 0.8113101 -0.5640646 1.1250261 0.60568917 0.84967875
0.7226713 1.3067827 0.7792943 -0.16201869 0.9777846 -0.056731906 0.6658871 2.0090759
1.2577509 -0.47560102 0.38417944 0.20995826 -0.68151414 0.28913036
00000000: fb02 343f a4e3 0b3f 98e6 dc3e b08b 413f
00000010: d8fd 1c3f 494d 4a3e 771f b63e c46c e73e
00000020: c1b7 ba3d ebfd ae3f cda1 393f 95ca 653e
00000030: 4f93 293f 97e2 ee3e cd4c 233f 41c1 383f
00000040: 57f1 413e 256f 443f 0987 e03e 06e8 503f
00000050: 0178 c93f 2ab6 f43e 12e5 c63e 3196 ea3e
00000060: ff8b dc3e 1aa3 c53e 2b28 133f 33bb 743e
00000070: b3de cd3e 6f49 9e3f 9630 1e3f e55e d4be
00000080: 635e 093f c8de 40bc 5b6b 553f 7619 f53e
00000090: 9d88 873f 7b6e 5d3f 5501 253f 0666 2e3e
000000a0: 7f8c 023d 3ac3 263e bc0e 0d3f 5acf 0040
000000b0: b2dc 803f b018 143f 6c81 2f3e 5f47 803f
000000c0: b97d 023f 4358 273f e272 853e d9ff b53f
000000d0: 00bf be3d 0cf7 8c3e bc85 a03e 2782 8d3e
000000e0: 9e83 1a3f 8c82 d73e 21e6 1b3f 55a9 2b3f
000000f0: 3ecb 0e3f 2340 3d3f 093d ea3e 4d40 8b3f
00000100: bf70 833f dc0f 933e ca99 4d3e 4f16 d63e
00000110: b8ba 863f 2640 203f 19af e03e 4ad2 723b
00000120: 3f2f dc3e 8f8f 5f3f b3d8 6c3f 566b 073f
00000130: 73f2 413e 4373 d43e 137c d83d a305 9d3f
00000140: 612d bb3f 5948 813e 59e2 003f 0b05 2e3f
00000150: 6618 853f 85ed 253e 08ac e73e 8dcd 003f
00000160: 0903 a93f a749 9bbc 6bc2 f93e 41b9 f93e
00000170: c10d be3e 1638 783e b69d dd3e d415 1c3f
00000180: 2c39 423f 361a 5f3f 870c 6b3f aafe 183f
00000190: 1c40 043f 826b 6a3f 3008 373f 8690 913f
000001a0: eacc e1bc b403 ae3e 53d4 78be c7f1 4e3d
000001b0: d6e9 eb3f aabe 123f d19e 903e 6e03 6c3f
000001c0: b8d0 1d3f 704f 353e ea31 8d3e c247 8b3e
000001d0: ddbd 473f a224 6e3e 6f72 e23e 902b d13e
000001e0: 6fc7 943f 04f8 9d3f 3072 3f3e 517a b9be
000001f0: 7f13 303f dff4 1e3f 684f a13e f828 a53e
00000200: 6a29 883f a0c5 263f c3ee 273f 05b2 4f3f
00000210: 8a66 10bf db00 903f 720e 1b3f 8c84 593f
00000220: fc00 393f a844 a73f d57f 473f 3ae8 25be
00000230: 1750 7a3f b75f 68bd 9477 2a3f b394 0040
00000240: fbfd a03f fa81 f3be 2bb3 c43e 4cff 563e
00000250: b677 2ebf e508 943e

batchnorm.bias f4 [150]
0.49546057 1.0124888 0.9077259 0.6411732 0.10455345 0.25178045 0.9072795 -0.20280047
-0.71916014 0.75071895 0.6891047 0.70147175 0.8319691 0.76812154 0.8903979 0.5540071
1.0408653 0.7700309 0.73739403 0.64980465 0.77920735 0.5881696 0.5932459 0.73877996
0.6086111 0.683022 0.87594646 0.83844525 -0.708321 0.5401256 0.54365 1.2195466
0.60102606 0.87163395 0.66239274 -0.64944214 -0.83527803 0.9490305 0.7625689 0.81733036
0.6183485 0.16482532 1.1357206 0.5216529 0.7013278 0.83329636 0.7582447 0.33273128
1.000406 0.53735924 0.56861365 -0.28419387 0.7335921 -0.7101699 0.6232282 0.5739322
-0.97007436 0.7108577 0.3113118 1.2261028 -0.4568545 0.973548 0.8439337 -0.7962923
-1.0255153 0.45498386 -0.9962171 0.85552424 0.67309827 1.0094746 0.8714408 0.58573616
0.8479085 0.007845461 0.02738759 0.7814036 0.6491359 0.6811047 -0.3778825 0.6507037
0.5266166 0.5931075 0.9971289 0.6527598 0.35997587 0.6403498 0.7723632 0.55299765
-0.5591347 0.5759985 0.5189255 -0.024324734 0.41566962 0.5841503 0.64804065 0.92369854
0.72958446 -0.9066383 0.70774823 0.57806784 0.5204925 0.7759526 0.8163604 0.7526505
0.8539456 -1.046451 0.660887 -0.62161016 0.5723248 0.21440075 0.3908341 0.71103066
0.50015986 -0.9706382 -0.7223627 0.9737623 0.44217426 0.2583461 0.436104 1.034005
0.51377565 0.62581724 0.7745817 -1.125181 0.7084103 0.63027346 0.7168804 0.7033154
0.5066562 0.28575268 0.6701634 0.8058845 -0.75818825 -0.11222631 0.6018078 0.40396234
0.52746385 0.5337069 1.0024743 0.84223706 0.31565213 -0.85494864 0.63375217 0.4480503
-0.09472459 -1.0720189 -0.14482954 0.78481257 0.69475037 0.74041367
00000000: 02ad fd3e 3c99 813f b960 683f ed23 243f
00000010: 1f20 d63d 5ee9 803e 7843 683f edaa 4fbe
00000020: e11a 38bf 1e2f 403f 2a69 303f a793 333f
00000030: edfb 543f 9da3 443f 1ef1 633f 69d3 0d3f
00000040: 133b 853f bf20 453f dbc5 3c3f 9959 263f
00000050: 227a 473f 4892 163f f7de 173f af20 3d3f
00000060: f0cd 1b3f 88da 2e3f 073e 603f 59a4 563f
00000070: 8654 35bf ac45 0a3f a52c 0b3f 1a1a 9c3f
00000080: d8dc 193f 6723 5f3f 9292 293f d741 26bf
00000090: c8d4 55bf aaf3 723f b737 433f 903c 513f
000000a0: 164c 1e3f f8c7 283e 4b5f 913f 0b8b 053f
000000b0: 388a 333f e952 553f 531c 423f c15b aa3e
000000c0: 4e0d 803f 6090 093f aa90 113f dc81 91be
000000d0: b1cc 3b3f b2cd 35bf e28b 1f3f 38ed 123f
000000e0: cb56 78bf c5fa 353f 4364 9f3e f0f0 9c3f
000000f0: d5e8 e9be 713a 793f 0a0c 583f d0d9 4bbf
00000100: 1644 83bf a5f3 e83e 1508 7fbf a303 5b3f
00000110: 2b50 2c3f 7736 813f bf16 5f3f cef2 153f
00000120: 8810 593f 408a 003c f05b e03c 110a 483f
00000130: c52d 263f e15c 2e3f d179 c1be 8594 263f
00000140: 58d0 063f e5d5 173f d743 7f3f 441b 273f
00000150: c24e b83e f7ed 233f 98b9 453f 4191 0d3f
00000160: 7423 0fbf a374 133f 4dd8 043f aa44 c7bc
00000170: a6d2 d43e e08a 153f fee5 253f 8277 6c3f
00000180: 0cc6 3a3f 7319 68bf fd2e 353f 41fc 133f
00000190: ff3e 053f d4a4 463f fffc 503f b4ad 403f
000001a0: 2e9c 5a3f 1bf2 85bf e42f 293f d821 1fbf
000001b0: e183 123f df8b 5b3e 681b c83e 1b06 363f
000001c0: 7a0a 003f bf7b 78bf c3ec 38bf 7c48 793f
000001d0: aa64 e23e f145 843e 0649 df3e 475a 843f
000001e0: cd86 033f 8f35 203f fc4a 463f ee05 90bf
000001f0: 615a 353f 9a59 213f 7985 373f 7a0c 343f
00000200: 39b4 013f 2d4e 923e d48f 2b3f 724e 4e3f
00000210: a018 42bf e8d6 e5bd 1310 1a3f 27d4 ce3e
00000220: df07 073f 04a1 083f 1451 803f d99c 573f
00000230: 289d a13e eadd 5abf 953d 223f d966 e53e
00000240: f7fe c1bd ea37 89bf 324e 14be 7ae9 483f
00000250: 29db 313f c08b 3d3f

batchnorm.running_mean f4 [150]
0.1803536 -0.035475716 -0.06277454 -0.07572386 -0.02871793 -0.7360503 0.010531023 0.008259505
0.00017578632 0.48193 -0.20941152 -0.003006616 -0.19232409 -0.7190692 0.83153975 0.14241202
-0.008116219 -0.009294473 0.21173541 -0.61983454 0.624827 -0.96360123 -0.9553686 -0.11469317
-0.025926273 -0.8605378 0.058843266 -0.90055794 -1.546082e-08 0.41215202 -0.07131331 -0.7188595
-0.021818949 -0.114126675 0.0057351654 -0.0047872844 0.11925734 -0.12808013 -0.038350232 -0.0009554132
-0.95658225 0.00933647 -0.008155766 0.34291384 0.9143406 -0.001520886 -0.016594416 -0.8486925
-0.08271173 0.042044267 -0.0018935608 -0.82195127 -0.93295497 -0.046165403 -0.94628096 0.00016930804
0.025075896 -0.008010351 -0.92212164 0.63676745 -9.9491546e-05 -0.008315094 -0.0036839014 0.75400114
0.12745214 -0.9512835 0.0016393889 0.6930972 -0.7587236 -0.11675624 -9.020238e-05 0.00942978
-0.15586917 -0.8815169 0.28758508 -4.221169e-06 -0.0141098965 -0.7388954 0.7097625 -0.1384912
0.40601274 -0.028661152 -0.0013733318 0.74880296 -0.8478052 -0.30796555 -0.0033215978 -0.2916984
-0.7755973 -0.62767965 -0.97038084 0.012386744 -0.96970725 -0.96331483 -0.0255153 -0.0019722476
-0.3507831 0.03520448 0.407039 -0.9682876 -0.08170736 0.45037034 -0.0019115185 0.54018015
0.00649378 0.0010990102 0.0086630825 -0.0023694339 0.5088429 0.6954631 -0.96969426 -0.058352835
-0.3878164 0.0055206744 6.089475e-08 -0.016345501 -0.35279676 0.93333495 0.6248242 -0.0088557
0.95484483 0.4539409 -0.78704196 0.60191137 5.213846e-05 -0.97085965 -0.014867736 0.0010466428
0.7849699 -0.96936786 -0.28701067 -0.06952784 -0.94387627 -0.68221754 0.050891194 -0.18036255
0.057015117 0.5765901 0.7093485 -0.73494285 0.4197475 7.7346485e-05 0.29116532 0.50455004
-0.65577775 -0.03701893 0.09965765 -0.75563157 0.008494725 -0.0031546415
00000000: 9dae 383e fc4e 11bd f08f 80bd 1c15 9bbd
00000010: dd41 ebbc cb6d 3cbf 508a 2c3c e052 073c
00000020: 4853 3839 87bf f63e f96f 56be a50a 45bb
00000030: 9bf0 44be eb14 38bf cadf 543f 75d4 113e
00000040: e4f9 04bc d847 18bc 2bd1 583e 7aad 1ebf
00000050: aaf4 1f3f 92ae 76bf 0993 74bf 41e4 eabd
00000060: 5663 d4bc 354c 5cbf a305 713d f78a 66bf
00000070: b4ce 84b2 9705 d33e b60c 92bd 2d07 38bf
00000080: a7bd b2bc 3fbb e9bd 0eee bb3b a7de 9cbb
00000090: 313d f43d 7027 03be 2215 1dbd b274 7aba
000000a0: 93e2 74bf fef7 183c c39f 05bc 6792 af3e
000000b0: 3a12 6a3f 7758 c7ba 03f1 87bc e943 59bf
000000c0: c464 a9bd 9c36 2c3d 5b31 f8ba 666b 52bf
000000d0: 23d6 6ebf ef17 3dbd 783f 72bf 4888 3139
000000e0: f76b cd3c d93d 03bc 2a10 6cbf 3103 233f
000000f0: 1ea6 d0b8 083c 08bc 9c6d 71bb 3806 413f
00000100: d082 023e 5187 73bf c3e0 d63a d16e 313f
00000110: b63b 42bf e51d efbd 092b bdb8 5d7f 1a3c
00000120: 2b9c 1fbe 17ab 61bf 5a3e 933e 91a3 8db6
00000130: 322d 67bc 4028 3dbf ffb2 353f a3d0 0dbe
00000140: e7e0 cf3e cbca eabc 5e01 b4ba 8db1 3f3f
00000150: c309 59bf a9ad 9dbe 2aaf 59bb 7e59 95be
00000160: 8b8d 46bf 9daf 20bf e16a 78bf c5f1 4a3c
00000170: bc3e 78bf cd9b 76bf 7605 d1bc d340 01bb
00000180: d899 b3be 9332 103d 6a67 d03e b2e1 77bf
00000190: 3056 a7bd f196 e63e eb8b faba 3f49 0a3f
000001a0: c6c9 d43b aa0c 903a 9aef 0d3c 8148 1bbb
000001b0: 8743 023f df09 323f e23d 78bf 6203 6fbd
000001c0: df8f c6be c6e6 b43b 3ec5 8233 00e7 85bc
000001d0: c7a1 b4be 0aef 6e3f 7bf4 1f3f 7f17 11bc
000001e0: b670 743f f16a e83e 957b 49bf dd16 1a3f
000001f0: 3faf 5a38 428a 78bf ce97 73bc 812f 893a
00000200: caf3 483f 7e28 78bf 10f3 92be 9d64 8ebd
00000210: e0a1 71bf cfa5 2ebf 4973 503d f6b0 38be
00000220: af88 693d 699b 133f dd97 353f 3725 3cbf
00000230: 25e9 d63e 1435 a238 9f13 953e 312a 013f
00000240: 0de1 27bf 29a1 17bd 4f19 cc3d 1271 41bf
00000250: 762d 0b3c 1abe 4ebb
