src/results/subject_P7/best_model.pth (torch, 481333 bytes, 15 tensors)

input_linear.weight f4 [40, 40]
0.13733138 -0.10416394 0.10841535 0.0017086118 0.11990555 -0.059486732 -0.108858705 0.11398424
-0.025940403 -0.12810716 0.055049703 0.08207506 0.058427453 0.056742236 0.12839074 -0.14920844
0.14604254 -0.10143684 -0.12647316 -0.1029547 -0.09487815 -0.108409576 -0.09520895 0.11121248
-0.106533945 -0.09731494 -0.15339045 0.11454426 0.15672345 0.03833337 -0.12189418 -0.075008124
0.1293246 -0.060719773 0.09302284 0.10541983 -0.052260615 0.08930299 0.14797886 0.07809466
-0.0070138276 -0.08667225 0.08445321 0.10672803 0.14575596 0.12437667 0.082626805 -0.15041587
0.06144844 0.038588792 0.14256974 -0.12196701 0.103112414 0.15673082 -0.0840749 0.13205801
-0.049990356 -0.13987777 -0.13428198 -0.01154919 -0.101683885 -0.0805922 0.02263531 0.06451382
0.0236253 0.13772394 0.005962923 -0.075315766 -0.12030109 0.022396132 -0.014073983 0.020670801
-0.099101834 0.011098623 0.054618016 -0.122565925 0.0017954111 -0.07536251 0.036386266 -0.023656934
0.011745527 0.052248105 -0.0064689815 0.06429726 -0.06625841 -0.08947655 -0.122835785 -0.00022694468
0.081206635 0.08495611 0.03228429 0.13591494 -0.056169733 0.048407465 0.055937946 -0.027940094
-0.124432355 0.13206388 0.013399914 -0.15543126 0.04201457 -0.056416743 -0.007834077 -0.074516304
-0.12013816 -0.030472755 0.09922324 -0.024903417 -0.024969444 0.017000377 -0.12404628 -0.11204158
0.017009616 -0.03306374 -0.1274154 0.09692417 -0.020153537 0.027459174 0.08061853 -0.0903574
-0.15659566 -0.095123805 -0.09549109 -0.10623886 0.005227864 -0.056683093 0.094681755 -0.08951483
0.11562239 0.15781833 -0.15382819 -0.08824411 -0.089942865 0.015007347 0.10009213 0.14099626
0.09476404 0.09258564 -0.048041463 0.11486672 -0.09799749 0.0727274 0.120226935 -0.12935683
0.14725424 0.15683298 0.120924726 -0.06975195 -0.018075228 0.15262945 -0.14635 0.03621334
0.11292778 -0.059837826 -0.08597404 -0.010642648 0.028242022 0.08781099 0.12823717 0.1439753
0.11076684 0.10336955 -0.08926642 0.11066969 0.10393198 0.08946164 0.12521036 0.12785481
0.12442072 -0.09621295 -0.14411718 0.08640872 -0.12841786 -0.02110143 -0.10759807 0.036620006
-0.0048342794 -0.11948447 0.014635444 -0.1216182 0.15691246 0.086907804 -0.15482453 0.13159804
-0.13876148 0.04641731 -0.13305107 -0.030681863 -0.12396357 0.103853986 -0.15657689 -0.03929043
-0.006658599 0.070782825 -0.09646809 0.03130606 0.09168957 -0.025240913 -0.11773321 0.002685368
-0.14239529 -0.028065965 -0.08586328 0.0026483983 -0.03148973 -0.035101317 0.02507037 -0.14489095
-0.13700217 -0.11183177 -0.02819091 -0.14522834 -0.15125167 -0.07573826 -0.12406999 -0.05215791
-0.031205922 0.09710406 -0.05819937 -0.03734778 -0.11329045 0.13530575 0.05714403 0.1525322
0.11106576 0.0011425465 -0.04695785 0.12473793 0.0027252287 -0.075036526 0.016601294 0.1350307
0.032400265 -0.116586834 -0.023116633 -0.07459055 0.11296068 -0.060156047 0.056146175 0.0941589
-0.08334557 -0.02054526 0.040652364 0.11766048 -0.04346846 0.07694477 -0.009356558 0.015336156
-0.08859509 -0.048899695 0.14160736 -0.14300011 0.08189002 -0.022706658 0.0038886517 -0.031029657
00000000: 99a0 0c3e e753 d5bd de08 de3d 80f3 df3a
00000010: 0a91 f53d 5ca8 73bd 50f1 debd 9270 e93d
00000020: f880 d4bc 862e 03be cc7b 613d f816 a83d
00000030: a051 6f3d 8c6a 683d dd78 033e 19ca 18be
00000040: 2d8c 153e 1ebe cfbd 2e82 01be ead9 d2bd
00000050: 7a4f c2bd d705 debd e9fc c2bd 5ec3 e33d
00000060: 782e dabd 0e4d c7bd 6312 1dbe 2e96 ea3d
00000070: 1d7c 203e 7403 1d3d a8a3 f9bd dc9d 99bd
00000080: ab6d 043e 4cb5 78bd c282 be3d 5ae6 d73d
00000090: 3a0f 56bd 7ce4 b63d c587 173e 18f0 9f3d
000000a0: 40d4 e5bb 3881 b1bd cef5 ac3d 3a94 da3d
000000b0: 0d41 153e 32b9 fe3d 3e38 a93d 9e06 1abe
000000c0: 5cb1 7b3d 480f 1e3d cdfd 113e d7c9 f9bd
000000d0: 9a2c d33d 0b7e 203e 762f acbd 373a 073e
000000e0: b0c2 4cbd 1e3c 0fbe 3781 09be d038 3dbc
000000f0: a43f d0bd 860d a5bd b06d b93c d21f 843d
00000100: d889 c13c 8107 0d3e a064 c33b 273f 9abd
00000110: 6b60 f6bd 1878 b73c 9096 66bc d055 a93c
00000120: e7f5 cabd 00d7 353c 24b7 5f3d d803 fbbd
00000130: 0054 eb3a a957 9abd c409 153d 30cc c1bc
00000140: 5070 403c 1c02 563d c0f9 d3bb 48ae 833d
00000150: 7db2 87bd 7b3f b7bd 5491 fbbd 00f8 6db9
00000160: aa4f a63d 78fd ad3d 883c 043d 492d 0b3e
00000170: 3c12 66bd e846 463d 301f 653d a0e2 e4bc
00000180: 64d6 febd c13b 073e 508b 5b3c 5f29 1fbe
00000190: 7817 2c3d 3e15 67bd 805a 00bc 019c 98bd
000001a0: ff0a f6bd 00a2 f9bc 8e35 cb3d 4002 ccbc
000001b0: b88c ccbc 6044 8b3c fa0b febd 0e76 e5bd
000001c0: c057 8b3c d86d 07bd 2f79 02be 2e80 c63d
000001d0: 0819 a5bc 10f2 e03c 541b a53d 4d0d b9bd
000001e0: 9d5a 20be 45d0 c2bd d590 c3bd c293 d9bd
000001f0: 804e ab3b 882c 68bd 82e8 c13d 8d53 b7bd
00000200: 6ecb ec3d 219b 213e 2385 1dbe 54b9 b4bd
00000210: f733 b8bd 60e1 753c 1afd cc3d 5361 103e
00000220: a613 c23d 8a9d bd3d 20c7 44bd 3e3f eb3d
00000230: e8b2 c8bd 1af2 943d 8a39 f63d 1e76 04be
00000240: d1c9 163e d398 203e 62a7 f73d 1cda 8ebd
00000250: 8012 94bc e54a 1c3e c6dc 15be 7054 143d
00000260: ae46 e73d 8218 75bd 2813 b0bd 805e 2ebc
00000270: d05b e73c 40d6 b33d 9b50 033e 436e 133e
00000280: bad9 e23d 6ab3 d33d 50d1 b6bd caa6 e23d
00000290: 4ada d43d aa37 b73d 2537 003e 5fec 023e
000002a0: 4ad0 fe3d 4c0b c5bd 7493 13be 0ef7 b03d
000002b0: f97f 03be e8dc acbc 605c dcbd dcfe 153d
000002c0: e068 9ebb 46b4 f4bd 80c9 6f3c f612 f9bd
000002d0: a9ad 203e b8fc b13d 528a 1ebe a3c1 063e
000002e0: 7d17 0ebe 1420 3e3d 8a3e 08be 8858 fbbc
000002f0: 9de0 fdbd 66b1 d43d b155 20be 00ef 20bd
00000300: 6030 dabb 96f6 903d 1091 c5bd c83a 003d
00000310: bec7 bb3d 08c6 cebc 1c1e f1bd 00fd 2f3b
00000320: 12d0 11be 98ea e5bc 16d9 afbd c090 2d3b
00000330: 60fb 00bd 66c6 0fbd 6060 cd3c 4b5e 14be
00000340: 4c4a 0cbe 0e08 e5bd a0f0 e6bc bdb6 14be
00000350: b8e1 1abe a91c 9bbd 6818 febd 88a3 55bd
00000360: 90a3 ffbc 7ede c63d 7662 6ebd fcf9 18bd
00000370: d304 e8bd 978d 0a3e dc0f 6a3d 6731 1c3e
00000380: 7276 e33d 80c1 953a e056 40bd 9a76 ff3d
00000390: c099 323b c0ac 99bd 70ff 873c 7d45 0a3e
000003a0: 24b6 043d 14c5 eebd 185f bdbc eec2 98bd
000003b0: ee57 e73d 3066 76bd 88f9 653d 62d6 c03d
000003c0: 15b1 aabd 884e a8bc 1883 263d faf7 f03d
000003d0: fc0b 32bd 3895 9d3d 404c 19bc 8044 7b3c
000003e0: 5871 b5bd 0c4b 48bd 8501 113e 9f6e 12be
000003f0: f4b5 a73d 5003 babc c0d8 7e3b e831 febc

input_linear.bias f4 [40]
0.036196202 -0.060505576 -0.098149054 0.086162075 0.08519368 0.09751572 0.054383278 -0.101686716
0.09848179 -0.06422732 -0.15034321 -0.06981958 -0.121918514 0.13083129 -0.07416218 -0.07615847
0.06925866 -0.10770072 0.10396649 -0.14095578 -0.030401528 -0.00025114417 -0.15730263 0.07944095
0.08255054 0.100710586 -0.060645513 0.15020494 -0.15599495 0.07503708 0.07699515 0.12890102
0.15624036 0.12556805 -0.0065362602 -0.021942899 0.13644464 0.031024069 0.10352601 0.057958186
00000000: 7842 143d b2d4 77bd 5f02 c9bd be75 b03d
00000010: 067a ae3d 52b6 c73d 00c1 5e3d 2041 d0bd
00000020: d2b0 c93d 9d89 83bd 92f3 19be 91fd 8ebd
00000030: 6ab0 f9bd a3f8 053e 57e2 97bd f9f8 9bbd
00000040: 7cd7 8d3d 3292 dcbd 62ec d43d b656 10be
00000050: a00c f9bc 00ac 83b9 f113 21be f0b1 a23d
00000060: 4210 a93d 5a41 ce3d 6e67 78bd 53cf 193e
00000070: 24bd 1fbe 0aad 993d a2af 9d3d a1fe 033e
00000080: 79fd 1f3e e994 003e 202e d6bb 98c1 b3bc
00000090: 25b8 0b3e 3026 fe3c 7205 d43d 9065 6d3d

lstm.weight_ih_l0 f4 [600, 40]
-0.0005874808 -0.049996525 -0.041233778 0.0053966795 -0.041233875 -0.03909313 -0.030470852 0.039742257
0.02849734 0.04217196 -0.025412215 0.017520458 -0.06190205 -0.044092923 -0.013515561 -0.03227349
-0.06283828 -0.024020698 -0.026918128 -0.041561324 -0.04320409 -0.036804825 0.017027782 -0.02853352
-0.0431997 0.10722252 -0.0037697884 0.003161615 -0.026196951 -0.0064376052 -0.025622217 -0.03917856
-0.023356983 -0.06666612 0.01654645 -0.026762826 -0.037816748 0.004653729 0.005102822 -0.015355264
-0.094206855 0.07334988 0.2041066 -0.09424826 0.13315733 0.20896089 0.18568699 -0.2019637
-0.20647722 -0.20196201 0.034398846 0.050134227 0.082757145 0.20828173 -0.023918327 -0.2509878
-0.04329969 0.037339583 0.038041655 0.2045765 0.20512235 0.20307587 -0.21018107 -0.35727102
0.20132403 -0.3139163 0.13608345 0.010680007 0.033406034 0.12496755 0.03232348 0.20234194
0.042048402 -0.044143762 -0.20587426 -0.35697898 0.20580412 -0.04280503 0.010632386 -0.028085716
-0.09403558 -0.45763066 -0.118279316 -0.5255994 -0.44818443 -0.11430639 -0.13893944 0.12052584
0.10813941 0.11970853 -0.43507516 -0.29833576 0.20760566 -0.113798946 0.599647 0.06336998
-0.5829579 -0.4326415 -0.42933628 -0.12128094 -0.124031425 -0.119806156 0.51379204 0.56009984
-0.12714705 -0.23769133 0.035860017 -0.13637461 -0.43662992 0.09061795 -0.43341365 -0.122334704
-0.4293226 -0.580491 0.5123233 0.56251746 -0.124143556 0.17845504 0.18455109 0.6036985
-0.1641402 -0.045382757 0.52126956 0.08439327 -0.05335809 0.5182601 0.50764775 -0.51991534
-0.5416442 -0.51885 0.31718123 -0.27768612 0.13578132 0.5177339 -0.14660034 0.053294975
-0.03801499 0.31864396 0.31805477 0.5195177 0.5193272 0.51704085 -0.24512284 -0.22855562
0.51515514 -0.4254005 0.4012076 0.28348017 0.31838244 0.14643125 0.32005364 0.5220242
0.31806445 -0.03629027 -0.24086538 -0.23437127 0.5173812 -0.1809804 -0.099155135 -0.14495854
0.08140258 0.0058486992 0.02232476 0.107285306 0.073644586 0.019561473 0.009124813 -0.017079202
0.009400724 -0.021208867 -0.017788645 -0.005201093 -0.04256836 0.023382533 -0.014377546 -0.29955426
0.48003894 -0.016391817 -0.012399941 0.01932127 0.02112687 0.021082545 0.445597 0.14659238
0.025149144 0.17995252 -0.15527825 -0.040352184 -0.017095141 -0.10510131 -0.014712143 0.023173433
-0.017172737 0.48012957 0.44643778 0.14926752 0.025456099 0.40021345 0.26491326 -0.013872391
-0.82815415 -0.19534434 0.16298048 -0.0895658 -0.22424562 0.16550876 0.15655173 -0.16525722
-0.1333675 -0.16472973 0.2395405 -0.118287556 0.0687608 0.16341738 -0.31116903 0.1617768
-0.5827034 0.24193856 0.23964 0.1642207 0.16871038 0.1702754 -0.35950524 0.028230853
0.16447484 -0.36719668 0.29688966 0.20461787 0.23843247 0.12761939 0.23685953 0.16488881
0.24048242 -0.5857459 -0.36573532 0.02751844 0.16361474 -0.6090097 -0.6547443 -0.30854186
-0.12170423 -0.19871736 0.58011806 1.8706596 -0.05761277 0.5732531 0.4718007 -0.58170235
-0.39402324 -0.58576906 1.0459018 0.8464377 0.24808411 0.577645 -2.1192296 -0.27703315
00000000: 2b01 1aba 28c9 4cbd c0e4 28bd a1d6 b03b
00000010: dae4 28bd 1e20 20bd 029e f9bc c7c8 223d
00000020: 4173 e93c 81bc 2c3d 472d d0bc 1087 8f3c
00000030: 018d 7dbd c89a 34bd 5f70 5dbc 3531 04bd
00000040: 5bb1 80bd 0ec7 c4bc 6883 dcbc 353c 2abd
00000050: c6f6 30bd a8c0 16bd d97d 8b3c 21bf e9bc
00000060: 2bf2 30bd 7b97 db3d 8e0e 77bb 1933 4f3b
00000070: fd9a d6bc 8cf2 d2bb afe5 d1bc b379 20bd
00000080: 2557 bfbc 3f88 88bd 6c8c 873c b73d dbbc
00000090: bce5 1abd 4f7e 983b 9335 a73b a594 7bbc
000000a0: 86ef c0bd 7638 963d 5201 513e 3b05 c1bd
000000b0: 655a 083e d8f9 553e bb24 3e3e 92cf 4ebe
000000c0: c46e 53be 21cf 4ebe cee5 0c3d 8c59 4d3d
000000d0: 947c a93d ce47 553e 5ef0 c3bc 7981 80be
000000e0: 045b 31bd 64f1 183d 91d1 1b3d 817c 513e
000000f0: 980b 523e 1ff3 4f3e b539 57be 3aec b6be
00000100: e327 4e3e a3b9 a0be 7659 0b3e 32fb 2e3c
00000110: c4d4 083d fdee ff3d a065 043d ba32 4f3e
00000120: f23a 2c3d 17d0 34bd b4d0 52be f3c5 b6be
00000130: 51be 523e 5454 2fbd 7633 2e3c 0414 e6bc
00000140: ba95 c0bd 914e eabe 6d3c f2bd af8d 06bf
00000150: 6e78 e5be 7819 eabd 2446 0ebe 40d6 f63d
00000160: 3278 dd3d bf29 f53d 2cc2 debe 77bf 98be
00000170: 9496 543e 6c0f e9bd 7782 193f 1fc8 813d
00000180: bb3c 15bf 3083 ddbe f7d1 dbbe 2462 f8bd
00000190: 3004 febd ee5c f5bd e087 033f b462 0f3f
000001a0: d632 02be 5b65 73be f4e1 123d c9a5 0bbe
000001b0: f58d dfbe e795 b93d 65e8 ddbe 9e8a fabd
000001c0: 2cd0 dbbe 0f9b 14bf 9f27 033f 2501 103f
000001d0: fa3e febd ebbc 363e f6fa 3c3e fc8b 1a3f
000001e0: 5e14 28be 45e3 39bd ec71 053f 61d6 ac3d
000001f0: 038e 5abd b2ac 043f 34f5 013f 2c19 05bf
00000200: 32a9 0abf 5bd3 04bf 9465 a23e e02c 8ebe
00000210: 420a 0b3e 358a 043f 661e 16be d54b 5a3d
00000220: 9bb5 1bbd 4d25 a33e 13d8 a23e 1dff 043f
00000230: a1f2 043f ca5c 043f 7b01 7bbe 7c0a 6abe
00000240: 35e1 033f 18ce d9be 156b cd3e 5024 913e
00000250: 0603 a33e 13f2 153e 12de a33e 61a3 053f
00000260: 58d9 a23e 1ba5 14bd 6aa5 76be 06ff 6fbe
00000270: 1873 043f ed52 39be d911 cbbd 0370 14be
00000280: 65b6 a63d 72a6 bf3b 6ae2 b63c 66b8 db3d
00000290: f9d2 963d 623f a03c 3d80 153c afe9 8bbc
000002a0: 7f05 1a3c 38be adbc 7eb9 91bc ee6d aabb
000002b0: 295c 2ebd ba8c bf3c cc8f 6bbc 2d5f 99be
000002c0: aac7 f53e 2248 86bc 1f29 4bbc a447 9e3c
000002d0: 4212 ad3c 4db5 ac3c 4a25 e43e 501c 163e
000002e0: 9405 ce3c 7945 383e 4301 1fbe 5548 25bd
000002f0: 1c0b 8cbc 5b3f d7bd 330b 71bc 36d6 bd3c
00000300: d7ad 8cbc 8bd3 f53e 7e93 e43e 96d9 183e
00000310: 4f89 d03c c7e8 cc3e b6a2 873e 0649 63bc
00000320: e901 54bf 5908 48be 5be4 263e 466e b7bd
00000330: a5a0 65be 217b 293e 194f 203e 3039 29be
00000340: 7d91 08be e9ae 28be 1b4a 753e bf40 f2bd
00000350: 76d2 8c3d e356 273e 8c51 9fbe d1a8 253e
00000360: 0d2c 15bf bebe 773e 3064 753e 7929 283e
00000370: 6ac2 2c3e ad5c 2e3e 1211 b8be 6444 e73c
00000380: 186c 283e 3401 bcbe ec01 983e 5987 513e
00000390: a427 743e a8ae 023e 4e8b 723e 9dd8 283e
000003a0: 0641 763e 71f3 15bf a941 bbbe 5a6e e13c
000003b0: 9f8a 273e 0fe8 1bbf 539d 27bf 33f9 9dbe
000003c0: 1140 f9bd 907c 4bbe 9e82 143f c671 ef3f
000003d0: 5efb 6bbd b7c0 123f dd8f f13e 72ea 14bf
000003e0: 6abd c9be f6f4 15bf 1ce0 853f 24b0 583f
000003f0: c309 7e3e 8be0 133f 75a1 07c0 4ad7 8dbe

lstm.weight_hh_l0 f4 [600, 150]
-0.009208533 -0.065994106 0.056971975 -0.034294147 -0.014629053 0.09401246 -0.0376253 -0.029467072
-0.06956484 -0.005410007 0.022660766 0.12245159 0.14945367 -0.038167886 -0.44542503 -0.050045095
-0.07093948 0.115860164 -0.078872025 0.03224147 0.02137597 0.07567205 -0.012149393 -0.04961111
0.010838771 -0.10374386 -0.051111832 -0.6042737 -0.030631157 -0.026024777 0.048564207 -0.19858892
-0.073211275 -0.005161365 0.013195742 0.50624245 -0.01071207 0.022142595 -0.024253694 -0.00739767
0.048234135 0.00777916 0.22084332 0.2398935 0.25092855 -0.014339801 0.036074094 -0.0105730705
-0.32577798 -0.08908621 0.08176738 0.0008646025 -0.104713656 0.029509133 -0.019365497 0.008996345
0.1502701 0.06673526 -0.060197137 0.04370488 0.119319595 -0.0024413874 -0.22392812 0.019691588
-0.015397045 0.077745415 -0.08369773 0.028645486 -0.0241653 0.07991688 0.030429767 -0.0858526
0.034993455 0.023340752 -0.102634445 0.101402774 -0.07705451 -0.015336775 0.024314806 0.01832296
-0.2843425 0.14961939 -0.09280192 0.056576166 0.024704771 0.10234833 0.3599166 -0.060972825
-0.07145878 0.021558596 -0.046839252 0.0846074 -0.08176542 -0.030159337 0.049169853 -0.044563655
-0.26612422 0.05896098 0.11235782 -0.103485405 -0.029145537 0.024003116 -0.27889034 -0.19643974
-0.028886711 0.0056766234 -0.033424664 0.008327227 -0.06476061 0.0064190966 0.6516441 0.09589875
-0.14167573 0.120299794 0.005399024 0.087813735 -0.14318684 0.018841837 0.009901109 -0.046976034
-0.124098435 0.0073402342 -0.099689245 -0.48898622 0.0050573973 -0.01608988 -0.085552484 0.006662154
-0.095825136 -0.10681462 -0.08613979 -0.0007574993 -0.12793876 0.15603006 -0.1797506 0.0071127545
0.072784334 0.1405665 -0.121801145 -0.15308245 0.050086554 -0.029281339 -3.229406e-05 -0.08183384
0.044986494 -0.028391505 0.014212942 -0.059245013 -0.044399448 0.2123658 0.12280884 -0.21377723
0.09412419 0.19494258 -0.073474154 -0.5122602 0.35867423 -0.08491727 0.08157419 0.0023174167
0.07951331 0.20581779 -0.22352768 0.17023554 0.5099153 -0.049711846 0.009634012 -0.22391877
0.17729077 0.09677135 0.19043085 0.0902677 0.09607116 -0.52923054 0.08465365 -0.6673714
-0.0968124 -0.091022715 0.10216066 0.05121973 0.09738385 0.1821227 -0.10916115 0.0025849955
0.056046605 0.8782466 -0.05357617 0.101649016 0.059447166 0.00850459 -0.21028563 0.092329465
0.1377216 -0.4125767 -0.11467137 -0.389267 -0.3836818 0.48689857 0.09047813 0.12166361
0.1304761 0.041971233 -0.17609438 -0.049241647 0.104257636 0.4150315 0.32922715 0.18266954
-0.10353771 0.024406837 0.020001933 0.016774224 -0.3390701 0.003905557 0.053077582 -0.020195065
-0.045095496 0.028415198 0.0063690403 -0.038699836 0.31089303 -0.007096273 0.014428304 -0.032567456
-0.090729944 0.19601357 0.01969575 0.0124867335 -0.07184179 0.01766837 -0.48627564 0.02678792
0.18689798 -0.0062012314 -0.13655192 0.23433085 0.013783663 0.09701932 -0.74581045 -0.19510144
0.024017343 -0.0375846 0.009276116 -0.30451077 0.17320769 0.0041215676 0.050227236 0.4558166
-0.30307662 0.012766126 0.08257396 -1.0264456 0.03305903 -0.038014695 -0.15542077 -0.26663944
00000000: 63df 16bc eb27 87bd 725b 693d 0578 0cbd
00000010: b2ae 6fbc 9b89 c03d fd1c 1abd ee64 f1bc
00000020: 0378 8ebd 6e46 b1bb 12a3 b93c e6c7 fa3d
00000030: 620a 193e ee55 1cbd c00e e4be 16fc 4cbd
00000040: b848 91bd 1848 ed3d a887 a1bd a20f 043d
00000050: a91c af3c f3f9 9a3d 3f0e 47bc 0535 4bbd
00000060: 1a95 313c a977 d4bd a45a 51bd aeb1 1abf
00000070: 31ee fabc ea31 d5bc 43eb 463d e55a 4bbe
00000080: cbef 95bd ab20 a9bb f432 583c 1b99 013f
00000090: ae81 2fbc 6364 b53c afaf c6bc 2768 f2bb
000000a0: 2891 453d 53e8 fe3b c024 623e a4a6 753e
000000b0: b579 803e 7cf1 6abc 6ec2 133d ac3a 2dbc
000000c0: 5fcc a6be d572 b6bd a875 a73d 7ea6 623a
000000d0: 1d74 d6bd 23bd f13c 64a4 9ebc 6865 133c
000000e0: 68e0 193e 7fac 883d 4691 76bd e303 333d
000000f0: d55d f43d afff 1fbb 6a4d 65be 4150 a13c
00000100: e343 7cbc fd38 9f3d b769 abbd f0a9 ea3c
00000110: 4ff6 c5bc 76ab a33d d947 f93c 7dd3 afbd
00000120: 4c55 0f3d 1b35 bf3c 0232 d2bd 42ac cf3d
00000130: c1ce 9dbd 1947 7bbc d82f c73c 081a 963c
00000140: 5795 91be d335 193e ef0e bebd 69bc 673d
00000150: a961 ca3c 009c d13d fd46 b83e a4be 79bd
00000160: fb58 92bd a79b b03c 84da 3fbd a546 ad3d
00000170: a174 a7bd b710 f7bc 5466 493d 6188 36bd
00000180: 6f41 88be 1281 713d db1b e63d 28f0 d3bd
00000190: 9fc2 eebc 2fa2 c43c b7ca 8ebe 8027 49be
000001a0: d3a3 ecbc f802 ba3b 4de8 08bd ec6e 083c
000001b0: 36a1 84bd 4957 d23b 26d2 263f 9066 c43d
000001c0: 7113 11be bd5f f63d 4cea b03b b0d7 b33d
000001d0: 929f 12be 325a 9a3c 4338 223c f169 40bd
000001e0: 5227 febd 5986 f03b e029 ccbd 675c fabe
000001f0: 86b8 a53b edce 83bc 2436 afbd 334e da3b
00000200: f83f c4bd a0c1 dabd 0f6a b0bd eb92 46ba
00000210: 6102 03be 58c6 1f3e 8b10 38be 1c12 e93b
00000220: f40f 953d aaf0 0f3e e172 f9bd a5c1 1cbe
00000230: 8f27 4d3d 6bdf efbc 7c73 07b8 8098 a7bd
00000240: c243 383d 4d95 e8bc 66dd 683c e6aa 72bd
00000250: 32dc 35bd 6c76 593e 3383 fb3d 6be8 5abe
00000260: 2fc4 c03d 079f 473e 9e79 96bd 7c23 03bf
00000270: 26a4 b73e 1be9 adbd 5e10 a73d cddf 173b
00000280: e0d7 a23d e6c1 523e 71e4 64be 3a52 2e3e
00000290: cf89 023f a69e 4bbd fad7 1d3c f64a 65be
000002a0: b68b 353e 0f30 c63d 4e00 433e 46de b83d
000002b0: f5c0 c43d a77b 07bf e55e ad3d dad8 2abf
000002c0: 9445 c6bd 1e6a babd 9c39 d13d c8cb 513d
000002d0: 2f71 c73d 607e 3a3e e28f dfbd 0769 293b
000002e0: 2091 653d c5d4 603f b072 5bbd 5c2d d03d
000002f0: df7e 733d d656 0b3c 1e55 57be 3b17 bd3d
00000300: e406 0d3e 413d d3be d3d8 eabd 014e c7be
00000310: f171 c4be c54a f93e 994c b93d c52a f93d
00000320: 879b 053e 07ea 2b3d 1652 34be 9cb1 49bd
00000330: 0785 d53d 027f d43e 7690 a83e b90d 3b3e
00000340: 940b d4bd d9f0 c73c 18db a33c 196a 893c
00000350: 999a adbe 60f4 7f3b e167 593d 1f70 a5bc
00000360: 0eb6 38bd fdc6 e83c 62b3 d03b b883 1ebd
00000370: 5f2d 9f3e da87 e8bb b164 6c3c 7465 05bd
00000380: 9fd0 b9bd c8b7 483e fb58 a13c 2895 4c3c
00000390: ca21 93bd 42bd 903c 1ff9 f8be 5772 db3c
000003a0: 2f62 3f3e b333 cbbb 44d4 0bbe 6df4 6f3e
000003b0: dfd4 613c 11b2 c63d 6fed 3ebf acc8 47be
000003c0: 05c0 c43c 4ff2 19bd dafa 173c d6e8 9bbe
000003d0: 5b5d 313e 370e 873b 13bb 4d3d cb60 e93e
000003e0: dc2c 9bbe 0329 513c 891c a93d 9262 83bf
000003f0: e868 073d 4cb5 1bbd 9f26 1fbe f784 88be

lstm.bias_ih_l0 f4 [600]
-0.039944425 0.20345649 -0.12072053 0.51986504 0.018590866 0.16703208 0.5821807 -0.6036709
-0.16475444 -0.22535327 -0.044890415 -0.3970069 0.12459966 -0.0720127 0.6763495 -0.233556
-0.31232035 -1.0044191 0.261664 0.030135734 -0.20501123 -0.4746062 0.035710465 -0.017972015
0.06778754 0.18489528 0.10925238 0.38411492 0.20976572 0.03863763 -0.3807225 0.13568059
-0.06198372 -0.18066552 0.014634908 0.09655042 -0.32016447 0.8550095 0.039769582 0.028616032
-0.15005478 -0.54792416 0.015434956 0.47149575 0.14063969 0.33871928 0.20579407 0.050033588
0.24306181 -0.56739753 -0.4389246 -0.010451738 -0.09542513 0.4382418 0.054249402 0.10164386
0.7193515 0.023838399 0.13994966 -0.9420729 0.5662707 -0.04374615 0.4566395 0.2781686
0.048579324 0.4772975 -0.3806178 -0.58144623 0.9869507 -0.23196852 -0.022006294 0.08916577
0.16230263 0.088763006 0.101559006 0.19665112 0.44632855 0.03607856 -0.11678407 0.21362428
-0.20806168 0.24591067 0.08176665 0.08127523 0.84068245 0.12094284 -0.20160602 -0.20302819
0.44028592 0.05509886 0.17076267 0.2185923 0.3994294 0.25063688 -0.14369917 0.48311737
-0.24614723 0.48690444 -0.06256126 0.17194264 0.5502592 0.59226215 0.17173424 0.12503302
0.14836097 -0.17249317 -0.7313147 -0.45503947 0.6347835 -0.07540651 1.2757174 0.79047036
-0.624054 0.016764034 -0.020936053 0.35479042 0.6079778 -0.23603311 0.30642074 0.4039283
-0.09449155 -0.30998495 0.40168098 -0.27932644 -0.21877487 0.07298482 0.8428629 0.7782586
0.4160464 -0.34004486 -0.0011488183 0.015733834 -0.00070139504 0.34009838 0.13366598 -0.1289057
-0.19403054 0.08292436 -0.36726394 0.045911856 -0.16888288 -0.32838607 -0.22124617 0.22869033
0.18306266 0.57777774 0.2923482 -0.37983948 -0.014115038 0.2735024 0.113421395 0.12249753
0.008914768 -0.587739 -0.18846174 -0.0988952 -0.7481514 -0.18742445 -0.10659372 0.28260493
-0.1456539 -0.14090998 -0.14111792 0.2856011 0.90081173 -0.44746697 -0.7881404 -0.41889575
0.5552916 0.11629807 0.23394921 -0.49197796 -0.035799515 -0.2614168 0.1113878 -0.21447743
0.18497682 0.68698794 -0.29870608 -0.09093481 -0.17074606 0.45495367 -0.15948322 -0.2589127
0.007938614 -0.15568168 -0.1031509 0.653304 -0.8797777 -0.019104362 0.4633469 0.42272455
0.27118433 0.71039635 0.5413849 0.18762654 0.5607516 -0.069842905 0.51513964 0.13536207
-0.1948091 0.008749072 -0.43069613 -0.012666796 -0.17062408 -0.6452565 0.27563623 -0.22526996
0.13126281 -0.2594435 0.37884054 -0.03996215 0.37278733 0.14507194 0.073594876 -0.22873662
-0.6266678 -0.24750401 0.701317 -0.75470793 0.3029291 0.034325782 -0.08388063 0.061954044
0.0868401 -0.4861268 -1.5183272 -0.05295071 -0.04549187 -0.11383638 0.27194136 -0.41305926
-0.16009869 -0.101642646 0.69663674 -0.110738374 0.44631732 -0.6216597 -0.35555694 -0.34282354
0.03444366 -0.47359297 0.27983063 -0.2334394 0.1411051 -0.38405693 0.33341783 -0.2327399
0.30666617 -0.42395937 0.4275849 0.30530912 -0.12941442 -0.1528859 -0.29810023 -0.07421607
00000000: c49c 23bd e656 503e 533c f7bd e015 053f
00000010: df4b 983c 750a 2b3e cb09 153f 2d8a 1abf
00000020: 63b5 28be 02c3 66be 03df 37bd 7d44 cbbe
00000030: 1b2e ff3d 657b 93bd 3e25 2d3f 4e29 6fbe
00000040: 74e8 9fbe ce90 80bf d3f8 853e 37df f63c
00000050: 77ee 51be 95ff f2be 2345 123d 0c3a 93bc
00000060: 32d4 8a3d 3055 3d3e b6bf df3d b6aa c43e
00000070: d3cc 563e 7e42 1e3d 0fee c2be daef 0a3e
00000080: a4e2 7dbd 6200 39be 41c7 6f3c 3abc c53d
00000090: 99ec a3be e7e1 5a3f 6ee5 223d 2b6c ea3c
000000a0: f6a7 19be c244 0cbf e6e2 7c3c e467 f13e
000000b0: da03 103e 9d6c ad3e aebb 523e 05f0 4c3d
000000c0: 32e5 783e f740 11bf baba e0be c43d 2bbc
000000d0: 406e c3bd 3b61 e03e 9f34 5e3d a82a d03d
000000e0: 6b27 383f bf48 c33c f74e 0f3e b12b 71bf
000000f0: 1ef7 103f 2a2f 33bd a7cc e93e 1d6c 8e3e
00000100: 1dfb 463d 5760 f43e 56e0 c2be a9d9 14bf
00000110: cda8 7c3f 2889 6dbe 8b46 b4bc 8b9c b63d
00000120: a932 263e 61c9 b53d 2bfe cf3d e95e 493e
00000130: 2d85 e43e 1dc7 133d 7d2c efbd 53c0 5a3e
00000140: 1f0e 55be 02d0 7b3e 4675 a73d a173 a63d
00000150: f736 573f e1b0 f73d cf71 4ebe 9fe6 4fbe
00000160: 286d e13e 58af 613d 69dc 2e3e a9d6 5f3e
00000170: 0382 cc3e 7a53 803e e025 13be 295b f73e
00000180: 050e 7cbe 8a4b f93e 1e20 80bd bb11 303e
00000190: c9dd 0c3f 7e9e 173f 1adb 2f3e a808 003e
000001a0: f0eb 173e 0da2 30be 7137 3bbf effa e8be
000001b0: 2c81 223f ba6e 9abd b54a a33f 445c 4a3f
000001c0: 01c2 1fbf ba54 893c 1682 abbc 17a7 b53e
000001d0: 6fa4 1b3f aab2 71be 2ee3 9c3e b1cf ce3e
000001e0: c984 c1bd 59b6 9ebe 21a9 cd3e e003 8fbe
000001f0: 8506 60be 1179 953d ddc5 573f f53b 473f
00000200: 0904 d53e 5c1a aebe f293 96ba 3ee4 803c
00000210: d3dd 37ba 6021 ae3e bcdf 083e dbff 03be
00000220: f1af 46be 3fd4 a93d 050a bcbe 120e 3c3d
00000230: a2ef 2cbe 3822 a8be 5b8e 62be cc2d 6a3e
00000240: c774 3b3e 3ee9 133f aaae 953e 527a c2be
00000250: c342 67bc 8208 8c3e 7a49 e83d fcdf fa3d
00000260: 3f0f 123c 1076 16bf 1dfc 40be 9189 cabd
00000270: da86 3fbf 32ec 3fbe cf4d dabd 98b1 903e
00000280: 4c26 15be b54a 10be 3781 10be 4f3a 923e
00000290: 999b 663f 641a e5be 92c3 49bf 8179 d6be
000002a0: 9727 0e3f af2d ee3d 6290 6f3e 89e4 fbbe
000002b0: 83a2 12bd 6cd8 85be 491f e43d f99f 5bbe
000002c0: 906a 3d3e 71de 2f3f 01f0 98be 083c babd
000002d0: 0ed8 2ebe b0ef e83e 924f 23be 3590 84be
000002e0: f610 023c 056b 1fbe c740 d3bd ee3e 273f
000002f0: 1d39 61bf c080 9cbc ce3b ed3e 5a6f d83e
00000300: acd8 8a3e 89dc 353f 3398 0a3f 2c21 403e
00000310: 6b8d 0f3f cc09 8fbd 31e0 033f 5b9c 0a3e
00000320: 097c 47be 4558 0f3c 3484 dcbe 6588 4fbc
00000330: 14b8 2ebe 882f 25bf 3120 8d3e 2bad 66be
00000340: c269 063e c7d5 84be 63f7 c13e 5aaf 23bd
00000350: fbdd be3e bd8d 143e e9b8 963d ef39 6abe
00000360: 4d6d 20bf b171 7dbe 8389 333f 8a34 41bf
00000370: 8619 9b3e 3199 0c3d 9cc9 abbd 86c3 7d3d
00000380: 39d9 b13d 9de5 f8be 8c58 c2bf d8e2 58bd
00000390: af55 3abd 0c23 e9bd e63b 8b3e 817c d3be
000003a0: e9f0 23be 052a d0bd c956 323f cdca e2bd
000003b0: b483 e43e 1725 1fbf 8f0b b6be 9186 afbe
000003c0: cc14 0d3d c77a f2be f645 8f3e bd0a 6fbe
000003d0: db7d 103e 1ca3 c4be beb5 aa3e 5e53 6ebe
000003e0: 5903 9d3e 3411 d9be 68ec da3e 7a51 9c3e
000003f0: 3785 04be 1f8e 1cbe 98a0 98be 98fe 97bd

lstm.bias_hh_l0 f4 [600]
-0.03825044 0.20404893 -0.12381806 0.51799345 0.018280776 0.16773647 0.58534783 -0.6034067
-0.16817203 -0.2281224 -0.047099583 -0.39970514 0.12526576 -0.07282129 0.6770503 -0.2340353
-0.31595242 -1.0068482 0.26350048 0.03390006 -0.20245051 -0.4737855 0.039424803 -0.017113594
0.06910328 0.18359707 0.10934431 0.3877201 0.21248613 0.043096166 -0.3787554 0.13538381
-0.06465721 -0.18112949 0.015492771 0.096319616 -0.32274 0.8539568 0.042788383 0.02970654
-0.15050693 -0.5437418 0.011953528 0.46922576 0.14037323 0.34223115 0.20445204 0.04508787
0.2461754 -0.5668402 -0.44083476 -0.010914168 -0.09536953 0.43351844 0.05241644 0.0988744
0.7209155 0.02010764 0.14103146 -0.9443366 0.5662344 -0.046528272 0.4580284 0.28184697
0.048677135 0.47536135 -0.37961528 -0.57966423 0.9825402 -0.23560677 -0.025084483 0.08445143
0.16215146 0.09146272 0.098244816 0.19405411 0.44754452 0.04050048 -0.11696847 0.21508835
-0.20886926 0.24722646 0.08217163 0.082864545 0.84664094 0.12213351 -0.204133 -0.20267145
0.4412736 0.054507807 0.16853675 0.21740454 0.39754763 0.24965227 -0.1411603 0.48395273
-0.24234363 0.48997617 -0.06246491 0.17116417 0.5486943 0.58726645 0.174834 0.12765367
0.15076296 -0.1736741 -0.73419106 -0.45784003 0.63760203 -0.07074538 1.2738073 0.7909012
-0.6286193 0.011623582 -0.02097467 0.3556777 0.60638434 -0.23320216 0.30794832 0.40210468
-0.09566655 -0.30818886 0.40367773 -0.27755055 -0.22130944 0.07111173 0.8440223 0.7793512
0.41594636 -0.3437141 -0.0038987584 0.015955063 -4.1899893e-05 0.34250128 0.13483866 -0.12750988
-0.19213142 0.07790624 -0.36549044 0.044809684 -0.17130452 -0.32876462 -0.21714659 0.22489578
0.1828991 0.5756528 0.28947294 -0.3768539 -0.014008691 0.27834833 0.107989945 0.12573004
0.009496735 -0.5915807 -0.18618086 -0.10194223 -0.75130415 -0.18604232 -0.109493315 0.28059667
-0.1470931 -0.14496142 -0.13945429 0.27988353 0.90140784 -0.44709367 -0.7863647 -0.4192441
0.55197144 0.11590012 0.22766075 -0.4911218 -0.036365 -0.2647198 0.11108105 -0.21709532
0.18789084 0.68814075 -0.2976006 -0.08948216 -0.16634499 0.45931864 -0.16179316 -0.2572908
0.0017693634 -0.15654488 -0.09927515 0.654727 -0.87714946 -0.023572087 0.4629548 0.41785055
0.2692267 0.7055494 0.54586756 0.18740846 0.56080973 -0.07142481 0.51826096 0.13679762
-0.19761075 0.008797106 -0.43011844 -0.008248778 -0.17071623 -0.64654946 0.27640113 -0.22602999
0.12769122 -0.25631428 0.37437177 -0.036066145 0.37819153 0.1447679 0.0743684 -0.23342404
-0.6280494 -0.24633484 0.69855726 -0.7488624 0.3046192 0.039674725 -0.08807497 0.060865708
0.09100365 -0.4829706 -1.5196241 -0.05542706 -0.04373358 -0.11968847 0.27123323 -0.41329813
-0.1578882 -0.09996785 0.693983 -0.11395605 0.4459911 -0.62431186 -0.36052954 -0.3414189
0.03583129 -0.4737195 0.27641863 -0.22886814 0.1365814 -0.38892144 0.33340916 -0.23434813
0.31061193 -0.42409006 0.42535985 0.30575332 -0.13239284 -0.1550851 -0.29927772 -0.07258536
00000000: 7eac 1cbd 34f2 503e 5394 fdbd 389b 043f
00000010: 91c1 953c 1cc3 2b3e 5bd9 153f dd78 1abf
00000020: 4a35 2cbe eb98 69be 7eeb 40bd 27a6 ccbe
00000030: ab45 003e 5423 95bd 2b53 2d3f f3a6 6fbe
00000040: 84c4 a1be 67e0 80bf 89e9 863e cada 0a3d
00000050: 304f 4fbe 0394 f2be e77b 213d cf31 8cbc
00000060: 0586 8d3d df00 3c3e e9ef df3d 4083 c63e
00000070: f795 593e 9b85 303d 3aec c1be 0ea2 0a3e
00000080: 006b 84bd 027a 39be 64d5 7d3c 3843 c53d
00000090: 2d3e a5be ea9c 5a3f df42 2f3d 215b f33c
000000a0: 7d1e 1abe aa32 0bbf bbd8 433c 5c3e f03e
000000b0: 00be 0f3e ec38 af3e e05b 513e 0fae 383d
000000c0: 6715 7c3e 701c 11bf 18b5 e1be 57d1 32bc
000000d0: 1a51 c3bd 21f6 dd3e 9fb2 563d a97e ca3d
000000e0: eb8d 383f c7b8 a43c 8d6a 103e 0bc0 71bf
000000f0: bdf4 103f 6e94 3ebd b382 ea3e 3f4e 903e
00000100: ad61 473d 9062 f33e ef5c c2be e064 14bf
00000110: c187 7b3f e742 71be f97d cdbc dff4 ac3d
00000120: 080b 263e ce50 bb3d 9434 c93d 1fb6 463e
00000130: 8e24 e53e d5e3 253d 2a8d efbd 1f40 5c3e
00000140: d3e1 55be ef28 7d3e 9949 a83d e3b4 a93d
00000150: 76bd 583f 2221 fa3d 3e08 51be 1b89 4fbe
00000160: 9dee e13e 9443 5f3d e694 2c3e 4c9f 5e3e
00000170: 5d8b cb3e d8a4 7f3e 538c 10be a7c8 f73e
00000180: ee28 78be 28de fa3e 35db 7fbd a945 2f3e
00000190: 3b77 0c3f 1857 163f af07 333e a5b7 023e
000001a0: 9b61 1a3e a0d7 31be f2f3 3bbf 026a eabe
000001b0: e339 233f f4e2 90bd 1e0c a33f 8078 4a3f
000001c0: 32ed 20bf d670 3e3c 12d3 abbc 631b b63e
000001d0: 013c 1b3f 8ccc 6ebe 67ab 9d3e aae0 cd3e
000001e0: d3ec c3bd eeca 9dbe d9ae ce3e 1b1b 8ebe
000001f0: f19e 62be 07a3 913d d811 583f 8f83 473f
00000200: ecf6 d43e 4bfb afbe 5082 7fbb 31b4 823c
00000210: abbd 2fb8 545c af3e 2513 0a3e f391 02be
00000220: 19be 44be 4f8d 9f3d 9021 bbbe 5c8a 373d
00000230: 746a 2fbe d653 a8be ad5b 5ebe 144b 663e
00000240: e749 3b3e fb5d 133f cc35 943e fff2 c0be
00000250: b584 65bc ac83 8e3e d529 dd3d 60bf 003e
00000260: 3298 1b3c d571 17bf 32a6 3ebe 16c7 d0bd
00000270: 7855 40bf e181 3ebe 083e e0bd 5eaa 8f3e
00000280: 939f 16be c470 14be 1bcd 0ebe e54c 8f3e
00000290: aac2 663f 76e9 e4be 324f 49bf 2aa7 d6be
000002a0: 004e 0d3f 0b5d ed3d e61f 693e 5174 fbbe
000002b0: 77f3 14bd 5b89 87be 767e e33d 3c4e 5ebe
000002c0: 7566 403e fe29 303f 1b5f 98be 6c42 b7bd
000002d0: 5756 2abe d02b eb3e 1bad 25be 9fbb 83be
000002e0: fce9 e73a 4d4d 20be c550 cbbd 309c 273f
000002f0: de8c 60bf 401a c1bc 6908 ed3e 82f0 d53e
00000300: 15d8 893e e39e 343f fabd 0b3f 01e8 3f3e
00000310: 3a91 0f3f 2c47 92bd c0ac 043f ad14 0c3e
00000320: 795a 4abe bd21 103c 7c38 dcbe e225 07bc
00000330: 3cd0 2ebe 4484 25bf 7384 8d3e 6874 67be
00000340: 7dc1 023e a03b 83be a8ad bf3e 18ba 13bd
00000350: 52a2 c13e 093e 143e 764e 983d b606 6fbe
00000360: d8c7 20bf 333f 7cbe a6d4 323f 72b5 3fbf
00000370: 0cf7 9b3e f781 223d a660 b4bd 524e 793d
00000380: 1f60 ba3d ec47 f7be 0b83 c2bf 7c07 63bd
00000390: fb21 33bd 3b1f f5bd 15df 8a3e d09b d3be
000003a0: 72ad 21be f2bb ccbd dfa8 313f ca61 e9bd
000003b0: f258 e43e e7d2 1fbf 5497 b8be 75ce aebe
000003c0: d5c3 123d 5d8b f2be be86 8d3e 695c 6abe
000003d0: ffdb 0b3e b620 c7be 9bb4 aa3e f5f8 6fbe
000003e0: 8708 9f3e 5522 d9be c4c8 d93e b38b 9c3e
000003f0: fd91 07be a1ce 1ebe ee3a 99be a2a7 94bd

layernorm.weight f4 [150]
1.0 1.0 1.0 1.0 1.0 1.0 1.0 1.0
1.0 1.0 1.0 1.0 1.0 1.0 1.0 1.0
1.0 1.0 1.0 1.0 1.0 1.0 1.0 1.0
1.0 1.0 1.0 1.0 1.0 1.0 1.0 1.0
1.0 1.0 1.0 1.0 1.0 1.0 1.0 1.0
1.0 1.0 1.0 1.0 1.0 1.0 1.0 1.0
1.0 1.0 1.0 1.0 1.0 1.0 1.0 1.0
1.0 1.0 1.0 1.0 1.0 1.0 1.0 1.0
1.0 1.0 1.0 1.0 1.0 1.0 1.0 1.0
1.0 1.0 1.0 1.0 1.0 1.0 1.0 1.0
1.0 1.0 1.0 1.0 1.0 1.0 1.0 1.0
1.0 1.0 1.0 1.0 1.0 1.0 1.0 1.0
1.0 1.0 1.0 1.0 1.0 1.0 1.0 1.0
1.0 1.0 1.0 1.0 1.0 1.0 1.0 1.0
1.0 1.0 1.0 1.0 1.0 1.0 1.0 1.0
1.0 1.0 1.0 1.0 1.0 1.0 1.0 1.0
1.0 1.0 1.0 1.0 1.0 1.0 1.0 1.0
1.0 1.0 1.0 1.0 1.0 1.0 1.0 1.0
1.0 1.0 1.0 1.0 1.0 1.0
00000000: 0000 803f 0000 803f 0000 803f 0000 803f
00000010: 0000 803f 0000 803f 0000 803f 0000 803f
00000020: 0000 803f 0000 803f 0000 803f 0000 803f
00000030: 0000 803f 0000 803f 0000 803f 0000 803f
00000040: 0000 803f 0000 803f 0000 803f 0000 803f
00000050: 0000 803f 0000 803f 0000 803f 0000 803f
00000060: 0000 803f 0000 803f 0000 803f 0000 803f
00000070: 0000 803f 0000 803f 0000 803f 0000 803f
00000080: 0000 803f 0000 803f 0000 803f 0000 803f
00000090: 0000 803f 0000 803f 0000 803f 0000 803f
000000a0: 0000 803f 0000 803f 0000 803f 0000 803f
000000b0: 0000 803f 0000 803f 0000 803f 0000 803f
000000c0: 0000 803f 0000 803f 0000 803f 0000 803f
000000d0: 0000 803f 0000 803f 0000 803f 0000 803f
000000e0: 0000 803f 0000 803f 0000 803f 0000 803f
000000f0: 0000 803f 0000 803f 0000 803f 0000 803f
00000100: 0000 803f 0000 803f 0000 803f 0000 803f
00000110: 0000 803f 0000 803f 0000 803f 0000 803f
00000120: 0000 803f 0000 803f 0000 803f 0000 803f
00000130: 0000 803f 0000 803f 0000 803f 0000 803f
00000140: 0000 803f 0000 803f 0000 803f 0000 803f
00000150: 0000 803f 0000 803f 0000 803f 0000 803f
00000160: 0000 803f 0000 803f 0000 803f 0000 803f
00000170: 0000 803f 0000 803f 0000 803f 0000 803f
00000180: 0000 803f 0000 803f 0000 803f 0000 803f
00000190: 0000 803f 0000 803f 0000 803f 0000 803f
000001a0: 0000 803f 0000 803f 0000 803f 0000 803f
000001b0: 0000 803f 0000 803f 0000 803f 0000 803f
000001c0: 0000 803f 0000 803f 0000 803f 0000 803f
000001d0: 0000 803f 0000 803f 0000 803f 0000 803f
000001e0: 0000 803f 0000 803f 0000 803f 0000 803f
000001f0: 0000 803f 0000 803f 0000 803f 0000 803f
00000200: 0000 803f 0000 803f 0000 803f 0000 803f
00000210: 0000 803f 0000 803f 0000 803f 0000 803f
00000220: 0000 803f 0000 803f 0000 803f 0000 803f
00000230: 0000 803f 0000 803f 0000 803f 0000 803f
00000240: 0000 803f 0000 803f 0000 803f 0000 803f
00000250: 0000 803f 0000 803f

layernorm.bias f4 [150]
0.0 0.0 0.0 0.0 0.0 0.0 0.0 0.0
0.0 0.0 0.0 0.0 0.0 0.0 0.0 0.0
0.0 0.0 0.0 0.0 0.0 0.0 0.0 0.0
0.0 0.0 0.0 0.0 0.0 0.0 0.0 0.0
0.0 0.0 0.0 0.0 0.0 0.0 0.0 0.0
0.0 0.0 0.0 0.0 0.0 0.0 0.0 0.0
0.0 0.0 0.0 0.0 0.0 0.0 0.0 0.0
0.0 0.0 0.0 0.0 0.0 0.0 0.0 0.0
0.0 0.0 0.0 0.0 0.0 0.0 0.0 0.0
0.0 0.0 0.0 0.0 0.0 0.0 0.0 0.0
0.0 0.0 0.0 0.0 0.0 0.0 0.0 0.0
0.0 0.0 0.0 0.0 0.0 0.0 0.0 0.0
0.0 0.0 0.0 0.0 0.0 0.0 0.0 0.0
0.0 0.0 0.0 0.0 0.0 0.0 0.0 0.0
0.0 0.0 0.0 0.0 0.0 0.0 0.0 0.0
0.0 0.0 0.0 0.0 0.0 0.0 0.0 0.0
0.0 0.0 0.0 0.0 0.0 0.0 0.0 0.0
0.0 0.0 0.0 0.0 0.0 0.0 0.0 0.0
0.0 0.0 0.0 0.0 0.0 0.0
00000000: 0000 0000 0000 0000 0000 0000 0000 0000
00000010: 0000 0000 0000 0000 0000 0000 0000 0000
00000020: 0000 0000 0000 0000 0000 0000 0000 0000
00000030: 0000 0000 0000 0000 0000 0000 0000 0000
00000040: 0000 0000 0000 0000 0000 0000 0000 0000
00000050: 0000 0000 0000 0000 0000 0000 0000 0000
00000060: 0000 0000 0000 0000 0000 0000 0000 0000
00000070: 0000 0000 0000 0000 0000 0000 0000 0000
00000080: 0000 0000 0000 0000 0000 0000 0000 0000
00000090: 0000 0000 0000 0000 0000 0000 0000 0000
000000a0: 0000 0000 0000 0000 0000 0000 0000 0000
000000b0: 0000 0000 0000 0000 0000 0000 0000 0000
000000c0: 0000 0000 0000 0000 0000 0000 0000 0000
000000d0: 0000 0000 0000 0000 0000 0000 0000 0000
000000e0: 0000 0000 0000 0000 0000 0000 0000 0000
000000f0: 0000 0000 0000 0000 0000 0000 0000 0000
00000100: 0000 0000 0000 0000 0000 0000 0000 0000
00000110: 0000 0000 0000 0000 0000 0000 0000 0000
00000120: 0000 0000 0000 0000 0000 0000 0000 0000
00000130: 0000 0000 0000 0000 0000 0000 0000 0000
00000140: 0000 0000 0000 0000 0000 0000 0000 0000
00000150: 0000 0000 0000 0000 0000 0000 0000 0000
00000160: 0000 0000 0000 0000 0000 0000 0000 0000
00000170: 0000 0000 0000 0000 0000 0000 0000 0000
00000180: 0000 0000 0000 0000 0000 0000 0000 0000
00000190: 0000 0000 0000 0000 0000 0000 0000 0000
000001a0: 0000 0000 0000 0000 0000 0000 0000 0000
000001b0: 0000 0000 0000 0000 0000 0000 0000 0000
000001c0: 0000 0000 0000 0000 0000 0000 0000 0000
000001d0: 0000 0000 0000 0000 0000 0000 0000 0000
000001e0: 0000 0000 0000 0000 0000 0000 0000 0000
000001f0: 0000 0000 0000 0000 0000 0000 0000 0000
00000200: 0000 0000 0000 0000 0000 0000 0000 0000
00000210: 0000 0000 0000 0000 0000 0000 0000 0000
00000220: 0000 0000 0000 0000 0000 0000 0000 0000
00000230: 0000 0000 0000 0000 0000 0000 0000 0000
00000240: 0000 0000 0000 0000 0000 0000 0000 0000
00000250: 0000 0000 0000 0000

batchnorm.weight f4 [150]
0.16687222 0.123154916 -0.30151433 1.2372316 -0.21898106 0.115061596 -0.2222903 0.23263894
-0.27439904 0.09735678 0.19074793 0.76131856 -0.6732146 0.1850461 1.551558 -0.17908551
1.7871364 -0.31384364 0.33683947 0.4369945 0.06954066 0.09052431 0.15959889 -0.06017661
-0.0547859 -0.05935656 0.16190912 1.0882642 1.561997 0.2342178 0.37700492 0.5648399
-0.063507006 -0.2030274 -0.09124173 0.13033953 -0.020819051 1.3432631 0.205748 0.1344913
1.1293446 0.15262237 0.11382634 -0.14576645 -0.20480293 -0.25551987 -0.078399085 0.23493554
0.2863301 1.7427139 0.23292904 0.033950303 0.34368283 0.40462866 0.37254706 1.0164431
0.8781606 0.2533277 -0.6434814 -0.368433 0.95885754 -0.07982863 -0.92781436 -0.13044073
0.07947514 0.67647225 0.65558255 0.0060880044 -1.0189686 0.26231596 0.5317436 0.0023979452
0.22693115 0.099043936 0.679697 0.49312547 -0.11078463 0.04392264 -0.045159724 0.92819
-0.24878573 -0.06803769 0.032795813 0.14474283 -1.0672776 0.24458937 0.69591784 2.2412357
1.1066008 -0.20279923 0.22926605 -0.07499854 0.90893096 -0.27546936 0.09734967 0.051958453
-0.3978615 1.3661965 0.17875677 0.697335 0.8042459 -0.33383194 -0.1260816 0.5953529
0.28109264 0.1332086 0.23696777 -0.23035422 0.7428691 0.035733435 -0.20504928 0.9958689
0.24643555 0.2647115 -0.27475485 0.29595146 0.28182575 -0.08077189 -0.3624747 0.36488757
0.07820134 0.3352146 0.70524347 1.4749298 0.13579232 0.3486581 2.1681962 -0.27889514
0.30592763 1.185777 0.08057765 0.06293396 0.5748336 0.04583278 0.39133987 0.059517846
1.2197751 0.0844676 0.78786176 0.49727175 0.45762992 -0.078031614 -0.025504759 -0.010983818
-0.06311215 0.6383913 -0.02774105 0.57276964 0.46185264 -0.22661057
00000000: 8de0 2a3e a538 fc3d 1660 9abe 9b5d 9e3f
00000010: 923c 60be 6aa5 eb3d 12a0 63be e738 6e3e
00000020: 087e 8cbe fe62 c73d 6d53 433e c6e5 423f
00000030: cb57 2cbf ba7c 3d3e 7499 c63f 3162 37be
00000040: e3c0 e43f 1db0 a0be 3976 ac3e bebd df3e
00000050: 556b 8e3d cf64 b93d e46d 233e c07b 76bd
00000060: 2e67 60bd dd1f 73bd 81cb 253e 3e4c 8b3f
00000070: 85ef c73f cad6 6f3e ca06 c13e 5999 103f
00000080: f60f 82bd 6ae6 4fbe f2dc babd ba77 053e
00000090: b78c aabc 0cf0 ab3f 9baf 523e 16b8 093e
000000a0: 5d8e 903f 0a49 1c3e c91d e93d cd43 15be
000000b0: dcb7 51be 80d3 82be b38f a0bd f192 703e
000000c0: dc99 923e 4011 df3f f384 6e3e 790f 0b3d
000000d0: 32f7 af3e 7d2b cf3e 7dbe be3e cf1a 823f
000000e0: 22cf 603f 2bb4 813e 32bb 24bf 40a3 bcbe
000000f0: b077 753f 317d a3bd 3e85 6dbf 4192 05be
00000100: ddc3 a23d 492d 2d3f 42d4 273f e27d c73b
00000110: 906d 82bf 474e 863e 5920 083f d826 1d3b
00000120: a460 683e 8cd7 ca3d 9f00 2e3f f17a fc3e
00000130: 0de3 e2bd 3ae8 333d 67f9 38bd dc9d 6d3f
00000140: b0c1 7ebe 5857 8bbd e754 063d 7737 143e
00000150: 8d9c 88bf a375 7a3e ac27 323f 6870 0f40
00000160: 18a5 8d3f 9aaa 4fbe b8c4 6a3e d698 99bd
00000170: b3af 683f 520a 8dbe 445f c73d 63d2 543d
00000180: 81b4 cbbe 87df ae3f 040c 373e 8c84 323f
00000190: 0fe3 4d3f 05ec aabe 891b 01be 0c69 183f
000001a0: 60eb 8f3e d667 083e aea7 723e fae1 6bbe
000001b0: ab2c 3e3f 395d 123d 70f8 51be 44f1 7e3f
000001c0: 9a59 7c3e 4488 873e abac 8cbe f386 973e
000001d0: 774b 903e bc6b a5bd 4996 b9be 8bd2 ba3e
000001e0: 0628 a03d 40a1 ab3e d68a 343f 80ca bc3f
000001f0: 240d 0b3e 5183 b23e bac3 0a40 58cb 8ebe
00000200: 8ca2 9c3e 8ac7 973f e505 a53d 85e3 803d
00000210: 4b28 133f 27bb 3b3d b35d c83e fcc8 733d
00000220: 9721 9c3f 59fd ac3d 4fb1 493f 679a fe3e
00000230: 784e ea3e 0acf 9fbd 5bef d0bc 79f5 33bc
00000240: f140 81bd 9d6d 233f 3341 e3bc 08a1 123f
00000250: f377 ec3e 9a0c 68be

batchnorm.bias f4 [150]
1.0079699 0.4425957 0.54264456 0.28947142 0.6833218 0.629511 0.6055869 0.69960356
0.43694627 0.73048717 0.554742 0.8557787 0.5842149 0.80877596 -1.1259003 0.5358267
0.097549774 0.648831 0.77278703 0.7409696 0.578972 0.37202576 0.6162883 0.9298365
0.8265832 0.6281718 0.7657359 -0.7606214 0.21331275 0.636852 0.74816257 -0.69078845
0.61650705 0.6723145 0.7556542 0.8064216 0.71633434 0.3354559 0.65267855 0.9045759
-0.7648906 0.86663646 1.0511906 0.7178988 0.77743584 0.75291187 0.96705395 0.5362705
-0.84383535 0.32762247 0.8525028 0.484551 0.98166305 -0.5169634 0.9789876 1.0584335
0.26839703 0.63821405 0.53621864 0.7262259 -0.69037867 0.7809342 0.47993746 0.68794477
-0.45258132 0.4724794 0.7917676 0.48972282 0.6432384 0.7408437 0.75726724 -0.8265776
0.66006917 1.0473642 0.23172304 0.7981733 0.43365595 1.2790833 0.6605715 0.52288663
0.68881 0.5682572 0.5123037 -0.77842844 0.7702665 0.8387839 -0.7768595 0.045981057
-0.743729 0.7735386 0.81931067 0.7815483 0.6600736 0.77739656 0.61348695 0.5928479
0.64431065 0.3222037 0.74297994 0.44403192 -0.8737952 0.5738686 0.5853201 0.7827775
0.9029131 1.1139177 0.8636084 0.83320874 0.49436694 0.91542286 0.5695943 0.652444
0.38652197 0.5720005 0.59075326 0.6382246 -0.8276563 0.4788291 0.6753577 0.8397616
0.7271666 0.80760276 0.8504075 0.509768 0.8410646 0.7898559 0.21112275 0.8119777
0.6227529 0.30103558 -0.7861038 0.48831922 0.9564065 0.7343825 0.71416366 0.5465732
0.4550708 0.82780176 -0.6562152 0.041979536 -0.55482453 0.52278894 1.0180427 0.7088788
0.46448448 0.6287716 0.5601435 0.4732624 0.7552684 0.8523741
00000000: 2805 813f e79b e23e c1ea 0a3f 9935 943e
00000010: 2dee 2e3f a227 213f be07 1b3f 3819 333f
00000020: 6cb7 df3e 3501 3b3f 9203 0e3f 5014 5b3f
00000030: 1c8f 153f f10b 4f3f 801d 90bf f02b 093f
00000040: 2dc8 c73d ca19 263f 5fd5 453f 2fb0 3d3f
00000050: 8237 143f 297a be3e 12c5 1d3f c409 6e3f
00000060: f59a 533f decf 203f 4507 443f 16b8 42bf
00000070: a86e 5a3e bc08 233f 9587 3f3f 83d7 30bf
00000080: 68d3 1d3f ce1c 2c3f 8e72 413f a571 4e3f
00000090: b061 373f e0c0 ab3e f115 273f 4992 673f
000000a0: dfcf 43bf e3db 5d3f 6a8d 863f 37c8 373f
000000b0: 0906 473f d5be 403f d990 773f 0649 093f
000000c0: 9805 58bf 22be a73e a03d 5a3f 1217 f83e
000000d0: 454e 7b3f b757 04bf ee9e 7a3f c07a 873f
000000e0: 566b 893e ff61 233f a045 093f f1e9 393f
000000f0: a8bc 30bf 4eeb 473f 5dba f53e 261d 303f
00000100: bdb8 e7be d2e8 f13e 48b1 4a3f f3bc fa3e
00000110: 46ab 243f efa7 3d3f 44dc 413f 979a 53bf
00000120: 4bfa 283f 0810 863f ce48 6d3e 1655 4c3f
00000130: 2708 de3e 00b9 a33f 371b 293f e6db 053f
00000140: da55 303f 4e79 113f 5626 033f 1647 47bf
00000150: 2f30 453f 8bba 563f 44e0 46bf a256 3c3d
00000160: 0665 3ebf a006 463f 58be 513f 8d13 483f
00000170: 95fa 283f 7603 473f 7b0d 1d3f e1c4 173f
00000180: 8bf1 243f e2f7 a43e ef33 3e3f 2758 e33e
00000190: 0bb1 5fbf 0de9 123f 8ad7 153f 1b64 483f
000001a0: 5025 673f db94 8e3f 7115 5d3f 2b4d 553f
000001b0: aa1d fd3e 2759 6a3f efd0 113f 9206 273f
000001c0: 35e6 c53e a06e 123f 9b3b 173f b062 233f
000001d0: 49e1 53bf 1629 f53e 3ee4 2c3f 9efa 563f
000001e0: 9727 3a3f 0ebf 4e3f 4eb4 593f 2880 023f
000001f0: 0250 573f ff33 4a3f 9030 583e c5dd 4f3f
00000200: bc6c 1f3f 5621 9a3e 193e 49bf fa04 fa3e
00000210: 0ed7 743f 7e00 3c3f 6ed3 363f 39ec 0b3f
00000220: 0aff e83e d1ea 533f b8fd 27bf bcf2 2b3d
00000230: fb08 0ebf 7fd5 053f 394f 823f 1579 353f
00000240: e9d0 ed3e 2df7 203f 9065 0f3f 734f f23e
00000250: 4559 413f 3035 5a3f

batchnorm.running_mean f4 [150]
-0.0018881279 0.92907023 -0.00545499 0.85906726 0.03331651 -0.7420142 -0.73129594 4.9208313e-07
0.005297797 -0.006140189 -0.0005098637 -0.008159079 -0.015422335 -0.014901792 0.7958775 0.0021456727
0.3698594 -0.1927935 0.9687017 -0.038176816 -0.01908927 -0.0022592733 -0.012777506 0.01332406
-0.009096423 -0.73591137 0.40154997 0.91310436 0.51508737 -0.05883369 -0.00093917875 0.94624263
0.002839105 -6.8677836e-10 0.006188186 0.71691805 -6.571835e-08 -0.12828802 0.5638804 -0.0043076146
-0.843716 -0.011995277 -0.0062378766 -0.94509006 -0.9505113 -0.9530136 -0.9208236 -0.020436417
0.960291 0.6851344 -0.012435344 -6.901578e-07 -0.06998565 0.031696532 -0.050994676 0.90248066
-0.11959666 -0.023131132 0.18073909 0.01666619 -0.89200383 0.00014369021 -0.88381094 0.0012247962
-0.00080371037 -0.073056996 0.00013091731 -0.0057826987 0.14099327 -0.02211178 -0.1337685 -0.009000997
-0.01244978 -0.09648132 -0.03297919 0.386308 0.07758121 -0.0016312836 2.977388e-05 -0.070314474
0.07180993 -0.7446436 0.7138435 -0.0060044024 0.096864454 0.5683564 -0.017720869 0.40113366
0.7229232 -0.7160359 -0.002739906 -0.74754965 -0.17868689 0.04366346 -0.0041621127 -0.0032678193
0.0025034954 0.50139797 -0.1618227 -0.013675758 0.75714064 -0.9455667 0.0045903944 0.5003473
-0.0016158428 -0.001928724 -0.020627452 -2.0091837e-05 0.6203764 -0.0014826122 0.8683652 -0.12639211
0.04569138 0.5679375 -0.728028 -0.95407116 0.87056667 0.009339554 -0.95327175 -0.012230611
0.0022628636 -0.009901665 0.95851934 0.67400736 -0.003799214 -0.033318296 0.8758549 0.17158346
0.7307998 0.5733128 -1.0557656e-05 -0.0006651333 0.550936 0.75730884 -0.005826822 7.759863e-06
0.47901452 -0.04218227 0.033901352 0.008333314 0.00923539 0.00026947772 0.0037457189 0.009036833
-0.9074424 -0.17413501 0.086008966 0.03412223 -0.07148274 -0.74125755
00000000: 0f7b f7ba 8cd7 6d3f c6bf b2bb d5eb 5b3f
00000010: e576 083d a5f4 3dbf 3636 3bbf b217 0435
00000020: 2499 ad3b a333 c9bb 60a8 05ba a8ad 05bc
00000030: f6ad 7cbc a526 74bc a1be 4b3f 6a9e 0c3b
00000040: 365e bd3e a96b 45be d6fc 773f 4b5f 1cbd
00000050: 1a61 9cbc 5110 14bb bf58 51bc 284d 5a3c
00000060: 2a09 15bc b064 3cbf f597 cd3e 35c1 693f
00000070: c4dc 033f 98fb 70bd 3833 76ba f53c 723f
00000080: 4710 3a3b bbc7 3cb0 44c6 ca3b f187 373f
00000090: 0c21 8db3 ef5d 03be 775a 103f e426 8dbb
000000a0: c6fd 57bf d787 44bc 1a67 ccbb 6cf1 71bf
000000b0: b554 73bf b3f8 73bf 18bb 6bbf 466a a7bc
000000c0: a2d5 753f f864 2f3f 9dbd 4bbc 4843 39b5
000000d0: a354 8fbd 39d4 013d cbdf 50bd f908 673f
000000e0: 18ef f4bd 807d bdbc ab13 393e 8987 883c
000000f0: 5d5a 64bf 8cab 1639 6f41 62bf 5789 a03a
00000100: 17b0 52ba e89e 95bd d946 0939 cb7c bdbb
00000110: 8a60 103e c323 b5bc 9cfa 08be eb78 13bc
00000120: 29fa 4bbc 0098 c5bd 3015 07bd 2aca c53e
00000130: e6e2 9e3d cbd0 d5ba ecc2 f937 0901 90bd
00000140: 1611 933d f7a0 3ebf 73be 363f 94c0 c4bb
00000150: df60 c63d ce7f 113f 5b2b 91bc 6461 cd3e
00000160: 7f11 393f 214e 37bf ff8f 33bb 6a5f 3fbf
00000170: b2f9 36be 75d8 323d 5562 88bb e928 56bb
00000180: af11 243b 9e5b 003f dab4 25be 4910 60bc
00000190: f8d3 413f a910 72bf 056b 963b c316 003f
000001a0: b0ca d3ba 3dcd fcba e7fa a8bc e48a a8b7
000001b0: fdd0 1e3f 3654 c2ba 2f4d 5e3f ef6c 01be
000001c0: e226 3b3d 5a64 113f 0b60 3abf 023e 74bf
000001d0: 75dd 5e3f ee04 193c 9e09 74bf e762 48bc
000001e0: 8d4c 143b 983a 22bc 8661 753f bf8b 2c3f
000001f0: 3cfc 78bb c478 08bd 0738 603f 93b3 2f3e
00000200: b215 3b3f a1c4 123f ca20 31b7 575c 2eba
00000210: 240a 0d3f fede 413f edee bebb 5c30 0237
00000220: 6441 f53e 51c7 2cbd 25dc 0a3d 7488 083c
00000230: 0950 173c b048 8d39 bc7a 753b 3a0f 143c
00000240: 254e 68bf 7350 32be 7825 b03d c0c3 0b3d
00000250: 8b65 92bd 0ec3 3dbf
