src/results/subject_P14/best_model.pth (torch, 481333 bytes, 15 tensors)

input_linear.weight f4 [40, 40]
00000000: 828d 7ebd 40bf 50bc 7905 1e3e 0a8b 9fbd
00000010: cd14 163e 886c a93c dedd bc3d 9971 eabd
00000020: f088 673c 0fda 003e 608e 563c e814 973c
00000030: 444a 13be 2081 90bc 94a8 8fbd a331 163e
00000040: 80e2 323b f8b7 abbd f9a5 17be 509c a13d
00000050: cdc8 1ebe 5417 8d3d a9d9 1d3e bc4a 4c3d
00000060: e037 3f3d b08e 913d d6d3 b83d dbdd 143e
00000070: d6d1 c33d 9652 f33d 31ac 85bd 0071 4d3c
00000080: 2091 af3c 1e55 57bd bbd5 1d3e 20be 09be
00000090: 5c4b cebd be01 d33d f087 24bc 287d f1bd
000000a0: 5867 d6bd 627c c13d 1a5b 92bd 99ad 0a3e
000000b0: a8ec d4bd 9e19 be3d 525d db3d f8c4 fcbc
000000c0: 5623 aabd 10b1 593c c86e b73c 36b4 e0bd
000000d0: b011 2a3c b062 15bc cd3b 06be 425f e33d
000000e0: 4210 873d 7bdb c1bd 2a3c d83d 6674 ecbd
000000f0: c266 6bbd 3fee 0b3e 7cc7 883d 0019 5d3b
00000100: 30ba 4c3c fcfe a53d 951c 013e e2c3 c23d
00000110: 6caa 07bd ac4d 61bd 6035 e6bb 87a5 0b3e
00000120: 665b 69bd 177a aabd 8075 483b 336c 153e
00000130: 9229 aa3d 2ac1 1ebe 3a1e 18bd 08d0 b33d
00000140: 2258 c73d f663 6abd 0042 343a 7cdf 023d
00000150: d92a 0d3e 0af3 b53d 0389 1c3e e27e df3d
00000160: 84f8 e8bd 5684 853d ed88 b1bd 9f38 12be
00000170: c166 81bd 78e4 473d 82d3 f8bd 5e8c 62bd
00000180: f8bf 2d3d 7294 ea3d 4ce1 a23d 40a7 bdbc
00000190: 5026 083c de33 803d b866 b4bc 3237 b5bd
000001a0: 001c 0d3d fe42 67bd 93c6 173e a88b 353d
000001b0: d2a0 c03d e65f 11bd 5c84 6b3d 325f d5bd
000001c0: 3acb f93d 6e86 c63d 20d2 ba3d ea41 e93d
000001d0: 3069 43bc 7ae6 c93d 7f9e 003e d46d ccbd
000001e0: 789e f93c e81e abbc 8cbf 963d 0e84 7dbd
000001f0: c654 e83d e088 893d c3a5 d6bd 9252 d03d
00000200: 60e5 8ebd 1809 423d 2267 d13d 5870 c23c
00000210: 12c6 a13d 4802 19be 3e97 afbd 9261 d63d
00000220: 2bc6 1c3e d60b f23d 6b18 093e d027 fc3c
00000230: 2ce2 b63d 2215 de3d bef1 efbd 5c50 0fbe
00000240: c2f3 e83d 1523 21be 28e0 6dbd 70b5 443c
00000250: 4a80 dd3d 405f 05be 57b0 063e 333a 0b3e
00000260: 18a5 06be 202e a3bb 6af1 c93d 172e bcbd
00000270: a08c 783d 2a29 ecbd 98fd b33d c5af 193e
00000280: 2e76 d53d 74a6 8a3d 0a38 13be aaa3 cabd
00000290: a853 77bd eaf9 44bd 5c51 9ebd 404f 483b
000002a0: 08c4 bcbc d614 cb3d ddba f5bd e257 c8bd
000002b0: 9498 103d 960a ec3d 008a eb3b a82c aa3c
000002c0: e86b e8bd 4304 003e 399e 0b3e 80b4 e6bc
000002d0: f876 753d 9917 083e ec2d 29bd 80d9 c43c
000002e0: 0095 223b 8851 9dbc f8b3 d9bc e05a 313c
000002f0: 2241 97bd 75b7 1b3e f6d6 f9bd 4874 00bd
00000300: 06c1 933d a22a b03d ded2 c43d 1cb5 713d
00000310: c088 4fbb ccd3 14be c8ac 883c bbf1 0b3e
00000320: 0047 563d c8f8 97bd acce ac3d 4014 813c
00000330: 78e6 9f3c f65f 8d3d f5bf acbd b027 d33c
00000340: a36b a1bd 7076 553d 5662 e53d 16f7 d93d
00000350: 70a8 14bc b414 923d 009e 2cbd 817e 1b3e
00000360: fa03 8ebd f28b 9bbd a0ad 043d 6b10 113e
00000370: 60c6 7cbc b48a 3e3d c6d8 a7bd 1093 55bc
00000380: c48d b73d 0e62 25bd 680b febc 88fc 55bd
00000390: 5ebf da3d b095 483c 7c6b 46bd 8c97 9dbd
000003a0: 320a ec3d 0143 0ebe 49fa 1f3e 9033 0c3c
000003b0: e84b 9e3d 00d4 76bb a8ae 0dbd 09f5 203e
000003c0: 2fc6 94bd 2463 0a3d 3845 1bbd 4971 e4bd
000003d0: b03a e1bc f919 9ebd 8791 153e 83fe 1c3e
000003e0: 288c 4d3d 1c86 0abe deab c63d 0cc3 b5bd
000003f0: b081 7bbc 6e1b a5bd 2fd9 0a3e 5086 4d3c
-0.06214667 -0.01274091 0.15431775 -0.077901915 0.14656372 0.020681635 0.09222005 -0.11447448
0.01413177 0.12583183 0.013095468 0.018442586 -0.14383799 -0.017639697 -0.070145756 0.14667372
0.002729565 -0.08384699 -0.14809407 0.07891142 -0.15506287 0.06889215 0.15415062 0.04987596
0.046684146 0.071072936 0.090247795 0.14537756 0.095615074 0.118809864 -0.065269835 0.012539148
0.021431506 -0.05257141 0.15413563 -0.13451433 -0.100729674 0.10303067 -0.010042176 -0.1179145
-0.1046893 0.09447552 -0.071462825 0.13542785 -0.10396701 0.0928223 0.10711159 -0.03085564
-0.08307521 0.013286844 0.022391692 -0.109718725 0.010380194 -0.009117767 -0.1310875 0.11102153
0.06594898 -0.09465691 0.105583504 -0.11545639 -0.057471044 0.13665102 0.066786736 0.0033736825
0.012495562 0.08105275 0.1260856 0.09510018 -0.03312151 -0.055005714 -0.0070254058 0.13637362
-0.05697193 -0.08324068 0.0030587614 0.14592056 0.0830871 -0.15503374 -0.0371382 0.08779913
0.09733607 -0.057224236 0.000687629 0.031951413 0.13785876 0.08884247 0.15286641 0.10912873
-0.113755256 0.06519382 -0.08668695 -0.14279412 -0.06318427 0.04880187 -0.12149717 -0.055309646
0.042419404 0.11454095 0.07953128 -0.02315104 0.008309916 0.06259893 -0.022021636 -0.08848418
0.03445053 -0.056460373 0.14821844 0.04432264 0.09405674 -0.035491847 0.057499275 -0.10418548
0.121969655 0.09693609 0.091221094 0.11389525 -0.011926934 0.09858413 0.12560461 -0.099818856
0.030471072 -0.02088876 0.073607534 -0.061893515 0.11344294 0.0671556 -0.10480835 0.10171999
-0.069773436 0.047371954 0.10224749 0.02373521 0.07899107 -0.14942276 -0.08573769 0.10467829
0.1530997 0.11818664 0.13388221 0.030780703 0.089298576 0.108438745 -0.117160305 -0.13995498
0.11374618 -0.15736039 -0.0580751 0.012006149 0.10815485 -0.13024616 0.13153206 0.1359642
-0.13148916 -0.0049798638 0.09860499 -0.091884784 0.060680985 -0.11531289 0.087886035 0.15008457
0.104229316 0.0677003 -0.14376846 -0.09894498 -0.060382515 -0.0480899 -0.07730362 0.0030564815
-0.023042694 0.099160835 -0.11998532 -0.09782387 0.03530176 0.115254566 0.0071880817 0.020773247
-0.113487065 0.12501626 0.13634576 -0.028162241 0.05992791 0.13290252 -0.04130356 0.024029493
0.002480805 -0.019203916 -0.026575074 0.010824889 -0.0738547 0.15206702 -0.12199204 -0.031360894
0.07214551 0.086018816 0.09610532 0.05901061 -0.0031667203 -0.14533919 0.016683951 0.13666432
0.052313805 -0.07420498 0.08437857 0.015756726 0.019519076 0.06903069 -0.084350504 0.02577576
-0.07881858 0.052114904 0.11200397 0.10642831 -0.009073362 0.07132855 -0.042142868 0.15184976
-0.06934352 -0.07595052 0.032392144 0.14166419 -0.015428156 0.046518996 -0.08195643 -0.013035551
0.089625865 -0.040376715 -0.031011298 -0.052242786 0.10681032 0.0122427195 -0.04844235 -0.07694921
0.11525382 -0.13892747 0.1562282 0.008557215 0.07729322 -0.0037662983 -0.034590393 0.15718473
-0.07264363 0.033785954 -0.03790781 -0.1115442 -0.027493805 -0.07719798 0.14606296 0.15331464
0.05018249 -0.13527721 0.0970075 -0.08875093 -0.015350744 -0.080618724 0.13559411 0.01254423

input_linear.bias f4 [40]
00000000: b0e2 4abd b0fc d8bc 838d e3bd 8f95 183e
00000010: bf61 003e c892 ef3c ad44 08be b668 9a3d
00000020: 827c edbd be6c d43d 90a9 29bc 8677 69bd
00000030: e438 d0bd 945d 863d 827c e33d 5ac1 e53d
00000040: 78f1 943c 0010 7f38 1c38 5bbd 7d28 e8bd
00000050: 42fc a5bd a8ca 70bd b83e bdbc e42d 0dbe
00000060: de54 fd3d 7c26 963d 20dd 52bd 72c6 e63d
00000070: 40a6 1bbe a275 19be feb6 1dbe a123 1d3e
00000080: aa26 f73d cb57 19be 48a7 8c3d 2564 b1bd
00000090: 26b1 e8bd 46c4 a0bd 1539 a0bd 08b4 a4bd
-0.049532592 -0.026487678 -0.111109756 0.14900802 0.12537287 0.029244795 -0.13307448 0.07539503
-0.115960136 0.103723034 -0.010355368 -0.056998752 -0.10167101 0.06560817 0.11107732 0.112185195
0.018181548 6.081164e-05 -0.053520307 -0.113358475 -0.08104755 -0.058787018 -0.023101196 -0.13787037
0.12369703 0.07331559 -0.051480412 0.11268319 -0.15200138 -0.1498628 -0.15401837 0.15345623
0.120679215 -0.14974897 0.06867844 -0.08661679 -0.113619134 -0.07849936 -0.078233875 -0.08042151

lstm.weight_ih_l0 f4 [600, 40]
00000000: 8ff9 dbbe 2064 3b3f 5c10 273f f686 943f
00000010: bda8 453f 2176 223f c309 273f c9eb 26bf
00000020: 53f0 1abf 0938 28bf faaf 1a3f 7628 683f
00000030: cdf3 c93e b586 263f 7f43 9abf 3008 5fbe
00000040: 3170 353e 6124 173f 70e5 193f 6a32 243f
00000050: 4db6 243f 2ca8 263f 0f94 babd 6fcb 333f
00000060: 5b86 283f ec94 923e 5df1 8b3e b8bd 893e
00000070: 0460 173f 33b0 babe 6ea7 183f 21d0 263f
00000080: de09 183f 4994 353e 3673 bbbd 4c1b 323f
00000090: 66f3 243f 0a91 fb3e 2ec7 f53e 117b 99bf
000000a0: e016 dcbd 9e6b b93e cd90 833e d717 c43e
000000b0: ce1e d23e 8521 783e cdf7 843e ebbe 79be
000000c0: 0bab 81be bd78 7cbe 7f71 883e 5e0a 113e
000000d0: cea5 383e eb8e 803e 5472 8abe 9d51 1f3c
000000e0: 5773 063e d584 813e 8658 803e e5dc 823e
000000f0: 918e 823e 85f5 833e c3d0 453b c6eb 463c
00000100: 88e4 773e ef59 4fbe d826 043e 815c 023e
00000110: 4eb7 883e 9614 ab3d 2261 883e d2f2 853e
00000120: 72f2 823e 602f 023e d3b1 a53b dcda 02ba
00000130: 4167 853e 023d ba3d a6a7 953d d3f9 8abe
00000140: 4b56 90bd 1b9f 963e 6763 863e 8e09 ed3e
00000150: 7a96 313f cf1f 7e3e c37b 6d3e 7f7f 7fbe
00000160: c0c0 4ebe 3e68 7fbe e705 b03e 2c5a 3f3e
00000170: e517 df3d 78a2 773e 0920 e0be 7f36 90be
00000180: 4577 873e da08 a83e 6c13 ab3e 6a71 853e
00000190: 9278 7d3e a58a 843e 0119 b03d a7ed 033e
000001a0: e66e 813e e810 85bd 5e91 c33d 2303 bf3d
000001b0: ad45 a73e 5467 8b3c 7f6f aa3e 39a0 863e
000001c0: 6f14 aa3e 6fb8 833e fc5b d73d 3586 033e
000001d0: 3cdc 843e 01be dcbe 32db e6be 2b94 e1be
000001e0: 308c 15be af6a 943e 81b0 1d3e 1db7 593d
000001f0: 46df a33e 7ca3 293e 28be 2b3e bf59 23be
00000200: d57e 25be 55fb 2dbe 0bf4 173e f49c f63d
00000210: 2a28 0c3e b3af 1d3e 8b7b 0dbe 1418 fc3c
00000220: 591a 813d 3899 223e a294 243e 1aa3 203e
00000230: 72bd 183e 10d7 2d3e 799e 8e3b aaae 8c3c
00000240: 1056 2d3e b7be 1a3d be71 e5bc a767 47bc
00000250: 5b10 203e ec78 fd3d 379d 2a3e 55d1 273e
00000260: bfd8 243e f828 6d3d 5e4f b23b 706e 543c
00000270: e2c7 213e f565 b7bc 8389 d03a aa4f 1bbe
00000280: 2b3e 38be e1fe 5f3d 2f83 653e c331 a83d
00000290: fd88 4f3e e5a2 6d3e 6e25 653e 94e8 65be
000002a0: cc7b 64be 72b8 5ebe 52a6 963e 1c85 01be
000002b0: ae16 be3d 7dc6 653e 8f3d 9fbe f1a9 e4bd
000002c0: d712 46be 34de 8c3e 50a4 983e 859a 693e
000002d0: 5978 653e eaf2 683e e1bb a93d da13 4b3d
000002e0: 42c9 663e be28 b53e 72d6 193e 2980 953d
000002f0: 8d38 943e 642a 923e d7e1 8e3e 2543 6d3e
00000300: 371d 8d3e 68bb 43be ea66 a73d 591c 273d
00000310: b369 5f3e 524d aabc bfe0 743b 5bc0 a7be
00000320: 351b 3cbe 3e9f 003e 3da5 2e3f 6949 fe3d
00000330: b467 293d c627 313f 437f 1e3f 467b 2dbf
00000340: 25fc 20bf 8041 2abf e6f0 383e be92 b3be
00000350: 9f2b 593f 8a8d 353f 81b6 1fbe ba18 d93e
00000360: 4059 11be f7e2 453e cc5b 323e f1a4 2d3f
00000370: 0080 2a3f 449a 2a3f f6f5 58be 54b8 243d
00000380: ecce 2b3f 8ab0 54bc 8efe 3a3f fbd8 3e3f
00000390: e9f4 3d3e de0f c4bd 0da0 383e fcc1 2b3f
000003a0: 7685 413e e2a3 16be 3086 54be d8b5 423d
000003b0: 368d 2a3f 869f 23bf c045 19bf df8d 25be
000003c0: 9db6 c53d 46b9 7bbd 8c01 00be 1d38 99bd
000003d0: e655 f5bd 26d3 05be cea9 dbbd 39d1 f53d
000003e0: 42a7 df3d d190 083e d503 18be 6ecd d4bc
000003f0: be81 a6bd 1921 01be cf9b 273e 60c7 193e
-0.42963836 0.73199654 0.6525934 1.1603687 0.772106 0.634615 0.6524927 -0.6520353
-0.60522956 -0.657105 0.6042477 0.9068674 0.39443818 0.65049297 -1.2051848 -0.21780467
0.17718579 0.59039885 0.6011572 0.64139426 0.6434067 0.6510036 -0.09110271 0.7023229
0.6583001 0.28629243 0.27332583 0.26902556 0.59130883 -0.36462554 0.5963048 0.6516133
0.59390056 0.17732348 -0.09152834 0.695729 0.64433897 0.49134094 0.48003525 -1.1990682
-0.107465506 0.36214918 0.25696412 0.38299438 0.41039127 0.24231537 0.25970307 -0.24389236
-0.25325808 -0.24655433 0.2664909 0.14164111 0.18032 0.25109038 -0.2704035 0.009724048
0.13129936 0.25296655 0.25067538 0.25559154 0.25499395 0.25773254 0.0030184246 0.012141174
0.24208272 -0.2024915 0.12905443 0.127306 0.2670235 0.08353536 0.26636606 0.2616182
0.25575596 0.12713385 0.0050565987 -0.0004991719 0.2605534 0.090936676 0.07307367 -0.27143726
-0.07047709 0.29418263 0.26247713 0.46296352 0.69370234 0.24816822 0.23191743 -0.2495098
-0.20190716 -0.24942109 0.34379503 0.18686742 0.108932294 0.2418307 -0.4377444 -0.28166577
0.26458183 0.32819253 0.33413255 0.2606309 0.24753025 0.25887027 0.08598519 0.12883626
0.2527992 -0.06497365 0.09549211 0.0932677 0.32670346 0.017017044 0.3328819 0.26294115
0.33218715 0.2572665 0.105155915 0.12844165 0.25949275 -0.4311371 -0.45089108 -0.44058356
-0.14604259 0.28987643 0.15399362 0.053153146 0.32006282 0.1656627 0.16771758 -0.15952204
-0.16161664 -0.16990407 0.14839189 0.12041655 0.13687196 0.15399055 -0.13816659 0.0307732
0.063038535 0.15878761 0.16072324 0.15687218 0.14916018 0.16976571 0.0043523875 0.01717313
0.16927361 0.037779536 -0.028008338 -0.012170709 0.15631239 0.1237658 0.16661535 0.16388448
0.16098307 0.0579004 0.00544159 0.0129657835 0.15798905 -0.022387484 0.0015910122 -0.15167108
-0.17992465 0.05468643 0.22413324 0.08212616 0.202671 0.2320667 0.2237756 -0.22452003
-0.2231285 -0.21750048 0.29423767 -0.12648433 0.092816696 0.22438999 -0.31101653 -0.11165226
-0.19343124 0.27513278 0.2981286 0.22812851 0.2240919 0.22748914 0.08287788 0.04957948
0.22537711 0.35382646 0.1502321 0.07299835 0.28949395 0.28547966 0.27906677 0.23170145
0.27561352 -0.19114459 0.08173926 0.04079852 0.21817665 -0.020788822 0.0037365404 -0.32763943
-0.18369754 0.12560746 0.68220884 0.124163456 0.041358665 0.69201314 0.61912936 -0.67766225
-0.6288474 -0.66506195 0.18060645 -0.35072893 0.84832186 0.70919096 -0.15596963 0.42401677
-0.14194202 0.19324861 0.1741783 0.67829806 0.6660156 0.6664164 -0.21187577 0.04021485
0.6711261 -0.012981543 0.7304467 0.74549836 0.18550457 -0.09573339 0.18029805 0.6709287
0.18898568 -0.14710954 -0.20754313 0.0475367 0.6662172 -0.6391529 -0.59872055 -0.16167401
0.09653971 -0.061455987 -0.1250059 -0.07481406 -0.119792745 -0.13068828 -0.10725747 0.12002797
0.10920574 0.13336493 -0.14845212 -0.025976863 -0.08130215 -0.12610282 0.1636803 0.15017462

lstm.weight_hh_l0 f4 [600, 150]
00000000: 123b 1ebf 0c4c a23e b9f0 0ebf 46f4 02bf
00000010: 0ac7 efbe fbc3 30bf b393 d33c 20ca 8a3e
00000020: d978 6b3f 9617 fdbb 0076 1e3f c09b d2be
00000030: 2c0f b7be a03c 2e3e 2ee0 223e 036f cc3c
00000040: 8b3a 2fbe c300 1b3f 3e86 8fbd c4ac e73e
00000050: b976 e2be 12a5 56bd 0aa8 f03b d21f dd3e
00000060: 1803 8bbc 3772 803e 950e bc3f ebe8 02bf
00000070: 6b7d debd d749 c6be a478 063c b4af c73d
00000080: 597b b93e 15ee d83e 6cbf 023e d003 7ebe
00000090: ffc1 753e 80ce 913d 1e08 fc3d 9ce7 cc3e
000000a0: ebed 22bd d368 a6be dc13 e5be 0b31 933d
000000b0: c1ff 383e cce7 4b3d ec86 91be 27d8 c83d
000000c0: 29e8 a3bd 4b66 0f3f c674 1fbf 83be 0d3f
000000d0: 63a6 86be cd20 1e3e 516e dcbe fc46 a5be
000000e0: fe45 adbd 3e46 bf3e a283 c63d 3bca 4abf
000000f0: fe5d c33e f110 cc3e 67f2 743e d85e 0dbc
00000100: c955 3a3d 76cf 90be 02c0 c2be 2465 88be
00000110: eb3a b3be 7cd0 e1be f577 c7be ed54 813d
00000120: 574b 6d3d 9d03 e9bc 64ea 263e b7f0 063f
00000130: f68b 033e b616 54be f545 e9be de03 afbe
00000140: ed01 dcbd 6262 92be ecca 2a3f a408 0ebe
00000150: e588 19be 00b1 493e fc05 01bc 1dd5 d7be
00000160: 82bb adbd f0e2 673e e410 923e 176a e5be
00000170: 1d14 e23c 36ce 06bf 0714 e53f 8b21 cebe
00000180: 27de af3e 7674 a3bb 579f bb3e e7a5 dabe
00000190: e0f7 3f3f 2e9d 8a3d f6c2 06be 335a 46bc
000001a0: 344a 68be f1a3 f9be a31b bbbe 0adc 4dbc
000001b0: 9aed ed3d d697 a63e 22ca 51bf 4060 d9be
000001c0: 2a07 afbe e8cf 05bf 2fd0 e63e cd9a d1be
000001d0: 5e80 b13e 3adf 1fbf 6570 ee3e 9d67 10bf
000001e0: ffe7 9d3e 044a e6be 7b8e e3be a36a 353e
000001f0: 1d13 81be 6d19 05bf 7922 c9be aef5 27be
00000200: fd35 263d ddfa 12be a49d 2c3e 1c1e 3cbe
00000210: 16fe e7be f769 483e 4c8b 273e 82f7 553f
00000220: a3a3 3ebf 7b7e 29be ecfc a7bc ef68 273f
00000230: f598 883d 315c e1be bc0a 49bf 7acf a53d
00000240: 859a 373c c647 e0be 0ed4 1abf f3a1 dfbe
00000250: 82cc a33e 4a29 ea3e ec44 82be 5e9f 5cbd
00000260: 284d 96be 2213 b0be 09f3 9dbd e553 5abe
00000270: 9c3e 733c 5439 69be 2a16 bd3d 2e8a d1bd
00000280: 8d0e 753d 4a46 98be cca8 8ebe 8078 9a3e
00000290: c5ef 21be 3cc2 86bd 3ccd 253d e62d 84bd
000002a0: 780b 6d3e 4247 4e3e 7d96 94be ec2d 3c3d
000002b0: e822 7dbe dab6 c2bd 8bc8 9dbe 3970 003d
000002c0: eedc 543b df24 5c3d 925f a33c fe2d 94bd
000002d0: 7a6c 693c fe39 6ebd d7fc a23e b3ac cf3c
000002e0: 9046 19bd fed3 e3bd 74e6 14bd e273 2e3d
000002f0: 55d7 9a3d 1aa8 0b3e c91b 14bc 5332 79be
00000300: f831 93be ee31 f03b f8e1 793e 68d5 2dbe
00000310: 7f09 9dbe 88c3 5ebe 7c57 a33c 9d04 033e
00000320: e242 6b3e 904e ce3d 6449 babd 258a 81be
00000330: 0478 77be 37ec a5be 27c5 8cbe 82c9 543d
00000340: f2be f7bd 1558 0b3d a929 293d 63c5 fc3d
00000350: 41d8 d63d 2de9 963e e6b5 47bd ffc4 84bc
00000360: 8328 eebc da72 aabe 1121 1dbe 5f37 98be
00000370: 9ff0 89be d186 683d e721 b93b e5be 1abe
00000380: 43e3 733d 6e1b a7bb 8049 f83c 6327 82bd
00000390: fbd0 f4bd 6657 c4bd 5c36 1b3e 3986 77be
000003a0: c02e dd3a e65d 66be 7c11 97bc 23bf ad3d
000003b0: e62d 3e3e 9a0a 90be 4101 78be b552 093e
000003c0: f747 913e 0cff 1abe 449e 8dbe bcd1 02be
000003d0: 57cd 823e 4e29 9abe f64b 46be 4198 ba3a
000003e0: 995f e63d b9a3 9cbe c782 d93d d5e9 6d3d
000003f0: 1798 9fbe fbbf 2f3d 08f2 f13c 4bca f53d
-0.61808884 0.31698644 -0.55836064 -0.5115398 -0.46831542 -0.6904904 0.025827264 0.27107334
0.91981274 -0.007723759 0.61898804 -0.41134453 -0.35753763 0.17015314 0.1590583 0.024955278
-0.17112176 0.6054804 -0.070080265 0.45248997 -0.44231203 -0.052403517 0.0073442506 0.4318834
-0.016969249 0.2508714 1.469195 -0.51136655 -0.10863765 -0.3872821 0.008207474 0.097503096
0.3622692 0.42369142 0.12768334 -0.24806142 0.23999785 0.07119465 0.12306236 0.40020454
-0.039777678 -0.3250185 -0.44741714 0.071870886 0.18066312 0.049781606 -0.2842325 0.09806853
-0.080032654 0.5601546 -0.6228756 0.5536882 -0.26298818 0.154422 -0.43052915 -0.3228072
-0.084606156 0.37358278 0.09693076 -0.7921483 0.38157648 0.39856675 0.23920594 -0.00862857
0.045491967 -0.2828328 -0.38037115 -0.26639664 -0.35005888 -0.44104373 -0.38958707 0.063150264
0.057933178 -0.028444106 0.1630035 0.5271105 0.1284636 -0.20711789 -0.45561185 -0.34182638
-0.10742555 -0.28590685 0.66715884 -0.13870484 -0.14993627 0.19696426 -0.007874962 -0.4215478
-0.0848303 0.22645164 0.28528512 -0.44807503 0.027597481 -0.526584 1.7896737 -0.40259966
0.34349176 -0.0049882485 0.36645004 -0.42704698 0.749876 0.06768261 -0.13160309 -0.012106466
-0.22684556 -0.4875789 -0.36544523 -0.012564668 0.116175845 0.32537717 -0.81949055 -0.42456245
-0.34185153 -0.52270365 0.45080706 -0.40938416 0.3466825 -0.6244999 0.46570125 -0.564081
0.3084106 -0.44978344 -0.4444464 0.1771646 -0.25209895 -0.5199192 -0.39284113 -0.16402313
0.04057883 -0.14353509 0.1685701 -0.18370861 -0.4531104 0.19571672 0.16361731 0.8358079
-0.7446844 -0.16552155 -0.020506345 0.6539449 0.06669799 -0.4401565 -0.78532004 0.08096214
0.011206274 -0.4380476 -0.6047982 -0.43678245 0.31991965 0.45734626 -0.25443208 -0.053862922
-0.2935574 -0.34389597 -0.07712371 -0.21321066 0.01484647 -0.22775775 0.09232743 -0.10231434
0.05982833 -0.29741126 -0.27863157 0.3017006 -0.15814121 -0.06580016 0.04047893 -0.06454067
0.23148906 0.2014437 -0.29021063 0.045942232 -0.24720347 -0.095075324 -0.30817065 0.031357024
0.0032480317 0.0537461 0.019943032 -0.07235335 0.014247054 -0.058160774 0.31833526 0.025350904
-0.03742081 -0.11124419 -0.03635259 0.042590983 0.075606026 0.13638344 -0.009039828 -0.24335603
-0.2874906 0.007330171 0.24402606 -0.1697594 -0.30671307 -0.21754277 0.019939177 0.12794729
0.22974733 0.10073578 -0.090960294 -0.25300708 -0.24166876 -0.3240678 -0.27494165 0.051949985
-0.12096967 0.03401955 0.041299496 0.12342336 0.10490466 0.29474774 -0.048757456 -0.016207216
-0.029072052 -0.3329075 -0.15344645 -0.29729745 -0.26941392 0.056769196 0.0056497934 -0.15111883
0.059542906 -0.0050997054 0.030308485 -0.06355169 -0.11953922 -0.095869824 0.15157455 -0.24172296
0.0016874894 -0.22496757 -0.018440954 0.08483722 0.18572196 -0.28133088 -0.24219228 0.13410456
0.28375217 -0.15136355 -0.2765981 -0.1277532 0.25547287 -0.30109638 -0.19364914 0.0014236049
0.112487026 -0.3059366 0.10620647 0.058084328 -0.31170723 0.042907696 0.029534355 0.12001475

lstm.bias_ih_l0 f4 [600]
00000000: a1e0 283f 23d1 803e 6e11 843e bce6 2f3e
00000010: 8b39 6b3e 9a1f 293f 4e84 06be d77e 7a3e
00000020: 94f5 023f d9b2 0a3e a401 80be d2dd 303e
00000030: 0e9d e63d 8f2b 4f3e a77a 40bd 1417 a73d
00000040: 59c3 9dbd 92ec c73e 9219 c53e d384 513e
00000050: e880 ec3d 7375 cabd f428 2e3e 34c3 fd3f
00000060: d2d0 013e 6e98 73be b17b 983c 2595 b2bd
00000070: f23b c73d 9dbc 2e3e 590d c5bc 7922 1c3e
00000080: 356b ab3e 8413 02bd 6ab0 953e 0abb ff3d
00000090: 6859 df3e e37b b9bd 8855 8cbc 9a09 2f3e
000000a0: 8775 0bbe cb4f b73d 0b66 cf3c 70a0 b4be
000000b0: 4905 183e 7164 8f3d a898 283e 7094 923e
000000c0: 8a60 24bd 6ac4 3f3e aabf 613e 41ce 6f3e
000000d0: 329b 5bbd 960d 8d3e 1e4d 303e c866 4d3e
000000e0: 3a07 4f3e 5cd7 8dbe bb54 13bc 82b6 1c3e
000000f0: 5384 5cbe 1fea 613e 3524 53bc f119 96bd
00000100: e575 443d 5c72 323e 6b63 c0bd 669f 8b3e
00000110: 5301 b03e 4f12 9d3e 9d1a 933e fe6c 46be
00000120: eeb0 1e3d 034a b83d ef0b 88be 4537 02be
00000130: 9fbb ddbe 28f3 123e 8d8d f03e b305 86bc
00000140: 296c 95be 7938 763e 68ca 5bbe 7a91 983e
00000150: fd71 8fbe 9e7d ea3c df0f fbbe 13bc ca3e
00000160: 5655 803d cb0a 9b3e 7f8f 393e 9b7e b6bf
00000170: 98bf c33d 014f f93e 6435 8c3f 4389 4b3f
00000180: 9bb7 fb3e 30ed 543d f192 023e 221e a43e
00000190: 8030 683e 8f85 a9be ae17 473e 6ee3 e7be
000001a0: 390b cdbe 40ec a5bd 299f 6d3e 4214 653e
000001b0: 6782 ae3e 7b1d a23e d705 263f 2838 9d3c
000001c0: 6098 8f3e ab4a ca3e 2db2 1e3f dd1f 263e
000001d0: 6e61 20be 43eb f93e 4c91 8f3e ee92 90bb
000001e0: a5e6 f1bd 84e3 ba3d ff53 ed3e 1b7c 2bbf
000001f0: 6478 893e cf5a bc3e 7252 2a3e 2356 fdbc
00000200: 3cf8 0c3d 8bd4 21bf 2919 5fbd c340 873e
00000210: 0d3f 693e 9588 f8bb 187c 583e b5e2 1fbe
00000220: 49ab 843e 9578 213f 4b0b f9be fcb8 8c3e
00000230: 0c7c 11be 2f8f 8d3e 8e7e 703e cca7 84bc
00000240: 3ce9 853e dfac 933f a555 573e eff8 7b3e
00000250: 7718 233e 5c8a 8dbe 1a5d 08bf 5b6f 843e
00000260: f987 bb3d 8398 a63d 03ed 6e3e 52b9 cfbe
00000270: 2105 aabe f2eb 453e 8e64 4bbe a709 dd3e
00000280: b79c 943e f5a6 64bf dd1e 103e dbb1 853e
00000290: 4105 953d 8282 ba3d 14d8 ba3e 4b53 bebe
000002a0: 23d6 f1bd 65a9 953e 8de1 e93d b4de c13e
000002b0: d922 193e b1aa 98be 157d 01be b28f 24bf
000002c0: d63e b13e e3ec 1dbe 5519 04bf 133e 583e
000002d0: 854b a43e 1cd4 77be 75f0 a93e a66f 6bbe
000002e0: cabb c6be 5218 1e3e aeed 2fbe 6f82 ddbd
000002f0: 863a 1e3e 0732 a33e 7857 63be 4e66 8ebe
00000300: 3ea3 b03e 19f7 48be 8714 94be 714f dcbd
00000310: f47c 98bd fd63 c6be 2648 ccbd 98ef bd3e
00000320: a513 043f 0e2e ad3e 0a56 363e 1d61 9d3d
00000330: 3075 473e 6b2b 883d a586 db3d fb4b b13e
00000340: 603c 053f c170 963e 216c b9bd 3f65 a9be
00000350: 8c96 80bd 03df 8ebe 0cdd b5bd a8e3 e63e
00000360: fc97 183e 927a 6e3e 7e99 b43e 7417 0f3e
00000370: aade 113e 7c6b d2bd b70f 70bc 75d6 e53e
00000380: 01fc f13d b0bd 4dbe c76b b8be 64de 1dbe
00000390: c5e6 a33e c80c a1bb 9538 bc3e 7747 d0be
000003a0: 2e92 8bbe cf21 373e f41f a73d d6bb 3ebd
000003b0: c5d0 e2bd 8747 1a3e d1c7 4a3e 605f d5be
000003c0: b095 1dbe 6cdc 113f a89a d53d 54a1 7f3e
000003d0: 9798 8c3e 68ee 933d 623a a6bd b449 9fbd
000003e0: 4a01 283f 2b25 263f 314b 243f 164a 42be
000003f0: c65f 183e 31a3 55be 3249 a93d 6d4c e9be
0.65967757 0.2515956 0.25794548 0.17177862 0.2297117 0.66063845 -0.13136408 0.24462448
0.5115597 0.13544787 -0.25001252 0.17272118 0.112604246 0.2023146 -0.04699197 0.08158699
-0.07703275 0.39047676 0.3849607 0.20460825 0.115480244 -0.09885683 0.1700781 1.9825196
0.12677315 -0.23788616 0.018613668 -0.08719853 0.097282305 0.17064138 -0.024054216 0.15247525
0.3348023 -0.031756893 0.29236156 0.12486847 0.436229 -0.09056833 -0.017130628 0.17093506
-0.13619052 0.08950766 0.025317213 -0.35278654 0.14845766 0.070015796 0.16464484 0.28628874
-0.04013113 0.1872727 0.2204577 0.23418523 -0.053614803 0.27549428 0.17216918 0.20058739
0.202176 -0.2770337 -0.008992369 0.15303996 -0.21534853 0.22061966 -0.01288705 -0.07329167
0.047963995 0.17426437 -0.093939625 0.2727005 0.3437601 0.3067803 0.28731242 -0.19377515
0.038742952 0.089984916 -0.26571605 -0.12716396 -0.43307206 0.14350569 0.46982995 -0.01636014
-0.29184082 0.2404498 -0.2146393 0.2979849 -0.28016654 0.028624352 -0.49035546 0.39596614
0.062662765 0.30281672 0.18121146 -1.4257387 0.09558028 0.48693088 1.0953794 0.7950632
0.49163517 0.051984012 0.12751366 0.3205424 0.22674751 -0.3310971 0.19442627 -0.45290703
-0.40047625 -0.08101702 0.23205246 0.22371009 0.34083864 0.31663117 0.6485266 0.019191816
0.2804594 0.39510092 0.61990625 0.16223092 -0.15662166 0.48812303 0.2804054 -0.0044120466
-0.1181157 0.091254264 0.46353146 -0.66986245 0.26849663 0.3678803 0.16633013 -0.030924862
0.034416422 -0.6321494 -0.054467354 0.26416597 0.22777958 -0.007584641 0.21141088 -0.15613826
0.2591193 0.6307462 -0.48641428 0.27484882 -0.14207476 0.27648303 0.23485777 -0.016193293
0.26154506 1.1537131 0.21028765 0.2460668 0.15927301 -0.27644622 -0.5326706 0.25866207
0.09156794 0.08134558 0.233326 -0.40571076 -0.33207038 0.19328287 -0.19862577 0.43171427
0.29025814 -0.89317256 0.14074273 0.26112255 0.07276393 0.09106924 0.3649298 -0.37172922
-0.118084215 0.292308 0.114199735 0.37865222 0.149547 -0.29817727 -0.12645371 -0.6428176
0.34618253 -0.15422396 -0.51601154 0.2111743 0.32088867 -0.24202007 0.33191267 -0.22991809
-0.38815147 0.15438965 -0.17180511 -0.10815894 0.15452012 0.31874105 -0.22201335 -0.27812427
0.34499544 -0.1962551 -0.2892191 -0.1075734 -0.07445708 -0.3874816 -0.09974699 0.37096858
0.51592475 0.338242 0.17806259 0.076845385 0.19478297 0.06648906 0.10719041 0.3462828
0.5204525 0.293829 -0.09053827 -0.33085057 -0.062787145 -0.2790452 -0.08880052 0.45095563
0.14901727 0.23288944 0.35273355 0.1397379 0.14245096 -0.10274407 -0.014652184 0.4489018
0.11815644 -0.20091891 -0.36019728 -0.15416867 0.32012 -0.0049148537 0.3676192 -0.40679523
-0.27259964 0.1788399 0.081603914 -0.046565853 -0.11074976 0.15066348 0.19802786 -0.41674328
-0.15389132 0.5697696 0.10429889 0.24963886 0.27460167 0.07223207 -0.081166044 -0.0777773
0.65626967 0.64900464 0.64177233 -0.18973574 0.14880285 -0.20863034 0.08265914 -0.4556612

lstm.bias_hh_l0 f4 [600]
00000000: 0f66 283f ddcb 7a3e 3b1e 853e d4db 1b3e
00000010: a2d8 5f3e f3ca 2b3f 062e 10be 20f6 7e3e
00000020: 2285 013f c687 ec3d 9076 81be 5347 393e
00000030: 9780 f23d e772 4e3e 89fa f0bc 7ce0 cc3d
00000040: 31b8 88bd aff3 c33e f32e c43e 74d6 633e
00000050: 679e e43d a254 c8bd 9885 2a3e 728c fd3f
00000060: 344c e73d 0daa 81be 54ab 8c3c e497 aabd
00000070: eb7f ed3d f4c8 1f3e 8bab e7bc 16e0 2e3e
00000080: ddd5 a93e e64b e9bc 2245 913e 7675 f93d
00000090: eda0 e73e 2ef0 d4bd f019 0bbb cc02 2c3e
000000a0: 294c 18be caa0 a73d 512c ef3c f385 bebe
000000b0: bbb4 243e a986 af3d a2a7 183e 2200 993e
000000c0: baec 1bbd 4e45 3b3e 2170 673e cfec 763e
000000d0: c295 92bd 2ada 8c3e 3d24 183e c042 563e
000000e0: 2229 523e b76d 93be 7973 a8bc 60be 1e3e
000000f0: 56b4 60be bc63 653e f199 77bc b950 a1bd
00000100: d708 523d 6b47 243e 75ea bcbd a66b 8e3e
00000110: 4cff b33e f111 923e a2a2 903e 7ccf 3fbe
00000120: 1017 4f3d 0036 983d 51ae 81be ab2b e6bd
00000130: 65d4 d9be 583c 0e3e 7f32 f53e f09c f4b9
00000140: 360e 98be 03d5 6f3e 5e72 4ebe 3247 963e
00000150: b083 94be 9015 b13c 5942 f7be 1faa c93e
00000160: ea9a 8a3d 796d 963e 3af3 403e 3c5d b5bf
00000170: df6f aa3d 7fc8 f13e c1a2 8d3f 2fa4 4c3f
00000180: a785 f33e 214b 843d afe7 023e cdde a93e
00000190: d746 623e 131f a9be 1d26 473e b7d3 e7be
000001a0: 2be2 d0be d3a2 88bd 44aa 6f3e 847a 713e
000001b0: 50ed b43e e2ca 973e 857b 233f 0160 563c
000001c0: 33c1 953e 18a0 cb3e ed29 1e3f 1e95 213e
000001d0: 9787 15be a92c ff3e 55f9 933e f9bf c0ba
000001e0: 0c86 01be 50c7 c43d fbad f73e c408 2cbf
000001f0: d364 843e 9cf8 b53e f33b 1f3e 82b1 58bc
00000200: 06eb e63c 70fd 1cbf 9278 5dbd 07af 7a3e
00000210: 73c3 6e3e f3ab 033c 6d32 5b3e 4714 11be
00000220: 2c64 8c3e 5365 203f 787a fabe 47d8 933e
00000230: 8184 01be 2c30 8b3e e863 723e ed13 b3bc
00000240: f5d0 893e 4c6b 933f 2213 523e 932f 803e
00000250: 4d61 1c3e 27ae 8ebe 13da 0bbf c0f5 813e
00000260: 9277 c93d a905 c23d 4375 693e 8a57 d0be
00000270: 7930 a2be 151f 513e 842a 50be 7022 e03e
00000280: 2ce3 8d3e d0f1 67bf 04ff 0e3e dd85 863e
00000290: e07c ab3d 2ed4 cb3d 0c44 bb3e 3e6f bfbe
000002a0: e463 02be 6ef6 993e 592e ce3d 12a6 c93e
000002b0: 3f14 143e 04a2 9ebe 250c f7bd 2933 28bf
000002c0: b248 ba3e e759 22be 6085 06bf 0ae1 643e
000002d0: 2a1d a13e 46ee 75be dd1f ae3e 740c 5fbe
000002e0: 0985 c2be d932 213e 4e5e 2cbe 9feb e6bd
000002f0: 2d50 123e 6b01 a33e a6bb 68be 51ca 87be
00000300: 8ec0 b03e 1dd5 3bbe 5db3 9cbe 2052 bdbd
00000310: e0c0 9bbd b023 cebe 68ad b7bd c929 c03e
00000320: f7f9 003f 5e0d ab3e 2f31 3a3e 55d6 b33d
00000330: 85e9 403e 35e2 af3d 4e42 e93d 6ac4 bc3e
00000340: a168 053f 5921 9a3e 1910 bebd 7394 a7be
00000350: e9b1 98bd c01c 95be 5e8a aebd 551e e03e
00000360: 3be2 133e 3cc8 753e 2eca b23e 4284 163e
00000370: cd71 0c3e 2378 c3bd 80f9 b5bb 23ec de3e
00000380: e224 0f3e 2b52 45be ec80 bebe df52 17be
00000390: a183 a23e 5b44 883b d645 b53e 932d d5be
000003a0: 072f 89be 3395 353e 5b8c 8e3d e63a 7bbd
000003b0: 4720 edbd 8d75 243e 41ec 593e b251 debe
000003c0: f074 12be 73aa 113f be88 023e 003d 6a3e
000003d0: 62b6 973e 26e3 8f3d cfca 97bd 379a 9fbd
000003e0: bdee 293f 94c3 223f f9d5 1f3f ef16 3dbe
000003f0: e12b 153e 3c89 50be f9b6 c13d a1d9 e2be
0.6578073 0.2449183 0.25999627 0.15220577 0.21859983 0.6710655 -0.14080057 0.24898577
0.5059377 0.11549334 -0.25285769 0.18093614 0.11840933 0.2016102 -0.02941634 0.100037545
-0.06675757 0.38271853 0.3831707 0.22249776 0.11163025 -0.097817674 0.16652524 1.9808486
0.112938315 -0.2532505 0.01717154 -0.08329752 0.11596664 0.15604001 -0.02828004 0.1707767
0.33170977 -0.028478574 0.28373057 0.12180607 0.45239964 -0.10397373 -0.0021225177 0.16797942
-0.14872803 0.08184965 0.029195936 -0.3721157 0.16084568 0.08570606 0.14907697 0.29882914
-0.038067557 0.18288156 0.22601368 0.24113773 -0.0715747 0.27510196 0.14857574 0.209239
0.20523503 -0.28794643 -0.020562874 0.1550231 -0.21943793 0.22401327 -0.015112386 -0.07876725
0.05127796 0.16042869 -0.09224407 0.27816504 0.35155714 0.28529313 0.2824908 -0.18731493
0.050559103 0.07432175 -0.25328305 -0.11238798 -0.42544857 0.13890207 0.47890088 -0.00046656234
-0.29698342 0.23421101 -0.20160815 0.29351193 -0.2900672 0.021616727 -0.48292807 0.39387605
0.06767829 0.29380396 0.18842784 -1.4169078 0.08322119 0.4722328 1.1065294 0.79938024
0.47562906 0.06459642 0.12783693 0.33177796 0.22097336 -0.3303152 0.19448133 -0.45278713
-0.40797552 -0.06671681 0.23404795 0.23581892 0.35337305 0.29646975 0.6386035 0.013084413
0.29248962 0.3977058 0.61782724 0.1577954 -0.14602505 0.4983876 0.28901163 -0.001470565
-0.12648791 0.09608328 0.48374924 -0.67200875 0.25858173 0.35541236 0.15550213 -0.013225915
0.02818824 -0.61324215 -0.054070063 0.2448083 0.23316745 0.008036601 0.21405955 -0.14167891
0.27420175 0.6265461 -0.4892156 0.28875944 -0.12648202 0.2718519 0.23670924 -0.021860087
0.26917234 1.151712 0.20515111 0.25036296 0.15271492 -0.27867243 -0.5462963 0.25382805
0.09837259 0.09473736 0.22798638 -0.40691787 -0.31677607 0.20422013 -0.20328718 0.43776274
0.2771238 -0.9060335 0.13964468 0.26274005 0.083734274 0.099525794 0.36575353 -0.3738956
-0.12733418 0.30070823 0.10067434 0.39384514 0.14460848 -0.30982983 -0.12062863 -0.65703064
0.36383587 -0.15854608 -0.52547264 0.2235147 0.31467563 -0.24016675 0.34008685 -0.21782094
-0.37992123 0.15742053 -0.1683285 -0.1127541 0.14288397 0.3183702 -0.22727832 -0.26521543
0.34521908 -0.18343015 -0.30605593 -0.0924418 -0.07605147 -0.40261602 -0.089686215 0.3753188
0.50381416 0.33408636 0.18182825 0.08781115 0.1883908 0.085880674 0.113896 0.36868602
0.52112776 0.30103567 -0.09280414 -0.32730445 -0.07455809 -0.29123497 -0.08522485 0.43773142
0.14441769 0.24002165 0.34919876 0.1469889 0.13715287 -0.09544399 -0.0055534244 0.43539533
0.13978913 -0.19269626 -0.37207735 -0.14777707 0.3174105 0.004158539 0.35404843 -0.41636333
-0.26793692 0.17732696 0.069603644 -0.061335467 -0.11578422 0.16060467 0.2128153 -0.43421704
-0.1430242 0.5690071 0.12747476 0.22874832 0.29631335 0.07025747 -0.074117295 -0.07793086
0.6637991 0.6357968 0.6243587 -0.1846578 0.1456752 -0.20364851 0.094587274 -0.44306663

layernorm.weight f4 [150]
00000000: 0000 803f 0000 803f 0000 803f 0000 803f
00000010: 0000 803f 0000 803f 0000 803f 0000 803f
00000020: 0000 803f 0000 803f 0000 803f 0000 803f
00000030: 0000 803f 0000 803f 0000 803f 0000 803f
00000040: 0000 803f 0000 803f 0000 803f 0000 803f
00000050: 0000 803f 0000 803f 0000 803f 0000 803f
00000060: 0000 803f 0000 803f 0000 803f 0000 803f
00000070: 0000 803f 0000 803f 0000 803f 0000 803f
00000080: 0000 803f 0000 803f 0000 803f 0000 803f
00000090: 0000 803f 0000 803f 0000 803f 0000 803f
000000a0: 0000 803f 0000 803f 0000 803f 0000 803f
000000b0: 0000 803f 0000 803f 0000 803f 0000 803f
000000c0: 0000 803f 0000 803f 0000 803f 0000 803f
000000d0: 0000 803f 0000 803f 0000 803f 0000 803f
000000e0: 0000 803f 0000 803f 0000 803f 0000 803f
000000f0: 0000 803f 0000 803f 0000 803f 0000 803f
00000100: 0000 803f 0000 803f 0000 803f 0000 803f
00000110: 0000 803f 0000 803f 0000 803f 0000 803f
00000120: 0000 803f 0000 803f 0000 803f 0000 803f
00000130: 0000 803f 0000 803f 0000 803f 0000 803f
00000140: 0000 803f 0000 803f 0000 803f 0000 803f
00000150: 0000 803f 0000 803f 0000 803f 0000 803f
00000160: 0000 803f 0000 803f 0000 803f 0000 803f
00000170: 0000 803f 0000 803f 0000 803f 0000 803f
00000180: 0000 803f 0000 803f 0000 803f 0000 803f
00000190: 0000 803f 0000 803f 0000 803f 0000 803f
000001a0: 0000 803f 0000 803f 0000 803f 0000 803f
000001b0: 0000 803f 0000 803f 0000 803f 0000 803f
000001c0: 0000 803f 0000 803f 0000 803f 0000 803f
000001d0: 0000 803f 0000 803f 0000 803f 0000 803f
000001e0: 0000 803f 0000 803f 0000 803f 0000 803f
000001f0: 0000 803f 0000 803f 0000 803f 0000 803f
00000200: 0000 803f 0000 803f 0000 803f 0000 803f
00000210: 0000 803f 0000 803f 0000 803f 0000 803f
00000220: 0000 803f 0000 803f 0000 803f 0000 803f
00000230: 0000 803f 0000 803f 0000 803f 0000 803f
00000240: 0000 803f 0000 803f 0000 803f 0000 803f
00000250: 0000 803f 0000 803f
1.0 1.0 1.0 1.0 1.0 1.0 1.0 1.0
1.0 1.0 1.0 1.0 1.0 1.0 1.0 1.0
1.0 1.0 1.0 1.0 1.0 1.0 1.0 1.0
1.0 1.0 1.0 1.0 1.0 1.0 1.0 1.0
1.0 1.0 1.0 1.0 1.0 1.0 1.0 1.0
1.0 1.0 1.0 1.0 1.0 1.0 1.0 1.0
1.0 1.0 1.0 1.0 1.0 1.0 1.0 1.0
1.0 1.0 1.0 1.0 1.0 1.0 1.0 1.0
1.0 1.0 1.0 1.0 1.0 1.0 1.0 1.0
1.0 1.0 1.0 1.0 1.0 1.0 1.0 1.0
1.0 1.0 1.0 1.0 1.0 1.0 1.0 1.0
1.0 1.0 1.0 1.0 1.0 1.0 1.0 1.0
1.0 1.0 1.0 1.0 1.0 1.0 1.0 1.0
1.0 1.0 1.0 1.0 1.0 1.0 1.0 1.0
1.0 1.0 1.0 1.0 1.0 1.0 1.0 1.0
1.0 1.0 1.0 1.0 1.0 1.0 1.0 1.0
1.0 1.0 1.0 1.0 1.0 1.0 1.0 1.0
1.0 1.0 1.0 1.0 1.0 1.0 1.0 1.0
1.0 1.0 1.0 1.0 1.0 1.0

layernorm.bias f4 [150]
00000000: 0000 0000 0000 0000 0000 0000 0000 0000
00000010: 0000 0000 0000 0000 0000 0000 0000 0000
00000020: 0000 0000 0000 0000 0000 0000 0000 0000
00000030: 0000 0000 0000 0000 0000 0000 0000 0000
00000040: 0000 0000 0000 0000 0000 0000 0000 0000
00000050: 0000 0000 0000 0000 0000 0000 0000 0000
00000060: 0000 0000 0000 0000 0000 0000 0000 0000
00000070: 0000 0000 0000 0000 0000 0000 0000 0000
00000080: 0000 0000 0000 0000 0000 0000 0000 0000
00000090: 0000 0000 0000 0000 0000 0000 0000 0000
000000a0: 0000 0000 0000 0000 0000 0000 0000 0000
000000b0: 0000 0000 0000 0000 0000 0000 0000 0000
000000c0: 0000 0000 0000 0000 0000 0000 0000 0000
000000d0: 0000 0000 0000 0000 0000 0000 0000 0000
000000e0: 0000 0000 0000 0000 0000 0000 0000 0000
000000f0: 0000 0000 0000 0000 0000 0000 0000 0000
00000100: 0000 0000 0000 0000 0000 0000 0000 0000
00000110: 0000 0000 0000 0000 0000 0000 0000 0000
00000120: 0000 0000 0000 0000 0000 0000 0000 0000
00000130: 0000 0000 0000 0000 0000 0000 0000 0000
00000140: 0000 0000 0000 0000 0000 0000 0000 0000
00000150: 0000 0000 0000 0000 0000 0000 0000 0000
00000160: 0000 0000 0000 0000 0000 0000 0000 0000
00000170: 0000 0000 0000 0000 0000 0000 0000 0000
00000180: 0000 0000 0000 0000 0000 0000 0000 0000
00000190: 0000 0000 0000 0000 0000 0000 0000 0000
000001a0: 0000 0000 0000 0000 0000 0000 0000 0000
000001b0: 0000 0000 0000 0000 0000 0000 0000 0000
000001c0: 0000 0000 0000 0000 0000 0000 0000 0000
000001d0: 0000 0000 0000 0000 0000 0000 0000 0000
000001e0: 0000 0000 0000 0000 0000 0000 0000 0000
000001f0: 0000 0000 0000 0000 0000 0000 0000 0000
00000200: 0000 0000 0000 0000 0000 0000 0000 0000
00000210: 0000 0000 0000 0000 0000 0000 0000 0000
00000220: 0000 0000 0000 0000 0000 0000 0000 0000
00000230: 0000 0000 0000 0000 0000 0000 0000 0000
00000240: 0000 0000 0000 0000 0000 0000 0000 0000
00000250: 0000 0000 0000 0000
0.0 0.0 0.0 0.0 0.0 0.0 0.0 0.0
0.0 0.0 0.0 0.0 0.0 0.0 0.0 0.0
0.0 0.0 0.0 0.0 0.0 0.0 0.0 0.0
0.0 0.0 0.0 0.0 0.0 0.0 0.0 0.0
0.0 0.0 0.0 0.0 0.0 0.0 0.0 0.0
0.0 0.0 0.0 0.0 0.0 0.0 0.0 0.0
0.0 0.0 0.0 0.0 0.0 0.0 0.0 0.0
0.0 0.0 0.0 0.0 0.0 0.0 0.0 0.0
0.0 0.0 0.0 0.0 0.0 0.0 0.0 0.0
0.0 0.0 0.0 0.0 0.0 0.0 0.0 0.0
0.0 0.0 0.0 0.0 0.0 0.0 0.0 0.0
0.0 0.0 0.0 0.0 0.0 0.0 0.0 0.0
0.0 0.0 0.0 0.0 0.0 0.0 0.0 0.0
0.0 0.0 0.0 0.0 0.0 0.0 0.0 0.0
0.0 0.0 0.0 0.0 0.0 0.0 0.0 0.0
0.0 0.0 0.0 0.0 0.0 0.0 0.0 0.0
0.0 0.0 0.0 0.0 0.0 0.0 0.0 0.0
0.0 0.0 0.0 0.0 0.0 0.0 0.0 0.0
0.0 0.0 0.0 0.0 0.0 0.0

batchnorm.weight f4 [150]
00000000: 1769 9fbd 4cb3 4e3d 1380 77bd 251d 37be
00000010: ade8 c33e 6043 113e c7bb a03e 0970 06be
00000020: 438b 273f 1876 413d 7459 b03e f5cb 27bf
00000030: 9814 db3c 6833 7d3f 6331 233f 1963 a63e
00000040: a15d 8fbd 2e14 8f3f b086 563f 027f 57bd
00000050: 8ba9 7ebd 0f6a 153e 52fc 9d3d 4ef6 0abf
00000060: f1e0 09bd 39c2 8cbe 493c 1c3e 57d7 b53d
00000070: bd5b dd3f 65cb b7bd e57e e5bd fa64 d93e
00000080: f1fa 5d3f 332f b23e 0784 95bc 14f9 a03e
00000090: f735 b33e f527 0ebc 0284 52bd 7d93 253f
000000a0: f16f b6be 227b 3d3f 3b38 393e 6494 d53e
000000b0: a61a 13be 6ead 2f3f fd17 453c 2a1f 403f
000000c0: e5c7 4b3e 2525 b43e bec1 773e 830d 233f
000000d0: c8c1 2f3f 5e10 d33d 6f8d 643f fdcf 03bd
000000e0: 6aad 023e 2407 453f 4718 e93e e30f b03d
000000f0: f253 6dbc c2fe 303f 6aa3 0bbe 312d 7e3f
00000100: 06fd 9a3e c52b 483f 0afc 083e b278 2abe
00000110: cf02 cfbd 6af5 ef3d 87d4 e3bd af13 59bd
00000120: dfaa e2bd ffc9 6f3f 9a93 ae3b b824 c43e
00000130: 927e 643e ee94 4fbe 4600 133f 970b a23e
00000140: 7444 cd3c c655 9e3c 29a1 783e ee02 8c3e
00000150: 4a45 4abe 821b 0fbe 2a9f 9a3f 597d 69bb
00000160: 4427 a4bc 9827 643f 6232 1c3e 023d f6be
00000170: e8bb 0e3d cdbd ad3f 4f87 c33f fa7a 2ebe
00000180: 0a4a 003f cde8 383d 4d53 923f 0c48 943e
00000190: 9e83 973f 96f7 723e 8a6b 913e 19ab 3bbe
000001a0: 01b9 2c3f 11c5 883f 49b9 42be 72a5 0140
000001b0: 7f37 013e 3429 2b3f f358 093f 39e4 293e
000001c0: 54e7 393f c331 3bbe a9a0 1640 1244 533f
000001d0: 83f1 843f f25f 9b3f 5127 753e a195 373e
000001e0: ad31 2d3d 99f3 8abd ae9d 8b3e 78ca 26bf
000001f0: fd35 ad3f 9f2a c63e 43a3 3bbe b88f 993f
00000200: 551c 84be 3107 033e 675f b2bd 1f90 813f
00000210: a3ad cebc 15f2 7d3e 4f3d 0e3f 7227 4b3f
00000220: c0fa 7e3f 3d12 5f3f f96c 103f 8993 943e
00000230: ad08 a73d eec7 8d3e db9b 15be b6f2 16bf
00000240: 001e eb3d f7a6 6f3f 4141 e23e 971d 81bd
00000250: a793 31bf cbb4 cbbd
-0.07783716 0.05046396 -0.060424875 -0.17882212 0.38263455 0.14185858 0.31393263 -0.13128676
0.6544687 0.047231764 0.34443247 -0.6554559 0.026743218 0.98906565 0.63747233 0.3249748
-0.0700028 1.1178033 0.83799267 -0.05261136 -0.062173408 0.1459124 0.07714142 -0.5428208
-0.033661786 -0.2749193 0.15257372 0.088789634 1.7293621 -0.08974341 -0.11205844 0.42459852
0.8671103 0.34801635 -0.018251432 0.31440032 0.3500211 -0.008676519 -0.051395424 0.64678174
-0.3563228 0.7401601 0.18087856 0.41714776 -0.14365634 0.6862401 0.012029645 0.7504755
0.19900472 0.3518459 0.24195 0.6369249 0.6865506 0.10305856 0.8927831 -0.032180775
0.12761465 0.7696402 0.45526335 0.0859678 -0.014485346 0.6913873 -0.13636556 0.99287707
0.30271167 0.78191787 0.13377395 -0.16647604 -0.101079576 0.11716731 -0.11124521 -0.052997287
-0.11067747 0.93667597 0.005327654 0.38309264 0.22313908 -0.20271656 0.5742229 0.31649467
0.025057055 0.01932801 0.24280228 0.27345985 -0.19752994 -0.13975337 1.2079823 -0.0035627692
-0.020038255 0.89122915 0.15253595 -0.4809342 0.03484717 1.3573548 1.5275668 -0.170391
0.50112975 0.04514389 1.1431671 0.28961217 1.1837041 0.23727259 0.28402358 -0.18326987
0.67469794 1.068514 -0.19015993 2.025723 0.12618826 0.66859746 0.5365135 0.16590966
0.72618604 -0.18280701 2.353556 0.8252574 1.0386204 1.2138655 0.2394078 0.17928173
0.042283703 -0.06784744 0.27268738 -0.6515269 1.3532101 0.38704392 -0.18323998 1.1996984
-0.25802866 0.12795712 -0.08709603 1.0122107 -0.02522928 0.24799378 0.555623 0.79357064
0.99601364 0.87137204 0.5641628 0.2901881 0.08155952 0.27691597 -0.14610235 -0.589641
0.114803314 0.93614143 0.4419041 -0.06304472 -0.69365925 -0.09946593

batchnorm.bias f4 [150]
00000000: b3f2 243f aeee 8a3f b10a 523f f351 7a3f
00000010: 0dad 423f e400 f63e 784e 593f 9090 593f
00000020: e1e3 9ebf 16e3 403f 0f95 423f 62de a93f
00000030: 16af 613f 9d76 293f 5f85 343f 0f7c 723f
00000040: c225 793f afaf 80bf 23d8 d53e 34f8 733f
00000050: f348 163f 9ee4 3f3f 4785 4abf c444 273f
00000060: 456b 4c3f 5551 5e3f 044a 59bf 6951 703f
00000070: 01e1 1c3f 7adf 563f 9ad5 423f 4537 75bf
00000080: a263 27bf b4f7 83bd 5dc1 203f 2919 503f
00000090: a486 2b3f 1575 5d3f f756 543f 822b 53bf
000000a0: e904 803f f3f5 253f 441d 843f 6b90 493f
000000b0: f62d 3d3f 8c3d ed3e abbe 4d3f a678 7d3f
000000c0: d20f 4b3f 816a 653f 5ecf 41bf a5de 343f
000000d0: 83c2 333f ae0f 333f e465 b63e c336 2f3f
000000e0: 72bf 9b3f f9fa 403f 80e7 633f f9bf 3b3f
000000f0: 404e c13e ddc3 0f3f fe38 453f dec1 99be
00000100: ec58 493f 46c9 4f3f 8883 603f cfad 713f
00000110: 13d4 0e3f e040 3b3f 149b 2d3f 0ba6 6f3f
00000120: cb72 373f 78e9 f43e 44b0 16bf 2a16 8abf
00000130: 43ae 433f c6f5 233f 591b ee3e ad68 7a3f
00000140: 93a2 1d3f 5803 303f 1ce8 1ebf a185 883f
00000150: 0d00 233f 9d14 683f c1b6 8fbf 6797 bd3e
00000160: c1f9 8a3f a79d 603f bda6 273f f854 9c3f
00000170: 50ea 4f3f c29b 893e 80f4 a9bf 8268 383f
00000180: 6705 1e3f bd4e 5ebf f9bf 12bf cf46 153f
00000190: ca13 67bf ff29 a23e 1eb1 8a3f bfef 233f
000001a0: 6584 8c3e 4956 203f 39f1 033f be95 a13e
000001b0: c384 713e 880c 83bf 9bf6 273f 0e98 c43e
000001c0: 626f 2c3f 0ac9 e13e 06e8 90bd dfb8 8cbf
000001d0: 9a2a ab3e b8c2 983c ef3b 4d3f 3e9d 473f
000001e0: df1c b63e c1c4 d23e 2bc3 183f 1670 dd3e
000001f0: 449a 3d3f 1506 ac3e 410c 5f3f 4a53 0b3f
00000200: 1068 663f 8684 543f 18e7 563f 5095 113f
00000210: 99b2 363f 5cbf 6a3f d0c0 49bf 7da6 e33e
00000220: 5b6b a23e 1826 9d3d 4c11 65bf 19e3 6f3f
00000230: 62c1 223f cc5f 263e 575a 713f fc84 7abf
00000240: 6f74 06bf a76a 073f 58e9 4a3f d7b1 303f
00000250: 5030 103f f726 0abf
0.6443283 1.0854089 0.82047564 0.97781295 0.76045305 0.48047554 0.8488536 0.8498621
-1.2413293 0.75346506 0.76008695 1.3270991 0.88157785 0.66196615 0.7051601 0.9472055
0.9732324 -1.0053614 0.41766462 0.953006 0.5870506 0.7495822 -0.79109615 0.65339303
0.7985118 0.8684285 -0.84878564 0.9387422 0.6128083 0.8393475 0.7610718 -0.9578746
-0.653864 -0.0644373 0.6279505 0.8128839 0.6700232 0.8650678 0.829452 -0.8248826
1.0001498 0.64828414 1.0321431 0.7873599 0.73898256 0.4633602 0.8036906 0.9901222
0.79321015 0.8961564 -0.7570704 0.7065223 0.70218676 0.699458 0.3562461 0.68442935
1.21678 0.75382954 0.89025116 0.733398 0.37755013 0.5615824 0.7704009 -0.3003072
0.7865131 0.81166494 0.877007 0.94405836 0.5579235 0.73145866 0.67814755 0.93612736
0.71659535 0.47834373 -0.5886271 -1.0788014 0.7643778 0.64046896 0.4650524 0.9781597
0.61576194 0.687551 -0.6207292 1.066578 0.6367195 0.90656453 -1.1227647 0.37029573
1.0857469 0.8774056 0.654888 1.221343 0.8121691 0.26876646 -1.327774 0.72034466
0.61726993 -0.86838895 -0.5732418 0.5831117 -0.9026457 0.31672665 1.0835302 0.640377
0.2744476 0.6263166 0.5153995 0.31559557 0.23585801 -1.0238199 0.65610665 0.3839726
0.67357457 0.44098693 -0.07075505 -1.0993918 0.3343094 0.018647537 0.80169576 0.7797431
0.35568902 0.41165736 0.596728 0.43249577 0.74063516 0.3359839 0.8712807 0.54423964
0.90002537 0.83014715 0.8394637 0.5686846 0.7136627 0.9169824 -0.78809834 0.44462958
0.3172253 0.076732814 -0.8947952 0.937059 0.6357633 0.16247481 0.9427847 -0.9785917
-0.52521414 0.52897114 0.79262304 0.6902136 0.5632372 -0.53965706

batchnorm.running_mean f4 [150]
00000000: 35b9 40bf 8438 753f e8d1 75bf aacb 44bf
00000010: d5d4 77bf f0b2 3cbf fb85 0ebc a689 e23c
00000020: 518e 443f 1681 94bd abe0 d3bb 6ec5 3bbf
00000030: e1d5 74bf f2f9 703f 687b debb af5c 01bc
00000040: b9f2 323b 864f 483e d204 3cbe 4ef4 343d
00000050: 5165 74bf 1528 b4bb 3d68 9abc a2d9 2c3f
00000060: 41e7 41bf c5c6 c93c cbf8 6c3f 38a9 32bb
00000070: a73f f23e 8456 4cbf 0461 12bc 4460 e0bb
00000080: 5f23 4b3f caac a53b 5186 9b3a b913 ddbc
00000090: cf31 333f aa10 8a37 dc85 8f3b 22ca 6e3f
000000a0: d5ff 34b2 6ba7 02bd f5fb 11bd 984d dbbb
000000b0: b70e d63d 5005 2bba 1a61 38bf 604c 553f
000000c0: b436 a2b8 bf87 763f 29d1 98be 1011 703f
000000d0: 19ec 66bd 31ce 6f3f 8109 bcbe 5753 76bf
000000e0: fc29 733f 6a88 59bd d606 553f 739e 17bf
000000f0: f67f 753b c17e 3d3f add4 913b 0adb d53e
00000100: ce18 e9bc d14b 85bd bb7c bcbc 63c6 6fbf
00000110: bbc6 74bf 2344 77bf 70af 70bf 01ea 1f3a
00000120: 745f a73b 9e81 a0be 0676 c9bb 2903 133f
00000130: a9d8 833c 35c4 07bf d26f 13bf 9eb6 10bd
00000140: 5bd9 823c b986 43bf 4d23 1f3f 0c87 2bbb
00000150: bb90 eb3a e617 6c3b 7db4 a8be 8634 76bf
00000160: 56ae 2039 7716 533e 276c 3f3f c09f 1cbc
00000170: cd4b 62bb 6397 9cbe 84c5 963e 3a17 6bbf
00000180: d4b7 0a3c 36d3 77b8 d13b 723f e7cb 77bf
00000190: c222 513f 7d4e 073a ef61 0cbe efa1 0130
000001a0: c1dc db3d ed04 edbb 87a0 2e3f 4259 e73e
000001b0: 3e6a c9ba 2d2c 263e a8dc f0be 9744 3dbd
000001c0: 7024 9fbe 1d7a 65bf c1e9 5f3f 4923 73bf
000001d0: efa2 8d3d 39a2 02bf 7195 353f dd72 94b9
000001e0: fcf0 0a3d 7669 77bf 8cce 77bf 2fcc c9bb
000001f0: 47a0 50be d756 78bf 3546 77bf 8204 1e3f
00000200: 42b7 eb3d 9b7b 373b f81b 183b 24a4 be3e
00000210: ef98 71bf a14f 5d3f 13e1 603c 78ac 223f
00000220: 33b7 27be 0ee7 db3e f4cf 81ba d649 403f
00000230: c220 0ebc 6df0 3cbf 1098 6dbf 538c 25b9
00000240: 6a7d 07bf f0d9 9bbe 9156 26be fc82 75bf
00000250: f6fb 253e 1d2b a035
-0.75282604 0.9578936 -0.96023417 -0.76873267 -0.9680913 -0.73710537 -0.008698936 0.027653527
0.7677966 -0.07251184 -0.0064659915 -0.7334813 -0.95638853 0.94131386 -0.0067896135 -0.007895633
0.0027305319 0.19561586 -0.18361214 0.0441783 -0.95467097 -0.005497942 -0.018848533 0.6751958
-0.7574349 0.024630914 0.9256713 -0.0027261507 0.47314188 -0.7981951 -0.008934263 -0.0068474133
0.79350847 0.0050559985 0.0011865591 -0.026986944 0.69997877 1.6458642e-05 0.004379971 0.9327718
-1.0535548e-08 -0.031897943 -0.035640676 -0.0066925995 0.104520254 -0.0006523924 -0.72023165 0.83319664
-7.734951e-05 0.9630088 -0.29847077 0.93776035 -0.056377504 0.93674 -0.36726 -0.96220917
0.9498594 -0.05310861 0.83213556 -0.5922615 0.0037460304 0.74021536 0.0044504018 0.41768676
-0.02845421 -0.065086015 -0.023008695 -0.9366209 -0.9561574 -0.96588343 -0.94017696 0.0006100238
0.0051078144 -0.3134889 -0.0061481027 0.57426697 0.016094523 -0.53033763 -0.575925 -0.035330407
0.015972784 -0.76377445 0.6216324 -0.0026173024 0.001797221 0.0036024987 -0.32950202 -0.96173894
0.00015323734 0.20614038 0.747744 -0.009559572 -0.0034530044 -0.3058425 0.29447567 -0.91832316
0.00846668 -5.9086095e-05 0.9462252 -0.96795505 0.8169366 0.0005161537 -0.13709234 4.716005e-10
0.10735465 -0.007233253 0.68213695 0.45185286 -0.0015366746 0.16227789 -0.47043347 -0.04620799
-0.31082487 -0.89639455 0.87466055 -0.94975716 0.06915843 -0.5102878 0.70931154 -0.0002831434
0.033921227 -0.96645296 -0.9679954 -0.006158374 -0.20373641 -0.9700751 -0.965915 0.6172563
0.11509563 0.0027997259 0.002321003 0.37234604 -0.94373983 0.8644963 0.013725537 0.63544416
-0.16378479 0.42949718 -0.0009903894 0.75112665 -0.008674802 -0.7380436 -0.92810154 -0.00015787901
-0.5292574 -0.3043971 -0.1624396 -0.9590299 0.16209397 1.1933477e-06
